mlruns/528961946943719398/models/m-b5ecc34f9dd74e98b98656f30fe82d02/artifacts/data/model.pth (torch, 243374 bytes, 17 tensors)

weight f4 [124]
000000 6d 23 79 3f 8d aa 82 3f f7 9e 7f 3f cb 95 76 3f
       0.9731968 1.0208298 0.99851936 0.96322316
000010 ce 45 82 3f 33 57 82 3f 3b f9 71 3f b7 ec 85 3f
       1.0177553 1.0182861 0.9452092 1.0462865
000020 69 77 80 3f 8c bb 78 3f 4c ac 83 3f 5a 3f 86 3f
       1.0036441 0.97161174 1.0286956 1.0488083
000030 e9 35 79 3f c4 88 7f 3f ba b9 7b 3f a5 42 7a 3f
       0.97347885 0.9981806 0.9833027 0.9775794
000040 3c 02 76 3f 71 36 80 3f 12 bd 7b 3f 50 0f 81 3f
       0.9609716 1.0016614 0.98335373 1.0082798
000050 ae 74 83 3f 10 01 7b 3f 01 33 7d 3f ac a6 7c 3f
       1.0269983 0.98048496 0.9890595 0.9869182
000060 dd 76 77 3f 50 05 84 3f b9 df 7a 3f f7 1d 75 3f
       0.96665746 1.0314121 0.97997624 0.9574885
000070 79 e2 80 3f 5a 3a 80 3f ed 12 80 3f cc 62 83 3f
       1.0069114 1.0017807 1.0005776 1.0264525
000080 4e ac 86 3f c8 ec 88 3f d3 e3 87 3f 2a e8 7f 3f
       1.0521333 1.069726 1.0616401 0.9996363
000090 26 6a 7e 3f 56 f5 73 3f b4 33 78 3f d2 bf 7a 3f
       0.9938072 0.9529623 0.9695389 0.97948945
0000a0 4a d8 72 3f 9d ae 84 3f 40 25 80 3f 5f 77 7b 3f
       0.9486128 1.0365788 1.0011368 0.9822902
0000b0 1e b7 82 3f 5e a3 81 3f 90 5d 86 3f 3c 96 75 3f
       1.0212133 1.0127981 1.0497303 0.95932364
0000c0 31 44 7c 3f 01 d4 88 3f 45 e7 73 3f 0a f0 7a 3f
       0.9854155 1.0689698 0.95274764 0.9802252
0000d0 59 34 7d 3f 6a 88 7e 3f f2 29 6f 3f c0 68 77 3f
       0.98908 0.994269 0.9342338 0.9664421
0000e0 3c 4a 80 3f 95 fd 82 3f 36 9b 7a 3f 6c 70 77 3f
       1.0022655 1.0233637 0.97893083 0.9665592
0000f0 ef 6c 77 3f 6e 3e 7c 3f 9c 31 82 3f 46 92 87 3f
       0.96650594 0.9853276 1.017139 1.0591514
000100 81 2a 78 3f 2d b2 7a 3f fd 8b 75 3f b3 3b 87 3f
       0.96939856 0.97928125 0.9591673 1.0565094
000110 04 76 7c 3f 48 e0 73 3f a8 2c 7c 3f 47 39 7d 3f
       0.9861758 0.952641 0.9850564 0.98915523
000120 2c f2 7d 3f 7d 70 80 3f b9 2d 77 3f ea ce 7a 3f
       0.9919765 1.0034329 0.9655414 0.97971976
000130 c4 1b 80 3f e1 6e 74 3f b5 66 7f 3f dc 9f 75 3f
       1.0008473 0.9548169 0.99766093 0.9594705
000140 04 31 7f 3f 21 27 7c 3f a1 a0 74 3f a4 71 85 3f
       0.99684167 0.98497206 0.955576 1.0425305
000150 8e db 82 3f 8b e8 7d 3f bb cc 7b 3f a7 a0 75 3f
       1.0223253 0.9918296 0.9835927 0.9594826
000160 8c 2e 80 3f c1 db 7b 3f 9f 81 7c 3f c4 ae 7f 3f
       1.0014205 0.9838219 0.98635286 0.99876046
000170 f0 a3 85 3f 8d 1d 86 3f cf cf 83 3f b1 0b 7c 3f
       1.0440655 1.0477768 1.0297793 0.9845534
000180 cb 90 74 3f ac fd 7c 3f 26 e6 79 3f ca a1 73 3f
       0.95533437 0.9882457 0.97616804 0.95168746
000190 1e 85 85 3f a0 14 74 3f 73 97 71 3f 38 00 80 3f
       1.0431249 0.9534397 0.9437172 1.0000067
0001a0 37 46 80 3f 37 ed 7f 3f 71 23 7c 3f 1a 5f 7f 3f
       1.0021428 0.99971336 0.9849158 0.9975449
0001b0 28 65 7d 3f 62 94 81 3f 14 1d 81 3f 85 20 83 3f
       0.9898248 1.0123408 1.0086999 1.0244299
0001c0 ae 29 78 3f 52 35 7b 3f 6f cf 82 3f 86 4e 81 3f
       0.969386 0.98128235 1.0219554 1.0102088
0001d0 d0 58 78 3f 8e 1a 8b 3f 6a 49 7a 3f 33 22 86 3f
       0.9701052 1.0867479 0.9776827 1.0479187
0001e0 d0 e4 78 3f 55 51 80 3f 0f 2a 81 3f 94 5e 89 3f
       0.9722414 1.002482 1.009096 1.0731988

bias f4 [124]
000000 0e ec 8a 3c 02 9d 28 bd ec 2f fb 3c 3c e8 f3 bb
       0.016958263 -0.04116536 0.0306625 -0.007443456
000010 fd 00 94 bc 71 00 3e 3b 79 16 7e 3d 65 3e b8 3b
       -0.018066877 0.0028991962 0.06203315 0.0056226724
000020 43 06 d1 3c cf ed 60 bc 58 8b 8d 3b fa a9 e7 bc
       0.025515681 -0.013728573 0.0043195896 -0.028279293
000030 21 b5 9f 3c 88 89 a1 ba 68 b8 34 3b dd 2a 6d 3a
       0.019495549 -0.0012324313 0.0027575735 0.00090472196
000040 3b 15 4e 3c 0d 94 26 bc fe 9c ad 3c ae a0 f1 3b
       0.012578304 -0.010167134 0.021193024 0.007373891
000050 e1 13 ad 3b 5d 4b 36 3d 19 3d 32 3d b0 1a 1a 3d
       0.0052819108 0.044505466 0.0435153 0.037623107
000060 82 cb 33 bd 07 59 9a 3c 87 99 6c 3c 06 b1 84 bc
       -0.043895252 0.01884128 0.014440901 -0.016197693
000070 2a 10 af 3c 8e 57 05 3d 0e 9d fa 3c ab f2 f0 bc
       0.021370012 0.0325542 0.030592468 -0.029412588
000080 bc 1e c9 bb fc 56 d9 3b b0 92 b1 3c e2 42 c5 bc
       -0.006137697 0.006632684 0.021676391 -0.024079744
000090 c9 a2 b3 3c 14 87 18 bc b1 7f 49 3c 28 49 50 bc
       0.021928208 -0.009309549 0.01229851 -0.012712754
0000a0 eb 3a 5e 3d 7a ed bc bc 92 87 2b bc be a0 92 bc
       0.054255407 -0.023062456 -0.010469334 -0.017898913
0000b0 eb aa dc ba 87 aa df 3b 26 f6 ae 39 6c 4e 73 bb
       -0.0016835605 0.0068257484 0.0003337126 -0.00371256
0000c0 25 00 f7 bc 13 f5 95 bc 44 e0 eb 3a 96 d9 6c bc
       -0.030151436 -0.018305337 0.0017995914 -0.014456173
0000d0 7e 64 10 bd 3c 45 19 bd f1 94 9a 3c ef 0a 15 3d
       -0.035252087 -0.037419543 0.018869849 0.03638738
0000e0 6a df 89 bb 46 9b e1 3b 2a fe 21 bd 6e f4 24 bd
       -0.0042075412 0.006884965 -0.03954903 -0.04027217
0000f0 fc d1 f1 3c eb fe d3 3b a1 8e 36 bc 6a 15 87 bb
       0.029519074 0.0064695976 -0.011142404 -0.004122426
000100 7f bc cf bc 89 dd ab bb 34 a5 01 bc b1 a5 44 bd
       -0.025358437 -0.005244915 -0.007912923 -0.04800958
000110 23 d8 d8 3b df 3c b2 ba 2a 2a d2 ba 17 95 a0 bc
       0.0066175624 -0.0013598463 -0.0016034294 -0.019602342
000120 c4 d8 46 bc 60 cd c2 3c d0 bb 11 3c 54 a4 3b 3c
       -0.012136642 0.023779571 0.008894876 0.011452753
000130 19 ee 07 bd a6 c7 b6 bc 2f cd 79 3c c0 fa bd bc
       -0.033186052 -0.022311997 0.0152466735 -0.023190856
000140 79 c7 24 3d 94 fb c5 bc b7 4d 60 bd cf 35 1c bd
       0.040229294 -0.024167813 -0.054761615 -0.038137253
000150 dc d6 52 3c 77 8f 69 3c fa 3a c0 bc ac 82 62 3c
       0.012868609 0.014255396 -0.023465622 0.0138251
000160 d9 d4 ee bc 6a ec bb ba 8b fb cd bc 62 90 10 3b
       -0.029154228 -0.0014337425 -0.02514436 0.0022058715
000170 ec 2a f3 3b b8 32 66 bc ce 07 41 bc 76 b8 85 3a
       0.007420888 -0.014050178 -0.011781646 0.0010202068
000180 a3 a4 bc 3c 45 a5 87 3c a5 85 50 3b 34 7d 17 3c
       0.023027724 0.016558299 0.003181794 0.009246159
000190 fc 23 d6 bc ad b0 b6 bc fb 9d 87 3c c2 d6 06 bc
       -0.026140206 -0.022301042 0.016554823 -0.008229913
0001a0 6f 0b ff bb 0a b6 eb bb 06 82 e0 3a f0 90 2a ba
       -0.0077833454 -0.0071933316 0.0017128594 -0.0006506583
0001b0 3e 3a 5d 3d 4e 49 72 bb ba 77 d9 bc f9 e0 2f 3d
       0.054010622 -0.0036969963 -0.026546348 0.04293916
0001c0 be 2c b6 bc 66 0b bf bb 74 b5 0f 3d 6a ca 28 3c
       -0.022238132 -0.005830216 0.035085157 0.0103021655
0001d0 73 61 c5 3c 74 27 18 bb e6 9f 3f 3d 19 2a 3f 3d
       0.024094319 -0.0023216875 0.04678335 0.046671007
0001e0 ea 7d b7 38 df d6 38 3c d1 67 46 3c e7 ed 04 bd
       8.749573e-05 0.011281698 0.012109713 -0.032453444

running_mean f4 [124]
000000 2b 95 8b 42 d9 37 26 46 fa 05 c4 40 7b 01 b3 40
       69.79134 10637.962 6.1257296 5.5939307
000010 f5 60 cc 42 6f 2d 59 40 9d 9f 45 40 82 b2 5f 40
       102.18937 3.393398 3.087867 3.4952703
000020 8f 10 3c 40 a5 38 d0 3f b8 be df 43 64 62 37 42
       2.9385107 1.6267287 447.49 45.846085
000030 ec b7 0d 44 ea d1 83 40 e3 9a de 3d d0 d9 91 44
       566.8738 4.1193743 0.10869386 1166.8066
000040 9f 82 af 43 cf 02 be 40 7a 78 be 44 6f 38 d9 3e
       351.02048 5.937843 1523.7649 0.42425868
000050 76 75 70 3d b0 67 c9 3f b2 b8 c2 3e 8a de 38 40
       0.05870577 1.5734768 0.38031536 2.8885827
000060 5b 03 86 3f 99 34 60 40 25 e3 d1 40 56 7a 21 3e
       1.0469774 3.5032103 6.5589776 0.15769324
000070 c8 bc 1e 3f 7e 18 ec 3f ef be dc 3f e8 20 e4 3f
       0.6200681 1.8444974 1.7245768 1.7822542
000080 51 23 ee 43 dd c3 34 40 09 95 34 40 f0 7d 16 3e
       476.2759 2.8244545 2.8215964 0.14696479
000090 ce 49 c0 42 ba bb 46 42 fc 64 ad 41 f6 d8 6c 40
       96.14415 49.683327 21.674309 3.7007422
0000a0 df cc 74 41 05 62 2e 40 40 9a 8b 3c 38 f8 4c 42
       15.300017 2.7247326 0.017041326 51.2424
0000b0 20 ad 1c 42 42 aa c9 41 96 d5 fb 41 c6 43 fe 41
       39.169067 25.208134 31.47929 31.783092
0000c0 cf 43 43 40 9b 1c 9d 3f 5e 06 b7 3d 2e db d9 3e
       3.0510137 1.2274355 0.08936761 0.42550033
0000d0 cd f4 2c 3e 62 50 34 3f 8a de 3f 3e b9 7b 95 3d
       0.16890259 0.70435154 0.18737236 0.07298989
0000e0 93 76 1c 3d de 8a 76 3d fb 7d 0a 3d 3c af a9 3c
       0.03819902 0.060191028 0.03381155 0.020713441
0000f0 0a a6 bc 3d 5e b7 9e 3c ef 02 ea 3d 3b 1c 74 3f
       0.09211357 0.019374546 0.11426341 0.95355576
000100 22 77 72 3e 09 dc b2 3d b3 cd b6 3d ed a6 24 3d
       0.23678258 0.087333746 0.08925953 0.040198255
000110 13 86 b8 3e fe 6e 1a 3e 42 40 26 3e 4e f3 26 3e
       0.3603979 0.15081403 0.1623545 0.16303751
000120 a8 98 d3 3d 8c c1 1d 3d 08 73 0b 3d 4e 54 06 3d
       0.10331851 0.03851466 0.03404525 0.032795243
000130 41 f6 86 3c c2 73 c3 3c 3c 56 89 3c 61 05 87 3c
       0.016474845 0.023858909 0.016764753 0.016482057
000140 d9 e9 49 3f bd 9e 19 3e 01 b2 25 3d 28 fa 8a 3c
       0.7887245 0.1500196 0.04045296 0.016964987
000150 18 76 c7 3d 01 db 1e 3d 42 eb 94 3d 71 18 67 3d
       0.097393215 0.038783077 0.07271434 0.056419794
000160 c2 1b b4 3c 4f 92 07 3c ca 5f 0b 3d 43 2e 1b 3e
       0.021985892 0.008274629 0.0340269 0.15154366
000170 76 d0 69 3d 99 40 e4 3c ef fa 58 3d bf 05 a2 3d
       0.05708357 0.027862834 0.052973684 0.07911252
000180 26 c6 e3 3c a7 aa 98 3c 18 fc 4b 3d 87 bc 17 3d
       0.027804445 0.01863606 0.049800962 0.037045028
000190 28 40 6c 3d 05 9c 92 3c 33 38 c9 3c ff 29 81 3c
       0.05767837 0.017896662 0.02456293 0.015767096
0001a0 87 fd 18 3f f6 6a bb 3d f1 e2 dd 3e 29 99 da 3b
       0.5976185 0.091512606 0.43337205 0.00667109
0001b0 1b 9f e2 3e d5 f3 89 3c e9 b0 cb 3c 85 9c 6d 3f
       0.44262013 0.016839901 0.02486463 0.92816955
0001c0 b2 eb 7e 3d b1 57 88 3e ef 9f 59 3d c1 73 ce 3c
       0.062236495 0.26629403 0.05313104 0.02520168
0001d0 10 7e 28 3d 1f fb a5 3d 3b df 9f 3c 5f 19 5e 3f
       0.041135848 0.08104538 0.019515624 0.86757463
0001e0 a9 6f 76 3c 38 ff 53 3f ea 1c 1e 3c 98 87 a7 3d
       0.01504127 0.8281131 0.009650448 0.08180159

running_var f4 [124]
000000 c7 d7 f4 43 60 2d d0 4c dc e5 ee 3f 79 bc a0 3f
       489.68576 1.0914483e+08 1.8663898 1.2557517
000010 d5 b4 e2 46 12 4a aa 3e 12 21 05 3e 77 89 40 3f
       29018.416 0.33259636 0.13000897 0.75209755
000020 5a 4a 95 3e b1 f9 8f 3f 64 dc 4a 48 a1 5e c6 46
       0.29158288 1.1248075 207729.56 25391.314
000030 07 5a 3e 48 92 bd 6e 3f e2 64 1b 3e 04 1e 11 48
       194920.11 0.9325801 0.15175202 148600.06
000040 15 9b 3a 48 76 01 15 45 9d 13 85 48 f8 ff 89 3e
       191084.33 2384.0913 272540.9 0.269531
000050 3c f2 6b 3d 35 fd 97 3e 63 a1 7f 3e 21 18 29 3f
       0.05760406 0.2968537 0.24963908 0.6605244
000060 5e 06 50 3d 24 6f e0 3e 71 f2 27 40 8b 8d da 3e
       0.050787322 0.43834794 2.6241724 0.42686114
000070 c0 a5 d6 3e 8c 96 52 40 f0 2e 4d 3f fc 07 0c 3f
       0.41923332 3.2904387 0.80149746 0.54699683
000080 2a ae 2c 47 9b e3 01 3f 99 e7 ff 3e 35 89 80 3e
       44206.164 0.50737923 0.49981382 0.2510468
000090 00 78 83 46 7c 10 97 45 dd 3d 6d 45 d8 1c 70 44
       16828.0 4834.0605 3795.8665 960.4507
0000a0 b0 93 41 45 85 79 c8 44 1c 20 8d 3d 17 18 8c 48
       3097.2305 1603.7975 0.0689089 286912.72
0000b0 b1 26 6c 44 09 7d d8 43 4e fb 11 44 e9 b6 77 43
       944.60455 432.97684 583.92664 247.7145
0000c0 d4 4f 2f 40 ee db 1c 3f a6 94 07 3e 29 8c b2 3e
       2.7392473 0.61273086 0.13240299 0.3487256
0000d0 53 c8 92 3e 6b 60 55 3e 04 ed 1b 3e 0d da 8a 3d
       0.2866846 0.20837562 0.15227133 0.06779871
0000e0 ad 87 2e 3d 67 6a 91 3d fc fc 05 3d e1 8d a6 3c
       0.04260986 0.07100373 0.032711968 0.020331325
0000f0 54 3b ab 3d 28 0a 9c 3c 0a 90 43 3e f1 95 6c 3d
       0.08360925 0.019047812 0.19097915 0.057760183
000100 25 30 89 3e a6 5a 22 3e f7 cb a6 3d 81 3d 1e 3d
       0.26794544 0.15854892 0.08144372 0.038632873
000110 ca 4b 6c 3e 4f 26 03 3e ce 9f 0b 3e 59 bc 0b 3e
       0.23075786 0.12807582 0.1363518 0.13646068
000120 50 de bd 3d 0b c3 17 3d 39 d2 06 3d be f7 01 3d
       0.09270918 0.03705124 0.032915328 0.031730406
000130 a7 e4 84 3c 47 48 bf 3c 02 43 87 3c d2 26 85 3c
       0.016222311 0.023349894 0.016511444 0.016253863
000140 f0 fd 2a 3e b2 96 02 3e 2e 9d 1e 3d d3 d4 88 3c
       0.16698432 0.12752798 0.038724117 0.016703045
000150 c5 71 b4 3d 97 09 19 3d 76 5e 8a 3d 3a bc 5a 3d
       0.08810762 0.03736266 0.06756298 0.053402163
000160 b6 5b b0 3c 59 7d 06 3c d7 c9 06 3d fc da 03 3e
       0.021528106 0.008208596 0.032907333 0.12876505
000170 26 a8 5c 3d c8 31 de 3c b5 0c 4e 3d 8e 35 95 3d
       0.053871296 0.027123347 0.050305087 0.07285605
000180 f3 ab dd 3c 05 e4 95 3c a0 68 42 3d 8a 51 12 3d
       0.02705953 0.018297205 0.04746306 0.035722293
000190 a6 df 5e 3d 3e 22 90 3c 7b ba c4 3c 77 60 7e 3c
       0.054412507 0.017594453 0.024014702 0.015525929
0001a0 cb 36 76 3e 80 92 aa 3d a4 c4 7b 3e 2d 2e d9 3b
       0.2404434 0.08328724 0.24586731 0.006627819
0001b0 9d 37 7d 3e 33 ae 87 3c 47 13 c7 3c a8 94 88 3d
       0.24728246 0.016562557 0.024301184 0.06668979
0001c0 82 16 6f 3d 3e 6c 48 3e 7e 68 4e 3d 12 80 c9 3c
       0.058371074 0.19572541 0.05039262 0.024597201
0001d0 87 95 21 3d c3 71 98 3d 52 ed 9c 3c 4e 03 eb 3d
       0.03944924 0.07443573 0.019156132 0.1147524
0001e0 8f ff 72 3c 99 9e 11 3e 02 cf 1c 3c 52 b4 99 3d
       0.014831438 0.14220656 0.009570839 0.075050965

weight f4 [249, 124]
000000 8d aa f6 bb f0 cf 5a bd 67 3d b8 3d a0 c8 75 3d
       -0.0075276555 -0.05342096 0.089960866 0.060005784
000010 dd e0 3f bb 06 f5 cb 3d 50 d4 02 bd 34 11 6f bc
       -0.0029278316 0.09958844 -0.03194076 -0.014591504
000020 28 3e b1 3d 9a 06 d4 bd dd 73 b1 3d 55 89 66 3d
       0.086544335 -0.10352822 0.08664677 0.056283314
000030 bb 02 64 bd 13 df f5 3c d5 89 7d bd 9a ec 67 3d
       -0.055666666 0.030013597 -0.061899025 0.056622125
000040 a0 1f 3c 3d 64 c8 76 bd 23 8a 8f bc a3 53 5b 3d
       0.045928597 -0.0602497 -0.017521923 0.05354656
000050 c8 49 97 bd 48 c9 65 bd 94 6e 73 3d b5 99 0f 3d
       -0.073871195 -0.05610016 0.059431627 0.035058696
000060 40 fa b9 bd 30 c6 d5 bc 0f ae 2c bd eb ea a6 bd
       -0.090809345 -0.02609548 -0.042158183 -0.08150276
000070 69 ad 44 3c fb 50 5d 3d 69 6c 75 bd a4 13 eb 3d
       0.012004235 0.054032307 -0.05991784 0.114783555
000080 a5 c2 ce 3d 56 42 1c 3d 6f a0 96 bd c2 f5 91 bc
       0.10095719 0.0381492 -0.07354819 -0.017817382
000090 8f b5 a4 3d 39 02 68 3d 24 60 93 3d b8 e7 ba 3d
       0.08042442 0.056642745 0.07196072 0.09126228
0000a0 f9 6f 3d 3d c0 87 3e bd ea 1e 1a 3d 89 94 c4 bd
       0.046249364 -0.04651618 0.03762714 -0.09598643
0000b0 3f 46 39 bc 23 be af 3b 1a a9 cd bd 77 ae c7 bd
       -0.011308252 0.0053632422 -0.10042019 -0.097500734
0000c0 e1 c2 4d ba 84 ab 42 bd 16 bd 3b 3d bd ed 24 3d
       -0.00078491686 -0.04752685 0.045834623 0.040265787
0000d0 47 c3 a2 bc f1 0b b8 3d 61 76 d8 3c 67 70 e5 bb
       -0.019868506 0.08986653 0.026423635 -0.007001925
0000e0 f9 02 a8 3b 2c 24 e5 bd ec a5 95 bc ab 5a 36 3d
       0.0051273075 -0.1118854 -0.018267594 0.04452006
0000f0 87 9e bb bc 10 1f 3d 3d 3d ed 62 3d fa 3a 97 bc
       -0.02290274 0.0461722 0.05540203 -0.01846074
000100 59 f9 fb bc ac 50 a4 bd f1 6e 97 3d fb bf b3 3d
       -0.030758547 -0.080231994 0.07394207 0.08776852
000110 0b 93 c9 3d 3b 99 15 3d de 92 ab 3c 7d 81 7d ba
       0.09842499 0.036523085 0.020944055 -0.00096704793
000120 4d 29 34 3d d7 93 a3 3c b2 88 7d 3d 2a db 7a 3d
       0.0439847 0.019967956 0.06189794 0.061244167
000130 c5 1f 45 bc ff 5f 70 3d e1 f2 9e bd e0 3d 98 3d
       -0.0120315 0.0586853 -0.07761169 0.07433677
000140 fd ed 4e bd 08 d9 42 bc 15 57 da bc 8b 02 64 bc
       -0.050519932 -0.011892565 -0.026652852 -0.013916622
000150 b9 5c 8e bd 16 f8 4e 3d 93 ba 84 bd ac 0a 43 3b
       -0.06951279 0.050529562 -0.06480899 0.0029761
000160 cf b0 e8 3b 7b 21 ae 3d 8c ad 43 3c e6 6e 83 bd
       0.0071011554 0.0850248 0.011943232 -0.064176366
000170 27 41 a3 bd 8d 72 92 bd 74 66 03 3e 0a a3 9b bc
       -0.07971411 -0.07150755 0.12832052 -0.018998642
000180 4c bd e9 bc 60 a6 60 bc 95 8b 9c bc 9b 53 9c bd
       -0.028532647 -0.013711542 -0.019109527 -0.07633134
000190 bf 17 9a 3c 62 48 64 3c ee fd 36 3d 70 34 bd 3c
       0.018810151 0.013933273 0.04467576 0.023096293
0001a0 27 17 9a bd 8d 78 29 3c 80 a9 de 3c 73 2e 51 bd
       -0.07523947 0.010343683 0.027180433 -0.051069688
0001b0 07 47 45 3d 36 8b a3 3d f4 f0 65 3d 14 24 53 bd
       0.04816344 0.07985537 0.056137994 -0.05154808
0001c0 70 27 ba bd 40 35 58 bc 95 a4 06 3d 28 d0 23 3d
       -0.09089553 -0.01319629 0.0328718 0.039993435
0001d0 b0 78 16 bd ab 33 3c bd cd 4a 88 3d 46 b9 5d bb
       -0.03673619 -0.045947712 0.06654892 -0.0033832355
0001e0 16 68 7d 3d dc 2c a5 bc 59 23 a6 bd e9 f6 08 3d
       0.061866842 -0.020162992 -0.08112211 0.033438597
0001f0 cf 64 94 bd 24 e7 6f bd f3 c5 4e bd ba 27 ff 3c
       -0.0724579 -0.058570042 -0.050481748 0.031146873
000200 1f a7 dc 3c 2c 3e 45 bd 15 01 52 bd 63 94 7c 3c
       0.026935158 -0.048154995 -0.051270563 0.0154162375
000210 37 18 ea bb 65 e6 7a 3b 59 14 89 3d 16 bf 36 3d
       -0.007144 0.0038284298 0.06693334 0.044615828
000220 31 5f 15 3d cf d9 53 3d 0e 92 1f 3d d4 c3 ab bc
       0.036467735 0.05172139 0.038957648 -0.020967402
000230 eb 78 87 bd af f2 b0 3d ba 9e 94 3b fd 5e 04 3d
       -0.0661486 0.08640038 0.0045355232 0.03231715
000240 b7 17 c3 3d 9d ec d4 bd b5 70 49 bd 7c a8 0b 3d
       0.095260076 -0.10396693 -0.04917975 0.034096226
000250 80 d5 86 3d e0 46 97 bd cd d7 0b 3c 9d 8a 33 bd
       0.06583691 -0.07386565 0.008535338 -0.043833364
000260 57 c8 6b bd 06 9a 55 3d 0e 58 51 bd 1c 39 7b 3c
       -0.057564106 0.05214884 -0.051109366 0.01533344
000270 06 c2 0c 3c 90 96 d8 3c 43 58 8a bd fa f0 88 bd
       0.008591181 0.026438981 -0.06755116 -0.06686588
000280 e9 da 80 bc 6f ff 03 bd 92 c5 9e 3d 13 3d cb bd
       -0.015729384 -0.032226022 0.07752527 -0.09923758
000290 73 27 8d bd 6b e1 c3 bc 59 f5 00 3c f0 78 d2 3d
       -0.0689229 -0.023911199 0.007870995 0.10276973
0002a0 f9 b8 c8 3c 7c 1f 52 3c 7f 75 86 3b 5a 25 98 bd
       0.024502264 0.012824889 0.004103362 -0.07428999
0002b0 e0 a0 81 3d 0e 5a 2f bc 5c cd 9c bd 1a 87 a3 3d
       0.063295126 -0.010702623 -0.07656357 0.07984753
0002c0 32 ff 4e 3d da 42 a2 bd cb a7 5e bc 29 81 7c 3c
       0.050536342 -0.07922907 -0.01358981 0.015411654
0002d0 ec 86 94 39 81 51 98 3d 84 1e cf bc 56 4c 6e bc
       0.00028329284 0.07437421 -0.025283106 -0.014544567
0002e0 73 63 ac bc 17 87 78 bd 0e d8 2a 3d 35 30 7a 3d
       -0.021043515 -0.060675707 0.041709952 0.06108113
0002f0 07 86 de bd 98 8b 9f 3b a6 45 6d bd c5 34 a9 3d
       -0.108654074 0.004868936 -0.05792775 0.08262018
000300 eb 0b 2b bc fe 58 99 bc 65 4e 18 3d c6 2f 8e 3c
       -0.010439853 -0.018719193 0.037184138 0.017356765
000310 25 f0 8a 3d 3f 0b 61 bd 3e ca ae bc 63 f3 83 bd
       0.06784085 -0.054942366 -0.021336671 -0.06442907
000320 ee d4 93 bd 5e ce 9a 3d 94 6c df 3d 3b 16 88 3d
       -0.072183475 0.07558893 0.109093815 0.06644865
000330 a2 c3 73 bd 2e 98 28 bd 91 7a 8b bd ff 76 81 3d
       -0.059512742 -0.041160755 -0.06810487 0.06321525
000340 72 fb 87 bd b2 64 5e 3c 99 d1 35 bd 10 5e 81 3d
       -0.06639756 0.013573812 -0.04438934 0.06316769
000350 73 90 08 3d c7 5f 56 3d 53 41 62 bd be 89 8d bd
       0.033340883 0.052337434 -0.05523808 -0.06911038
000360 5b 5a d4 3d 6f 9d 2c 3d d8 75 8e bd 02 39 96 3d
       0.103687964 0.042142328 -0.06956071 0.07335092
000370 74 56 3d 3d ab 82 42 3d 9f 38 2f bd fd 48 95 bd
       0.046225026 0.047487896 -0.042778607 -0.07289312
000380 70 1a f3 bd 0b 27 0f 3b c2 d1 10 3d 26 a2 f5 3c
       -0.11870277 0.002184334 0.03535629 0.029984545
000390 5e b3 1a bd 14 4d 87 3c d8 f8 e8 bc 00 46 0e 3d
       -0.037768714 0.016516246 -0.02843897 0.034734726
0003a0 50 33 09 3d 09 30 8d bd f2 f5 b7 3d 62 14 41 bd
       0.0334962 -0.068939276 0.08982457 -0.04713858
0003b0 3d 9e 71 3d 17 a1 3d 3c ae 42 6c bc 6f 5b 40 3b
       0.0589888 0.011574051 -0.014420195 0.0029351374
0003c0 bf 6c b8 3d 9c 3e 2e bc e8 62 8b 3d c2 81 95 bc
       0.09005117 -0.010635044 0.06805974 -0.01825035
0003d0 6b 70 d4 bc 3a db 9b 3d 3a fb 62 3b af 6a ce bb
       -0.025932511 0.076101735 0.0034634606 -0.006299339
0003e0 23 f6 2c 3d a8 11 97 3c 8e 0f 41 bd 40 ed 20 bd
       0.04222692 0.018441036 -0.047133975 -0.03928876
0003f0 9f ba 1e bc 3b 26 2a bd 69 d6 51 bd 0d 71 2f bc
       -0.009688049 -0.041540366 -0.051229868 -0.010708106

bias f4 [249]
000000 ce 33 b8 3d 0e b1 99 3c 7e 40 be 3c ae 8d 09 3d
       0.08994256 0.018761184 0.023224112 0.033582382
000010 88 98 12 bc cb dc 23 bd 97 8c 5d 3d a0 27 3c 3d
       -0.008947499 -0.040005486 0.054089155 0.045936227
000020 72 82 b2 3d 19 c6 19 3d 25 6c 0d 3d 00 92 18 bd
       0.08716287 0.037542436 0.034526963 -0.03724861
000030 63 25 fa bd d9 ee 47 bd 99 ce 3f bc f5 f2 9c bd
       -0.12214162 -0.048811767 -0.011706972 -0.07663528
000040 c8 d8 c6 3c 77 d8 a6 3d 6e 6a 90 3d 5c fd 2f bd
       0.024273291 0.08146756 0.0705155 -0.04296623
000050 1a 1a aa bc 5c d3 35 3c c8 79 92 bd 71 23 15 bd
       -0.0207644 0.011097755 -0.07152134 -0.036410753
000060 d8 8f 99 3c f2 7b 08 3a ed 13 43 3d 83 2c cf bd
       0.018745348 0.00052064576 0.047626425 -0.10115912
000070 dc b8 5d bc 12 fa 6e bd 93 47 ca bc 50 f0 be 3d
       -0.013532843 -0.058343954 -0.024692332 0.0932318
000080 14 bc c6 bd c8 3e 81 bd be c0 bc bb e8 05 77 3d
       -0.09703842 -0.06310803 -0.0057602813 0.060308367
000090 d5 e1 0e 3d e5 34 bc bc 8d 5b 3e bc 45 8b 90 3d
       0.03488334 -0.02297444 -0.011618507 0.070578136
0000a0 d9 db dd bc d8 04 4f 3d eb 1d 3c bd 96 10 84 bb
       -0.02708237 0.05054173 -0.04592697 -0.0040302975
0000b0 c8 e9 a6 3d e6 40 84 bd b3 55 93 bc 2b 0b c2 bd
       0.08150059 -0.06457691 -0.0179852 -0.09474786
0000c0 7b 84 e1 3c 8c d7 92 bd 31 b6 bf bd 97 e3 24 3d
       0.027528992 -0.071700186 -0.09360922 0.04025611
0000d0 ba bf a0 3d fa 30 1f bd 3e 9e 74 bd a6 03 be 3d
       0.07849069 -0.038865067 -0.059721224 0.0927804
0000e0 d0 02 36 3d 66 b0 8c bd d1 89 d8 bd 0e e6 46 bd
       0.044436276 -0.06869583 -0.105731614 -0.04855924
0000f0 05 31 26 3d c1 e0 1c bc f7 66 67 bd 3c bf 8c bc
       0.040574092 -0.00957507 -0.05649468 -0.017181031
000100 9a d1 10 3d 5d bd 3e bd 1b 65 ad 3d e2 36 4d ba
       0.03535614 -0.04656731 0.0846655 -0.00078283076
000110 1e 84 a9 bd 81 3b 37 3d a5 7e ad bd 40 94 aa bb
       -0.082771525 0.04473448 -0.08471421 -0.005205661
000120 3f df b0 bd 1e 96 61 bd 74 6d 53 bd 6e b9 05 3d
       -0.08636331 -0.055074804 -0.051618055 0.032647543
000130 7d be 05 bd bc 32 ab 3c e9 54 58 3c 5f 82 cf bc
       -0.032652367 0.020898215 0.013203838 -0.02533072
000140 72 a4 a7 bd 13 9c 98 bd f9 53 bf bd bd 69 6c 3d
       -0.08185662 -0.07451644 -0.093421884 0.057718027
000150 49 02 55 3c a6 65 15 3d 97 1d b3 3d 31 f5 d8 bc
       0.013001033 0.036473893 0.08745878 -0.026484104
000160 72 db b4 bd 88 03 fd bc 58 34 b5 bd ba 8c 96 bd
       -0.08830918 -0.030885473 -0.088478744 -0.0735106
000170 e1 45 66 bd 94 cf a8 bd 43 d0 92 bc ce 15 6d 3c
       -0.056218985 -0.082427174 -0.017921573 0.014470531
000180 cc f5 a4 bb ca fd 58 3c 33 5f e3 bc bf 57 71 3d
       -0.005034184 0.013244102 -0.027755355 0.05892157
000190 bc 70 a9 3d 4d 21 02 bd 07 86 2c 3d 6a b5 4c 3d
       0.082734555 -0.03177004 0.042120006 0.049977697
0001a0 57 d5 07 3b fb 13 03 3c b5 12 6d 3d 5c e2 2e 3d
       0.0020726526 0.008000369 0.05787917 0.042696342
0001b0 7a 44 91 3b ed 07 96 bd 09 32 94 bc 63 52 d5 bd
       0.004433212 -0.073257305 -0.018090265 -0.10416105
0001c0 18 1e 2e 3d d4 e6 b8 bd dd e3 5a bc cc f2 97 bd
       0.04250917 -0.09028402 -0.013359991 -0.07419357
0001d0 db 91 08 3d d3 fe 73 3d 28 1f fc 3c db 84 ee 3c
       0.033342224 0.05956919 0.030776575 0.029116085
0001e0 8e 06 44 bd 25 11 81 bc 9e 77 15 bd 34 10 ee b9
       -0.047857814 -0.015755245 -0.03649103 -0.0004540697
0001f0 63 32 6c bc d8 e1 2e bd cd a0 82 bd 00 14 11 bd
       -0.01441631 -0.04269585 -0.063783266 -0.035419464
000200 31 a9 41 bb be e4 5f bb 70 20 c6 3c 8e d7 a6 3d
       -0.0029550309 -0.003416344 0.02418539 0.081465825
000210 b8 e1 a2 39 28 7c 92 bd 31 8a 7b bd fd 55 bd bd
       0.0003106722 -0.07152587 -0.061411086 -0.092449166
000220 76 b4 44 bd 54 a9 9f 3c 39 89 c2 ba 89 e4 93 bd
       -0.048023663 0.019489922 -0.0014841921 -0.07221324
000230 c1 70 a1 3c 99 99 32 3d b3 be e7 bd bb 72 62 3d
       0.019707086 0.043603513 -0.1131567 0.055285197
000240 09 44 13 bd a4 3b d5 bd 82 42 a5 3b a4 e2 67 3d
       -0.035953555 -0.10411766 0.0050433287 0.056612626
000250 37 d9 71 bc 84 2c 87 bd d1 d8 88 3c 0b 1b 8f bd
       -0.014761261 -0.066002876 0.016704949 -0.0698758
000260 50 9c 12 bd 0a 06 8e 3c f2 0a 86 bd 90 80 c6 bd
       -0.035793602 0.017336864 -0.065450564 -0.0969249
000270 72 3f a2 bd 15 97 17 bc fc e3 a4 bd a5 a6 82 bd
       -0.079222575 -0.009252329 -0.08051297 -0.06379441
000280 4d d3 49 3d 3a 72 a3 bc 66 b8 c8 bb 22 20 1d bd
       0.049273778 -0.019951928 -0.0061254976 -0.038360722
000290 23 f3 6a 3d f9 e4 92 bd 90 19 e1 bd 12 c1 6f 3d
       0.05736078 -0.07172579 -0.10991204 0.058533736
0002a0 dd 44 73 bd 88 f7 05 bd 2b 8d 62 bd cc c0 fd 3d
       -0.059391845 -0.032706767 -0.05531041 0.12390289
0002b0 b5 e4 fa bd 1b bd 35 3c 0d 0a b8 3c 65 bf 0c bd
       -0.12250654 0.01109245 0.02246573 -0.034362216
0002c0 6c 2a 87 3d 36 11 42 3d 8d fd 98 3c 8f cb b1 3d
       0.06599888 0.047379695 0.01867559 0.08681404
0002d0 db 0e 0c 3d 59 e5 c2 3d 4f 83 a3 bd 9c a7 92 3d
       0.034193855 0.09516401 -0.079840295 0.07160875
0002e0 39 27 06 bd 91 ec 03 bd 81 08 5e 3d 1f 1d c8 bd
       -0.03275225 -0.03220803 0.05420733 -0.097711794
0002f0 84 dc 2b bb 5b b8 8c bd 59 fd d3 bd e4 90 b3 bd
       -0.0026223967 -0.068711005 -0.103510566 -0.0876787
000300 de d9 83 3d 66 23 8b bd e6 51 46 bb 92 e5 02 3c
       0.06438039 -0.06793861 -0.0030261218 0.007989304
000310 00 45 fd bd 6a 74 99 3d fc e3 ac 3d 76 0a 9f 3c
       -0.12366676 0.07492907 0.08441922 0.019414168
000320 15 20 1e 3d 78 e3 e2 bd cc 67 d9 bd a7 11 2b bd
       0.038604815 -0.110785425 -0.10615501 -0.04176488
000330 c1 88 11 3d 23 20 1a 3c 06 b8 a2 bd 39 c3 ae bd
       0.03553081 0.009407076 -0.07945256 -0.085333295
000340 e9 ec 89 bc 0c 32 a0 bc dd cd e5 bc 15 24 dd 3c
       -0.0168366 -0.019555114 -0.028052265 0.026994744
000350 dd cf bf 3c 95 bd 8e 3d ba 85 11 bc 52 1b f4 bc
       0.023414547 0.06969754 -0.008881981 -0.029798184
000360 30 72 fa 3d aa f9 d3 3c 49 5a 19 bc ab 76 0a 3c
       0.12228811 0.025875885 -0.009359905 0.008451144
000370 f9 e6 71 bd cd 21 b0 3c d7 92 94 3d d7 1d f2 bd
       -0.059058163 0.021500492 0.0725457 -0.11822098
000380 a5 d2 60 bc 8d 7c d1 3c 92 bb 20 3d 9c 4f 35 bc
       -0.013722097 0.025572086 0.03924138 -0.011066344
000390 ad 47 72 bd 90 70 bf bc a1 0d 17 3d 14 47 e4 bb
       -0.059150387 -0.023369104 0.036878232 -0.006966481
0003a0 b6 50 55 bd be 0a 7e bd ea 20 ac bd 0d 20 97 bd
       -0.052078925 -0.062021963 -0.08404715 -0.0737916
0003b0 16 0f e5 bd a2 0e 0c bd 34 2e 86 bd 48 47 00 bd
       -0.11184518 -0.034193642 -0.06551781 -0.03131798
0003c0 5a 91 7a 3c e6 b3 74 bd aa ed 05 bb b2 06 5a 3d
       0.015293444 -0.059741877 -0.0020435848 0.05322904
0003d0 20 2b 63 bd dd e6 51 3d 82 e0 a8 3d 68 c2 46 3d
       -0.05546105 0.05124556 0.082459465 0.048525244
0003e0 fd 27 28 bd
       -0.04105376

weight f4 [249]
000000 21 e1 79 3f d1 95 7d 3f 6e c6 72 3f 48 ae 7f 3f
       0.97609144 0.99056727 0.9483403 0.9987531
000010 e7 88 77 3f 90 16 80 3f 1e a4 81 3f 84 4c 7f 3f
       0.9669327 1.0006886 1.012821 0.9972613
000020 4e b0 77 3f 1f f6 83 3f f9 24 76 3f 1c cc 73 3f
       0.96753395 1.0309485 0.96150166 0.9523332
000030 f9 0e 80 3f 9b 97 75 3f 20 c8 75 3f 82 56 76 3f
       1.0004569 0.95934457 0.9600849 0.9622575
000040 c2 f0 79 3f 8c 12 7f 3f c9 e8 75 3f 10 0a 7a 3f
       0.9763299 0.99637675 0.96058327 0.97671604
000050 82 f7 7d 3f 9b f7 7e 3f 56 a9 82 3f 6c 49 7a 3f
       0.9920579 0.99596566 1.0207927 0.9776828
000060 01 c4 79 3f 7d 06 7d 3f a6 cc 78 3f 4b c5 81 3f
       0.97564703 0.98838025 0.9718727 1.0138334
000070 19 ec 7a 3f 28 0b 6d 3f 20 6b 72 3f 5e 87 72 3f
       0.98016506 0.9259515 0.9469471 0.94737804
000080 7c 94 78 3f d3 48 78 3f 10 f1 80 3f 34 16 81 3f
       0.9710157 0.9698612 1.0073566 1.0084901
000090 ba 4a 76 3f f0 b0 71 3f c1 8f 76 3f ab c3 82 3f
       0.96207774 0.9441061 0.963131 1.0215963
0000a0 88 e9 7a 3f 87 5a 73 3f 57 b0 74 3f a1 e5 80 3f
       0.9801259 0.9506001 0.95581573 1.0070077
0000b0 e4 93 70 3f 39 2c 77 3f 47 3c 76 3f de 7a 7b 3f
       0.93975663 0.96551853 0.96185726 0.98234355
0000c0 46 62 74 3f 0e b6 7e 3f 46 2c 82 3f d9 6b 7e 3f
       0.95462453 0.99496543 1.0169761 0.9938331
0000d0 5d 46 7e 3f 3f a4 78 3f 2d fa 7a 3f 2b 57 7f 3f
       0.99326116 0.9712562 0.9803799 0.9974238
0000e0 55 98 84 3f 71 fe 73 3f 95 b0 6b 3f b8 c0 7d 3f
       1.0358988 0.9531012 0.9206632 0.9912219
0000f0 15 ae 7d 3f 76 81 7e 3f 9a e4 7b 3f fb a1 75 3f
       0.99093753 0.9941629 0.98395693 0.9595029
000100 8d 93 75 3f 87 5f 83 3f 05 6c 7b 3f fe 7e 76 3f
       0.9592827 1.0263528 0.982117 0.96287525
000110 66 17 74 3f fc 9e 76 3f 1b 0b 78 3f 7c 09 6f 3f
       0.95348203 0.9633634 0.96891946 0.93373847
000120 6b cf 7e 3f 0d 88 74 3f 11 6f 7c 3f d3 f5 7e 3f
       0.99535245 0.95520097 0.98606974 0.9959385
000130 43 1a 81 3f c5 25 76 3f 7e b0 78 3f b7 df 79 3f
       1.008614 0.9615138 0.97144306 0.97606987
000140 bf 71 7a 3f 87 90 6e 3f 1f ab 70 3f 55 cc 76 3f
       0.9782981 0.9318928 0.9401111 0.96405536
000150 8b 63 79 3f 03 21 73 3f 88 17 7e 3f b7 68 73 3f
       0.97417516 0.94972247 0.99254656 0.9508166
000160 87 cc 74 3f 12 55 79 3f af 5e 81 3f ea d8 78 3f
       0.95624584 0.9739543 1.010702 0.97205985
000170 6e fc 7d 3f dd 00 7e 3f 58 21 73 3f 98 11 80 3f
       0.992133 0.9922007 0.94972754 1.0005369
000180 76 d5 77 3f ac f9 7b 3f 3e c6 74 3f 7f e2 7d 3f
       0.9681009 0.98427844 0.95614994 0.9917373
000190 ba 60 74 3f 4f cf 77 3f a6 b3 76 3f 48 50 7c 3f
       0.95460093 0.968007 0.9636787 0.9856
0001a0 9a cb 71 3f a8 c2 78 3f b7 73 78 3f cc a6 7a 3f
       0.94451296 0.9717202 0.97051567 0.9791076
0001b0 d4 af 7d 3f 2a 74 73 3f 6d 3f 81 3f c7 6c 82 3f
       0.9909642 0.9509913 1.0097481 1.0189446
0001c0 db 7e 81 3f 17 fa 76 3f 5f a4 83 3f c0 bf 80 3f
       1.0116838 0.96475357 1.0284537 1.0058517
0001d0 4c 90 75 3f 7f 51 75 3f 78 d5 78 3f bf 27 7a 3f
       0.95923305 0.9582748 0.9720073 0.977169
0001e0 49 5f 77 3f bc ab 74 3f 09 22 7d 3f e0 a1 77 3f
       0.9662977 0.95574546 0.9888006 0.96731377
0001f0 06 b4 71 3f 1a 71 72 3f 25 33 7a 3f 31 ef 70 3f
       0.9441532 0.9470383 0.9773429 0.9411498
000200 2b 25 79 3f 5f c9 71 3f 4e 61 7a 3f d7 8b 78 3f
       0.9732234 0.9444789 0.97804725 0.9708838
000210 75 be 7d 3f c4 15 7f 3f 2f 3c 7b 3f 9e 87 78 3f
       0.9911874 0.99642587 0.9813871 0.97081935
000220 ad 8a 74 3f 5e 59 71 3f de 8f 75 3f 2b 3e 77 3f
       0.955241 0.9427699 0.9592265 0.96579236
000230 f3 ad 80 3f 8d 25 79 3f 96 10 7c 3f 24 52 70 3f
       1.0053085 0.9732292 0.9846281 0.93875337
000240 33 27 73 3f ff 1f 79 3f a2 46 76 3f 34 06 78 3f
       0.9498169 0.9731445 0.9620153 0.96884465
000250 5f c9 6e 3f 07 00 78 3f aa c3 81 3f 72 1c 74 3f
       0.9327602 0.9687504 1.0137837 0.95355904
000260 bf 52 70 3f 87 d8 80 3f 10 c7 73 3f b9 5f 7e 3f
       0.9387626 1.0066079 0.9522562 0.9936481
000270 06 cd 72 3f 39 f6 6f 3f 41 73 7d 3f 1a 24 76 3f
       0.9484409 0.9373508 0.9900399 0.96148837
000280 7e bb 80 3f fc 9d 81 3f eb 54 79 3f ba ef 7f 3f
       1.0057218 1.0126338 0.973952 0.9997517
000290 af 92 82 3f f9 75 71 3f 92 c3 82 3f 02 b0 80 3f
       1.0201014 0.94320637 1.0215933 1.0053713
0002a0 c5 78 7f 3f d7 53 80 3f 8d 57 73 3f ed e6 76 3f
       0.99793655 1.0025586 0.95055467 0.96446115
0002b0 48 13 6f 3f 16 ef 7b 3f f1 d7 79 3f 9d 9f 6a 3f
       0.93388796 0.9841169 0.97595125 0.916498
0002c0 62 bf 78 3f ee d5 77 3f f3 9a 72 3f 73 bd 72 3f
       0.97167027 0.96810806 0.94767684 0.94820327
0002d0 92 af 72 3f 01 a6 77 3f 12 61 7c 3f 7b c1 77 3f
       0.9479915 0.96737677 0.9858562 0.967796
0002e0 33 a0 82 3f 98 c8 7c 3f b4 6e 79 3f 85 ba 80 3f
       1.0205139 0.9874358 0.97434545 1.0056921
0002f0 e7 ad 76 3f b5 0a 83 3f 83 14 7b 3f 2e 17 77 3f
       0.96359104 1.0237643 0.98078173 0.96519744
000300 ae 1b 74 3f 06 71 7e 3f 3f e4 7f 3f f4 cf 71 3f
       0.95354736 0.9939121 0.9995765 0.94457936
000310 d2 36 7c 3f 8b 21 80 3f 63 d1 6b 3f 7a cb 7e 3f
       0.9852115 1.0010237 0.92116374 0.9952923
000320 42 1d 7f 3f be 3f 86 3f 6d 91 7c 3f 22 bd 7d 3f
       0.9965402 1.0488203 0.986594 0.9911672
000330 af 75 76 3f e7 a6 7a 3f df e7 81 3f 04 0f 7b 3f
       0.9627332 0.9791092 1.0148886 0.9806979
000340 6d d9 7d 3f f8 17 76 3f fd 96 82 3f 29 37 7e 3f
       0.9915989 0.96130323 1.0202328 0.9930292
000350 3a bc 77 3f 3a d5 7a 3f e5 df 83 3f b7 e8 85 3f
       0.96771586 0.9798161 1.0302702 1.0461644
000360 a3 65 7c 3f 05 c4 72 3f e2 2d 84 3f f9 4b 75 3f
       0.98592585 0.9483035 1.0326502 0.9581905
000370 9a c2 79 3f 27 94 77 3f 40 c0 75 3f 35 ba 70 3f
       0.97562563 0.9671044 0.95996475 0.9403413
000380 d9 92 7b 3f e6 42 7e 3f e2 90 7a 3f 28 43 6f 3f
       0.98270947 0.9932083 0.97877324 0.9346185
000390 b9 03 77 3f e9 ee 71 3f ca a0 7f 3f dc e5 82 3f
       0.96490055 0.9450517 0.9985472 1.0226398
0003a0 fe d1 7f 3f 39 57 81 3f 21 50 7a 3f 23 fc 77 3f
       0.999298 1.0104743 0.97778517 0.96869105
0003b0 1b da 82 3f bb 11 7a 3f 18 aa 79 3f 80 fe 7e 3f
       1.022281 0.97683305 0.9752517 0.99607086
0003c0 d9 1a 7f 3f 6c 08 78 3f ec d8 76 3f 96 23 78 3f
       0.9965034 0.9688785 0.96424747 0.969293
0003d0 58 14 81 3f 7c df 7b 3f c9 3a 70 3f b3 40 77 3f
       1.0084333 0.98387885 0.938397 0.965831
0003e0 64 73 7b 3f
       0.9822295

bias f4 [249]
000000 79 a3 16 ba 6d f3 54 bc c8 d5 bd 3b 18 4d 80 bd
       -0.0005746405 -0.01299749 0.005793307 -0.062647045
000010 80 49 34 bd d8 db cf 3b 42 5e a0 bc 6c 2e 83 bd
       -0.044015408 0.006343346 -0.019576196 -0.06405339
000020 4b 92 f7 3c a9 d7 01 bd 1f 27 22 bd 30 1d 4e 3d
       0.030221125 -0.03169981 -0.03958809 0.050320804
000030 fe 91 65 bd d7 f8 ce 3c a0 c5 9f bb f7 5d 2a bd
       -0.056047432 0.02526514 -0.0048758537 -0.041593518
000040 71 ff 8a 3b 29 77 48 bd e4 e1 40 bd 73 6a 54 3d
       0.004241877 -0.048941765 -0.047090426 0.05185933
000050 0e 6b d4 b9 9d b3 40 bc 09 35 3f bd 27 ca 19 bd
       -0.00040515553 -0.011761573 -0.046681438 -0.037546303
000060 fd 1c a8 bc 0d 90 95 3d 5d 26 15 bd c1 0e c7 bc
       -0.020521635 0.07302866 -0.03641354 -0.024299027
000070 fd 83 01 3d fe 3a 7c 3c 0f d0 b5 bc d1 04 82 bb
       0.031620014 0.015394924 -0.022193937 -0.0039678593
000080 30 58 da 39 f9 8b 34 3d f2 ef a1 bd 9c 9a 52 3c
       0.00041645905 0.0440788 -0.07907094 0.012854245
000090 52 63 c6 bb e2 40 09 3d 2d 53 dd 3c 1e 40 d9 ba
       -0.0060543204 0.033509143 0.0270172 -0.0016574895
0000a0 35 c9 83 3c 25 d0 50 bc 55 22 ba 3d b4 b4 0c bd
       0.016087154 -0.012744938 0.090885796 -0.03435202
0000b0 0d 56 80 3c 1e e1 f3 bc b1 22 22 3b 56 23 8e 3c
       0.015666032 -0.02977043 0.0024739916 0.017350834
0000c0 ca 01 13 bc ea fb 8a bc 17 30 c3 bc c7 46 d8 bc
       -0.0089725945 -0.016965825 -0.023826642 -0.026400937
0000d0 b2 d6 26 3d 36 cf c8 bb 29 b0 5c 3d 21 57 96 bd
       0.040732093 -0.006128217 0.053878937 -0.07340837
0000e0 00 de 9b bd 8c 2f 8c bb e3 d7 9b 3d 32 6a e5 3a
       -0.076107025 -0.004278129 0.076095365 0.0017502962
0000f0 8a dc 86 bd f2 61 a9 bd c9 f2 28 3b 68 b9 82 bb
       -0.06585033 -0.08270635 0.0025779477 -0.0039893873
000100 a5 37 4b bd 32 bf af bc 36 4c 62 bd a4 a5 0e bd
       -0.049613614 -0.021453474 -0.05524846 -0.034825936
000110 1c 96 19 bd 68 c7 e2 bb 29 c3 fa 3c 96 47 26 bb
       -0.03749667 -0.0069207437 0.030610638 -0.0025372258
000120 11 df 89 3c d3 88 2c bc 29 d3 93 bc 16 d3 fc bc
       0.01683 -0.010530668 -0.018045025 -0.030862372
000130 c5 83 d2 bd f7 85 d7 3b 9c d5 fc 3a ed 0b 12 3c
       -0.10279039 0.006577249 0.0019289735 0.008913976
000140 9f 25 8b bd 7f f7 e4 bb 47 b2 1d 3c aa 79 06 bd
       -0.06794285 -0.0069875116 0.009625024 -0.03283087
000150 25 76 2b bd a2 3c 83 3d 76 d6 25 bb 7e 7f d9 bc
       -0.04186072 0.06408049 -0.002530483 -0.02655005
000160 df 22 4c 3d a7 2c e9 bc f9 3a f8 bb c6 e2 f0 3c
       0.049837943 -0.028463675 -0.0075753895 0.029405009
000170 61 77 fa bb 0c ef f0 bb e2 69 15 3d 60 a0 e4 bc
       -0.0076436256 -0.0073527154 0.03647793 -0.027908504
000180 64 0a 68 3d b1 cb 09 bd 9e de 72 bd 08 4c c1 bc
       0.056650534 -0.03364152 -0.059294336 -0.023595825
000190 3f 95 3e bc 4b 00 c6 39 5f 01 11 3d 78 ad b9 3b
       -0.011632263 0.0003776572 0.0354017 0.005666431
0001a0 d4 7b cf bc cd 1f 9f 3d 5d 06 f8 3c 2d 7d 22 3b
       -0.0253276 0.077697374 0.030276472 0.002479385
0001b0 81 42 fd bc b8 55 84 bd 2d 5c 3c bd 09 3b 13 bd
       -0.0309155 -0.06461662 -0.045986343 -0.035944972
0001c0 f6 8a 36 bc 5d 50 ba ba 6c f3 96 bd 5e ea 10 bd
       -0.011141529 -0.0014214624 -0.07370648 -0.03537976
0001d0 5e d9 2b bc e8 da fa 3b 50 1a a4 bc a4 f1 46 bc
       -0.010488836 0.00765549 -0.020032078 -0.012142573
0001e0 f9 ec af bc 70 0f bc bc 9d 30 8c 3c e3 b1 87 bc
       -0.021475302 -0.02295658 0.017113024 -0.016564315
0001f0 ae d5 c0 bd c6 41 ab 3c 63 57 9c bc ed 7a a6 3d
       -0.09415756 0.020905387 -0.019084638 0.08128915
000200 f8 e3 90 bd ad 17 bd 3c 70 c1 74 3d db 13 18 3d
       -0.070747316 0.023082579 0.05975479 0.03712831
000210 7e 67 b9 bc 93 d4 72 bd 57 b6 46 bd 18 a2 d2 bc
       -0.022632357 -0.059284758 -0.048513737 -0.025712058
000220 f8 2f 68 bc 07 83 cf bc 70 0a b4 3a 2d ef 00 bd
       -0.014171593 -0.025331033 0.0013736021 -0.031478096
000230 ad ed 20 bc 31 28 0e bd ac 94 45 3c 3f 5e f8 bc
       -0.009822291 -0.0347063 0.012059372 -0.030318378
000240 d4 b5 c8 3c aa 19 cc 3d e3 b5 a7 bd aa 56 9a bd
       0.024500765 0.099658325 -0.08188989 -0.07536061
000250 5d 4c 67 3d 65 00 1a 3d 16 96 e1 bc 98 42 45 3c
       0.05646931 0.037598033 -0.027537387 0.012039803
000260 5a bd a1 bb 5e 54 18 bd 1a 76 60 3b e9 dc 6d 3b
       -0.0049359025 -0.037189834 0.0034250082 0.0036295003
000270 d2 de cc bc 63 6c 5d 3c 54 72 0e bd 23 e9 e4 bc
       -0.025008593 0.013514611 -0.034777 -0.0279432
000280 2f b2 c2 bc 78 29 c3 bc 81 7f 6c bc 25 c0 ae ba
       -0.023766605 -0.023823485 -0.014434696 -0.001333241
000290 dc 05 0f bc 36 9d bc bc 2c 50 3b bd dd 23 97 3c
       -0.008729424 -0.023024183 -0.045730755 0.018449718
0002a0 51 55 22 3d f6 51 0f bd bc 6f 04 bd 11 0e 13 3d
       0.039632145 -0.034990273 -0.03233312 0.035902087
0002b0 b5 c1 2a 3a 35 bd 88 bc f7 66 29 bd 87 13 63 bd
       0.000651385 -0.016691783 -0.04135796 -0.055438545
0002c0 4d e6 c6 ba 09 74 4f bd ea ae 3b bd 4d 6f b4 3c
       -0.0015174836 -0.05064777 -0.045821108 0.022025729
0002d0 ae 51 c8 3b cd 6c aa 3b ca c6 bf bd 8b 72 21 bd
       0.0061132526 0.0052009583 -0.09364088 -0.039415877
0002e0 f3 1f ac bc f7 87 c7 3d ec d9 8f bc eb 49 6d bc
       -0.021011328 0.0974273 -0.017559968 -0.014482955
0002f0 70 e2 83 3d 26 0f 84 bd be 5b d4 bd 1f a2 0d 3b
       0.06439674 -0.06448202 -0.10369061 0.0021611524
000300 28 85 bd bb b8 63 8d bc c7 63 3c bb e1 9d 89 bd
       -0.0057836957 -0.017259464 -0.0028745995 -0.06719566
000310 79 a0 9c bd 28 7c 33 bc 5a c6 f7 3c 6b dc 37 bb
       -0.07647795 -0.010954894 0.030245949 -0.0028054963
000320 7a 99 3f bd bd 42 d6 bd ce 14 32 bd 73 f6 ab bd
       -0.046777226 -0.10461948 -0.043476872 -0.08396616
000330 4b 58 21 3c b5 fe ba 3d 3a 1d 9e bd 6e 33 57 bc
       0.009847711 0.09130613 -0.07720418 -0.01313482
000340 ee e9 87 bc d7 87 13 bd 67 26 9e bd c8 d5 f4 bb
       -0.016591039 -0.03601822 -0.077221684 -0.007471774
000350 54 a1 06 bd 63 89 92 3c 21 f4 9e 3c 17 66 1e bd
       -0.0328687 0.017887777 0.01940352 -0.03867158
000360 bc 8f 02 bd 79 d6 2c bc ec e8 13 3d c3 8a a4 3c
       -0.031875357 -0.010549181 0.036110803 0.020085698
000370 56 cd 90 bd 30 cd ff 3c 4c 69 fb 3c e4 43 d9 3c
       -0.07070415 0.03122577 0.030689858 0.02652163
000380 79 fa 99 bd 36 d7 cc 3d c1 15 31 bd 92 83 4c bb
       -0.07518477 0.10001986 -0.043233637 -0.0031206352
000390 fc 77 cf bc ba 27 94 3c fd 1f 93 bd 57 78 52 bd
       -0.025325768 0.01808535 -0.07183836 -0.051384296
0003a0 8f b4 a0 bc 63 7d 3b bd 1b ba 9b bd 12 96 3d bd
       -0.019617347 -0.045773875 -0.07603856 -0.046285696
0003b0 9f b1 07 be 20 7f a5 bd f2 e2 71 3d e7 be c5 bb
       -0.13251351 -0.08080888 0.059054323 -0.00603472
0003c0 77 c1 24 bd ae 53 e2 3c 28 2c f4 bb 72 d7 33 3c
       -0.040223565 0.027627792 -0.007451553 0.010976659
0003d0 02 7b 17 bd 4a ad e7 bd d3 2d 0f bc 27 a0 40 3c
       -0.036982544 -0.11312349 -0.008738953 0.011756933
0003e0 00 76 b2 bc
       -0.021784782

running_mean f4 [249]
000000 2d 7b 62 3e 1e 6c 0b 3e ab 20 34 3e ee 38 7c 3e
       0.221173 0.13615462 0.17590587 0.24631092
000010 47 2c 01 3e e6 8b d1 3d 9a c9 18 3e 50 47 05 3e
       0.12614547 0.10231762 0.14920655 0.13015485
000020 4f f7 8b 3e 8f a3 66 3e 46 15 0d 3e 35 6a 17 3e
       0.2733712 0.2252333 0.13777646 0.14786609
000030 2e 30 72 3d df c0 c4 3d 07 6d 65 3e aa 32 00 3e
       0.05912798 0.096071 0.22404872 0.12519327
000040 f4 fb 47 3e 06 30 1a 3e 47 2e 5b 3e cb 89 48 3e
       0.19529706 0.15057382 0.21404372 0.19583814
000050 06 83 d3 3d fb 44 24 3e c9 50 2d 3e 92 d0 de 3d
       0.10327725 0.16041939 0.16925348 0.108796254
000060 e1 66 0e 3e 97 15 1c 3e ee 25 0a 3e 80 6a c0 3d
       0.13906433 0.15242611 0.13491032 0.09395313
000070 c4 b9 32 3e fe 2a 19 3e 94 83 fe 3d e3 f4 3e 3e
       0.17453676 0.14957806 0.1242744 0.18648104
000080 87 ff fa 3d 17 0d ac 3d 63 40 eb 3d 8a f1 27 3e
       0.12255769 0.08400934 0.1148689 0.16400734
000090 2d f8 13 3e e4 d7 df 3d 42 4f 00 3e 69 18 75 3e
       0.1445014 0.1092985 0.12530234 0.23935093
0000a0 fb 2e d9 3d e1 83 65 3e db 1d 2c 3e da bd 2a 3e
       0.10604664 0.22413589 0.16808264 0.16673985
0000b0 b1 59 2f 3e 40 43 38 3e 6e 81 0a 3e 5f 14 f2 3d
       0.17124058 0.17994404 0.13525936 0.11820292
0000c0 e9 cb 38 3e 42 59 62 3e 20 73 26 3e 7b d0 8a 3e
       0.18046536 0.22104362 0.16254854 0.27112183
0000d0 17 c7 a4 3e b4 1d 0d 3e fc 7f 00 3e e0 ec 6d 3e
       0.32183143 0.13780862 0.12548822 0.23234892
0000e0 3f 0a 66 3e 28 92 19 3e 37 82 b7 3d cb 43 fc 3d
       0.22464846 0.1499716 0.089603834 0.12317618
0000f0 5b 1e 62 3e b0 0c 32 3e 10 9c 59 3e 1d b6 19 3e
       0.22081892 0.17387652 0.2125094 0.15010877
000100 f4 5a 2c 3e 5a ec 5b 3e 99 cf 23 3e 70 37 0d 3e
       0.16831571 0.2147688 0.15997161 0.13790679
000110 1c cb 0b 3e 27 01 3d 3e 7e fe b0 3d ee c8 14 3e
       0.13651699 0.18457471 0.086422905 0.14529774
000120 a1 43 a9 3d 6c 12 cc 3d f6 2a 5b 3e 65 0b 01 3e
       0.08264852 0.09964451 0.21403107 0.12602003
000130 7c d4 2a 3e 52 1b fe 3d 38 57 1d 3e 11 39 f5 3d
       0.16682619 0.12407555 0.15365303 0.11973775
000140 96 46 07 3e 6b eb ae 3d 42 d8 67 3d 0b 13 85 3e
       0.1321052 0.08540996 0.056602724 0.2599109
000150 86 c9 25 3e 12 84 ed 3d 0c bc 90 3e bc d8 3a 3e
       0.16190156 0.11597456 0.28268468 0.1824674
000160 a0 c1 a5 3d 28 62 14 3e c2 e9 1f 3e de c4 87 3d
       0.08093572 0.14490569 0.15616515 0.06629346
000170 d2 9e 54 3e 2b 7d b0 3d b1 16 13 3e 51 ef f7 3d
       0.2076371 0.08617624 0.14364125 0.12106193
000180 9a eb 41 3e 43 8e f6 3d 66 7b f5 3d 2c ac 64 3e
       0.18937531 0.12038853 0.11986427 0.22331303
000190 87 58 2e 3e aa a2 3c 3e 1f 32 6e 3e b8 6d 2d 3e
       0.17025958 0.18421426 0.23261307 0.16936386
0001a0 7e f7 27 3e d0 ca 2e 3e e6 e5 12 3e 30 85 10 3e
       0.16403005 0.17069554 0.14345512 0.14113307
0001b0 fa d0 23 3e c6 5a 0c 3e 37 e3 35 3e 49 f2 ec 3d
       0.15997687 0.13706502 0.17762457 0.1156965
0001c0 7d 12 30 3e 6e ae 1c 3e 2c 6d 2c 3e 05 3f 2c 3e
       0.17194553 0.15300915 0.16838521 0.16820915
0001d0 be 70 2f 3e b0 85 2d 3e cb 9f 84 3e d0 c3 10 3e
       0.17132851 0.16945529 0.25903162 0.14137197
0001e0 ab 4f 86 3e ea c1 fc 3d 7c ae ad 3d e3 59 dd 3d
       0.26232657 0.12341674 0.08480546 0.1080816
0001f0 8a 39 05 3e 09 e4 17 3e c9 af dd 3d 2e bb f3 3d
       0.1301023 0.14833082 0.10824544 0.11900936
000200 19 81 2d 3e d5 36 2a 3e dd 5f 4f 3e 3e 2e 5a 3e
       0.16943778 0.1662248 0.20251413 0.21306702
000210 04 e9 1b 3e 69 e3 38 3e 04 a0 09 3e a7 ba 3e 3e
       0.15225607 0.180555 0.13439947 0.1862589
000220 0d 34 d4 3d 98 9b 0f 3e 0e b8 dc 3d c1 e8 a5 3d
       0.103614904 0.14024198 0.10777293 0.08101035
000230 c1 a9 d2 3d b3 85 51 3e 51 c6 3c 3e 87 26 1f 3e
       0.10286284 0.20461158 0.18435027 0.15542041
000240 c6 bc e3 3d 9d 40 ab 3d 90 32 10 3e c0 66 42 3e
       0.1111999 0.083619334 0.14081788 0.18984509
000250 d1 11 1c 3e 6b e1 f8 3d 92 a1 74 3e 57 18 ac 3d
       0.15241171 0.1215237 0.23889759 0.0840308
000260 ba fb f9 3d 89 1c 29 3e 80 7f 13 3e ca 11 e3 3d
       0.12206216 0.16514792 0.14404106 0.11087377
000270 2c 10 8c 3d 38 17 12 3e 09 59 09 3e 54 00 9f 3d
       0.06839022 0.1426667 0.1341287 0.077637345
000280 ec a9 32 3e 75 d9 01 3e 68 04 47 3e 68 30 09 3e
       0.17447633 0.1268061 0.19435275 0.13397372
000290 22 49 2b 3e 0c 88 23 3e 73 ba 2c 3e ea a5 4a 3e
       0.16727117 0.15969867 0.16868 0.19789854
0002a0 2d 9c 32 3e 46 64 f0 3d 00 32 f4 3d ea 6d 55 3e
       0.17442389 0.11737876 0.11923599 0.2084271
0002b0 49 54 a4 3d e6 67 39 3e df a4 39 3e e5 8f 0b 3e
       0.080238886 0.1810604 0.181293 0.1362911
0002c0 05 24 66 3e 50 f0 0d 3e a9 8a 17 3e af f4 64 3e
       0.22474678 0.13861203 0.14798988 0.22358964
0002d0 02 fa 1e 3e 6c 84 98 3e 75 f0 3c 3e 28 4d 68 3e
       0.15525058 0.2978853 0.18451102 0.22685683
0002e0 a5 c2 28 3e 52 67 16 3e bc 84 2a 3e 2f 57 04 3e
       0.16480501 0.14687851 0.16652197 0.12923883
0002f0 87 d6 42 3e e4 bd c0 3d 5a 28 0f 3e 28 66 af 3d
       0.19027148 0.09411219 0.13980237 0.08564407
000300 72 5b 39 3e 5f 7f 7c 3e bc 60 24 3e 8c ba e7 3d
       0.1810129 0.24657963 0.16052526 0.11314878
000310 e6 d8 5f 3d a6 03 61 3e 5b cc 45 3e 9c d9 5f 3e
       0.05465021 0.21974048 0.19316237 0.21860355
000320 09 b5 5f 3e 57 fc bc 3d d7 77 e9 3d a2 d1 0c 3e
       0.21846403 0.092278175 0.11399811 0.13751844
000330 be 44 51 3e 82 2d ce 3d 72 34 2b 3e 3a 2f fc 3d
       0.2043638 0.10067274 0.16719225 0.12313695
000340 48 53 ec 3d b2 a0 15 3e 17 bf 15 3e 46 ed 22 3e
       0.11539322 0.14612082 0.14623676 0.15910825
000350 67 83 f8 3d 25 2e 47 3e cc 1e 1c 3e e2 32 fb 3d
       0.12134438 0.19451196 0.15246123 0.122655645
000360 ad 6a 48 3e 3c 75 1a 3e 96 5c 4e 3e e0 fd 1f 3e
       0.19571944 0.15083784 0.20152506 0.1562419
000370 12 03 31 3e 1c 70 54 3e d0 3c 66 3e 2d 52 a9 3d
       0.17286327 0.20745891 0.22484136 0.08267627
000380 84 de 01 3e 12 97 1e 3e 37 a5 29 3e 8d 7c 09 3e
       0.12682539 0.15487316 0.1656693 0.13426419
000390 2e 9c ff 3d 4b 3a 19 3e fa d5 d8 3d 81 d9 30 3e
       0.12480961 0.14963643 0.10587688 0.17270471
0003a0 32 75 20 3e 43 20 bb 3d 54 f2 75 3e 28 6a f4 3d
       0.15669706 0.09137013 0.24018222 0.1193431
0003b0 ea f9 e5 3d c3 da 1b 3e 3d f1 eb 3d 00 e1 8d 3e
       0.11229308 0.1522017 0.11520622 0.27710724
0003c0 ca 25 12 3e 58 3e 20 3e 5e 1c 5a 3e 56 17 60 3e
       0.14272228 0.15648782 0.21299884 0.21883902
0003d0 43 59 fe 3d 27 b1 52 3e 92 8c 1b 3e 91 0d 5f 3e
       0.12419369 0.20575391 0.15190342 0.21782519
0003e0 a8 35 7d 3e
       0.247275
