mlruns/528961946943719398/models/m-f31673dd63fd4be8b415456e3f4278df/artifacts/data/model.pth (torch, 38737 bytes, 11 tensors)

weight f4 [124]
0.7553392 0.7556412 0.74928004 0.75343955 0.7517586 0.7558417 0.7529201 0.7537939
0.75251895 0.7585563 0.7486074 0.7509046 0.75549656 0.7516557 0.75276154 0.7517459
0.7526288 0.7577422 0.75765127 0.7561566 0.7499976 0.7527054 0.7528105 0.7538045
0.7629357 0.76606345 0.7534708 0.75394726 0.7489375 0.7494678 0.7648826 0.7532425
0.75793064 0.7554211 0.76436967 0.7537827 0.75172293 0.753009 0.75124395 0.7526418
0.7544243 0.77579737 0.76327455 0.75034535 0.75933444 0.7724863 0.7558018 0.74884784
0.75107986 0.752404 0.75577503 0.76660657 0.7576707 0.753486 0.75180876 0.75392646
0.75240856 0.7633173 0.75146 0.7521144 0.75109684 0.75933105 0.7568022 0.75400776
0.75112885 0.75743854 0.7540776 0.7526307 0.7602607 0.7516202 0.75574726 0.7591916
0.7521616 0.7532221 0.7511425 0.7508336 0.7517923 0.75287837 0.7571547 0.7524164
0.75330454 0.755306 0.76069224 0.7569091 0.7527782 0.75306094 0.7496175 0.75213116
0.755892 0.7572838 0.75112736 0.75119865 0.75099367 0.76074445 0.7543189 0.7610857
0.75022346 0.7579761 0.75642496 0.75250256 0.7539473 0.75913316 0.75336605 0.75218034
0.7521593 0.7531022 0.7527433 0.7553563 0.7520001 0.75962645 0.76103675 0.75392455
0.7521984 0.7497066 0.7579198 0.7535555 0.75336665 0.751668 0.7558951 0.75255275
0.7539697 0.7532537 0.7548997 0.7532378
00000000: e95d 413f b471 413f d1d0 3f3f 6ae1 403f
00000010: 4073 403f d77e 413f 5fbf 403f a3f8 403f
00000020: 15a5 403f bf30 423f bca4 3f3f 493b 403f
00000030: 3968 413f 826c 403f fbb4 403f 6b72 403f
00000040: 48ac 403f 65fb 413f 6ff5 413f 7b93 413f
00000050: d8ff 3f3f 4db1 403f 30b8 403f 55f9 403f
00000060: c14f 433f bc1c 443f 76e3 403f b002 413f
00000070: 5eba 3f3f 1fdd 3f3f 59cf 433f 80d4 403f
00000080: be07 423f 4763 413f bbad 433f e7f7 403f
00000090: ea70 403f 33c5 403f 8651 403f 22ad 403f
000000a0: f321 413f a89a 463f f665 433f a216 403f
000000b0: be63 423f aac1 453f 3a7c 413f 7eb4 3f3f
000000c0: c546 403f 8c9d 403f 797a 413f 5440 443f
000000d0: b5f6 413f 75e4 403f 8a76 403f 5301 413f
000000e0: d99d 403f c368 433f af5f 403f 928a 403f
000000f0: e247 403f 8563 423f cabd 413f a706 413f
00000100: fb49 403f 7ee7 413f 3b0b 413f 68ac 403f
00000110: 72a0 423f 2e6a 403f a778 413f 615a 423f
00000120: aa8d 403f 2ad3 403f e04a 403f a136 403f
00000130: 7675 403f a3bc 403f e4d4 413f 5c9e 403f
00000140: 91d8 403f bc5b 413f babc 423f cbc4 413f
00000150: 12b6 403f 9ac8 403f efe6 3f3f ab8b 403f
00000160: 2382 413f 5add 413f e249 403f 8e4e 403f
00000170: 1f41 403f 26c0 423f 0b1b 413f 83d6 423f
00000180: a50e 403f b90a 423f 11a5 413f 02a4 403f
00000190: b102 413f 8d56 423f 99dc 403f e48e 403f
000001a0: 838d 403f 4ecb 403f c9b3 403f 085f 413f
000001b0: 1483 403f e176 423f 4ed3 423f 3301 413f
000001c0: 1390 403f c6ec 3f3f 0807 423f 03e9 403f
000001d0: a3dc 403f 506d 403f 5782 413f 4ca7 403f
000001e0: 2904 413f 3cd5 403f 1b41 413f 31d4 403f

bias f4 [124]
0.010250848 -0.009651296 0.0051346207 0.014872458 0.0073413732 -0.009683001 0.014216249 0.022515744
0.025091257 -0.0044011804 -0.0027704719 -0.011492386 0.008459552 -0.015281933 -0.02972966 0.0048451303
-0.0067661 0.012261667 0.010283648 0.0033098382 -0.028313383 0.021231612 -0.018466666 -0.0026843685
-0.024777457 -0.027043335 0.004307767 -0.012815599 0.014994076 -0.0056568068 -0.001797572 0.0015548229
-0.0035975066 0.005633583 0.0049197096 -0.009952593 0.004758963 -0.0015656551 -0.017480206 0.013669067
-0.022338491 -0.015056873 -0.031122908 0.008573541 -0.014305478 -0.0055722604 -0.016552141 0.008396772
0.0053610993 -0.0043845777 -0.004807609 0.009486902 -0.0051743966 0.025724977 -0.018661726 0.009111237
-0.0005704433 -0.0033298063 0.005340994 -0.01737323 -0.013191958 -0.018142283 0.0027835234 0.008643114
-0.00040765025 -0.020448336 -0.005908607 -0.017627219 -0.022922626 0.00023260979 -0.011022587 -0.005185624
-0.023770122 -0.023005504 -0.031504992 -0.0064140786 -0.016470643 -0.0087555135 -0.00995573 0.010113522
0.017184794 -0.00022556157 -0.008160839 -0.026080117 0.001170315 0.006103781 0.012493221 0.00461274
-0.003955592 -0.040381175 0.016445378 -0.0036549184 0.0030103973 -0.03225465 0.0018706422 -0.020734798
-0.004055932 0.0045020287 0.0132273575 -0.01127903 -0.019844133 -0.013059827 -0.0242688 -0.008090112
-0.020431729 0.014641715 0.019351628 -0.015487891 0.0031879148 -0.036406845 -0.022405786 0.05654715
-0.021170784 -0.012252164 -0.022046633 -0.007534622 0.00039213043 0.014398048 -0.02420318 0.0023414935
-0.027631305 -0.015521866 -0.02487249 -0.014130546
00000000: 2cf3 273c 7820 1ebc 5240 a83b 9cab 733c
00000010: e78f f03b 73a5 1ebc 45eb 683c f072 b83c
00000020: 2e8c cd3c c737 90bb ce90 35bb 904a 3cbc
00000030: ef99 0a3c 1361 7abc 9e8b f3bc e6c3 9e3b
00000040: 29b6 ddbb 29e5 483c bf7c 283c dfe9 583b
00000050: 78f1 e7bc ebed ad3c 6847 97bc 3bec 2fbb
00000060: 18fa cabc fc89 ddbc 2b28 8d3b 85f8 51bc
00000070: b7a9 753c bc5c b9bb 829c ebba 33cb cb3a
00000080: 25c4 6bbb eb99 b83b 8435 a13b 3310 23bc
00000090: 13f1 9b3b ab36 cdba a632 8fbc 39f4 5f3c
000000a0: 36ff b6bc 1ab1 76bc 78f5 febc 0a78 0c3c
000000b0: 8661 6abc 8297 b6bb 5b98 87bc 9d92 093c
000000c0: 29ac af3b 81ac 8fbb 2689 9dbb f36e 1b3c
000000d0: fc8d a9bb 30bd d23c 7ae0 98bc 4c47 153c
000000e0: cd89 15ba e138 5abb 8103 af3b 4e52 8ebc
000000f0: 1523 58bc 209f 94bc c66b 363b d99b 0d3c
00000100: e4b9 d5b9 4583 a7bc fd9c c1bb f566 90bc
00000110: 3bc8 bbbc b7e8 7339 1598 34bc 2bec a9bb
00000120: 8fb9 c2bc 0a76 bcbc 610b 01bd 312d d2bb
00000130: 71ed 86bc 4973 0fbc 5c1d 23bc 30b3 253c
00000140: 20c7 8c3c b984 6cb9 0ab5 05bc f8a5 d5bc
00000150: 4165 993a 3a02 c83b 5eb0 4c3c 7826 973b
00000160: e99d 81bb bb66 25bd 75b8 863c 5b87 6fbb
00000170: 164a 453b 741d 04bd 5630 f53a 06dc a9bc
00000180: a0e7 84bb c185 933b 8fb7 583c aecb 38bc
00000190: 2a90 a2bc e2f8 55bc 5dcf c6bc 648c 04bc
000001a0: 7160 a7bc cee3 6f3c 4e87 9e3c ecc0 7dbc
000001b0: 56ec 503b 581f 15bd 578c b7bc fc9d 673d
000001c0: 5a6e adbc 4dbd 48bc 249b b4bc fee4 f6bb
000001d0: db96 cd39 cae5 6b3c bf45 c6bc be73 193b
000001e0: 0c5b e2bc 6d4f 7ebc 64c1 cbbc ce83 67bc

running_mean f4 [124]
69.96574 10687.846 6.1156955 5.594384 103.19275 3.3931432 3.0899482 3.4864085
2.9387267 1.6246281 445.22958 46.23105 566.19507 4.126168 0.106940195 1167.3572
354.39368 5.701573 1527.4528 0.42888278 0.05951783 1.5774692 0.38180056 2.8871737
1.0464369 3.5055652 6.561193 0.15366785 0.6229527 1.8490764 1.7254341 1.7785105
474.93448 2.8201213 2.817301 0.14996956 96.3967 49.652367 21.626719 3.7740326
16.40674 3.1398423 0.019298948 55.6932 39.17095 25.13162 31.470896 31.734869
3.0454829 1.2294029 0.08892943 0.4268825 0.16458675 0.70202976 0.19086964 0.07210045
0.03741415 0.059969094 0.030997876 0.020773338 0.094712585 0.0187068 0.11494597 0.95221984
0.23704931 0.08625832 0.08836862 0.040845376 0.35794637 0.14441688 0.16080089 0.16504002
0.10768777 0.03930652 0.033655044 0.034683593 0.015830824 0.023140049 0.017198773 0.016075058
0.7927806 0.14579661 0.03837162 0.017134033 0.09726112 0.03729402 0.074004225 0.0571927
0.02104867 0.007990504 0.03417723 0.15596126 0.0572448 0.027828984 0.05101262 0.07885404
0.028820664 0.018942952 0.049324546 0.03791088 0.058349866 0.016534813 0.023464141 0.016510224
0.59672844 0.091286115 0.43546587 0.0066908477 0.44346482 0.016604705 0.024412835 0.9290853
0.06391483 0.26422182 0.05430463 0.023516102 0.041492082 0.08206921 0.020787911 0.8667208
0.01606136 0.8251783 0.009545139 0.08292315
00000000: 75ee 8b42 62ff 2646 c7b3 c340 3205 b340
00000010: b062 ce42 4229 5940 b6c1 4540 5121 5f40
00000020: 1914 3c40 d0f3 cf3f 639d de43 98ec 3842
00000030: 7c8c 0d44 9109 8440 7603 db3d 6eeb 9144
00000040: 6432 b143 4973 b640 7dee be44 8696 db3e
00000050: f8c8 733d 83ea c93f 5d7b c33e 74c7 3840
00000060: a5f1 853f 2e5b 6040 4bf5 d140 1b5b 1d3e
00000070: d479 1f3f 89ae ec3f 06db dc3f 3ba6 e33f
00000080: 9d77 ed43 de7c 3440 a94e 3440 9f91 193e
00000090: 1ccb c042 069c 4642 8503 ad41 c089 7140
000000a0: 0141 8341 2df3 4840 d418 9e3c d6c5 5e42
000000b0: 0eaf 1c42 8f0d c941 65c4 fb41 03e1 fd41
000000c0: 31e9 4240 135d 9d3f a220 b63d 5890 da3e
000000d0: 6e89 283e 39b8 333f 5573 433e 67a9 933d
000000e0: 943f 193d 27a2 753d 42ef fd3c d92c aa3c
000000f0: acf8 c13d 013f 993c cb68 eb3d aec4 733f
00000100: 0ebd 723e 34a8 b03d 9bfa b43d 7b4d 273d
00000110: bf44 b73e 05e2 133e fda8 243e 4000 293e
00000120: 688b dc3d e0ff 203d dfd9 093d 6210 0e3d
00000130: a5af 813c 3390 bd3c 71e4 8c3c d7af 833c
00000140: abf3 4a3f b54b 153e 8f2b 1d3d ac5c 8c3c
00000150: d730 c73d 9dc1 183d 878f 973d e542 6a3d
00000160: 436e ac3c 9aea 023c 6cfd 0b3d 4fb4 1f3e
00000170: 8679 6a3d 9cf9 e33c 9cf2 503d 3a7e a13d
00000180: 5019 ec3c 402e 9b3c 8908 4a3d 7048 1b3d
00000190: 4500 6f3d 0474 873c df37 c03c 7340 873c
000001a0: 32c3 183f 37f4 ba3d 62f5 de3e e63e db3b
000001b0: d20d e33e 9706 883c 6dfd c73c 89d8 6d3f
000001c0: c7e5 823d 1548 873e 886e 5e3d d7a4 c03c
000001d0: 9af3 293d e713 a83d 694b aa3c 6ae1 5d3f
000001e0: 1d93 833c e33e 533f 3763 1c3c 9dd3 a93d

running_var f4 [124]
519.70264 1.148595e+08 1.8598642 1.2663093 29867.322 0.3304011 0.1327914 0.7546867
0.29973012 1.1275138 208640.73 25258.72 196964.44 0.93135184 0.15103935 149207.31
193524.75 2305.356 274993.88 0.27065843 0.05788533 0.30043176 0.25133213 0.6491805
0.04919458 0.43604687 2.6420465 0.41692898 0.41861263 3.27612 0.79784745 0.5399776
43742.465 0.51833725 0.510605 0.25570554 16832.44 4852.2075 3797.1104 974.507
3377.7812 1877.1348 0.0773371 348462.7 938.6886 427.9722 576.20715 247.54393
2.7468114 0.61956173 0.13062273 0.34974012 0.2797506 0.2095919 0.15432078 0.06667188
0.040951062 0.071830876 0.029984944 0.02038094 0.085842304 0.018368788 0.19287495 0.058641065
0.26585487 0.15720436 0.080704406 0.039243527 0.23002663 0.12370712 0.13523847 0.13807139
0.09608123 0.037753336 0.03257997 0.033509765 0.0156110125 0.02261492 0.01691697 0.015823282
0.16457246 0.12479781 0.036884125 0.016855549 0.08788606 0.03595722 0.068563685 0.054012552
0.020591939 0.007937294 0.033054136 0.1314102 0.054052543 0.027068093 0.04849989 0.07269666
0.028012544 0.01860336 0.046984635 0.03656426 0.054943457 0.016316492 0.022964181 0.01623184
0.24028993 0.08317484 0.24587967 0.0066515603 0.24733156 0.016339969 0.023845581 0.066064455
0.059910502 0.19412129 0.051437825 0.022946222 0.039836522 0.075448334 0.020401165 0.1158052
0.015836943 0.14449663 0.009474538 0.07614539
00000000: f8ec 0144 be13 db4c 0810 ee3f 6c16 a23f
00000010: a556 e946 552a a93e 78fa 073e 2633 413f
00000020: 3a76 993e 5f52 903f 2fc0 4b48 7155 c546
00000030: 1c59 4048 136d 6e3f 0faa 1a3e d4b5 1148
00000040: 30fd 3c48 b215 1045 3c46 8648 be93 8a3e
00000050: 2b19 6d3d 31d2 993e 9bae 803e b130 263f
00000060: 4280 493d 8941 df3e 4a17 2940 b777 d53e
00000070: 6554 d63e f3ab 5140 bb3f 4c3f f93b 0a3f
00000080: 77de 2a47 c0b1 043f 02b7 023f d6eb 823e
00000090: e180 8346 a9a1 9745 c451 6d45 73a0 7344
000000a0: 801c 5345 50a4 ea44 ea62 9e3d d625 aa48
000000b0: 12ac 6a44 71fc d543 420d 1044 3f8b 7743
000000c0: c2cb 2f40 999b 1e3f f7c1 053e 2311 b33e
000000d0: 783b 8f3e 429f 563e 4406 1e3e 448b 883d
000000e0: 4dbc 273d 111c 933d fca2 f53c eef5 a63c
000000f0: 17ce af3d 247a 963c 0381 453e 9d31 703d
00000100: 211e 883e 2efa 203e 5a48 a53d d2bd 203d
00000110: 1a8c 6b3e 295a fd3d f47b 0a3e 9662 0d3e
00000120: 3cc6 c43d 3ea3 1a3d 9372 053d 8941 093d
00000130: 55c5 7f3c ed42 b93c 7595 8a3c d49f 813c
00000140: af85 283e ff95 ff3d cf13 173d a614 8a3c
00000150: 9bfd b33d e147 133d 1e6b 8c3d 443c 5d3d
00000160: 6db0 a83c 6d0b 023c c663 073d 6590 063e
00000170: 3366 5d3d e8bd dd3c d2a7 463d fde1 943d
00000180: 907a e53c 1366 983c f672 403d 68c4 153d
00000190: 640c 613d 2aaa 853c 611f bc3c a3f8 843c
000001a0: 900e 763e 9257 aa3d e1c7 7b3e 55f5 d93b
000001b0: 7c44 7d3e 66db 853c cf57 c33c cd4c 873d
000001c0: b764 753d bbc7 463e 78b0 523d b7f9 bb3c
000001d0: 9f2b 233d a884 9a3d 5820 a73c 472b ed3d
000001e0: 7abc 813c edf6 133e 183b 1b3c 1df2 9b3d

weight f4 [51, 124]
0.0155744795 -0.018722486 0.020511432 0.0028127623 0.025163943 0.025654892 0.0005181739 0.014188335
0.001821608 -0.016845703 -0.006810975 -0.017960956 -0.019585801 0.04069621 -0.02718003 -0.0047142515
0.04036785 -0.040097464 0.024768293 -0.023521181 0.01438526 0.03217362 0.044144638 -0.025770035
0.00022966907 0.049682606 0.024055878 0.036496032 -0.016836133 0.015381867 0.0006417909 -0.017854936
-0.01575125 0.019973602 -0.0054665455 0.00813233 -0.04708441 0.020389052 0.0018994438 -0.025517741
0.031021269 0.044059545 -0.030606769 -0.009475557 -0.043052744 0.018209498 0.014338017 0.035533004
0.010374021 0.008513177 0.03012604 0.04703959 -0.00015766876 -0.03920513 0.03504147 0.00817249
-0.019264225 -0.016014248 -0.01765492 0.029125119 -0.02033339 -0.02552118 -0.016154587 0.027299412
-0.028021328 -0.0022107537 0.010083233 -0.03598016 0.02595298 0.009520911 -0.021377284 -0.0015162702
0.020408422 0.03927781 0.0041637234 -0.02238787 -0.018556148 0.032406524 -0.014743781 -0.0006760115
0.027604535 -0.02962766 -0.013651062 -0.009531667 0.0044599096 -0.005736099 -0.030237481 0.02535277
-0.0103610195 0.054750975 0.030314585 0.0032426852 0.009732137 0.04074532 0.007664566 0.00490599
-0.017502453 -0.014697459 -0.0036676198 0.018568307 0.0052794814 -0.0116142975 0.019672781 0.012741764
0.018434051 0.021670334 -0.022378694 0.024452532 0.0077003143 0.018330647 -0.028962858 -0.020705674
0.023711182 -0.005103297 0.012064882 -0.033560414 -0.01183433 -0.029129654 -0.019442178 0.005210911
0.018630413 -0.005851748 -0.019921016 -0.024255233 0.028480133 0.02040577 0.00513527 0.044373386
0.0051097767 0.014753882 0.015930712 -0.02475702 -0.042426866 0.014341526 -0.029823244 0.058844827
0.027812846 -0.051146958 0.040997684 -0.01997515 -0.017537747 0.021577248 -0.03496771 0.019831546
-0.012627276 -0.05797964 0.0032639229 0.002938099 0.06095699 -0.029582536 -0.039272573 -0.043281764
-0.017853761 -0.030318104 0.010090554 -0.020939881 0.024541266 0.043144867 0.053946692 0.038347222
-0.025497584 -0.051309865 -0.009390986 -0.008974606 -0.047774374 0.0013080396 -0.015963465 -0.032072924
-0.03810617 -0.03806796 -0.03315016 0.03597991 -0.0034683766 0.044172656 -0.05859001 -0.00048604998
0.053491615 -0.03176781 0.047624093 -0.0043003117 0.02874704 -0.022505544 -0.022931783 0.03328867
-0.032689426 -0.048718367 -0.03654013 -0.018069789 -0.033607878 -0.010554135 -0.00091797905 0.0058269654
-0.0484014 0.027234502 -0.010454769 0.040081576 0.022365658 0.02451628 -0.013243193 0.073162906
0.047364112 -0.011361548 0.0698178 -0.0263602 0.025991403 -0.05347018 0.029127015 0.055412315
0.007991355 0.012179217 0.0007649339 -0.012857053 -0.035011258 0.010942391 0.058226373 -0.040082745
-0.04185402 0.05532542 0.036027182 0.024338067 -0.001551525 -0.010325507 0.055688467 0.0373016
0.0053148326 -0.0375152 -0.015999516 -0.024027277 -0.008410395 0.030961756 0.046345465 0.03836817
-0.0016880761 0.008033607 -0.011402321 0.009937966 -0.0073103723 -0.0073579247 0.06717696 0.059102423
0.012367737 -0.016045207 -0.042406227 -0.03725081 0.0471251 0.02187918 -0.04208764 -0.0108075645
0.03446907 0.011172826 -0.00171688 -0.01379138 0.008059979 0.01396279 -0.02576426 0.047604937
00000000: 1a2c 7f3c e65f 99bc 9707 a83c 5256 383b
00000010: 9d24 ce3c 352a d23c 10d6 073a 3176 683c
00000020: 06c3 ee3a 0000 8abc 992e dfbb db22 93bc
00000030: 6772 a0bc 12b1 263d a7a8 debc 027a 9abb
00000040: c258 253d 3d3d 24bd e0e6 ca3c 7eaf c0bc
00000050: 27b0 6b3c 7cc8 033d 02d1 343d ae1b d3bc
00000060: 52d3 7039 fd7f 4b3d d510 c53c dd7c 153d
00000070: eeeb 89bc 3a04 7c3c dc3d 283a 8444 92bc
00000080: c408 81bc ae9f a33c b520 b3bb 773d 053c
00000090: 95db 40bd f106 a73c c2f6 f83a 950a d1bc
000000a0: 5120 fe3c c877 343d 0cbb fabc 5e3f 1bbc
000000b0: 1358 30bd 162c 953c 01ea 6a3c 0e8b 113d
000000c0: ccf7 293c da7a 0b3c e3ca f63c 96ac 403d
000000d0: e353 25b9 8f95 20bd a587 0f3d e8e5 053c
000000e0: 02d0 9dbc 5030 83bc 0da1 90bc cd97 ee3c
000000f0: 3692 a6bc cb11 d1bc a056 84bc 04a3 df3c
00000100: fc8c e5bc 4be2 10bb 2534 253c ef5f 13bd
00000110: 589b d43c 98fd 1b3c 6a1f afbc 96bd c6ba
00000120: 902f a73c c5e1 203d d86f 883b c466 b7bc
00000130: 1003 98bc b4bc 043d e68f 71bc 5d36 31ba
00000140: e822 e23c b5b5 f2bc b4a8 5fbc b62a 1cbc
00000150: 6f24 923b e3f5 bbbb 98b4 f7bc 9db0 cf3c
00000160: 44c1 29bc 8f42 603d 4b56 f83c 3b83 543b
00000170: 8b73 1f3c 91e4 263d 0a27 fb3b 6dc2 a03b
00000180: 4e61 8fbc 9ccd 70bc 735c 70bb 901c 983c
00000190: 80ff ac3b e549 3ebc d028 a13c d5c2 503c
000001a0: 0203 973c fc85 b13c 8653 b7bc ad50 c83c
000001b0: eb52 fc3b 272a 963c 8443 edbc f29e a9bc
000001c0: f43d c23c 8f39 a7bb c8ab 453c a576 09bd
000001d0: c7e4 41bc 50a1 eebc 3445 9fbc 4ac0 aa3b
000001e0: cf9e 983c 05c0 bfbb 6631 a3bc e9b2 c6bc
000001f0: 2b4f e93c 002a a73c c445 a83b dec0 353d
00000200: ea6f a73b 44ba 713c 2081 823c 3ccf cabc
00000210: cbc7 2dbd b8f8 6a3c e04f f4bc 4607 713d
00000220: c4d7 e33c 797f 51bd 30ed 273d eda2 a3bc
00000230: 52ab 8fbc c5c2 b03c 4d3a 0fbd c475 a23c
00000240: a2e2 4ebc 0f7c 6dbd 8ae7 553b 1f8d 403b
00000250: 09ae 793d 1357 f2bc 47dc 20bd 3848 31bd
00000260: 0d42 92bc ac5d f8bc da52 253c 1d8a abbc
00000270: c40a c93c acb8 303d 35f7 5c3d fa11 1d3d
00000280: 4fe0 d0bc 4b2a 52bd a6dc 19bc 3a0a 13bc
00000290: 10af 43bd 8772 ab3a d0c5 82bc e65e 03bd
000002a0: 3715 1cbd 26ed 1bbd 76c8 07bd ac5f 133d
000002b0: b44d 63bb 63ee 343d 14fc 6fbd 86d4 feb9
000002c0: 061a 5b3d f71e 02bd 7b11 433d a1e9 8cbb
000002d0: ea7e eb3c 8c5d b8bc 6fdb bbbc b359 083d
000002e0: 59e5 05bd e98c 47bd 1aab 15bd 1807 94bc
000002f0: 6aa8 09bd 40eb 2cbc 88a4 70ba 21f0 be3b
00000300: 8c40 46bd e41a df3c 7b4a 2bbc 942c 243d
00000310: 2f38 b73c 5ed6 c83c faf9 58bc 6fd6 953d
00000320: df00 423d c925 3abc a2fc 8e3d 59f1 d7bc
00000330: eceb d43c 8c03 5bbd c79b ee3c 06f8 623d
00000340: 2cee 023c 578b 473c d885 483a 64a6 52bc
00000350: f767 0fbd b747 333c c77e 6e3d ce2d 24bd
00000360: 1f6f 2bbd e89c 623d 3d91 133d a060 c73c
00000370: 8a5c cbba 512c 29bc 9719 643d 90c9 183d
00000380: 0c28 ae3b 8aa9 19bd 6b11 83bc dad4 c4bc
00000390: c1cb 09bc 82a3 fd3c bed4 3d3d f127 1d3d
000003a0: 6f42 ddba 649f 033c cdd0 3abc dad2 223c
000003b0: d98b efbb bf1a f1bb 1394 893d 6215 723d
000003c0: 0ca2 4a3c 3d71 83bc 27b2 2dbd 4e94 18bd
000003d0: 4006 413d f73b b33c 1764 2cbd 3612 31bc
000003e0: 712f 0d3d 3b0e 373c ef08 e1ba 3ef5 61bc
000003f0: 010e 043c 30c4 643c 920f d3bc 65fd 423d

bias f4 [51]
-0.043172058 -0.018807165 -0.035898693 -0.021897795 -0.034485668 -0.03379994 -0.034900464 -0.031524457
-0.04401499 -0.022329923 -0.04197391 -0.039043922 -0.025646633 -0.037379883 -0.05676859 -0.034340594
-0.031420223 -0.037856128 -0.008245079 -0.02701808 -0.03850086 -0.029743223 -0.013285958 -0.05066791
-0.042832177 -0.04208168 -0.031132499 -0.03356126 -0.02209793 -0.024584543 -0.02258886 -0.021945486
-0.04040733 -0.02914081 -0.0348539 -0.034977045 -0.02210483 -0.033940956 -0.012798233 -0.026211461
-0.026943065 -0.025862506 -0.031777646 -0.045158558 -0.030314932 -0.03255569 -0.02325288 -0.041885316
-0.028918505 -0.028010236 -0.034668494
00000000: 2fd5 30bd 7c11 9abc 820a 13bd 0163 b3bc
00000010: d840 0dbd ce71 0abd caf3 0ebd ca1f 01bd
00000020: 1049 34bd 3eed b6bc d6ec 2bbd 85ec 1fbd
00000030: e318 d2bc a61b 19bd 2e86 68bd b9a8 0cbd
00000040: 7eb2 00bd 070f 1bbd 5e16 07bc 0555 ddbc
00000050: 14b3 1dbd 0fa8 f3bc 59ad 59bc 2889 4fbd
00000060: cb70 2fbd d75d 2cbd 9509 ffbc 8877 09bd
00000070: b806 b5bc 8665 c9bc 460c b9bc 05c7 b3bc
00000080: 2882 25bd b5b8 eebc f7c2 0ebd 1744 0fbd
00000090: 3015 b5bc ac05 0bbd aeaf 51bc 6bb9 d6bc
000000a0: b4b7 dcbc 9bdd d3bc 4729 02bd 2ef8 38bd
000000b0: 0557 f8bc 1d59 05bd d37c bebc f08f 2bbd
000000c0: 80e6 ecbc b975 e5bc 8d00 0ebd

weight f4 [51]
0.72555935 0.72380215 0.73036736 0.74476755 0.7285593 0.7277808 0.7294602 0.7238353
0.73761386 0.73817086 0.7206129 0.7236059 0.7318609 0.7300122 0.72795475 0.7268682
0.736274 0.7312245 0.72325754 0.749918 0.7280075 0.7342147 0.74878407 0.73171365
0.7375501 0.736446 0.72471446 0.73013777 0.7351005 0.7334633 0.7271164 0.7425782
0.7360984 0.731452 0.73181206 0.74011874 0.7241539 0.7253359 0.7258545 0.72801465
0.72870487 0.7326934 0.7309832 0.7284627 0.726276 0.72433245 0.73265547 0.72605586
0.73103863 0.72432077 0.7303343
00000000: 42be 393f 194b 393f 5bf9 3a3f 16a9 3e3f
00000010: dd82 3a3f d84f 3a3f e7bd 3a3f 454d 393f
00000020: 43d4 3c3f c4f8 3c3f 167a 383f 3c3e 393f
00000030: 3c5b 3b3f 14e2 3a3f 3e5b 3a3f 0914 3a3f
00000040: 747c 3c3f 8731 3b3f 6827 393f a0fa 3f3f
00000050: b35e 3a3f 7ff5 3b3f 50b0 3f3f 9651 3b3f
00000060: 15d0 3c3f ba87 3c3f e386 393f 4fea 3a3f
00000070: 8c2f 3c3f 40c4 3b3f 4d24 3a3f 9b19 3e3f
00000080: f270 3c3f 7040 3b3f 0958 3b3f 6c78 3d3f
00000090: 2662 393f 9daf 393f 9ad1 393f 2b5f 3a3f
000000a0: 678c 3a3f cb91 3b3f b721 3b3f 887c 3a3f
000000b0: 39ed 393f da6d 393f 4f8f 3b3f ccde 393f
000000c0: 5925 3b3f 166d 393f 30f7 3a3f

bias f4 [51]
0.37208983 -0.3336299 -0.39171115 0.31620997 -0.3286893 -0.32430297 0.32103595 0.37891468
0.31456608 0.32933047 0.34392866 0.35305572 0.39253026 -0.32613075 -0.32892552 -0.3368091
-0.3252165 0.34896353 -0.3624026 0.31562117 -0.362274 -0.3321634 -0.31517223 -0.35697973
-0.32203278 -0.31372955 0.34847283 0.37518093 -0.34022117 -0.3290075 0.37323982 0.32240418
-0.3280435 -0.31723276 -0.3959846 0.3200528 0.37556025 0.3427754 -0.3837487 0.38920242
0.3198508 -0.33720204 0.37496045 0.34637126 -0.3208807 -0.3528561 -0.33884567 0.33786488
0.32296363 0.3389557 0.37532282
00000000: 8f82 be3e 8ad1 aabe 5d8e c8be 46e6 a13e
00000010: f749 a8be 0a0b a6be d35e a43e 1b01 c23e
00000020: ce0e a13e 019e a83e 6b17 b03e b8c3 b43e
00000030: baf9 c83e 9cfa a6be ed68 a8be 3e72 acbe
00000040: c782 a6be 59ab b23e d58c b9be 1999 a13e
00000050: fa7b b9be 5211 aabe 415e a1be 0cc6 b6be
00000060: 7be1 a4be 29a1 a0be 086b b23e b717 c03e
00000070: 7831 aebe ac73 a8be 4a19 bf3e 2912 a53e
00000080: 51f5 a7be 556c a2be 7ebe cabe f6dd a33e
00000090: 6f49 c03e 4280 af3e b67a c4be 8a45 c73e
000000a0: 7cc3 a33e bfa5 acbe d1fa bf3e 9357 b13e
000000b0: 7a4a a4be 8ea9 b4be 2e7d adbe a0fc ac3e
000000c0: 7d5b a53e 9a8b ad3e 502a c03e

running_mean f4 [51]
0.004834913 0.018019343 0.0064552044 0.023427892 0.021442385 0.03281404 0.015725274 -0.003980082
0.0067531024 0.017351404 0.019069849 0.010520212 0.009969388 0.0048710913 0.014979272 0.003370571
0.022256639 0.0038398483 0.011513212 0.024474071 0.0057659065 0.018752106 0.014396426 0.009643679
0.017162794 0.015494326 0.012362888 0.0076781875 0.017376365 0.009298333 0.010602109 0.018536372
0.012220566 0.012223995 0.023522252 0.012355145 0.004835566 0.024051245 0.014556698 0.014586625
0.0065713953 0.012754949 0.01133167 0.013213673 0.0073673525 0.01145037 0.012377502 0.0019598913
0.018214075 0.0073969495 0.011921546
00000000: 316e 9e3b 4d9d 933c 2e86 d33b daeb bf3c
00000010: f1a7 af3c 0468 063d 4ad2 803c 596b 82bb
00000020: 2149 dd3b 8824 8e3c 5f38 9c3c f85c 2c3c
00000030: a556 233c ad9d 9f3b 9f6b 753c cce4 5c3b
00000040: 8e53 b63c f7a5 7b3b e9a1 3c3c d97d c83c
00000050: eeef bc3b 049e 993c fdde 6b3c 8500 1e3c
00000060: fd98 8c3c eadb 7d3c b68d 4a3c 4e99 fb3b
00000070: e158 8e3c 0958 183c 78b4 2d3c 97d9 973c
00000080: c538 483c 2747 483c bdb1 c03c 3c6d 4a3c
00000090: ab73 9e3b 1e07 c53c 377f 6e3c bdfc 6e3c
000000a0: dc54 d73b 22fa 503c 78a8 393c 297e 583c
000000b0: d569 f13b 559a 3b3c 02cb 4a3c 8571 003b
000000c0: af35 953c 1c62 f23b 9752 433c

running_var f4 [51]
0.021607846 0.026190229 0.022724925 0.040621318 0.048649613 0.06362896 0.026835904 0.012543048
0.040556785 0.03506095 0.023804534 0.02223123 0.028614528 0.023934843 0.050432462 0.019866664
0.051367335 0.029080104 0.018468281 0.063613735 0.028504303 0.029339153 0.030014489 0.027304975
0.06037121 0.04134207 0.028569456 0.02395257 0.026452575 0.024297355 0.024150336 0.04149058
0.044950366 0.036517244 0.038723122 0.039448295 0.015049698 0.035986256 0.022073712 0.022927733
0.032720756 0.037680387 0.029694369 0.029110646 0.016908007 0.02161362 0.034174863 0.022328814
0.038531173 0.024273554 0.033531155
00000000: f002 b13c e48c d63c 9f29 ba3c 8a62 263d
00000010: d144 473d e64f 823d f8d6 db3c 5b81 4d3c
00000020: df1e 263d 129c 0f3d ba01 c33c 451e b63c
00000030: 0469 ea3c 0113 c43c 4592 4e3d 6abf a23c
00000040: 8e66 523d 6639 ee3c cb4a 973c eb47 823d
00000050: db81 e93c aa58 f03c f2e0 f53c afae df3c
00000060: cd47 773d 4d56 293d 7e0a ea3c 2e38 c43c
00000070: 12b3 d83c 3f0b c73c edd6 c53c 07f2 293d
00000080: e01d 383d 1b93 153d 239c 1e3d 8994 213d
00000090: 0293 763c 5366 133d eed3 b43c f1d2 bb3c
000000a0: 3306 063d c056 1a3d 9b41 f33c 7379 ee3c
000000b0: a982 8a3c 0c0f b13c f1fa 0b3d ebea b63c
000000c0: ddd2 1d3d 55d9 c63c f757 093d

weight f4 [1, 51]
0.40389782 -0.451146 -0.38852477 0.49193245 -0.45627964 -0.46414134 0.47782958 0.39825013
0.49434447 0.45909205 0.43278503 0.4236712 0.38850826 -0.4670576 -0.4547384 -0.4481215
-0.46733567 0.4282832 -0.4146032 0.4925351 -0.4140524 -0.45570424 -0.49918938 -0.4196731
-0.4751339 -0.4993969 0.42835 0.4029328 -0.43939278 -0.4592793 0.40507147 0.47509843
-0.4632726 -0.48596302 -0.38589314 0.48162973 0.40228474 0.43640375 -0.39659864 0.39122868
0.47705126 -0.44301292 0.40240467 0.43150678 -0.4768976 -0.42405966 -0.44360462 0.442039
0.47163147 0.44313192 0.40169546
00000000: b2cb ce3e 9cfc e6be b8ec c6be 92de fb3e
00000010: 7c9d e9be efa3 edbe 14a6 f43e 71e7 cb3e
00000020: b81a fd3e 1d0e eb3e 0096 dd3e 6eeb d83e
00000030: 8eea c63e 2c22 efbe 79d3 e8be 2e70 e5be
00000040: 9f46 efbe f047 db3e df46 d4be 902d fc3e
00000050: adfe d3be 1152 e9be c095 ffbe 64df d6be
00000060: c044 f3be f3b0 ffbe b150 db3e 354d ce3e
00000070: 17f8 e0be a826 ebbe 8765 cf3e 1a40 f33e
00000080: 1132 edbe 25d0 f8be c993 c5be 2c98 f63e
00000090: 44f8 cd3e 5070 df3e fa0e cbbe 204f c83e
000000a0: 1040 f43e 97d2 e2be fc07 ce3e 75ee dc3e
000000b0: ec2b f4be 591e d9be 2520 e3be f052 e23e
000000c0: ae79 f13e 30e2 e23e 07ab cd3e
