mlruns/528961946943719398/models/m-ad3b6cae028d4b9fa5ab028ffb4b1153/artifacts/data/model.pth (torch, 48529 bytes, 11 tensors)

weight f4 [124]
1.0063518 0.99768895 1.0005152 0.99663764 0.996373 0.99893814 0.9969438 1.0011431
0.99486923 1.0016168 0.9988913 1.0046465 1.0003444 1.002093 1.0009001 1.0011091
1.0038351 1.0036135 0.99788576 1.0037374 1.0024093 1.0031868 1.000401 0.99337673
1.0027775 1.0016147 1.0007833 0.99419194 1.0067474 1.0080942 0.9992034 0.9981352
1.002717 0.9993395 0.994482 0.9975122 0.9941915 0.999503 0.99839854 0.9953241
0.9966545 1.0003369 1.0013632 0.996604 0.9975896 0.9985082 0.99970746 0.9925607
0.99516344 0.9981644 0.9985258 0.99953246 1.0024754 1.0033712 0.9987163 0.99511117
0.997589 0.9963269 0.99742335 1.0002185 0.99386287 0.99136025 0.9922687 0.9996878
1.0004908 1.0007704 0.996724 0.9961508 1.000592 0.99694496 0.99742466 1.0020005
1.004458 0.9988167 0.99629194 1.0040562 1.0027449 0.9943165 0.99984884 1.0008043
0.9966789 1.0069966 0.9959048 0.9940482 0.9938005 0.9952213 0.9986389 0.9986659
0.99997807 0.9953513 0.99874735 1.003204 1.0038468 1.0023079 1.0058372 1.0012102
1.002484 0.990916 1.0029728 1.0038433 0.99985045 1.004799 0.99392354 0.9968217
0.99894387 1.0025054 1.0064224 0.9973998 0.9996077 1.001925 1.00406 1.0016272
0.9957599 0.99560434 0.99705267 1.0011697 0.99964625 0.99820054 1.0049398 1.0067314
1.0056468 1.0023705 0.99823153 1.0044351
00000000: 23d0 803f 8b68 7f3f e210 803f a523 7f3f
00000010: 4d12 7f3f 69ba 7f3f b537 7f3f 7525 803f
00000020: c0af 7e3f fb34 803f 57b7 7f3f 4298 803f
00000030: 490b 803f 9544 803f 7f1d 803f 5824 803f
00000040: ab7d 803f 6876 803f 7175 7f3f 787a 803f
00000050: f34e 803f 6d68 803f 240d 803f f04d 7e3f
00000060: 035b 803f e934 803f ab19 803f 5d83 7e3f
00000070: 19dd 803f 3b09 813f cbcb 7f3f ca85 7f3f
00000080: 0859 803f b7d4 7f3f 5f96 7e3f f65c 7f3f
00000090: 5683 7e3f 6edf 7f3f 0c97 7f3f 8fcd 7e3f
000000a0: c024 7f3f 0a0b 803f ab2c 803f 7121 7f3f
000000b0: 0862 7f3f 3c9e 7f3f d4ec 7f3f 7518 7e3f
000000c0: 08c3 7e3f b487 7f3f 639f 7f3f 5ce1 7f3f
000000d0: 1d51 803f 786e 803f dfab 7f3f 9bbf 7e3f
000000e0: fe61 7f3f 480f 7f3f 2357 7f3f 2907 803f
000000f0: cc6d 7e3f c9c9 7d3f 5205 7e3f 8aeb 7f3f
00000100: 1510 803f 3f19 803f 4e29 7f3f bd03 7f3f
00000110: 6613 803f c937 7f3f 3957 7f3f 8d41 803f
00000120: 1492 803f 74b2 7f3f fd0c 7f3f ea84 803f
00000130: f259 803f 878b 7e3f 18f6 7f3f 5b1a 803f
00000140: 5926 7f3f 44e5 803f 9ef3 7e3f f179 7e3f
00000150: b669 7e3f d3c6 7e3f cda6 7f3f 92a8 7f3f
00000160: 90fe 7f3f 58cf 7e3f e8ad 7f3f fd68 803f
00000170: 0d7e 803f a04b 803f 46bf 803f a827 803f
00000180: 6551 803f acac 7d3f 6a61 803f f07d 803f
00000190: 33f6 7f3f 419d 803f c671 7e3f b52f 7f3f
000001a0: c9ba 7f3f 1952 803f 73d2 803f 9855 7f3f
000001b0: 4ae6 7f3f 143f 803f 0a85 803f 5235 803f
000001c0: 1fea 7e3f eddf 7e3f d83e 7f3f 5426 803f
000001d0: d1e8 7f3f 128a 7f3f dea1 803f 93dc 803f
000001e0: 09b9 803f ad4d 803f 1a8c 7f3f 5491 803f

bias f4 [124]
-0.0040140995 0.00094843877 -0.0024198787 0.0030772563 -0.00017149776 -0.00019049048 -0.0021416673 -0.0065904846
0.0046121012 -0.006396292 -0.0004341654 -0.0038103864 -0.0030097077 -0.0006501841 0.0075796284 -0.0037541885
-0.0038121212 -0.0012122694 0.0011241923 -0.0032887582 -8.263247e-05 -0.0038590527 0.0026254077 -0.0011143326
0.0036485577 -0.0056188037 -0.0029029252 -0.00044582642 -0.0039632996 -0.0052268514 -0.0039289044 0.0016687533
-0.0016037119 0.0022242176 -0.002199708 0.001971252 0.0033462143 -0.0028551535 -0.0002077339 -0.0017614217
0.003390221 -6.818976e-05 -0.0034240887 -0.0037745344 0.001704894 0.0017555512 0.00042572911 0.0062497216
0.0032404922 -0.0016446903 -0.0060056476 -0.0034542787 -0.0028002996 0.0069884704 0.0004653212 -0.0036543827
-0.0012072499 -7.403934e-05 0.002520809 0.005462916 -0.0014778192 0.004823004 -0.0038454067 -0.005215124
0.0011110113 0.00073662103 0.0030852344 -0.0006405931 0.0013286734 -0.00026674592 -0.0025285573 -0.0032571508
0.0001802345 0.0029199168 0.003921485 -0.0023856887 0.004267446 -0.001071657 -0.0010557624 -0.004222472
-0.004233247 -0.0013346196 -0.0033106313 0.0036174392 -0.00023313293 -0.003264424 -0.0028650758 0.005716904
0.0035731161 0.003419218 0.0035685617 -0.0039268923 0.0030485673 -0.0025717723 0.003529935 -0.00040199814
-0.0024742477 0.005158449 -0.0074168514 -0.0010678264 -0.003607174 -0.0017400081 0.0059329066 0.004655008
0.0019721414 0.00025299107 -0.006035945 0.0013417504 -0.007687544 0.0020283668 0.0005948643 0.0034461175
-0.0029164425 -0.005406103 9.01745e-06 -0.003885092 0.008076065 -0.00031294537 0.0013593261 0.0003366957
0.004349954 0.004117222 -0.0060102297 -0.0037078343
00000000: b588 83bb a6a0 783a d496 1ebb cbab 493b
00000010: 14d4 33b9 66be 47b9 375b 0cbb fef4 d7bb
00000020: 1c21 973b fc97 d1bb b2a0 e3b9 adb7 79bb
00000030: 843e 45bb 1e71 2aba 885e f83b d508 76bb
00000040: c8d4 79bb 03e5 9eba a259 933a 3588 57bb
00000050: f84a adb8 29e8 7cbb 080f 2c3b cc0e 92ba
00000060: a41c 6f3b f11d b8bb 013f 3ebb cfbd e9b9
00000070: 91de 81bb 0246 abbb 0abe 80bb 12ba da3a
00000080: a433 d2ba 2ec4 113b fa28 10bb 1f30 013b
00000090: 294c 5b3b 871d 3bbb 25d3 59b9 81df e6ba
000000a0: 782e 5e3b 1901 8fb8 ad66 60bb 2e5e 77bb
000000b0: c076 df3a 861a e63a 6534 df39 77ca cc3b
000000c0: 705e 543b a692 d7ba 06cb c4bb 2e61 62bb
000000d0: 3b85 37bb 8aff e43b 5bf6 f339 5e7e 6fbb
000000e0: 963c 9eba 9145 9bb8 2834 253b 4302 b33b
000000f0: 62b3 c1ba 4a0a 9e3b 3803 7cbb a2e3 aabb
00000100: 5a9f 913a cd19 413a a531 4a3b 7aed 27ba
00000110: e226 ae3a 08da 8bb9 27b6 25bb ec75 55bb
00000120: 55fd 3c39 135c 3f3b cd7f 803b 3759 1cbb
00000130: efd5 8b3b d876 8cba 8261 8aba aa5c 8abb
00000140: 0db7 8abb 67ee aeba 2df7 58bb 8f12 6d3b
00000150: 2575 74b9 f2ef 55bb ffc3 3bbb de54 bb3b
00000160: f12a 6a3b f514 603b 88de 693b 29ad 80bb
00000170: 79ca 473b 2e8b 28bb 7b56 673b 47c3 d2b9
00000180: fd26 22bb 3508 a93b 0f09 f3bb 4ff6 8bba
00000190: 5666 6cbb fc10 e4ba d468 c23b 0a89 983b
000001a0: 0b3f 013b e3a3 8439 2dc9 c5bb acdd af3a
000001b0: cbe7 fbbb 59ee 043b abf0 1b3a 42d8 613b
000001c0: c921 3fbb ae25 b1bb a749 1737 079d 7ebb
000001d0: 7951 043c d112 a4b9 6a2b b23a 8886 b039
000001e0: 0f8a 8e3b c3e9 863b 76f1 c4bb 23ff 72bb

running_mean f4 [124]
70.04097 10644.505 6.125564 5.5906925 102.372215 3.394194 3.0850759 3.4832618
2.9353287 1.6208686 444.17285 44.399143 569.6725 4.1299577 0.10760901 1168.8655
352.73456 5.4535556 1527.0536 0.42445937 0.055628173 1.576953 0.3809657 2.889931
1.0474327 3.5106144 6.557668 0.15514089 0.6170083 1.8420155 1.72434 1.782019
476.53772 2.8209565 2.818879 0.14616153 95.49553 49.702595 21.851526 3.540031
15.357439 2.7192483 0.017402468 48.873135 38.956333 24.97616 31.407879 31.68194
3.050475 1.2121482 0.09057274 0.41953203 0.1622715 0.705774 0.18857573 0.071248956
0.0366395 0.058948405 0.031267054 0.02152301 0.09090552 0.019809358 0.11618676 0.9533662
0.23187923 0.08376883 0.086913064 0.03850197 0.36378953 0.14709826 0.15672952 0.16011856
0.10314626 0.04108951 0.033619158 0.03582893 0.016385019 0.02417235 0.018102856 0.016526049
0.79349667 0.14474271 0.037965275 0.016143503 0.101742566 0.038721275 0.07477878 0.054988623
0.022872798 0.008184619 0.033700272 0.15576977 0.056432303 0.029308544 0.05076834 0.07621865
0.027087394 0.017943256 0.047661647 0.040093374 0.059181653 0.01703344 0.023121485 0.016417857
0.59673244 0.089453556 0.42939082 0.0071871127 0.44870687 0.018069575 0.02404074 0.929073
0.06347493 0.2603398 0.053649105 0.024748476 0.04044825 0.08125747 0.018384127 0.87024003
0.014962933 0.82910156 0.009274767 0.08196309
00000000: fa14 8c42 0552 2646 9f04 c440 f4e6 b240
00000010: 93be cc42 793a 5940 e271 4540 c3ed 5e40
00000020: 6ddc 3b40 9f78 cf3f 2016 de43 b998 3142
00000030: 0a6b 0e44 9d28 8440 1d62 dc3d b21b 9244
00000040: 065e b043 8783 ae40 b7e1 be44 bd52 d93e
00000050: 5eda 633d 99d9 c93f f00d c33e a1f4 3840
00000060: 4612 863f e8ad 6040 6bd8 d140 41dd 1e3e
00000070: 42f4 1d3f 2ac7 eb3f 2cb7 dc3f 3319 e43f
00000080: d444 ee43 8d8a 3440 8368 3440 5eab 153e
00000090: b6fd be42 75cf 4642 edcf ae41 de8f 6240
000000a0: 12b8 7541 2a08 2e40 9f8f 8e3c 177e 4342
000000b0: 49d3 1b42 2dcf c741 5643 fb41 9d74 fd41
000000c0: fb3a 4340 ac27 9b3f 337e b93d e7cc d63e
000000d0: 802a 263e 9bad 343f ff19 413e f9ea 913d
000000e0: 4d13 163d e273 713d e211 003d 0651 b03c
000000f0: ac2c ba3d 3c47 a23c 53f3 ed3d cf0f 743f
00000100: c071 6d3e fe8e ab3d 7aff b13d 3eb4 1d3d
00000110: 9f42 ba3e eda0 163e b47d 203e 1ff6 233e
00000120: 593e d33d 794d 283d 3eb4 093d 5bc1 123d
00000130: e039 863c 1805 c63c 714c 943c a361 873c
00000140: 9922 4b3f 6f37 143e 7a81 1b3d 613f 843c
00000150: 685e d03d 339a 1e3d 9e25 993d c03b 613d
00000160: bc5f bb3c c818 063c 4c09 0a3d 1c82 1f3e
00000170: 8f25 673d 7918 f03c 76f2 4f3d 8618 9c3d
00000180: 62e6 dd3c bcfd 923c dc38 433d f338 243d
00000190: 7668 723d b689 8b3c 4569 bd3c be7e 863c
000001a0: 75c3 183f 6d33 b73d 1dd9 db3e df81 eb3b
000001b0: e8bc e53e a506 943c 16f1 c43c bad7 6d3f
000001c0: 25ff 813d 424b 853e 2abf 5b3d 51bd ca3c
000001d0: 10ad 253d 516a a63d 4f9a 963c 0dc8 5e3f
000001e0: 1727 753c 0040 543f 31f5 173c 44dc a73d

running_var f4 [124]
534.33685 1.0747559e+08 1.8565866 1.2510237 29490.998 0.32763472 0.1279496 0.7706923
0.31072566 1.1204085 212017.25 25134.033 199045.88 0.93352365 0.15264393 149592.02
193608.69 2139.446 276722.25 0.2702588 0.05432312 0.29818985 0.24968454 0.65371764
0.050075557 0.43449217 2.643008 0.42300913 0.4111578 3.2727787 0.7930489 0.548334
44693.457 0.5099538 0.5051148 0.24926068 16599.812 4826.298 3826.468 905.15485
3068.223 1592.6157 0.07072142 261275.03 943.20966 429.79324 584.8126 245.34886
2.7814896 0.5889428 0.13457617 0.34983045 0.27619404 0.20752762 0.1528909 0.06626997
0.039873905 0.06983018 0.03035834 0.021084944 0.08271823 0.019429082 0.19391198 0.058419537
0.26256573 0.15251441 0.07939932 0.0369017 0.23179573 0.12549508 0.13218708 0.13464318
0.09266461 0.03941111 0.032529846 0.03458949 0.016164871 0.023577124 0.017793195 0.016268386
0.1642656 0.12399849 0.036558345 0.015908979 0.09143359 0.03722706 0.0692479 0.052067902
0.02240692 0.008129608 0.032635357 0.13171934 0.05331457 0.028480407 0.04818022 0.070581526
0.026384018 0.017635573 0.04522171 0.038446914 0.055809382 0.01673826 0.022604527 0.016201235
0.24059162 0.081572786 0.24540594 0.0071416264 0.2476279 0.017748863 0.023514127 0.06602857
0.05957791 0.1931138 0.050753456 0.024069922 0.038844924 0.07476053 0.01805728 0.11294594
0.01475001 0.14168313 0.009208063 0.075365804
00000000: 8f95 0544 51fe cc4c a1a4 ed3f 8b21 a03f
00000010: ff65 e646 bdbf a73e 3805 033e 174c 453f
00000020: 6f17 9f3e 8c69 8f3f 500c 4f48 115c c446
00000030: 7861 4248 68fb 6e3f b14e 1c3e 0116 1248
00000040: 2c12 3d48 23b7 0545 481e 8748 5d5f 8a3e
00000050: eb81 5e3d 57ac 983e 4ead 7f3e 0a5a 273f
00000060: 071c 4d3d c275 de3e 0b27 2940 a794 d83e
00000070: 4683 d23e 3575 5140 4105 4b3f 9e5f 0c3f
00000080: 7595 2e47 558c 023f 344f 013f 313e 7f3e
00000090: a0af 8146 62d2 9645 7d27 6f45 e949 6244
000000a0: 91c3 3f45 b413 c744 64d6 903d c226 7f48
000000b0: 6bcd 6b44 89e5 d643 0234 1244 4f59 7543
000000c0: ed03 3240 f5c4 163f 56ce 093e fa1c b33e
000000d0: 4e69 8d3e 1f82 543e 6f8f 1c3e 8db8 873d
000000e0: d252 233d 2003 8f3d 0eb2 f83c 55ba ac3c
000000f0: 2d68 a93d bd29 9f3c dd90 463e 5349 6f3d
00000100: 046f 863e bd2c 1c3e 1c9c a23d 3d26 173d
00000110: dc5b 6d3e c881 003e 0d5c 073e e7df 093e
00000120: f1c6 bd3d 8b6d 213d 043e 053d b6ad 0d3d
00000130: 316c 843c d024 c13c 09c3 913c 4745 853c
00000140: 3e35 283e ecf2 fd3d 34be 153d 8c53 823c
00000150: 8941 bb3d 677b 183d d8d1 8d3d 2745 553d
00000160: b88e b73c 0c32 053c a7ac 053d 6fe1 063e
00000170: 6160 5a3d be4f e93c 9f58 453d 0c8d 903d
00000180: 4c23 d83c 7a78 903c 663a 393d 837a 1d3d
00000190: 6198 643d ad1e 893c 212d b93c 74b8 843c
000001a0: a65d 763e a20f a73d b24b 7b3e 4e04 ea3b
000001b0: 2b92 7d3e 1066 913c b3a0 c03c fd39 873d
000001c0: f707 743d a0bf 453e dbe2 4f3d 492e c53c
000001d0: db1b 1f3d 0c1c 993d dcec 933c 3350 e73d
000001e0: 07aa 713c 6215 113e 6add 163c 6359 9a3d

weight f4 [70, 124]
0.033064637 0.0039691404 0.061791312 -0.058313962 -0.078280576 0.004874757 -0.010527096 -0.0021974302
-0.035520874 0.052117053 -0.072345085 -0.03903999 0.029556852 -0.086625315 -0.026354596 0.0570597
0.01604355 -0.055067528 -0.07885386 -0.04864716 0.03932311 -0.02966119 -0.025030965 -0.05954495
0.07958745 -0.064951606 -0.031568635 0.062581174 -0.056045335 -0.03168193 0.014975407 0.050415754
0.058889356 -0.04478117 -0.04994854 -0.02772067 -0.014075738 0.049526274 -0.028893877 -0.07458428
0.028184595 -0.029306838 -0.06082282 -0.058366135 -0.01700435 0.045185227 -0.082409136 -0.10038436
-0.072511375 0.0017339953 0.07736207 0.05261334 -0.002789953 0.0013839642 0.058328144 -0.02901438
0.03976332 0.05634969 -0.07942969 -0.056271818 0.017916245 -0.029404722 0.013619318 -0.06140533
-0.068950415 -0.08177869 0.016496187 -0.045584947 0.08953971 0.026957503 0.044779208 0.08417224
0.023017317 -0.0625754 -0.02242891 0.056383867 0.02838024 -0.028825939 0.073431134 -0.005174337
-0.097433165 -0.007934735 0.0032256374 0.049100768 -0.07005881 0.057783157 -0.06051985 0.083561964
0.010753252 -0.018460158 0.06392776 0.07220838 -0.08299965 -0.026311 -0.072676264 0.041312385
-0.021024793 -0.046628933 -0.08048596 0.055707227 0.026651878 -0.009219042 0.025525166 0.054831844
-0.009826469 0.07635357 0.03683567 -0.015419669 0.043364268 -0.004427 -0.05959878 0.01417859
0.05027422 0.094006844 0.021210946 -0.066513576 -0.07468467 -0.027370594 -0.0009769921 -0.0013288795
-0.056105837 0.060491413 -0.06983749 -0.020863667 0.020708194 -0.009002995 0.03628403 0.031003812
-0.016070362 0.03682217 0.023148874 -0.082622245 -0.021017281 0.051395305 -0.07517584 -0.06786286
-0.029429765 -0.082002096 0.061028667 0.04291968 0.07935504 -0.034179144 -0.053313468 0.014753969
0.04789224 0.0061486354 0.06489872 -0.009447103 0.017353289 0.024908703 -0.0718173 -0.010745717
0.018489791 0.06831156 -0.062428206 -0.07599393 0.009356739 0.08238439 0.041907802 0.0684716
-0.036184702 0.085856594 -0.055184066 0.0029498504 0.055272114 0.05336175 0.029942762 -0.06197253
-0.040664017 -0.0068120747 -0.05173594 -0.07786547 0.090112336 0.036847323 -0.05624784 -0.03271949
0.09073148 -0.010027722 -0.0890475 0.050597183 -0.051937398 0.0740065 0.08684632 -0.078593016
0.07154878 -0.06448939 -0.064086266 0.080513 -0.064533114 -0.046384558 0.066441625 -0.043330777
-0.043052554 -0.07967022 0.020080838 0.02462594 -0.012250181 -0.059187774 0.089784235 -0.082615815
0.043478042 0.05675288 0.031916127 -0.05348592 0.0048886547 -0.059086666 -0.08299825 0.0019099117
0.088260785 0.067763075 -0.06510195 0.012001286 0.04498973 0.00906179 0.04877497 0.03887357
-0.05812125 0.08387192 -0.002672234 -0.0268602 0.044684086 -0.07450674 0.0018519582 0.044841122
0.059451956 -0.07668063 0.003280621 -0.011245942 0.058713537 -0.06479097 -0.07734729 0.017945115
0.0345886 0.065446034 0.030636175 0.0728713 -0.032935146 -0.08089412 0.073306926 -0.030979607
-0.025392815 0.014006164 -0.049337745 -0.06178816 0.051127553 -0.06799795 0.048213802 -0.0149007235
-0.015048223 0.04730179 0.06415377 -0.0277828 -0.012137592 -0.024726836 -0.03956557 -0.05106805
00000000: c96e 073d 900f 823b e318 7d3d 9fda 6ebd
00000010: 9151 a0bd 6dbc 9f3b d779 2cbc c302 10bb
00000020: 567e 11bd b178 553d a929 94bd 66e8 1fbd
00000030: 3621 f23c 9d68 b1bd 98e5 d7bc 6fb7 693d
00000040: c36d 833c 7d8e 61bd 227e a1bd 3f42 47bd
00000050: 4511 213d 06fc f2bc bd0d cdbc 68e5 73bd
00000060: bffe a23d 5905 85bd 1d4e 01bd 8f2a 803d
00000070: cb8f 65bd e9c4 01bd 695b 753c c080 4e3d
00000080: f735 713d 766c 37bd d796 4cbd 7516 e3bc
00000090: ed9d 66bc 10dc 4a3d dab2 ecbc a5bf 98bd
000000a0: 61e3 e63c e514 f0bc 5921 79bd 5411 6fbd
000000b0: b54c 8bbc 2514 393d 1fc6 a8bd 5196 cdbd
000000c0: d880 94bd 3a47 e33a 0170 9e3d 1681 573d
000000d0: a5d7 36bb 2266 b53a 7ee9 6e3d 91af edbc
000000e0: ddde 223d efce 663d 09ac a2bd 477d 66bd
000000f0: 17c5 923c 2ce2 f0bc 8f23 5f3c 2884 7bbd
00000100: e035 8dbd 967b a7bd 0323 873c 48b7 3abd
00000110: 9860 b73d fbd5 dc3c 676a 373d 7f62 ac3d
00000120: d08e bc3c 8827 80bd d5bc b7bc c5f2 663d
00000130: ad7d e83c 6024 ecbc 1063 963d 7c8d a9bb
00000140: 0a8b c7bd b100 02bc 3765 533b e31d 493d
00000150: fe7a 8fbd 08ae 6c3d aae3 77bd 8922 ab3d
00000160: 682e 303c c239 97bc 8fec 823d fde1 933d
00000170: b8fb a9bd 2b8a d7bc 4bd7 94bd 2d37 293d
00000180: 303c acbc fbfd 3ebd d3d5 a4bd 432d 643d
00000190: 0a55 da3c 770b 17bc 271a d13c 5b97 603d
000001a0: 33ff 20bc 435f 9c3d 00e1 163d c8a2 7cbc
000001b0: bb9e 313d 5e10 91bb da1d 74bd 514d 683c
000001c0: 57ec 4d3d a986 c03d 94c2 ad3c 4538 88bd
000001d0: 47f4 98bd 4c38 e0bc 6a0e 80ba cc2d aeba
000001e0: 3ccf 65bd d8c5 773d f506 8fbd 48ea aabc
000001f0: 3ba4 a93c 4c81 13bc 909e 143d b5fb fd3c
00000200: fea5 83bc d8d2 163d b5a2 bd3c da35 a9bd
00000210: 6f2c acbc e283 523d caf5 99bd affb 8abd
00000220: b116 f1bc b7f0 a7bd 32f9 793d 8ccc 2f3d
00000230: e584 a23d 6eff 0bbd 395f 5abd a2ba 713c
00000240: a72a 443d 7e7a c93b 9fe9 843d 06c8 1abc
00000250: 7c28 8e3c 560d cc3c f314 93bd ce0e 30bc
00000260: e777 973c eee6 8b3d b8b4 7fbd b5a2 9bbd
00000270: 024d 193c 26b9 a83d 84a7 2b3d d73a 8c3d
00000280: 6936 14bd 95d5 af3d b008 62bd 4752 413b
00000290: 0365 623d da91 5a3d 864a f53c e8d6 7dbd
000002a0: 508f 26bd d337 dfbb 11e9 53bd ee77 9fbd
000002b0: d18c b83d 38ed 163d 2364 66bd df04 06bd
000002c0: 6dd1 b93d 514b 24bc 895e b6bd fe3e 4f3d
000002d0: 4fbc 54bd b890 973d 7cdc b13d 60f5 a0bd
000002e0: 2b88 923d 0313 84bd a93f 83bd 00e4 a43d
000002f0: f029 84bd bcfd 3dbd 8c12 883d 9d7b 31bd
00000300: e057 30bd 242a a3bd 9280 a43c 57bc c93c
00000310: fcb4 48bc e16e 72bd cce0 b73d 7b32 a9bd
00000320: 0816 323d b575 683d 7cba 023d 0d14 5bbd
00000330: 0231 a03b dc04 72bd fdfa a9bd 0156 fa3a
00000340: 12c2 b43d 5ec7 8a3d 2c54 85bd 0ba1 443c
00000350: 2747 383d e777 143c 43c8 473d e439 1f3d
00000360: 8c10 6ebd 0bc5 ab3d a620 2fbb ec09 dcbc
00000370: a906 373d fd96 98bd 68bd f23a 53ab 373d
00000380: e583 733d bc0a 9dbd b0ff 563b e640 38bc
00000390: 9b7d 703d 21b1 84bd 4268 9ebd a201 933c
000003a0: c7ac 0d3d 9208 863d b7f8 fa3c 8c3d 953d
000003b0: 01e7 06bd d1ab a5bd f121 963d f2c8 fdbc
000003c0: 9804 d0bc 1c7a 653c 6016 4abd 9515 7dbd
000003d0: 206b 513d 8242 8bbd d67b 453d 2a22 74bc
000003e0: d28c 76bc 86bf 413d 0d63 833d c198 e3bc
000003f0: c0dc 46bc ef8f cabc 820f 22bd bb2c 51bd

bias f4 [70]
0.0896252 -0.06738276 -0.0726391 0.07764957 -0.008002226 -0.006451071 -0.03600412 -0.071456686
-0.071479306 0.088759325 0.0014670361 -0.00894514 0.090139106 -0.013546628 0.051858515 -0.08065207
-0.01085374 -0.034965053 0.08455909 -0.07164321 -0.060973097 0.04519985 -0.051897947 -0.06848816
0.045454387 0.0870363 0.02499141 0.0029162015 -0.05016699 -0.07350742 -0.050392456 -0.0077927043
-0.009862627 -0.010629329 -0.03098465 -0.052134052 -0.005069954 0.083163425 -0.061974432 0.033777244
-0.033729907 0.022524884 0.051855978 0.025747653 -0.024892049 0.049405083 -0.0316078 -0.011407233
-0.06346523 0.03591645 -0.05284398 0.03981319 0.068722665 0.04108845 0.0636293 0.08612127
-0.0044795023 -0.017109657 -0.07266695 -0.047750916 -0.08556099 -0.0496033 0.08674477 0.057707496
0.0069938935 0.01970405 -0.04352588 0.03669762 -0.032536637 0.06549826
00000000: 6b8d b73d f9ff 89bd cfc3 94bd bd06 9f3d
00000010: c51b 03bc 8163 d3bb 0e79 13bd e257 92bd
00000020: be63 92bd 73c7 b53d 9049 c03a a38e 12bc
00000030: da9a b83d adf2 5dbc 9869 543d ea2c a5bd
00000040: e3d3 31bc 8437 0fbd 512d ad3d adb9 92bd
00000050: edbe 79bd 7a23 393d f192 54bd 8543 8cbd
00000060: 612e 3a3d 1640 b23d c9ba cc3c be1d 3f3b
00000070: e77b 4dbd 0f8b 96bd 5268 4ebd f159 ffbb
00000080: db96 21bc a326 2ebc 85d3 fdbc 848a 55bd
00000090: db21 a6bb 9651 aa3d e7d8 7dbd 025a 0a3d
000000a0: 5f28 0abd 1b86 b83c ef66 543d beec d23c
000000b0: 69ea cbbc fc5c 4a3d 2e77 01bd 67e5 3abc
000000c0: 0ffa 81bd 211d 133d ee72 58bd 2813 233d
000000d0: 78be 8c3d 5d4c 283d 1450 823d 5960 b03d
000000e0: cac8 92bb 8d29 8cbc 69d2 94bd 7796 43bd
000000f0: 9a3a afbd d42c 4bbd 3ea7 b13d b25e 6c3d
00000100: 082d e53b 636a a13c 3148 32bd 3e50 163d
00000110: 2345 05bd f423 863d

weight f4 [70]
0.99694985 0.99976504 0.99738216 0.9910103 0.9918639 0.99092555 0.99080044 0.9990452
0.9959229 0.99406326 0.9916323 0.9958955 0.9924985 1.0005105 0.9989794 0.99375194
0.99029094 0.9990692 0.99037546 0.99193853 0.9918617 0.9932237 0.99526227 0.99001783
0.9894347 0.9922829 1.0039519 0.99057436 0.99119943 0.99325013 0.9922937 0.9915126
0.9888747 0.99030477 0.99927485 1.0030011 0.9902663 0.9935242 0.99463904 1.0033171
0.98929936 0.9962191 0.99384767 0.9914259 0.99396807 1.0024039 0.9902354 0.9927261
0.9897763 0.99706835 1.0005438 0.98893 0.9907471 0.9937587 1.0018251 0.99360466
0.98972076 0.99573433 0.9924829 0.9966783 0.99015373 0.9961601 0.9919435 1.0058645
0.99168205 0.99102604 0.992381 1.0003619 0.98769 1.0098971
00000000: 1b38 7f3f 9af0 7f3f 7054 7f3f dab2 7d3f
00000010: cbea 7d3f 4cad 7d3f 19a5 7d3f 6dc1 7f3f
00000020: cef4 7e3f ee7a 7e3f 9ddb 7d3f 02f3 7e3f
00000030: 6214 7e3f ba10 803f 1dbd 7f3f 8766 7e3f
00000040: b583 7d3f 00c3 7f3f 3f89 7d3f afef 7d3f
00000050: a6ea 7d3f e943 7e3f 82c9 7e3f cf71 7d3f
00000060: 984b 7d3f 4106 7e3f 7f81 803f 4896 7d3f
00000070: 3fbf 7d3f a445 7e3f f606 7e3f c5d3 7d3f
00000080: e426 7d3f 9d84 7d3f 7ad0 7f3f 5762 803f
00000090: 1882 7d3f 9a57 7e3f aaa0 7e3f b26c 803f
000000a0: b942 7d3f 3708 7f3f cd6c 7e3f 16ce 7d3f
000000b0: b174 7e3f c54e 803f 1180 7d3f 4c23 7e3f
000000c0: fb61 7d3f df3f 7f3f d211 803f 842a 7d3f
000000d0: 9aa1 7d3f f866 7e3f ce3b 803f e05c 7e3f
000000e0: 575e 7d3f 72e8 7e3f 5c13 7e3f 4f26 7f3f
000000f0: b77a 7d3f 5904 7f3f 02f0 7d3f 2bc0 803f
00000100: e0de 7d3f e2b3 7d3f ae0c 7e3f dc0b 803f
00000110: 40d9 7c3f 4f44 813f

bias f4 [70]
-0.020727169 0.014825575 0.0147303445 -0.014822226 -0.014562738 -0.015170872 -0.015474581 -0.015214392
0.014789903 -0.014299377 -0.013850621 0.015214928 -0.0137741435 0.014734374 0.015163896 0.015336779
0.015345271 0.014998567 -0.015267293 -0.014765465 -0.014615497 -0.014565551 0.014796774 0.015102517
0.01548552 -0.014627465 0.014861465 -0.014918772 -0.015301274 -0.0150321685 0.014684067 0.014738714
-0.015116052 0.014778565 0.014828012 0.014704439 -0.019640867 -0.014749696 -0.014808936 -0.016562155
-0.015214446 0.014416371 -0.014731171 0.01503411 -0.014488351 0.018147273 -0.015027945 -0.015482806
-0.014525346 0.015037193 -0.014809909 -0.015329262 0.015377012 -0.013934395 -0.014686309 -0.014294001
0.01563291 -0.015104894 0.014590212 0.014788088 -0.015432891 0.014928268 -0.017391935 0.015753172
-0.01491265 0.01498946 -0.014678865 0.01475592 -0.01534077 -0.017626667
00000000: 06cc a9bc f8e6 723c 8b57 713c ecd8 72bc
00000010: 8d98 6ebc 408f 78bc 1989 7dbc c945 79bc
00000020: 5951 723c ef47 6abc b7ed 62bc 0948 793c
00000030: f2ac 61bc 7268 713c fd71 783c 1d47 7b3c
00000040: bb6a 7b3c 8dbc 753c ab23 7abc d9ea 71bc
00000050: d675 6fbc 59a4 6ebc 2b6e 723c 8c70 773c
00000060: fab6 7d3c 09a8 6fbc 817d 733c dd6d 74bc
00000070: 32b2 7abc 7c49 76bc 7195 703c a67a 713c
00000080: 51a9 77bc cb21 723c 31f1 723c e3ea 703c
00000090: e2e5 a0bc b5a8 71bc 2ea1 72bc 5bad 87bc
000000a0: 0346 79bc a432 6c3c 025b 71bc a151 763c
000000b0: 8c60 6dbc 97a9 943c c537 76bc 98ab 7dbc
000000c0: b8fb 6dbc 8f5e 763c 43a5 72bc 9627 7bbc
000000d0: ddef 7b3c 174d 64bc d89e 70bc 6331 6abc
000000e0: 9710 803c 847a 77bc c90b 6f3c bd49 723c
000000f0: 3dda 7cbc b295 743c 8879 8ebc cc0c 813c
00000100: 3054 74bc 5a96 753c 9f7f 70bc d0c2 713c
00000110: da57 7bbc cd65 90bc

running_mean f4 [70]
0.16008572 0.07937393 0.09572054 0.14588182 0.09666335 0.09473894 0.06305134 0.056270197
0.066887654 0.15818113 0.123029135 0.10192321 0.1610597 0.12313842 0.13206927 0.0858517
0.121588215 0.07838134 0.1537332 0.08387779 0.07152607 0.15079536 0.09607877 0.086
0.12171094 0.1279223 0.099732734 0.08749212 0.085874364 0.10778156 0.109351166 0.10731845
0.070185944 0.09777363 0.081208214 0.0979345 0.117366664 0.1858488 0.09573991 0.16751978
0.08997163 0.12464718 0.1333959 0.09065194 0.0955882 0.14379936 0.07354781 0.095431596
0.08746744 0.12915193 0.094018444 0.12295508 0.17198439 0.14561886 0.18179466 0.17580391
0.12904173 0.11828786 0.06131603 0.08644846 0.06290484 0.069111615 0.14635316 0.15578379
0.08971596 0.09883346 0.08280122 0.21345834 0.15910667 0.123305865
00000000: 83ed 233e cd8e a23d 2109 c43d 0b62 153e
00000010: 6ff7 c53d 7d06 c23d 1021 813d 947b 663d
00000020: 65fc 883d 3cfa 213e b3f6 fb3d 1ebd d03d
00000030: d6ec 243e ff2f fc3d 2b3d 073e 04d3 af3d
00000040: 3e03 f93d 6586 a03d 3c6c 1d3e 1ec8 ab3d
00000050: 437c 923d 196a 1a3e f2c4 c43d c520 b03d
00000060: 9643 f93d 10fe 023e ad40 cc3d 122f b33d
00000070: e6de af3d 94bc dc3d 81f3 df3d c7c9 db3d
00000080: a6bd 8f3d 8a3d c83d 7e50 a63d e291 c83d
00000090: ef5d f03d 264f 3e3e 4913 c43d 4e8a 2b3e
000000a0: 0c43 b83d 0547 ff3d ef98 083e b9a7 b93d
000000b0: bfc3 c33d 2440 133e 3ca0 963d a471 c33d
000000c0: 2122 b33d 6740 043e be8c c03d dfcf fb3d
000000d0: ad1c 303e 1c1d 153e 6128 3a3e f105 343e
000000e0: 8423 043e e840 f23d 8426 7b3d e40b b13d
000000f0: 41d4 803d 648a 8d3d 9add 153e c985 1f3e
00000100: 00bd b73d 3269 ca3d b093 a93d d394 5a3e
00000110: dcec 223e c987 fc3d

running_var f4 [70]
0.17422926 0.13188091 0.15382056 0.17919548 0.14099595 0.1426596 0.088244095 0.09880099
0.12185737 0.13572386 0.14683968 0.17611927 0.21322471 0.23747674 0.18449119 0.1885346
0.14624366 0.115293555 0.15034494 0.11846472 0.09887395 0.20211563 0.11698892 0.13331164
0.13464943 0.13935088 0.12367055 0.118457615 0.14384368 0.1814642 0.18471152 0.14058508
0.09770844 0.15841942 0.13154075 0.13619648 0.18721089 0.19686215 0.15852712 0.2732778
0.15583599 0.1700538 0.14651074 0.13189982 0.1254979 0.18286829 0.095357634 0.1147626
0.124009214 0.16924529 0.14814653 0.1378884 0.21034588 0.17292374 0.31702822 0.19313197
0.18079059 0.18769884 0.10551884 0.14316498 0.10832498 0.10290482 0.15221855 0.20584661
0.13058618 0.16211952 0.14750898 0.3184134 0.2554575 0.11612737
00000000: 2869 323e ca0b 073e 2383 1d3e 057f 373e
00000010: 3e61 103e 5c15 123e 52b9 b43d 2c58 ca3d
00000020: 5b90 f93d 32fb 0a3e 245d 163e 9c58 343e
00000030: 9457 5a3e 1a2d 733e 42eb 3c3e 370f 413e
00000040: e6c0 153e 071f ec3d 06f4 193e a29d f23d
00000050: 6d7e ca3d 66f7 4e3e e397 ef3d d982 083e
00000060: 8ae1 093e ffb1 0e3e fc46 fd3d e899 f23d
00000070: c24b 133e c0d1 393e 0425 3d3e 89f5 0f3e
00000080: 5d1b c83d b338 223e 9eb2 063e 1777 0b3e
00000090: 36b4 3f3e 3b96 493e ef54 223e 11eb 8b3e
000000a0: 7893 1f3e 9522 2e3e e906 163e bf10 073e
000000b0: 8682 003e d341 3b3e dd4a c33d a708 eb3d
000000c0: 8bf8 fd3d a34e 2d3e b9b3 173e 9e32 0d3e
000000d0: e964 573e ec12 313e 8651 a23e 63c4 453e
000000e0: 2b21 393e 2034 403e 431a d83d d799 123e
000000f0: 7dd9 dd3d c3bf d23d 2edf 1b3e 74c9 523e
00000100: 62b8 053e a902 263e 980c 173e 1507 a33e
00000110: 53cb 823e 30d4 ed3d

weight f4 [1, 70]
-0.015054952 0.041706912 0.046890393 -0.07533071 -0.06594092 -0.10151264 -0.117105074 -0.02614924
0.025386665 -0.037148207 -0.02953848 0.09681608 -0.019196376 0.045427207 0.093139574 0.10432261
0.10700089 0.07882322 -0.10165563 -0.07009965 -0.058639288 -0.060846265 0.06467436 0.09308146
0.11965053 -0.035885807 0.051382735 -0.080901526 -0.10958717 -0.08521379 0.06262979 0.07078428
-0.098495424 0.07146437 0.03759218 0.046392873 -0.015085612 -0.0776535 -0.018056516 -0.016812468
-0.10046302 0.020050602 -0.073904656 0.09217507 -0.032321215 0.017800959 -0.0910323 -0.11624898
-0.04724102 0.030927598 -0.060439996 -0.10715543 0.11351305 -0.03278001 -0.05663941 -0.051768284
0.12416677 -0.09059128 0.06804976 0.059595656 -0.11673427 0.02685897 -0.018385677 0.020599948
-0.08668834 0.091295585 -0.07501432 0.06582585 -0.10808578 -0.01732448
00000000: 0ca9 76bc ded4 2a3d 2410 403d fd46 9abd
00000010: 080c 87bd dce5 cfbd c9d4 efbd ee36 d6bc
00000020: b2f7 cf3c b828 18bd affa f1bc 8247 c63d
00000030: b841 9dbc e111 3a3d f6bf be3d 18a7 d53d
00000040: 4823 db3d 126e a13d d430 d0bd 6890 8fbd
00000050: c02f 70bd ef39 79bd fe73 843d 7ea1 be3d
00000060: 560b f53d fffc 12bd b476 523d b3af a5bd
00000070: 3d6f e0bd 9184 aebd 0c44 803d 59f7 903d
00000080: f8b7 c9bd e95b 923d 42fa 193d 7406 3e3d
00000090: a529 77bc cc08 9fbd 42eb 93bc 4dba 89bc
000000a0: 8ebf cdbd 2941 a43c 535b 97bd 48c6 bc3d
000000b0: 4063 04bd 51d3 913c 246f babd f213 eebd
000000c0: cd7f 41bd e05b fd3c ee8f 77bd 4e74 dbbd
000000d0: 8879 e83d 5544 06bd bafe 67bd fb0a 54bd
000000e0: 264b fe3d ec87 b9bd ac5d 8b3d 931a 743d
000000f0: 6012 efbd 5807 dc3c 8f9d 96bc 39c1 a83c
00000100: a889 b1bd 2ef9 ba3d 1ca1 99bd b4cf 863d
00000110: 145c ddbd 11ec 8dbc
