mlruns/528961946943719398/models/m-ab7f6e9ad12e4635897a9666943ed63f/artifacts/data/model.pth (torch, 136331 bytes, 23 tensors)

weight f4 [124]
00000000: 2b67 543f cad6 543f 2f2f 853f 0b8f 703f
00000010: dbfb 543f d768 5e3f b232 5d3f 5400 653f
00000020: 4e35 593f 6324 5f3f 8976 783f 28d2 673f
00000030: 2719 543f d065 5c3f 2ea6 7a3f ac91 7a3f
00000040: add2 5f3f 4f80 493f 0c48 863f 6042 5e3f
00000050: 7941 483f 4bee 653f 3899 453f 5388 513f
00000060: c9da 6d3f 749c 673f 83fe 4e3f 4e8c 523f
00000070: c9f7 703f fb6a 563f eecb 3d3f a944 673f
00000080: c52d 713f 6e1b 6d3f e608 753f 529c 6c3f
00000090: b83b 4d3f d0b1 593f c6a1 5b3f c036 3a3f
000000a0: 39e7 483f 613a 7e3f 7ba3 533f 7084 5e3f
000000b0: fab9 703f 157c 623f d07d 3d3f e046 763f
000000c0: 11c9 663f c3cf 4b3f 2d4f 5d3f 9bd4 463f
000000d0: 14b4 583f 705c 4e3f bd77 483f 0a65 4f3f
000000e0: 8ca5 623f fb6c 493f 435b 573f c40f 673f
000000f0: 9594 5b3f 0904 323f 7842 463f 9356 6b3f
00000100: 59f5 3c3f 9bf3 5c3f 0131 3b3f eaf2 5d3f
00000110: e292 833f 9c55 703f ee25 553f 68c8 553f
00000120: 5a1b 2b3f 1748 893f d50b 523f 5d8c 5f3f
00000130: 852a 6d3f c984 533f b978 503f 5f6e 483f
00000140: a1dd 563f 24c1 723f ead1 4a3f f2ee 5b3f
00000150: 22fb 3a3f 9f54 5a3f 6791 683f f635 553f
00000160: 2398 5e3f bbd9 6f3f 6208 313f e640 433f
00000170: 57d6 383f 46f5 573f 1b20 703f 777a 683f
00000180: 6368 363f 3624 543f bdd5 503f c6bd 2c3f
00000190: 2bfc 4f3f 091f 613f 3b8b 273f 4da9 413f
000001a0: 0280 423f 43bd 543f ab80 543f cfcb 333f
000001b0: 363f 3d3f 9a25 3e3f 6147 583f 679e 563f
000001c0: a0bc 3e3f 5eda 683f 3445 583f 4c04 483f
000001d0: c33f 633f 43da 833f dd76 583f de71 853f
000001e0: 4c5e 683f 7d21 7b3f 705f 763f 5546 8b3f
0.8296992 0.8314024 1.0405024 0.93968266 0.831968 0.8687872 0.8640548 0.89453626
0.8484696 0.87164897 0.9705587 0.9055505 0.8285088 0.86092854 0.9790982 0.9787853
0.8743084 0.7871141 1.0490737 0.8682003 0.78224903 0.8981673 0.7718692 0.8184864
0.92911965 0.90473104 0.80857104 0.8224534 0.9412809 0.8375699 0.74139297 0.9033914
0.94210464 0.9261998 0.957167 0.92426026 0.8016925 0.85036945 0.8579372 0.7273979
0.7847782 0.9930783 0.82671326 0.86920834 0.9403378 0.88470584 0.740201 0.96201897
0.90150553 0.79613894 0.8644894 0.7766816 0.8464978 0.806098 0.78307706 0.8101355
0.88533854 0.78681916 0.8412363 0.9025843 0.85773593 0.6953741 0.77445173 0.91928977
0.7381187 0.8630921 0.7312165 0.8669878 1.02792 0.9388063 0.83261 0.8350892
0.6683861 1.0725125 0.82049304 0.8732355 0.92643005 0.8262449 0.8143421 0.7829341
0.8393193 0.9482596 0.79226553 0.85911477 0.7303945 0.8528537 0.90846866 0.8328546
0.8695089 0.93691605 0.69153416 0.762709 0.72202057 0.8435863 0.9379899 0.90811867
0.7125303 0.82867754 0.8157614 0.6747707 0.8124415 0.8793798 0.65446824 0.7564896
0.75976574 0.8310129 0.8300883 0.7023286 0.7392458 0.74276125 0.84483916 0.8383545
0.7450657 0.909582 0.84480596 0.78131557 0.8876917 1.0300983 0.8455637 1.0425375
0.90768886 0.98097974 0.96239376 1.0880839

bias f4 [124]
00000000: f355 91bd da9d 3cbd c17f ccbd a19e 3ebc
00000010: 3c06 42bd d242 ddbd 387e 923c 5e39 60bd
00000020: ba95 a43c 660a 48bd 3a9f 62bd abb0 003e
00000030: 7d53 10be 4843 6cba f98c 2dbc 9bc6 85bd
00000040: 9beb a9bd e22e 7abd 499b 87bd 2439 233d
00000050: ce31 0abd 02f2 403c 1419 d13b b83c 17bd
00000060: 1076 b0bc 82d2 00be c558 47bd 7e83 f63d
00000070: b577 57bd 6004 9e3d a073 12bd 8726 2bbd
00000080: f5c4 923c 508f bbbd cef2 fc3c a8b0 b93d
00000090: 1d41 6c3d 2380 e6bc abf5 1bbd 25d1 e73c
000000a0: 8dbd 12bd c074 14bd c6c6 21bd 4319 f33b
000000b0: 0d6b c23d 34da babd c815 7e3d 3f43 e6bd
000000c0: 0e92 f23c 8da6 153e 99ab 093d 465f cebd
000000d0: 4719 203d fcf0 08bd 52b7 723d 69c8 a8bc
000000e0: c925 b13d beb6 ff3c da19 84bd 2efa 163d
000000f0: f3c4 8cbc 91d3 89bd bce6 403e b075 543d
00000100: b875 bdbc 228b 58bd 9e79 833d 5370 efbd
00000110: 7bf7 063e 5af0 bc3d 78b6 03be c60b eabd
00000120: 4144 ef3d 9867 04be 22ec 9a3d 8c8c 953c
00000130: efe2 a8bb 48cb 03bd 9229 83bd 42ef e63c
00000140: 61f5 943d 1065 583d c339 51bd f911 bdbd
00000150: 8069 8d3c 2530 36bd ac97 143d 4dd0 9f3d
00000160: 9d9e 053d a520 533d 45f4 333c 9a23 44ba
00000170: f093 e23d 9273 783c 61f4 36bd 0e40 c0bd
00000180: 922b dbbc 32d1 72bd 5388 1e3c cf5a c13d
00000190: f36d 9cbd 6bb9 99bc 4f05 c73d 8606 ab3b
000001a0: 2742 d23d c777 46bd 7de6 823d 54c6 b0bd
000001b0: 5bcf 6d3c 259c 883b 85c8 dcbd 4962 c13b
000001c0: 47b0 4dbc 69d3 5b3d eedb 853d 70b3 3abd
000001d0: 129c a7bc 3537 10be f107 333e aa1d 0c3e
000001e0: f81c e13d 9052 af3d 5ab0 96bd 9857 11be
-0.07096472 -0.046048976 -0.099853046 -0.0116345 -0.047369227 -0.108037606 0.017882451 -0.05474221
0.020090926 -0.04883804 -0.05532763 0.12567393 -0.14094348 -0.0009012711 -0.0105926925 -0.065320216
-0.08296891 -0.061079867 -0.06621415 0.039849415 -0.033738904 0.011776449 0.0063811634 -0.03692314
-0.021540672 -0.12580302 -0.04866864 0.12036799 -0.052604396 0.07715678 -0.0357548 -0.04178479
0.017916182 -0.09158194 0.030877497 0.09066898 0.057679284 -0.028137272 -0.038076084 0.02829797
-0.0358253 -0.036244154 -0.039496206 0.007418783 0.094930746 -0.0912365 0.06203249 -0.11243295
0.02961066 0.14614315 0.033610914 -0.10076766 0.039086606 -0.033432946 0.05925686 -0.020603376
0.08649785 0.031215068 -0.06450243 0.036859684 -0.017183756 -0.06729806 0.18838018 0.051870048
-0.023127422 -0.052867062 0.06419681 -0.11691346 0.13180344 0.09225531 -0.12862575 -0.11428027
0.1168294 -0.12930143 0.0756457 0.018255495 -0.0051540057 -0.032176286 -0.06404413 0.028190259
0.07273365 0.052830756 -0.051080476 -0.09231944 0.01726222 -0.044479508 0.036277458 0.07803402
0.03262197 0.051544804 0.010983531 -0.00074821117 0.11063373 0.015164273 -0.04466665 -0.093872175
-0.026754174 -0.059281535 0.009676057 0.094411485 -0.07638159 -0.018765172 0.097178094 0.0052192835
0.10266524 -0.048454072 0.063916184 -0.08631578 0.014514769 0.0041690045 -0.107804336 0.005901609
-0.012554235 0.053668413 0.06536089 -0.04558128 -0.020460162 -0.1408356 0.17483498 0.13683191
0.109918535 0.085606694 -0.07357855 -0.1419357

running_mean f4 [124]
00000000: 363a 8e42 8c94 2746 a0f2 c340 41ec b140
00000010: 8737 d542 e3d3 5940 2f43 4540 41ef 5f40
00000020: a3c5 3b40 d309 ce3f c9af dd43 f888 3142
00000030: 165b 0e44 c16c 8440 ea3b e13d efd8 9144
00000040: ce5d ba43 f881 ae40 e41e c144 5ba0 d73e
00000050: 1ae3 573d 7fda cb3f 8881 c83e 88d1 3a40
00000060: 5530 863f f89d 6140 435f d440 2411 103e
00000070: 87e1 213f 4f79 f23f 5746 dd3f f41c e63f
00000080: 7b81 f143 cd5e 3340 ec46 3340 71a5 143e
00000090: 6b5b bb42 c647 5242 078b c241 db61 8d40
000000a0: 339f 6741 5dd6 1c40 ccf6 823c 5906 6942
000000b0: 19ce 1842 2ba8 c541 552e f241 9653 0242
000000c0: 960a 4340 90f3 9a3f 9f16 a83d 80f0 dc3e
000000d0: 4104 383e 712b 323f 85ee 4a3e 40f8 943d
000000e0: b44f 0f3d 7305 813d 6b80 113d b8b5 8a3c
000000f0: 4342 b13d b108 893c 5d90 e43d 4e66 723f
00000100: 7ee9 623e 6254 aa3d 8bc3 b73d 5571 0e3d
00000110: 5ece c23e b6e8 0f3e 3730 223e be7c 233e
00000120: cb5c ca3d 84e2 153d 2609 ee3c 1cc1 fa3c
00000130: ae14 ae3c e4c2 a53c 8112 793c 40b8 a13c
00000140: b22b 493f ddde 0f3e 05ff 083d 41ea 613c
00000150: aa61 d13d dacd 1a3d 7c3c 9b3d 7278 773d
00000160: d4a7 a93c 7b5a 133c be95 f03c 349d 203e
00000170: ca7f 843d 49d9 fe3c 9bd2 6b3d 6aa6 973d
00000180: 2b63 d13c d740 7d3c 15e2 3a3d d19b 053d
00000190: e25a 883d 8bb4 5b3c b51a bf3c 48a5 673c
000001a0: 7ecd 163f eada ba3d 744b da3e 502d b33b
000001b0: a516 ec3e 69d0 793c 2f72 ab3c b4fd 6f3f
000001c0: 5ce9 973d 4703 823e ba70 793d 1111 cd3c
000001d0: 7d51 143d 9551 c33d a319 8e3c 9d97 5b3f
000001e0: 4b3c 5e3c 9f48 523f 899a 0b3c 9190 c43d
71.11369 10725.137 6.1233673 5.5600896 106.60845 3.4035575 3.0822256 3.498978
2.9339378 1.6096748 443.37332 44.38376 569.4232 4.1382756 0.10997756 1166.7792
372.73285 5.4533653 1544.9653 0.4211453 0.052706815 1.5926055 0.39161325 2.9190388
1.04835 3.5252666 6.6366286 0.14069039 0.6323475 1.894327 1.7287091 1.7977586
483.01157 2.8026612 2.8012037 0.14516236 93.67855 52.57009 24.317884 4.4181952
14.476367 2.4505837 0.015986823 58.2562 38.201267 24.707113 30.272623 32.581627
3.047521 1.2105579 0.0820744 0.43152237 0.17970373 0.69597536 0.1981755 0.072739124
0.03498812 0.062998675 0.03552286 0.016932353 0.086552165 0.016727777 0.111603476 0.94687355
0.22159383 0.08316876 0.08972844 0.03477605 0.3804807 0.14053616 0.15838705 0.15965554
0.0988098 0.036592975 0.029057097 0.03060966 0.021250095 0.020234533 0.015202166 0.019741178
0.785823 0.1404986 0.03344633 0.013788761 0.10223706 0.03779397 0.07579896 0.0604176
0.02070991 0.00899374 0.029368278 0.15684968 0.06469686 0.031109469 0.057573896 0.07404788
0.025559982 0.015457354 0.045625765 0.0326193 0.066579595 0.013409744 0.023328165 0.014138527
0.58907306 0.09123786 0.4263569 0.005468048 0.46111026 0.015247443 0.02092847 0.93746495
0.07417557 0.25393125 0.06089852 0.025032552 0.036210526 0.09537045 0.017346209 0.8577822
0.01356418 0.8214206 0.008520731 0.09597886

running_var f4 [124]
00000000: 385d 0644 a92c cb4c 400c f63f f7bf 983f
00000010: 6a9c e946 e9b9 a63e d6eb f93d ebae 4f3f
00000020: 6fa5 ab3e e108 903f bedc 4a48 6ed2 bd46
00000030: f835 4948 3633 6c3f b4ad 283e bf29 0b48
00000040: 6451 4648 516c 0245 af68 8948 0672 893e
00000050: 3575 533d a5a9 963e c92e 803e e502 1e3f
00000060: 4115 543d 2e48 d83e 1b4e 2c40 7a8e c13e
00000070: 89a8 d03e 7c80 4f40 dda1 4e3f 2c2f 113f
00000080: 5d4f 3847 ea68 103f 0728 0f3f de24 813e
00000090: 049c 8046 fcde 9d45 ab51 8345 2d65 8544
000000a0: 7f04 3145 5301 b244 d955 863d d71a de48
000000b0: 36ae 7044 4bb5 d443 3dd7 0c44 cfee 7943
000000c0: 4948 3340 ab17 163f 9c67 fa3d a5db c33e
000000d0: 1968 983e 0ae2 5a3e c692 243e f757 8b3d
000000e0: 9ec4 193d 8881 953d da68 0d3d 9640 873c
000000f0: ab57 a23d 2d93 863c 6088 433e 1973 873d
00000100: 0634 833e ff98 1d3e a6d8 a83d 60d2 083d
00000110: d6e2 6f3e 0d1f f73d f5e3 093e aedc 0a3e
00000120: 335b b73d edb5 103d fe48 e63c 6e6b f33c
00000130: 6a66 ac3c 882f a23c 97ee 743c dc4a a03c
00000140: 2e45 2e3e 608a f83d 2048 043d d9a5 5e3c
00000150: 13de bd3d 45f8 153d 20a2 903d ab5e 693d
00000160: 8fef a63c 42c7 123c 486f e73c 4fe3 083e
00000170: d43c 7a3d 35d3 f93c 1885 603d eef1 8c3d
00000180: 74b7 cb3c eb62 793c 7933 323d 52aa 003d
00000190: 31a1 803d 37c0 563c d502 bb3c bf82 643c
000001a0: 964c 793e 1390 ab3d a6ce 7a3e 7734 b23b
000001b0: b54a 7e3e 89ab 753c 7467 a73c f121 6f3d
000001c0: d0b9 8d3d e840 433e aaff 6b3d 3531 c83c
000001d0: 3947 0e3d dd12 b13d fb71 8b3c c02c fb3d
000001e0: a209 5b3c c8bc 163e 7f9d 0a3c f91e b23d
537.45654 1.0652193e+08 1.9222488 1.1933583 29902.207 0.32563713 0.12203185 0.8112628
0.33524653 1.125271 207730.97 24297.215 206039.88 0.9226564 0.16472512 142502.98
203077.56 2086.7698 281413.47 0.26844805 0.05162545 0.29426304 0.25035694 0.61723167
0.05177808 0.4224257 2.6922672 0.37804013 0.40753582 3.242217 0.80715734 0.56712604
47183.363 0.56410086 0.5592045 0.2522344 16462.008 5051.873 4202.2085 1067.1617
2832.281 1424.0414 0.06559343 454870.72 962.72205 425.41635 563.3631 249.93285
2.801287 0.58629864 0.12226793 0.38253513 0.2976692 0.2137529 0.16071615 0.06803887
0.037541024 0.07300097 0.034523822 0.01651029 0.079268776 0.0164276 0.19094992 0.0661375
0.25625628 0.15390395 0.082444474 0.033403754 0.23426375 0.12066469 0.13465865 0.13560745
0.08952942 0.035329748 0.028110977 0.029714312 0.021044929 0.019798055 0.014949462 0.019566946
0.17018577 0.12135768 0.032295346 0.013589346 0.09270873 0.03661372 0.07062173 0.056975048
0.020377902 0.00895864 0.028251305 0.13367961 0.061093166 0.03049622 0.054814428 0.06882082
0.02486775 0.015221338 0.04350612 0.03141243 0.06280745 0.013107351 0.022828499 0.013947188
0.24345621 0.08377089 0.24492893 0.005438383 0.24833186 0.01499451 0.020435072 0.05838198
0.069202065 0.19067729 0.057616867 0.024437526 0.034735892 0.08646176 0.017022124 0.12264395
0.013368996 0.14720452 0.008460402 0.08697314

weight f4 [61, 124]
00000000: 5627 903c 122d e93c 340f d23d 6483 923d
00000010: b5f0 cabd 4992 86bc 13fb 86bd d2e3 623d
00000020: 092c dbbc 422c df3a d040 a83d 15c9 9ebd
00000030: 18e6 9cbc cdf9 8dbd 5077 7a3d 885a 203d
00000040: b824 313d 253c 01bc 5e4c 973d cfce deba
00000050: 2efc 5fbc 5810 97bb c7e5 a9bb 59a0 11bd
00000060: 3388 c6bd 63b6 2c3e ce30 21bd c04b b73c
00000070: fb98 133d 9e53 153d be8c 803c e9fe 1d3d
00000080: 585e debc be82 033d 7697 57bd 5d2f 193d
00000090: 4356 273d f0af 93bd bfd5 22bc 5950 863d
000000a0: 71dd 79bd bf84 9cbc 0338 1a3b 18d7 383d
000000b0: c475 61bd bfc1 e3bb 3011 b73c 42eb 333d
000000c0: 5a24 97bd 1a43 18bd a058 013c c8c1 9fbd
000000d0: acd8 6ebd 0ce4 b3bd 32f9 9abc e40b 5d3d
000000e0: 75b1 623d 2cf0 973d 6629 ddbc 3f73 22be
000000f0: 9364 38bd 4d09 01bd 7bfc 60bd d858 e93c
00000100: faec a03d 8871 0c3e 02c2 24bc 3264 e5b9
00000110: 8036 30bd 091f 47bd 0487 8cbb ce6b 933d
00000120: 0c62 87bc 32ce 573d 9b68 d53d 94df 46bd
00000130: 4756 7c3d 8c82 26be 49aa 9d3a 52ca bcbd
00000140: 1290 d6bc d58d b73c 3742 d53d f646 8b3d
00000150: f5ab 1cbd 37ca 593d 1976 00be a073 b23d
00000160: 7157 383c 448f 10be 5927 ccbd eef2 6abc
00000170: 55a8 0fbe 9e44 b73d d541 ad3d cff9 2b3a
00000180: e9bb 54bd 819a 8abd a9c8 70bd 0539 44bd
00000190: 8cac b23d f13d dc3d 69c1 59bd 5403 b7ba
000001a0: 5ab4 683d 8e89 873d 8bdf 103d 00cd d139
000001b0: 3736 83bd 9a6f d33c 490a f63c 4f0f adbd
000001c0: 3bd0 0ebb e35c 9cbc 5c14 a2bd 0aaf c1bd
000001d0: a99b 183d 88f9 33bc 835b 7f3d d881 54bd
000001e0: 901c 9a3d 69cc bdbd 583e 1c3e 64de 883d
000001f0: e3f0 3bbd 7db6 abbd bc3c 2f3c 9fed 1fbe
00000200: d309 c3bd fcb8 8c3c 5a33 debd caeb a13b
00000210: fd48 29bd f2c8 1e3d 6131 8abd ffd1 3fbd
00000220: 4e20 cabb e15d 66bd 4dd8 8b3d 52b6 98bd
00000230: e8c1 7dbd f20a 29bc f4c6 eebd 8c7d 45bd
00000240: 5691 0b3d 2a40 b9bc bb91 24bd 0112 8abc
00000250: 7b65 dfbd 2e01 5f3d 3571 4dbd de56 e53d
00000260: ec1f e4bd cb27 02be d1b0 5f3d 8b0f a6bd
00000270: c6df b5bd d0e2 2cbd 4a63 473c bf6e 473d
00000280: ff5d 8fbd 27bb 503d 3920 29bd ebf5 29bc
00000290: 23b1 98bd 8ab6 ed3c 646e ce3c 11e9 6b3b
000002a0: 2351 cabb 77db 343d c75f 6abd 3fa3 41bb
000002b0: c7a9 613c 309e 1bbd 1521 433c b4cb d5bd
000002c0: 37da b23d 6648 0f3d 2e73 98bd d403 a33d
000002d0: e1e7 75bc d788 363e 03fa c03c 72e1 103d
000002e0: 20ee 7b3d 0659 40bd a87e aebb d80c 8a3d
000002f0: 77d3 8a3c b10c 083e efe6 123e 0ff3 3dbb
00000300: 685d 65bd 49fd 21bd 8718 273c f463 793c
00000310: ca97 fb3a 6488 393d 1de5 a83d 90fa 5c3b
00000320: 7ecf f2bc f2e8 72bd 2714 0b3d a067 a4bd
00000330: 14e1 0ebd 67d6 d33d 6269 a1bd 2344 7abd
00000340: e2b3 f33b 164b 4c3d ae27 4e3d b1ab 1b3d
00000350: c634 7abd dedb 4b3d 92c7 19bd f34a 18be
00000360: 2015 71bc a429 253d eebb 913c c3fe 2d3e
00000370: 3467 71bd c8ec db3b 63d1 f03b 23c7 793c
00000380: b713 b2bc b7c3 443d a2a4 f93b 3701 1dbd
00000390: 94a3 353d d9f7 193d ccea 3fbd b346 91bb
000003a0: 5c6a 193d 0f59 d1bc 4471 1b3d d027 babd
000003b0: 5615 733d 2998 d83d 50f5 eabc 9257 9ebd
000003c0: 3175 793c 9e76 9a3c 2efd 4b3d b0ed 5c3c
000003d0: a10d b13d 6372 613d 6436 f83c b41d adbd
000003e0: c895 0fbd 5b07 c0bd bd99 84bd 667e 25be
000003f0: 0d9f 853c f4e1 1c3c b88e 6a3c 8295 1fbc
0.017596882 0.028463874 0.10256806 0.07153967 -0.099091925 -0.016427176 -0.06590857 0.055393048
-0.026754396 0.001702674 0.08215487 -0.07753197 -0.019152686 -0.06932411 0.06114894 0.039148837
0.04324791 -0.007887875 0.07387613 -0.001699889 -0.013670964 -0.0046101026 -0.0051848623 -0.03555331
-0.09693947 0.1686645 -0.039353184 0.022374988 0.036034565 0.036456697 0.015692111 0.03857318
-0.027144596 0.032107107 -0.05263468 0.037398685 0.04085375 -0.07211292 -0.009938656 0.06558294
-0.0610022 -0.019106267 0.002353192 0.045127004 -0.05504395 -0.0069505866 0.022347063 0.04392553
-0.073799804 -0.037173368 0.007894665 -0.07800633 -0.058312103 -0.08783731 -0.018917654 0.053966418
0.055345017 0.07418856 -0.02699728 -0.15864275 -0.04501779 -0.03150301 -0.054928284 0.028484747
0.078577 0.13715184 -0.010056021 -0.00043752935 -0.043020725 -0.04861358 -0.004288556 0.071982965
-0.016526245 0.052686878 0.104203425 -0.048553064 0.061605718 -0.16260737 0.0012028898 -0.09218277
-0.026191745 0.022406498 0.1041302 0.06800644 -0.03824993 0.053171363 -0.1254505 0.0871346
0.011251316 -0.14117151 -0.099684425 -0.0143401455 -0.14029057 0.089486346 0.08459822 0.00065603567
-0.051937018 -0.067677505 -0.058785114 -0.04790594 0.08724317 0.10754002 -0.053162966 -0.0013962784
0.05681262 0.06618033 0.035369437 0.00040016323 -0.06406825 0.025810052 0.030034201 -0.084501855
-0.0021791595 -0.01908726 -0.079140395 -0.09457214 0.037257824 -0.010984786 0.06234313 -0.05188164
0.07524979 -0.09267504 0.15258157 0.06683043 -0.045884024 -0.08384416 0.010695633 -0.15617989
-0.09523358 0.017178051 -0.10849638 0.0049414383 -0.041329373 0.038765855 -0.067476995 -0.046831127
-0.006168402 -0.056241874 0.068283655 -0.0745665 -0.0619525 -0.010317551 -0.11659041 -0.048215434
0.03407415 -0.022613604 -0.040178042 -0.016854288 -0.10908028 0.054444484 -0.05015679 0.11198209
-0.11138901 -0.12710492 0.054611985 -0.08108433 -0.08880572 -0.042208493 0.012169668 0.0486896
-0.0700035 0.050959732 -0.041290496 -0.010373573 -0.07455661 0.029017705 0.025199123 0.0035997073
-0.006174223 0.04415461 -0.057220247 -0.0029546765 0.013773388 -0.037992656 0.011909743 -0.10439244
0.087330274 0.034981154 -0.07443844 0.079597145 -0.0150088975 0.17825638 0.023556715 0.03537125
0.06150639 -0.0469599 -0.005325157 0.06740731 0.016946537 0.13286091 0.14345907 -0.0028983986
-0.055997282 -0.039548192 0.010198719 0.015221585 0.0019195017 0.045296088 0.08246825 0.0033718683
-0.029639956 -0.059304185 0.033954766 -0.080275774 -0.03488262 0.103436284 -0.07881428 -0.061100136
0.007437215 0.049876295 0.05033081 0.038005535 -0.061085485 0.04977023 -0.03754384 -0.14872341
-0.014714509 0.040322915 0.017789807 0.16991715 -0.058936313 0.006711576 0.0073491796 0.015245232
-0.021737916 0.04803821 0.0076185027 -0.038331237 0.044345453 0.03758988 -0.04685478 -0.004433477
0.037454948 -0.025555162 0.037949815 -0.09089625 0.05934652 0.10575897 -0.028681427 -0.077315465
0.0152256945 0.01885539 0.049801998 0.0134844035 0.08645178 0.05504073 0.030299373 -0.08452931
-0.035054952 -0.09376403 -0.06474636 -0.16161498 0.016311193 0.009575356 0.014316253 -0.009740235

bias f4 [61]
00000000: 506b 2bbc ff6e 21bd 8126 86bd f6f2 87bd
00000010: 32e8 66be 6e62 e7bc 664c 8cbd 3e3a 27be
00000020: 9a63 b4ba d5b9 8f3d 85a7 91bd fdc6 efbd
00000030: 2018 303b ed06 d8bc c699 cdbd 1283 3abd
00000040: 24f9 16be 161f 973d e8f6 203c 405a 1a3b
00000050: 0537 31bd 37a9 863c 0676 013d 7ab4 2abe
00000060: 417e 55bd 1084 b7bd cd54 52bd 0775 493d
00000070: e284 373d 71df 4bbe 26be ce3c 5a65 c0bd
00000080: 17ba 793c 8359 cbbd a924 32bd fb25 70bd
00000090: 0b2e c8bc 52b8 c1bc 6402 6ebd e7c6 7bbc
000000a0: 4c15 70bc 591f 3abd 4443 9f3b 457c fb3d
000000b0: 694c 1dbc 5974 bb3c cdf0 11be 4adb 0abe
000000c0: 2171 da3d 8a39 593d 9109 4cbd 7ec9 24be
000000d0: f23e 683d 71a8 243c 28e0 ca3d 7bf7 2cbd
000000e0: 3a23 943d 7286 5bbe aa9a 86bd a1cf e3bc
000000f0: 38bc 093e
-0.010462597 -0.039412495 -0.06550313 -0.06638138 -0.22549513 -0.028245177 -0.06850509 -0.16330811
-0.0013762594 0.070178665 -0.0711203 -0.11707876 0.0026869848 -0.02637049 -0.100390956 -0.045535155
-0.14743477 0.07378976 0.009824492 0.0023552328 -0.04326536 0.01643811 0.031606697 -0.16670409
-0.05212236 -0.08960736 -0.051350404 0.04918387 0.04480446 -0.19909455 0.025237154 -0.09394331
0.015242121 -0.099291824 -0.043491993 -0.05862997 -0.024436017 -0.023647461 -0.05810775 -0.015367246
-0.014653515 -0.04544005 0.0048603136 0.12279562 -0.009600737 0.022882627 -0.14252014 -0.13560215
0.10666109 0.05303339 -0.04981381 -0.16092488 0.056700654 0.010049925 0.09906036 -0.042228203
0.072332814 -0.21438006 -0.065724686 -0.027808966 0.13450706

weight f4 [61]
00000000: 86b7 743f a8dd 5d3f 3df8 5e3f a0cd 573f
00000010: 667a 553f 3d3c 5e3f 2e8e 5b3f a536 653f
00000020: a1b6 543f a678 4e3f f725 553f 5095 763f
00000030: e576 5a3f 0be1 723f 484f 5f3f f42a 573f
00000040: 79b6 783f 60e4 443f 8327 643f 5e56 6e3f
00000050: 42b0 563f 5d64 503f d425 673f 5cb6 733f
00000060: 3ab0 603f 7949 3f3f a478 583f 4bfd 583f
00000070: 6add 6f3f d966 723f ac3b 6f3f 8953 583f
00000080: d55a 6f3f 5e2f 653f 4960 553f 4b15 603f
00000090: 36ce 5d3f 38fb 5e3f 6e28 7b3f 4f12 4c3f
000000a0: 7e1b 753f ac33 6d3f dbcf 753f 558f 6e3f
000000b0: ef48 673f 8319 4c3f 1506 793f d6dd 5b3f
000000c0: c5fe 583f 7431 4c3f c0a4 623f f01d 773f
000000d0: 7bdd 643f 21b6 553f 7670 513f 4fa8 573f
000000e0: 4280 5f3f f480 653f dc95 633f 5ff4 463f
000000f0: bc3e 5e3f
0.95592535 0.86666346 0.8709753 0.84298134 0.8338989 0.86810666 0.85763824 0.89536506
0.8309117 0.80652845 0.83261055 0.9632158 0.8533767 0.9487464 0.8723035 0.84049916
0.9715343 0.7691097 0.8912279 0.93100536 0.838627 0.8140314 0.90292096 0.95200133
0.877689 0.74721485 0.84559083 0.84761494 0.93697226 0.94688183 0.9345043 0.84502465
0.93497974 0.895254 0.83350044 0.8753249 0.8664278 0.8710208 0.98108566 0.79715437
0.95745075 0.9265697 0.9602029 0.9318746 0.9034566 0.7972643 0.97274905 0.8588537
0.8476375 0.7976296 0.8853264 0.96530056 0.8940045 0.8348103 0.81812227 0.84241194
0.8730508 0.8964989 0.8890054 0.7771663 0.86814475

bias f4 [61]
00000000: 41eb b8bc 759a 6dbd c136 b8bc 6db8 54bc
00000010: 8cc1 873d f148 c5bc bd6f c2bd 568b f9bc
00000020: 3df3 c73c a19b dd3c db3f 27be 26c3 24bd
00000030: 166d 5bbc f379 963d e4b5 73bc 1dae c23c
00000040: ebc1 82bc 1056 77bd f0e0 3ebd f408 6ebd
00000050: 0ba2 dfbc 5911 143d 98f5 04bd e31f 4c3c
00000060: 28de 7fbd 5495 26bd dcac 56bd 88fe 19bd
00000070: 297f 10bd d712 61bd 4658 903d 4cc3 77bd
00000080: 603f 713b 7eee 853d 11de 1cbd f8c4 e53a
00000090: df4a c8bc 4e8f 3ebd 7dce 0abc 6282 913d
000000a0: e89b 1bbd 4b56 723c b19a cf3d aaf5 373d
000000b0: 8d9b b2bd ba0a 72bd e202 523d 5804 103c
000000c0: 4ad6 f53d abc6 8a3d d1d6 57bd d770 883c
000000d0: f6fe 05bd fb13 89ba 300f 0ebd 118a 833c
000000e0: ac07 a9bb 86fc db3b eb90 81bb 7ff2 983d
000000f0: 65f1 c43d
-0.022573115 -0.05800863 -0.022487046 -0.012983424 0.06628713 -0.024082633 -0.09493969 -0.030461948
0.024407977 0.027051749 -0.16332953 -0.04022517 -0.013392707 0.07347479 -0.014874909 0.023764664
-0.015961608 -0.06038481 -0.046601236 -0.058114007 -0.027298948 0.036149357 -0.03246078 0.012458774
-0.062467724 -0.040669754 -0.052410945 -0.037596256 -0.03527752 -0.054949608 0.07048087 -0.060488984
0.0036811456 0.065396294 -0.038297717 0.0017530015 -0.024449764 -0.046523385 -0.008472082 0.07104947
-0.03799048 0.014791082 0.10136927 0.044912018 -0.08721075 -0.05909226 0.05127228 0.008790098
0.12003763 0.06776174 -0.0526951 0.016655369 -0.032713853 -0.0010458225 -0.034682453 0.016057046
-0.0051583853 0.0067134527 -0.003954043 0.074681275 0.09616355

running_mean f4 [61]
00000000: 0ac9 9b3d 9e37 643e a026 8a3e e5e3 d13d
00000010: bc37 b4bc ed09 223e c26a d53d 4eab ce3d
00000020: f555 053e 2409 563e 9cce 013e 8a2f ad3d
00000030: 7a72 903e 530a 763e 6b7b b43d cde4 eb3d
00000040: d75f d23d d822 573e 8127 4c3e c6f9 793e
00000050: 7c2d f63d ce51 9a3e e3aa 543e 80fc 413d
00000060: b0b2 cc3d a15a 4a3e ac3b 6f3e 91f8 4e3e
00000070: a86e 263e 4f7e 3e3e bad8 513e 5f3f 9f3d
00000080: de0d 9b3e 325d 893d 8b75 c13d 1787 d23d
00000090: 92b0 1d3e c12b f53d 0a28 943e 277d 8a3e
000000a0: f523 b13e 5b20 9e3e cd82 683e b30b bf3e
000000b0: cd43 083e 605b 553e 966c c13c afc7 d73d
000000c0: 402b 8f3e 9465 613e 479f 743e d64b de3c
000000d0: e5c0 793e 271e 573e 2664 b03e 9e36 343e
000000e0: 9e46 6f3e f09d 4c3d 6b6e cd3d c85b 893e
000000f0: 014f 8e3e
0.076067045 0.22286841 0.26982594 0.102485456 -0.021999232 0.15824099 0.10420753 0.100912675
0.13021071 0.20901924 0.12676471 0.08456333 0.2821234 0.24027376 0.088126026 0.1151825
0.10272186 0.21009386 0.19936945 0.24411687 0.12020394 0.30140537 0.20768313 0.047359943
0.099950194 0.19761135 0.23362607 0.20212008 0.1625315 0.1860287 0.20492831 0.07775759
0.30284017 0.06707229 0.09446248 0.102796726 0.15399387 0.11971236 0.28936797 0.2704861
0.34597746 0.3088406 0.22706147 0.37313613 0.13307114 0.20835638 0.023611348 0.105361335
0.27962685 0.22011405 0.23888884 0.02713577 0.2438999 0.21007596 0.34451407 0.1759896
0.23366782 0.04995531 0.10030826 0.26827836 0.2779465

running_var f4 [61]
00000000: 59c5 1a3e da2e b53e df34 d33e f074 2a3e
00000010: 04cb 3d3d 5bf4 073e 8b6a bc3e 70fd cb3e
00000020: 7a05 6e3e c890 4b3e 5f0a ad3e 44a0 9c3e
00000030: 87d3 203f 31ac b33e 2c1d e93d 7fe7 8a3e
00000040: 3c24 af3e f0fc 3e3e ceec c23e 1550 0a3f
00000050: 7636 223e 8382 973e bfd3 963e a048 4f3e
00000060: 9f07 263e b25e d23e 8bcf c53e 78b4 6f3e
00000070: a702 b23e a9e3 243f 4556 4d3e 4bad 9f3e
00000080: ebfc 1a3f f136 143e 3ac5 e93d 863b af3e
00000090: b3c6 003f dd4d 223e 4c7b 013f e3a9 d63e
000000a0: 136c 563f 866d 1f3f f1c8 903e ca60 023f
000000b0: db23 8b3e 74bc 8f3e fd3a 323d 6c03 253e
000000c0: 3ccf 983e 04e5 d33e 4237 0e3f 9333 163e
000000d0: 9fe2 753e 7e72 b53e f87e f83e ca20 993e
000000e0: b0da c73e 87be 0f3e e438 993e c8fd 103f
000000f0: 194a 613e
0.15114345 0.35387307 0.41251275 0.1664617 0.04633619 0.13276808 0.36800036 0.39841795
0.23244277 0.19879448 0.33796975 0.30591023 0.62822765 0.3509231 0.11382517 0.27129743
0.34207332 0.18651175 0.38071293 0.54028445 0.15841088 0.2959176 0.29458424 0.20242548
0.16213845 0.41087872 0.38634905 0.23408687 0.3476765 0.6440988 0.2005244 0.311869
0.6054217 0.14474083 0.11414571 0.342251 0.5030319 0.15850015 0.5057876 0.41926488
0.8375866 0.62276495 0.28278306 0.5092894 0.27175793 0.28073466 0.043513287 0.16114587
0.29845607 0.41385663 0.55553067 0.14668112 0.2401223 0.35438913 0.4853437 0.2990783
0.39034033 0.14037524 0.29926217 0.5663724 0.22000922

weight f4 [222, 61]
00000000: 5118 03be 9aa0 abbd 2a13 9cbd 270f c6bd
00000010: 8938 0f3e eab3 633d f3cf f0bd 0709 bf3d
00000020: 2f00 3bbd b261 003e 91fb 0bbe cbb4 8fbd
00000030: 5313 84bd 52a9 b03c 0b51 4b3c 7567 993c
00000040: d1a4 0bbd 39b1 cbbb 5323 b63d e01d 8abd
00000050: c8f4 d0bb aefc 7e3d 256e 073d 3a86 e8bc
00000060: 174a 6bbd 3706 95bd ffc1 623d 4c51 b2bd
00000070: 4429 723d 84eb 1dbd d2f9 093d 8838 8c3d
00000080: 5d3a c23d 842e bc3d 6d46 163c 8005 6cbd
00000090: 6c54 813d 3fb4 80bd 3bb1 b03d 1c46 7ebd
000000a0: 9c2f cabc d77e 9dbc 03f3 31bd f233 c73d
000000b0: 7d6e 5cbd 2159 9cbd dd00 69bd 6bee 0ebc
000000c0: 8bdb 93bb da59 1f3d f661 9bbc 8d8b 153d
000000d0: bff0 463d 2277 7c3d 181f 7a3c 52b2 fd3c
000000e0: 298f 00bc 9637 913c a920 dbbc b3b6 343d
000000f0: dce3 8abb c070 3bbd 8c70 98bb 7245 e13d
00000100: 1106 043d 1041 a03d e261 ab3d 968b 843d
00000110: 59bb d5bc 5cb7 223b f99d ce3d 8a71 023e
00000120: 34bc 913c 64f6 363d b299 9a3d edca f3bd
00000130: 588d 81bc c2c4 30bd f2f1 04bd c658 97bc
00000140: 3311 81bd ba24 8a3d 97b3 f4bc 554f 763d
00000150: d282 e63d 8efd d13d 7cf6 363d 968a 4d3b
00000160: 2c55 57bd 0549 8a3c c1f0 fcbc 6706 94bc
00000170: 2a0f 223e e3df f83d 275f c23d d479 9abd
00000180: 84d7 213e 146f e43d 39f7 4b3d 49c8 b83d
00000190: ab9d f23c 04a6 213e 64fc 3c3c 932f 70bd
000001a0: bc56 f73c 09a8 613d 4e48 46bd b02e 73bc
000001b0: 2c98 903d 76e3 743d 40eb 08bd a739 ebbc
000001c0: 4199 d93d ac85 983b e2c8 133d 174e 053d
000001d0: a467 5b3d 79e4 bb3d 4cda 8f3d 8d5c f53d
000001e0: b392 b43a 2188 1f3d 06d3 7ebd db23 04be
000001f0: eb57 08bd b8e0 26bd 34c4 5d3d e57a cdbb
00000200: ad87 e9bc b52a 483d b662 c5bd 74b2 883d
00000210: ddc2 cc3b 6df0 39be 601f 443d e52c 6bbd
00000220: 1c26 2fbd 1acb aebd f862 a9bc 1a8f 203d
00000230: 1097 d2bd dde8 4c3d 3194 8c3d 66cd eb3d
00000240: a278 acbd 18c9 17bd d5b2 aebd 9d38 b73c
00000250: 357c d4bd 8a81 beba 3243 cd3c 5555 95bc
00000260: d04d 9abd e82f f23c b4c0 b63d 8002 b93d
00000270: 7811 8c3d d14e ccbc 9ce1 1cbc 0379 3a3d
00000280: 55d0 e8bd 64d0 ddbc 3b3e a0bd 7716 dabd
00000290: f30c fcbc 1b9f 973d 6a82 d13c 3b52 613d
000002a0: a6db 10bd b271 a1bd 5a56 8bbd f030 1d3d
000002b0: 1b0d c33d b0af 2e3d 4f08 95bd 27a3 e9bd
000002c0: a19e a2bd 3d46 b9bc 4a82 9dbc 3d02 8dbc
000002d0: 3daf d2bd bc5e da3c 3b15 203c 9f8a 07bc
000002e0: 0d0e 8b3d a095 8dbd 6843 03bd 124a 31bd
000002f0: 7f76 84bc f424 843d 827b a53d 4c29 8abb
00000300: cfd3 c53c 0942 ee3d 2288 b03d 9330 9dbd
00000310: 7f8d 18bd 2ea9 b6bd 9748 af3d 47b1 2e3e
00000320: 9d14 1a3b 1bbe 193d d645 ec3d 78f6 c13c
00000330: 95e1 c1bc fa6c e03b 08a7 93bd f290 963d
00000340: 3293 033c 2078 1b3d a165 b3bd 2d67 dc3d
00000350: c8b7 153d 03f6 66bd c947 193e a645 6fbd
00000360: 59fc 50bd 79a0 9a3d 53a4 89bd 4286 af3d
00000370: 761c d93d c683 9bbd 50e2 96bc dd4a 85bd
00000380: cb3c cbbd b7ee 103d a321 79bd d839 983b
00000390: 0bb9 28bd d104 ab3b 8e9d 4c3c bfda 44bd
000003a0: 9de2 debc 1fea bdb9 c4fe 613d 828c 58be
000003b0: 7ead c3bd f32e bebd e815 b1bc e287 e7ba
000003c0: 228e d33c 274d 143d dc9b d43c 7b07 0bbc
000003d0: 0c45 1b3e ec61 c33b 77b6 c9bb 7aff 7d3d
000003e0: 502c 3bbd ae52 9f3c ea26 12bc 6191 e0bd
000003f0: a657 4fbd aa7c 043d 04fc 623d 4fed cebd
-0.12802245 -0.08380242 -0.07620843 -0.09670859 0.1398641 0.0555915 -0.11758413 0.09327894
-0.045654472 0.12537268 -0.13670184 -0.070169054 -0.06448998 0.021565113 0.012409459 0.01872609
-0.034092728 -0.006216195 0.08893456 -0.067439795 -0.0063768364 0.062252693 0.033064026 -0.028384317
-0.057443704 -0.07276576 0.05536079 -0.087069124 0.059121385 -0.038554683 0.033685513 0.0684672
0.09483788 0.0918856 0.009172064 -0.057622433 0.0631493 -0.06284379 0.08627554 -0.06207858
-0.024680905 -0.019225521 -0.043444645 0.09726705 -0.053816307 -0.076341875 -0.05688559 -0.008723835
-0.0045122555 0.03890405 -0.01896761 0.03651004 0.048569437 0.06163705 0.015266202 0.030968819
-0.007846632 0.0177267 -0.026748972 0.044119548 -0.0042385887 -0.045761824 -0.0046520885 0.10999574
0.032232348 0.0782491 0.08368279 0.064719364 -0.02609031 0.002482853 0.10088725 0.12738624
0.017789938 0.04466857 0.07548846 -0.119039394 -0.015814468 -0.043156393 -0.0324573 -0.018474948
-0.063021086 0.06745286 -0.029870791 0.06013425 0.11255421 0.1025344 0.04466866 0.0031363121
-0.05257146 0.016880522 -0.03087652 -0.01806946 0.15826097 0.12152078 0.09490805 -0.07542768
0.15804869 0.11153999 0.049796317 0.09022576 0.029616198 0.15785986 0.011534784 -0.05863912
0.030192725 0.05509189 -0.0484088 -0.014842674 0.070602745 0.059787236 -0.033427477 -0.028714014
0.10624934 0.004654607 0.03608025 0.032545175 0.053565636 0.09174437 0.07024059 0.11980543
0.001377663 0.038948182 -0.062212966 -0.12904303 -0.03328697 -0.040741652 0.054142192 -0.0062707537
-0.028507078 0.048868854 -0.09637968 0.06674662 0.0062488155 -0.18158121 0.047881484 -0.05741586
-0.042760953 -0.08534832 -0.020677075 0.039198972 -0.10282719 0.050026763 0.06864203 0.11513786
-0.084214464 -0.037057012 -0.08530203 0.022365863 -0.10375253 -0.0014534455 0.025056455 -0.018229166
-0.07534373 0.02956386 0.08923474 0.0903368 0.068392694 -0.024939926 -0.009575274 0.045525562
-0.11367861 -0.027076907 -0.078243695 -0.10648816 -0.030767893 0.07403394 0.025574882 0.05501006
-0.035365723 -0.07883014 -0.0680358 0.03837675 0.09523984 0.042648017 -0.07276975 -0.11408072
-0.07940412 -0.0226165 -0.019227166 -0.017212981 -0.1028733 0.026656501 0.009770687 -0.008272796
0.06789789 -0.06913304 -0.032046705 -0.04328353 -0.016169785 0.06452361 0.08080198 -0.0042163488
0.02414885 0.11633689 0.08619715 -0.076752804 -0.037244316 -0.08918987 0.08558767 0.17059813
0.0023510822 0.037534814 0.11536758 0.023677096 -0.023667136 0.0068489285 -0.07209593 0.07351865
0.0080307 0.037956357 -0.087596186 0.10761867 0.03655222 -0.05638696 0.1496879 -0.05841603
-0.051021907 0.07550139 -0.067207955 0.085705295 0.106011316 -0.07593493 -0.018418461 -0.0650842
-0.09923705 0.035383906 -0.060823094 0.0046455674 -0.041192096 0.00521908 0.012488736 -0.048060175
-0.027207667 -0.00036223323 0.055174604 -0.2114735 -0.095545754 -0.092862986 -0.021616891 -0.0017664398
0.02582461 0.03620639 0.025953226 -0.00848567 0.15163058 0.005962601 -0.0061557847 0.06201122
-0.045696557 0.019448604 -0.008920411 -0.10965229 -0.050620697 0.03234545 0.055416122 -0.10103857

bias f4 [222]
00000000: 50db 2a3c 6254 8ebc 9e23 67bd fda2 b2bd
00000010: 98e3 013d 2c1a c6bb 4859 a1bd 940a b03d
00000020: 4e86 0e3b 697b 48bd 551f 32bd 4e6b c63d
00000030: 47e2 a33d 06d5 873d e073 9f3d 3750 15bc
00000040: 23f8 9dbd e2a2 d43c 4f6c 833d aa55 a33a
00000050: ecbd 2dbd e632 4d3a cfe3 87bd 55cf 8a3d
00000060: 7bc9 c7b9 3e53 8abc b51d 55bd 7a33 fbbc
00000070: 12ba 72bd 5346 963c 651a 72bd 9d7d 47bd
00000080: 7131 21bd 281e 253c 9193 933d b999 06bd
00000090: cefd ec3d 40b5 89bc 0c5f b63c 2ad8 f43c
000000a0: b6b2 5ebd 769b 623d 0577 8fbd 99ae 9abc
000000b0: ca0d bf3d 5305 2e3d 5ac4 553d 568a 653d
000000c0: 85da 7a3d 000a 2cbc 8eab 363d 2ab5 4cbb
000000d0: 1c01 403d 0ad3 acbd 1143 ed3c ab80 7abd
000000e0: c1c0 7a3b c35d 38bc d32a 12bd 25c7 07bd
000000f0: 6cac 833d 3ed0 2abd 06f7 9cbc 21bd b43d
00000100: a506 4db8 5c95 acbb ec70 93bd 97a2 463c
00000110: 4c9d 543c b2b1 e03c 072f ebbc 0b3e 88bc
00000120: 2da8 30bd c6bf 34bd 5501 9cbd 5ac5 ec3c
00000130: cc87 8b3d 3932 ecbc dd09 483b b738 973c
00000140: 0f24 4d3c de7f efbb 1b92 373b 4f75 eebc
00000150: 1ec7 74bd 28b9 073d 506d 123d edc4 06be
00000160: 7a20 81bd 9c19 9abb 0c8c 6bbd b109 083d
00000170: 3a1a 70bd 72a5 883c acc6 98bd 4cd7 f8bd
00000180: 0357 7dbd 9cac eb3c c86b 0fbc fbb7 8ebd
00000190: 984a 0ebd 31c2 f1bd 69e6 583c cdd7 673d
000001a0: 2887 c23d e501 b33c 0d32 2bbd cee4 bebd
000001b0: 1772 efbc 76e6 65bd 7f16 7c3d f119 febc
000001c0: 987d 1f3d cca3 893d 948a 573d 6c83 ff3c
000001d0: cc44 523d b8f9 263d 0119 523d 0245 9b3a
000001e0: bda3 3f3d ed4c 4b3c f18f 843c bcdb 9dbd
000001f0: 6151 333d 80db bfbd 21a2 72bd e96f d6bc
00000200: ddf0 68bd b3d3 423d bc09 cabd 2462 e4bc
00000210: 804b 99bc 7ab0 00be 2069 193c 1082 2fbd
00000220: 7eaf ab3d 6341 993c 9bac c13d 4fe9 e33d
00000230: e6e9 52bd e145 bebd 1d71 333d dee9 82bd
00000240: b986 5a3d de5c c1bd f95c 8c3c cc43 fc3b
00000250: d6ee ec3c 57e8 aabd 3ccf 6ebd d439 093e
00000260: 57c0 a2bd 5459 b63d 3436 6abd 556e 97bc
00000270: c51e cfbd a11b dabd 6dee 983d b415 7d3d
00000280: c10a 1cbd 1ac0 80bd f615 b73b af01 86bd
00000290: b713 b4bd 0f2c e93d 1261 303d 7a0c 213d
000002a0: af78 953c a78f 323d 42bb d7bd d5ac eabd
000002b0: a123 2abd 56ef 53bc 71c4 5e3d 5ef4 893d
000002c0: e62b 903d 7979 513d c5e3 04bb 7a15 db3c
000002d0: 4e7b 3cbd 54f2 98bd 7aa6 86bc 1a6d 5b3d
000002e0: ae44 40bd 9863 06bd 30d5 023d d780 15bd
000002f0: c613 793d d9d0 dcbd 6e90 febd a380 4ebd
00000300: 9466 593d 7223 c93c 5be1 58bd 6c7e 0f3d
00000310: c96d 7b3c db72 bd3c af82 ff3d d925 033c
00000320: 14a8 183d 49fe 8a3d 78d8 ae3d 9787 54bd
00000330: 2256 a6bd 4f81 69bd 6a93 3fbd 3a69 bc3a
00000340: b3fe 9b3d c6c5 36bb c7bd 383d 3ba3 273d
00000350: b7eb afbc d678 90bd 1d84 fe3c d3ee 6c3d
00000360: fa65 3c3d e81c 313d 61f3 88bc 54c6 1fbd
00000370: 4e8c 00bd 6bd1 4c3d
0.010428265 -0.017374221 -0.05643045 -0.08722494 0.03171119 -0.0060456004 -0.07878357 0.085957676
0.0021747532 -0.048945818 -0.04348691 0.096884355 0.08002143 0.06632428 0.07785773 -0.009113363
-0.07713344 0.025956575 0.064171426 0.0012461443 -0.04241745 0.0007827714 -0.06635248 0.06777827
-0.00038106352 -0.016885396 -0.052030284 -0.030664194 -0.05925948 0.01834408 -0.059107203 -0.04870378
-0.03935379 0.010077991 0.072058804 -0.032861445 0.11571847 -0.01681006 0.022262119 0.029888231
-0.05436965 0.05532404 -0.07005123 -0.018882083 0.09328802 0.042485546 0.05218921 0.05604013
0.061243553 -0.010500431 0.0445972 -0.0031235912 0.046876058 -0.0843869 0.028962644 -0.061157864
0.0038261863 -0.011252823 -0.03568537 -0.033148903 0.06429371 -0.0417025 -0.019160759 0.08825136
-4.8881997e-05 -0.0052668285 -0.071992725 0.012123725 0.012976956 0.027428482 -0.028708948 -0.016631147
-0.043129135 -0.044128202 -0.076174416 0.028902698 0.068130106 -0.028832542 0.0030523457 0.018459661
0.012520804 -0.007308944 0.002801067 -0.029108671 -0.059760205 0.033135563 0.03574878 -0.13161059
-0.063050225 -0.00470276 -0.057506606 0.033212367 -0.05861876 0.016680453 -0.07459769 -0.121504396
-0.06185056 0.02876883 -0.008753724 -0.06968685 -0.034739107 -0.11804617 0.013238528 0.056602288
0.09498435 0.02185149 -0.04179578 -0.09320985 -0.029229207 -0.056127988 0.06154489 -0.03101823
0.038938135 0.06720695 0.052622393 0.031190597 0.05133514 0.040765494 0.051293377 0.0011846127
0.046787012 0.012408477 0.016181918 -0.07707927 0.04377878 -0.09368038 -0.05923665 -0.02617641
-0.05687033 0.047565173 -0.09865138 -0.027878828 -0.018712759 -0.1256732 0.009363443 -0.042848647
0.08383082 0.018707937 0.0945675 0.111284845 -0.051492594 -0.09290672 0.043809045 -0.06392263
0.053351138 -0.09441541 0.017134177 0.0076985117 0.02892248 -0.083450966 -0.058303103 0.13400966
-0.07946842 0.08903757 -0.0571806 -0.018485228 -0.10113291 -0.10649801 0.07467351 0.061788276
-0.038096193 -0.062866405 0.0055873347 -0.0654329 -0.08792823 0.11385357 0.043061323 0.03931854
0.018246023 0.04359403 -0.105337635 -0.11458746 -0.041537885 -0.01293548 0.05438656 0.067360625
0.07039623 0.051141236 -0.0020277363 0.02674364 -0.04601603 -0.074680954 -0.016436804 0.053570844
-0.046940498 -0.032809824 0.031941593 -0.036499824 0.060809873 -0.10782022 -0.124298915 -0.050415646
0.05307634 0.024553034 -0.05294929 0.035032675 0.015345999 0.023126056 0.12476098 0.008004629
0.037269667 0.06786782 0.08537382 -0.05188712 -0.08121897 -0.057008084 -0.046771444 0.0014374622
0.076169394 -0.0027888878 0.04510286 0.040927153 -0.021474702 -0.070542976 0.031068856 0.057844948
0.04599569 0.043240458 -0.016717615 -0.0390075 -0.031383805 0.050004404

weight f4 [222]
00000000: c5fb 233f ad55 513f c1f1 3b3f b460 533f
00000010: 531d 383f 37f8 393f 59a1 363f b813 4e3f
00000020: 41f0 403f 4027 3e3f 3d7c 613f d8ca 3a3f
00000030: 9343 6a3f 06c5 333f ddb5 4c3f fb76 253f
00000040: 399c 4a3f a16e 403f 8d95 593f c322 4c3f
00000050: fa26 283f 310a 543f 0c32 353f 1828 323f
00000060: e186 473f 058f 1b3f abc9 443f 2186 103f
00000070: 087d 4c3f 57bc 403f c69e 243f 8250 5b3f
00000080: ce47 343f d838 2b3f 1ab8 213f 7c35 463f
00000090: 1d7e 4b3f b068 4d3f 9bfa 4b3f 81c4 433f
000000a0: d730 3b3f 19f7 4b3f 9365 403f ef9c 503f
000000b0: 6a0c 333f f216 323f 25b5 473f 0a70 3e3f
000000c0: 2850 313f 319f 2f3f 922e 383f 971c 4c3f
000000d0: df3e 393f 733b 583f 136a 433f cbee 3a3f
000000e0: 3e2b 613f c134 263f aeb5 533f 96dc 333f
000000f0: 0506 413f ce33 4f3f 3a2a 693f baad 433f
00000100: bbb9 363f 19c5 4c3f a327 273f 3fd8 473f
00000110: ef20 513f 32ef 3a3f f042 343f efbd 303f
00000120: 7102 483f 37d4 423f 8d00 353f c8b3 393f
00000130: 56cd 4b3f 23d9 343f 500d 1e3f 4adf 3d3f
00000140: cb7f 403f 4cae 203f 94fd 563f 0064 393f
00000150: b4b9 523f ab79 3c3f cabe 3d3f f1bd 553f
00000160: fb15 493f 924b 413f 74f6 503f 252e 633f
00000170: f420 533f e95e 503f 62b1 383f 3f80 383f
00000180: c76e 463f 1dd3 533f c539 503f 08bb 513f
00000190: 620e 503f 9c07 563f 0479 333f 1fe4 4f3f
000001a0: 5e7a 443f 8bfb 403f 6712 4d3f 658e 4b3f
000001b0: da35 3d3f 7113 4d3f 2ea0 393f c20d 433f
000001c0: f2fd 343f 1a56 413f 3f61 353f ac12 3c3f
000001d0: 6ed2 5e3f 289d 483f 60fb 3f3f 54cc 323f
000001e0: 8041 403f dcc2 453f 40eb 4b3f b03c 3f3f
000001f0: 10fa 583f 14a8 413f 61d1 473f 87b8 353f
00000200: 4dcd 543f ad89 3d3f 3d82 303f c1fb 583f
00000210: 146f 583f b2ab 353f 4800 453f fc3e 423f
00000220: 2824 3a3f 54da 413f 9c6c 383f 57dc 2d3f
00000230: f4c2 4a3f 1d21 463f d5cd 3d3f b44c 3a3f
00000240: 4b6b 403f 2b32 3b3f 23bd 543f f778 253f
00000250: d30e 3c3f 0a7f 4b3f a83e 353f 2aef 463f
00000260: 9dbd 593f 3ba1 3f3f fb6b 3c3f af81 3b3f
00000270: ea06 273f 2ca2 533f 2f4d 3c3f 730d 473f
00000280: 0732 363f 4fed 323f 008f 503f 8820 473f
00000290: ac33 5b3f 64b1 503f 5e1c 393f ee84 3c3f
000002a0: c4c8 2c3f 3b50 403f 97d7 553f 4c92 4e3f
000002b0: f366 4a3f 56c8 453f adb1 333f 61d3 3c3f
000002c0: c7a7 2e3f 166a 2c3f 64a6 3b3f 52ee 513f
000002d0: d119 403f 9662 493f 1bb4 353f 3b60 573f
000002e0: 31cd 493f fafe 413f 7cb8 233f b28e 573f
000002f0: dff4 4f3f 3fda 423f 723d 5a3f 1e3e 3a3f
00000300: fae1 5a3f a4be 3b3f 3d7f 373f 2424 5a3f
00000310: d4d5 413f e983 333f 055c 323f 309e 383f
00000320: a28e 413f 0c38 343f e4a9 3d3f d653 1b3f
00000330: 918c 683f c309 583f 95f2 4e3f a662 1b3f
00000340: 3dde 2d3f 6d05 323f a3bc 373f 684b 2d3f
00000350: a6f4 4c3f 5cbe 413f 41dc 553f 5e34 283f
00000360: 3c0b 263f 490e 473f fa3c 4d3f 9022 463f
00000370: 737b 383f aa6d 3c3f
0.64056045 0.81771356 0.7341576 0.8256943 0.71919745 0.7264437 0.71339947 0.8049884
0.753666 0.7427864 0.880802 0.72965765 0.9150936 0.7022251 0.79965 0.64634675
0.79144627 0.75168806 0.8499382 0.7974054 0.65684474 0.8282805 0.7077949 0.6959243
0.77940184 0.60765105 0.7687022 0.56454664 0.7987828 0.75287384 0.6430477 0.8566972
0.70422065 0.6688361 0.6317154 0.7742536 0.7948931 0.80237865 0.7967927 0.76471716
0.731214 0.79673916 0.7515499 0.8148946 0.6994082 0.6956626 0.7801078 0.7438971
0.69262934 0.6860228 0.7194606 0.79731125 0.7236156 0.8446571 0.7633373 0.7302062
0.8795661 0.64924246 0.82699096 0.7025846 0.7539981 0.8093842 0.9108006 0.7643696
0.7137715 0.7998825 0.65294856 0.7806434 0.8169088 0.73021233 0.7041464 0.69039816
0.78128725 0.76105064 0.70703965 0.7253995 0.7961019 0.70643824 0.61739063 0.7416884
0.75194997 0.62765956 0.8398068 0.7241821 0.8231461 0.7362315 0.74119246 0.8349295
0.78549165 0.75505936 0.8162606 0.88742286 0.8247216 0.8139482 0.72145665 0.7207069
0.7751278 0.8274401 0.8133815 0.8192601 0.81271946 0.8360536 0.7010653 0.8120746
0.7674922 0.75383824 0.80106205 0.7951415 0.73910296 0.8010779 0.7251004 0.7619287
0.7069999 0.75522006 0.7085151 0.7346599 0.8703984 0.783648 0.7499294 0.6984303
0.75099945 0.77250457 0.7965584 0.74701977 0.84756565 0.7564709 0.7805386 0.7098469
0.83125764 0.740382 0.6894873 0.84759146 0.8454449 0.7096511 0.76953554 0.75877357
0.7271142 0.7572377 0.72040725 0.67914337 0.79203725 0.77394277 0.741422 0.7277329
0.75163716 0.73123425 0.831011 0.646377 0.7346012 0.7949072 0.7079873 0.77708685
0.8505495 0.74855393 0.73602265 0.73244756 0.65244925 0.8266933 0.7355527 0.77754897
0.71170086 0.69893354 0.814682 0.77784014 0.8562572 0.81520677 0.7230891 0.73640335
0.67493844 0.7512242 0.8353209 0.8069198 0.7906334 0.77258813 0.70192987 0.7376004
0.6822476 0.67349374 0.73300767 0.8200427 0.7503939 0.78666055 0.70977944 0.8413121
0.7882872 0.7577969 0.63953376 0.8420211 0.8123302 0.7611427 0.8525001 0.72751033
0.8550106 0.7333777 0.71678525 0.85211396 0.757169 0.70123154 0.6967166 0.72116375
0.75608265 0.7039802 0.7408736 0.606748 0.9083949 0.84389895 0.808389 0.606974
0.67917234 0.6953953 0.7177221 0.67693186 0.80060804 0.7568109 0.83539206 0.65704906
0.6486089 0.7775617 0.8017117 0.7739649 0.7206337 0.73604834

bias f4 [222]
00000000: 0293 4ebd 4ac7 78bd 1c97 5abc 10ce 5abd
00000010: b484 6e3d bc37 36bd 8de7 383c f5a8 0abd
00000020: cce1 193c 7a4e 12bd 77f5 e4bd 98f3 afbd
00000030: a815 b3bb 5b2e 7bba 44cb 903d 2953 d03c
00000040: f4ff 153d 14b9 cfba b3dd c4bd 51f3 25bd
00000050: 345e f9bc ef36 88bc 9696 383d 93e5 10bc
00000060: 7b19 58bd b65a 573d 11f6 3cbd b94a 603d
00000070: 7933 95bd bb94 ca3c 6572 953b b563 b63d
00000080: 0f1f 7fbc 92f1 c63a 742e aabc f2b3 7f3c
00000090: 564b 523d b388 ad3c babb bb3c aa28 abbc
000000a0: 128b af3c 587e 21bd f236 5fbd e18b e33c
000000b0: dd38 8dbc ba24 243d bb0d 8cbb c7e6 d7bd
000000c0: 5452 ebbc 8258 de3c 3086 cc3b a680 863d
000000d0: 24ee 693c 0874 85bc 1b9c 07bd 9bec 033d
000000e0: 6c8e 1dbd 6b54 c9bd 6f63 8d3c 2e36 a1bd
000000f0: 683a 433d 1dcb 8ebd c518 9d3c a4eb 80bc
00000100: f4ce a7bc 2bb0 11bd 4b66 3c3d 12b8 6cbd
00000110: a484 87bc 36c2 2a3d 8928 953c 791d 01bd
00000120: a665 893c 79cd d83a 22fc 26bc ca7b 863c
00000130: 09b8 d3bc b01b 3c3c 8e11 fbbc 9edb af3c
00000140: 00ad 05bc 38bf cd3d 54c7 54bd c24f acbc
00000150: d8fb 613c 836e 0b3d 9ba1 83bd 238d cfbd
00000160: af12 83bc 6cd7 8c3d 4ee8 d63d 1a79 2cbc
00000170: b6bb a7bd e857 9537 0332 4abd f733 4cbd
00000180: c946 82bc f06d ef3c 5a6e ec3c 02f9 e5bc
00000190: 39df 92ba cab1 c6bc 33e4 8ebc f12e c9bd
000001a0: 02c7 453d 3c6c c0bb 1087 4c3c 9200 193d
000001b0: e91d 543d d2e0 88bd 8900 4fbd 5d8c 42bc
000001c0: d22b a53d c5ed 303c fb58 79bd 9aba 9abc
000001d0: ce1a 153d 513d e23d aed6 553d 0e79 50bd
000001e0: 7239 18bd 3daf 0f3d 43a8 b7bc 28af 13bc
000001f0: 3f08 81bd dd81 43bd ba01 a23d e7bd 6c3d
00000200: c841 f63c 2603 5a3d 5dda c5bc 10fb 0cbd
00000210: 8e3b 99bb 186c 76bd 2cde 6cbd f4e4 273d
00000220: f206 033d c431 b8bc 27a8 e93d 55bc ddbc
00000230: 5605 a0bd c412 47bc aacb 1bbc c53a a3bd
00000240: d53b 8b3d 28d5 b43c 0b19 babd b2fb e93d
00000250: 7874 b13c fcae 6cbd 0ef3 6b3c 84c8 b7bc
00000260: f1d6 db3c 81a5 a33a 49d8 233d bae7 bebd
00000270: 1d6b 143c 24df 1cbc f1c3 c7bc 2cd4 3d3c
00000280: d2ef 27bc 2eec c3bc 3ec2 b83d 50c8 bebc
00000290: d43f 82bd bec7 28bd 85a8 28bc 1fff d53c
000002a0: 2b59 c8bc 19b1 15bc 6d0f 113d ee21 8d3d
000002b0: e7b0 cebc 27a7 c63d 9d5c 083d 144d 043d
000002c0: af32 a4bd 4c17 96bd 69f3 52bd b0d5 36bd
000002d0: e949 ce3c 3df9 8f3d 7290 a9bd e58d 98bc
000002e0: c5b3 bf3d a01e a5bc 6d3a 18bd 9063 d73c
000002f0: c9c2 6d3d 8036 093d 26ad 37bd 4b99 82bd
00000300: 351b 29bd 4cdc 443d ab61 83bd e9d5 d93b
00000310: b760 2d3c 6bf5 773d 0e6b ac3d 5843 b83d
00000320: a87a 1439 f853 e0b8 0159 7ebc 6241 7fbd
00000330: b6bd 3a3d c282 cdbd 60bd 073d 14a9 02bc
00000340: 77fe 7e3b b479 123d 7b2e 5abd 0e24 17bd
00000350: 3cc8 583c 5256 9ebd 7e74 d1bc e9bb 06bd
00000360: 1ac6 0d3d dd7e f6bc 97dc 31bd 29aa ad3c
00000370: eaab bdbc eafc 7c3c
-0.050433166 -0.06073693 -0.013341691 -0.053419173 0.058232024 -0.044486746 0.011285675 -0.033852536
0.009392213 -0.035719372 -0.11179631 -0.08591384 -0.005465228 -0.00095817976 0.0707002 0.025430279
0.03662105 -0.0015848004 -0.09612598 -0.040515248 -0.030440427 -0.016627757 0.045065485 -0.008843797
-0.052758675 0.052576743 -0.046133105 0.05475876 -0.07285208 0.024729123 0.004560756 0.08905736
-0.01557137 0.0015178195 -0.020774104 0.015606867 0.051341377 0.021183347 0.022916663 -0.020893414
0.021428619 -0.03942713 -0.05449576 0.02777666 -0.017239029 0.040074088 -0.0042740977 -0.10542064
-0.02872578 0.027141813 0.0062415823 0.065675065 0.014277969 -0.01629068 -0.03310786 0.032208066
-0.038465902 -0.098305546 0.017259328 -0.07871662 0.047663122 -0.069723345 0.01917685 -0.015737362
-0.020484425 -0.035568397 0.04599599 -0.05779273 -0.01654274 0.04168912 0.018207805 -0.031522248
0.016772103 0.0016540728 -0.010191949 0.01641645 -0.02584459 0.011481211 -0.03064802 0.021467026
-0.008158922 0.10046238 -0.051947907 -0.021034125 0.013792954 0.03404094 -0.06427308 -0.101343416
-0.01600012 0.06877026 0.10493527 -0.01052692 -0.081901 1.7803119e-05 -0.0493641 -0.049854245
-0.015902894 0.029227227 0.028861213 -0.028072838 -0.0011205442 -0.024254698 -0.017442798 -0.098234065
0.04828549 -0.0058722775 0.012483373 0.03735406 0.051786337 -0.06683506 -0.05053762 -0.0118742855
0.08064999 0.010798876 -0.060875874 -0.018887807 0.036402516 0.110468514 0.052206688 -0.050896697
-0.03716416 0.03507923 -0.0224191 -0.0090139285 -0.06300401 -0.04773127 0.079104856 0.057798292
0.030060664 0.05322566 -0.024151975 -0.03441912 -0.004676289 -0.06016168 -0.057829067 0.04098983
0.031989045 -0.022484668 0.11409026 -0.027067343 -0.07813518 -0.01215047 -0.0095090065 -0.07970194
0.067985214 0.022074297 -0.09086808 0.1142496 0.021661982 -0.057784066 0.0144012105 -0.02243448
0.02683589 0.0012485237 0.040001187 -0.09321542 0.009058741 -0.009574685 -0.024385424 0.01158623
-0.010250049 -0.02391633 0.09021424 -0.023288876 -0.063598305 -0.041206114 -0.010294084 0.026122628
-0.024456581 -0.009136462 0.0354151 0.06891237 -0.025230838 0.096998505 0.033291448 0.03230007
-0.0801748 -0.07328662 -0.051501665 -0.044637382 0.025181727 0.0702996 -0.08279504 -0.018622348
0.0936046 -0.020156205 -0.037165094 0.026292592 0.05804709 0.03349924 -0.04484286 -0.063768946
-0.041285712 0.048061654 -0.06415113 0.0066478145 0.010582141 0.060536783 0.084188566 0.0899722
0.00014160073 -0.00010696793 -0.01552415 -0.062318213 0.04559108 -0.10034706 0.033139586 -0.007974882
0.0038908997 0.035760596 -0.053266983 -0.03689962 0.013231333 -0.07731308 -0.025568243 -0.03289405
0.034612752 -0.03008979 -0.04342326 0.021199303 -0.023153264 0.015441159
