mlruns/528961946943719398/models/m-b65e76f0c1164e82b6d44a047e6588ec/artifacts/data/model.pth (torch, 50478 bytes, 17 tensors)

weight f4 [124]
0	0x3eca3996	0.3949706
1	0x3ed125b7	0.40849087
2	0x3ef49317	0.4776847
3	0x3eeca80a	0.46221954
4	0x3ee97926	0.4560024
5	0x3ec9ef6b	0.39440474
6	0x3ea1e8ca	0.31622916
7	0x3ed1b785	0.40960327
8	0x3ee35fd0	0.44409037
9	0x3ede85e5	0.43461528
10	0x3edc9c49	0.43087986
11	0x3edbf812	0.429627
12	0x3ec51431	0.38491967
13	0x3ec4de1c	0.38450706
14	0x3e9d1d3c	0.30686367
15	0x3efc342f	0.49258563
16	0x3ecbaa7c	0.39778507
17	0x3ea98b84	0.33114254
18	0x3efbb8be	0.49164385
19	0x3ed37901	0.41303256
20	0x3ebf4a49	0.37361363
21	0x3ec0e387	0.3767359
22	0x3ebfe98f	0.3748288
23	0x3ef705ea	0.482467
24	0x3ed46c67	0.41488954
25	0x3ef78c95	0.48349443
26	0x3ef11392	0.47085243
27	0x3ed6393f	0.4184055
28	0x3ee43463	0.44571218
29	0x3ef72ac5	0.48274818
30	0x3edb15ef	0.42790172
31	0x3ed53a23	0.41645917
32	0x3eeb8169	0.4599717
33	0x3ee95c70	0.45578337
34	0x3eeb1b88	0.45919442
35	0x3eed93c8	0.4640181
36	0x3ee37246	0.4442312
37	0x3ecff31e	0.4061517
38	0x3ec86321	0.3913813
39	0x3eb24bb8	0.34823394
40	0x3edac4ff	0.4272842
41	0x3e88e9ce	0.2674088
42	0x3e85c77c	0.26128757
43	0x3ec289d4	0.3799578
44	0x3edf9e21	0.4367533
45	0x3ec97d57	0.3935344
46	0x3ec31cf1	0.38108018
47	0x3ebdee22	0.37095743
48	0x3edfeba4	0.43734467
49	0x3ee472ef	0.44618937
50	0x3f08febb	0.5351369
51	0x3edb23ac	0.42800653
52	0x3ed34c36	0.41269082
53	0x3eccd464	0.4000579
54	0x3eec36fc	0.461357
55	0x3ee5384b	0.4476951
56	0x3ec6062d	0.38676587
57	0x3ed76efd	0.42076865
58	0x3ec58f6f	0.38585994
59	0x3ea075e7	0.31339952
60	0x3ed0624d	0.40699998
61	0x3f0404b2	0.51569664
62	0x3eb7f021	0.3592539
63	0x3ede6f62	0.43444353
64	0x3ed60844	0.4180318
65	0x3eaeef6c	0.3416704
66	0x3eb2bfb8	0.34911895
67	0x3ed1e3e2	0.40994173
68	0x3ecd17e9	0.40057305
69	0x3ea779ec	0.32710207
70	0x3ec5c54b	0.38627085
71	0x3ebd0a8e	0.36922115
72	0x3ece7f67	0.40331575
73	0x3ee8510b	0.4537433
74	0x3eb696c6	0.35661906
75	0x3ef85e4e	0.4850945
76	0x3ecb3e08	0.39695764
77	0x3eda952a	0.42691928
78	0x3e9a213f	0.3010349
79	0x3ef335bb	0.4750193
80	0x3ef3d5c2	0.47624022
81	0x3ef2e5cf	0.47440955
82	0x3efa9237	0.48939678
83	0x3eb4026c	0.35158098
84	0x3e93814f	0.28809592
85	0x3e915ff6	0.28393525
86	0x3edeb14c	0.43494642
87	0x3f087929	0.53309876
88	0x3efb4f56	0.49083966
89	0x3e72865b	0.23684065
90	0x3ef5d9c3	0.48017702
91	0x3e9604d9	0.29300573
92	0x3e59547e	0.21223637
93	0x3eecffa8	0.462888
94	0x3f006971	0.5016089
95	0x3eedba3f	0.46431157
96	0x3e94d0d2	0.29065567
97	0x3ecc57c8	0.39910722
98	0x3eba71c9	0.36414936
99	0x3ed9b169	0.42518166
100	0x3edca5c0	0.43095207
101	0x3ece2098	0.40259242
102	0x3ef65480	0.48111343
103	0x3ee39e45	0.44456688
104	0x3ec7f8db	0.3905705
105	0x3f0616bf	0.5237846
106	0x3ebf7bf8	0.37399268
107	0x3e988252	0.29786927
108	0x3ec07b8f	0.37594268
109	0x3ec2ad0c	0.3802265
110	0x3efe71f7	0.49696323
111	0x3f070956	0.5274862
112	0x3ef234c0	0.4730587
113	0x3ec86ad8	0.39144015
114	0x3ede507b	0.43420777
115	0x3eb92707	0.36162588
116	0x3ea439b9	0.3207529
117	0x3f0dc492	0.5537807
118	0x3ec604b0	0.3867545
119	0x3ee11ca0	0.43967152
120	0x3e94bf8e	0.29052395
121	0x3efc1ba6	0.49239844
122	0x3ea4ae68	0.3216431
123	0x3f00f991	0.5038081

bias f4 [124]
0	0xbc0dfda9	-0.008666434
1	0x38bb9317	8.9442525e-05
2	0xbbcaa25e	-0.0061839065
3	0xbb89afc7	-0.0042018625
4	0xbb2b3381	-0.0026123228
5	0x3b5f16a3	0.0034040592
6	0x3b9d99fa	0.004809615
7	0x3b4ec50f	0.0031550562
8	0x3c9a200c	0.01881411
9	0xbbc7095c	-0.006074114
10	0xbad61174	-0.0016332106
11	0x3bda0785	0.0066537284
12	0x3bdcf33d	0.0067428635
13	0x3b176061	0.0023098218
14	0x3b3bb2f3	0.0028640598
15	0x3bf84a1c	0.007577194
16	0x3b6bbc23	0.0035970293
17	0xbc1f1e3a	-0.009711796
18	0x3b06b265	0.0020553109
19	0xbb0fe58b	-0.0021956887
20	0x3b2a5148	0.0025988389
21	0x3aedafc6	0.001813405
22	0xbbce5f2f	-0.006297968
23	0x3b8f98b9	0.0043822196
24	0xbb46922a	-0.0030299523
25	0xb8d7b171	-0.0001028505
26	0xbb1067d9	-0.0022034554
27	0x3a95de6a	0.0011434082
28	0x3c498707	0.012300259
29	0x3ba49792	0.0050229514
30	0x3995e2e6	0.00028588547
31	0xbb9a34b6	-0.0047059907
32	0xba9609ae	-0.0011446977
33	0x3b3b8fb0	0.002861958
34	0xbb5ed687	-0.003400238
35	0xbb0de656	-0.0021652183
36	0x3b8ce170	0.004299335
37	0x3b6d1ea3	0.003618159
38	0xbb269fa1	-0.0025424736
39	0x3c0c501a	0.00856402
40	0x3c039c98	0.00803294
41	0x3aabba22	0.0013101737
42	0x3b37fe14	0.0028075026
43	0x3befaee8	0.0073145516
44	0xbbf92eba	-0.007604447
45	0x3bd96aec	0.0066350605
46	0x3a617206	0.00086000597
47	0x3bb5fd2a	0.005553861
48	0xbb19c8a9	-0.002346555
49	0x3bc05bb3	0.0058703064
50	0xbbc1d82a	-0.0059156613
51	0xbb178f3c	-0.0023126146
52	0xba3c3bf8	-0.0007180567
53	0x3c046a78	0.008082025
54	0x3bfe36ed	0.0077580125
55	0x3bebfb0a	0.007201557
56	0x3beacad7	0.0071652937
57	0x3b92c52c	0.004479071
58	0xbb8f6180	-0.0043756366
59	0x3b497b1a	0.003074354
60	0x3bbf0d18	0.0058304183
61	0x3b726cde	0.003699116
62	0x3b97eceb	0.004636397
63	0xbab85fd0	-0.001406664
64	0x3b0bfcfd	0.002136051
65	0xbb95f01c	-0.0045757424
66	0x3c08c7d2	0.008348422
67	0x3af03364	0.0018325862
68	0x3adfa223	0.001706187
69	0x3c0c5050	0.00856407
70	0x3c0207cd	0.00793643
71	0xbb8c8790	-0.0042886212
72	0x3aae5039	0.0013299055
73	0xbb90b861	-0.004416511
74	0x3bc4786e	0.0059958016
75	0x3bc17a17	0.005904447
76	0x3aa03837	0.0012223785
77	0xbc5d1c0d	-0.013495457
78	0x3b59fbd2	0.003326167
79	0xbc25b5da	-0.010114158
80	0xbbb3a548	-0.0054823495
81	0x3bbf2b4a	0.005834018
82	0xba1ddda8	-0.0006022104
83	0x3b9efbec	0.004851809
84	0xb9347698	-0.00017210317
85	0xba550d42	-0.0008127281
86	0xbb103a97	-0.0022007579
87	0x3a1668d2	0.00057376653
88	0xbbc5a098	-0.006031107
89	0x3b56baf5	0.0032765244
90	0x3bf0c84c	0.007348096
91	0xbb48ed34	-0.0030658962
92	0xbb1d17d8	-0.002397051
93	0xba0edea2	-0.0005450045
94	0x3b936fae	0.0044993972
95	0xbbada1ab	-0.0052988133
96	0x3b207ce8	0.0024488512
97	0x3c55af29	0.01304225
98	0x3a859d58	0.0010193987
99	0x3b9bb5d7	0.0047519016
100	0xba768177	-0.0009403447
101	0x3a098ef9	0.000524744
102	0x3bc25946	0.0059310524
103	0x3c53ba4f	0.012922837
104	0x3b82f46d	0.003996423
105	0x3b8d1457	0.004305403
106	0xb90da8e2	-0.00013509722
107	0x3b6df7e8	0.0036311094
108	0xbad7abe2	-0.0016454423
109	0xbb5266c3	-0.0032104708
110	0x3b7cf199	0.0038596152
111	0xbc41e7ac	-0.01183502
112	0x3c0fe0ce	0.008781625
113	0x3c4613bc	0.012089666
114	0x3b7b7faa	0.0038375654
115	0xbc2a943e	-0.01041132
116	0xbbdf3334	-0.006811524
117	0xbbffff4f	-0.0078124176
118	0x3acf817d	0.0015831437
119	0x399604d2	0.0002861382
120	0xbc006524	-0.007836614
121	0xbc4e48af	-0.012590571
122	0xbb30ad59	-0.0026958792
123	0x3b6bb9d0	0.0035968907

running_mean f4 [124]
0	0x428ad7be	69.42137
1	0x4628ae09	10795.509
2	0x40c35343	6.103914
3	0x40b2ef99	5.5917478
4	0x42d8e280	108.44238
5	0x40583364	3.3781366
6	0x40448f27	3.0712373
7	0x405ed37c	3.481658
8	0x403b533e	2.9269557
9	0x3fcea9bd	1.614555
10	0x43ddd05b	443.62778
11	0x42413e13	48.31062
12	0x44142546	592.5824
13	0x40842be3	4.1303573
14	0x3df38973	0.11891451
15	0x44947c5b	1187.8861
16	0x43a934ea	338.4134
17	0x40f101f7	7.53149
18	0x44bfba97	1533.8309
19	0x3ee01e05	0.43772903
20	0x3d48a207	0.048982646
21	0x3fc9ad35	1.5755984
22	0x3ebd17b9	0.3693216
23	0x403b5c57	2.927511
24	0x3f8684c9	1.0509273
25	0x405f4e9c	3.489173
26	0x40d3ad4d	6.614905
27	0x3e10f4e7	0.14155923
28	0x3f20fb8a	0.6288382
29	0x3fecc112	1.849642
30	0x3fdbe9be	1.7180707
31	0x3fe41375	1.7818438
32	0x43ed3169	474.38602
33	0x40339c7e	2.8064265
34	0x4033b3f4	2.8078585
35	0x3e23ee1d	0.16008802
36	0x42c1a28e	96.81749
37	0x423ed930	47.712097
38	0x41a58507	20.689955
39	0x406788f7	3.6177347
40	0x41876d5b	16.928396
41	0x3fdd2fe4	1.728024
42	0x3c3d7fa1	0.011566074
43	0x4221b065	40.42226
44	0x421bb63f	38.927975
45	0x41c94498	25.158493
46	0x41fceef1	31.61667
47	0x42023362	32.55018
48	0x40430bbf	3.047592
49	0x3f9d6953	1.2297767
50	0x3db81b76	0.08989613
51	0x3ed26de1	0.41099456
52	0x3e23754a	0.15962711
53	0x3f367fa8	0.7128854
54	0x3e40cbcd	0.18827744
55	0x3d8971c3	0.067111515
56	0x3d0da0e0	0.03457725
57	0x3d6bf7ee	0.05760949
58	0x3cf62ed8	0.030051634
59	0x3ca07249	0.019585745
60	0x3dada334	0.08478394
61	0x3c78c726	0.015184199
62	0x3dcd8027	0.10034209
63	0x3f732d72	0.9499122
64	0x3e80c5df	0.25150964
65	0x3dd6722c	0.10470995
66	0x3dc59284	0.09647086
67	0x3d4067ee	0.046974115
68	0x3ebd0446	0.36917323
69	0x3e0e7f57	0.13915764
70	0x3e1c8043	0.15283303
71	0x3e271a31	0.16318585
72	0x3de10e83	0.10989096
73	0x3d0b0ff9	0.03395078
74	0x3d2c04e0	0.041996837
75	0x3d16aba1	0.03678477
76	0x3c93ace0	0.01802677
77	0x3cbbf0d9	0.022941994
78	0x3c826957	0.01591937
79	0x3cbdbba3	0.023160761
80	0x3f4aea64	0.792639
81	0x3e16e400	0.14735413
82	0x3d05eabb	0.03269456
83	0x3c885ac9	0.016644852
84	0x3de2116a	0.11038478
85	0x3d1d7c21	0.038448457
86	0x3d9df9ee	0.07713686
87	0x3d6b0791	0.057380263
88	0x3ce157a1	0.027507605
89	0x3be98fb9	0.007127729
90	0x3d0becd2	0.034161396
91	0x3e1bcabf	0.1521406
92	0x3d6bd175	0.0575728
93	0x3cc9c68d	0.02463081
94	0x3d45eb2a	0.048319973
95	0x3d9de38e	0.07709418
96	0x3cde5ee2	0.027144853
97	0x3cbc7953	0.02300707
98	0x3d2b1113	0.04176433
99	0x3d108d78	0.035291165
100	0x3d61e812	0.05515296
101	0x3c71bd7d	0.01475465
102	0x3cf74f76	0.030189257
103	0x3c83f41f	0.016107617
104	0x3f197095	0.5993741
105	0x3db94b0e	0.09047519
106	0x3ee62dc7	0.449568
107	0x3be50a3d	0.006989746
108	0x3ee05ab3	0.43819198
109	0x3c900303	0.017579561
110	0x3cb0b5a1	0.021570982
111	0x3f6f4be7	0.9347519
112	0x3d72ae77	0.059248414
113	0x3e80ac40	0.25131416
114	0x3d652f9c	0.055953607
115	0x3cbf317e	0.02333903
116	0x3d15e9c9	0.036599908
117	0x3db58b0a	0.0886441
118	0x3c89c386	0.016816866
119	0x3f5c1852	0.8597461
120	0x3c60a76f	0.013711794
121	0x3f52d115	0.82350284
122	0x3c20626b	0.00978909
123	0x3db6e20a	0.08929832

running_var f4 [124]
0	0x43e1b1db	451.3895
1	0x4d0d1e06	1.479722e+08
2	0x3fe7be2e	1.8104913
3	0x3fa106e6	1.258023
4	0x46fbcd4e	32230.652
5	0x3ea63d8e	0.32468837
6	0x3e078d4a	0.13237491
7	0x3f4200ac	0.75782275
8	0x3e93ee56	0.28892773
9	0x3f90e3a4	1.131947
10	0x4843727d	200137.95
11	0x46d184bd	26818.37
12	0x484757c3	204127.05
13	0x3f730866	0.9493469
14	0x3e2eeeee	0.17083332
15	0x481050c2	147779.03
16	0x483f936e	196173.72
17	0x454cb50b	3275.3152
18	0x48855d10	273128.5
19	0x3e89e260	0.26930523
20	0x3d433a36	0.047662936
21	0x3e96bfaf	0.29443118
22	0x3e7a13e7	0.24421655
23	0x3f457e70	0.77146053
24	0x3d5c65b6	0.053807937
25	0x3ee6dd6a	0.450908
26	0x4028db40	2.638382
27	0x3ebfb0d2	0.3743959
28	0x3edd9509	0.43277767
29	0x4052b214	3.292119
30	0x3f4d12da	0.8010689
31	0x3f0c9bde	0.54925334
32	0x472f38f1	44856.94
33	0x3f07678f	0.5289239
34	0x3f05dfe9	0.52294785
35	0x3e8e8b9e	0.27840894
36	0x468b71cc	17848.898
37	0x4593f9da	4735.2314
38	0x4564f5f5	3663.3723
39	0x44664ae4	921.17017
40	0x454e2035	3298.013
41	0x44801775	1024.733
42	0x3d477e5d	0.048704494
43	0x4846f982	203750.03
44	0x4460a98c	898.6492
45	0x43d4ab23	425.337
46	0x440b246e	556.5692
47	0x4376c91a	246.78555
48	0x402c5462	2.6926503
49	0x3f1af744	0.6053355
50	0x3e0e18f4	0.13876706
51	0x3eaf7023	0.3426524
52	0x3e89ff17	0.2695243
53	0x3e52acdc	0.20573753
54	0x3e1da364	0.1539436
55	0x3d81aac1	0.06331397
56	0x3d1ff926	0.039055966
57	0x3d8e6103	0.06952097
58	0x3cf08220	0.029358923
59	0x3c9bbe03	0.019011503
60	0x3d9dbc37	0.07701915
61	0x3c757e28	0.014983691
62	0x3e312fb1	0.17303349
63	0x3d76850f	0.06018549
64	0x3e8bb187	0.2728388
65	0x3e43a0ef	0.1910436
66	0x3db3f6c2	0.087873
67	0x3d3562e2	0.044283755
68	0x3e68cfa8	0.22735465
69	0x3df5c526	0.12000494
70	0x3e029b4f	0.12754558
71	0x3e0c9546	0.13728818
72	0x3dcb2e20	0.09920907
73	0x3d064f1a	0.03279028
74	0x3d26994b	0.040673535
75	0x3d13120f	0.035905894
76	0x3c8fc270	0.01754877
77	0x3cb8606f	0.02250692
78	0x3c80f845	0.015743384
79	0x3cba6f76	0.022758227
80	0x3e2a4e0f	0.1663134
81	0x3e01442d	0.12623663
82	0x3d0191c9	0.031633172
83	0x3c86f9f8	0.016476616
84	0x3dc74fef	0.09732043
85	0x3d191c37	0.037380423
86	0x3d92f623	0.07175853
87	0x3d5d5b53	0.05404217
88	0x3cdef45e	0.027216133
89	0x3be8278c	0.0070847925
90	0x3d077bfa	0.033077218
91	0x3e039440	0.12849522
92	0x3d5ecd3d	0.05439495
93	0x3cc46892	0.023975644
94	0x3d3e484b	0.046455663
95	0x3d928c1d	0.07155631
96	0x3cd9311a	0.026512671
97	0x3cbae38a	0.022813577
98	0x3d229401	0.03969193
99	0x3d0ba7f8	0.034095734
100	0x3d566c7b	0.05234955
101	0x3c6e2f0a	0.014537582
102	0x3cf161aa	0.029465515
103	0x3c812bfc	0.015768044
104	0x3e77cff1	0.24200417
105	0x3da802b2	0.08203639
106	0x3e7f8a17	0.24955021
107	0x3be3c7c6	0.006951305
108	0x3e7caaea	0.24674574
109	0x3c8d2777	0.017230732
110	0x3cade4bc	0.021227233
111	0x3d7838ad	0.060600925
112	0x3d641559	0.05568442
113	0x3e41c847	0.18924056
114	0x3d5bc475	0.053654153
115	0x3cbb1d6d	0.02284118
116	0x3d107ade	0.035273425
117	0x3da618ed	0.08110223
118	0x3c8794ef	0.01655051
119	0x3df6834c	0.12036762
120	0x3c5db42f	0.013531729
121	0x3e1669e4	0.14688832
122	0x3c1f6f41	0.009731115
123	0x3da733e1	0.08164192

weight f4 [40, 124]
0	0x3cb2795b	0.021786382
1	0x3bb23c9c	0.005439354
2	0x3d9295f2	0.07157506
3	0x3b8873bf	0.0041641886
4	0x3c140c83	0.009036186
5	0xbced04e1	-0.02893299
6	0xbcb7a70b	-0.02241852
7	0x3d296935	0.0413601
8	0x3d3ef469	0.046619806
9	0x3d51bfbf	0.051208254
10	0xbd2de340	-0.04245305
11	0xbd6d7ed6	-0.05798229
12	0x3d8cee8b	0.06881436
13	0x3d115f02	0.035490997
14	0xbca43ce9	-0.020048575
15	0x3db12277	0.08649152
16	0xbd843ed5	-0.06457297
17	0x3c90658b	0.017626544
18	0xbbfa9d2d	-0.0076481313
19	0x3d1beef3	0.038069677
20	0xbc44ae60	-0.012004465
21	0x3d02ab01	0.031901363
22	0xbcd567b2	-0.026050422
23	0xbd800fcf	-0.06253015
24	0xbb139cef	-0.002252396
25	0x3da5e805	0.08100895
26	0xbd22a9cc	-0.039712712
27	0x3c0c6470	0.008568868
28	0xbbee4760	-0.007271692
29	0x3da66394	0.08124462
30	0x3d58cfa9	0.052932415
31	0x3d5be821	0.053688172
32	0xbd13974f	-0.03603297
33	0xbba775da	-0.0051104845
34	0xbc35578c	-0.011068236
35	0xbd6724e3	-0.056431662
36	0x3d463e78	0.04839942
37	0xbd474355	-0.048648197
38	0x3bdb24dd	0.006687744
39	0xbcb385d6	-0.021914404
40	0x3be664c3	0.0070310547
41	0xbd2cbc39	-0.04217169
42	0xbba7e3f4	-0.0051236097
43	0x3d040651	0.032232586
44	0xbda1a372	-0.07892503
45	0xbc1d0cc0	-0.009585559
46	0x3ad3de0c	0.0016164198
47	0xbd2c0d37	-0.04200479
48	0xbb403e5d	-0.0029334046
49	0xbd5c5be0	-0.053798556
50	0x3cdaf1b2	0.026726577
51	0xba195e47	-0.0005850535
52	0xbc94b5a5	-0.018153021
53	0x3d48d63a	0.049032427
54	0xbcf6d6bd	-0.030131692
55	0xbcf70cce	-0.030157473
56	0x3ca97390	0.020684987
57	0xbba7f23c	-0.005125312
58	0x3c5df9dc	0.013548341
59	0x3bc9d9fe	0.00616002
60	0xbd5a8d89	-0.053357635
61	0xbc10dce7	-0.00884173
62	0x3c7dfc44	0.015502039
63	0x3c985113	0.018593347
64	0x3bb66233	0.0055659055
65	0xbbe26af8	-0.0069097243
66	0xbce22760	-0.027606666
67	0x3cabdd81	0.020979645
68	0xb99c4b89	-0.00029810917
69	0xbcc63690	-0.02419594
70	0xbd4bde13	-0.049772333
71	0xbd1406ec	-0.036139414
72	0xbbfcc8a4	-0.007714348
73	0xbd16f714	-0.036856726
74	0xbd2d1ad9	-0.042261932
75	0xbd2b4200	-0.04181099
76	0xbb80b4d8	-0.0039278083
77	0x3d20f112	0.039292403
78	0xbc208986	-0.009798413
79	0x3c4c15e8	0.012456395
80	0x3d24fe5d	0.040281642
81	0xbd05e768	-0.03269139
82	0xbc590d69	-0.013247826
83	0xbd1c9523	-0.038228165
84	0xb96e0e2b	-0.00022702727
85	0x3c03cd5c	0.008044567
86	0xbd5f9151	-0.054581944
87	0x3d0c90a6	0.034317635
88	0xbcbb5bb4	-0.022870876
89	0x3c5ef2a6	0.013607657
90	0xbc5c53d0	-0.013447717
91	0x3c93bd77	0.01803468
92	0x3d465f4f	0.048430737
93	0xbbf2e233	-0.007412219
94	0x3d0be9db	0.03415857
95	0xbc99c960	-0.01877278
96	0x3ca20b5f	0.019780813
97	0xbc89950c	-0.016794704
98	0xbade5f2b	-0.0016965618
99	0x3d1cde01	0.038297657
100	0x3c5d5aa6	0.013510382
101	0xbce5c49f	-0.028047858
102	0xbd1587a7	-0.03650632
103	0x3ced5b1f	0.028974114
104	0xbcc9e7c0	-0.02464664
105	0xbd97a5d0	-0.07404673
106	0x3cf8ad72	0.030356143
107	0xbc513b12	-0.012770431
108	0x3d134735	0.03595658
109	0x3c40094f	0.011720969
110	0x3d21164c	0.039327905
111	0x3d03416b	0.03204481
112	0xbd2db573	-0.04240937
113	0xbcfa0be7	-0.030523254
114	0x3cf6dcd0	0.030134588
115	0x3b8bed1e	0.00427021
116	0xbd4dff1d	-0.050292123
117	0x3c1ce1b3	0.009575295
118	0x3c5d0d43	0.013491931
119	0xbca35934	-0.019939996
120	0x3bf88661	0.0075843786
121	0xbce1ec82	-0.027578596
122	0xbc49bd72	-0.012313234
123	0x3d6c6e44	0.057722345
124	0x3b7d4bad	0.0038649843
125	0x3d5aae0c	0.05338864
126	0xbd04a171	-0.032380525
127	0x3d506dc2	0.050885923
128	0x3da8cb0e	0.082418546
129	0x3d58548a	0.052814998
130	0x3d36afd7	0.044601288
131	0x3afc1317	0.0019231763
132	0xbcdfe838	-0.02733241
133	0xbd9a6636	-0.075390264
134	0xbbc9cdc9	-0.0061585647
135	0x3d3721de	0.044710033
136	0x3c07567d	0.0082603665
137	0x3b350f70	0.002762761
138	0xbcc803ea	-0.024415929
139	0x3d9206c8	0.071302
140	0xbc9e761d	-0.01934343
141	0x3c91b1a1	0.017784895
142	0x3c083eab	0.008315722
143	0xbd6552a0	-0.055987
144	0xbc9f86f0	-0.019473523
145	0xbd274249	-0.0408347
146	0x3a2e283e	0.000664357
147	0xbc0a729e	-0.008450178
148	0xbd10b26b	-0.035326403
149	0x3d443d7b	0.047910195
150	0x3d5cc492	0.0538984
151	0x3d78dd2b	0.060757797
152	0x3da5c0c8	0.08093411
153	0x3bae8eb6	0.005327071
154	0xbd2c5b1a	-0.04207907
155	0x3c457556	0.012051901
156	0xbd8b0148	-0.06787354
157	0xbd0ab4ce	-0.033863835
158	0x3cd02e21	0.025412621
159	0xb9054445	-0.00012709301
160	0xbd41c7f7	-0.047309842
161	0x3d9a2157	0.0752589
162	0xbbcf0d9a	-0.00631876
163	0x3d50ea82	0.051004894
164	0x3dbca706	0.09211545
165	0x3c56f693	0.013120311
166	0xbcb49925	-0.022045681
167	0x3d19132c	0.0373718
168	0x3d7cb5a0	0.06169665
169	0x3d4a9487	0.049458053
170	0x3c1cea48	0.009577341
171	0xb98d6c23	-0.00026974184
172	0xbced8b0c	-0.028996967
173	0xbd4b4bdb	-0.04963289
174	0x3da96247	0.08270698
175	0xbc34bc88	-0.0110312775
176	0xbd7cc5a6	-0.06171193
177	0x3d861d8d	0.06548605
178	0x3ce33e15	0.027739564
179	0x3d5459a1	0.05184329
180	0x3d75d93a	0.060021617
181	0xbd5510a5	-0.052017827
182	0x3d822382	0.06354429
183	0x3d0fd2ad	0.035113025
184	0xbcd25b80	-0.025678396
185	0xbb8e0a2e	-0.0043347096
186	0xbbc7a8e1	-0.00609313
187	0xbd32783a	-0.04357169
188	0x3d1742c8	0.036928922
189	0xbc2d47ed	-0.0105762305
190	0xbc9972d6	-0.018731516
191	0xbcb0f561	-0.02160138
192	0x3bd475d7	0.006483774
193	0xbbf502f1	-0.0074771573
194	0xbd3fb9e2	-0.04680813
195	0x3d2a061e	0.04150974
196	0x3a0417de	0.0005038957
197	0xbc4a36a4	-0.012342129
198	0x3d970acf	0.073751085
199	0x3d447204	0.047960296
200	0xbca7d081	-0.020485165
201	0xbbdc0c82	-0.0067153582
202	0x3c82a6a0	0.015948594
203	0x3ba10235	0.004913593
204	0xbd3cef1e	-0.046126477
205	0x3caf5b35	0.021405796
206	0x3d329833	0.04360218
207	0xbc7d259e	-0.015450863
208	0x3d0c965e	0.03432309
209	0x3ccdb4ac	0.025110565
210	0xbd7a952a	-0.06117741
211	0x3d4eea4a	0.050516404
212	0x3d02d49b	0.031941038
213	0xbc839d15	-0.016066113
214	0x3d4af816	0.049553
215	0x3c0069c8	0.00783772
216	0x3d206cb2	0.03916616
217	0xbbd6a18d	-0.00655002
218	0x3dad7dd7	0.08471268
219	0xbcf0e31d	-0.029405171
220	0x3ca3d1c8	0.019997492
221	0x3d5f61d3	0.05453665
222	0xbce3b8e7	-0.02779813
223	0x3d6cd791	0.057822768
224	0xbd031609	-0.032003436
225	0x3d7bb031	0.061447326
226	0xbcee70a9	-0.029106455
227	0xbd1f616f	-0.03891128
228	0x3d455487	0.048176315
229	0x3d04034c	0.032229707
230	0x3b8732d0	0.0041259304
231	0xbbf25454	-0.0073953066
232	0x3c5e4080	0.013565183
233	0x3d96f52f	0.07370984
234	0x3d70eaf4	0.05881782
235	0xbdb34649	-0.0875364
236	0x3d4fe75e	0.05075776
237	0xbd20af26	-0.039229535
238	0x3cf5a75a	0.029987026
239	0xbd04bfec	-0.032409593
240	0x3d0f1f8d	0.0349422
241	0x3c43e5d8	0.0119566545
242	0x3d9699c5	0.07353548
243	0xbd41c749	-0.047309194
244	0xbd102053	-0.035187077
245	0x3b25ecf2	0.0025318232
246	0x3ceb3b7a	0.028714884
247	0xbd01e9ce	-0.031717114
248	0x3ce3f57d	0.027827019
249	0x3b88df70	0.0041770265
250	0xbccb5dbd	-0.024824971
251	0x3c5a32c0	0.013317764
252	0x3c9e9227	0.0193568
253	0x3bbad34e	0.005701459
254	0xbca65123	-0.02030236
255	0x3d399445	0.045307416

bias f4 [40]
0	0xbd0efebd	-0.034910906
1	0xbcf9cf1e	-0.030494269
2	0x38590f0b	5.175084e-05
3	0xbca28595	-0.019839088
4	0xbd094e31	-0.033521835
5	0xbbfa41f8	-0.0076372586
6	0x3be52147	0.0069924924
7	0x3bbf9876	0.005847032
8	0x3d00d0b3	0.03144903
9	0x3d017ab3	0.031611156
10	0x3d155c84	0.036465183
11	0xbc5526d6	-0.0130097475
12	0x38b2d9d6	8.5282765e-05
13	0x3c06408c	0.0081941
14	0xbcb694b9	-0.022287713
15	0xbc77c41d	-0.015122441
16	0x3d5bc227	0.053651955
17	0x3c9b3db3	0.018950319
18	0xbbf946c3	-0.0076073124
19	0xbd2cd358	-0.04219374
20	0x3b928034	0.0044708494
21	0xbcbe64dc	-0.023241453
22	0xbb223c38	-0.0024755131
23	0xbccd81d7	-0.025086327
24	0xba1ffed0	-0.00061033387
25	0x3c3bb414	0.011456508
26	0x3c1a7076	0.009426227
27	0x3c201699	0.009771013
28	0xb999f03b	-0.0002936142
29	0x3d225770	0.03963417
30	0xbd45df25	-0.04830851
31	0xba1d1873	-0.0005992718
32	0x3d073801	0.033012394
33	0x3d1be4bc	0.038059935
34	0xbc88079e	-0.016605195
35	0xbc7b7731	-0.015348242
36	0xbc4a139e	-0.012333779
37	0xbd74ac98	-0.05973491
38	0x3caeddc8	0.021345988
39	0x3ccdede9	0.025137858

weight f4 [40]
0	0x3f15de72	0.5854255
1	0x3f1d275b	0.61388177
2	0x3f17bd87	0.5927357
3	0x3f1d8f76	0.6154703
4	0x3f16c10a	0.58888304
5	0x3f0cbd05	0.5497592
6	0x3f24cc77	0.6437449
7	0x3f0b7678	0.54477644
8	0x3f0e0295	0.5547269
9	0x3f1a26d6	0.6021551
10	0x3f155794	0.5833676
11	0x3f1158a9	0.5677591
12	0x3f222175	0.633323
13	0x3f1f5fc6	0.62255514
14	0x3f14cf96	0.5812925
15	0x3f12b1f0	0.5730276
16	0x3f10bd96	0.56539285
17	0x3f14f831	0.5819121
18	0x3f240a4e	0.64078224
19	0x3f24467e	0.6417006
20	0x3f135e0e	0.5756539
21	0x3f143b1e	0.57902706
22	0x3f161f75	0.5864175
23	0x3f1be91f	0.6090259
24	0x3f184ef9	0.594955
25	0x3f097057	0.5368704
26	0x3f15593e	0.583393
27	0x3f13308a	0.5749594
28	0x3f0b3efd	0.5439299
29	0x3f090c23	0.53534144
30	0x3f0c9af5	0.54923946
31	0x3f228438	0.63483
32	0x3f1dc43f	0.6162757
33	0x3f0922fc	0.53569007
34	0x3f216355	0.63042194
35	0x3f10d20f	0.56570524
36	0x3f1169b8	0.5680194
37	0x3f09c128	0.5381036
38	0x3f1bedb3	0.60909575
39	0x3f1e8d79	0.6193462

bias f4 [40]
0	0xbcf32c98	-0.02968435
1	0xbd4d9d1e	-0.050198667
2	0xbd191d64	-0.037381545
3	0xbd1e6370	-0.03866905
4	0x3b96b430	0.0045991167
5	0xbcec1649	-0.02881922
6	0xbda0ede4	-0.07857874
7	0x3cf4c559	0.029879259
8	0xbca8953c	-0.020578973
9	0xbc39da7f	-0.011343597
10	0x3c47cc73	0.012194741
11	0x3c79243e	0.015206395
12	0xbce104d5	-0.027468124
13	0x3c48fabf	0.012266814
14	0xbcfa9141	-0.03058684
15	0x3cdf5fd8	0.027267382
16	0xbd0754ff	-0.033040043
17	0x3c1871ff	0.009304523
18	0x3d53d050	0.051712334
19	0xbd03a5c1	-0.032140497
20	0x3cac2c89	0.02101733
21	0x3c9c4880	0.01907754
22	0x3cc13ea6	0.023589443
23	0xbba012f9	-0.004885074
24	0xbc90a292	-0.017655645
25	0x3c8e21da	0.017350126
26	0xbd14984f	-0.036278065
27	0x3c543c06	0.012953764
28	0x3c6a1ebe	0.014289556
29	0xbd1ebecb	-0.038756173
30	0x3d225e4c	0.03964071
31	0xbd8e4d23	-0.069483064
32	0xbd25f12b	-0.0405132
33	0x3c6a34a5	0.014294778
34	0xbd32d531	-0.043660346
35	0x3c2e27c5	0.010629599
36	0x3d344e42	0.044019945
37	0xbd0987fc	-0.03357695
38	0x3c289948	0.010290451
39	0xbd40e4c9	-0.047093187

running_mean f4 [40]
0	0x3c58fc53	0.0132437525
1	0x3c16e736	0.009210398
2	0x3ca4707d	0.02007317
3	0x3b591551	0.0033124278
4	0xbb060e25	-0.0020455208
5	0x3c5b1212	0.0133710075
6	0x3cdb64ca	0.026781458
7	0x3c64dcf6	0.013968697
8	0x3d072778	0.032996625
9	0x3d2c3e1c	0.04205142
10	0x3d1a72f2	0.037707277
11	0x3c49ba16	0.012312433
12	0x3c890e87	0.01673056
13	0x3cfb41c0	0.030671
14	0x3c31d9b7	0.01085513
15	0x3c89d2e1	0.016824188
16	0x3d5a0f01	0.053236965
17	0x3ce6ed07	0.028189195
18	0x3cedb8df	0.029018817
19	0xbad3d0fc	-0.0016160305
20	0x3d16d67e	0.03682565
21	0x3c16095c	0.009157505
22	0x3cc57d81	0.024107696
23	0x3a02bd2e	0.00049872964
24	0x3c9c6fcb	0.019096276
25	0x3ca8c0f2	0.020599816
26	0x3d1e4693	0.038641524
27	0x3cbfab75	0.023397187
28	0x3c860dbe	0.016363975
29	0x3d210cec	0.039318964
30	0xbbb6882f	-0.0055704336
31	0x3ca5ae66	0.020224761
32	0x3d64091e	0.055672757
33	0x3d27515d	0.04084908
34	0x3c84ef97	0.016227527
35	0x3c0cf854	0.008604128
36	0x3c36369e	0.01112142
37	0xbc8eb7c4	-0.01742161
38	0x3d01baea	0.031672396
39	0x3d3fd6f5	0.04683586

running_var f4 [40]
0	0x3d011f4a	0.03152398
1	0x3cbf5043	0.023353701
2	0x3cc43331	0.023950191
3	0x3c8c1edd	0.01710456
4	0x3c638125	0.013885771
5	0x3c96c86c	0.018406115
6	0x3cdcd21f	0.026955662
7	0x3c7f71c2	0.015591087
8	0x3c80a7cf	0.015705017
9	0x3d117aba	0.03551743
10	0x3cb58891	0.022159846
11	0x3c535a1d	0.012899903
12	0x3c9d0c7c	0.019170992
13	0x3d0a6805	0.033790607
14	0x3c8ce50c	0.017199062
15	0x3ca29a2b	0.019848904
16	0x3cc4343f	0.023950694
17	0x3c9a111e	0.01880699
18	0x3d206a90	0.039164126
19	0x3d044df0	0.03230089
20	0x3cfc084f	0.03076568
21	0x3cb565b3	0.02214322
22	0x3d02f6db	0.0319737
23	0x3c7b89a2	0.015352638
24	0x3cda13db	0.026620796
25	0x3c814ffc	0.01578521
26	0x3d0402e9	0.032229338
27	0x3ca5942b	0.020212254
28	0x3c823ed8	0.015899107
29	0x3cb7a755	0.022418657
30	0x3c5d9267	0.013523675
31	0x3cc31262	0.023812477
32	0x3d615a83	0.05501796
33	0x3caae9c7	0.020863427
34	0x3cbad47a	0.022806395
35	0x3c504332	0.012711333
36	0x3c908bb5	0.017644743
37	0x3c219f5d	0.009864655
38	0x3cf10e96	0.0294259
39	0x3d45696e	0.04819625

weight f4 [81, 40]
0	0x3d00574d	0.031333257
1	0x3d2cee0e	0.042219214
2	0x3d161502	0.03664113
3	0x3c4a603c	0.012352046
4	0xbdad60cd	-0.08465729
5	0xbd185c0a	-0.03719715
6	0x3dc753d0	0.09732783
7	0x3c43699e	0.011927037
8	0xbbed57e6	-0.0072431443
9	0x3d127663	0.035757434
10	0xbcceee87	-0.025260223
11	0xbdc5f6f9	-0.09666247
12	0x3d1df586	0.038564228
13	0x3dbb0300	0.091314316
14	0xbd8201f1	-0.063480265
15	0xbd89380b	-0.067001425
16	0xbd2b77c8	-0.04186228
17	0xbd52a20b	-0.051424067
18	0x3d2dddb1	0.04244775
19	0xbd916c39	-0.0710072
20	0x3cfcd31e	0.030862387
21	0x3c821d6e	0.015883174
22	0xbb33e9ef	-0.0027452668
23	0x3d8fb182	0.07016279
24	0x3cda7d82	0.026671175
25	0x3c512df9	0.012767308
26	0xbd7c09fb	-0.061532956
27	0xbd12cc7d	-0.035839546
28	0xbdae2d9d	-0.08504794
29	0x3db135ad	0.08652816
30	0xbd88878e	-0.0666648
31	0x3d7c585d	0.061607707
32	0x3ded0efa	0.11575122
33	0x3c239103	0.009983304
34	0x3d6b0f67	0.057387736
35	0x3d24ae1f	0.040205117
36	0xbd99dbb3	-0.075126074
37	0xbdda8bd7	-0.106712036
38	0x3dee2dec	0.11629853
39	0xbd4908f6	-0.04908081
40	0x3d6031eb	0.054735105
41	0xbc4fb0c9	-0.012676426
42	0x3d2a211e	0.04153549
43	0xbd814511	-0.063120015
44	0x3b8d1b36	0.0043062223
45	0x3d91f841	0.07127429
46	0x3df6050d	0.12012682
47	0xbd92f38d	-0.0717536
48	0x3dc7990f	0.097459905
49	0xbd53dd73	-0.051724862
50	0xbcf7d48c	-0.030252717
51	0x3d2dd98c	0.042443797
52	0x3dacbaa6	0.08434038
53	0x3b9c125e	0.0047629317
54	0x3d967226	0.07345991
55	0xbd1e5640	-0.038656473
56	0xb91b0d58	-0.00014786923
57	0xbd71f9f9	-0.059076283
58	0xbd4584d5	-0.04822238
59	0xbd90e5c2	-0.07075073
60	0xbceb143b	-0.02869617
61	0xbc15985e	-0.009130565
62	0xbd0eb5bd	-0.034841288
63	0x3ce60a3c	0.028081052
64	0xbd66eb07	-0.056376483
65	0x3d342572	0.043981023
66	0x3c878169	0.0165412
67	0xbd0748bd	-0.033028353
68	0xbcc358a2	-0.023845974
69	0xbd000aa9	-0.031260166
70	0x3d56812f	0.052369293
71	0x3d2d338c	0.042285487
72	0xbd642fee	-0.05570977
73	0xbd026d63	-0.0318426
74	0xbd883ce9	-0.06652243
75	0x3d918f1e	0.071073756
76	0xbce8922e	-0.028390016
77	0xbc032b61	-0.008005948
78	0xbd6fd072	-0.0585484
79	0xbc714cce	-0.014727784
80	0x3d0281d1	0.031862084
81	0xbd26a93c	-0.04068874
82	0x3cb81c04	0.022474296
83	0x3c37bcba	0.0112144295
84	0x3dbaa0c5	0.091126956
85	0x3d7c8a2e	0.061655216
86	0x3dc3923e	0.09549378
87	0x3d9fd0f4	0.078035265
88	0x3d645188	0.055741817
89	0x3cd8ffd9	0.026489185
90	0x3d9c849b	0.0764248
91	0x3d930aba	0.0717978
92	0x3d99f444	0.07517293
93	0x3d99dd1f	0.075128786
94	0xb97e3f11	-0.00024246822
95	0x3acf42a0	0.0015812702
96	0x3d2bf7a6	0.041984223
97	0x3d8a6c26	0.06758909
98	0xbd7c41ff	-0.061586376
99	0xbd37e6b9	-0.04489777
100	0xbd47641d	-0.04867946
101	0x3d85a8c1	0.06526328
102	0xbc89ff9f	-0.016845522
103	0xbc21a5d7	-0.009866199
104	0x3d3768b8	0.044777602
105	0xbd267e4a	-0.040647782
106	0x3d8031f6	0.06259529
107	0xbdb5a458	-0.08869237
108	0xbbc904b3	-0.0061345934
109	0xbd5c7dc7	-0.053830888
110	0xbc90a463	-0.01765651
111	0x3b69e0e1	0.0035687017
112	0x3d98d1d7	0.07461899
113	0x3d425392	0.04744298
114	0x3caecfda	0.021339346
115	0x3da710f8	0.081575334
116	0xbdae5155	-0.085116066
117	0x3d488acf	0.048960503
118	0xbcb21ba8	-0.021741703
119	0x3dcdfe12	0.10058226
120	0x3d46e014	0.04855354
121	0x3d3cdb0d	0.04610734
122	0x3d526f26	0.05137553
123	0xbd3ae2d4	-0.045626476
124	0x3dbf8608	0.09351736
125	0xbda1bbee	-0.07897173
126	0xbca2e36f	-0.01988384
127	0xb987fab0	-0.00025935983
128	0x3d95f24f	0.07321607
129	0xbd302631	-0.043005172
130	0xbde548ae	-0.11195503
131	0xbc7e3bfd	-0.015517232
132	0x3de90a12	0.11378874
133	0xbd221405	-0.039569873
134	0xbd3e80f7	-0.04650971
135	0x3ce95ee7	0.028487636
136	0xbd01780b	-0.031608623
137	0x3ce9b1cd	0.028527165
138	0x3d72bc0e	0.059261374
139	0x3d15b84f	0.036552723
140	0xbd891f1b	-0.06695386
141	0x3de01781	0.10941983
142	0x3d88b4d7	0.066751175
143	0x3d2a864d	0.041631985
144	0xbd31c593	-0.043401312
145	0x3dd64d7e	0.10463999
146	0x3d515681	0.051107887
147	0x3d2c746c	0.042103216
148	0x3d95bb7e	0.07311152
149	0x3ca3f0e5	0.020012328
150	0x3e082ca8	0.13298285
151	0x3d9af6bb	0.07566591
152	0x3d368e66	0.044569395
153	0xbd2d547f	-0.04231691
154	0x3c2dd610	0.0106101185
155	0xbd437f4e	-0.04772883
156	0x3d2742dc	0.040835246
157	0x3dd0d325	0.101965226
158	0x3b5ad16a	0.003338898
159	0x3dac4e51	0.08413375
160	0xbd8e0e01	-0.06936265
161	0x3cd84b82	0.026403192
162	0xbce3a2c0	-0.027787566
163	0xbbc373ab	-0.0059647164
164	0xb99959bb	-0.00029249288
165	0x3da0ec7a	0.07857604
166	0xbd8664f6	-0.065622255
167	0x3db53d58	0.08849591
168	0x3da3c92c	0.07997355
169	0xbb2c61bb	-0.002630337
170	0xbd598143	-0.05310179
171	0xbc2b39d6	-0.010450801
172	0xbd6cae00	-0.057783127
173	0xbda5e6be	-0.08100651
174	0x3daecbad	0.08534942
175	0x3d726de6	0.05918684
176	0xbd04b1da	-0.032396175
177	0x3d233e54	0.039854363
178	0x3d811066	0.06301956
179	0x3c94edbf	0.018179772
180	0x3d905bc6	0.070487544
181	0x372344b5	9.731554e-06
182	0x3d80512c	0.06265482
183	0x3da04faa	0.07827695
184	0xbdb81786	-0.08988862
185	0x3d70cffd	0.058792103
186	0xbb9f75f5	-0.0048663565
187	0x3d73475d	0.05939423
188	0x3d97d5e2	0.07413842
189	0xbd200b48	-0.03907326
190	0x3d349006	0.044082664
191	0xbd919087	-0.071076445
192	0xbd92a0be	-0.071595654
193	0x3d3dc901	0.04633427
194	0xbd4fe181	-0.050752167
195	0x3c5fe8fd	0.013666389
196	0x3d53e8f6	0.05173584
197	0x3d7b32a9	0.06132761
198	0xbcba2a4e	-0.02272525
199	0x3dd2fda9	0.10302288
200	0xbcef73a7	-0.029229952
201	0xbda4e5ef	-0.08051669
202	0x3d54fd03	0.051999103
203	0x3d8f3997	0.06993406
204	0xbd7bbbba	-0.061458327
205	0xbd4bd951	-0.049767796
206	0x3d938d80	0.07204723
207	0x3d207fb0	0.039184272
208	0xbdb2575a	-0.08708067
209	0x3dc7d8ac	0.09758124
210	0x3d0c12fc	0.034197792
211	0x3dc7baf6	0.09752457
212	0x3de41a77	0.1113786
213	0x3c1e0f2d	0.009647173
214	0x3d0d16ed	0.03444569
215	0xbd9d6c49	-0.076866694
216	0x3cf1c6e2	0.02951378
217	0x3d979496	0.074013874
218	0xbd9be0ab	-0.076112114
219	0x3d5e12e5	0.054217238
220	0xbd57b062	-0.052658446
221	0xbd329d58	-0.043607086
222	0xbd406081	-0.046967033
223	0x3d67828d	0.056520987
224	0xbd4e0e58	-0.050306648
225	0xbde1ffa8	-0.11035091
226	0x3d828ca5	0.06374482
227	0x3d906545	0.07050566
228	0xbdbfd5de	-0.09366964
229	0x3dcd7357	0.10031765
230	0x3d916bd5	0.071006455
231	0x3daf6e6b	0.085659824
232	0x3cc4762e	0.023982134
233	0xbdaf86f3	-0.085706614
234	0xbdaaccca	-0.08339842
235	0x3c8dd89b	0.0173152
236	0xbd9a3255	-0.07529131
237	0xbc377857	-0.011198125
238	0x3d90048e	0.07032119
239	0x3dabdaf3	0.083913706
240	0xbbbceb62	-0.0057653645
241	0x3dd3d03f	0.10342454
242	0x3d1b8730	0.03797072
243	0x3dac7e96	0.08422582
244	0x3ca5ab90	0.020223409
245	0xbdd2f0c2	-0.10299827
246	0x3db18c6e	0.08669363
247	0x3c4033c9	0.011731097
248	0xbd3c92ac	-0.046038315
249	0xbd91da83	-0.07121756
250	0x3bd9ed0e	0.0066505736
251	0xbad7a3ca	-0.0016452011
252	0x3df390a9	0.11892826
253	0xbd43763d	-0.047720183
254	0x3c028ecb	0.007968615
255	0x3d3eb7f3	0.046562146

bias f4 [81]
0	0x3ab76f06	0.001399488
1	0x3b7aef12	0.003828947
2	0x3c6d1b74	0.014471877
3	0xbd86d7a7	-0.06584101
4	0xbda24c9e	-0.0792477
5	0xbd1538ff	-0.03643131
6	0xbbba2f22	-0.005681888
7	0xbd2967e4	-0.041358843
8	0xbc4fb7a0	-0.012678057
9	0xbd7ab01f	-0.06120312
10	0xbd8ba6c2	-0.06818916
11	0xbd5f2c3c	-0.054485545
12	0xbcf74ba7	-0.030187441
13	0xbc468856	-0.012117466
14	0xbd6d2401	-0.057895664
15	0xbd41e200	-0.04733467
16	0xbd1cd745	-0.038291235
17	0xbcb033f6	-0.021509152
18	0xbcec1ccc	-0.028822325
19	0xb9454aeb	-0.00018815293
20	0xbd4c2ff9	-0.049850438
21	0xbdb56bf3	-0.0885848
22	0xbd6ecb14	-0.05829914
23	0xbd46842f	-0.048465904
24	0xbd0d06f6	-0.034430467
25	0xbc87987c	-0.016552202
26	0xbc550147	-0.013000793
27	0xbd00a4fb	-0.031407338
28	0xbade1796	-0.0016944285
29	0xbc9276a5	-0.01787884
30	0xbced42cd	-0.028962517
31	0xbc6dd8fb	-0.014517064
32	0xbcd2ff53	-0.025756514
33	0xbc8a3836	-0.016872507
34	0xbd3e04a8	-0.04639116
35	0xbcf027a7	-0.029315783
36	0xbbfb0b41	-0.0076612537
37	0xbd7d27fe	-0.061805718
38	0xbda9a3ef	-0.08283221
39	0xbd061834	-0.032737926
40	0xbd444a96	-0.047922693
41	0xbcb89a8e	-0.022534635
42	0xbdfd4932	-0.123674765
43	0xbd9f0d69	-0.0776623
44	0xbd56f493	-0.052479338
45	0xbdb37614	-0.08762756
46	0xbce30877	-0.027713997
47	0xbdaa8f82	-0.08328153
48	0xbc7d3507	-0.015454537
49	0xbd83df61	-0.064390905
50	0xbd2ede4b	-0.042692464
51	0xbcfd3815	-0.030910531
52	0xbd7c8050	-0.061645806
53	0xbce6119b	-0.028084567
54	0xbd8e8485	-0.0695887
55	0xbd43e14d	-0.047822285
56	0xbc49aa0a	-0.012308607
57	0xbd5b7c59	-0.053585384
58	0xbd250a85	-0.040293235
59	0xbd34e575	-0.04416414
60	0xbd22a318	-0.03970632
61	0xbc5b82dc	-0.0133978985
62	0xbcaba777	-0.020953877
63	0xbd973e15	-0.07384888
64	0xbd327e89	-0.043577705
65	0xbd134a3c	-0.035959467
66	0x3c933aa1	0.017972292
67	0xbd584f83	-0.052810203
68	0xbd10f25d	-0.035387386
69	0xbc808f0f	-0.015693216
70	0xbc8d5ad9	-0.017255234
71	0xbd8dcc41	-0.06923724
72	0xbd551652	-0.05202324
73	0xbd4967a4	-0.049171105
74	0xbdabd1dc	-0.08389637
75	0xbd3f8298	-0.046755403
76	0xbd0e80ef	-0.03479093
77	0xbdb0ac85	-0.086266555
78	0xbca38f8f	-0.019965915
79	0xbd2216f7	-0.039572682
80	0xbd4c49b1	-0.049874965

weight f4 [81]
0	0x3e325492	0.17415074
1	0x3e0522ad	0.13001509
2	0x3e44efc8	0.19232094
3	0x3e37b0ab	0.17938487
4	0x3e003b30	0.12522578
5	0x3e3007cd	0.17190476
6	0x3e461059	0.19342174
7	0x3e4faa58	0.20279825
8	0x3df7df25	0.12103108
9	0x3e0fee37	0.14055716
10	0x3dfd71c4	0.12375215
11	0x3e0225c9	0.12709726
12	0x3e1436ef	0.1447408
13	0x3e039ce8	0.12852824
14	0x3e140f47	0.14458953
15	0x3e07d59f	0.13265084
16	0x3e189926	0.14902171
17	0x3e15fd53	0.14647417
18	0x3e27563d	0.16341491
19	0x3e271ffc	0.16320795
20	0x3e2c8e97	0.16851269
21	0x3e21713e	0.15765855
22	0x3ddbf288	0.107396185
23	0x3e3981b0	0.18115878
24	0x3e4d2d19	0.20036735
25	0x3e0d0ce2	0.13774446
26	0x3e2357a1	0.15951397
27	0x3e0bb7dc	0.13644356
28	0x3e0ce9dd	0.13761087
29	0x3e17de6e	0.14830944
30	0x3e04f7f3	0.1298521
31	0x3e11561e	0.14193007
32	0x3e327015	0.17425568
33	0x3ddd6285	0.10809807
34	0x3df65ece	0.12029801
35	0x3e21738b	0.15766732
36	0x3e0d82d2	0.13819435
37	0x3e2ac317	0.16675983
38	0x3e066de9	0.13127865
39	0x3e0f3078	0.13983333
40	0x3e39419c	0.18091434
41	0x3df83231	0.12118948
42	0x3e206c17	0.15666233
43	0x3e325979	0.17416944
44	0x3e1f8ca3	0.15580992
45	0x3e0f9298	0.14020765
46	0x3debbaa5	0.11510209
47	0x3e030aea	0.12797132
48	0x3e1cc059	0.1530775
49	0x3e2db803	0.16964726
50	0x3e1e38f9	0.15451421
51	0x3e1235a8	0.1427828
52	0x3e0b38c4	0.13595873
53	0x3e3aab98	0.1822952
54	0x3e49accb	0.19694822
55	0x3e1cdedb	0.15319388
56	0x3e2510dc	0.16119713
57	0x3dff0536	0.12452166
58	0x3e1ec3f8	0.15504444
59	0x3e287daa	0.16454187
60	0x3e2ef242	0.17084602
61	0x3e2b9cfc	0.16759104
62	0x3e1ca620	0.15297747
63	0x3e25feeb	0.16210525
64	0x3e209107	0.15680324
65	0x3e329970	0.17441344
66	0x3e44413b	0.19165508
67	0x3df8f22f	0.12155568
68	0x3e3d60e7	0.18493997
69	0x3e1e8936	0.1548203
70	0x3de5ee9e	0.11227153
71	0x3e06d883	0.1316853
72	0x3e19773d	0.14986892
73	0x3e0735cb	0.13204114
74	0x3dfa18fb	0.12211796
75	0x3e0979c4	0.13425356
76	0x3e04d8f9	0.12973393
77	0x3e201427	0.15632688
78	0x3e205eb9	0.15661134
79	0x3e1b3335	0.15156253
80	0x3e0694a0	0.13142633

bias f4 [81]
0	0xbec72f84	-0.3890344
1	0x3ee52b6c	0.4475969
2	0x3ed7bf63	0.42138204
3	0xbeb5a4c1	-0.3547726
4	0x3ecf58d9	0.40497473
5	0xbeba647e	-0.36404794
6	0x3edbdffb	0.4294432
7	0xbec4e695	-0.3845717
8	0x3ebf3e85	0.37352386
9	0x3ed8a09f	0.42310044
10	0x3eb3507c	0.35022342
11	0xbecd3200	-0.4007721
12	0xbeb322b5	-0.34987417
13	0x3ec64b21	0.38729194
14	0xbeca4e75	-0.39512983
15	0xbeb87de0	-0.36033535
16	0x3ec73ca7	0.38913462
17	0x3ec5b557	0.38614914
18	0xbeca89e8	-0.3955834
19	0x3ec71602	0.38883978
20	0xbec9abd1	-0.39388898
21	0x3eb0ea56	0.34553784
22	0x3ec59367	0.38589022
23	0x3ed9ec56	0.42563123
24	0xbed98a08	-0.42488122
25	0x3ec50c34	0.38485873
26	0x3ebdb45d	0.3705167
27	0xbec2ca96	-0.38045186
28	0x3ec4816b	0.38379988
29	0x3edcb9c8	0.4311049
30	0x3ed1762f	0.4091048
31	0xbee73f65	-0.45165554
32	0x3eb9bb1c	0.36275566
33	0x3ec5ea4c	0.38655317
34	0x3ed56d97	0.41685173
35	0x3ebdf794	0.3710295
36	0x3ee48d5f	0.44639108
37	0x3ebf4909	0.3736041
38	0xbebbeb86	-0.36703128
39	0x3ed1f9a0	0.4101076
40	0x3ec0b823	0.37640485
41	0x3ebf7fd7	0.37402222
42	0xbeb3556c	-0.3502611
43	0xbeb408f8	-0.35163093
44	0xbee07ce9	-0.438453
45	0xbeb81b05	-0.35958114
46	0x3ec3fe04	0.38279736
47	0xbedd9c99	-0.43283537
48	0xbec3b509	-0.38224056
49	0xbeb795c4	-0.3585645
50	0x3edbfc1f	0.4296579
51	0x3ebfda5c	0.37471282
52	0xbeb72176	-0.35767716
53	0xbec4fc86	-0.3847391
54	0xbebbf650	-0.3671136
55	0x3ec6e92b	0.38849768
56	0x3ebb6c43	0.36606035
57	0xbebc5f73	-0.36791572
58	0xbed73221	-0.42030433
59	0x3ee00796	0.43755788
60	0xbebde3b9	-0.370878
61	0x3ecb2850	0.39679193
62	0x3eccdc1f	0.4001169
63	0xbecda0c1	-0.40161708
64	0xbebb7ec5	-0.36620155
65	0x3edc5e1a	0.43040544
66	0x3ebc5606	0.3678438
67	0x3eba4210	0.36378527
68	0xbeb119ee	-0.34590095
69	0xbec382a3	-0.38185605
70	0x3ebec4a0	0.37259388
71	0x3ec6f59a	0.38859254
72	0x3eb27f27	0.34862635
73	0x3ee45902	0.44599158
74	0xbebc21c1	-0.36744502
75	0x3eccdb75	0.40011182
76	0x3eb22bcb	0.34799036
77	0xbec6070e	-0.38677257
78	0x3ebe6bc3	0.3719159
79	0xbeaf9834	-0.3429581
80	0x3ebada69	0.3649476

running_mean f4 [81]
0	0x3c28cfd0	0.010303453
1	0x3bd3226f	0.006443314
2	0x3cb64099	0.0222476
3	0xbc088362	-0.008332105
4	0x391d58c0	0.00015005749
5	0x3900b9d6	0.0001227626
6	0x3c08b47f	0.008343815
7	0xbb86264f	-0.004093922
8	0x3b6fb4f3	0.003657636
9	0xbc83be61	-0.01608199
10	0x3b44b864	0.0030017132
11	0xbc3ad9fb	-0.01140451
12	0xbb9f9c84	-0.004870953
13	0x3cd632d3	0.026147282
14	0xbc3474d5	-0.011014183
15	0xbb6f2099	-0.0036487936
16	0xbbb3372c	-0.0054692235
17	0x3c4c49ce	0.012468768
18	0x3bf62cc5	0.007512661
19	0x3b10d59e	0.0022099982
20	0xbbad71fd	-0.0052931295
21	0xbc993cc3	-0.018705731
22	0xb9d2ae16	-0.00040184025
23	0xbb116efd	-0.0022191398
24	0x3b84f66b	0.0040576956
25	0x3c50695c	0.012720432
26	0x3c43da5d	0.011953917
27	0x3ae19348	0.0017210031
28	0x3bd4dcd3	0.006496051
29	0x3c318a6c	0.010836225
30	0xbbce23dc	-0.006290896
31	0x3bc4aba4	0.0060019065
32	0x3ca2e904	0.019886501
33	0x3c456d7c	0.012050029
34	0x3be5916b	0.0070058606
35	0xbb836120	-0.004009381
36	0x3c14ac2d	0.009074253
37	0xbc5ba30d	-0.013405574
38	0xbc7a9363	-0.015293929
39	0x39fe8d0d	0.00048551746
40	0xbc14e05c	-0.009086695
41	0xbb87f45c	-0.004149003
42	0xbc533a32	-0.012892293
43	0x3adf51e3	0.0017037954
44	0xbb8375ec	-0.00401186
45	0xbc004bf5	-0.00783061
46	0x3c2a0dcf	0.010379269
47	0xbc53daa4	-0.012930546
48	0x3b6d982a	0.0036254027
49	0xbc6c9f08	-0.014442213
50	0xbab6bd51	-0.0013941919
51	0x3c03242e	0.008004231
52	0x3c7e5f55	0.015525659
53	0xbb738317	-0.0037156993
54	0xbabadb18	-0.0014255969
55	0xbc6391a9	-0.013889709
56	0x3c089e8f	0.008338585
57	0xbb25820d	-0.0025254518
58	0x3bda3922	0.006659643
59	0xbb1bd4c6	-0.0023777946
60	0x3cef1c83	0.0291884
61	0x3c87a4a4	0.016557999
62	0x3b884878	0.0041590296
63	0x3b0dca1c	0.002163536
64	0xbbe30659	-0.006928247
65	0x3acbd5ef	0.0015551428
66	0x3c1abdb2	0.009444641
67	0xbb57ff4d	-0.0032958568
68	0x3ba4d1cf	0.005029894
69	0x3c4fe60c	0.012689125
70	0xba1add65	-0.0005907624
71	0xbc5a2b67	-0.013316012
72	0xbc264a84	-0.010149602
73	0xbbd5e030	-0.0065269694
74	0xbbbbe71d	-0.005734338
75	0x3c399b9c	0.011328604
76	0x3bdab468	0.006674338
77	0xbc318690	-0.010835305
78	0x3cca215e	0.024674114
79	0x3b07ff9e	0.0020751725
80	0x3be4eff0	0.0069866106

running_var f4 [81]
0	0x3cfd9954	0.030956902
1	0x3c806c3f	0.015676616
2	0x3d7806e9	0.060553465
3	0x3d159ed5	0.036528427
4	0x3cc5c3fc	0.024141304
5	0x3d20cabf	0.039255854
6	0x3d2d457d	0.042302597
7	0x3cd7de4e	0.02635112
8	0x3cb0d5c7	0.021586312
9	0x3c5b699d	0.013391879
10	0x3cebc747	0.028781546
11	0x3c863c62	0.016386215
12	0x3ce8155e	0.028330501
13	0x3d0d4c1b	0.034496408
14	0x3ca69802	0.020336155
15	0x3c8fa362	0.017533962
16	0x3c8bb29f	0.017052947
17	0x3d33ec56	0.04392656
18	0x3d360f65	0.044448275
19	0x3d0409b7	0.032235827
20	0x3cd4b773	0.025966382
21	0x3d23624c	0.039888665
22	0x3c98e386	0.01866318
23	0x3d3f4af3	0.046702337
24	0x3d13787f	0.036003586
25	0x3cf45de1	0.029829921
26	0x3cf23ba0	0.029569447
27	0x3cbfabb0	0.023397297
28	0x3cc26237	0.023728473
29	0x3d0056f5	0.03133293
30	0x3c69b232	0.0142636765
31	0x3cb3e222	0.021958414
32	0x3d7d2d73	0.061810922
33	0x3ca0e036	0.019638162
34	0x3cb2125c	0.02173727
35	0x3cc369b4	0.023854114
36	0x3c649af9	0.013952964
37	0x3c982598	0.018572614
38	0x3cba27b0	0.022724003
39	0x3ca95e60	0.020674884
40	0x3ceba11a	0.028763343
41	0x3c8b917c	0.017037146
42	0x3d26e33e	0.04074406
43	0x3d2035ad	0.03911369
44	0x3cac193d	0.021008128
45	0x3cefa983	0.029255634
46	0x3ca58c7c	0.02020859
47	0x3c992843	0.018695956
48	0x3d0c32be	0.03422808
49	0x3c947663	0.018122857
50	0x3cf7903b	0.030220142
51	0x3cecfabb	0.028928151
52	0x3d681300	0.056658745
53	0x3d4b6dee	0.049665384
54	0x3d2cd648	0.042196542
55	0x3c9f8d5d	0.019476587
56	0x3d0cd52f	0.034382995
57	0x3c9e2d79	0.019308792
58	0x3d126d4e	0.035748772
59	0x3d0f9edc	0.03506361
60	0x3d83d15c	0.064364165
61	0x3d1f6cd0	0.03892213
62	0x3c9afa6b	0.018918237
63	0x3d546707	0.051856067
64	0x3d449a60	0.047998786
65	0x3d17b547	0.037038114
66	0x3d1effb4	0.038818076
67	0x3cd58832	0.02606592
68	0x3d54fd7d	0.051999558
69	0x3d06781a	0.03282938
70	0x3c78ea48	0.015192576
71	0x3caad839	0.020855056
72	0x3cff0bf5	0.031133631
73	0x3c4f8f92	0.012668507
74	0x3cf23ee0	0.029570997
75	0x3d3ae518	0.045628637
76	0x3cd775e8	0.02630134
77	0x3d047e58	0.032347053
78	0x3d5b8077	0.05358931
79	0x3d78c6aa	0.060736336
80	0x3cff0749	0.031131404

weight f4 [1, 81]
0	0xbebc97b1	-0.3683448
1	0x3ebc6c9f	0.3680162
2	0x3eb2db80	0.3493309
3	0xbebe331a	-0.37148362
4	0x3ebe8736	0.37212533
5	0xbebf33be	-0.37344164
6	0x3eaf0b7f	0.34188458
7	0xbeb4ae33	-0.35289153
8	0x3ec7819d	0.38966075
9	0x3eb6a77e	0.3567466
10	0x3ecc1631	0.3986068
11	0xbec3197d	-0.38105384
12	0xbec49a6f	-0.38399073
13	0x3ec0efec	0.37683046
14	0xbebe13c4	-0.37124455
15	0xbec90c02	-0.39266974
16	0x3ec34809	0.38140896
17	0x3ebe417f	0.37159345
18	0xbebad5e8	-0.36491323
19	0x3ebb01dc	0.36524856
20	0xbebd4f66	-0.3697464
21	0x3ec66108	0.38745904
22	0x3ec62847	0.38702604
23	0x3eb1ff0c	0.34764898
24	0xbeb2a84c	-0.34894025
25	0x3ec07a98	0.37593532
26	0x3ec7460f	0.38920638
27	0xbec79d08	-0.38986993
28	0x3ec21bb4	0.3791176
29	0x3eb9b746	0.3627264
30	0x3ec14493	0.3774763
31	0xbeb52664	-0.35380852
32	0x3ebed3ee	0.37271065
33	0x3ec5ce22	0.3863383
34	0x3ebfd669	0.3746827
35	0x3ebc8920	0.36823368
36	0x3eb6ff36	0.35741585
37	0x3ebc766f	0.36809108
38	0xbecb0530	-0.39652395
39	0x3ebeed1e	0.3729028
40	0x3ebc63b3	0.36794814
41	0x3ec7d5ba	0.39030248
42	0xbec86443	-0.39138994
43	0xbec245b2	-0.37943798
44	0xbeb5a4fd	-0.3547744
45	0xbec744e9	-0.38919762
46	0x3eca37fb	0.39495835
47	0xbebdd0e8	-0.37073445
48	0xbec06a0a	-0.375809
49	0xbebd338e	-0.36953396
50	0x3eb7f555	0.3592936
51	0x3ec1d7b5	0.37859884
52	0xbec92d95	-0.3929259
53	0xbeb60336	-0.35549325
54	0xbeb5de73	-0.35521278
55	0x3ec05f67	0.37572786
56	0x3ebb4d31	0.3658233
57	0xbec3ee40	-0.38267708
58	0xbeb9140f	-0.36148116
59	0x3eb231ce	0.34803623
60	0xbebb09a1	-0.36530784
61	0x3eba93c1	0.36440852
62	0x3ebe0dbc	0.37119853
63	0xbeb9ea9d	-0.36311808
64	0xbebffc9c	-0.37497413
65	0x3eb84aac	0.3599447
66	0x3eba3b6f	0.3637347
67	0x3eca2cc4	0.39487278
68	0xbebfbd64	-0.3744918
69	0xbebf3301	-0.373436
70	0x3ec52f5e	0.385127
71	0x3ec3721c	0.38172996
72	0x3ec7f9d1	0.39057782
73	0x3eb7ab40	0.3587284
74	0xbed00d04	-0.4063493
75	0x3ebd9997	0.37031242
76	0x3ecbeaa2	0.39827448
77	0xbebd0fb5	-0.36926046
78	0x3ebf82de	0.3740453
79	0xbeca3428	-0.39492917
80	0x3ec8b61e	0.39201444
