mlruns/528961946943719398/models/m-9b15241cba74483fa85ce9bc3c40f3e4/artifacts/data/model.pth (torch, 65646 bytes, 17 tensors)

weight f4 [124]
00000000: 0cba 733f 21cc 833f 6908 8c3f 7e7f 883f
00000010: b83b 833f ae98 843f 0c0a 6f3f b45e 843f
00000020: 607b 763f 48ca 803f c5df 803f 369a 733f
00000030: 0443 7c3f 7fbf 863f dd11 793f 687b 883f
00000040: a341 7c3f d1c6 813f f99e 863f 6e8d 833f
00000050: c8d8 693f 48e0 893f 1ee5 823f fbf5 823f
00000060: 3af2 793f d190 863f 935c 8a3f 0f4b 8a3f
00000070: c640 843f 4944 823f 9a02 723f f1b7 7e3f
00000080: f439 853f 6146 813f bc3d 763f bc1f 783f
00000090: d765 863f 4c8e 7e3f 7a60 753f fd06 7e3f
000000a0: 528b 6c3f b9d9 823f 4042 663f 3bec 7f3f
000000b0: c91d 773f f3ac 7a3f 9224 883f 12a7 773f
000000c0: aaa9 803f cc2a 853f 946f 833f 3c1d 7d3f
000000d0: 0f70 733f c616 7b3f 33cf 6f3f fbc6 7e3f
000000e0: 620b 7a3f c004 8a3f 203d 713f 119c 773f
000000f0: 0383 783f de86 6f3f 0b72 723f c46e 6e3f
00000100: 3932 653f a651 763f bfc1 863f b438 7e3f
00000110: 3b56 733f 3a52 823f 7a09 6d3f 0d73 773f
00000120: ac50 993f b082 7a3f e8fd 803f 43f1 783f
00000130: 56b4 823f 71c5 7e3f 4ac7 843f faa9 743f
00000140: 90b9 843f 4ad7 843f d670 7e3f 2382 833f
00000150: ce01 6f3f 4b87 8b3f 30d9 6e3f d4e6 763f
00000160: bec9 783f c95a 763f c16c 843f 80c4 7b3f
00000170: a925 833f 388e 873f ac8e 7b3f 9a8a 823f
00000180: 2602 833f 85d2 803f 388e 813f 1354 743f
00000190: 3d40 853f 17a3 793f c3ce 7f3f a457 7c3f
000001a0: 7715 703f 0131 703f 28e2 8d3f 4503 763f
000001b0: 5bd9 853f f50e 833f 01e5 7d3f f211 823f
000001c0: 4f25 6c3f a562 803f 987f 6e3f 0655 6f3f
000001d0: 0d6f 6e3f e05d 843f 8c3b 653f 090f 7f3f
000001e0: c60a 733f 31cb 7a3f 6ba0 7f3f c933 823f
0.9520576 1.029667 1.0940067 1.0663908 1.02526 1.0359094 0.93374705 1.0341401
0.96282005 1.0061731 1.0068289 0.9515718 0.9853976 1.052719 0.9729288 1.0662661
0.98537654 1.0138799 1.0517265 1.0277536 0.91346407 1.077157 1.0226171 1.0231317
0.97635233 1.0512944 1.0809501 1.0804156 1.0332267 1.0177089 0.9453522 0.9949942
1.0408311 1.0099603 0.9618795 0.9692342 1.0499829 0.9943588 0.95850337 0.99229413
0.92400086 1.0222694 0.8994484 0.99969834 0.96529824 0.9792015 1.063616 0.96739304
1.0051777 1.0403686 1.0268426 0.98872733 0.9509286 0.98081625 0.93675536 0.9952237
0.9767362 1.07827 0.94233894 0.96722513 0.9707491 0.93565166 0.94705266 0.93137765
0.8952976 0.96218336 1.0527877 0.9930527 0.9505345 1.0181344 0.92592585 0.9665993
1.1977744 0.97855663 1.0077486 0.97243136 1.0211284 0.9952002 1.0373318 0.95571864
1.0369129 1.0378201 0.99390924 1.027409 0.9336213 1.0900663 0.9330015 0.96445966
0.97182834 0.9623228 1.0345689 0.9834671 1.0245868 1.0590277 0.98264575 1.0198548
1.0235031 1.0064245 1.0121527 0.9544079 1.0410229 0.9751448 0.9992487 0.9857123
0.9378275 0.93824774 1.1084642 0.9609874 1.0456957 1.023894 0.9917756 1.0161726
0.9224443 1.0030104 0.9316344 0.9348911 0.931382 1.0341148 0.89543986 0.99632317
0.94938314 0.97966295 0.99854153 1.0172054

bias f4 [124]
00000000: 2fef 833c 367f a0bb 4fad 943c 2df9 91bb
00000010: 2b10 d9bc 350c 353d ceae a63c 3d05 093d
00000020: e107 c93d 3fbf fdbb b64c 52bd d7fe d4bc
00000030: f791 11bd 2fed 6dbc ab8f 62bc 1a29 d63c
00000040: 8ee3 e63c a0fa 383c 43a7 983c fa22 38bd
00000050: f202 633d 1f29 a1bb d045 b03d 26e3 a83a
00000060: b8ea 89bd 8017 e6bd 0c0b 683d 77c0 1a3c
00000070: 9722 043c b418 d0bc e75c a63d 5c6b be3c
00000080: 4016 36bd c67d 9bbd cfac 7fba 9b6d ec3c
00000090: ddac 88bd b772 acbc ae7a 80bd e16a 01bd
000000a0: 18bd 9bbc 3372 833d d23f 1abd c1ad 7b3c
000000b0: bdf9 2dbb d23b 7dbd dc15 75bd 8c82 6dbd
000000c0: 0da6 713d bf9a c93b c13b 53bd e1bd a83c
000000d0: caaa 8ebb a266 253d 7a1f 86bd b2a4 5dbd
000000e0: cab4 743d 5225 13bc e565 98bd df73 fd3c
000000f0: 6f06 48bd 967d 2fbd 4f53 d4bb c010 b23d
00000100: ea70 2fbc 89f8 0cbd f0a5 323d 3457 4abc
00000110: 0984 623d a48d 503d 4bd6 cf3d 163c 123b
00000120: 6d40 953d fbba 9e3c 68bd 073c 16a6 173d
00000130: 3fe5 85bd 2068 acbd 172e b03c b5ab 513c
00000140: 69cf 8f3c 0f44 a93a 3ede 5bbd b802 1dbd
00000150: 0bde 35bd ec95 f43b 9307 0c3d 1a27 ab3d
00000160: 6ab7 a9bd 641e 843d 2a98 72bd 0c7c 693d
00000170: 2af7 5a3d e6bc 3c3d 54da 373c 19b7 2f3d
00000180: 68dd 8d3b ad29 40bc 5c5b 683c f1bb 883c
00000190: b284 5cba 6cf3 423c d976 8f3c b46d 583d
000001a0: b7ad 413d 2d68 7ebc 273d 5cbd ec00 debc
000001b0: 9662 863d 8a28 ac3d a344 9cbb d483 903c
000001c0: 751b 833d 7c78 60bd 5c08 08bd 50ef 6c3d
000001d0: 1026 2bbd f751 10bd eb09 033d ba16 023d
000001e0: 6b8e b93c 89b7 a13d c330 903d 97b0 94bd
0.016105263 -0.004897977 0.018149046 -0.004454753 -0.026496967 0.044201095 0.020347025 0.03345226
0.09815956 -0.0077437456 -0.05134269 -0.026000423 -0.035539594 -0.014521881 -0.013828198 0.026142646
0.028184678 0.011290222 0.018634444 -0.04495523 0.05542273 -0.004918232 0.08607066 0.0012885078
-0.06734222 -0.11234951 0.05665116 0.009445301 0.0080648875 -0.025402404 0.081231885 0.023244552
-0.044454813 -0.07592349 -0.00097532285 0.028860858 -0.06673596 -0.021050794 -0.06273399 -0.03159607
-0.019011065 0.06418266 -0.03765852 0.01536125 -0.002654656 -0.061824627 -0.0598353 -0.057985827
0.05899625 0.0061524804 -0.051570658 0.020598354 -0.0043538557 0.04038108 -0.065489724 -0.054112144
0.059742726 -0.008981066 -0.0744131 0.03093904 -0.04883426 -0.042844377 -0.0064796577 0.08694601
-0.010708073 -0.03441671 0.04361528 -0.012349892 0.0553017 0.05091633 0.10148295 0.0022313646
0.07287679 0.019376269 0.008284904 0.037023626 -0.06537866 -0.08418298 0.021506352 0.012797286
0.017554956 0.001291396 -0.053678744 -0.03833267 -0.04440121 0.007464161 0.03418691 0.083570674
-0.082869366 0.06451109 -0.059227146 0.057003066 0.05345837 0.046078585 0.011221487 0.042899225
0.004329372 -0.011728686 0.014181938 0.01669118 -0.0008412107 0.011898857 0.017512726 0.052838996
0.047284808 -0.015527767 -0.053769257 -0.027100049 0.065617725 0.0840617 -0.0047689243 0.017640986
0.064017214 -0.054802403 -0.033211097 0.057845414 -0.041784346 -0.035234418 0.03199188 0.031759955
0.022650918 0.07896335 0.070405506 -0.07260244

running_mean f4 [124]
00000000: aa16 8e42 e218 2a46 e7fe c240 b4a8 b440
00000010: e3df c242 1e3f 5940 86ce 4640 b1bf 5e40
00000020: b016 3d40 24e8 d13f 59f0 da43 a56e 3442
00000030: 6f43 1344 329c 8340 4896 cc3d b26f 9144
00000040: 5cd2 ac43 dc3b a840 844c bd44 5fb9 d23e
00000050: fc2e 473d abad c83f ca10 bd3e 91bc 3840
00000060: 0401 873f e94f 6040 9a8c d140 0f54 1d3e
00000070: a1e8 193f 9a4e e83f 078f d83f af71 e03f
00000080: e9b2 e943 302a 3140 b2cd 3140 0c0f 2a3e
00000090: 36a6 b742 8622 3d42 a690 bc41 5de7 4c40
000000a0: c2c6 8d41 bfd1 1e40 b7ac 763c 24a6 4b42
000000b0: 81a5 2042 011e c941 4a0a 0042 f5eb fb41
000000c0: ea28 4040 4504 9d3f a04b d23d 3724 e23e
000000d0: cf7a 4f3e 4293 343f c525 423e 7fe0 9a3d
000000e0: d165 003d 9c96 693d 95a3 fd3c a007 a73c
000000f0: 755e ca3d c14f 983c 79fb d93d b50f 703f
00000100: 2f51 6a3e cfe3 a33d cb96 be3d 3d08 163d
00000110: 5d64 b63e 865c 313e bf6d 1e3e 628c 303e
00000120: 02b3 cf3d 1b48 113d b428 ff3c 3f10 0e3d
00000130: 2296 5c3c cb39 a23c cfcb 5b3c 1795 643c
00000140: b04e 4a3f fe91 1e3e baf0 1d3d bbce 9a3c
00000150: 3a00 ce3d ee32 003d d7be 8e3d 34fa 703d
00000160: 7688 b23c b17a e53b d9f1 2c3d 9da5 183e
00000170: 1ca3 4d3d 72f7 cc3c 9657 7b3d d65f be3d
00000180: 48b6 b73c 419a 943c ab38 6d3d 1902 083d
00000190: 3230 593d 76b7 8d3c 8cdc aa3c 10cc 663c
000001a0: 7aea 1d3f e2ae b43d 13eb e53e 0a66 b73b
000001b0: 250d d83e ce29 5d3c 91a6 a23c 9df4 6c3f
000001c0: fb52 803d 88ba 873e 1392 8b3d c952 ae3c
000001d0: 7470 3f3d 4ccf 963d 59f9 ca3c 26fc 5f3f
000001e0: f33a 4f3c d616 573f b5ff ed3b 6760 983d
71.044266 10886.221 6.093616 5.6455936 97.43728 3.3944774 3.1063552 3.48045
2.9545097 1.6398969 437.87772 45.10805 589.05365 4.112817 0.099896014 1163.4905
345.64343 5.257307 1514.3911 0.41157052 0.048628792 1.5677999 0.36926872 2.8865092
1.0547185 3.5048773 6.5484133 0.15364097 0.6012059 1.8148987 1.6918648 1.7534693
467.39774 2.7682 2.7781796 0.16607302 91.82463 47.283714 23.57063 3.2016213
17.72205 2.481552 0.015055827 50.912247 40.161625 25.13965 32.010048 31.490213
3.0024972 1.2266928 0.102683306 0.44168255 0.20261692 0.705372 0.1895972 0.075623505
0.0313471 0.057028398 0.030961791 0.020389378 0.098812975 0.018592717 0.10643668 0.9377397
0.22882532 0.080024354 0.09306105 0.03662895 0.35623446 0.17320451 0.15471552 0.17241052
0.10141565 0.035469156 0.031147338 0.034683462 0.013463529 0.019802948 0.013415291 0.013951561
0.7902632 0.15485379 0.038559653 0.018897405 0.10058637 0.03129857 0.069699936 0.058832362
0.021793585 0.0070031513 0.04222283 0.14906926 0.05020438 0.025020335 0.061362825 0.09295623
0.022425786 0.01813996 0.05791537 0.033205125 0.05302448 0.017299395 0.020857118 0.014086738
0.6168591 0.08822419 0.4490591 0.005596881 0.42197528 0.013498737 0.019854816 0.9256075
0.06265827 0.265095 0.06814971 0.02127971 0.046738103 0.073637575 0.024777101 0.87494123
0.012648332 0.8401922 0.0072631487 0.07440262

running_var f4 [124]
00000000: d6f6 0744 a5a0 d04c 4bec f83f 4274 af3f
00000010: e61b dd46 ab13 be3e 7d4e 0c3e 99cd 3b3f
00000020: 4aad 823e a284 8f3f fadc 5448 efb0 be46
00000030: ce53 3848 d14f 673f 2e7a 0f3e a8f0 1c48
00000040: 4a32 3948 ebad 0745 89ca 8d48 55ab 863e
00000050: 9052 423d 3a6c 9f3e 2284 833e 145e 283f
00000060: 2fc1 643d 9505 e93e 4156 2f40 5133 dc3e
00000070: 188c d03e aa04 5640 f404 553f fbc9 163f
00000080: d6fb 3547 e615 1e3f c5c7 1c3f 1354 8f3e
00000090: c6cc 8546 be55 9245 3ee9 7e45 44e4 5344
000000a0: a9c5 5045 37f7 b844 cf44 753d 11d5 9248
000000b0: 7361 7944 d68a d243 9fa6 1544 d214 7843
000000c0: c0bf 3040 6a1f 1a3f 7722 213e 4e8b be3e
000000d0: 0702 a83e 422c 573e 5635 1f3e ff4f 903d
000000e0: 0dc4 0b3d 9322 893d e7ec f53c 162d a43c
000000f0: a914 b63d cc0c 963c 6f31 323e 80ba 8e3d
00000100: cd48 883e 1c36 173e fbab ae3d 4278 0e3d
00000110: db93 693e dd44 0e3e d08c 053e 7f61 133e
00000120: 1498 bb3d 9cc8 0a3d 8f1f f83c b145 0a3d
00000130: 64d2 593c 2a47 9e3c 397a 583c 51d1 603c
00000140: dec2 2a3e e2b7 063e 9f39 173d dc23 993c
00000150: ae1c bb3d 1308 f73c 1b89 833d e1b6 633d
00000160: fceb ae3c cc0a e43b 2c8c 253d 14dc 023e
00000170: 6882 423d b87d c73c edb2 6d3d 5fdc ab3d
00000180: ec30 b33c 4cc4 923c 8957 5f3d 51b1 023d
00000190: 9bea 4d3d 3ace 8b3c f8f1 a63c 02a6 633c
000001a0: e217 6f3e ca70 a63d 596a 773e 92c3 b63b
000001b0: e4ba 773e 4952 5a3c 8800 9f3c 3b4c 8e3d
000001c0: 044f 733d afc3 493e 2e54 813d 337b aa3c
000001d0: eac2 363d ece5 8a3d 2b97 c83c 7bc9 e03d
000001e0: 85fd 4c3c 0697 083e ef01 eb3b 9930 8c3d
543.8568 1.09380904e+08 1.9447111 1.3707354 28301.95 0.3712438 0.13701816 0.7336059
0.25522834 1.1212351 217971.9 24408.467 188751.22 0.90356165 0.14011452 160706.62
189641.16 2170.8699 290388.28 0.2630259 0.04744202 0.31137258 0.25686747 0.6576855
0.055848297 0.4551207 2.7396395 0.430079 0.40731883 3.3440347 0.8321068 0.5890195
46587.836 0.61752164 0.61242324 0.2799383 17126.387 4682.718 4078.5776 847.56665
3340.3538 1479.7255 0.059880074 300712.53 997.52264 421.08466 598.60345 248.08133
2.7617035 0.60204184 0.15735804 0.37215656 0.32814047 0.21012977 0.1554769 0.07046508
0.034122515 0.06696048 0.03002019 0.02004103 0.08890659 0.018316649 0.1740167 0.06969166
0.26618043 0.14766735 0.085288964 0.034782656 0.22810309 0.13893457 0.13041997 0.1439266
0.09159866 0.033882722 0.030288486 0.03375787 0.01329479 0.019321043 0.013212734 0.01372178
0.16675898 0.13156083 0.036920186 0.018693857 0.091363296 0.030155217 0.06422635 0.05559433
0.02135276 0.006959295 0.04041688 0.12779266 0.047487646 0.02435194 0.058031965 0.08391642
0.021873914 0.017915867 0.05452684 0.031907383 0.050272565 0.01706611 0.020379052 0.01389456
0.23348954 0.081269816 0.24161662 0.005577513 0.24192387 0.013325282 0.019409433 0.069481336
0.059401527 0.19703554 0.06314884 0.0208107 0.04461948 0.06782135 0.024486145 0.10975929
0.012511616 0.13338861 0.0071718614 0.06845207

weight f4 [48, 124]
00000000: 3f9f ca3d 5bac 743d dae3 8b3d 68f6 883d
00000010: 8eef a0bc 620b de3c 8a5b ae3b 1451 cbbc
00000020: 4ffa e73d d7e8 e43d 8071 15bd 7b50 603b
00000030: b004 893d 66ee 22bc 0744 80bd 117b 243e
00000040: d61e d93d d7fa 85bd ae26 4a3d 04f4 62bc
00000050: 8f46 823d 884b 073e 58ac dbbc c51d 7cbd
00000060: 9eb8 20be c292 b63d 49f9 f23d 3db3 8cbd
00000070: e151 033e 2e1c c8bc 395f b53d 3f0c 9c3d
00000080: 95d2 433d bb06 a9bb b4b2 923d 3828 473d
00000090: c1d2 063e 1f5f 513d 7feb 743c 42b7 743d
000000a0: cf08 4b3d a265 e2bb ff18 8bbc e37e f03d
000000b0: bc88 ed3b f25a 09be e271 94bc 7b6f 453c
000000c0: d6b1 5d3d eb92 cb3c d54e bb3d 1244 fb3d
000000d0: 72c1 aebd a505 8d3d 99ee 1739 10a3 313d
000000e0: aca9 94bd 6ea5 21bd e3e3 5b3c ce8e fd3c
000000f0: 60ac 073d cfdf 6c3d 5056 95bd f786 543d
00000100: 3336 c03c 676b e6bc 5a48 6bbd f4d1 f9bc
00000110: 02fb e2bc 91b7 c73d cc3b a33c 5afb cb3c
00000120: 0a5b 493d e429 2d3d af4b 763c 3c14 043e
00000130: fa61 33bd e9ce c93d b5a7 8fbc 736e 523d
00000140: 5647 003d c32a 4dbd 5936 103d f938 bb3d
00000150: 795e 8dbc ec04 0dbc 666b e0bc 536d a9bd
00000160: b6af 85bc 1b7e e03b b700 b0bc 61f9 3d3d
00000170: fd1a a43d 09c7 cc3d edff b73d 599f 243d
00000180: 9fcc d83c a5ec 813c 0ec1 2e3d 2b34 a33d
00000190: aa6b 19bc bd2d 4d3d 379b e2ba 2718 083d
000001a0: e674 9dbd 0de1 d7ba 004c edbb 6e03 4ebd
000001b0: 337f 66bd c2a2 07bd 1f3f a9bc 812e 90bc
000001c0: ad11 093e b69a 5fbc cf3f 79bc 911c a23b
000001d0: 7e50 683d 5d80 6a3d 4704 29bd 7808 91bb
000001e0: 042c f4bc 1fa0 87bc 3cd5 c43d 51fe cdbd
000001f0: 11bb 1dbd e79f 24be f268 6abd 729c 993b
00000200: 53ac ed3d 8a3d 683d e101 a53a 6b69 babd
00000210: b4b6 e9bd 0a94 bcbd b28e f839 98a8 eebc
00000220: 7d9b fb3c 6595 3ebd a757 233d 8a62 f3bd
00000230: 7718 833d 93a0 1ebe a208 dbbd 12f0 9abd
00000240: 7e46 fbbb 134a cebc b00d bdbc daef 6fbd
00000250: 4dd6 963c 1715 333d 7fdd fcbd 681c b33d
00000260: 0546 9bbc c78e 05bd f949 a9bd 1980 1f3d
00000270: 0e36 11bd 851d 4a3c 5ee3 acbb 06a0 bf3d
00000280: c740 683d a27a 173d 5ac9 9abd ef4b 90bd
00000290: 039a 22bd ace0 823d e719 c3bd 2d6c c0bc
000002a0: 34e0 2f3d c6d9 7dbd 297a bdbd 0747 743c
000002b0: 55d9 f6bd 049b 1bbd 2311 64bd f0c8 b4bd
000002c0: 3326 5abd 0c43 543d b9ff df3b 63b5 dcbd
000002d0: ee19 10bd 0180 16be 700b a23d fb3b 80bd
000002e0: b42a 943d c27c 25be d2b3 b4bb e397 6b3c
000002f0: 570d c1bc e0ef e8bd 302b 09bd 3bd0 103e
00000300: c495 873d 0495 5ebc e990 dbbb 80cd f33a
00000310: 9e3e 0e3d b01b b4bd 1bbe 57bd 0b60 f03d
00000320: 0d6b f4bc c9f4 2cbd e5e9 1dba abcf 8cbd
00000330: 4ec2 ddbd 0726 a93d af58 ddbc 3d39 6cbd
00000340: 9866 78bd 3a45 603d 370f d2bd e738 7b3d
00000350: 58c2 993d 847f afbd 24a4 12bd 314c b93d
00000360: 9603 17bd 8e78 9abd 61c7 6a3c d689 7f3d
00000370: 8b6b 183d 3454 363d a5ab cebd c013 423c
00000380: 4f6c a53d f488 0fbe eda0 98bd 1fdd 423d
00000390: eca5 04bc b5fb 1b3b 8e6c c0bc 1f20 d8bd
000003a0: ce6c ce3d 5955 4e3c 3b80 403d 7bdd 913c
000003b0: 2c04 e0bd db71 0a3d c270 303d 3691 9e3d
000003c0: d189 67bb ef20 893c c08d ba3c c277 1e3d
000003d0: 9c12 4fbd 96da f2bc aef7 c1bb cb80 a6bc
000003e0: f90f e2bc 6d97 89bd 686c 8db9 9973 db3c
000003f0: 4c7e 4e3d 936a 51bc 99de 45bb 4932 9fbd
0.09893655 0.059734683 0.068305686 0.06687623 -0.019645479 0.027105037 0.005320971 -0.024818935
0.113270395 0.11177223 -0.036485195 0.0034227658 0.06690347 -0.009944534 -0.06262975 0.16062571
0.106015846 -0.065419845 0.049353294 -0.013852123 0.06361114 0.13212407 -0.026815578 -0.061551828
-0.15695426 0.089147106 0.118639536 -0.068701245 0.12824203 -0.0244275 0.08856053 0.07619523
0.04780825 -0.005158273 0.07162991 0.04862234 0.13166334 0.051116105 0.014948725 0.05974508
0.049568947 -0.006909088 -0.016979693 0.11742952 0.007248966 -0.13413599 -0.01812071 0.012050505
0.054124676 0.02485033 0.091458954 0.12268843 -0.085329905 0.06885842 0.00014489367 0.0433684
-0.07258925 -0.039464407 0.013421032 0.030951884 0.033123374 0.057830628 -0.072918534 0.051886525
0.023463344 -0.028127385 -0.057442047 -0.030495621 -0.02770758 0.097518094 0.019925974 0.024900127
0.049159087 0.04227628 0.015032693 0.12898344 -0.04379461 0.09853918 -0.017536024 0.051374864
0.03131803 -0.05008961 0.03520808 0.09141726 -0.017256962 -0.0086071305 -0.027394962 -0.08272805
-0.016319137 0.0068509704 -0.021484716 0.046380404 0.0801296 0.099989004 0.08984361 0.04019103
0.026464758 0.015859911 0.04266458 0.079689346 -0.009364048 0.050092448 -0.0017288689 0.03322616
-0.07688312 -0.0016470269 -0.007241726 -0.05029624 -0.05627365 -0.033114202 -0.020659981 -0.0176003
0.13385649 -0.013647726 -0.015212967 0.004947253 0.05671739 0.057251323 -0.041263845 -0.0044260584
-0.029806145 -0.016555844 0.09610984 -0.10058273 -0.03850848 -0.16076623 -0.05722899 0.004687839
0.11605134 0.056699313 0.0012589061 -0.09102138 -0.11411801 -0.09207924 0.00047408562 -0.029133126
0.030713791 -0.046529192 0.039878514 -0.11884029 0.06401151 -0.15490942 -0.10695006 -0.07565321
-0.0076683154 -0.025181806 -0.023077816 -0.05857835 0.018412733 0.043721285 -0.123469345 0.087456524
-0.018954286 -0.032606866 -0.08266062 0.038940523 -0.03545194 0.01233614 -0.0052761277 0.09356694
0.0567024 0.036982186 -0.07557936 -0.07045733 -0.03969766 0.06390509 -0.09526425 -0.023489082
0.042938426 -0.061975263 -0.09251816 0.014909512 -0.120531715 -0.03798963 -0.055680405 -0.08827388
-0.053259086 0.051821753 0.0068359044 -0.10776784 -0.03518098 -0.14697267 0.07912338 -0.0626144
0.072347075 -0.16160873 -0.0055146003 0.014379474 -0.023565931 -0.113738775 -0.033488452 0.14141934
0.066203624 -0.013585333 -0.0067006242 0.0018600672 0.034727685 -0.087943435 -0.052671533 0.11737069
-0.029836202 -0.042225633 -0.00060239277 -0.06875547 -0.10828076 0.08259206 -0.027019827 -0.057671774
-0.060644716 0.05475352 -0.10256808 0.061333563 0.07507771 -0.085692436 -0.035801068 0.090477355
-0.036868654 -0.07542525 0.014329762 0.06238731 0.037211936 0.044513896 -0.10091332 0.011845529
0.08077299 -0.14017087 -0.07452569 0.04757416 -0.0080961995 0.0023801152 -0.023489263 -0.105530016
0.100793466 0.012593591 0.04699729 0.017805805 -0.10938296 0.033799987 0.043076284 0.077425405
-0.0035329948 0.016739337 0.02277267 0.03868843 -0.050554857 -0.029645246 -0.0059194183 -0.020325085
-0.027595507 -0.06718335 -0.00026974385 0.02678852 0.050413415 -0.012781757 -0.0030192493 -0.07773263

bias f4 [48]
00000000: 13af 8b3c 4126 623d b809 793c 625d b5bd
00000010: a21a 843d abd8 2c3d 9fb8 48bd 5b94 f83b
00000020: affd a63d b90f d8bd 2a0f 3cbe 583d 653d
00000030: 5550 823d 8122 33bd e157 6a3d 6467 b03c
00000040: 6ba6 603d 1bd8 f4bd ea58 603d 19cb e4bc
00000050: de4e ae3d 108f 7abb a826 82bd f4bc e5bb
00000060: 35fa f7bb 231d 7dbd 09fd f9bc ef7b 0abd
00000070: 59a9 603d 61d1 35bd ac46 dbbd 5ce0 bebd
00000080: d39c 1b3d a647 7ebc 03f8 163e 752d b7bd
00000090: 7422 b73c bb18 b53c 18a2 20bd e86e 8d3a
000000a0: 0a41 4b3d 958d efbb c930 3cbd 7fda 053e
000000b0: 7d9e 3fbd 345b ed3c fbe0 c13c 4338 8fbd
0.017051255 0.055212263 0.015200071 -0.08855702 0.06450392 0.04219882 -0.049004193 0.0075860447
0.08153855 -0.10549874 -0.1836516 0.055966705 0.06362978 -0.043734077 0.057212714 0.021533675
0.05484621 -0.11955281 0.054772295 -0.027928876 0.085111365 -0.0038232245 -0.06355029 -0.0070110504
-0.007567669 -0.061795365 -0.030516164 -0.0338096 0.054849003 -0.044389132 -0.10706839 -0.09320137
0.037991356 -0.015520012 0.14743046 -0.08944217 0.022355296 0.022106519 -0.039217085 0.0010790499
0.049622573 -0.007310579 -0.045944963 0.13071631 -0.046782006 0.028974153 0.02366685 -0.06993153

weight f4 [48]
00000000: 72b5 583f f2e3 6a3f c801 643f 32bf 803f
00000010: 3154 673f d0a3 6f3f 23fc 5d3f eae8 743f
00000020: e6f1 623f 4099 6b3f 4eab 853f ba53 793f
00000030: f912 5f3f 4cf5 683f fb67 673f dd46 833f
00000040: 3b8f 773f 0ae2 4b3f f3ba 6a3f 9a5b 6b3f
00000050: 7b54 783f 8cee 803f a430 683f 595a 593f
00000060: 8190 813f 38ec 553f 84e4 683f e1c9 633f
00000070: a02d 5b3f 4f2e 833f 1fe9 6f3f 4694 6d3f
00000080: 515c 663f 9b3b 823f d92d 673f f52a 783f
00000090: ca95 603f 92c7 6b3f 4271 6c3f cb96 633f
000000a0: b4a6 643f 4a6e 6b3f 5ff8 5e3f e430 7c3f
000000b0: bb98 6b3f 1676 603f 521e 473f ec6b 753f
0.84651864 0.91754067 0.8906522 1.0058348 0.9036284 0.93609333 0.86712855 0.956679
0.8865036 0.92030716 1.0442903 0.9739338 0.87138325 0.90999293 0.90393037 1.0256001
0.9670293 0.79641783 0.9169151 0.9193665 0.97003907 1.0072799 0.9069922 0.84903485
1.0122224 0.83563566 0.9097369 0.8897992 0.85616493 1.0248507 0.9371509 0.9280437
0.89984614 1.017444 0.9030433 0.9694055 0.8772856 0.92101395 0.9236032 0.88901967
0.8931687 0.9196516 0.87097734 0.985121 0.92029923 0.87680185 0.7778064 0.958678

bias f4 [48]
00000000: cc51 5cbd 616a 7cbd b412 82bd e99f 3a3d
00000010: bc54 5d3c 3df2 a3bd be78 39bc 60ab dfbd
00000020: bca9 75bb 12d8 16bd 6944 f2bd 7bda abbd
00000030: 2f4c 98bd 4c37 8bbd 86cf 803d 3843 e2bc
00000040: b4b3 98bd 661c 403d 6c00 943d c4b6 8c3d
00000050: bbe0 18be ef20 23bd 6376 b5bc f0a9 1b3d
00000060: e50d c5bd be14 cdbb 0f84 ae3d 1288 77bd
00000070: e089 12bd b4f2 1e3c 26be 3bbe ec5b a93c
00000080: cc19 293d 3d71 08be 2a75 81bc bd30 fbbd
00000090: acb4 7cbd 3f9a dbbc 55fd b5bb a094 31bb
000000a0: 53da 513d d6fa 293c 98e3 093d e50e 093d
000000b0: 690f 8fbd f005 8abb f0aa ac3d 6aa7 1ebd
-0.053788945 -0.06162489 -0.063512236 0.04556266 0.013508972 -0.08005188 -0.011320291 -0.10921359
-0.0037485203 -0.036827154 -0.118294545 -0.08391281 -0.07436406 -0.067976564 0.06289582 -0.027619943
-0.07456151 0.046902083 0.07226643 0.06870797 -0.14929478 -0.03982633 -0.022151178 0.038003862
-0.09621791 -0.006258576 0.08521282 -0.0604325 -0.03577602 0.00970142 -0.18334255 0.020673715
0.041284367 -0.13324447 -0.015802938 -0.122651555 -0.06169574 -0.026806949 -0.005553881 -0.0027096644
0.0512336 0.010374745 0.033664316 0.03346147 -0.06985361 -0.0042121336 0.08431041 -0.038733877

running_mean f4 [48]
00000000: a225 ee3e 4cf7 a23e 6fec 783e 86ab b43e
00000010: 4473 b23e 8351 a63e 40ad 773e f682 f23e
00000020: c730 9c3e 8e71 3d3e 167f 6d3e 9a39 cd3e
00000030: 9be7 bc3e 2b94 923e 7efa 5d3e 8090 b63e
00000040: d7bc 8a3e 0572 063e 2ef8 8c3e 1988 563e
00000050: 1844 d63e 61f1 a63e 7029 493e e126 7d3e
00000060: c76d b73e 0381 b13e d89b 763e 0031 733e
00000070: ecc2 043f 6dc0 a73e 9496 573e 4763 173e
00000080: 94ec f93e ae9e 853e a89f 0d3f 2265 5a3e
00000090: 3fff ac3e b4cd 683e 1611 4a3e 9010 553e
000000a0: a261 523e b6f0 8c3e abfb a23e dfde bb3e
000000b0: 824b 923e 8f4e 8e3e 9909 713e ae4f ae3e
0.46513087 0.31829298 0.24308942 0.35287112 0.34853566 0.32484064 0.24187183 0.4736554
0.30505964 0.18500349 0.2319301 0.4008301 0.3689545 0.28628668 0.21677586 0.3565712
0.27097198 0.13129432 0.27533096 0.20950355 0.41848826 0.32606032 0.19644713 0.24721862
0.3582594 0.3466874 0.24082887 0.23749161 0.5185993 0.32763997 0.21053535 0.14783965
0.48813307 0.26097625 0.5532174 0.21327642 0.33788487 0.2273472 0.1973308 0.208071
0.20545056 0.27527398 0.31832632 0.36693475 0.28573233 0.2779431 0.23538817 0.34045166

running_var f4 [48]
00000000: d89c c33f 7c67 3f3f e7bd 173f a60e 973f
00000010: c485 523f 3cdc 683f c0a3 5f3f d968 cd3f
00000020: ecfa 353f a88c 0a3f cb9f 343f 2ff3 a83f
00000030: 13c0 573f dc48 2a3f 4fac 053f 5ac7 bf3f
00000040: 5d5f 3d3f dfe7 db3e 6d87 463f 301c fe3e
00000050: 69ae 9c3f c571 a23f 39c4 2b3f 2e22 f73e
00000060: f2cf c93f bb56 5c3f 8c85 0f3f b6aa 153f
00000070: 5e63 c23f 5c71 a33f 5eff 913f 7da3 123f
00000080: 6856 b13f 96de 343f d0a3 e83f e44a 153f
00000090: f9a9 a93f 5580 153f ee13 2d3f 60c9 163f
000000a0: eaef 193f 65cc 3a3f 9709 413f cd65 8b3f
000000b0: 42df 673f 7ea5 3a3f a3cf fe3e ac12 9b3f
1.528224 0.7476728 0.59274143 1.1801345 0.8223536 0.9096105 0.8735924 1.6047622
0.71086 0.54120874 0.70556325 1.3199214 0.84277457 0.66517425 0.5221605 1.4982712
0.7397364 0.4295034 0.77550393 0.4963088 1.2240726 1.269097 0.67096287 0.48268265
1.5766585 0.8606984 0.5606315 0.5846361 1.5186574 1.276897 1.1406057 0.57280713
1.3854494 0.7065214 1.8174992 0.583174 1.3254997 0.58398944 0.67608535 0.58901024
0.60131705 0.7296813 0.7540526 1.0890442 0.9057504 0.7290877 0.4976779 1.2115073

weight f4 [122, 48]
00000000: 5cb9 05be 4120 4fbd 2611 c3bd a04b d4bd
00000010: 35b5 4ebd 2045 08be 3a22 62bd 4a2a edbc
00000020: c3d5 173c 22e8 b9bd 0ef5 d6bc c58d 873d
00000030: eabb d53d 6aa4 493d ce68 173e 8f8f 4d3d
00000040: f9e8 b2bc 291f d7bd 4f3b 9c3d 290a 633b
00000050: ddd4 b6bc 06ab 00be 2c3b 97bd a15f 1ebe
00000060: 208a 043d eedc 893d 4a17 b63d 1ff8 283d
00000070: abf5 d33d 024c fabd 24d6 0d3e 4731 8b3d
00000080: 419d 4e3e 887f 883d a76d 46bd 19b4 eebd
00000090: 381a 023d 6404 e93a 775e 88bd 4848 5abd
000000a0: 3098 fcbd dcd2 acbb ce98 863d 83d2 b93c
000000b0: 2091 f5bd 9a86 2cbe 9924 c03d 2a79 24bd
000000c0: de8e 3e3d 4d2d 973d abf4 57bd 3059 873c
000000d0: e9b0 e53c b021 8f3b 53e8 2a3c 837b 4fbd
000000e0: 0b86 fb3d 0fc9 b33d bd8e fb3d 896c 2e3e
000000f0: 3fe5 193e 32d5 e43d cdad ffbd ee1f 1cbe
00000100: 2d20 babd f423 583d a81b a6bd 1f98 f43c
00000110: 50fc 343e 275a 91bd 969e 06be 48c6 783d
00000120: 7e45 aabd 0c83 37bd dd43 c8b9 6777 68bc
00000130: 0979 ab3c 331d 143c cde2 893d 9992 10be
00000140: 1cef ec3c 075f ae3d c9fd bdbd 33e1 e4bd
00000150: 4291 adbd b8d4 1f3d 37aa 8d3d 47d3 80bd
00000160: 6c94 a33d 7622 113e 8515 c4bd 87b5 17bb
00000170: e4c4 f4bb c506 4e3d b2cc 0fbe d629 3f3d
00000180: dcae c8bd 481a d33d 8eac e73d ac1e b43d
00000190: f057 3d3c 9ea9 acbd 0c4f 1ebe d9de 423d
000001a0: 8182 e6bc 4741 b73b e915 d23d ee3f 6d3e
000001b0: 21a3 593b 2c95 35be 6068 3a3e 2805 66bd
000001c0: c1cf b43d 2c18 bcbd c7f9 c6bc 5ec3 363d
000001d0: 1bfe ee3d 8b1b 423c 9020 82bd 8a62 13be
000001e0: e649 45bd 8524 cebc 439c a2bc 5a5e 123d
000001f0: ed08 6f3d f76c 8dbd 8553 a2bd 72df 853d
00000200: 2498 0cbe 7bd4 1c3e 6251 1fbe aecf 963d
00000210: 5816 78bd e9ec 63bd 9afe 33bd d630 abbc
00000220: d16e 9ebd dcba d23d 598a bfbc cc72 9dbd
00000230: 3ca4 efbd 9788 75bd d84d 6dbd 3890 e2bd
00000240: af23 4ebc 0c2a 833d 36e3 b53d 1996 82bd
00000250: 43b7 a73d 64e4 0e3e 8167 93bd 8075 e23c
00000260: 90c0 d73d 1550 3c3d b08a 06bd 047b 6cbb
00000270: 3127 053d 2397 cb3d 8987 dd3c 6c05 283e
00000280: 8c73 32bc 5344 b73c 9de9 a6bd 25f0 14be
00000290: bc30 503d c67d a23c 71d8 063e 81c9 c1bc
000002a0: b14f 003e 5f80 8fbd 4a9b 123e 0cd6 043e
000002b0: 5057 c63d f74e 9cbd 438f 8fbd 5033 893d
000002c0: e41d 93bd 9823 f6bd 4248 47bc 03cd b63b
000002d0: c2f5 593d 7c6c f83c 291f 3f3e fcc6 543d
000002e0: cb3a 06be d498 143e 804b 853d 6a96 1fbe
000002f0: 765a 6ebc 2e4a 8a3c 2999 25be fbe6 e03d
00000300: 6dc1 98bd 8668 c53d 6085 293d 61a6 2b3d
00000310: 606e c83c e86b 763c 2a37 0b3d 1b01 ee3c
00000320: 5bf6 433d 6255 3a3e 0e0f 213e 92ef 87bd
00000330: 20e6 f73d 3805 cebc 4ffa 7cbd 294b 41bd
00000340: b99e bebd eb90 90bd bc49 39bc ca71 d4bd
00000350: a527 5dbd c03d 243e dc64 313c a94c 58bd
00000360: af4d d03d ee59 67bd da66 2d3d 8572 a53c
00000370: 2d8c 563d 3acc 773d f33d 203e 5677 5fbd
00000380: 82c5 bd3d 42bc c23d c998 1ebd 65f1 0cbe
00000390: d67e 00bd 7f2c 1a3e 82b6 0e3e 530d c7bb
000003a0: c8c8 e63d 31d6 52bd a005 a6bd 6e03 0cbe
000003b0: 6e7b 6bbc bfdc 6dbd b851 093e 8da1 9a3c
000003c0: 2426 1e3e f15a 1b3d d24d cbbd 058b 073d
000003d0: cb28 15bd 7f30 0fbd eab5 debd 6409 d73d
000003e0: 3069 b8bd fa6e 91bd 1e48 dd3c 0296 20be
000003f0: 1946 1f3e eccf cdbd 656d cbbd eee7 d43d
-0.1305899 -0.05056787 -0.09524755 -0.10365987 -0.05046578 -0.13307619 -0.055208422 -0.028950829
0.009267273 -0.09077479 -0.026239898 0.06618837 0.104362324 0.049229063 0.14786074 0.050185736
-0.021839606 -0.1050399 0.076285 0.0034643507 -0.022318298 -0.1256524 -0.07384333 -0.15466167
0.03235829 0.06731592 0.08891161 0.04125225 0.10349592 -0.122215286 0.1385122 0.06796508
0.20177175 0.0666495 -0.048444416 -0.11655445 0.031763285 0.0017777798 -0.06658643 -0.05329159
-0.12333715 -0.00527416 0.06572114 0.022683388 -0.11990571 -0.16848221 0.093819804 -0.040154614
0.046522968 0.07381687 -0.052723568 0.01652202 0.028038459 0.0043680295 0.010431367 -0.0506549
0.12281426 0.08778583 0.122830845 0.1703359 0.15028857 0.11173476 -0.12484322 -0.15246555
-0.09088168 0.052768663 -0.08110744 0.029857693 0.17674375 -0.07097273 -0.13146433 0.06073597
-0.08314036 -0.04480271 -0.00038197535 -0.014188624 0.020931737 0.009040165 0.06732712 -0.14118423
0.02892261 0.08514219 -0.09276921 -0.11175766 -0.08474971 0.039021224 0.069172315 -0.06290298
0.079872936 0.14173302 -0.09574417 -0.002314897 -0.0074697603 0.050299425 -0.14042929 0.046670757
-0.09798977 0.10307747 0.11312209 0.08794913 0.01155661 -0.084307894 -0.15459841 0.047575805
-0.028138401 0.0055924985 0.10258085 0.23168918 0.0033208805 -0.17732686 0.18203878 -0.05615726
0.088286884 -0.09184298 -0.024289025 0.04461991 0.116695605 0.011847387 -0.06353867 -0.14393058
-0.04816618 -0.025163898 -0.019849902 0.035734512 0.05835812 -0.06905549 -0.07926086 0.065367594
-0.13729912 0.1531543 -0.15558389 0.073638305 -0.060568184 -0.055645857 -0.04394398 -0.02089731
-0.0773598 0.10289547 -0.023381399 -0.076879114 -0.11701247 -0.059944715 -0.057935566 -0.11062664
-0.01258175 0.06404504 0.08881228 -0.06376285 0.08189251 0.13954312 -0.07197476 0.027643919
0.10534775 0.04597481 -0.032847106 -0.0036084065 0.03250808 0.099409364 0.027042167 0.16408318
-0.010891806 0.022371447 -0.08150027 -0.14544733 0.050827727 0.019835364 0.13168503 -0.023655655
0.125304 -0.07006907 0.1431705 0.12972277 0.09684622 -0.07632249 -0.07009747 0.0669924
-0.071834356 -0.12018508 -0.012163224 0.0055786385 0.05321289 0.030325167 0.1866423 0.05194758
-0.13108365 0.14511424 0.06508541 -0.15584722 -0.014547935 0.016881075 -0.16171707 0.10981556
-0.07458768 0.09639077 0.041386962 0.04190672 0.024466693 0.015040375 0.033988155 0.029053262
0.047842365 0.18196633 0.15728399 -0.06637491 0.1210444 -0.025148973 -0.06176215 -0.04719082
-0.09307618 -0.07058891 -0.011309084 -0.10373266 -0.053992886 0.16039181 0.010827269 -0.052807484
0.10171067 -0.056482248 0.042334415 0.020196209 0.052379776 0.0604975 0.15648632 -0.054557167
0.09266187 0.095085636 -0.038719926 -0.1376396 -0.03137096 0.15056036 0.13936809 -0.0060745864
0.11268765 -0.0514738 -0.08106542 -0.13673183 -0.01437269 -0.058071848 0.1341008 0.018875862
0.15444237 0.037928525 -0.099269524 0.033091564 -0.036415856 -0.03495836 -0.10874541 0.10499838
-0.09004438 -0.07101245 0.027011927 -0.15682223 0.15554084 -0.100494236 -0.09932975 0.103957996

bias f4 [122]
00000000: 2c15 7ebd 495c ebbc 3601 dfbd 13a5 b9bc
00000010: 08d5 8abc b77a af3c 43c8 edbd ed0c babd
00000020: 4077 11be f8ac 20be 4080 0cbc 71bf fcbd
00000030: 8727 afba f498 6ebd fa92 943d 9809 fabd
00000040: 45dd 4ebd 24da b2bd d709 cd3b 7588 09be
00000050: fc93 05be 063b fd3b c1d8 c1bd b6f8 e0bd
00000060: f4f5 85bd 6c45 21be 940a d6bd 9515 12be
00000070: aef6 3fbe 2803 273c ce97 20bd a8f3 1cbe
00000080: 80fd 1cbd 457a 29bd 2699 3bbd 85de 8bbd
00000090: 361b 10bd 6f18 68be 55b2 5e3d 1f70 fbbc
000000a0: 41c3 12bd 9a9a 3cbd d523 fbbd 6c05 8dbc
000000b0: c5e2 10bd ebd1 debd e66c d0bd 35fc b1bd
000000c0: eebd 20be 3afa cb3d ce6a 563d 0228 25be
000000d0: 3313 833d 11b0 debc 844c 293d 9356 abbc
000000e0: 61f7 dabd 7053 9dbd a0d2 55bd aa8c 6f3d
000000f0: 6488 703c bfbb 08be 0059 34bd 8076 31bd
00000100: ed78 8bbd 2c60 4bbe e18a 12be fd32 d6bd
00000110: 37be 00be cc88 25bd c376 d2bd 08c3 09be
00000120: c550 c03d 0f25 a4bd 1d50 2d3d b06e 29ba
00000130: 08cb fabd eed2 2cbe 91a1 8fba bd81 95bd
00000140: fcef 2bbe 5049 1ebe cefd d3bd ce3b 47bc
00000150: 0c36 0fbe 18c0 3c3d 50a5 b2bd 64de 86bd
00000160: 1e4a 0dbe 3fb8 f6bd 0d6b dbbd afbd 91bd
00000170: 4446 11be 13de 25be a050 f7bc 58d2 72bd
00000180: ebeb 04be 5e7c 66bd abe5 a23d 7480 f5bd
00000190: 78e7 ddbd 985c c7bc d5fd 05be cb9e a3bd
000001a0: 2421 8abc 20cc 51bd 560d 073d acab d6bd
000001b0: 2f1d 50be e39f 293d 281e ec3b d89c 7cbd
000001c0: 5604 23be c5c2 8abd 16be 21be 3902 b7bd
000001d0: d090 5739 ba17 d1bc b57c fdbd 74ff f2bd
000001e0: d191 c4bb 834f a3bd
-0.06203191 -0.028730528 -0.10888903 -0.022661721 -0.016947284 0.02142082 -0.116104625 -0.09084497
-0.14205647 -0.15690982 -0.008575499 -0.12341202 -0.001336322 -0.058251336 0.07254596 -0.12208861
-0.050503988 -0.08733013 0.0062572765 -0.1343096 -0.13044733 0.0077279834 -0.09465171 -0.10984938
-0.065410525 -0.15749139 -0.10451236 -0.14266045 -0.18746445 0.010193624 -0.039207272 -0.15327322
-0.038327694 -0.04137637 -0.04580035 -0.068295516 -0.0351822 -0.2266557 0.05436929 -0.030693112
-0.03583074 -0.046045877 -0.12262694 -0.0172145 -0.035372514 -0.108798824 -0.10177021 -0.08690683
-0.15697452 0.09959836 0.05234795 -0.16128543 0.06400146 -0.027183564 0.041332737 -0.020915305
-0.10691715 -0.0768193 -0.05220282 0.058483757 0.014680956 -0.1335287 -0.04403019 -0.0433259
-0.06810174 -0.19860905 -0.1431079 -0.10458944 -0.12572561 -0.040413663 -0.10276558 -0.13453305
0.093904056 -0.08014881 0.04231273 -0.0006463332 -0.122457564 -0.16877338 -0.0010958185 -0.07300136
-0.16790766 -0.15457654 -0.10351144 -0.012160255 -0.13985461 0.046081632 -0.08722937 -0.065853864
-0.13797805 -0.12046861 -0.10713778 -0.071162574 -0.1418696 -0.16197996 -0.030189812 -0.05928263
-0.1298062 -0.05627095 0.07953962 -0.11987391 -0.10835165 -0.024336144 -0.1308511 -0.07989272
-0.016861506 -0.05122006 0.032971703 -0.104819626 -0.20323633 0.041412245 0.0072057433 -0.061673015
-0.15919623 -0.067754306 -0.15795168 -0.08935971 0.00020557945 -0.025524009 -0.123773016 -0.1186513
-0.005998828 -0.0797415

weight f4 [122]
00000000: 3781 263d 85ed 5f3d 51d5 f53c 83c5 863d
00000010: ece8 853d 3c18 843d 7685 833d a446 3c3d
00000020: 0864 213d 9820 8d3c 582d 723d 8140 943c
00000030: f183 ac3d 100c 603d bc1a 963d 00d9 423d
00000040: ba5a 9a3d 0a05 b03d fea8 563d 1a0f 673d
00000050: 6f41 e03d 9955 553d af6c 923d a8ae 9b3d
00000060: d579 913d 1278 963d ff70 fa3c eac0 3f3d
00000070: 01a0 b43c 18e7 b43d f076 643d 1bd4 803d
00000080: ccf6 c83c bd7e df3d 2db5 823d c12e d13c
00000090: 7883 cb3d faae ba3d b063 8b3d 2def 6c3d
000000a0: 089b 4d3d d2f9 963d 18b5 7a3d 9b2d dc3d
000000b0: 065e 893d 8d3d ea3c 50d0 893c 172e 573d
000000c0: d217 7b3d 430e 143d f4f9 893d 2f3d ab3d
000000d0: bac6 f13c e514 7e3d 0c5e f33d a2a0 d43d
000000e0: d6c8 663d f77d 783d 69c6 b33d 5050 6e3d
000000f0: 67b9 5f3d 6ee6 2cbb 7523 8c3d 0629 b73d
00000100: e914 173d be61 823d c1f6 153d 505e 8a3d
00000110: 8950 5e3d a602 833c cd49 dd3c bb4f c93d
00000120: cec4 a83d 0611 a83d 20c5 e23c e1fc e73c
00000130: 948d 953d 9481 893d 6d0f b43d 7f7a e63d
00000140: 0486 a03d 5b3e 8c3d 82af af3d eda9 aa3c
00000150: e568 d73c c00c e83d 968c b23d 0f44 353d
00000160: 5916 ef3c 6ad2 cf3c 0e1a 8d3c 264d 903d
00000170: 9da9 a53d b08b 033d cf27 b93d 4f14 b73d
00000180: 1405 b43d 8f42 643d 486a 553d 0c5a a83d
00000190: 52c9 ed3d fbc1 d93d 32c8 bc3d 92f9 e43d
000001a0: 1705 ce3d f13b 973d f452 493d 5cb7 9e3d
000001b0: 9fd1 c93d 878e f53d 7e76 c13d ab28 b53d
000001c0: bd07 4a3c b44c bf3c 4429 9a3c 478e af3d
000001d0: 9691 c53c cc14 c33d 1449 b93d 5e21 043d
000001e0: 3dfd bc3c 8ca4 583c
0.040650573 0.054669876 0.030008944 0.06580641 0.06538567 0.06449935 0.0642194 0.045965806
0.039402038 0.017227456 0.059125274 0.018097164 0.08423603 0.054699004 0.07329318 0.04757023
0.07536836 0.08594711 0.052407257 0.056410886 0.109499805 0.052083585 0.07149636 0.076016724
0.07103316 0.0734712 0.030571459 0.046814837 0.022048952 0.0883314 0.05577749 0.06290456
0.024531744 0.10912845 0.06382213 0.02553499 0.09937185 0.091154054 0.06806123 0.057845283
0.050196677 0.07371868 0.06120786 0.10750886 0.06707387 0.028593803 0.016822964 0.05253419
0.061302014 0.036146414 0.06737128 0.08361279 0.029513706 0.062031645 0.118831724 0.10382201
0.056343876 0.060667004 0.08778078 0.05818206 0.054620173 -0.0026382464 0.068427004 0.089433715
0.036885176 0.06366299 0.036612276 0.0675627 0.054276023 0.015992474 0.02701273 0.098296605
0.082406625 0.08206372 0.027681887 0.028318824 0.073023945 0.06714168 0.08792005 0.11253833
0.078380615 0.06847831 0.08578397 0.02083298 0.026295135 0.11330557 0.08718221 0.04425436
0.02918546 0.025368888 0.017224338 0.07045965 0.08088992 0.03211564 0.09040796 0.089394204
0.08790031 0.055727538 0.05210331 0.082203 0.116106644 0.10632702 0.09217872 0.11180414
0.100595646 0.0738448 0.049151376 0.07749817 0.09854435 0.119900756 0.09446429 0.088456474
0.0123309465 0.023352005 0.018818505 0.08572059 0.024117272 0.09525451 0.09047142 0.032258384
0.023069972 0.013222825

bias f4 [122]
00000000: be7d ccbe 7d2a adbe 2554 c53e a629 c0be
00000010: fbbc bfbe 7dac aa3e f35a b83e a568 d03e
00000020: f663 c43e 46a5 bebe eeb3 bc3e 4b37 adbe
00000030: fd3b bd3e 086e b83e b30c d1be 8ed9 abbe
00000040: 5f62 d23e 2500 d53e 8081 abbe d59a b1be
00000050: c054 bebe c972 cf3e cfc3 b03e 47f0 b23e
00000060: cdc4 b9be 74d8 c33e 3ca1 c8be c21b d13e
00000070: 6943 aabe e49b aabe 7df2 abbe 2cf3 c13e
00000080: 2b18 cf3e e42a b83e b4ee b03e d295 d6be
00000090: c29c acbe b463 c2be 1b1c aebe cf3f be3e
000000a0: f69d acbe 0583 c63e 24c0 ad3e b2b4 c93e
000000b0: dca3 b7be 9e01 a8be 609f bd3e 0143 c03e
000000c0: 7fe6 b33e 4a7c b43e f35a aebe 590f b63e
000000d0: 2b5a b33e 20c7 c73e e9fa bebe 0737 b6be
000000e0: 75f1 aabe 8213 abbe 39b6 a9be 0077 abbe
000000f0: 704a bebe ff6c c5be 94fe b5be 0e5c aabe
00000100: bb2d abbe 3984 ae3e 5825 c6be f5b6 abbe
00000110: 840c adbe 75ee babe 1040 d8be 451d a9be
00000120: d664 be3e 9570 abbe b0e2 aebe cf91 adbe
00000130: 532d c13e d5b2 bb3e 2e77 b13e fefa b9be
00000140: 6d1e b03e 490f aa3e 8c09 ab3e 068d b6be
00000150: e3c7 b03e 9905 ad3e 537e c3be e333 c63e
00000160: e114 d1be cd12 aa3e 7232 bf3e 21e3 ac3e
00000170: 9bdc b93e e380 ac3e ef76 c6be 596c a93e
00000180: 73ad aabe 8f69 af3e cb35 d63e 0433 abbe
00000190: 8a1b aebe 79c3 d4be ebb2 ac3e 71ca b83e
000001a0: 8e47 babe bf7c c13e 0eb3 b2be 524d b53e
000001b0: fa62 c13e 5194 b03e db42 adbe bd23 b53e
000001c0: 5ab3 b4be 4084 d4be 9b3d aa3e fd1c b9be
000001d0: cb62 b0be 6557 b73e e65d a93e b00c adbe
000001e0: 8f4a b9be f0c6 aebe
-0.39939684 -0.33821478 0.3854076 -0.37531775 -0.37448868 0.33334723 0.3600689 0.40704837
0.38357514 -0.3723547 0.36856025 -0.33831248 0.3695983 0.36021447 -0.4083 -0.3356442
0.41090676 0.41601673 -0.33497238 -0.3468844 -0.37174034 0.40517262 0.3452439 0.34948942
-0.3628296 0.38251078 -0.39185512 0.4084149 -0.33254555 -0.3332206 -0.3358344 0.37880838
0.40448126 0.35970223 0.34557116 -0.4191118 -0.33713347 -0.37966692 -0.34005818 0.37158057
-0.33714265 0.38771835 0.33935654 0.39395672 -0.35867202 -0.32813734 0.37035656 0.3755112
0.35136792 0.35251075 -0.34053764 0.35558584 0.3502973 0.39019108 -0.37300804 -0.35588858
-0.33387342 -0.3341332 -0.33146837 -0.33489227 -0.37166166 -0.3855972 -0.3554579 -0.33273357
-0.33433327 0.34085253 -0.38700366 -0.33538023 -0.3379861 -0.36510053 -0.42236376 -0.33030143
0.37186307 -0.3348433 -0.34157324 -0.33900306 0.37729892 0.36659876 0.3466124 -0.36324304
0.34398213 0.33214787 0.3340572 -0.35654467 0.345275 0.33793333 -0.38182315 0.3871146
-0.40836242 0.3321747 0.37343174 0.33767036 0.3630112 0.33692083 -0.38762614 0.33090475
-0.33335456 0.34260222 0.41837916 -0.3343736 -0.34005386 -0.41555384 0.33730254 0.3609195
-0.36382717 0.37790486 -0.34902233 0.35410553 0.37770826 0.34488156 -0.3384007 0.3537883
-0.35293084 -0.4150715 0.33250126 -0.3615493 -0.34450373 0.35808864 0.3307945 -0.33798742
-0.36189696 -0.34136152

running_mean f4 [122]
00000000: ea71 c03d 7210 a13d c54e 383d 5213 b93d
00000010: a787 c63d 4d69 7c3e 5a41 183d 6207 db3d
00000020: 4ab7 0a3e fee2 763d 0800 d53d 123b 313d
00000030: d3ad 033e 19f6 2e3d 4329 f03d ad74 783d
00000040: e2f2 d43d c090 893d d42c 173e df48 093e
00000050: 0e38 843d d9e1 d73d 9b48 5d3e 36f0 363e
00000060: 4dbe 903d be74 df3d 149d 523d a58f ce3d
00000070: cce4 633d 882b 163e f6c1 883d fbcc 3f3d
00000080: 2ca3 793d 2ec9 183e 0eb3 9d3d ad78 b13d
00000090: 0c33 4b3e b00c 263d 483d 0a3e df66 593d
000000a0: 69de e63d d396 133e e1b0 1d3d 7a97 a13d
000000b0: a7e2 d03d 035c 6d3d 3d64 c93d 36fb 043e
000000c0: 4f44 c23a 4b17 843e c6b3 4a3e 9963 153e
000000d0: 355f 003e 2288 d03d 831b f83d 3f33 173e
000000e0: 375c a73d 91e3 053e 6da8 013e 8a70 353e
000000f0: 3f7d ec3d 1a69 033e 12ef d93d bff5 443e
00000100: 3227 0b3e 1d35 993c fbe9 c53d 5bea fa3d
00000110: 2753 c93d 756f aa3d 88b3 273e 819e 273e
00000120: feed d23d 9739 763d d557 0a3e ac48 ac3d
00000130: 5499 013e c826 4d3c d6b5 853d c3bc d53d
00000140: c9b7 093e 21cb 303d bd4c 033e 3d6e cc3d
00000150: 6f19 863d c0d0 4f3e a62a e23d 3b2c b13d
00000160: 3c46 4c3d 707b 933d 7838 d53d 7221 953d
00000170: 49ba 7d3d 2b55 983c f00c 0a3e 36e2 0b3e
00000180: af6a 883d c602 693d c307 333e d699 cc3d
00000190: b885 cd3d a556 073e e942 fa3c 48c8 8d3d
000001a0: 67a2 ad3d e959 a63d fdb9 793e ed37 833d
000001b0: 9633 bf3d 1a8c 093e fee5 2c3e 4f03 033e
000001c0: a304 b53d 8b58 413d 7b02 943d 2579 7a3d
000001d0: 3ad5 e13d 48f4 363e c1a5 763d 7c4d 983d
000001e0: c6b8 e53d fe7b 953d
0.093967274 0.07864465 0.044996995 0.09036888 0.096938424 0.24649544 0.0371717 0.106947675
0.13546482 0.06027507 0.104003966 0.043269224 0.12859277 0.042715166 0.1172662 0.060658146
0.10397889 0.06717062 0.14763194 0.13406704 0.06456004 0.10541124 0.21609728 0.1786507
0.07067547 0.10910939 0.051419333 0.10085992 0.05563812 0.14665043 0.0667762 0.046826344
0.06094663 0.14920494 0.077001676 0.08665595 0.19843692 0.040539443 0.1349994 0.05307662
0.1127289 0.14413004 0.038498763 0.0789022 0.101994805 0.057949077 0.09833572 0.12986454
0.0014821383 0.2579902 0.1979514 0.14588775 0.12536319 0.10182215 0.121146224 0.14765643
0.081718855 0.13075091 0.12661906 0.17718711 0.11547326 0.12833062 0.10641302 0.1923437
0.1358917 0.018702084 0.09663769 0.12251731 0.09830313 0.0832204 0.1637708 0.16369058
0.102993 0.060113516 0.13510068 0.084122986 0.12656146 0.012521453 0.06528823 0.10436394
0.13449015 0.04316247 0.12822242 0.09981964 0.0654782 0.20294476 0.11043291 0.086510144
0.04987167 0.07201278 0.10411161 0.0728177 0.061945233 0.018595299 0.13481498 0.13660511
0.06660973 0.05688741 0.1748343 0.099902794 0.100352705 0.13216646 0.030549483 0.06922966
0.084782414 0.08122618 0.24387355 0.06407151 0.09336011 0.13432351 0.1688461 0.12794231
0.08838775 0.04720358 0.072270356 0.06115069 0.11026998 0.17866623 0.06021667 0.07436654
0.11216883 0.0729904

running_var f4 [122]
00000000: 7b01 093e 4dab 373e 08ec 073e c4e2 863e
00000010: 9f5b 903e 296b 313f 577a 253e 95c1 793e
00000020: 7c0b ad3e 4b4c 023e a83f 043e 3c69 093e
00000030: 8b8d 703e 706c 1a3e fb8c 953e e70f 0f3e
00000040: ce86 893e 6255 7e3e 4759 773e d280 813e
00000050: 59f4 5d3e 63c3 283e 2ba1 173f e5d4 173f
00000060: 6cfe 3b3e 77ea 9f3e f5c6 663e 5aa1 423e
00000070: 5a4b 533e c3a2 9b3e 996d 503e 747c 0a3e
00000080: 2945 093e 12b3 d13e 757c 3c3e dff7 0e3e
00000090: 0409 cc3e 849a 663e 70bb ab3e 1be6 363e
000000a0: 3735 ad3e 0e9a a03e a715 163e dd2e 533e
000000b0: 0ed8 903e 996f 1d3e bc49 523e 72c7 873e
000000c0: 85db ae3d d6d6 de3e f8b7 ce3e 7300 aa3e
000000d0: 1b92 6d3e c4e2 6e3e bfa7 cc3e 9704 b03e
000000e0: 281f 5a3e c32a 603e b7c9 883e 499c 913e
000000f0: 6eb0 533e 10f5 cf3e 19cc 883e 9f5f bb3e
00000100: e321 d03e 469d f63d c975 393e 1dfa 463e
00000110: b878 5d3e 6cf9 213e 1d24 ec3e 1851 d13e
00000120: f173 6f3e f9ac 203e 3fb3 363e a6ee 663e
00000130: 1008 aa3e 9d25 3b3e 68b4 843e 8f6e be3e
00000140: 0988 8c3e 897a 2e3e 2b14 d83e aebe 893e
00000150: f0fe 6c3e 1ad3 093f 69d8 543e 6a69 743e
00000160: 9ad2 3b3e a60d 1c3e 2dcf 473e 8538 823e
00000170: 12ab e03d bede d93d 73a0 d23e 114a c33e
00000180: 51cd 503e caa6 2d3e 2f1f c73e db68 d13e
00000190: 4212 803e 1543 a73e 10cf e03d 016c 883e
000001a0: 7a1c 8a3e c7c4 553e b711 3f3f 437b 203e
000001b0: 2dfa 973e a90b b43e 35c6 193f 3416 833e
000001c0: bb2b 4c3e b1c5 bf3d 9b8c 5b3e e4d4 db3d
000001d0: 9599 8a3e b1ce bd3e 5c21 883e 0aa9 7e3e
000001e0: 95d8 7f3e 6046 123e
0.13379471 0.1793644 0.13273633 0.26344883 0.281949 0.6930414 0.1615995 0.24390252
0.33797824 0.12724416 0.12914908 0.1341905 0.23491494 0.15080428 0.29209122 0.1397091
0.2686066 0.24837258 0.2415515 0.25293595 0.21675242 0.16480784 0.592303 0.59309226
0.18358773 0.3123357 0.22536834 0.19006863 0.20634213 0.30397615 0.20354308 0.13524038
0.13405289 0.40956932 0.18406852 0.13961743 0.39850628 0.2251988 0.3354144 0.17861216
0.33829662 0.31367534 0.14656697 0.20623346 0.28289837 0.15374602 0.2053594 0.26519352
0.08537964 0.43523282 0.40374732 0.33203468 0.23200266 0.23328692 0.3997173 0.34378502
0.21300948 0.21891312 0.26716396 0.2843955 0.20672771 0.40616655 0.26718214 0.3659639
0.40650854 0.12041716 0.18111338 0.19431348 0.21628082 0.15817803 0.46121302 0.40882182
0.23384072 0.15690984 0.17841814 0.22551975 0.33209276 0.18276067 0.2591889 0.37193725
0.27447537 0.17038931 0.42202887 0.2690329 0.23144126 0.5383774 0.20785679 0.23868337
0.18342057 0.15239581 0.19512625 0.25433746 0.10970129 0.10638188 0.41138038 0.38142446
0.20390822 0.16958156 0.3889098 0.4090031 0.2501393 0.32668367 0.10976994 0.266449
0.2697485 0.20875846 0.74636406 0.1567202 0.29683056 0.35165146 0.60068065 0.25602877
0.19938557 0.093638785 0.21440355 0.10733965 0.270703 0.37071756 0.2658795 0.24869171
0.24984963 0.14284658

weight f4 [1, 122]
00000000: cca8 8dbe c1a1 95be 4e1d 803e b672 69be
00000010: 72cf 70be 5224 8c3e 6191 6b3e 58c2 8d3e
00000020: 19ca 723e 4ead 93be bf2f 8c3e a010 8fbe
00000030: 4d6c 5b3e 98ab 7b3e b48c 76be 82a2 98be
00000040: 1823 7c3e 5fdc 623e 2921 91be 6b1a 91be
00000050: 1357 58be 29dc 8d3e 1809 893e a228 893e
00000060: adc2 72be 7ec9 813e 32db 82be 97bb 8c3e
00000070: 65f7 8ebe 89b4 88be 9244 81be c64e 7e3e
00000080: 596b 863e de6b 6b3e a7c0 823e 4058 85be
00000090: 9665 83be 5c64 6bbe 3f55 75be 90cb 833e
000000a0: 10a4 79be a355 823e bb33 7c3e c707 5a3e
000000b0: 038f 86be 3934 8dbe 7fd0 833e 5115 933e
000000c0: dd27 8d3e faec 9c3e 2bc3 85be 666a 8c3e
000000d0: d8df 7d3e 6c69 803e 8128 58be bd0a 73be
000000e0: ff46 91be afc7 86be da7c 94be d675 8cbe
000000f0: 4310 8ebe 2c9b 8fbe 9afb 6dbe d18d 81be
00000100: 6443 8abe c41b 723e fb6a 8fbe 63f7 8fbe
00000110: f36d 9cbe 4750 89be ffeb 86be eee3 85be
00000120: a04d 753e 1e1b 8fbe 219d 8fbe d6e4 80be
00000130: 8e67 643e ce0c 793e a1c5 703e 2a0d 62be
00000140: 8053 863e 7f29 803e ef5a 803e fb9a 8bbe
00000150: e6a0 883e 6391 7f3e 1264 7bbe 7835 7d3e
00000160: f744 83be b3fa 893e 4304 863e 5f7c 883e
00000170: 0fad 863e 3eaf 863e 769b 7fbe b0df 8a3e
00000180: 7d97 77be 2b26 733e c815 8b3e 4192 83be
00000190: 2527 80be 03a3 6fbe cabe 723e 6535 4d3e
000001a0: e6c6 66be 9718 673e 003b 84be cf48 653e
000001b0: eb9c 693e 8e39 5f3e 0cd2 82be 4d18 733e
000001c0: 636d 8fbe a75d 89be c321 8f3e d79d 7ebe
000001d0: d1d5 89be bdcb 773e 3157 843e f94d 87be
000001e0: 156d 91be 3abc 92be
-0.27667844 -0.2922497 0.25022358 -0.22797665 -0.23516634 0.2737146 0.23004676 0.27687335
0.23709907 -0.28843158 0.27380177 -0.2794237 0.21428032 0.24577177 -0.24077111 -0.29811484
0.24622762 0.22154377 -0.28345612 -0.28340468 -0.21126966 0.2770703 0.2676475 0.26788813
-0.23707075 0.2534904 -0.25557858 0.2748687 -0.27923122 -0.26700237 -0.25247627 0.24834737
0.26253775 0.22990367 0.25537607 -0.26043892 -0.2566344 -0.22987503 -0.239583 0.25741243
-0.24378991 0.2545596 0.24629109 0.2129203 -0.26280984 -0.27578905 0.25745007 0.287272
0.27569476 0.3064955 -0.26125464 0.27424926 0.24792421 0.2508043 -0.21109201 -0.23734565
-0.28374478 -0.26324221 -0.29001504 -0.27433652 -0.27746782 -0.28048074 -0.2324051 -0.2530351
-0.2700454 0.23643404 -0.28011307 -0.2811843 -0.30552635 -0.2681906 -0.26351926 -0.2615046
0.23955393 -0.27950376 -0.28049567 -0.25174588 0.22305128 0.24321291 0.2351289 -0.22075334
0.2623558 0.2503166 0.25069377 -0.27266678 0.26685256 0.24957804 -0.24549893 0.24727428
-0.25638554 0.2694908 0.26175126 0.26657388 0.26303908 0.26305574 -0.24961647 0.27123785
-0.24178882 0.23745029 0.27165055 -0.2569752 -0.25029865 -0.23402028 0.23705593 0.200399
-0.22536811 0.22567974 -0.25826263 0.22391056 0.22813766 0.21799299 -0.25550878 0.23739739
-0.28013143 -0.26829264 0.27955446 -0.24864899 -0.2692094 0.24198814 0.25847772 -0.26426676
-0.28403535 -0.2865923
