mlruns/528961946943719398/models/m-585ca9a671bc4416ac157e2b1d3389b0/artifacts/data/model.pth (torch, 103377 bytes, 11 tensors)

weight f4 [124]
000000 17 67 00 3f 8d 52 16 3f 5c 09 3a 3f 09 80 0e 3f
       0.501573 0.5871971 0.7267053 0.55664116
000010 7f 69 16 3f c5 c9 3f 3f fa a8 02 3f 60 03 27 3f
       0.58754724 0.7491725 0.5103909 0.65239525
000020 d5 82 17 3f aa fe 06 3f f0 c9 27 3f 70 dc 1e 3f
       0.5918401 0.52732337 0.6554251 0.6205511
000030 4a b3 0c 3f 34 54 15 3f 36 ef 18 3f d8 43 17 3f
       0.54961073 0.5833161 0.59740007 0.59087896
000040 8f 98 19 3f ef 2d fa 3e 80 f9 1c 3f 93 14 01 3f
       0.5999841 0.4886317 0.61318207 0.5042202
000050 84 f9 e7 3e b4 af 06 3f 83 8c 07 3f 25 4c 0a 3f
       0.45307553 0.5261185 0.5294878 0.5402244
000060 dc 59 06 3f b6 f3 28 3f a8 40 05 3f 3f a5 11 3f
       0.52480865 0.65996873 0.5205178 0.5689277
000070 8c 20 0d 3f 47 df 0e 3f 3f 54 21 3f 5f 33 4f 3f
       0.5512779 0.55809444 0.63019174 0.8093776
000080 61 c2 23 3f 53 cd 43 3f 80 c8 51 3f 48 ba 0d 3f
       0.63968474 0.76485175 0.81946564 0.5536237
000090 5f 2b 07 3f b6 fc ed 3e ce da 00 3f 94 c4 db 3e
       0.52800554 0.46481866 0.5033387 0.42923415
0000a0 16 77 00 3f 6a d4 15 3f 7c b7 16 3f 7d 0c 09 3f
       0.5018171 0.58527243 0.58873725 0.5353468
0000b0 fc 15 1e 3f b0 ba 1c 3f 6b 13 2f 3f 12 13 ea 3e
       0.61752295 0.6122236 0.68389004 0.45717674
0000c0 d3 0a 0d 3f f6 9d 26 3f 84 7f 07 3f d1 b5 06 3f
       0.5509464 0.6508478 0.5292895 0.5262118
0000d0 78 6e 02 3f cc b7 09 3f e8 c8 f6 3e bb e8 00 3f
       0.5094981 0.53796077 0.48200154 0.5035512
0000e0 9f 8b d2 3e 7c da 0a 3f 3e 89 d5 3e 98 99 e1 3e
       0.41122147 0.5423963 0.4170627 0.44062495
0000f0 76 f6 f8 3e 5b 99 03 3f 33 ab 06 3f 4c d6 2c 3f
       0.48625535 0.51405877 0.5260498 0.6751449
000100 58 49 f3 3e a5 43 00 3f 71 42 01 3f e8 24 0e 3f
       0.47516894 0.5010322 0.50492007 0.55525064
000110 58 e6 0b 3f 3e 3b 09 3f 29 22 00 3f 30 ab 11 3f
       0.5464835 0.5360602 0.50052124 0.56901836
000120 0b 16 1d 3f b0 01 07 3f 12 c6 ea 3e 65 14 d4 3e
       0.6136176 0.5273695 0.4585424 0.4142181
000130 36 93 06 3f 3e 2f f2 3e a4 e5 e8 3e dc a4 03 3f
       0.52568376 0.47301668 0.45487702 0.5142343
000140 f8 1e 3c 3f 09 1b 24 3f 53 24 13 3f a0 01 f3 3e
       0.73484755 0.6410375 0.574773 0.47462177
000150 7d 17 df 3e 06 2c 0b 3f 08 d2 e4 3e 62 46 03 3f
       0.43572608 0.5436405 0.4469149 0.5127927
000160 67 66 ed 3e 61 ef fd 3e b7 ec ea 3e 34 c5 fd 3e
       0.4636719 0.49596694 0.45883724 0.49564517
000170 a9 39 f2 3e 2c ba e3 3e 1c 19 1a 3f 70 b2 0a 3f
       0.47309616 0.44477975 0.60194564 0.54178524
000180 b1 eb 07 3f b0 e7 02 3f cd 1d ff 3e 22 b3 d4 3e
       0.5309401 0.5113478 0.49827424 0.41542917
000190 d2 66 0e 3f 31 24 03 3f 0b fb 02 3f 62 a1 f0 3e
       0.5562564 0.512271 0.5116431 0.46998125
0001a0 43 03 0e 3f 9d 61 10 3f 9e f8 04 3f 90 bf ed 3e
       0.55473727 0.56398946 0.5194186 0.46435213
0001b0 4e 89 26 3f 9a 53 20 3f 65 46 05 3f 4f 11 1d 3f
       0.6505326 0.62627566 0.5206054 0.61354536
0001c0 93 d5 f9 3e d9 3d 18 3f e2 15 53 3f 15 16 14 3f
       0.48795757 0.5946937 0.82455266 0.57846195
0001d0 65 58 06 3f 92 53 08 3f 7d 1e d0 3e df b5 1b 3f
       0.5247863 0.5325252 0.4064826 0.6082439
0001e0 a2 fc 06 3f 76 5b 1d 3f a4 e2 13 3f 93 93 16 3f
       0.5272924 0.61467683 0.577677 0.5881893

bias f4 [124]
000000 61 3c b5 bb a7 38 91 3c 1c 33 23 bd 1c 5d 2f 3d
       -0.0055308794 0.01772721 -0.039843664 0.042813405
000010 74 86 a3 bd d4 ca 31 bd 06 be 32 3d 70 a5 67 bd
       -0.07984629 -0.043406323 0.04363825 -0.056554258
000020 85 16 ac 3c d5 ef 80 bd ae 62 89 3d 83 32 67 3c
       0.021006832 -0.06295744 0.06708275 0.014111164
000030 6f 38 1f 3d b2 f6 1d bd 94 54 be bc 59 e0 8e bd
       0.03887218 -0.038565345 -0.02323369 -0.06976385
000040 45 29 6a bc ac ff 3a bb cc ea 64 3d 70 b1 04 3d
       -0.014292066 -0.002853374 0.055887982 0.03239578
000050 f2 fe 31 bd 0c 83 da bc a6 f4 10 3d 17 c4 f3 bc
       -0.043456025 -0.026673816 0.035389565 -0.029756589
000060 68 8f 3d bd 5f f2 9f bd 64 fd 05 bc 59 79 28 bc
       -0.04627934 -0.078099005 -0.008178089 -0.010282838
000070 c9 4e 08 bc 21 f1 38 bd bf 1f 2a 3d f2 75 31 3d
       -0.008319565 -0.045151833 0.04153418 0.043325372
000080 64 b6 52 3d e6 12 c2 3d 0d b3 0b 3e 18 59 a4 bd
       0.051443473 0.09476261 0.13642521 -0.08024806
000090 18 06 52 bd ca 81 99 bc 78 b9 8f 3d e5 c5 0b 3c
       -0.051275343 -0.018738646 0.07017797 0.008531068
0000a0 82 2c 8f bd b5 ce 04 3d 18 3d 14 3d 35 cd a3 3c
       -0.06990911 0.032423694 0.036191076 0.019995311
0000b0 d2 19 b2 bd 05 b9 09 3d 89 38 99 3c 33 d1 02 bc
       -0.08696331 0.033623714 0.018703716 -0.007984447
0000c0 22 01 a1 3c 0e 1b 19 3c 23 a1 7e 3c 29 f8 16 bd
       0.01965386 0.009344829 0.015541348 -0.036857758
0000d0 4d d1 b4 39 6a 45 c1 bc 60 dc bb 3b 54 be 00 bc
       0.00034488217 -0.02359267 0.005733058 -0.007857878
0000e0 dc 9d dd bc 45 83 9c bd ac 27 31 bc a5 96 70 bc
       -0.027052812 -0.07642225 -0.010812681 -0.014684354
0000f0 85 fc f4 bb 65 e6 00 3d 28 53 00 bd 14 1e aa 3d
       -0.0074763917 0.03146972 -0.031329304 0.08306518
000100 56 eb 3c bd 36 b9 57 bd 0a e7 c8 39 c2 22 17 3b
       -0.04612287 -0.052666865 0.0003831911 0.0023061489
000110 de ff 36 bd 20 62 de bb 88 dc a7 3d 66 fc 8f 3c
       -0.044677608 -0.0067865998 0.0819636 0.017576408
000120 c9 fa b8 3c d8 cc d8 bd 02 ab 7a bd 4e 49 d4 bc
       0.022580521 -0.10585946 -0.061198242 -0.02591386
000130 27 38 f5 3c 0b 9e b5 bb d5 d0 59 bc b0 ea 6b bd
       0.029934002 -0.005542522 -0.013294418 -0.057596862
000140 ae 28 32 3d 6b 45 eb bc 32 a9 0b bc f3 37 88 bd
       0.043495826 -0.028719625 -0.008524226 -0.066512965
000150 36 44 60 bc a0 29 ea 3c f1 d2 f7 bc 24 27 89 bc
       -0.013688138 0.028584301 -0.030251952 -0.016742297
000160 62 6e 8d 3c 25 2a e7 bc 41 e4 6c 3d c6 ea 08 bc
       0.017264549 -0.028218338 0.057834867 -0.008356756
000170 54 56 3f 3d 95 19 25 3b ad 0e 3a bd a6 bb 21 3d
       0.04671319 0.002519225 -0.045424152 0.039485596
000180 b2 20 32 b9 fb f6 25 bd 99 73 0e 3d ce eb 79 bc
       -0.00016987583 -0.040518742 0.03477821 -0.015253974
000190 ec a2 20 3d ca 4f 00 bb 9d 44 c0 bc 0b 75 3e 3d
       0.039217874 -0.0019578808 -0.023470217 0.04649834
0001a0 34 46 33 3d 90 01 a8 bd ee 5a 1f 3d 45 27 6e bc
       0.043768123 -0.08203423 0.038905077 -0.01453573
0001b0 8a 14 47 3d 0f ff a9 bd db a1 27 bd 23 12 a0 bc
       0.048603572 -0.08300602 -0.04092584 -0.019539898
0001c0 ad ad 02 bd 8f 0a 58 3d 6c 37 87 bd 71 c7 15 bd
       -0.03190391 0.052744444 -0.06602368 -0.036567155
0001d0 c2 b3 e1 3c a7 d6 3e bd aa 89 e5 bc 3a 8b 0c 3d
       0.027551536 -0.046591427 -0.028019745 0.034312464
0001e0 e3 32 0d bd c6 22 02 bd 06 6a b0 bc bf c9 22 bc
       -0.034472357 -0.031771444 -0.02153493 -0.009935795

running_mean f4 [124]
000000 41 93 8c 42 b4 4d 28 46 bc 9e c3 40 0b 19 b2 40
       70.287605 10771.426 6.1131268 5.565557
000010 81 f0 d3 42 ae d9 58 40 30 f4 44 40 4d 3f 60 40
       105.969734 3.388286 3.077404 3.5038636
000020 ae ac 3c 40 7c e0 d1 3f 14 16 d8 43 c3 e1 46 42
       2.9480395 1.6396632 432.1725 49.72047
000030 c4 12 12 44 35 a3 82 40 48 60 e8 3d e3 c5 92 44
       584.2932 4.0824227 0.11346489 1174.184
000040 a4 5d af 43 c3 3a b1 40 89 4e bf 44 28 9f dd 3e
       350.73157 5.538423 1530.4542 0.4328549
000050 5c f6 45 3d 42 96 ca 3f c5 2e c5 3e 4b 30 39 40
       0.04833065 1.5827105 0.38512245 2.8935726
000060 c1 6b 86 3f d6 64 60 40 41 9c d2 40 71 6f 29 3e
       1.0501634 3.5061545 6.581574 0.16546418
000070 ba 15 1f 3f 6d e3 ef 3f 9f a9 e0 3f a3 dc e3 3f
       0.6214253 1.874128 1.7551764 1.7801708
000080 57 1f ee 43 ef b8 34 40 20 b1 34 40 ed 33 12 3e
       476.24484 2.8237875 2.8233109 0.1427762
000090 fd a9 be 42 c2 bf 48 42 21 b1 ad 41 72 48 51 40
       95.33201 50.187263 21.711489 3.2700467
0000a0 28 b7 68 41 af e7 24 40 cc e1 8b 3c 58 c3 43 42
       14.544716 2.5766408 0.017075442 48.940765
0000b0 df be 1a 42 dc 17 cd 41 0a 46 fe 41 39 d0 00 42
       38.686398 25.63665 31.784199 32.203342
0000c0 21 e6 41 40 77 35 9d 3f 30 e8 a2 3d 01 42 cf 3e
       3.029671 1.2281941 0.079544425 0.40480044
0000d0 3b 02 33 3e 23 b1 35 3f 06 3e 40 3e d7 e0 87 3d
       0.1748132 0.70973414 0.1877366 0.06634682
0000e0 8f 08 1c 3d cc b1 76 3d a9 9a df 3c 44 cb f3 3c
       0.0380941 0.060228154 0.027295427 0.02976001
0000f0 f6 d9 b4 3d 79 ed c4 3c 9e 60 12 3e 84 dc 74 3f
       0.08830635 0.024039017 0.14294669 0.9564898
000100 c8 b5 7b 3e cc a3 af 3d 48 55 a4 3d fe 93 3d 3d
       0.24581063 0.08576164 0.080240786 0.046283714
000110 b4 69 b4 3e 17 04 22 3e 9d ee 2c 3e c0 c8 1d 3e
       0.35236895 0.15821873 0.16887899 0.15408611
000120 78 43 e0 3d 12 28 34 3d af 3b 14 3d bc 0a 08 3d
       0.10950369 0.043983527 0.03618973 0.033213362
000130 f2 0f 88 3c 3f b3 a3 3c e1 d4 7d 3c bb ab 85 3c
       0.016609166 0.019982932 0.015492649 0.016317239
000140 fa 6c 4d 3f 9e 78 0b 3e 49 81 2b 3d cc f0 56 3c
       0.8024441 0.1362023 0.041871343 0.013118934
000150 b4 89 d0 3d a5 dc 2e 3d 5d 47 83 3d 21 58 5c 3d
       0.10182515 0.04269089 0.06410096 0.053794984
000160 79 7b c9 3c 34 e3 17 3c cb 8c 12 3d 3e 3b 2d 3e
       0.02459501 0.009270478 0.035778802 0.1691713
000170 d7 ae 80 3d ae 65 c2 3c a9 52 5d 3d c7 2f 8a 3d
       0.06283348 0.023730125 0.05403391 0.06747394
000180 b3 81 c1 3c 30 e0 93 3c 03 7f 37 3d ac 25 0d 3d
       0.023621416 0.018051237 0.044798862 0.034459755
000190 76 50 77 3d 79 0a 8d 3c 09 2c db 3c db b0 5d 3c
       0.060379468 0.017216908 0.026754396 0.013530935
0001a0 25 f3 16 3f 07 82 b2 3d da 8b de 3e a9 a0 ce 3b
       0.5896476 0.08716207 0.43466073 0.0063057733
0001b0 b0 b4 e1 3e 16 f1 63 3c e6 fc d4 3c 0c 93 6d 3f
       0.44083166 0.01391246 0.025999498 0.928025
0001c0 3d 79 94 3d 08 22 84 3e e3 35 49 3d ad 81 a8 3c
       0.07249687 0.25807214 0.049123656 0.020569647
0001d0 9e cc 25 3d 31 06 af 3d 24 a6 85 3c a7 0b 5d 3f
       0.04047834 0.08546103 0.016314574 0.86345905
0001e0 70 80 72 3c f8 fc 50 3f 58 db 04 3c cb f5 b0 3d
       0.01480113 0.81636 0.008108936 0.08640631

running_var f4 [124]
000000 2c 9c f7 43 69 d0 d5 4c 8b 63 e7 3f 29 7f 94 3f
       495.2201 1.1210017e+08 1.8077253 1.1601306
000010 b1 2a e9 46 b1 0a a6 3e 1e 5e f3 3d 4a 48 32 3f
       29845.346 0.32430032 0.11883186 0.69641554
000020 44 cc 83 3e 49 15 8f 3f d7 99 48 48 a0 42 e6 46
       0.2574178 1.1178371 205415.36 29473.312
000030 cc a0 48 48 75 39 74 3f 4a e8 21 3e 70 59 13 48
       205443.19 0.9540017 0.15811267 150885.75
000040 5b a1 3d 48 a6 dc 08 45 ae 16 83 48 6f d1 89 3e
       194181.42 2189.7905 268469.44 0.26917598
000050 3f 38 41 3d f1 1f 97 3e ef fc 7d 3e a0 7f 1f 3f
       0.04717278 0.29516557 0.24803518 0.62304115
000060 de 5d 5a 3d 93 22 e3 3e 96 59 27 40 66 5e e4 3e
       0.053312175 0.44362316 2.614843 0.4460327
000070 ce a6 d4 3e be a4 55 40 b3 d4 4c 3f 39 be 06 3f
       0.41533512 3.33818 0.80012053 0.52634007
000080 38 8d 28 47 86 e0 f8 3e 2d cb f7 3e 42 51 77 3e
       43149.22 0.48608798 0.48397198 0.24152091
000090 d0 d8 81 46 41 90 96 45 26 b7 6c 45 0b 30 55 44
       16620.406 4818.0317 3787.4468 852.7507
0000a0 5e 8a 2f 45 14 45 bf 44 5b 31 93 3d 60 1c 90 48
       2808.648 1530.1587 0.07187148 295139.0
0000b0 e4 58 65 44 75 f3 da 43 e0 f4 13 44 06 d6 7b 43
       917.3889 437.902 591.8262 251.83603
0000c0 eb 8f 32 40 3c af 19 3f de ab f1 3d 0e eb aa 3e
       2.790034 0.6003301 0.11800359 0.33382457
0000d0 8f 5f 96 3e 58 43 54 3e f6 57 1d 3e 4d 1c 7d 3d
       0.2936978 0.20728815 0.15365586 0.061794568
0000e0 88 e6 26 3d 50 7c 90 3d fd 54 d8 3c de 64 ea 3c
       0.040747195 0.07054961 0.026407713 0.02861255
0000f0 4b 8e a5 3d db 66 c2 3c 49 e2 74 3e 4d db 57 3d
       0.08083781 0.023730686 0.23914446 0.052699376
000100 6a dc 8b 3e 23 56 23 3e ec 0c 96 3d 35 ed 33 3d
       0.273166 0.15950827 0.073266834 0.04392739
000110 04 76 6a 3e c9 90 09 3e a3 32 10 3e c5 59 06 3e
       0.22896582 0.13434137 0.14081816 0.13120182
000120 7a 74 c8 3d 6b 3f 2d 3d 9a fa 0f 3d 3a 11 03 3d
       0.09787841 0.04229681 0.0351511 0.03199885
000130 db 62 86 3c 06 e5 9f 3c d1 9b 78 3c e5 d1 83 3c
       0.01640456 0.019518387 0.015173868 0.016091296
000140 f5 a1 22 3e 1b fb f0 3d fc 88 26 3d d6 e0 53 3c
       0.15882094 0.117666446 0.040657982 0.012932023
000150 eb 33 bd 3d dc 5b 29 3d 8e 8a 72 3d 34 0e 4e 3d
       0.09238418 0.04134737 0.059214167 0.050306514
000160 9a b5 c6 3c 56 75 16 3c 81 67 0e 3d 40 8f 0f 3e
       0.024256516 0.0091832485 0.034766678 0.1401949
000170 49 61 72 3d 5d fb bc 3c a8 08 54 3d e9 54 7f 3d
       0.05917481 0.023069078 0.051766068 0.062336836
000180 53 da bc 3c 72 d1 91 3c 8a 2c 2e 3d 5e 60 08 3d
       0.023053324 0.017800067 0.042522945 0.033295028
000190 1b d1 6a 3d 02 f5 8a 3c 61 ab d7 3c c9 dd 5a 3c
       0.057328325 0.016962532 0.026326837 0.013358542
0001a0 90 95 7a 3e 2e 6f a4 3d 67 e9 7b 3e 98 c8 cd 3b
       0.24471116 0.08029018 0.24600755 0.006280016
0001b0 d3 e4 7c 3e 78 e0 5f 3c 95 4f d1 3c 86 e2 89 3d
       0.24696665 0.013664357 0.025550643 0.06732659
0001c0 e2 1a 8a 3d bf 37 45 3e 38 65 3e 3d 15 8b a4 3c
       0.06743409 0.19259547 0.04648325 0.02008585
0001d0 de 16 20 3d 28 e9 a1 3d c0 61 83 3c 4c be f3 3d
       0.039084308 0.07905799 0.016037822 0.119015306
0001e0 9f 7a 6f 3c 89 2a 19 3e 50 e7 03 3c b6 95 a3 3d
       0.0146166375 0.14957632 0.008050755 0.079875395

weight f4 [176, 124]
000000 8a 19 0e 3d 88 27 0a 3d 7f 3a 9e bd 0e 94 7c bc
       0.034692325 0.033729106 -0.07726001 -0.015416158
000010 4f b8 1f bd 85 88 26 bd 28 02 2e bd 0d ba 8a 3d
       -0.03899413 -0.04065754 -0.042482525 0.067737676
000020 cc 02 18 3d e8 ef 1a bd d3 c0 8d bc 29 bd 92 bc
       0.037112042 -0.03782645 -0.01730386 -0.017912464
000030 44 7b 0b bd 75 38 0c bc e4 1e 58 3d 73 01 29 b9
       -0.034053102 -0.008558382 0.052763835 -0.00016117636
000040 08 c7 7e 3d a5 f7 df 3c d9 1e a0 bd a2 d6 d9 3c
       0.06220153 0.027339766 -0.07818384 0.026591603
000050 05 0b c2 bc e2 b8 8b bc 50 e6 a9 bc 77 73 e1 3b
       -0.023686895 -0.017055932 -0.020739704 0.0068802196
000060 c9 03 88 3d 8e 5a 04 bc 2e 94 51 3d 76 e6 3e 3d
       0.06641347 -0.008078231 0.051166706 0.046606503
000070 60 0a 83 3c b5 e3 14 bd e6 09 36 bd 6e c9 87 bd
       0.015996158 -0.03634997 -0.044443034 -0.066302165
000080 c0 0e 8f bd a7 db d8 bd 34 da df bd 5f 37 5f 3d
       -0.06985235 -0.1058877 -0.10930291 0.054496165
000090 38 62 05 3d 26 e5 cc 3c 8b b6 92 bb da 07 e7 ba
       0.03256437 0.02501161 -0.004477327 -0.0017626241
0000a0 92 b8 f0 3c 1e 45 15 3c 92 e1 ce 3c 4f 18 9d bc
       0.029384885 0.009110717 0.025254045 -0.01917663
0000b0 52 79 bb 3d 28 e6 d5 bc 02 a0 77 3d c9 57 b2 bd
       0.091539994 -0.026110724 0.06045533 -0.0870815
0000c0 81 7c 0c bd 02 be 84 bc 6d 97 90 bd be 81 59 bd
       -0.034298424 -0.016203884 -0.07060132 -0.053102247
0000d0 bf ec 52 3d f5 4f 46 3d 1e 64 96 bd 6f 3d 16 3b
       0.05149531 0.048416097 -0.073433146 0.00229248
0000e0 a0 c2 9c bc e2 cb 19 bd 2d 74 e4 3c e0 de be bb
       -0.019135773 -0.037547953 0.027887428 -0.0058249086
0000f0 e6 a7 3a bd 77 5b 1a 3a 23 a3 84 bd 2a 4a 51 bd
       -0.045570277 0.0005888263 -0.06476428 -0.05109612
000100 f1 4a 5e bd 71 33 c5 3c 94 7d 1a 3d dc e4 ad bb
       -0.05427069 0.02407238 0.037717417 -0.005306823
000110 9f f6 85 bc 37 72 72 3d 96 8e 5c 3d 54 02 9b bd
       -0.01635295 0.059190955 0.053846918 -0.075688034
000120 98 be 84 bd 41 8b 38 bd d2 42 00 3d e5 86 3f 3d
       -0.064816654 -0.045054678 0.031313725 0.046759505
000130 01 11 77 3c ff 24 14 3c 47 3a 0f 3d bc e1 17 bd
       0.015079738 0.009042024 0.034967687 -0.03708051
000140 db e9 3a bd 71 0e a0 3b 75 1f 38 bd d9 a7 cc bc
       -0.04563318 0.004884534 -0.044951875 -0.02498238
000150 08 73 93 bb 54 9e 8d 3d ff 88 2f 3d 8a 1b 40 bd
       -0.004499797 0.06914964 0.04285526 -0.046901263
000160 8e 69 49 bd 62 72 39 bc b8 c3 29 3d c5 e9 e3 3b
       -0.04917293 -0.011318775 0.041446418 0.0069553577
000170 f9 19 24 3c 54 87 a6 bc f5 d6 02 3c 2b 06 45 bc
       0.010015958 -0.020328201 0.00798582 -0.012025396
000180 f0 b5 b8 bb 77 2a fe 3b 69 25 95 bc ed f4 01 bd
       -0.005636923 0.007756527 -0.018206315 -0.03172772
000190 c4 b8 96 bb be 22 a0 bc c7 59 99 bc eb 9c 2e 3c
       -0.0045996625 -0.019547816 -0.018719567 0.010657529
0001a0 a4 c7 80 3c c5 9e ce bc 77 ea 85 bd d9 f9 ff bc
       0.015720196 -0.025222192 -0.06538861 -0.031247066
0001b0 12 ac 04 bd 62 6c 2e bd 76 52 f6 3c 72 42 03 bd
       -0.03239066 -0.04258383 0.030068617 -0.03204579
0001c0 20 63 19 3c cc d5 89 3d fd 0c e7 3d 45 68 6e 3d
       0.009362012 0.06730232 0.11281774 0.058204908
0001d0 9b 03 01 bd 73 14 dc bc c2 80 31 3d 67 e8 34 bd
       -0.03149758 -0.02686522 0.043335684 -0.04416695
0001e0 95 67 b1 bc 98 bd ae 3c 28 2e 16 bd e4 f2 81 bc
       -0.021655837 0.02133064 -0.03666511 -0.01586289
0001f0 cb 59 71 bd c3 22 aa bd 11 6f 20 3d 74 41 f1 bc
       -0.058923524 -0.083074115 0.03916842 -0.029450156
000200 87 8e f1 3b fe ec 0a bd 59 98 cb bc 40 92 49 bd
       0.007371727 -0.03391742 -0.024852918 -0.04921174
000210 e3 96 3e 3d 4d d9 54 bd 84 dd 88 3c 27 96 89 bd
       0.046530616 -0.051965047 0.01670719 -0.067180924
000220 1d d1 68 bd 01 ff 89 bc 76 e0 a0 3d bd fa c6 bd
       -0.05684005 -0.016845228 0.078553125 -0.09715793
000230 d2 c0 c2 bb e9 d5 43 bc ef 04 d5 bd 12 b0 6f ba
       -0.005943396 -0.011952856 -0.10401332 -0.0009143363
000240 4e 38 80 bd 67 b4 c9 bb 53 66 a1 bb 79 0c a9 3a
       -0.06260739 -0.006155539 -0.004925528 0.0012897394
000250 79 1f 2e 3d d4 03 df ba fb 7a b0 bd 90 c0 79 bd
       0.042510483 -0.0017014691 -0.08617207 -0.060974658
000260 12 1a de 3c 43 62 27 bd f9 ce 4d bd e3 b6 f1 bc
       0.02711204 -0.040865194 -0.050246213 -0.029506152
000270 56 2f 64 3c db 57 b0 3d d9 a6 35 3d 43 94 d1 bc
       0.013927301 0.08610507 0.04434857 -0.025583392
000280 b0 86 09 bd ac f8 3c 3c 81 4b eb 3c 85 9b 9e bc
       -0.033575714 0.011533897 0.028722527 -0.019361267
000290 e3 ea 42 bd 7d f8 87 bc a4 df bc 3c 76 02 84 3d
       -0.047587287 -0.01659798 0.023055859 0.06445782
0002a0 0a e5 d6 3c 61 be 01 bd f2 09 99 bc e1 2b eb bb
       0.026232261 -0.0316757 -0.0186815 -0.0071768616
0002b0 95 46 31 3d a9 e0 8a 3d 42 e6 2b 3d f9 e0 c1 bb
       0.043280203 0.06781132 0.041967638 -0.0059167114
0002c0 eb 94 6a bb 69 aa 21 3d c3 99 82 3d e1 c0 cd 3c
       -0.0035794328 0.039469156 0.06376984 0.025116386
0002d0 4c fd 16 3d cc 82 68 3d e7 9a 0a bd ee 27 39 bd
       0.036862656 0.056765363 -0.033839133 -0.045204096
0002e0 d8 90 83 3d d7 36 36 3d 82 02 42 3d 66 d7 50 3c
       0.06424111 0.044485893 0.047365673 0.0127466675
0002f0 60 00 83 bb 17 73 2e 3c 81 79 3b bd 07 6d 98 3d
       -0.0039978474 0.010647557 -0.045770172 0.0744267
000300 9b 39 ce bd 27 ef 23 bd aa 04 5a 3d 31 17 67 bd
       -0.10069581 -0.040022995 0.053227104 -0.0564186
000310 9c 91 51 3d b1 65 0a bc bc e5 83 3d fc f0 80 bd
       0.051164255 -0.008447097 0.06440303 -0.06295964
000320 05 9e fe bc b5 0b 10 bd 26 94 34 3d 5f fc 67 bd
       -0.031081209 -0.035167415 0.044086598 -0.056637164
000330 48 89 0d be 96 55 ae 3d 0e e9 e8 bb 0c 0d fb bc
       -0.138219 0.08512418 -0.0071078604 -0.03064587
000340 e7 84 1d 3d e0 88 00 bd 9a 4c 69 bd 3d 38 07 bc
       0.038456824 -0.031380534 -0.05695782 -0.008253154
000350 aa 22 92 3d b5 9f c6 3b 55 f1 6d 38 0b e1 5a bd
       0.07135518 0.006061519 5.672996e-05 -0.053437274
000360 d7 20 2b bd a3 9e 31 bb d4 9b fe bb 19 ef b5 bd
       -0.041779365 -0.0027102611 -0.007770041 -0.08883495
000370 c6 81 c7 bc ff 43 bd 3b 24 87 ad 3c 0a 6d 53 3d
       -0.024353873 0.005775928 0.021182604 0.05161766
000380 2b 94 e6 bb 36 09 1a 3d 6e 26 8c 3a d3 76 0a bd
       -0.007036706 0.03760644 0.0010692605 -0.033804726
000390 8f a7 0d ba ce 81 37 3d ce 97 cc bc d1 33 96 3d
       -0.00054036913 0.044801526 -0.02497473 0.07334102
0003a0 e4 cb 16 bd 2e 10 0c 3c c8 3f e2 bc 7b fc db bb
       -0.03681554 0.008548779 -0.027618304 -0.0067134476
0003b0 5b 61 0d bc 4c ad 52 3d 72 f3 0c bb 24 e0 38 bd
       -0.008629168 0.0514348 -0.002150741 -0.045135632
0003c0 ca de 9d 3d cc a9 7c bc 64 86 fa bb 52 e0 c6 bc
       0.07708509 -0.015421342 -0.007645415 -0.024276886
0003d0 8e 13 4b bd 9d 91 c6 3b 08 79 e7 3c 58 ae e4 bc
       -0.049579196 0.006059839 0.028255954 -0.027915165
0003e0 05 de 02 bd 14 87 6f bd 6c 37 30 bd a1 1c 8d 3d
       -0.031950016 -0.05847843 -0.043021604 0.06890226
0003f0 3e 7b 84 ba 2a 94 05 bc 24 48 e7 3b 1b 14 c5 bc
       -0.001010753 -0.008153001 0.0070581604 -0.024057439

bias f4 [176]
000000 f7 75 15 bd 74 6d 61 bd 76 96 25 bd ee f7 3b bd
       -0.036489453 -0.055036023 -0.040426694 -0.04589074
000010 8f 03 8d bd ac 28 54 bc 83 ab 2c bd 39 9e 6a bd
       -0.068854444 -0.01294915 -0.042155754 -0.0572798
000020 f4 29 8f bc 6d 91 8c bd 53 89 0c bd d2 a0 38 bd
       -0.01747606 -0.06863675 -0.03431065 -0.045075245
000030 dd cc ac bd ae 05 81 3c e7 c3 35 bd 21 91 7f bd
       -0.08437512 0.015749779 -0.04437628 -0.062394265
000040 07 4d 87 bd 20 20 8c bc 6a 6c 1f bd 7f c5 3c bd
       -0.06606489 -0.017105162 -0.03892175 -0.046086784
000050 e1 78 23 bc 2f e0 1d bd a9 54 22 bd 3a eb ce bb
       -0.00997755 -0.038543876 -0.03963152 -0.0063146623
000060 49 82 5a bd 82 21 ab bc f2 4a d7 bc c8 e5 9f bd
       -0.053346906 -0.020890001 -0.026280854 -0.07807499
000070 ef 2c 54 bd 58 fa 07 bd 1e 2f 8a bd 63 20 5b bd
       -0.051800665 -0.03319773 -0.06747268 -0.053497683
000080 11 c9 00 bc d4 6e 9c bd 83 fe 5a 3b 29 8d 7b 3c
       -0.007860438 -0.07638326 0.003341586 0.015353479
000090 cf 21 23 bd bf 00 14 bd f9 1a 4e bd f6 1c 7c bc
       -0.039827164 -0.036133524 -0.050318692 -0.015387764
0000a0 28 27 b8 bc eb 5a 87 bc 32 4a 91 bd 5e 0b 5b bb
       -0.022479609 -0.016522845 -0.0709423 -0.0033423523
0000b0 57 93 a4 bd a3 a4 89 ba e6 5b c0 bd 3b 16 28 bd
       -0.08035915 -0.0010501336 -0.09392528 -0.041036826
0000c0 e1 24 0c bd a7 15 a5 bd 00 f2 01 3b f9 97 9b 3c
       -0.034214858 -0.080607705 0.001982808 0.018993365
0000d0 2f 3c 24 bd d4 a1 af bd 8e fd d4 bd 2b 53 8b bc
       -0.040096458 -0.08575788 -0.10399924 -0.017007431
0000e0 37 c5 61 bc f9 46 4b bd 59 2d 70 bd e4 08 39 bc
       -0.01377993 -0.04962823 -0.058636997 -0.011293624
0000f0 1d 81 d5 bc 96 cb 2d bd 54 06 87 bd 2a 12 f1 bc
       -0.026062543 -0.042430483 -0.06593004 -0.029427607
000100 47 da c3 bd 15 8f c3 bc d3 93 64 bd f7 40 6a bd
       -0.095631175 -0.023871938 -0.05580504 -0.05719086
000110 a3 4a db bc 25 76 83 bd 7c 29 23 bd 5c 76 36 bd
       -0.026768988 -0.06419019 -0.039834484 -0.04454647
000120 95 2d 8c 3c 4b 40 6d bd 08 94 67 bc ee 60 65 bd
       0.017111579 -0.057922643 -0.0141344145 -0.056000642
000130 82 b7 75 bd 75 35 cf bb 1c b4 db bd e9 a1 8b bc
       -0.05998946 -0.0063235112 -0.107277125 -0.017044978
000140 f8 d6 c2 bb fd d0 33 bc e1 14 88 bd f0 75 f1 bc
       -0.0059460364 -0.01097512 -0.06644607 -0.029475182
000150 6d f9 9e bd bc f9 9e bd 65 8d 11 bd 47 80 6c bd
       -0.07762418 -0.07762477 -0.035535235 -0.057739522
000160 7e 0a 46 bd 85 68 87 bd 25 23 0f bd 59 98 bc bc
       -0.04834985 -0.066117324 -0.034945626 -0.023021864
000170 01 0b 39 bd c0 95 69 bd 25 c3 14 bc 4c 41 8e bd
       -0.04517651 -0.05702758 -0.009079729 -0.06946048
000180 ec a8 d5 bc f3 20 3c bd 7c a9 8e bd ed 34 c0 bc
       -0.026081525 -0.04592986 -0.0696592 -0.023462737
000190 88 44 97 bc 7b 04 29 bd 3f 44 93 bc a8 c1 c1 bd
       -0.018465295 -0.04126404 -0.017976878 -0.09460765
0001a0 3a 85 8a bd 0f 66 e4 3a 89 94 35 bd a2 13 bb bc
       -0.06763692 0.0017425435 -0.044331107 -0.02283651
0001b0 1a 61 1e bd 7e ab 01 bd 6a 7b 47 bd 9d f5 0a bd
       -0.038666822 -0.03165769 -0.04870168 -0.03392564
0001c0 7e 60 23 bd 7d d4 db bd fe fd 49 bc 26 1e 1c bd
       -0.039886944 -0.10733888 -0.012328623 -0.03811469
0001d0 f6 10 88 bd 92 ea fb bc 53 4f 7f bd 19 98 01 bd
       -0.0664386 -0.0307515 -0.06233151 -0.031639192
0001e0 fb 3b 8a bd 7a ce a0 bd 85 5a 1f bd 05 8a 81 bd
       -0.067497216 -0.07851882 -0.038904686 -0.06325153
0001f0 5f 20 22 bd ef 66 b5 bd 1b 5b 74 bd 4f 5d 22 bd
       -0.039581653 -0.08857524 -0.059657197 -0.039639767
000200 23 be 49 bd b3 f3 9b bd fc 71 4f bd ef 3c 44 3c
       -0.049253594 -0.07614841 -0.050645813 0.011977418
000210 88 f5 1b bc bc bf d4 3b 98 9b a4 bc 60 cb cb bc
       -0.009518988 0.006492583 -0.020093724 -0.02487725
000220 97 4c 56 bd e7 be 98 bd 51 6d 3e bd 42 91 06 bd
       -0.052319136 -0.07458287 -0.04649097 -0.032853372
000230 49 da 1f bd c1 a1 d5 bc 03 4e be 3c 16 7d 26 bd
       -0.039026532 -0.026078107 0.023230558 -0.040646635
000240 ae ff 7f ba c9 57 41 bd 21 bd 91 bd 7d 2b bf bd
       -0.0009765577 -0.04720286 -0.071161516 -0.093344666
000250 60 21 9e bd f2 ab 2a bd 4c c1 b8 bb 08 ae 4f bd
       -0.077212095 -0.041667886 -0.005638277 -0.05070308
000260 cc 88 a5 bd 18 8f 83 bc 8d 35 5c bd 44 19 99 bd
       -0.080827326 -0.016059443 -0.053762008 -0.07475522
000270 0a 4a 3d bd 33 13 9c bd 90 d5 23 bd a2 b9 70 bd
       -0.046213187 -0.076208495 -0.03999859 -0.058770783
000280 d1 5e 06 bd 7d 34 1d bd 2c d0 62 bd b6 ad 6c bd
       -0.032805268 -0.038380135 -0.05537431 -0.05778285
000290 1a 80 b1 bc 5e 98 29 bd a9 36 d6 bc 34 b7 18 bd
       -0.021667529 -0.041405074 -0.02614911 -0.03728409
0002a0 04 0b 28 bd 90 d4 c2 bc 57 02 8f bd fe e3 b3 bc
       -0.04102613 -0.023782998 -0.06982868 -0.021959301
0002b0 a7 eb 76 bd c4 70 09 bd 90 83 83 bc 42 af 4b bd
       -0.06028333 -0.033554807 -0.016053945 -0.049727686

weight f4 [176]
000000 6a fb d5 3e 9c f8 a9 3e 90 ea af 3e 48 2f c4 3e
       0.41793376 0.33197486 0.34358644 0.38317323
000010 ab 74 ce 3e 96 fc bc 3e c7 36 c8 3e 1a 3a ba 3e
       0.40323386 0.36911458 0.39104292 0.36372453
000020 06 df b5 3e ee 19 b5 3e 5d e5 b2 3e e5 3d bd 3e
       0.35521716 0.35371345 0.34940615 0.36961284
000030 5f f5 bf 3e 1b 67 a7 3e 0b 71 c0 3e 64 f3 dc 3e
       0.3749189 0.3269585 0.37586245 0.43154442
000040 87 7c b5 3e f4 d8 95 3e b2 0f 9e 3e b9 e0 cf 3e
       0.3544657 0.29267085 0.3087135 0.40601137
000050 57 4c a0 3e f4 b6 b8 3e 1e f6 b8 3e 5a 80 a0 3e
       0.31308243 0.36077082 0.36125273 0.31347924
000060 9e 7e d4 3e ce c5 b1 3e 61 90 ab 3e a3 06 a5 3e
       0.4150285 0.34721226 0.3350859 0.32231626
000070 e9 ef af 3e 46 f6 cf 3e d3 37 b6 3e 33 28 8c 3e
       0.34362724 0.4061758 0.35589465 0.2737442
000080 33 34 c0 3e 23 1a a0 3e b7 37 b0 3e 3e 92 a3 3e
       0.37539825 0.3126994 0.34417507 0.3194751
000090 3e 3f af 3e 18 eb e5 3e cf 4b a9 3e bc d9 9b 3e
       0.34227937 0.44905925 0.3306565 0.30439556
0000a0 c6 8c d4 3e e9 28 a3 3e 38 59 aa 3e 22 8c c1 3e
       0.41513652 0.3186715 0.33271194 0.37802225
0000b0 cf 25 e8 3e 6f 3f c4 3e 0c 2a b2 3e fa f1 dc 3e
       0.45341346 0.38329646 0.34797704 0.43153363
0000c0 26 94 ce 3e 5e 92 d9 3e 64 0c b7 3e 55 ec 92 3e
       0.40347403 0.42494482 0.3575164 0.28695932
0000d0 3a 47 9f 3e f1 d3 b3 3e 43 0b bb 3e 55 c2 a1 3e
       0.3110903 0.35122636 0.3653203 0.31593576
0000e0 ed a1 c2 3e b1 f2 ba 3e bd 5e c6 3e ed e4 c3 3e
       0.38014165 0.36513284 0.38744155 0.38260594
0000f0 76 5b e8 3e 3b 4b b1 3e b6 21 ab 3e 22 af b7 3e
       0.4538228 0.3462771 0.33424157 0.35875803
000100 0e 26 e6 3e ab d3 bc 3e ac 35 c6 3e ca c6 b8 3e
       0.44950908 0.3688024 0.38712823 0.36089164
000110 e7 cc 88 3e a1 9c 9b 3e 5e 5a bd 3e 14 b3 b6 3e
       0.26718828 0.30392936 0.36983007 0.356835
000120 9f 12 b6 3e f7 bb bd 3e ce 0b ba 3e 91 b5 d4 3e
       0.35561082 0.37057468 0.3633713 0.41544774
000130 cf fb c9 3e 97 d3 ba 3e 97 fe cc 3e d2 15 9d 3e
       0.39449927 0.36489555 0.40037987 0.3068071
000140 87 af cb 3e 74 41 c3 3e 0a ee af 3e cf e1 b8 3e
       0.39782354 0.38135874 0.34361297 0.36109778
000150 81 3c a8 3e 7d 41 ed 3e 23 25 7a 3e 42 e8 d0 3e
       0.3285866 0.46339026 0.24428229 0.408022
000160 37 0e b1 3e 29 83 d6 3e c9 59 91 3e 66 02 b3 3e
       0.34581158 0.41896942 0.28388813 0.34962767
000170 9c 2e b0 3e 1c e9 b1 3e 03 41 9a 3e 7e 47 c3 3e
       0.3441056 0.3474816 0.30127725 0.38140482
000180 37 c5 b1 3e d3 9c 9d 3e 17 39 b3 3e 7f d5 ce 3e
       0.34720775 0.3078371 0.35004494 0.4039726
000190 a3 31 d6 3e 7b 2b ce 3e 8b f4 cb 3e 9f 63 a1 3e
       0.41834745 0.40267548 0.3983501 0.31521317
0001a0 3a d1 c6 3e 3a af a0 3e 30 52 b1 3e fb df b3 3e
       0.38831502 0.31383687 0.34633017 0.3513182
0001b0 31 cd ac 3e d3 99 f1 3e ee 42 ba 3e 68 b5 a6 3e
       0.337503 0.4718767 0.36379188 0.32560277
0001c0 41 fe c8 3e 50 04 c3 3e 83 1f de 3e 38 d8 b9 3e
       0.3925648 0.38089228 0.43383417 0.36297774
0001d0 31 a2 c4 3e 78 e2 f1 3e df fc b4 3e 93 63 bf 3e
       0.38404992 0.47243094 0.35349175 0.37380657
0001e0 0b 65 c4 3e 96 86 b3 3e fe 17 e3 3e 86 b9 bc 3e
       0.3835834 0.35063618 0.44354242 0.36860293
0001f0 f3 17 be 3e 1f c8 c7 3e e2 1d b3 3e 06 9d c5 3e
       0.37127647 0.39019868 0.34983736 0.38596362
000200 2e 1a c4 3e 03 a7 b8 3e 21 53 aa 3e ee 55 a6 3e
       0.38301224 0.3606492 0.33266547 0.32487434
000210 a5 20 c1 3e 07 74 ac 3e 7e 02 be 3e b1 2c 94 3e
       0.37720218 0.33682272 0.37111276 0.28940347
000220 04 da c8 3e 9a b9 e3 3e 8a fe ab 3e e7 50 eb 3e
       0.39228833 0.4447754 0.33592635 0.4596016
000230 81 bf 8e 3e 8e 70 9e 3e 2a 2d a0 3e 55 d6 a1 3e
       0.2788048 0.30945247 0.31284457 0.31608835
000240 39 93 bd 3e 81 80 e1 3e 3d 6f cc 3e 7a f0 f2 3e
       0.37026384 0.44043353 0.39928618 0.47449094
000250 c0 c6 d2 3e 6e a8 e5 3e 76 36 9f 3e be 81 d7 3e
       0.4116726 0.44855064 0.31096238 0.42091173
000260 7b 29 da 3e e0 5b d3 3e 05 cc 96 3e ea b7 d2 3e
       0.42609772 0.41281033 0.2945253 0.4115594
000270 55 5a bd 3e 74 08 cc 3e 08 4b cd 3e eb 84 c1 3e
       0.3698298 0.398502 0.40096307 0.3779672
000280 c4 2a c4 3e a6 59 c7 3e ae 2d 98 3e 5c 6c c5 3e
       0.38313878 0.38935584 0.2972235 0.38559234
000290 57 5a 93 3e c1 11 bb 3e a6 2d b0 3e 27 ea bb 3e
       0.2877986 0.36536983 0.34409827 0.36702082
0002a0 fa c7 be 3e 70 5f ae 3e d2 76 ce 3e fb 01 e0 3e
       0.37261945 0.34057188 0.40325028 0.4375151
0002b0 49 41 a9 3e 6e 36 c5 3e 42 6a b8 3e 11 ab ca 3e
       0.3305762 0.3851809 0.36018568 0.39583638

bias f4 [176]
000000 d8 35 9a be 83 ac 83 be 23 51 aa be e8 09 8f 3e
       -0.30119205 -0.25717553 -0.33265027 0.27937245
000010 29 1e a7 3e 76 75 90 be 49 14 8a 3e 43 37 87 3e
       0.32640198 -0.28214616 0.269686 0.2640935
000020 2a bc 85 be c8 8b 91 3e 31 c4 84 be 79 96 8d be
       -0.2612012 0.28426957 -0.25930932 -0.27653864
000030 98 a3 a1 3e 71 7b 9a be 69 7a 8a 3e 06 a0 94 be
       0.31570125 -0.30172303 0.27046517 -0.29028338
000040 44 20 85 be b4 89 a1 be 8b 67 a3 3e c3 c7 a2 3e
       -0.2600118 -0.31550372 0.31914935 0.3179303
000050 66 7c 82 be c9 05 8e 3e b4 1b a2 be 46 fc 88 be
       -0.25485533 0.2773879 -0.3166176 -0.2675497
000060 05 7c 8c be 32 17 a0 be 5f 85 85 be ef dd 8e 3e
       -0.2743837 -0.31267697 -0.26078317 0.27903697
000070 81 43 90 3e 71 19 8c be d4 e0 84 3e 07 ac a6 be
       0.281765 -0.2736316 0.2595278 -0.3255312
000080 b0 6a 8f be c4 46 a2 be f6 67 91 be 75 48 96 be
       -0.28011084 -0.31694615 -0.28399628 -0.29352155
000090 13 ef 87 be 78 d1 87 3e 93 d6 85 be 4d 01 88 be
       -0.26549587 0.26527 -0.2614027 -0.26563492
0000a0 c2 d0 92 3e 05 ea 84 be 4b 1a 84 be 1c f3 a9 3e
       0.28674895 -0.25959793 -0.2580131 0.3319329
0000b0 c4 85 ab 3e a5 3f 83 be 63 34 8b 3e 28 6a a7 3e
       0.33500493 -0.25634494 0.27188405 0.32698178
0000c0 a4 ab 86 be 19 81 90 3e 93 a7 91 be 1d b0 88 be
       -0.26302826 0.28223494 -0.2844816 -0.26696864
0000d0 11 8d 83 be 88 d1 88 3e 1c 06 8c 3e b9 9b 8e be
       -0.25693563 0.2672236 0.2734841 -0.27853182
0000e0 82 de 8b be 87 75 99 3e b0 d0 a0 3e 2f 08 a2 be
       -0.27318197 0.2997248 0.31409216 -0.3164687
0000f0 a7 57 96 3e b2 f7 93 be 1b f7 8b be 37 d4 85 be
       0.29363748 -0.28899914 -0.27336964 -0.2613847
000100 7a 05 94 3e f5 5a 8c be 1b 48 89 be cf 75 9b 3e
       0.28910428 -0.27413145 -0.26812825 0.30363318
000110 29 92 9c be 08 e8 90 3e 4c 14 8b 3e 8e ca 8e 3e
       -0.3058026 0.28302026 0.27163923 0.27888912
000120 d7 28 a6 be 55 28 a7 3e 09 e5 8b be 6c 85 85 3e
       -0.32453033 0.32647958 -0.27323177 0.26078355
000130 27 29 9d 3e 4a cd 84 be 99 7e 82 3e ff bd a7 be
       0.3069546 -0.25937873 0.2548721 -0.32762143
000140 32 b1 ae be 8b ab 9e 3e 0c b3 8a be c2 4a 8c be
       -0.34119564 0.30990252 -0.27089727 -0.27400786
000150 3c 68 a6 be 38 c5 a2 3e 8e 74 9a be e9 43 a8 3e
       -0.325014 0.3179109 -0.3016705 0.3286431
000160 f9 de 8c be bb 53 99 3e d9 d4 92 be bf 32 8a 3e
       -0.27513865 0.29946694 -0.28678015 0.2699184
000170 ba 87 85 3e 1b b7 a1 be 99 87 99 be b5 1a 83 3e
       0.26080114 -0.3158501 -0.29986265 0.25606313
000180 0f 8c 9d 3e a5 e0 90 be b7 33 9e 3e c5 a9 a8 3e
       0.3077092 -0.2829639 0.3089883 0.32942024
000190 e6 e2 aa 3e 44 d6 91 be 12 cb aa be f9 f3 8e 3e
       0.33376235 -0.28483784 -0.33358055 0.2792051
0001a0 6b 1d 97 be 60 4b 85 be 37 10 8a be cb 09 82 be
       -0.29514632 -0.2603407 -0.26965496 -0.25398096
0001b0 bb dc a7 be 76 56 9f 3e 69 97 8f be 4e f8 9d be
       -0.3278559 0.31120652 -0.28045204 -0.30853504
0001c0 9e 4e 90 be 11 9f 99 3e 52 00 a4 be 88 d8 9e 3e
       -0.2818498 0.3000417 -0.32031494 0.31024575
0001d0 db cd a6 3e b4 d9 87 be d0 12 a3 3e 5a c6 89 3e
       0.3257893 -0.26533282 0.3185029 0.26909143
0001e0 d1 fb 9f 3e e1 21 83 3e ec db 8f 3e 9f e6 9d 3e
       0.31246808 0.25611785 0.28097475 0.30840012
0001f0 a9 be 90 be bf 1d 85 be 87 d2 a1 3e c4 99 9c be
       -0.28270462 -0.25999257 0.31605932 -0.30586064
000200 57 2d 83 3e e0 1b 8f 3e 3d 41 87 3e a8 e0 95 be
       0.2562053 0.27950954 0.2641696 -0.29272962
000210 f9 50 87 be 44 9c 83 be 68 74 a0 3e f5 a2 8f be
       -0.26428965 -0.2570516 0.3133881 -0.28054014
000220 b8 54 8f 3e d8 51 a0 3e 39 57 97 3e 4a 3e 85 3e
       0.27994323 0.31312442 0.29558733 0.26024085
000230 00 fc a2 be 75 11 87 be f6 6f 82 be ac ff 88 be
       -0.31832886 -0.26380506 -0.25476044 -0.26757562
000240 98 d4 a7 be 7e ef 85 3e 9e 81 8a 3e 16 a6 86 be
       -0.32779384 0.2615928 0.27052015 -0.2629859
000250 fe cf a1 be 06 58 84 3e eb 6b 8e 3e 62 6b 84 be
       -0.31603998 0.25848407 0.2781671 -0.25863177
000260 67 b4 86 3e d4 bf 81 be dd d5 a4 be 2c 83 86 3e
       0.2630951 -0.25341666 -0.32194415 0.2627195
000270 9b 29 9c 3e 0c ab 89 3e 69 b6 9b be d3 e0 81 be
       0.30500492 0.2688831 -0.30412605 -0.2536684
000280 ed ef a7 be 1c cb 94 3e af cd 87 3e 27 f8 96 be
       -0.32800236 0.2906121 0.26524112 -0.294862
000290 20 3a 90 be 4c 15 96 be 3b 75 ad be c8 fd a5 be
       -0.28169346 -0.29313123 -0.33878502 -0.32420182
0002a0 9c b6 97 be 96 55 97 3e 41 0a 83 3e 62 91 94 be
       -0.29631507 0.29557484 0.2559376 -0.29017168
0002b0 a1 1e 83 3e 1c 84 8a be 51 24 97 be 88 c2 88 be
       0.25609306 -0.27053916 -0.29519895 -0.26710916

running_mean f4 [176]
000000 13 18 75 3d a4 dc 0b 3d ae 11 02 3d 1d f2 56 3d
       0.059837412 0.034145966 0.031755142 0.05247699
000010 23 60 cd 3c 29 4a 0c 3d 3c 85 1f 3d 93 57 1a 3d
       0.025070256 0.034250412 0.03894542 0.037681174
000020 70 82 eb 3c 90 17 aa 3c dd 06 11 3d eb de 27 3d
       0.02874872 0.020763189 0.035406936 0.040984076
000030 18 c3 40 3d 35 77 8b 3d 12 13 5d 3c 8e 7f 94 3c
       0.047061056 0.06809846 0.013493316 0.018127229
000040 a1 65 27 3d 8d a5 a3 3c 93 db 63 3d 2d 51 0f 3d
       0.040868405 0.019976402 0.055629324 0.034989525
000050 ce 80 24 3d 55 35 86 3c 9b 04 17 3d ec dd 18 3d
       0.0401619 0.016382853 0.036869626 0.037321016
000060 b0 1a cc 3c fe bd a6 3d 1f ba 1c 3d a0 5d 0e bb
       0.02491507 0.08141707 0.038263436 -0.0021723285
000070 6e 23 3d 3d 99 a5 4c 3d 4d 37 21 3d 0a 73 15 3d
       0.046176367 0.049962614 0.03935938 0.036486663
000080 30 86 a0 3d e4 53 e5 3c d5 06 89 3d 4e e2 85 3d
       0.07838094 0.027994104 0.06690756 0.06537305
000090 86 6b 0a 3d b6 29 41 3d a9 20 16 3d 86 8f 09 3d
       0.03379395 0.04715892 0.03665224 0.03358414
0000a0 d2 47 98 3d ff 0a 14 3d 5d da 41 3c 6d 53 7c 3d
       0.07435574 0.0361433 0.011831847 0.061603
0000b0 c0 5d 1a 3d 0d f7 3f 3d da 36 25 3d 2c 46 90 3d
       0.037687063 0.046866465 0.040335514 0.07044634
0000c0 a0 b8 54 3d 1a 28 56 3c 49 78 ab 3d 01 e1 51 3d
       0.051933885 0.013071084 0.08372552 0.05123997
0000d0 a7 d6 b6 3c c4 48 07 3d 11 96 ec 3c 0e 31 8f 3d
       0.022319151 0.03302838 0.028880151 0.06991778
0000e0 11 51 3d 3d 73 b0 28 3d a2 e4 85 3d 82 5a 67 3d
       0.04621989 0.0411839 0.06537749 0.0564828
0000f0 71 bd a1 3d 74 cb 4f 3d 5d 24 2a 3c db aa 43 3d
       0.07897461 0.050731137 0.010384646 0.047770362
000100 cc 6e 9b 3c 42 01 4b 3d 87 dd df 3c b5 a7 db 3c
       0.01897373 0.049561746 0.027327312 0.026813367
000110 23 cc 20 3c 6c 6a b3 3c 96 fa 49 3d 10 42 05 3d
       0.009814295 0.021901332 0.049311243 0.032533705
000120 5b d2 dc 3d d0 47 1d 3d d6 b7 90 3d b8 56 4c 3c
       0.107823096 0.038398564 0.07066314 0.012471847
000130 7a f2 1b 3d fa 28 50 3d 3a 33 0d 3d d7 a1 27 3d
       0.03807304 0.05082033 0.03447268 0.040925827
000140 77 a2 46 3d 2a f4 8f 3d ab 2a de 3c 4a 3c f1 3c
       0.048494782 0.070289925 0.027119955 0.029447693
000150 9f fb 1d 3c be 5b 09 3d a4 26 13 3d dd 61 2d 3d
       0.009642511 0.033534758 0.035925522 0.042329658
000160 dd 12 2a 3d 5b 21 4b 3d 0f b0 08 3c 46 0e ab 3c
       0.041521896 0.049592357 0.008342757 0.02088083
000170 9f e5 21 3c 8e 66 7b 3c 5d f0 2b 3d 98 4a 0f 3c
       0.009881406 0.015344275 0.041977275 0.008745812
000180 2c f5 b6 3d 41 a3 a6 3c 8a af 01 3d 75 fd 1f 3d
       0.089334816 0.020341517 0.031661548 0.039060075
000190 23 59 97 3d 53 24 e5 3c af 5c f9 3c 61 a6 f6 3c
       0.07390048 0.027971422 0.030439703 0.030108633
0001a0 e6 4d 08 3b 22 30 8b 3d 10 ef 26 3d 7b d5 3d 3d
       0.0020798384 0.0679629 0.04075533 0.04634617
0001b0 45 8b 0f 3d e5 e6 61 3d ac ae 7e 3d e5 08 fd 3c
       0.035044927 0.05515184 0.0621783 0.03088803
0001c0 f6 1b 59 3d 83 51 13 3c 97 80 96 3d bf 96 60 3d
       0.05300518 0.008991602 0.07348745 0.054831263
0001d0 b3 a5 e1 3c 70 da 0b 3d 26 59 10 3d 79 a3 6d 3d
       0.027544832 0.034143865 0.03524127 0.058017228
0001e0 65 10 12 3d 2d 7b ed 3c 1b 70 1a 3d d7 b7 cc 3c
       0.035660166 0.028989399 0.03770457 0.024990005
0001f0 61 28 8e 3d e1 00 ce 3c 09 4c 69 3d 81 eb 2a 3d
       0.069412954 0.025146903 0.05695728 0.0417285
000200 f3 67 ad 3c 12 29 a6 3c fb 3c d2 3c 9e 24 18 3d
       0.02116773 0.020283256 0.025663843 0.037144296
000210 5a 22 39 3d 72 41 b4 3d e5 b7 83 3d a5 7a 0a 3d
       0.045198776 0.08801545 0.064315595 0.03380837
000220 f5 de 22 3c 52 85 78 3c f0 72 12 3d 52 94 69 3d
       0.009940852 0.015168505 0.035754144 0.057026215
000230 49 78 f2 3c a2 fe 59 3d fe 82 80 3d c6 b1 23 3c
       0.029598372 0.053221352 0.06274985 0.009991115
000240 3f a1 27 3d 02 68 9e 3d d9 82 33 3d 24 75 30 3c
       0.04092526 0.07734682 0.043825958 0.010770116
000250 86 02 da 3c c6 d9 00 3d 18 69 36 3d c2 88 42 3d
       0.026612531 0.031457685 0.04453382 0.047493704
000260 dc 2b af 3a 92 26 64 3d 16 08 cb 3c 9f a0 1e 3d
       0.0013364512 0.055700846 0.02478413 0.0387274
000270 56 86 e2 3c 30 0f 03 3d 4f 07 35 3d 7a 74 45 3d
       0.027651947 0.031996906 0.044196423 0.048206784
000280 da f3 23 3d e7 0d 58 3d 46 fb 04 3d be ed 5d 3d
       0.040027477 0.052747633 0.032466196 0.054181807
000290 3a 36 b0 3c 70 7e 02 3d 09 24 b6 3d 49 31 8a 3d
       0.021510232 0.03185886 0.08893592 0.06747682
0002a0 76 8e 43 3c 46 25 6f 3d f2 d5 d8 3c 4a b1 31 3d
       0.011935821 0.058385156 0.026469205 0.043381967
0002b0 2e b1 29 3d 0b 21 75 3d 70 7f 7c 3d 8e cb 6c 3d
       0.041428737 0.059845965 0.06164497 0.057811312

running_var f4 [176]
000000 55 46 35 3e b8 ba 47 3d 00 f1 84 3d 5f b7 bb 3d
       0.17702611 0.048762053 0.064912796 0.09165835
000010 a9 73 cd 3d 13 bf b0 3d 43 b2 ae 3d 6c 7d c6 3d
       0.10031826 0.086301945 0.085300945 0.09691891
000020 53 3d 81 3d 8e 12 6d 3d 5a 7e 65 3d bd ff 9c 3d
       0.06310525 0.057879023 0.0560287 0.07665966
000030 61 41 b1 3d ed 91 d1 3d 83 db 5c 3d d5 0f ed 3d
       0.08655048 0.10232911 0.05392028 0.11575285
000040 5e a1 b1 3d 99 cc ef 3c 15 da 92 3d 12 8f 1b 3e
       0.086733565 0.029272364 0.07170502 0.15191296
000050 fa 09 27 3d fd 33 66 3d bd c7 89 3d f7 3e 3b 3d
       0.040781 0.056201924 0.0672755 0.045714345
000060 8c 37 02 3e b5 25 da 3d f3 39 64 3d d8 cc 0b 3d
       0.12716502 0.10651723 0.055719327 0.0341309
000070 bc ee c7 3d 5d 4d bd 3d cb cf b2 3d d1 77 77 3d
       0.09762332 0.092432715 0.087310396 0.060417
000080 2d 01 02 3e 8f eb 6c 3d 98 8c 7e 3d 86 67 89 3d
       0.12695761 0.057841834 0.0621458 0.06709199
000090 12 86 48 3d 2e 49 e6 3d 9c dc 85 3d 1e 3a 26 3d
       0.048955984 0.11244427 0.065362185 0.04058277
0000a0 da a4 f3 3d d4 74 3b 3d c6 c7 27 3d f6 44 ef 3d
       0.11896677 0.045765713 0.040962003 0.11683075
0000b0 8a 05 64 3e 79 c1 97 3d b9 f2 88 3d b4 f1 59 3e
       0.22267738 0.07409949 0.06686921 0.21283609
0000c0 1a e5 06 3e 07 84 9b 3d f6 7d 08 3e 9f 55 68 3d
       0.13173333 0.075935416 0.133293 0.05672228
0000d0 e4 03 4e 3d 5b 0e 64 3d 54 00 5a 3d f7 75 58 3d
       0.05029668 0.055677753 0.05322297 0.052846875
0000e0 a7 b3 b3 3d 9d 6b bf 3d 85 6e 02 3e 7a 5f 04 3e
       0.087745 0.093466975 0.12737472 0.12927046
0000f0 8f 35 0e 3e 0f a2 b0 3d 11 10 53 3d 60 2f 97 3d
       0.13887618 0.0862466 0.051528994 0.07382083
000100 ed c7 c6 3d 10 f2 01 3e d8 58 a7 3d 22 c2 6c 3d
       0.097061016 0.12689996 0.081712425 0.057802327
000110 f4 b3 e8 3c 63 fd 13 3d 58 3f b1 3d 89 ba 60 3d
       0.02840612 0.03613032 0.0865466 0.054865394
000120 cf 97 f0 3d e1 b1 77 3d ba 49 c7 3d c1 d8 bb 3d
       0.11747705 0.060472373 0.09730859 0.09172202
000130 d6 58 ba 3d 53 9e 89 3d a9 ea af 3d 2f e9 3c 3d
       0.09098975 0.06719651 0.0858968 0.04612082
000140 f2 c6 c3 3d d7 10 e0 3d b2 94 4c 3d 98 4b 92 3d
       0.0955943 0.10940712 0.049946494 0.071433246
000150 9b ed 82 3d c2 39 1f 3e 18 bf 0d 3d 4d 27 0a 3e
       0.06392976 0.15549377 0.03460607 0.13491555
000160 f6 c1 83 3d c2 c9 0a 3e 1b 37 06 3d c7 4b 43 3d
       0.064334795 0.13553527 0.032767396 0.04767969
000170 bc 91 5b 3d 97 f4 87 3d dc d0 2e 3d 41 d4 36 3d
       0.05360578 0.06638449 0.042679653 0.044636015
000180 d4 7c c3 3d 79 5d 27 3d 29 a3 92 3d dc 03 e6 3d
       0.095452935 0.040860627 0.071600266 0.11231205
000190 1d 4a 3f 3e 70 ef 9a 3d 8d af 0e 3e 68 51 40 3d
       0.18680616 0.075652 0.13934155 0.046952635
0001a0 4e d4 80 3d 48 a9 77 3d 67 c6 88 3d 8f e7 52 3d
       0.06290494 0.060464174 0.06678467 0.051490363
0001b0 56 0c 85 3d ae b3 4a 3e 9a e0 c4 3d 79 d6 9e 3d
       0.064964935 0.19795105 0.09613152 0.07755751
0001c0 28 91 dc 3d ab 6b 4f 3d 9a 73 35 3e 8b bd a0 3d
       0.10769874 0.05063979 0.1771988 0.078486525
0001d0 f5 1f 73 3d e2 f9 56 3e d2 fd 9c 3d 1a 6e c3 3d
       0.05935665 0.2099376 0.076656 0.095424846
0001e0 70 54 cc 3d 1a e0 8a 3d 25 98 2a 3e c0 6d 87 3d
       0.09977043 0.06781025 0.16659601 0.0661273
0001f0 a9 bc b8 3d 9f 64 ac 3d 14 a6 86 3d ae c6 cc 3d
       0.09020359 0.084176295 0.06574646 0.09998833
000200 0e fc 9b 3d d1 14 39 3d 46 41 06 3d 70 46 18 3d
       0.07616435 0.045185868 0.032777093 0.03717655
000210 9f de 9d 3d 0b b7 94 3d 2d 9a b6 3d f8 73 22 3d
       0.07708477 0.07261475 0.089161254 0.039661378
000220 d3 2d 9a 3d be ab ca 3d 42 a3 61 3d 98 e0 2f 3e
       0.075282715 0.098960385 0.055087335 0.1717552
000230 6e 4a 26 3d a0 b0 6b 3d b9 be 92 3d 8c 40 12 3d
       0.040598325 0.05754149 0.07165284 0.035706088
000240 36 8a 00 3e d4 71 14 3e 95 c6 ce 3d 68 32 28 3e
       0.12552723 0.14496547 0.1009647 0.16425478
000250 08 9c eb 3d 78 7e d8 3d bb 3a a1 3d dd 71 af 3d
       0.1150437 0.10570997 0.0787253 0.085666396
000260 21 77 b5 3d 03 18 ff 3d 24 b9 25 3d a8 15 0a 3e
       0.08860613 0.12455752 0.040459767 0.13484824
000270 b6 8d dd 3d 25 08 b0 3d 75 6d e7 3d a8 82 97 3d
       0.10818045 0.085953034 0.11300174 0.073979676
000280 d4 7c 0a 3e 5a 43 b2 3d 5f e8 53 3d a2 da c6 3d
       0.1352418 0.087042525 0.05173528 0.0970967
000290 1c 4b db 3c ce 7f d7 3d ae 6d e3 3d 3f c6 ff 3d
       0.026769213 0.10522424 0.11104904 0.12488984
0002a0 b3 b9 5d 3d 96 ba b5 3d 5e 57 a7 3d 48 c2 1d 3e
       0.054132175 0.08873479 0.08170961 0.15406144
0002b0 8a d5 71 3d 28 32 b2 3d 8e 0d 82 3d ab 00 05 3e
       0.059041537 0.08700973 0.063502416 0.12988536

weight f4 [1, 176]
000000 5a 50 61 be 10 2d 72 be 5e aa 67 be 7d b7 66 3e
       -0.22003308 -0.23650002 -0.22623584 0.22530933
000010 4d 76 74 3e a7 b8 5d be f5 d9 69 3e 4c e9 6b 3e
       0.23873253 -0.2165247 0.2283705 0.23038214
000020 1d 68 70 be c3 bb 79 3e 5f f7 6d be 99 70 72 be
       -0.23477216 0.24388032 -0.23238896 -0.23675765
000030 aa 49 79 3e b8 02 71 be fb 00 6c 3e 78 0d 5e be
       0.24344507 -0.23536193 0.23047249 -0.21684825
000040 4f 2d 75 be b1 2e 70 be 60 8d 7a 3e a7 73 6c 3e
       -0.23943065 -0.23455311 0.24467993 0.23090993
000050 04 86 6d be bc 19 70 3e 7a d8 65 be c6 1c 6e be
       -0.23195654 0.23447317 -0.2244586 -0.23253164
000060 a5 e7 5b be cf 44 6b be 0d 4b 65 be c7 58 60 3e
       -0.21475084 -0.22975467 -0.22391911 0.21908866
000070 93 74 76 3e 51 60 60 be 84 d9 6d 3e d7 0b 71 be
       0.24067907 -0.21911742 0.23227507 -0.23539673
000080 72 d2 62 be 89 4c 6c be be fe 5a be 49 90 69 be
       -0.22150591 -0.23076071 -0.21386239 -0.22808947
000090 d4 4a 66 be f0 98 68 3e c6 98 75 be 2a c3 6f be
       -0.22489482 0.22714591 -0.2398406 -0.23414293
0000a0 8d 39 61 3e 6f c8 6f be 18 1c 66 be 5a b0 61 3e
       0.2199461 -0.23416303 -0.22471654 0.22039929
0000b0 70 9e 6a 3e 06 c1 6a be 3d 5f 6e 3e 22 0c 57 3e
       0.22912002 -0.22925195 0.23278518 0.21000722
0000c0 95 17 67 be ce 95 6f 3e ed f8 59 be 9e ef 6c be
       -0.2256759 0.2339699 -0.21286364 -0.23138282
0000d0 0f ca 79 be b3 08 6a 3e b0 ce 67 3e 5f e9 65 be
       -0.24393485 0.22854881 0.22637439 -0.22452305
0000e0 40 17 6d be 77 cd 6a 3e 71 58 5a 3e 9b cc 65 be
       -0.231534 0.22929941 0.213228 -0.22441332
0000f0 3d 92 58 3e 94 a5 6a be 10 99 77 be 13 c9 67 be
       0.21149535 -0.22914726 -0.24179482 -0.22635297
000100 d8 80 49 3e 99 55 62 be 91 08 66 be d3 21 70 3e
       0.19678056 -0.22102965 -0.22464205 0.23450403
000110 92 57 6a be 32 c7 6b 3e 80 71 74 3e 8c d0 72 3e
       -0.22884968 0.23025206 0.23871422 0.23712367
000120 a0 c1 5f be cd 9d 69 3e b5 5f 67 be 3f 9e 68 3e
       -0.21851206 0.22814102 -0.22595103 0.22716616
000130 a1 c9 60 3e d7 46 65 be 21 12 75 3e 76 ac 6a be
       0.21951915 -0.22390305 0.23932697 -0.22917351
000140 dc 6b 63 be 47 b1 72 3e 6e c2 67 be ff 3c 6c be
       -0.22209114 0.23700438 -0.22632763 -0.23070143
000150 00 1b 72 be 83 8a 5d 3e 8e 5a 78 be 4b 1f 5e 3e
       -0.23643112 0.2163487 -0.24253294 0.21691625
000160 41 c0 68 be 90 64 5e 3e 6f 9f 69 be 6c 76 66 3e
       -0.22729589 0.21718049 -0.22814725 0.22506112
000170 e7 23 77 3e f0 23 65 be 05 0b 62 be e1 2b 6a 3e
       0.2413479 -0.2237699 -0.22074516 0.22868301
000180 c4 43 70 3e e1 da 65 be 63 8b 76 3e 96 68 5f 3e
       0.2346335 -0.22446777 0.2407661 0.2181724
000190 ec 3c 5c 3e 43 1b 5c be af 10 6d be 04 df 6d 3e
       0.21507615 -0.21494775 -0.23150896 0.23229605
0001a0 2b 27 5d be 85 17 72 be 46 b5 69 be 2a 9c 6a be
       -0.21596973 -0.23641784 -0.22823057 -0.22911134
0001b0 e9 b8 67 be b9 e5 65 3e 07 45 61 be 65 6b 6b be
       -0.22629131 0.22450913 -0.21998988 -0.22990187
0001c0 87 83 6a be a3 0b 73 3e b4 7a 6c be 9f 68 62 3e
       -0.22901736 0.23734908 -0.23093683 0.22110222
0001d0 4a db 66 3e 65 07 62 be 7e bf 5e 3e 09 dc 6c 3e
       0.2254459 -0.22073133 0.21752736 0.23130812
0001e0 1c 0b 6e 3e 49 6b 73 3e c5 fd 5c 3e e4 76 6d 3e
       0.23246425 0.23771395 0.2158118 0.23189884
0001f0 57 46 69 be 53 f2 6b be e1 fa 62 3e f0 39 68 be
       -0.22780739 -0.23041658 0.22166015 -0.22678351
000200 76 72 79 3e e1 66 68 3e fb 7f 70 3e b3 18 61 be
       0.2436007 0.22695495 0.2348632 -0.21982078
000210 30 0b 5f be 5d 82 6e be 8e a9 6c 3e eb f0 70 be
       -0.21781611 -0.23291917 0.23111555 -0.23529403
000220 d4 93 74 3e e9 fb 52 3e 0a c8 6a 3e 35 e2 60 3e
       0.23884517 0.20603909 0.22927871 0.21961291
000230 a7 7f 6f be 7c b2 64 be 16 64 6f be a9 a4 65 be
       -0.23388539 -0.22333711 -0.23378024 -0.22426094
000240 4b af 65 be 85 37 5c 3e 6f 8b 5b 3e e8 58 5d be
       -0.2243015 0.21505554 0.21439908 -0.21615946
000250 15 97 63 be bd 5f 56 3e 18 b5 72 3e 12 f2 65 be
       -0.22225602 0.20934959 0.23701894 -0.22455624
000260 52 fd 62 3e 21 08 67 be ac da 71 be 2e e4 6c 3e
       0.22166947 -0.22561695 -0.23618573 0.23133919
000270 f3 7f 60 3e cb 1e 70 3e 22 29 61 be dc 87 6e be
       0.21923809 0.23449247 -0.21988347 -0.23294014
000280 38 ce 63 be 0b b2 6a 3e fc 5a 77 3e f4 df 68 be
       -0.22246635 0.2291948 0.24155802 -0.22741681
000290 4d f7 6a be 4f 8f 69 be d2 f6 6b be 96 70 60 be
       -0.229459 -0.22808574 -0.23043373 -0.21917948
0002a0 ac 64 4f be d3 89 70 3e 3d 6e 6c 3e d1 c4 68 be
       -0.20253247 0.23490076 0.23088928 -0.2273133
0002b0 2a d8 70 3e 86 dc 6a be a6 6e 5d be ea 4e 65 be
       0.2351996 -0.22935686 -0.2162424 -0.22393385
