mlruns/528961946943719398/models/m-389af20284304767af33a3f215da10b4/artifacts/data/model.pth (torch, 302126 bytes, 17 tensors)

weight f4 [124]
0.9497552 1.022707 1.0417925 1.0847533 0.8993407 0.97256804 0.910051 0.94855964
0.9550049 0.87035906 1.0080048 0.9927298 0.8564303 0.8760028 0.98890555 0.98146975
1.00795 0.92121786 1.0192058 0.9664986 0.9697202 0.94107354 0.942651 0.99370265
0.9675861 1.0404079 0.9895385 0.97701603 0.95993674 0.9683226 0.9832439 0.99607307
1.0405463 1.0643301 1.1638211 1.0024276 0.9132961 0.9864693 0.86052436 0.93355525
0.8908904 0.9073194 1.0163983 0.9806707 1.0346133 1.0625505 0.9949005 0.8828594
0.923268 0.9793402 0.91817486 0.93206716 0.96648115 0.87633425 0.89002925 0.9304535
0.9055272 0.93832767 0.9176565 0.9489893 0.95747024 0.9274514 0.93530136 1.1832553
0.8437496 0.97856367 0.969288 0.9910049 0.95372057 0.8946383 0.921613 0.8303147
0.96920615 0.9140412 0.9022633 0.96042156 0.89889306 1.0270114 0.92693704 0.93983305
0.92722785 0.95173806 0.9259068 0.9730193 0.92365485 0.9905404 0.9311834 0.9615276
0.9725072 0.93289 0.888735 0.9962344 0.97141254 0.9819113 0.859637 1.0097489
0.89617515 0.92134786 0.8790877 0.932894 1.0364642 0.9078805 0.91072273 0.9186127
0.9519772 1.012294 0.97789276 0.9094925 0.9888243 0.9446 0.9087937 0.995621
0.87298644 0.8793128 1.1514103 0.89554656 0.9055969 1.295886 0.92420197 1.1356019
0.94350576 1.0752872 0.9719525 1.2550819
00000000: 2823 733f 10e8 823f 7559 853f 32d9 8a3f
00000010: 313b 663f 38fa 783f 1af9 683f ced4 723f
00000020: 337b 743f dacf 5e3f 4d06 813f 8a23 7e3f
00000030: 043f 5b3f b841 603f ea28 7d3f 9a41 7b3f
00000040: 8104 813f efd4 6b3f 5675 823f 746c 773f
00000050: 953f 783f 32ea 703f 9351 713f 4c63 7e3f
00000060: b9b3 773f 162c 853f 6552 7d3f b91d 7a3f
00000070: 6abe 753f fde3 773f dfb5 7b3f a5fe 7e3f
00000080: 9f30 853f f83b 883f 17f8 943f 8c4f 803f
00000090: c6cd 693f 4189 7c3f 534b 5c3f 7afd 6e3f
000000a0: 6511 643f 1646 683f 5719 823f 3c0d 7b3f
000000b0: 356e 843f a801 883f cdb1 7e3f 1303 623f
000000c0: 4b5b 6c3f 0ab6 7a3f 820d 6b3f f49b 6e3f
000000d0: 4f6b 773f 7157 603f f5d8 633f 3332 6e3f
000000e0: a1d0 673f 3e36 703f 89eb 6a3f f6f0 723f
000000f0: c51c 753f 746d 6d3f e96f 6f3f e974 973f
00000100: f9ff 573f 2683 7a3f 4223 783f 7fb2 7d3f
00000110: 0827 743f 0407 653f d4ee 6b3f 818f 543f
00000120: e51d 783f 9bfe 693f bafa 663f 30de 753f
00000130: db1d 663f 1c75 833f bf4b 6d3f e698 703f
00000140: ce5e 6d3f 1ba5 733f 3a08 6d3f cb17 793f
00000150: a574 6c3f 0e94 7d3f 0962 6e3f ac26 763f
00000160: 3bf6 783f e1d1 6e3f 2384 633f 3809 7f3f
00000170: 7eae 783f 8a5e 7b3f 2c11 5c3f 743f 813f
00000180: bc6b 653f 74dd 6b3f e40b 613f 24d2 6e3f
00000190: dcaa 843f db6a 683f 2025 693f 342a 6b3f
000001a0: c7b4 733f da92 813f 2e57 7a3f 80d4 683f
000001b0: 9723 7d3f 4ed1 713f b4a6 683f 05e1 7e3f
000001c0: 0a7c 5f3f a51a 613f 6a61 933f 8a42 653f
000001d0: 33d5 673f 98df a53f 8098 6c3f 675b 913f
000001e0: 9889 713f 03a3 893f e1d1 783f 86a6 a03f

bias f4 [124]
-0.002833735 0.059254084 -0.0378247 -0.044679295 -0.09536466 -0.099634685 0.0068095247 -0.04903219
0.062149215 0.033682805 0.007077126 0.014401214 -0.12944807 -0.061151005 -0.04698952 -0.079963274
0.022619022 0.023328353 0.027266562 0.041794155 0.04775738 0.004219287 0.044716135 0.110193506
-0.0034052376 -0.14032009 -0.037891824 -0.027386056 0.033988487 0.10747674 -0.010143813 0.018361045
0.08008578 0.10936194 0.15519345 -0.06926961 0.06874121 -0.008994943 -0.023447255 -0.08071859
0.01249131 -0.035519253 0.05888285 0.048812404 -0.002979802 0.059959017 0.099772066 0.08427815
0.037045304 0.011184213 -0.0035765532 0.036144927 -0.057275634 0.010644713 -0.105625644 -0.039706048
-0.035928372 -0.016694127 0.028425697 0.02252153 -0.06385476 -0.05238082 0.077685095 0.13053507
0.09197373 0.048220325 0.0325662 0.0150013035 -0.11878312 0.035907995 0.11085315 0.024542151
0.07922737 -0.05229529 0.040148754 0.045615524 -0.011511123 0.0163529 0.05773521 0.011842275
0.12372892 0.010984072 -0.120421335 0.034605384 -0.037382618 0.017588114 0.03823535 0.010019229
-0.012069937 -0.011772254 0.014465528 0.17848966 0.13222632 0.06118546 -0.039454956 -0.09229638
-0.08189926 -0.029987184 0.06798005 -0.016978424 -0.17481597 -0.06062206 -0.06850669 0.0069333366
0.0019549828 -0.08990836 0.15074885 -0.05506465 -0.10891373 -0.07480231 0.028258303 0.11753338
0.069313906 -0.06624407 -0.0971065 0.15395035 -0.018232703 -0.18266481 -0.0532788 0.13757615
0.018538972 0.16383213 -0.05779312 -0.2088953
00000000: 2fb6 39bb 69b4 723d 13ee 1abd a301 37bd
00000010: 8c4e c3bd 450d ccbd 6f22 df3b fad5 48bd
00000020: 2d90 7e3d fbf6 093d 3ce7 e73b 12f3 6b3c
00000030: 098e 04be 7a79 7abd 1578 40bd c9c3 a3bd
00000040: 874b b93c 1a1b bf3c 205e df3c 5930 2b3d
00000050: 3e9d 433d f241 8a3b 4428 373d 22ad e13d
00000060: 682a 5fbb 12b0 0fbe 7534 1bbd b958 e0bc
00000070: 8337 0b3d c41c dc3d 3c32 26bc e769 963c
00000080: 0304 a43d 27f9 df3d 08eb 1e3e 3add 8dbd
00000090: 31c8 8c3d 875f 13bc 7514 c0bc ca4f a5bd
000000a0: 5aa8 4c3c a37c 11bd 252f 713d 84ef 473d
000000b0: c848 43bb 9697 753d 4c55 cc3d 069a ac3d
000000c0: d1bc 173d fd3d 373c 9b64 6abb b40c 143d
000000d0: db99 6abd 2a67 2e3c 4252 d8bd cfa2 22bd
000000e0: a129 13bd 1fc2 88bc 02dd e83c 127f b83c
000000f0: 49c6 82bd 458d 56bd 5d19 9f3d fcaa 053e
00000100: b95c bc3d ad82 453d 2364 053d 07c8 753c
00000110: 9044 f3bd 4314 133d fa06 e33d 9f0c c93c
00000120: f641 a23d 9633 56bd 0573 243d 58d7 3a3d
00000130: 2699 3cbc 84f6 853c c17b 6c3d 1a06 423c
00000140: 9765 fd3d 8af6 333c 769f f6bd 60be 0d3d
00000150: 841e 19bd f314 903c ac9c 1c3d b127 243c
00000160: fcc0 45bc 69e0 40bc d200 6d3c fec5 363e
00000170: 5666 073e 9b9d 7a3d 859b 21bd e205 bdbd
00000180: cdba a7bd afa7 f5bc 2039 8b3d 5616 8bbc
00000190: f502 33be d64e 78bd 3c4d 8cbd 0b31 e33b
000001a0: 2b1f 003b e021 b8bd e85d 1a3e 788b 61bd
000001b0: 290e dfbd f431 99bd f57d e73c 57b5 f03d
000001c0: 73f4 8d3d f9aa 87bd c6df c6bd 29a5 1d3e
000001d0: c05c 95bc 7c0c 3bbe df3a 5abd c3e0 0c3e
000001e0: 0bdf 973c 9cc3 273e 7bb8 6cbd a6e8 55be

running_mean f4 [124]
70.69032 10687.536 6.1340823 5.542754 100.21601 3.3934045 3.0807157 3.498412
2.9389966 1.6173898 441.43796 49.55472 578.5391 4.1297493 0.1150139 1167.719
343.23605 8.022031 1518.977 0.41912812 0.077161066 1.570576 0.3769847 2.9041185
1.0499274 3.4870968 6.5300508 0.14363438 0.6141807 1.8293028 1.6943524 1.7526727
470.02872 2.7848837 2.7810848 0.15558285 94.50829 50.358356 24.47726 3.614676
14.955779 5.3284917 0.043959767 44.49 39.262173 25.477219 31.516499 32.38557
3.0841463 1.2346158 0.096731745 0.41089982 0.15829998 0.69973296 0.19022822 0.070815794
0.041621767 0.05347665 0.027484022 0.020257706 0.093621135 0.023121784 0.12791997 0.9403865
0.24166971 0.07754443 0.091122806 0.047245603 0.36550662 0.1421414 0.16627325 0.16759804
0.09691919 0.034039713 0.030301234 0.034283012 0.01461457 0.026016362 0.013918177 0.0223315
0.78874946 0.14445975 0.034091037 0.019966716 0.09368627 0.032576118 0.082082696 0.05327006
0.026101775 0.007865782 0.031107616 0.1594317 0.062404286 0.028326945 0.053959295 0.06922724
0.02431113 0.024083775 0.047511537 0.04106401 0.056744657 0.020339668 0.021977456 0.018298892
0.59213424 0.083395936 0.4366577 0.007293203 0.44085518 0.015523226 0.02098445 0.91332424
0.05716437 0.26423618 0.0649959 0.020827657 0.04018361 0.07266418 0.017894696 0.8782503
0.012888837 0.83534205 0.008494151 0.07344812
00000000: 7261 8d42 25fe 2646 674a c440 3e5e b140
00000010: 996e c842 8a2d 5940 722a 4540 fbe5 5f40
00000020: 8518 3c40 a106 cf3f 0fb8 dc43 0938 4642
00000030: 81a2 1044 e826 8440 688c eb3d 02f7 9144
00000040: 379e ab43 3d5a 0041 44df bd44 f697 d63e
00000050: 9f06 9e3d a208 c93f 2304 c13e 14dd 3940
00000060: 0564 863f 982c 5f40 2df6 d040 e414 133e
00000070: f23a 1d3f 9826 ea3f 8ae0 d83f 9457 e03f
00000080: ad03 eb43 893b 3240 4bfd 3140 1c51 1f3e
00000090: 3f04 bd42 f56e 4942 6ed1 c341 da56 6740
000000a0: df4a 6f41 0183 aa40 280f 343d c3f5 3142
000000b0: 770c 1d42 58d1 cb41 ca21 fc41 d38a 0142
000000c0: a762 4540 e407 9e3f 4b1b c63d 7661 d23e
000000d0: 6419 223e b321 333f 30cb 423e df07 913d
000000e0: 967b 2a3d 550a 5b3d 2c26 e13c 7df3 a53c
000000f0: 70bc bf3d e569 bd3c 74fd 023e 2bbd 703f
00000100: 4478 773e 9dcf 9e3d 989e ba3d 9b84 413d
00000110: af23 bb3e 848d 113e 8943 2a3e d29e 2b3e
00000120: 917d c63d 3a6d 0b3d 4b3a f83c 586c 0c3d
00000130: f371 6f3c 4420 d53c 1109 643c 8df0 b63c
00000140: 7ceb 493f 42ed 133e 0ba3 0b3d 3d91 a33c
00000150: 96de bf3d 896e 053d f91a a83d b531 5a3d
00000160: 64d3 d53c 7bdf 003c 66d5 fe3c 1042 233e
00000170: a39b 7f3d e90d e83c 6c04 5d3d 03c7 8d3d
00000180: 2328 c73c 564b c53c 759b 423d bc32 283d
00000190: 166d 683d 609f a63c 110a b43c 8fe7 953c
000001a0: 1c96 173f 7dcb aa3d 9991 df3e d2fb ee3b
000001b0: c5b7 e13e 2155 7e3c 95e7 ab3c 9ecf 693f
000001c0: 3025 6a3d f749 873e 921c 853d c39e aa3c
000001d0: 9297 243d f5d0 943d e697 923c 03d5 603f
000001e0: b32b 533c fad8 553f 0d2b 0b3c f86b 963d

running_var f4 [124]
524.7178 1.1157337e+08 1.8970472 1.2120469 28693.646 0.33661696 0.13469897 0.7456621
0.2958529 1.1259527 203001.66 27014.635 199588.72 0.9186448 0.16371873 142487.45
190357.67 3326.7083 287689.56 0.26928717 0.0711655 0.29854152 0.24828656 0.74028844
0.0525929 0.45725575 2.6431081 0.40203688 0.42192626 3.35579 0.8043978 0.55461633
45212.52 0.5972163 0.5926683 0.2690701 16847.242 4698.137 5339.181 947.3638
3052.826 2908.566 0.20603348 208529.19 931.5546 425.26 573.0487 234.8058
2.7111046 0.594938 0.14025149 0.34276518 0.27164367 0.2122083 0.15595487 0.06627422
0.045094345 0.063778356 0.026584413 0.01985291 0.08559874 0.022849543 0.22071432 0.06695069
0.27143133 0.14243959 0.08360974 0.0450525 0.23453557 0.12215899 0.13950194 0.13940498
0.086284004 0.032550458 0.029301211 0.032767434 0.014405862 0.025519038 0.013721725 0.022138592
0.16752167 0.1238476 0.032869585 0.01979863 0.08453019 0.03138575 0.07609753 0.05072561
0.025643902 0.007823197 0.030187082 0.13546154 0.058808118 0.027489608 0.051731545 0.06365351
0.02365724 0.023757957 0.045563772 0.039942354 0.053325094 0.020105807 0.021405956 0.017761897
0.2413055 0.07574808 0.24674325 0.0072448994 0.24810919 0.015283684 0.020409513 0.07682714
0.053822447 0.19497201 0.0611061 0.020301394 0.038880333 0.066935964 0.017597761 0.106811166
0.012735582 0.13818356 0.008412814 0.06759077
00000000: f02d 0344 2fcf d44c 71d2 f23f 5a24 9b3f
00000010: 4b2b e046 0f59 ac3e 87ee 093e b6e3 3e3f
00000020: 087a 973e 381f 903f 6a3e 4648 450d d346
00000030: 2ee9 4248 4e2c 6b3f e2a5 273e dd25 0b48
00000040: 6be5 3948 55eb 4f45 3279 8c48 02e0 893e
00000050: 38bf 913d 6fda 983e d53e 7e3e 8b83 3d3f
00000060: a76b 573d 6d1d ea3e af28 2940 c7d7 cd3e
00000070: b806 d83e 43c5 5640 04ed 4d3f 56fb 0d3f
00000080: 859c 3047 2be3 183f 1cb9 173f 8ec3 893e
00000090: 7c9e 8346 19d1 9245 73d9 a645 48d7 6c44
000000a0: 37cd 3e45 0ec9 3545 71fa 523e 4ca4 4b48
000000b0: 7fe3 6844 48a1 d443 1e43 0f44 49ce 6a43
000000c0: bd82 2d40 db4d 183f 169e 0f3e eb7e af3e
000000d0: e114 8b3e 224d 593e a2b2 1f3e c7ba 873d
000000e0: d9b4 383d 3a9e 823d 8ec7 d93c 92a2 a23c
000000f0: 644e af3d f72e bb3c ef02 623e 711d 893d
00000100: 0cf9 8a3e afdb 113e 953b ab3d f888 383d
00000110: 182a 703e 7e2e fa3d 99d9 0e3e 2ec0 0e3e
00000120: abb5 b03d a153 053d 1809 f03c 2537 063d
00000130: 9106 6c3c 4d0d d13c 16d1 603c fe5b b53c
00000140: cd8a 2b3e cfa3 fd3d 42a2 063d bd30 a23c
00000150: 2a1e ad3d 588e 003d 06d9 9b3d a8c5 4f3d
00000160: 2913 d23c de2c 003c e64a f73c 6eb6 0a3e
00000170: c8e0 703d e331 e13c 75e4 533d c55c 823d
00000180: d4cc c13c 0ca0 c23c 14a1 3a3d 989a 233d
00000190: 6a6b 5a3d efb4 a43c 8b5b af3c 6681 913c
000001a0: ca18 773e cf21 9b3d 43aa 7c3e 9f66 ed3b
000001b0: 5610 7e3e 6b68 7a3c da31 a73c 8c57 9d3d
000001c0: ed74 5c3d bea6 473e 644a 7a3d 1c4f a63c
000001d0: fc40 1f3d b915 893d 2e29 903c d0bf da3d
000001e0: e7a8 503c fe7f 0d3e e6d5 093c 086d 8a3d

weight f4 [224, 124]
-0.024641376 0.019664705 -0.015303834 -0.14031139 0.06731306 0.011807587 -0.06151106 -0.041175965
0.09176346 -0.02709138 -0.06713489 -0.04990473 -0.02721299 0.019041756 -0.018444583 -0.193215
-0.09879442 -0.05891599 -0.17300409 -0.06485947 -0.06000695 -0.093715906 -0.0420022 -0.140465
-0.029214539 0.053318366 -0.078560114 0.032536555 -0.050764423 0.021868883 0.03296714 0.006271307
-0.068550505 -0.09125764 0.061245356 -0.024012154 0.0077223307 0.011823512 -0.07318641 0.05288757
-0.050841533 -0.014077043 0.012089141 -0.049334534 -0.0006663554 0.029232496 0.0561555 -0.0048470125
-0.0018191254 -0.10439306 -0.057259217 -0.008737364 -0.0056620454 0.025233446 0.028123831 0.040463712
-0.1136901 0.00017193932 -0.051927116 -0.05614458 -0.010176775 0.07832943 -0.025367955 -0.049540862
-0.018763434 -0.010739599 0.051610447 -0.10659417 -0.0063449363 -0.054608837 0.051699955 0.009055166
0.038247067 0.057952747 0.0032236152 -0.034797575 0.06724822 0.027973702 -0.0531047 -0.0023767794
0.08715055 0.03882023 0.055178024 -0.058784656 -0.01035448 -0.009962658 -0.019504577 0.11024038
0.010176482 0.060045842 0.008179194 0.013652729 -0.0653189 0.06221592 -0.024388786 0.0034788006
0.020873385 0.011749834 -0.025247676 -0.024373652 -0.0683375 0.041884307 -0.059532214 -0.11213281
-0.06061792 -0.052142676 -0.04636556 0.04759278 0.15944397 0.008617368 0.051911578 -0.035704806
0.048577823 -0.079063445 0.017774958 -0.10127479 -0.055568807 -0.15954867 -0.11563643 0.03729213
-0.1087333 -0.0086197015 0.043719567 -0.085956745 -0.014853632 -0.01699899 -0.11661203 0.061204005
-0.015399296 -0.10955202 -0.048081797 0.024190605 0.034206256 0.00069926324 0.0013113592 0.051940702
-0.008562423 -0.07263635 0.00984366 0.049160194 0.095940046 -0.035799634 -0.06678258 -0.044431422
0.091369025 -0.06349188 -0.000524227 0.08037564 -0.041560594 -0.14219038 -0.0045866356 -0.101680145
-0.13378783 -0.0912394 -0.078749135 -0.07692831 -0.07353724 -0.11186499 -0.13101198 0.01131186
-0.046219114 -0.052456383 -0.019030195 0.051725592 -0.10248719 0.0260316 -0.089886636 0.057323296
-0.031375714 0.02621064 0.0037750886 0.08751563 -0.0043167365 0.04719789 0.05661125 -0.0018140951
0.00078573835 0.06958122 -0.04020571 0.01638464 -0.01999453 -0.04620911 0.09004233 0.061320648
0.023748001 -0.019485194 0.0004300596 -0.07871468 -0.051422227 -0.10365332 0.031190868 -0.057397943
0.012866413 -0.056317516 0.0030481152 -0.0481532 -0.03808912 0.018810784 -0.008832637 -0.07353991
0.10754218 0.06295088 0.0533836 0.07156413 -0.113611616 0.03978012 -0.016626857 -0.09407095
-0.0080113355 -0.06896543 0.03400931 0.076958515 0.08914077 0.09072477 0.010433619 -0.05558285
0.08770923 -0.01268369 0.026543694 0.057415403 -0.07281996 0.022821538 0.016386153 0.023084544
0.008128179 -0.03157965 0.036489885 0.052345138 0.10428855 0.00093594973 0.03739523 -0.0076928944
0.0013487346 -0.07552073 0.089872174 -0.04682074 -0.031983957 0.021741841 0.003703288 0.034792896
0.03944615 -0.11730069 -0.013839847 0.04744581 -0.03628997 0.0071506947 0.106093116 0.0006995956
-0.04670406 -0.021382432 -0.10506401 -0.12179834 -0.08401308 0.0027455695 -0.060761157 0.062867805
00000000: b6dc c9bc e017 a13c efbc 7abc caad 0fbe
00000010: 6edb 893d 9c74 413c 05f3 7bbd 21a8 28bd
00000020: 7bee bb3d beee ddbc 047e 89bd e768 4cbd
00000030: c7ed debc 75fd 9b3c 1819 97bc 27da 45be
00000040: bb54 cabd e551 71bd fc27 31be 0bd5 84bd
00000050: d9c9 75bd 20ee bfbd 800a 2cbd 0fd6 0fbe
00000060: 5453 efbc 5c64 5a3d 20e4 a0bd 0d45 053d
00000070: 5bee 4fbd 5f26 b33c 8d08 073d 897f cd3b
00000080: 3564 8cbd 49e5 babd 69dc 7a3d 23b5 c4bc
00000090: 9b0b fd3b 67b7 413c c2e2 95bd a3a0 583d
000000a0: 363f 50bd 66a3 66bc 8811 463c 0213 4abd
000000b0: 5bae 2eba fd78 ef3c 4f03 663d b0d3 9ebb
000000c0: b86f eeba 07cc d5bd a488 6abd 2927 0fbc
000000d0: ae88 b9bb 5fb6 ce3c f363 e63c 47bd 253d
000000e0: 5bd6 e8bd 9c4a 3439 87b1 54bd dcf7 65bd
000000f0: 7dbc 26bc 2e6b a03d 75d0 cfbc 5ceb 4abd
00000100: c6b5 99bc 25f5 2fbc 7a65 533d 0b4e dabd
00000110: 2fe9 cfbb 84ad 5fbd 55c3 533d 1e5c 143c
00000120: f5a8 1c3d dc5f 6d3d 4a43 533b e787 0ebd
00000130: 6fb9 893d 1b29 e53c 5084 59bd bec3 1bbb
00000140: fd7b b23d f601 1f3d 5a02 623d 2ec8 70bd
00000150: d6a5 29bc 6b3a 23bc 10c8 9fbc b5c5 e13d
00000160: 42bb 263c a1f2 753d 0702 063c b2af 5f3c
00000170: eac5 85bd 1fd6 7e3d feca c7bc 97fc 633b
00000180: a9fe aa3c 6082 403c 37d4 cebc 41ab c7bc
00000190: 88f4 8bbd e18e 2b3d 0dd8 73bd e3a5 e5bd
000001a0: 7f4a 78bd 8f93 55bd d0e9 3dbd a6f0 423d
000001b0: 4845 233e dc2f 0d3c 3ca1 543d 343f 12bd
000001c0: 8af9 463d 04ec a1bd ca9c 913c 2869 cfbd
000001d0: 1e9c 63bd ba60 23be cbd2 ecbd a2bf 183d
000001e0: 90af debd a639 0dbc 4a13 333d 170a b0bd
000001f0: a65c 73bc 7741 8bbc 4ad2 eebd 0db1 7a3d
00000200: 544d 7cbc cf5c e0bd 6bf1 44bd 602b c63c
00000210: dc1b 0c3d c34e 373a eae1 ab3a c6bf 543d
00000220: 6849 0cbc 5ec2 94bd 4d47 213c 335c 493d
00000230: 377c c43d a3a2 12bd 4ec5 88bd b9fd 35bd
00000240: af1f bb3d 0808 82bd 476c 09ba fc9b a43d
00000250: 713b 2abd 5b9a 11be 7d4b 96bb ae3d d0bd
00000260: adff 08be b9db babd 3a47 a1bd 978c 9dbd
00000270: b19a 96bd 7919 e5bd 0128 06be 6155 393c
00000280: 4150 3dbd 81dc 56bd 36e5 9bbc 37de 533d
00000290: cee4 d1bd 3940 d53c 7c16 b8bd d5cb 6a3d
000002a0: d283 00bd b2b7 d63c 7a67 773b 653b b33d
000002b0: 6973 8dbb 9352 413d 33e1 673d eec6 edba
000002c0: 02fa 4d3a 9980 8e3d beae 24bd 1539 863c
000002d0: 92cb a3bc c445 3dbd 1d68 b83d 5c2b 7b3d
000002e0: 2b8b c23c 6a9f 9fbc 9f79 e139 2a35 a1bd
000002f0: 1da0 52bd 3148 d4bd fe83 ff3c 1b1a 6bbd
00000300: a6cd 523c 32ad 66bd e3c2 473b 4a3c 45bd
00000310: 5603 1cbd 1319 9a3c c4b6 10bc 189c 96bd
00000320: 133f dc3d 64ec 803d c3a8 5a3d 3790 923d
00000330: 35ad e8bd 7bf0 223d 0c35 88bc 45a8 c0bd
00000340: fa41 03bc bf3d 8dbd 594d 0b3d 6d9c 9d3d
00000350: 708f b63d e9cd b93d c5f1 2a3c d8aa 63bd
00000360: e6a0 b33d 40cf 4fbc 2972 d93c 6a2c 6b3d
00000370: a222 95bd 3cf4 ba3c 413c 863c cc1b bd3c
00000380: 0e2c 053c aa59 01bd 6b76 153d db67 563d
00000390: 3c95 d53d 865a 753a be2b 193d ad14 fcbb
000003a0: 06c8 b03a 9daa 9abd e70e b83d 1bc7 3fbd
000003b0: 9c01 03bd f21b b23c ddb2 723b ff82 0e3d
000003c0: 4992 213d 583b f0bd 87c0 62bc 8a56 423d
000003d0: cba4 14bd 6050 ea3b 5947 d93d 1165 373a
000003e0: c24c 3fbd 362a afbc cd2b d7bd 6871 f9bd
000003f0: 0d0f acbd 03ef 333b b1e0 78bd d6c0 803d

bias f4 [224]
-0.0042099007 -0.045466114 -0.011903702 0.044757165 0.06370771 0.056888767 -0.040016145 0.0024236648
0.00863281 -0.049560167 0.019829514 0.0028286441 -0.12940659 -0.049815934 -0.04016902 -0.056400448
0.031003043 0.1182613 -0.009757076 0.06111457 -0.059594933 -0.11134379 -0.016272351 -0.08716176
0.08711579 -0.03317127 0.039164282 0.033307534 -0.12787376 -0.101837315 -0.059527483 0.029929519
-0.006806612 -0.111093074 0.035415247 -0.15479678 0.08077038 0.038670633 -0.008493095 0.03809842
-0.0536016 0.122160815 -0.01043975 -0.09483887 -0.02826804 0.063560784 0.025481634 -0.010511346
-0.0993239 0.07710942 -0.019810662 -0.019604938 -0.020158624 -0.07080426 -0.004282957 0.07582713
-0.0024603393 0.0045492323 0.009643464 0.01765743 -0.046644468 0.018410565 -0.03849148 -0.13029322
0.0027938706 0.05730025 0.02890333 0.052908853 0.033564422 -0.043602798 -0.08805739 -0.12937649
-0.12561393 -0.07287701 -0.03134319 0.074635744 0.0024780522 0.0046051093 -0.092126176 -0.057590257
-0.03864589 -0.021710243 -0.075975336 -0.0796983 -0.16079648 -0.09118697 0.067483574 -0.039425
-0.08756814 0.040670794 -0.12505983 -0.032353573 0.043075044 -0.033977076 -0.039592218 0.022932524
0.0012216539 0.0726064 0.06099654 0.052376784 -0.09054145 0.014117789 0.034020796 -0.0162985
-0.08662993 0.06728966 -0.0057524 -0.08448427 0.0846494 0.0013501951 -0.10661451 0.075279154
-0.014512092 -0.012735044 0.035632797 -0.09552765 -0.11522355 0.09803748 -0.028868828 0.020391634
0.038962938 0.08145827 -0.019512733 0.036558636 -0.037214626 -0.10586287 0.044014625 -0.007862781
-0.06554792 0.03297876 -0.066162996 -0.036277283 0.028180731 0.031683743 -0.054058842 0.110695876
-0.08320296 -0.032690354 0.0027783874 0.056993116 0.027865894 -0.009929591 -0.038791616 -0.11821115
-0.055101357 0.028246878 0.02685882 -0.060696185 0.09457008 -0.09947244 -0.050820593 -0.015577191
-0.0038709024 -0.01500434 -0.016192911 0.08736093 0.045426082 0.004700488 0.0270851 -0.019755373
-0.09553652 0.048178047 0.1938702 0.03251365 -0.07663387 0.07167332 0.042115003 0.01825587
-0.015116489 -0.045225035 -0.036862142 0.013267023 -0.017069599 -0.09994509 0.0027410164 0.018210981
-0.06638829 0.035539202 0.060370263 0.023972623 0.03507949 0.0918781 0.079742245 0.16048738
-0.019859545 -0.09537635 -0.0016414807 0.117779694 -0.06414625 0.053022947 0.09268485 -0.057851337
0.01363316 -0.0228354 -0.003970848 -0.12862913 0.022244936 0.086091995 0.042197447 -0.12723273
-0.00014062153 -0.11479257 -0.023224836 -0.070639186 -0.03565704 -0.02900301 0.031884838 -0.08529863
-0.036714908 0.036628257 0.053130955 0.019876387 -0.08306856 -0.07768529 0.007775573 0.10127657
-0.0950099 0.02678647 -0.012816166 -0.0074129216 -0.023656266 0.06643845 0.051907703 0.010824061
00000000: 35f3 89bb ad3a 3abd bf07 43bc 4a53 373d
00000010: 3079 823d 3204 693d f8e7 23bd 59d6 1e3b
00000020: a170 0d3c 9aff 4abd 8171 a23c c660 393b
00000030: 2983 04be cb0b 4cbd 4588 24bd 2804 67bd
00000040: 18fa fd3c fb32 f23d 25dc 1fbc 4553 7a3d
00000050: d119 74bd 3708 e4bd 984d 85bc dd81 b2bd
00000060: c369 b23d 99de 07bd ba6a 203d 7b6d 083d
00000070: 57f1 02be 1590 d0bd 17d3 73bd c02e f53c
00000080: 000a dfbb c484 e3bd 940f 113d 0c83 1ebe
00000090: f16a a53d 1965 1e3d 9f26 0bbc 170d 1c3d
000000a0: 5a8d 5bbd 732f fa3d 7c0b 2bbc e23a c2bd
000000b0: 6092 e7bc 282c 823d dcbe d03c c837 2cbc
000000c0: 546a cbbd 8beb 9d3d f849 a2bc 899a a0bc
000000d0: b323 a5bc d301 91bd 0c58 8cbb 414b 9b3d
000000e0: a53d 21bb ba11 953b 9fff 1d3c 51a6 903c
000000f0: 450e 3fbd c1d1 963c 3ea9 1dbd 966b 05be
00000100: 5f19 373b abb3 6a3d adc6 ec3c f4b6 583d
00000110: d97a 093d d998 32bd 6f57 b4bd 457b 04be
00000120: f0a0 00be 8b40 95bd b861 00bd a0da 983d
00000130: d166 223b 75e6 963b a6ac bcbd c3e3 6bbd
00000140: 274b 1ebd aed9 b1bc f598 9bbd dd38 a3bd
00000150: d5a7 24be 3cc0 babd d434 8a3d 1c7c 21bd
00000160: ed56 b3bd 6b96 263d af0f 00be 2e85 04bd
00000170: 756f 303d 8c2b 0bbd 732b 22bd fddc bb3c
00000180: e71f a03a aab2 943d 82d7 793d 0a89 563d
00000190: cc6d b9bd 4d4e 673c 6459 0b3d 6f84 85bc
000001a0: 086b b1bd 29cf 893d a17e bcbb 1706 adbd
000001b0: aa5c ad3d 08f9 b03a b558 dabd f52b 9a3d
000001c0: 20c4 6dbc a5a6 50bc b2f3 113d 00a4 c3bd
000001d0: 53fa ebbd e0c7 c83d 527e ecbc 5b0c a73c
000001e0: 9a97 1f3d 98d3 a63d 2bd9 9fbc 82be 153d
000001f0: 5d6e 18bd a2ce d8bd ae48 343d e5d2 00bc
00000200: fd3d 86bd bc14 073d 7780 87bd 7d97 14bd
00000210: 47db e63c d0c6 013d ce6c 5dbd 85b4 e23d
00000220: 5066 aabd 52e6 05bd 9b15 363b 9d71 693d
00000230: 0447 e43c b9af 22bc f5e3 1ebd b018 f2bd
00000240: f6b1 61bd ff65 e73c 0707 dc3c 909c 78bd
00000250: f5ad c13d 35b8 cbbd 4129 50bd 7937 7fbc
00000260: f7ae 7dbb c3d4 75bc ffa6 84bc 4aea b23d
00000270: b310 3a3d 8d06 9a3b 92e1 dd3c 05d6 a1bc
00000280: a7a8 c3bd 5856 453d e985 463e 082d 053d
00000290: 38f2 9cbd 76c9 923d c880 2c3d 568d 953c
000002a0: 26ab 77bc e33d 39bd c2fc 16bd ed5d 593c
000002b0: 8bd5 8bbc 03b0 ccbd a0a2 333b 322f 953c
000002c0: 95f6 87bd 8e91 113d cf46 773d 3c62 c43c
000002d0: 83af 0f3d 962a bc3d e74f a33d ce56 243e
000002e0: 7cb0 a2bc ad54 c3bd f426 d7ba 7b36 f13d
000002f0: 1c5f 83bd 972e 593d 8ed1 bd3d 86f5 6cbd
00000300: 9e5d 5f3c 4e11 bbbc e31d 82bb 5bb7 03be
00000310: 033b b63c 0051 b03d 3bd7 2c3d 4c49 02be
00000320: ce73 13b9 5e18 ebbd 0342 bebc 47ab 90bd
00000330: 1e0d 12bd b897 edbc ad99 023d 0cb1 aebd
00000340: 5f62 16bd 8307 163d d89f 593d ced3 a23c
00000350: d91f aabd 7719 9fbd 3cca fe3b 176a cf3d
00000360: 8d94 c2bd 4d6f db3c e5fa 51bc 18e8 f2bb
00000370: c9ca c1bc e210 883d 2c9d 543d 6757 313c

weight f4 [224]
0.92678064 0.86920094 0.89627177 0.87973654 0.8595145 0.8684122 0.97872406 0.9245989
0.94071877 1.0189128 0.9672095 0.89557844 1.0476899 0.93413275 0.8833839 0.89406174
0.92049164 0.8873226 0.9071234 1.0012233 0.87073594 0.96284044 0.95855683 0.97857356
0.8986367 0.91403776 0.95598257 0.8870646 0.9199782 0.91300905 0.9888789 0.8542838
0.86240506 0.98608327 0.910901 0.96269405 0.87178546 0.97487974 0.9332391 0.8659788
0.96379524 0.8828079 0.812061 0.9311472 0.9841425 0.87487674 0.8088044 0.8694669
0.8534836 0.9289341 0.93485916 0.99868023 0.90948206 0.9212603 0.9168774 0.8993059
0.97431463 0.9372552 1.059499 0.9595576 0.935959 0.9050309 0.8718799 0.8847681
0.97447175 0.9666092 0.83780575 0.9533574 0.93711287 0.8183931 1.0419352 0.91014177
1.0283934 0.8974198 0.95054144 0.9762869 0.9239216 0.8872638 1.0121326 0.96450275
0.9426763 0.94327784 0.92649364 0.8941664 1.0033728 0.99929 0.99022937 0.8134165
1.0343059 0.9853793 1.0395471 0.8560944 0.9005973 1.0265532 0.92513484 0.89775074
0.9589831 0.9434455 0.81720316 0.9341855 0.87319654 0.9310793 0.93886703 0.97979516
0.8633985 0.96730536 0.92699283 0.9322391 0.86301893 0.92276126 0.9884968 0.9105499
0.962504 0.8504632 1.0038643 0.9415978 0.91372997 0.93527454 0.9799386 0.9492493
0.9042886 0.8770565 0.9524369 0.86988205 1.0171323 1.0649358 0.829788 0.92107904
0.95819914 0.96048623 0.87559426 1.0122688 0.91453046 0.8866505 0.9420936 0.9629488
0.93511534 0.90074074 0.93037456 0.8686071 0.8770119 0.9719926 0.9947498 0.85788345
0.87105316 0.91620374 0.82119274 0.9723115 0.8951624 0.9445925 0.88948035 0.9067963
0.8510563 0.8726189 0.97257674 0.8406243 0.9598819 0.8521755 1.010834 0.9448117
0.9075244 0.9216833 0.9703103 0.9344091 0.92730105 0.9100233 0.8347618 0.9545972
0.91066915 0.9896785 0.9669941 0.9197934 0.99320996 0.9014857 0.9115093 0.91355246
0.90142506 0.9317766 0.9219454 0.98233676 0.95342 0.83636373 0.89548624 0.9464216
0.99976426 0.9541011 0.8899154 0.8651163 1.0012606 0.9413719 0.86473006 0.9553691
0.8336973 0.88986635 0.8714469 1.0173471 1.0260174 0.8925766 0.9247143 0.9889582
1.0251164 0.88190657 0.8080246 0.9752586 0.89287454 0.8998611 0.8741687 0.9741973
1.0389745 0.93780583 1.0359714 0.8535966 1.0090442 0.9916903 0.941709 0.88154453
0.8941695 0.9298434 0.9179718 0.9414725 0.95415187 0.9442584 0.97552836 1.0404527
00000000: 7f41 6d3f f483 5e3f 1172 653f 6a36 613f
00000010: 2409 5c3f 4350 5e3f a98d 7a3f 83b2 6c3f
00000020: f2d2 703f bc6b 823f 0b9b 773f a144 653f
00000030: b41a 863f 5323 6f3f 7325 623f 3be1 643f
00000040: 57a5 6b3f 9327 633f 3d39 683f 1628 803f
00000050: 8de8 5e3f b67c 763f fb63 753f cc83 7a3f
00000060: 0e0d 663f 61fe 693f 46bb 743f aa16 633f
00000070: b183 6b3f f6ba 693f 2b27 7d3f 58b2 5a3f
00000080: 94c6 5c3f f46f 7c3f cf30 693f 1e73 763f
00000090: 552d 5f3f b891 793f c2e8 6e3f c9b0 5d3f
000000a0: 49bb 763f b3ff 613f 3be3 4f3f aa5f 6e3f
000000b0: c3f0 7b3f ecf7 5f3f ce0d 4f3f 6295 5e3f
000000c0: e77d 5a3f a0ce 6d3f ee52 6f3f 82a9 7f3f
000000d0: d1d3 683f b7d7 6b3f 7ab8 6a3f e938 663f
000000e0: af6c 793f f5ef 6f3f aa9d 873f 91a5 753f
000000f0: 029b 6f3f 1bb0 673f 8533 5f3f 2a80 623f
00000100: fb76 793f b373 773f 707a 563f 3b0f 743f
00000110: a1e6 6f3f 3682 513f 225e 853f 0dff 683f
00000120: 65a2 833f 4ebd 653f af56 733f f0ed 793f
00000130: 2086 6c3f b823 633f 908d 813f a7e9 763f
00000140: 3c53 713f a87a 713f b02e 6d3f 17e8 643f
00000150: 856e 803f 78d1 7f3f ac7f 7d3f 103c 503f
00000160: 2364 843f d141 7c3f e10f 853f 0129 5b3f
00000170: 8b8d 663f 1866 833f a3d5 6c3f fed2 653f
00000180: eb7f 753f a585 713f 3a34 513f c826 6f3f
00000190: cf89 5f3f 375b 6e3f 9759 703f dbd3 7a3f
000001a0: af07 5d3f 53a1 773f 674f 6d3f 39a7 6e3f
000001b0: cfee 5c3f 153a 6c3f 200e 7d3f cc19 693f
000001c0: aa66 763f f5b7 593f a07e 803f 8e0c 713f
000001d0: 35ea 693f 276e 6f3f 42dd 7a3f 0102 733f
000001e0: 757f 673f c686 603f e8d2 733f 97b0 5e3f
000001f0: 6431 823f d14f 883f fd6c 543f d6cb 6b3f
00000200: 8a4c 753f 6de2 753f f226 603f 0692 813f
00000210: ab1e 6a3f 87fb 623f 0c2d 713f d083 763f
00000220: b863 6f3f f296 663f 072d 6e3f 095d 5e3f
00000230: da83 603f 82d4 783f eca7 7e3f 409e 5b3f
00000240: 57fd 5e3f 548c 6a3f b039 523f 68e9 783f
00000250: 5d29 653f d0d0 713f fcb4 633f cd23 683f
00000260: d3de 593f f463 5f3f cafa 783f 2733 573f
00000270: d2ba 753f 2c28 5a3f 0263 813f 2edf 713f
00000280: 8553 683f 70f3 6b3f 4166 783f 6f35 6f3f
00000290: 9a63 6d3f 49f7 683f f3b2 553f 7b60 743f
000002a0: 9d21 693f 925b 7d3f ed8c 773f 9577 6b3f
000002b0: 0243 7e3f c4c7 663f ac58 693f 93de 693f
000002c0: cbc3 663f e988 6e3f 9d04 6c3f 6c7a 7b3f
000002d0: 5513 743f ef1b 563f 963e 653f b048 723f
000002e0: 8df0 7f3f f83f 743f 7fd1 633f 4378 5d3f
000002f0: 4f29 803f c0fd 703f f35e 5d3f 1293 743f
00000300: 306d 553f 48ce 633f 2517 5f3f 6e38 823f
00000310: 8a54 833f e67f 643f 14ba 6c3f 5d2c 7d3f
00000320: 0437 833f a1c4 613f b3da 4e3f 8caa 793f
00000330: 6d93 643f 4c5d 663f 85c9 5f3f ff64 793f
00000340: 1efd 843f 0b14 703f b69a 843f 4f85 5a3f
00000350: 5c28 813f 6adf 7d3f d713 713f e7ac 613f
00000360: 4be8 643f 380a 6e3f 3300 6b3f 5704 713f
00000370: 4c43 743f ebba 713f 3abc 793f 8e2d 853f

bias f4 [224]
0.06920504 0.009431075 0.032061342 0.13101119 -0.028550997 0.036953047 -0.041834235 0.005670496
0.07731096 -0.06848278 0.041701134 0.11012459 -0.075206466 -0.06914899 0.035045862 0.0026992813
-0.05568732 0.046614572 -0.105413236 -0.022820735 -0.060462456 -0.012632911 -0.043227337 -0.09121
0.04931428 -0.017125625 -0.008088047 -0.018457558 -0.12397395 -0.12326989 -0.061893784 -0.06111104
0.08320384 -0.03111584 -0.07430275 0.0024858676 0.059894547 -0.11145666 0.04177243 0.012751015
-0.00121884 0.053650897 0.11496221 -0.099304385 0.021585416 0.041550025 0.055027656 0.0068377745
-0.062202152 -0.020245519 -0.020491377 -0.087953456 -0.01886536 -0.07003415 0.047874287 -0.06774432
0.01838667 0.06804145 -0.004347367 -0.103279874 0.0710894 -0.0019502266 0.02987939 -0.061956014
0.10172993 -0.14573246 -0.0378592 -0.08298175 0.07033074 0.036894523 -0.06354672 -0.0936386
-0.063664265 0.0028276087 0.015678797 0.006072325 -0.02100573 0.017608467 -0.1115352 -0.012728351
0.007256787 0.05127027 -0.055726226 0.0726824 -0.06448328 -0.04138369 -0.038602334 0.0336723
-0.13915202 -0.09352895 0.013546673 -0.024579702 0.030875808 -0.0346143 -0.042711414 0.09681955
-0.03457887 0.013746241 -0.052769586 0.013687079 0.020409262 -0.090064175 0.09830777 -0.11142828
-0.010656864 0.041700844 -0.075750604 -0.0715006 0.019811798 -0.08466815 -0.019306187 -0.029262777
-0.15005282 0.017423062 -0.035491664 -0.041809183 -0.08325417 -0.018192448 -0.094391435 -0.028929664
-0.04179076 -0.010532491 0.03457984 0.095811255 -0.15882164 -0.02709223 -0.040139806 -0.03711714
-0.09287001 0.07039138 0.013585146 -0.07368097 0.15911089 -0.055744775 0.006464117 -0.048949324
-0.14682887 0.04983436 -0.07509006 -0.028462393 -0.094075084 -0.14286946 0.043857805 0.0656924
-0.050182644 -0.007070102 -0.085702315 0.016911523 -0.008457436 -0.012610359 0.010211333 -0.022906061
-0.02162492 -0.019844335 0.01812227 0.0062380536 0.043893974 -0.017105294 -0.140234 0.055217538
-0.10367371 0.17401746 0.13864115 -0.09656537 -0.07585822 0.02311728 -0.088548444 -0.09427478
0.028016314 -0.07478052 -0.032398824 0.06193726 -0.13202383 0.0046316814 0.045895774 -0.08457955
0.007982747 -0.09503784 -0.042480394 -0.013802917 -0.15715668 0.014857198 -0.013301433 0.0029750748
-0.0067882957 -0.008233075 0.063512854 0.0027055833 -0.019421687 0.038790394 -0.11865364 -0.11584785
0.0025606218 -0.04852153 -0.03498226 -0.1256017 -0.0150254965 -0.06689269 0.07376222 -0.04173929
-0.12004126 0.038666464 0.025439253 -0.057564627 0.048546027 0.04803846 -0.076717384 -0.07398045
0.037429173 -0.02745087 -0.055610623 0.00545356 0.009706991 -0.039155696 0.015800396 -0.029634573
0.019589113 0.0844575 -0.08048505 -0.07778992 -0.111020595 0.049002104 0.019985469 -0.11473551
00000000: 5fbb 8d3d cc84 1a3c c152 033d cc27 063e
00000010: c8e3 e9bc 145c 173d 605a 2bbd 91cf b93b
00000020: 3555 9e3d b340 8cbd cfce 2a3d 0089 e13d
00000030: d905 9abd fc9d 8dbd 408c 0f3d 6de6 303b
00000040: 6318 64bd ecee 3e3d e5e2 d7bd 8df2 babc
00000050: 7ba7 77bd 45fa 4ebc 260f 31bd 4fcc babd
00000060: c5fd 493d 0a4b 8cbc ba83 04bc 4e34 97bc
00000070: 0ee6 fdbd ed74 fcbd 5684 7dbd 924f 7abd
00000080: c666 aa3d a5e6 febc 0a2c 98bd f0e9 223b
00000090: fc53 753d 6443 e4bd 9119 2b3d a2e9 503c
000000a0: 7cc1 9fba 0bc1 5b3d 4f71 eb3d 1960 cbbd
000000b0: e6d3 b03c 5c30 2a3d ae64 613d 690f e03b
000000c0: afc7 7ebd eed9 a5bc 88dd a7bc f120 b4bd
000000d0: 878b 9abc 106e 8fbd d417 443d 89bd 8abd
000000e0: a49f 963c 5159 8b3d 5c74 8ebb 6684 d3bd
000000f0: 5297 913d bf9e ffba 9fc5 f43c 97c5 7dbd
00000100: c857 d03d e43a 15be 4012 1bbd 56f2 a9bd
00000110: 9009 903d b61e 173d c824 82bd 98c5 bfbd
00000120: 6962 82bd 674f 393b d270 803c 5bfa c63b
00000130: 3514 acbc a23f 903c 916c e4bd 938a 50bc
00000140: 57ca ed3b c600 523d 2f41 64bd 83da 943d
00000150: cf0f 84bd f281 29bd 7b1d 1ebd f7eb 093d
00000160: de7d 0ebe 1b8c bfbd ddf2 5d3c 5f5b c9bc
00000170: 43ef fc3c b9c7 0dbd 2af2 2ebd 5449 c63d
00000180: 93a2 0dbd ea37 613c ec24 58bd c53f 603c
00000190: 5331 a73c 9173 b8bd 9655 c93d 8334 e4bd
000001a0: 219a 2ebc 81ce 2a3d 2223 9bbd e86e 92bd
000001b0: 5a4c a23c 7f66 adbd 0228 9ebc 7eb8 efbc
000001c0: 72a7 19be cfba 8e3c b55f 11bd 1b40 2bbd
000001d0: 2a81 aabd 5408 95bc 4c50 c1bd e7fd ecbc
000001e0: ca2c 2bbd 7890 2cbc 97a3 0d3d b138 c43d
000001f0: 24a2 22be 86f0 ddbc a369 24bd 2408 18bd
00000200: a232 bebd 5b29 903d 3b94 5e3c 0ce6 96bd
00000210: f7ed 223e a254 64bd f2d0 d33b 167f 48bd
00000220: 4f5a 16be 1d1f 4c3d d1c8 99bd f729 e9bc
00000230: 70aa c0bd 5f4c 12be 3ea4 333d bd89 863d
00000240: 518c 4dbd 50ac e7bb b284 afbd 098a 8a3c
00000250: 0f91 0abc ae9b 4ebc 6f4d 273c 7ea5 bbbc
00000260: bf26 b1bc 9690 a2bc 2875 943c 9668 cc3b
00000270: 2bca 333d 6720 8cbc 8099 0fbe c92b 623d
00000280: e252 d4bd a231 323e f2f7 0d3e 11c4 c5bd
00000290: 8e5b 9bbd 7360 bd3c e358 b5bd 2313 c1bd
000002a0: 7882 e53c 8726 99bd a1b4 04bd edb1 7d3d
000002b0: 4131 07be 5cc5 973b 35fd 3b3d 0b38 adbd
000002c0: 11ca 023c 33a3 c2bd ecff 2dbd a125 62bc
000002d0: aeed 20be 9b6b 733c 41ee 59bc 79f9 423b
000002e0: 5a70 debb 05e4 06bc 0713 823d 2850 313b
000002f0: 3b1a 9fbc ade2 1e3d ae00 f3bd a341 edbd
00000300: 1bd0 273b 83be 46bd 8f49 0fbd bb9d 00be
00000310: 802d 76bc 09ff 88bd a610 973d d1f6 2abd
00000320: 31d8 f5bd ba60 1e3d fb65 d03c e3c8 6bbd
00000330: 33d8 463d fac3 443d 011e 9dbd 1083 97bd
00000340: 554f 193d a6e0 e0bc f7c7 63bd c7b3 b23b
00000350: 120a 1f3c b961 20bd d56f 813c 34c4 f2bc
00000360: 5979 a03c 0ef8 ac3d 59d5 a4bd 5250 9fbd
00000370: c45e e3bd 6eb6 483d 91b8 a33c 73fa eabd

running_mean f4 [224]
0.22406808 0.32103854 0.204667 0.4263047 0.23661639 0.23062156 0.15401638 0.34814146
0.20790546 0.23215893 0.24957348 0.2575562 0.18443061 0.22959317 0.37370053 0.27617893
0.21077405 0.27298254 0.17917013 0.18277094 0.09699107 0.14349054 0.17166851 0.21352908
0.19324207 0.14098975 0.2126372 0.31702155 0.23945406 0.17753 0.16517642 0.3432196
0.19133186 0.12421647 0.22484191 0.17952025 0.21600069 0.25323188 0.275786 0.19237304
0.24894226 0.36429372 0.18290606 0.12174036 0.16081244 0.35187125 0.27196968 0.31589887
0.055855937 0.28470844 0.24242821 0.17992866 0.2599099 0.16090316 0.1809875 0.24613577
0.28239456 0.20970115 0.18359292 0.35847867 0.2806256 0.1781299 0.29283375 0.14098574
0.24484678 0.20657219 0.31744614 0.3173799 0.25037044 0.21793044 0.12649177 0.14697056
0.17630105 0.17892869 0.11637541 0.21204844 0.25054193 0.22142006 0.13068444 0.18790284
0.2406043 0.24586205 0.13222224 0.17626557 0.09316834 0.118645035 0.22324298 0.33458465
0.21548782 0.1821585 0.22265135 0.13612248 0.2305028 0.13820198 0.25343338 0.152585
0.20985483 0.23934463 0.27333647 0.21659712 0.24507086 0.28142598 0.38490492 0.1945741
0.14670111 0.17576925 0.20530565 0.17135657 0.22867298 0.19206555 0.11464282 0.23232207
0.13494009 0.2571613 0.2224045 0.11267488 0.045419507 0.34942466 0.19683251 0.23868121
0.27497822 0.37286776 0.30645114 0.24326955 0.26507846 0.22780938 0.24793923 0.18161057
0.123239435 0.2440351 0.11453737 0.16682428 0.27616027 0.18182814 0.21363313 0.2507204
0.121257074 0.19188923 0.22004914 0.25475252 0.22935459 0.20747273 0.17396377 0.09871123
0.12869719 0.22333676 0.20689872 0.11444705 0.21830183 0.10849287 0.24494816 0.16335982
0.20813316 0.15179 0.26988524 0.22845908 0.17220761 0.2202303 0.409143 0.18570875
0.14647119 0.25291842 0.43593535 0.4487473 0.25531393 0.26465183 0.20787106 0.30757624
0.19862251 0.16069847 0.26909524 0.16317083 0.23815629 0.13909258 0.225476 0.29005116
0.18881576 0.1911279 0.27757373 0.19227009 0.17802115 0.2957606 0.271693 0.26608965
0.16725163 0.13060135 0.21030097 0.27928746 0.17383789 0.27949932 0.25435898 0.08959234
0.24887177 0.18167399 0.1823583 0.11641793 0.19334935 0.2873049 0.26234215 0.13777806
0.20579281 0.1360894 0.23230183 0.13828343 0.22649777 0.23277397 0.27554962 0.13818578
0.2784961 0.19138381 0.18264076 0.19154567 0.11272897 0.12640215 0.15518355 0.2807759
0.23794289 0.299969 0.20775695 0.2137539 0.12901826 0.27938083 0.1804173 0.16591279
00000000: 1a72 653e 2a5f a43e 3a94 513e 9c44 da3e
00000010: 914b 723e 0f28 6c3e 78b6 1d3e 993f b23e
00000020: 2be5 543e 12bb 6d3e 3190 7f3e 68de 833e
00000030: 61db 3c3e 791a 6b3e ad55 bf3e 5367 8d3e
00000040: 27d5 573e 5ec4 8b3e 6078 373e 4e28 3b3e
00000050: 41a3 c63d 2fef 123e dfc9 2f3e 5ea7 5a3e
00000060: 40e1 453e 9e5f 103e 91bd 593e a650 a23e
00000070: 7233 753e 6dca 353e 0224 293e 7bba af3e
00000080: 80ec 433e 3465 fe3d f53c 663e 28d4 373e
00000090: 492f 5d3e 9ca7 813e d333 8d3e 70fd 443e
000000a0: b8ea 7e3e b584 ba3e ba4b 3b3e 0353 f93d
000000b0: 04ac 243e 7828 b43e 9c3f 8b3e 7fbd a13e
000000c0: 32c9 643d 4ec5 913e 1a3f 783e 383f 383e
000000d0: e912 853e ccc3 243e ca54 393e 040b 7c3e
000000e0: 0596 903e e6bb 563e c8ff 3b3e 848a b73e
000000f0: 29ae 8f3e af67 363e 4eee 953e 915e 103e
00000100: 1db9 7a3e a987 533e 4d88 a23e 9e7f a23e
00000110: 8e30 803e 2829 5f3e 0f87 013e 737f 163e
00000120: 4388 343e 1539 373e 3b56 ee3d 3a23 593e
00000130: 0847 803e f1bb 623e 24d2 053e 9a69 403e
00000140: f960 763e 43c3 7b3e 4465 073e f67e 343e
00000150: 0bcf be3d 2bfc f23d cf99 643e ae4e ab3e
00000160: d7a8 5c3e c287 3a3e b7fe 633e b163 0b3e
00000170: ed08 6c3e d284 0d3e 05c2 813e 3e3f 1c3e
00000180: 2fe4 563e c216 753e c2f2 8b3e a3cb 5d3e
00000190: dbf3 7a3e 1117 903e 4212 c53e 6f3e 473e
000001a0: d138 163e dbfc 333e a53b 523e 1978 2f3e
000001b0: 4029 6a3e d5ac 443e dbc9 ea3d d6e5 6d3e
000001c0: bc2d 0a3e a5aa 833e 01be 633e 16c2 e63d
000001d0: ce09 3a3d cae7 b23e 768e 493e d968 743e
000001e0: f2c9 8c3e 86e8 be3e 2ae7 9c3e a71b 793e
000001f0: 5db8 873e dd46 693e c8e3 7d3e 1ff8 393e
00000200: f564 fc3d 56e4 793e 9292 ea3d fcd3 2a3e
00000210: e164 8d3e 2831 3a3e a5c2 5a3e 6d5e 803e
00000220: a155 f83d 9c7e 443e 9054 613e ec6e 823e
00000230: eedb 6a3e bb73 543e 8f23 323e 1d29 ca3d
00000240: 32c9 033e 64b2 643e 42dd 533e 3763 ea3d
00000250: 848a 5f3e 8331 de3d b1d3 7a3e cc47 273e
00000260: dc20 553e d66e 1b3e 662e 8a3e 2df1 693e
00000270: 3157 303e 0d84 613e 317b d13e 6f2a 3e3e
00000280: 8bfc 153e 867e 813e eb32 df3e 35c2 e53e
00000290: 82b8 823e 7280 873e 27dc 543e a27a 9d3e
000002a0: b363 4b3e 248e 243e dac6 893e 4116 273e
000002b0: 3edf 733e 496e 0e3e 2ee3 663e 9681 943e
000002c0: eb58 413e 08b7 433e 251e 8e3e 73e2 443e
000002d0: 2d4b 363e ef6d 973e 581b 8b3e e73c 883e
000002e0: 0344 2b3e 5cbc 053e 2359 573e c4fe 8e3e
000002f0: 8f02 323e 891a 8f3e 573b 823e 307c b73d
00000300: 3ed8 7e3e bf08 3a3e 22bc 3a3e 866c ee3d
00000310: 5ffd 453e a119 933e b651 863e b115 0d3e
00000320: 5abb 523e 055b 0b3e 88e0 6d3e 2c9a 0d3e
00000330: 08ef 673e 4d5c 6e3e d714 8d3e 9380 0d3e
00000340: 0a97 8e3e 1efa 433e 2e06 3b3e 8c24 443e
00000350: 72de e63d 916f 013e 70e8 1e3e dcc1 8f3e
00000360: 4da7 733e 8995 993e 3dbe 543e 4de2 5a3e
00000370: 5d1d 043e 010b 8f3e 50bf 383e 0be5 293e

running_var f4 [224]
0.27913758 0.8551996 0.25344145 0.5565992 0.31915852 0.28044048 0.6807926 0.68158925
0.34925318 1.3948598 0.38970152 0.4698203 0.7705767 0.6381725 0.65231866 0.52849287
0.3802675 0.33943316 0.38916215 0.5739927 0.19285914 0.49064976 0.49045286 0.60441977
0.3598265 0.2516509 0.34275728 0.47111654 0.5927369 0.29803923 0.75258064 0.65296596
0.40718243 0.46449754 0.48884732 0.5217436 0.45200762 0.63541836 0.49359897 0.21138991
0.30570537 0.44432995 0.2702374 0.52088517 0.4362134 0.48350602 0.3115755 0.52023876
0.20562483 0.41786122 0.28275964 0.4581328 0.42282474 0.5148327 0.31849942 0.526039
0.41867036 0.4616014 0.62747777 0.95749557 0.43987018 0.37518507 0.45670226 0.54807585
0.4345024 0.637577 0.55416054 0.54628015 0.49093375 0.3112055 0.535436 0.37798238
0.72984314 0.31191972 0.38788608 0.76954854 0.6286485 0.3612461 0.50738955 0.59557873
0.41706946 0.39832824 0.40870658 0.37640494 0.6740283 0.42538545 0.3818632 0.56882924
0.8003166 0.41506597 0.6791473 0.43220502 0.3220549 0.63077366 0.73090255 0.2220799
0.39600497 0.41941905 0.3425089 0.47771508 0.63352853 0.6696382 0.44808114 0.5000895
0.42480034 0.438377 0.41701606 0.538955 0.33412224 0.369955 0.20034301 0.58334464
0.56842047 0.3313473 0.6704817 0.56518507 0.16127284 0.6896806 0.73812824 0.3946658
0.39229193 0.55277675 1.0881864 0.21264754 0.9632784 0.8773232 0.26899087 0.2323984
0.4145219 0.5234564 0.23084627 0.65160483 0.43466443 0.44308016 0.4861537 0.4444638
0.36706597 0.29579908 0.3568104 0.45900396 0.52614254 0.8027248 0.68869644 0.22215405
0.37726498 0.31124848 0.30249658 0.20304269 0.43715185 0.29417172 0.29111487 0.4801001
0.43255407 0.22208655 0.46373597 0.2518343 0.22182022 0.34924406 1.4952732 0.5257225
0.3782362 0.34499124 0.47332332 1.3896435 0.45364812 0.7624181 0.35512212 0.7992617
0.30397007 0.5705285 0.47534406 0.22511177 0.7133304 0.34499052 0.2831084 0.46607637
0.3159497 0.4404729 0.42375973 0.83074415 0.5220976 0.31046918 0.49969366 0.42474547
0.5220751 0.34714934 0.28992 0.264444 0.46173006 0.5362114 0.3649948 0.34924498
0.43459654 0.31602967 0.3660316 0.43406224 0.5314698 0.5771812 0.62038916 0.5873326
0.80120486 0.22601293 0.45268846 0.48520035 0.46781284 0.30164433 0.61322004 0.7136008
0.9320694 0.46211398 0.3852274 0.23104228 0.27908748 0.49647716 0.33528075 0.4332594
0.59636647 0.50982964 0.6920174 0.6502743 0.32673487 0.31608924 0.39980668 0.35263115
00000000: 1feb 8e3e 5cee 5a3f 14c3 813e 497d 0e3f
00000010: bf68 a33e e595 8f3e 6d48 2e3f a27c 2e3f
00000020: 50d1 b23e c48a b23f f586 c73e 498c f03e
00000030: 8444 453f 465f 233f 5bfe 263f 4f4b 073f
00000040: 6cb2 c23e 2fca ad3e 4340 c73e 30f1 123f
00000050: de7c 453e 7236 fb3e a31c fb3e 41bb 1a3f
00000060: 2e3b b83e 63d8 803e e27d af3e 3036 f13e
00000070: 9bbd 173f 9998 983e 20a9 403f c728 273f
00000080: 377a d03e 9fd2 ed3e 324a fa3e fd90 053f
00000090: 8b6d e73e c7aa 223f 01b9 fc3e 9976 583e
000000a0: 6a85 9c3e 377f e33e 8e5c 8a3e bb58 053f
000000b0: 5d57 df3e 1a8e f73e d386 9f3e 5e2e 053f
000000c0: 518f 523e e8f1 d53e dfc5 903e 6290 ea3e
000000d0: 7c7c d83e 13cc 033f 5b12 a33e 7eaa 063f
000000e0: f65b d63e 0557 ec3e 62a2 203f 6e1e 753f
000000f0: aa36 e13e 4218 c03e e1d4 e93e b34e 0c3f
00000100: 1977 de3e 3f38 233f 77dd 0d3f 04d9 0b3f
00000110: ab5b fb3e 5456 9f3e 5512 093f e886 c13e
00000120: 00d7 3a3f f1b3 9f3e 0199 c63e 2201 453f
00000130: 1cef 203f 40f5 b83e 48e4 013f d977 183f
00000140: 218a d53e aef1 cb3e fd41 d13e 26b8 c03e
00000150: 1e8d 2c3f 1fcc d93e 9383 c33e cb9e 113f
00000160: 8ce1 4c3f 8783 d43e 99dc 2d3f fa49 dd3e
00000170: 61e4 a43e 627a 213f 6e1c 3b3f ea68 633e
00000180: 2ac1 ca3e 18be d63e 545d af3e 1297 f43e
00000190: ed2e 223f 696d 2b3f e46a e53e de05 003f
000001a0: 6e7f d93e f372 e03e 2183 d53e f4f8 093f
000001b0: 1212 ab3e be6a bd3e b826 4d3e 1356 153f
000001c0: 0184 113f 5aa6 a93e b0a4 2b3f f8af 103f
000001d0: b524 253e e88e 303f f9f5 3c3f a311 ca3e
000001e0: 7dda c83e c782 0d3f b149 8b3f 47c0 593e
000001f0: 6a99 763f 4198 603f 2cb9 893e d9f9 6d3e
00000200: 373c d43e 3d01 063f f762 6c3e 93cf 263f
00000210: 568c de3e 67db e23e 23e9 f83e c290 e33e
00000220: 12f0 bb3e fa72 973e daaf b63e 9102 eb3e
00000230: 47b1 063f 5f7f 4d3f 694e 303f 5a7c 633e
00000240: e028 c13e f65b 9f3e d5e0 9a3e 6cea 4f3e
00000250: 5ed2 df3e ad9d 963e 020d 953e aecf f53e
00000260: ba77 dd3e a86a 633e cd6e ed3e 6df0 803e
00000270: d724 633e 1ed0 b23e 1d65 bf3f c095 063f
00000280: 2da8 c13e b1a2 b03e 6f57 f23e d7df b13f
00000290: 9144 e83e d52d 433f 91d2 b53e 6a9c 4c3f
000002a0: f7a1 9b3e 280e 123f 4c60 f33e b383 663e
000002b0: d29c 363f 99a2 b03e 96f3 903e 90a1 ee3e
000002c0: 29c4 a13e aa85 e13e 09f7 d83e a6ab 543f
000002d0: 30a8 053f d1f5 9e3e d9d7 ff3e 3d78 d93e
000002e0: b7a6 053f 8fbd b13e 6570 943e 3465 873e
000002f0: e267 ec3e 2645 093f 99e0 ba3e 3dd0 b23e
00000300: 7083 de3e a4ce a13e 7e68 bb3e 683d de3e
00000310: 680e 083f 26c2 133f d3d1 1e3f 6e5b 163f
00000320: c31b 4d3f ef6f 673e c8c6 e73e 2e6c f83e
00000330: 2a85 ef3e 2071 9a3e fdfb 1c3f 8bae 363f
00000340: 1a9c 6e3f 349a ec3e 873c c53e 5996 6c3e
00000350: 8ee4 8e3e 4132 fe3e eba9 ab3e 2dd4 dd3e
00000360: 79ab 183f 3284 023f 0d28 313f 6078 263f
00000370: cb49 a73e 73d6 a13e 76b3 cc3e 128c b43e
