mlruns/528961946943719398/models/m-b4e7c179b2ea42b783ba6be5e1d3ac30/artifacts/data/model.pth (torch, 107595 bytes, 23 tensors)

weight f4 [124]
0	0x3caff5da	0.021479536
1	0x3e13681f	0.14395188
2	0x3d97fc6b	0.07421192
3	0x3d589e0f	0.05288511
4	0x3d10b526	0.035329007
5	0x3c9de49d	0.01927405
6	0x3c12575d	0.008931962
7	0x3d13414e	0.03595095
8	0x3cbfd140	0.023415208
9	0x3d097066	0.033554457
10	0x3d22b067	0.03971901
11	0x3c818ec9	0.015815156
12	0x3c94ebb5	0.0181788
13	0x3cd560d0	0.02604714
14	0x3c8bd47c	0.017069094
15	0x3d3f3b60	0.046687484
16	0x3cb7dc6e	0.022443976
17	0x3d25c58a	0.04047159
18	0x3d972cb0	0.0738157
19	0x3d171f9f	0.03689539
20	0x3be4b12d	0.006979129
21	0x3cea8f6e	0.028632846
22	0x3cd9e16f	0.026596753
23	0x3cd10ac4	0.025517829
24	0x3cf994be	0.030466434
25	0x3cfa79d2	0.030575667
26	0x3d13219d	0.035920728
27	0x3d1789e0	0.036996722
28	0x3d03da51	0.032190625
29	0x3cd280ce	0.025696184
30	0x3ca18d72	0.019720767
31	0x3d45f47f	0.048328873
32	0x3d002c04	0.031291977
33	0x3cb9f703	0.022700792
34	0x3c3f3591	0.011670486
35	0x3c8622ed	0.016374076
36	0x3d06c165	0.03289928
37	0x3c463472	0.012097465
38	0x3ca54ab8	0.02017723
39	0x3ce16551	0.027514132
40	0x3cfc9388	0.030832067
41	0x3dadbc6b	0.084832035
42	0x3d740900	0.059578896
43	0x3d90a674	0.070629984
44	0x3d3e67df	0.046485778
45	0x3d13c858	0.036079735
46	0x3beab28f	0.007162399
47	0x3c3cc6f8	0.011522047
48	0x3cf24695	0.029574672
49	0x3c178387	0.009247667
50	0x3c3d898e	0.01156844
51	0x3c531a91	0.012884752
52	0x3c8ba296	0.0170453
53	0x3c56384b	0.013074945
54	0x3bf0f3c4	0.007353278
55	0x3cd7d525	0.026346752
56	0x3d3bbde3	0.045835387
57	0x3ca11d8d	0.019667411
58	0x3c654284	0.013992909
59	0x3c9da7e5	0.019245097
60	0x3d04cc33	0.032421302
61	0x3c62a7b9	0.0138339335
62	0x3c04be20	0.00810197
63	0x3c2087a3	0.009797963
64	0x3c027b6f	0.007963999
65	0x3c9f005b	0.01940935
66	0x3bfc8714	0.0077065323
67	0x3bf22d65	0.0073906654
68	0x3c4a6671	0.0123535255
69	0x3c3f2e70	0.011668786
70	0x3c6d6c02	0.014491083
71	0x3c06d078	0.008228414
72	0x3c0a80da	0.008453572
73	0x3d662edb	0.05619703
74	0x3d16b13c	0.036790118
75	0x3cbfe032	0.023422334
76	0x3c952e91	0.018210681
77	0x3d844c2b	0.064598404
78	0x3cdf4a7c	0.027257197
79	0x3cd19d9e	0.025587853
80	0x3c7bb205	0.015362267
81	0x3d0ec5e7	0.034856703
82	0x3c87b4b3	0.016565656
83	0x3cc64383	0.024202114
84	0x3c616a79	0.013758295
85	0x3d1d9eef	0.03848165
86	0x3cf62107	0.030045046
87	0x3c1f9720	0.009740621
88	0x3cd105ca	0.025515456
89	0x3d033784	0.032035366
90	0x3c21e37f	0.009880899
91	0x3bbe4d6e	0.00580757
92	0x3bee5a46	0.007273945
93	0x3dbd55cc	0.0924488
94	0x3d907c57	0.07054966
95	0x3c6b02dc	0.014343943
96	0x3c05064f	0.00811918
97	0x3cdde948	0.027088776
98	0x3c04bde0	0.00810191
99	0x3c285114	0.010273237
100	0x3cfb4de6	0.030676793
101	0x3d78ee93	0.060774397
102	0x3ddc98e1	0.10771347
103	0x3d0eab2c	0.03483121
104	0x3bd6b2cf	0.0065520774
105	0x3cad302d	0.021141136
106	0x3be9561f	0.007120862
107	0x3da01db5	0.07818166
108	0x3cfe0904	0.031010158
109	0x3d1f2d77	0.038861718
110	0x3d52629f	0.051363584
111	0x3d08e7bd	0.033424128
112	0x3d270802	0.04077912
113	0x3cb9f00a	0.022697467
114	0x3c406901	0.011743785
115	0x3cbbe1ef	0.022934882
116	0x3c12179d	0.008916763
117	0x3cdcdd33	0.026960945
118	0x3c916d6c	0.017752372
119	0x3c359850	0.011083677
120	0x3c1b6873	0.009485352
121	0x3d095a0b	0.033533137
122	0x3da049b4	0.07826558
123	0x3cef3554	0.029200234

bias f4 [124]
0	0xba155142	-0.0005696007
1	0xba39b5f8	-0.00070843054
2	0xba41abb0	-0.0007387949
3	0xb925b31c	-0.0001580235
4	0xb99fe161	-0.00030494764
5	0xb96ed526	-0.00022776853
6	0x3795bc7e	1.7849958e-05
7	0xb9a3660f	-0.00031165822
8	0x38b8a905	8.805286e-05
9	0xb9c14e0d	-0.0003686998
10	0xba27a2a5	-0.00063947804
11	0xb89036f4	-6.876691e-05
12	0xb89720cf	-7.206352e-05
13	0xb99259e6	-0.0002791427
14	0xb92e1e6f	-0.0001660527
15	0xba363917	-0.0006951256
16	0xb9744eef	-0.00023299058
17	0x3990c366	0.00027611403
18	0xbaa049b0	-0.0012228992
19	0xb9cee539	-0.00039462166
20	0x375452f2	1.2655497e-05
21	0xb9280960	-0.00016025221
22	0xb9886fea	-0.00026023324
23	0xb91bc301	-0.00014854597
24	0x3809a122	3.2813412e-05
25	0xb98484be	-0.00025275903
26	0xb9d14c5e	-0.00039920484
27	0x388d2268	6.7298126e-05
28	0xb9e1e768	-0.00043087755
29	0xb9a84310	-0.00032093422
30	0xb94f2d3e	-0.00019757912
31	0xb9ce0428	-0.00039294478
32	0xba03ca84	-0.00050274306
33	0xb90d5afd	-0.00013480704
34	0x33420500	4.5173692e-08
35	0x389bd979	7.4314834e-05
36	0xb9619d19	-0.00021516196
37	0xb930bc16	-0.00016854735
38	0xb882e0ed	-6.240779e-05
39	0x37e6a6c3	2.7495791e-05
40	0xb9aa69d7	-0.00032503784
41	0xba5dc114	-0.0008459252
42	0xba3a86ad	-0.0007115405
43	0xb80ac1b7	-3.3082175e-05
44	0x39a8fa51	0.00032229957
45	0x399ee4eb	0.00030306666
46	0xb7908717	-1.7229044e-05
47	0xb89b0925	-7.392679e-05
48	0xb9da26ce	-0.00041609112
49	0x376f173f	1.42509225e-05
50	0x3807eb6b	3.240576e-05
51	0xb9244d5c	-0.00015669077
52	0xb8a61bd3	-7.9206795e-05
53	0x386a374c	5.5841447e-05
54	0xb7efd9c3	-2.8592423e-05
55	0xb7cf0672	-2.4679324e-05
56	0x39664743	0.00021961056
57	0x38270950	3.9824576e-05
58	0x37959ede	1.7836162e-05
59	0x3943eb66	0.00018684342
60	0x38ab8609	8.1788814e-05
61	0x3951b8f7	0.00020000698
62	0x38b68449	8.703076e-05
63	0x38dcf518	0.0001053607
64	0x3920545b	0.00015290214
65	0x39dafbe2	0.00041767868
66	0x38a2f511	7.770409e-05
67	0xb89be961	-7.434446e-05
68	0xb8bba5b8	-8.9477224e-05
69	0xb797150f	-1.8010409e-05
70	0x3974cc90	0.00023345859
71	0x382414f6	3.912017e-05
72	0x391da8b6	0.00015035536
73	0xb89f199b	-7.58648e-05
74	0x386933e4	5.5599856e-05
75	0x38d67c44	0.000102274615
76	0xb9818d39	-0.00024710016
77	0xb9e48a22	-0.00043590466
78	0x38b95d4f	8.8388675e-05
79	0x3a0fe88b	0.00054896687
80	0xb91f000e	-0.00015163442
81	0x398d2ab8	0.00026925444
82	0xb8b0b09e	-8.4252315e-05
83	0xb8ec71ad	-0.00011274531
84	0xb82d1b02	-4.1271567e-05
85	0xb91292f7	-0.00013978394
86	0xb944d289	-0.00018770447
87	0x384062d4	4.5868408e-05
88	0x37011e22	7.696015e-06
89	0x3a07cc35	0.00051802705
90	0x389d7e67	7.509888e-05
91	0x3705660a	7.951176e-06
92	0x38211821	3.8407863e-05
93	0xb929361b	-0.00016137252
94	0xb95af65d	-0.00020881878
95	0x3914e7d8	0.00014200748
96	0x37f4ea6b	2.9196226e-05
97	0xb847021e	-4.744727e-05
98	0x3935595b	0.00017294793
99	0x39020e6f	0.00012403143
100	0xb9929ed6	-0.00027965632
101	0x394825e8	0.00019087608
102	0x38fd29b1	0.00012071746
103	0xb9c9c374	-0.0003848333
104	0x371e6f40	9.443436e-06
105	0xb9ca0457	-0.00038531676
106	0x384e9fd0	4.9263064e-05
107	0x3a475d7a	0.00076051767
108	0xb9cf032b	-0.00039484477
109	0x39436958	0.00018635893
110	0xb96afc48	-0.00022409961
111	0xb8607c52	-5.3521544e-05
112	0xb75eeb89	-1.3287071e-05
113	0x39aed089	0.00033343237
114	0x37b624a0	2.1713146e-05
115	0x38be9c10	9.088975e-05
116	0xb84c208e	-4.866771e-05
117	0xba207246	-0.00061205437
118	0xb954f17d	-0.00020307857
119	0x392eb756	0.00016662231
120	0x3855b0a1	5.0947656e-05
121	0xb624cfc0	-2.455883e-06
122	0x39efd62a	0.00045745197
123	0xb9d599fa	-0.00040741247

running_mean f4 [124]
0	0x428c4ab7	70.14593
1	0x4628096d	10754.356
2	0x40c41e0a	6.128667
3	0x40b25c4a	5.5737658
4	0x42cfb0f2	103.8456
5	0x4059350b	3.3938625
6	0x4045b591	3.089207
7	0x405f90ba	3.4932084
8	0x403c5c9f	2.9431531
9	0x3fcfefc2	1.6245043
10	0x43e08c49	449.09598
11	0x42387b1f	46.120235
12	0x440f1843	572.3791
13	0x408436e7	4.131702
14	0x3ddf4305	0.10901455
15	0x4492ed59	1175.4171
16	0x43af9192	351.13727
17	0x40b53e73	5.663873
18	0x44bf86fe	1532.2185
19	0x3edaeac1	0.42757228
20	0x3d734e14	0.059400633
21	0x3fcacb65	1.5843321
22	0x3ec39114	0.38196623
23	0x40398eed	2.8993485
24	0x3f869f5f	1.0517386
25	0x4060e792	3.514134
26	0x40d2a052	6.5820704
27	0x3e24c8ba	0.16092196
28	0x3f201770	0.6253576
29	0x3fee83f4	1.8634019
30	0x3fddefe6	1.7338836
31	0x3fe56dc6	1.7924125
32	0x43ef30ce	478.3813
33	0x40349b23	2.8219688
34	0x40345c90	2.8181496
35	0x3e15166f	0.14559339
36	0x42bff7e6	95.98418
37	0x424a1e60	50.529663
38	0x41ada8e4	21.707466
39	0x408102c6	4.0315886
40	0x41774a0d	15.455579
41	0x403c3075	2.9404576
42	0x3c937771	0.01800129
43	0x424a1177	50.517056
44	0x421bf588	38.989777
45	0x41c81336	25.00938
46	0x41fa686f	31.300993
47	0x41ff7765	31.933298
48	0x4042fd2e	3.0467029
49	0x3f9c2708	1.2199411
50	0x3db7c029	0.089721985
51	0x3ed798ce	0.42108768
52	0x3e264881	0.16238596
53	0x3f341b58	0.70354223
54	0x3e4266c6	0.18984517
55	0x3d920b0d	0.07131014
56	0x3d1b333d	0.03789066
57	0x3d764a3c	0.06012939
58	0x3cfd3f65	0.030914018
59	0x3cac7850	0.021053463
60	0x3db9a31d	0.090643145
61	0x3ca8f176	0.02062295
62	0x3dee8cdb	0.1164796
63	0x3f7455fd	0.9544371
64	0x3e6d9bf8	0.23204029
65	0x3daedffd	0.08538816
66	0x3db5db9a	0.08879776
67	0x3d1e0496	0.038578592
68	0x3eb8d50a	0.36100036
69	0x3e1672f5	0.1469229
70	0x3e230f64	0.1592384
71	0x3e240dda	0.16020909
72	0x3ddb73cf	0.10715448
73	0x3d264041	0.04058862
74	0x3d086495	0.033299047
75	0x3d10492d	0.035226036
76	0x3c82e312	0.015977416
77	0x3cc0392d	0.023464764
78	0x3c8a881d	0.016910607
79	0x3c83071e	0.015994605
80	0x3f4a3529	0.78987366
81	0x3e1874a3	0.14888243
82	0x3d20a440	0.03921914
83	0x3c91c380	0.017793417
84	0x3dcc53ad	0.099768974
85	0x3d1b5bf9	0.03792951
86	0x3d966d54	0.073450714
87	0x3d6524ed	0.05594342
88	0x3cb297b3	0.021800851
89	0x3c0a224a	0.008431027
90	0x3d0d4de7	0.03449812
91	0x3e1dd87e	0.15414616
92	0x3d62372e	0.055228405
93	0x3cdc935c	0.026925735
94	0x3d5996ef	0.053122457
95	0x3da58851	0.08082641
96	0x3cd2e559	0.025744127
97	0x3c8e9050	0.017402798
98	0x3d415633	0.047201347
99	0x3d1a3d19	0.037655924
100	0x3d775145	0.06038024
101	0x3c89da8d	0.016827846
102	0x3ccf83db	0.025331428
103	0x3c91226a	0.017716605
104	0x3f179f1e	0.5922717
105	0x3dbf7ab7	0.09349578
106	0x3edb5569	0.428386
107	0x3bcf783d	0.006331472
108	0x3ee46f71	0.44616273
109	0x3c91630d	0.017747426
110	0x3cca7121	0.024712147
111	0x3f6d4996	0.9269041
112	0x3d80d9ff	0.062915795
113	0x3e85b4ff	0.26114652
114	0x3d598b2a	0.053111233
115	0x3cd9cae2	0.026586
116	0x3d23fb94	0.040034845
117	0x3daa8f06	0.08328061
118	0x3caded4a	0.021231312
119	0x3f5d8e0d	0.8654488
120	0x3c8b16bc	0.016978614
121	0x3f526fa2	0.8220159
122	0x3c270ef3	0.010196435
123	0x3dac3524	0.08408573

running_var f4 [124]
0	0x43f9b982	499.44928
1	0x4ce39bde	1.1933259e+08
2	0x3ff07d70	1.878828
3	0x3f9ddf82	1.2333834
4	0x46eaf87a	30076.238
5	0x3ea9e6bc	0.3318385
6	0x3e04e29c	0.1297707
7	0x3f4244e3	0.7588636
8	0x3e9a9e98	0.30199122
9	0x3f8ff654	1.1247048
10	0x484fdfce	212863.22
11	0x46c896af	25675.342
12	0x48434d00	199988.0
13	0x3f6e7f07	0.9316258
14	0x3e1a7817	0.15084873
15	0x481273b8	149966.88
16	0x483b9a7f	192105.98
17	0x450daef5	2266.9348
18	0x4884a6fd	271671.9
19	0x3e8cbea6	0.27489203
20	0x3d6e3d49	0.058163915
21	0x3e987386	0.29775637
22	0x3e8035f5	0.25041166
23	0x3f25c44e	0.6475266
24	0x3d648930	0.055794895
25	0x3ee0b40b	0.43887362
26	0x40267b93	2.6012924
27	0x3ee0b975	0.43891492
28	0x3ed532cb	0.41640314
29	0x4052072b	3.2816875
30	0x3f4cdeed	0.8002766
31	0x3f0bc0f6	0.5459131
32	0x472d56ec	44374.92
33	0x3f014e15	0.5050977
34	0x3f00658f	0.50154966
35	0x3e8008a3	0.2500659
36	0x4682aff6	16727.98
37	0x459a2e88	4933.8164
38	0x456f4fa9	3828.9788
39	0x44808994	1028.2993
40	0x454317cc	3121.4873
41	0x44d96aa9	1739.3331
42	0x3d92eb4e	0.07173787
43	0x488caa29	288081.28
44	0x446d813f	950.0195
45	0x43d7122c	430.14197
46	0x4412c161	587.02155
47	0x4377ea9c	247.91644
48	0x4030920a	2.7589135
49	0x3f181a0d	0.5941475
50	0x3e090b7f	0.13383292
51	0x3eb1b4d2	0.34708267
52	0x3e8d9093	0.27649364
53	0x3e560925	0.20901926
54	0x3e1decd1	0.1542237
55	0x3d87e55a	0.06635542
56	0x3d2abe68	0.04168549
57	0x3d95258e	0.072825536
58	0x3cf5a232	0.029984567
59	0x3ca92f86	0.020652544
60	0x3da8c817	0.08241289
61	0x3ca59e9e	0.020217236
62	0x3e4822af	0.1954448
63	0x3d6fd987	0.05855706
64	0x3e871079	0.26379755
65	0x3e1f33ed	0.15547152
66	0x3da5e0cd	0.08099518
67	0x3d1836ec	0.037161753
68	0x3e6cbb89	0.23118414
69	0x3e00c6be	0.12575814
70	0x3e0925be	0.13393304
71	0x3e09a459	0.134416
72	0x3dc3cbf6	0.09560387
73	0x3d1fbd56	0.038998924
74	0x3d039c50	0.032131493
75	0x3d0b647f	0.034031387
76	0x3c81153d	0.015757198
77	0x3cbb8931	0.022892566
78	0x3c889a31	0.016675087
79	0x3c811986	0.01575924
80	0x3e2a5c04	0.16636664
81	0x3e021710	0.1270411
82	0x3d1a9470	0.037739217
83	0x3c8f4e49	0.017493384
84	0x3db8339a	0.08994217
85	0x3d15abb9	0.03654072
86	0x3d8b83ea	0.0681227
87	0x3d58b76f	0.05290931
88	0x3caf1cdf	0.021376071
89	0x3c093a8b	0.008375774
90	0x3d0898c4	0.033348814
91	0x3e05d9c4	0.13071352
92	0x3d5513ce	0.05202084
93	0x3cd7192b	0.026257118
94	0x3d4e880d	0.050422717
95	0x3d9846ac	0.074353546
96	0x3ccd51ea	0.025063474
97	0x3c8c4727	0.017123772
98	0x3d37d6b6	0.0448825
99	0x3d149d4a	0.036282815
100	0x3d68ae54	0.056806877
101	0x3c87891b	0.01654487
102	0x3ccaaab8	0.024739608
103	0x3c8e983d	0.017406577
104	0x3e777535	0.24165805
105	0x3dad79d7	0.08470505
106	0x3e7b564a	0.24544635
107	0x3bce64cb	0.0062986366
108	0x3e7da797	0.24770962
109	0x3c8f1e3d	0.017470473
110	0x3cc5bf3f	0.024139045
111	0x3d8a5639	0.06754727
112	0x3d71b26b	0.059008043
113	0x3e45c948	0.19315064
114	0x3d4e2605	0.050329227
115	0x3cd42ada	0.02589934
116	0x3d1d82da	0.038454868
117	0x3d9c8240	0.07642031
118	0x3caa4eb9	0.020789491
119	0x3dee9b4e	0.11650716
120	0x3c88c2a3	0.016694373
121	0x3e157246	0.14594373
122	0x3c2540e3	0.010086271
123	0x3d9deb76	0.07710926

weight f4 [91, 124]
0	0x3a73cd1b	0.00093002775
1	0x3ace4b56	0.0015739005
2	0x3c341f8f	0.010993852
3	0x3c0349e4	0.008013222
4	0xbb8862f7	-0.004162188
5	0x3ab983f0	0.00141537
6	0xb9403171	-0.00018328965
7	0x3b83dbb3	0.004023993
8	0x3a82fd66	0.0009993732
9	0x3b794f84	0.003804178
10	0x3b1304a0	0.0022433177
11	0x3af13709	0.0018403243
12	0x3a9c6cfb	0.0011934334
13	0x3b635870	0.0034690164
14	0x3aa711e3	0.001274642
15	0x3bc442f8	0.0059894286
16	0x3b229769	0.0024809486
17	0x3afde5c4	0.0019370844
18	0x3c17b775	0.009260048
19	0x3b92fc3e	0.004485636
20	0x3967e385	0.00022114634
21	0x3b85f3c4	0.004087897
22	0x3b756117	0.0037441903
23	0x3b872aa3	0.0041249557
24	0xbb494304	-0.003071011
25	0x3b730bc2	0.0037085866
26	0x3bc2ac04	0.005940916
27	0xbbbf5579	-0.0058390466
28	0x3b5e7a31	0.0033947343
29	0x3b4a9edc	0.0030917441
30	0x3b30ddee	0.002698775
31	0x3bf22100	0.007389188
32	0x3b87eea8	0.004148323
33	0x3b35df3a	0.0027751462
34	0x3a8cc4f9	0.0010739855
35	0xbab90305	-0.001411528
36	0x3bad4091	0.005287238
37	0x3a8db3c6	0.0010811023
38	0x3b4a3f34	0.0030860426
39	0x3acbf611	0.0015561004
40	0x3b4a73e9	0.0030891842
41	0xbb0851ed	-0.0020800785
42	0xbbbb33c4	-0.005712958
43	0xba0a20e5	-0.0005269184
44	0xbbd8c790	-0.0066155866
45	0xbbb30b65	-0.005464005
46	0x397d68eb	0.00024167045
47	0x3ac1f83a	0.0014798709
48	0x3b69988e	0.0035643908
49	0x39b04e11	0.000336275
50	0x3b0b3c55	0.0021245677
51	0x37fe2bcb	3.0299552e-05
52	0xbae6ba1a	-0.001760307
53	0xba5c8b12	-0.0008413057
54	0xb995f757	-0.00028603777
55	0x3b5a2cc3	0.003329084
56	0x3aa7b44f	0.0012794825
57	0x3b00231c	0.0019552177
58	0xbac5383b	-0.0015046665
59	0x3a42573f	0.00074135134
60	0xbb869fec	-0.0041084196
61	0x3a090517	0.00052268937
62	0xba0d367c	-0.0005386842
63	0xb8da95cc	-0.00010422952
64	0xb94766ab	-0.00019016366
65	0xbb401c59	-0.0029313772
66	0xba1ca005	-0.00059747725
67	0x38118b23	3.4700275e-05
68	0x3ae6510e	0.0017571764
69	0x3a74efe1	0.0009343606
70	0xbad39255	-0.0016141633
71	0x3a406237	0.0007338854
72	0xb9f92b27	-0.00047525132
73	0x3b3e7662	0.002906226
74	0x3baeef77	0.005338605
75	0xba24962d	-0.00062784815
76	0xba9a5dd7	-0.0011777234
77	0xb9f6660a	-0.000469968
78	0x3a2b7e4d	0.00065419526
79	0xb9c86377	-0.0003822108
80	0x3af822b2	0.0018931238
81	0xbba61cdb	-0.005069358
82	0x3b07a791	0.0020699243
83	0x3b5df49e	0.0033867727
84	0x3add37ac	0.0016877553
85	0x3be62380	0.007023275
86	0xbb89f0ae	-0.0042095995
87	0xba99b817	-0.0011727837
88	0xb87f2cbe	-6.0838407e-05
89	0xbb907b7b	-0.0044092513
90	0xba189092	-0.00058198825
91	0x392b755b	0.00016351549
92	0xb9d46828	-0.00040513393
93	0x3b4b99e0	0.0031067058
94	0x3c2a3fe8	0.010391213
95	0xbaba9f0c	-0.0014238073
96	0xb9f8b50d	-0.0004743714
97	0x39f37647	0.00046436695
98	0xba7061c4	-0.00091698417
99	0xba2bd679	-0.0006555091
100	0x3b950be7	0.004548538
101	0x3bac38d4	0.005255798
102	0x3ab01c3d	0.001343615
103	0xbb0ddd92	-0.0021646959
104	0xb9a53e09	-0.00031517472
105	0xbb64622b	-0.0034848552
106	0xb952cd00	-0.00020103529
107	0x3c442650	0.011972025
108	0x3b8609c6	0.0040905206
109	0x3a87cb78	0.0010360321
110	0xb985747f	-0.00025454533
111	0x3bb2cd65	0.005456614
112	0x3ae981d8	0.0017815186
113	0xbb3c507e	-0.00287345
114	0xb9fa01d8	-0.0004768509
115	0xbb1f48aa	-0.0024304786
116	0xb9fffe45	-0.00048826836
117	0x3b67ccd7	0.0035369897
118	0x3af6f30e	0.0018840746
119	0xba3b42f3	-0.000714346
120	0xba566ba7	-0.00081794936
121	0x3b9a5240	0.004709512
122	0x3b9a2a7a	0.0047047706
123	0x3b530947	0.0032201575
124	0xbb4cdb8c	-0.003125879
125	0xbbfd6919	-0.007733476
126	0xbc2d95ab	-0.010594766
127	0xbbfe8f78	-0.0077685677
128	0x3a2e9131	0.00066592084
129	0xbb18ca17	-0.0023313814
130	0xb9f5334c	-0.0004676826
131	0xbbaa2f90	-0.005193658
132	0xbb3a8cac	-0.0028465195
133	0xbb9de671	-0.0048187305
134	0xbbc5f230	-0.006040834
135	0xbb1e06da	-0.002411297
136	0xba8599c6	-0.0010192923
137	0xbb817d8a	-0.003951733
138	0x3a379bab	0.00070040923
139	0xbc158b77	-0.009127489
140	0xbaf3579e	-0.0018565541
141	0x39b7c257	0.00035049274
142	0xbc4cc20d	-0.012497437
143	0xbbc6b855	-0.0060644546
144	0x39135f60	0.00014054542
145	0xbb82a69e	-0.0039871475
146	0xbb501ba3	-0.0031754754
147	0xbb3897b4	-0.0028166594
148	0x3b237f12	0.0024947566
149	0xbb8bd93f	-0.004267841
150	0xbbb1fb6b	-0.0054315827
151	0x3bd4b120	0.0064908415
152	0xbba0b067	-0.0049038413
153	0xbb80197d	-0.0039092884
154	0xbb127a2b	-0.002235065
155	0xbbba67c0	-0.0056886375
156	0xbba0b558	-0.0049044304
157	0xbb52e98b	-0.003218266
158	0xba9eaf9a	-0.0012106777
159	0x3b3ae789	0.0028519353
160	0xbb953c85	-0.0045543336
161	0xbacecbd0	-0.0015777294
162	0x39064939	0.00012806513
163	0xbb527172	-0.0032111076
164	0xbb30df67	-0.0026988627
165	0xbb32018d	-0.002716157
166	0xbb158f81	-0.002282113
167	0xbac4d21e	-0.0015016233
168	0x3bdfbe98	0.0068281405
169	0x3bb5147b	0.005526123
170	0xb96ab8d7	-0.00022384837
171	0xbaac22f1	-0.0013132972
172	0xbb856bc0	-0.0040716827
173	0xba01367c	-0.0004929078
174	0x3a673101	0.0008819253
175	0xba52eb79	-0.00080459524
176	0x3a821ecd	0.0009927392
177	0x3ae359f2	0.0017345531
178	0xb921c283	-0.00015426618
179	0xbb5fe3a1	-0.0034162777
180	0xb8b8d23c	-8.812963e-05
181	0xba0ed2c8	-0.0005448279
182	0x3accfaad	0.0015638672
183	0x3ae50210	0.0017471928
184	0x3b657baa	0.0035016336
185	0xbb1eea0f	-0.0024248397
186	0x3a88069e	0.0010377949
187	0x38c85b7c	9.5537835e-05
188	0x3a0939c8	0.00052347453
189	0x3b5d3e7a	0.0033759163
190	0x3a9e9854	0.0012099841
191	0xb9b5b457	-0.00034657374
192	0xba5d21eb	-0.0008435535
193	0xbab52084	-0.0013818895
194	0x3b18aa77	0.0023294964
195	0xb99d4023	-0.0002999316
196	0x3a2160f7	0.00061561115
197	0x3b037f98	0.0020065065
198	0xbb9b4675	-0.0047386237
199	0x3baf1f30	0.005344294
200	0x3b843722	0.0040348927
201	0x3aa4569d	0.001253802
202	0x3a19e218	0.00058701774
203	0x3b0b5629	0.0021261072
204	0xbb05d1e4	-0.0020419294
205	0x3bb94c04	0.0056548137
206	0xbb037f39	-0.0020064844
207	0xbb10a635	-0.0022071723
208	0xbac079ae	-0.0014684701
209	0xbbc61c2c	-0.006045839
210	0x3b646838	0.0034852158
211	0x3aac98f0	0.0013168138
212	0x3b394e98	0.0028275605
213	0x3bc4d3a3	0.0060066744
214	0x3a5a0a49	0.00083175726
215	0xba0f7583	-0.00054725277
216	0x3a29dcbd	0.0006479731
217	0x3a999264	0.0011716601
218	0xb9ca46d0	-0.00038581202
219	0x3b080c89	0.0020759425
220	0x391a7af1	0.00014732384
221	0xbac9e9ae	-0.0015404725
222	0x3a30669d	0.0006729158
223	0x3a8326e2	0.0010006095
224	0xbbb7306e	-0.00559049
225	0xbb8d83e0	-0.0043186992
226	0x39ad747d	0.00033083922
227	0x3a44c675	0.0007506379
228	0xb9314c8f	-0.00016908556
229	0xbaecd6f3	-0.0018069431
230	0x39d666a2	0.00040893728
231	0xbbc98c58	-0.0061507635
232	0xbba98ceb	-0.0051742694
233	0x3b3a12fb	0.002839266
234	0xba2742fa	-0.0006380525
235	0xbbc2bfa1	-0.005943254
236	0x3b0af89a	0.0021205307
237	0x3b3b5b55	0.0028588374
238	0x3a4a580b	0.0007718808
239	0x3b17c6a7	0.0023159178
240	0x3a090cf0	0.0005228063
241	0xbb93a026	-0.004505175
242	0xbab52fd0	-0.0013823453
243	0x3a0c5cac	0.00053543854
244	0x3a18c0fc	0.0005827097
245	0xbb813e47	-0.0039441916
246	0xba60fbf2	-0.00085824647
247	0xbba2bf49	-0.0049666506
248	0x3a1a57a9	0.0005887696
249	0xba8665fc	-0.0010253782
250	0x3bc592d7	0.0060294676
251	0x3b7a986f	0.003823783
252	0x3b30c151	0.0026970694
253	0x3ad437f0	0.0016190987
254	0x36fb98e2	7.498181e-06
255	0x3b3ce471	0.0028822685

bias f4 [91]
0	0x3c178bea	0.009249667
1	0x3a38fd54	0.0007056792
2	0x3b0de5d7	0.0021651888
3	0xbb3deac2	-0.0028979038
4	0xbb233638	-0.0024904143
5	0xbbcee8ce	-0.0063143736
6	0xb9c397ce	-0.00037306402
7	0xbaebbfe6	-0.0017986267
8	0x3abb29c9	0.0014279421
9	0xbbb3c9da	-0.005486709
10	0x3ad973c5	0.0016590288
11	0x399c5172	0.0002981532
12	0x3a9ff6cc	0.0012204289
13	0x3b146612	0.0022643846
14	0x3b64048b	0.0034792747
15	0xbb48b30c	-0.0030624298
16	0x3b4ede99	0.0031565784
17	0x3b02c081	0.0019951167
18	0xbba5c31f	-0.0050586606
19	0xbad011a0	-0.0015874393
20	0xb9821c89	-0.00024816793
21	0xb85d3cf8	-5.2747288e-05
22	0xbb8c4b33	-0.0042814254
23	0x3893c21c	7.045662e-05
24	0xb98ac5de	-0.00026468834
25	0x3b866d88	0.0041024126
26	0xbaabb1d8	-0.0013099266
27	0x3ae96de2	0.0017809237
28	0x3b45160f	0.0030072962
29	0x3bdb06f7	0.00668418
30	0x3b695106	0.0035601272
31	0x3a356aa3	0.0006920492
32	0x3ae136e5	0.0017182498
33	0x3ab5852d	0.0013848894
34	0x3b834d80	0.0040070415
35	0xbb11ca1b	-0.0022245708
36	0xbc142d10	-0.009043947
37	0xbba9da99	-0.0051835296
38	0x3b2569aa	0.0025239983
39	0xb936ebec	-0.0001744476
40	0xbb363ed3	-0.0027808442
41	0x3aa3ce37	0.001249737
42	0xbbba72c8	-0.0056899525
43	0x3a8ab113	0.0010581337
44	0x3b1b31c6	0.002368079
45	0x3af5c182	0.0018749686
46	0xbbb8084f	-0.005616225
47	0xbb212c1c	-0.0024592942
48	0xbbef75d2	-0.0073077464
49	0xba8b81f4	-0.0010643587
50	0x3b0caaee	0.0021464187
51	0x3b0bb76f	0.0021319052
52	0x3b6dcaf2	0.0036284295
53	0x3b847368	0.004042078
54	0x3a8063b1	0.0009795335
55	0x3b820568	0.0039679296
56	0x3a9784b9	0.001155994
57	0x3a94d7b4	0.0011355788
58	0x3b460a98	0.0030218717
59	0xba201830	-0.000610712
60	0x3aff5b30	0.0019482132
61	0x3b51b448	0.0031998325
62	0x3b2d5549	0.002644854
63	0x3a674468	0.0008822144
64	0xb9b866d2	-0.00035171822
65	0xbb5139b1	-0.0031925256
66	0xbb546391	-0.003240798
67	0x39acc0a3	0.00032949922
68	0x3ac3909d	0.0014920417
69	0xba9f6c3f	-0.0012162997
70	0x3aa8ad91	0.001286911
71	0x3a8c8b74	0.0010722713
72	0x3ba98702	0.005173565
73	0xba097f21	-0.0005245079
74	0xbafc7f4d	-0.0019264013
75	0x39160a67	0.0001430899
76	0x3bf47f20	0.0074614435
77	0x3ba7784f	0.0051107774
78	0xbb82ac10	-0.0039877966
79	0xb9d12c94	-0.000398968
80	0x3ae21534	0.0017248751
81	0xb8a7fda2	-8.010423e-05
82	0x3bd64958	0.006539505
83	0x3b15af80	0.0022840202
84	0xb9f6aaa6	-0.0004704792
85	0x3b1a19b7	0.0023513862
86	0xbbc7042b	-0.006073495
87	0x3a0bd126	0.0005333595
88	0xba423634	-0.00074085896
89	0x3baeb14d	0.0053311945
90	0x3a32f6c7	0.0006826934

weight f4 [91]
0	0x3ce698e4	0.028149076
1	0x3d02175e	0.031760566
2	0x3c962233	0.018326854
3	0x3cfe4aef	0.03104159
4	0x3d288401	0.041141514
5	0x3d106977	0.03525683
6	0x3cdde61f	0.02708727
7	0x3ca4683f	0.02006924
8	0x3d155f8d	0.036468077
9	0x3cc431a4	0.023949452
10	0x3c3410b9	0.010990315
11	0x3cda5d85	0.026655922
12	0x3c93427c	0.017976038
13	0x3cb1feb8	0.021727905
14	0x3cdada42	0.026715402
15	0x3ced7537	0.028986556
16	0x3cb040eb	0.02151533
17	0x3d07a8c8	0.033119947
18	0x3d1065ab	0.035253208
19	0x3cd95a56	0.026532333
20	0x3ccde693	0.02513436
21	0x3cc66763	0.02421922
22	0x3cfd3acb	0.030911824
23	0x3caa3483	0.020776993
24	0x3d010762	0.03150118
25	0x3d1fa5d9	0.038976524
26	0x3c989662	0.018626396
27	0x3c6af549	0.014340707
28	0x3c8f28e0	0.017475545
29	0x3cb3b43c	0.021936528
30	0x3ccbe143	0.024887687
31	0x3d36ddbc	0.044645056
32	0x3cf5c14f	0.029999403
33	0x3cf74aba	0.030187
34	0x3cc0f538	0.02355443
35	0x3d1f87b3	0.038947772
36	0x3cbec3d2	0.023286734
37	0x3ce125bf	0.027483819
38	0x3ce2e8c3	0.02769888
39	0x3c8c6371	0.017137261
40	0x3d0020a6	0.031281136
41	0x3cd4266c	0.025897227
42	0x3ca81624	0.02051837
43	0x3d160521	0.036625985
44	0x3ccfb431	0.025354477
45	0x3cc01e01	0.023451807
46	0x3cf6cdc4	0.030127414
47	0x3cbfaa11	0.023396524
48	0x3c9084e2	0.017641488
49	0x3c551ef9	0.013007873
50	0x3ce7d19f	0.028298197
51	0x3d08159b	0.03322373
52	0x3cdc5c67	0.02689953
53	0x3ced4ce6	0.028967332
54	0x3d03cec8	0.032179624
55	0x3cc0fca1	0.023557963
56	0x3cf60794	0.03003291
57	0x3cfbce4c	0.030738018
58	0x3c6bbb9a	0.014387989
59	0x3d0a8376	0.033816777
60	0x3cf6b7c9	0.030116932
61	0x3c866659	0.016406225
62	0x3cfc7636	0.030818086
63	0x3d2b2023	0.041778695
64	0x3cfc8525	0.030825207
65	0x3c455359	0.012043797
66	0x3cd47f9c	0.025939755
67	0x3cdd581f	0.027019558
68	0x3cd06dc4	0.025442965
69	0x3cf8cfab	0.030372461
70	0x3ca29347	0.019845618
71	0x3cf02e86	0.02931906
72	0x3cf9e72d	0.030505741
73	0x3c8b91f6	0.017037373
74	0x3cb07c3f	0.02154362
75	0x3c97b45e	0.018518623
76	0x3cf08084	0.029358156
77	0x3d10e23f	0.035372015
78	0x3cc208bd	0.023685807
79	0x3cb9b9c2	0.022671584
80	0x3ce12f4b	0.027488371
81	0x3c9f8ea9	0.019477205
82	0x3cd09214	0.02546028
83	0x3cc50349	0.024049418
84	0x3d17865e	0.036993377
85	0x3ca83b57	0.020536108
86	0x3d06a6c0	0.03287387
87	0x3cf9e052	0.030502472
88	0x3cf2cfe0	0.029640138
89	0x3cf16067	0.029464914
90	0x3d17854c	0.036992356

bias f4 [91]
0	0xba0279df	-0.00049772667
1	0xb73776e4	-1.0935331e-05
2	0x3777db30	1.4773381e-05
3	0xb981da33	-0.00024767368
4	0xb9ffddc3	-0.00048802615
5	0x38003990	3.0571187e-05
6	0x39ead615	0.00044791462
7	0x393a9c7c	0.00017796637
8	0xb9576794	-0.00020542584
9	0x3a6c4510	0.00090129767
10	0xb9703bc8	-0.00022910454
11	0xb94ee492	-0.0001973084
12	0x390cee49	0.00013440209
13	0x3a21919f	0.0006163362
14	0x39f1669f	0.0004604356
15	0xb8ef3dd4	-0.000114079245
16	0x3640f440	2.8752402e-06
17	0xb98cba94	-0.00026841892
18	0xb81b05d4	-3.6960308e-05
19	0x39c51eea	0.000375978
20	0x39cbf330	0.00038900366
21	0xb9cbaefd	-0.00038849554
22	0x39d8c59a	0.00041345955
23	0xb929df23	-0.00016200221
24	0xb882a262	-6.229129e-05
25	0x399ceb02	0.00029929733
26	0x396db424	0.00022669189
27	0x373b240c	1.1154461e-05
28	0xb97d9d63	-0.00024186591
29	0x3a0bb58e	0.0005329483
30	0xb9516ca4	-0.00019972265
31	0x39418839	0.00018456661
32	0x39b511c0	0.00034536235
33	0xb994d8d6	-0.00028390315
34	0x3960e692	0.00021448199
35	0xb899c039	-7.331413e-05
36	0x35295f00	6.309565e-07
37	0xb8b1cf38	-8.478615e-05
38	0xb90c63f6	-0.00013388679
39	0x398859d3	0.00026006866
40	0x3a12f0f8	0.0005605365
41	0x39a80be9	0.0003205233
42	0x37ef02f3	2.8492394e-05
43	0xb90b4b2a	-0.00013284074
44	0x38a4cc3b	7.85817e-05
45	0xba0b51ae	-0.00053146004
46	0xb9274f88	-0.00015955989
47	0x390028b5	0.00012222196
48	0xb98910be	-0.0002614315
49	0xba46e865	-0.000758773
50	0x3a141144	0.0005648325
51	0x3990608c	0.00027537753
52	0xb4da7b00	-4.0695159e-07
53	0xb8984576	-7.260863e-05
54	0x3a5e13ab	0.00084715587
55	0xb9a649dc	-0.00031717017
56	0xb9819aea	-0.00024720217
57	0x39be2ff6	0.00036275358
58	0x39c869ce	0.00038225803
59	0x3963379e	0.00021669126
60	0xba163765	-0.00057303003
61	0x38f7d61a	0.00011817757
62	0xb99247f7	-0.00027900908
63	0x396ca7ac	0.00022569177
64	0x3a1098cb	0.0005515932
65	0xb8423478	-4.630207e-05
66	0xb9a03cc2	-0.00030562846
67	0xb936fb44	-0.00017450476
68	0x3934bb51	0.00017235918
69	0xb947213e	-0.00018990503
70	0x39885de7	0.00026009904
71	0xba141917	-0.00056494906
72	0x3a4972de	0.0007684658
73	0xb9b31226	-0.00034155062
74	0x3926546a	0.0001586244
75	0xb9225f4a	-0.00015485022
76	0xb9568eed	-0.00020461874
77	0x39b5300a	0.00034558802
78	0xb8a8e322	-8.053171e-05
79	0x39f14ca0	0.00046024192
80	0xb9265f0e	-0.00015866404
81	0xb8c1e332	-9.2452756e-05
82	0xb91f0429	-0.00015164971
83	0x39196b94	0.00014631293
84	0xb8c6887a	-9.4667965e-05
85	0xb8e315be	-0.00010828253
86	0x395add4f	0.00020872544
87	0xb95e874d	-0.00021221973
88	0xb8ab7443	-8.175571e-05
89	0x37df1ae4	2.6596193e-05
90	0x3995d31a	0.00028576778

running_mean f4 [91]
0	0x3b4c8bf3	0.0031211346
1	0xbacb6bfe	-0.0015519855
2	0x39b132c1	0.00033797885
3	0xba47497d	-0.0007602198
4	0x393a2178	0.0001775081
5	0xbb7e054d	-0.0038760484
6	0xbaeaa92c	-0.00179032
7	0xbab26c6b	-0.0013612633
8	0x391d34aa	0.00014992306
9	0xbb1cd526	-0.0023930757
10	0xb91c9fcf	-0.00014936853
11	0x398f8f18	0.000273817
12	0x3aa6d423	0.0012728017
13	0x3974d96f	0.00023350654
14	0x3abaf217	0.0014262822
15	0xbacd0b08	-0.0015643546
16	0x3ab3ae9d	0.0013708655
17	0x3b0482d2	0.0020219577
18	0xbaa39418	-0.0012480048
19	0xba8bf839	-0.0010678835
20	0xb83f0a4d	-4.5547542e-05
21	0x39928cc3	0.00027952166
22	0xb9940705	-0.0002823399
23	0x3a382056	0.00070238614
24	0x3a5d7773	0.000844828
25	0xb93335d7	-0.00017090827
26	0xbaa99b4e	-0.0012939961
27	0xb965d2da	-0.0002191769
28	0x3afc5669	0.0019251826
29	0x3b1aa01f	0.0023593975
30	0x3a17b4a7	0.0005787112
31	0x39637f8d	0.00021695923
32	0x395bbce6	0.00020955838
33	0x3aaa8abc	0.0013011317
34	0x39d5ad9a	0.0004075587
35	0xba297dc5	-0.00064655795
36	0xbab6e4af	-0.0013953651
37	0xba9eea31	-0.0012124238
38	0x399a90ef	0.00029481153
39	0x382bf492	4.099735e-05
40	0x3a3973e4	0.0007074459
41	0x392d122f	0.0001650534
42	0xbaed183c	-0.0018088887
43	0xbab9cc2b	-0.0014175227
44	0xb9f3531a	-0.00046410487
45	0x3a774a8a	0.00094334094
46	0x39cf8cf4	0.00039587135
47	0xbab23b37	-0.001359797
48	0xbb0d31c6	-0.002154456
49	0x38e86de9	0.000110830944
50	0x3ac1b58b	0.0014778835
51	0x3a7868a2	0.0009476041
52	0xb9a54cef	-0.00031528572
53	0x3a342d5b	0.00068732136
54	0xb88dd57e	-6.76317e-05
55	0x3ab847b3	0.0014059454
56	0x39ba1dfc	0.00035499025
57	0xbab44dd1	-0.0013756101
58	0x3aa1a282	0.0012331756
59	0xba3d9667	-0.00072321895
60	0x39634713	0.00021674884
61	0x3ab8b5e9	0.0014092299
62	0xb93792f1	-0.0001750698
63	0x38d1f28d	0.00010011075
64	0xb98a572e	-0.00026386365
65	0xbb10f657	-0.0022119486
66	0xb9bfe252	-0.0003659898
67	0x3903c410	0.00012566173
68	0x39e00af2	0.00042732764
69	0x3965a947	0.00021902203
70	0x3aa39de5	0.0012482969
71	0xba51ed77	-0.00080081023
72	0x3a180b20	0.00057999976
73	0xbafcea65	-0.0019295929
74	0x3a04fb10	0.00050728116
75	0xba475606	-0.0007604066
76	0x3acb2260	0.0015497915
77	0x3af67d0a	0.0018805575
78	0xb8c240dd	-9.2627226e-05
79	0x39e5620e	0.0004375134
80	0x39cd6ed4	0.0003918322
81	0x393d8e32	0.00018077416
82	0x3a59f830	0.0008314876
83	0x39b6311c	0.00034750334
84	0xbaa7d65d	-0.0012804974
85	0x3a58e7f8	0.0008274312
86	0xb9aad5ce	-0.00032584224
87	0x3a533581	0.0008056984
88	0xba441e6e	-0.0007481341
89	0x397b30ee	0.00023955453
90	0x395fc478	0.00021340128

running_var f4 [91]
0	0x375ee808	1.3286255e-05
1	0x3718f88a	9.1177735e-06
2	0x36015033	1.926918e-06
3	0x36ddab70	6.606271e-06
4	0x36cc5667	6.0897323e-06
5	0x37b9bb65	2.2140981e-05
6	0x36d53a79	6.354702e-06
7	0x3688feb4	4.082767e-06
8	0x36604747	3.342009e-06
9	0x36abbb91	5.1180327e-06
10	0x352d51d2	6.4566586e-07
11	0x3693dc82	4.406612e-06
12	0x3617dadf	2.2628153e-06
13	0x3619ea39	2.2935112e-06
14	0x36d24cb0	6.2674153e-06
15	0x36961e76	4.4738945e-06
16	0x3656944b	3.1974803e-06
17	0x370f9c4c	8.559855e-06
18	0x3711b034	8.683699e-06
19	0x3694d22c	4.435211e-06
20	0x36965a45	4.480857e-06
21	0x366e90b7	3.5548999e-06
22	0x36c78ec9	5.9472845e-06
23	0x360f9972	2.1397977e-06
24	0x36bf7c2c	5.706699e-06
25	0x3702bc4e	7.792447e-06
26	0x36341341	2.6833297e-06
27	0x35977171	1.1283392e-06
28	0x3661d663	3.3652402e-06
29	0x36dd8571	6.601848e-06
30	0x3663e92e	3.3961364e-06
31	0x36f891c2	7.4079444e-06
32	0x365b334e	3.2663406e-06
33	0x369fab3e	4.7585045e-06
34	0x3683f4c4	3.9325987e-06
35	0x3685c2d3	3.9863894e-06
36	0x36c2d571	5.8064984e-06
37	0x36d31c1a	6.2915615e-06
38	0x36a48cd9	4.9039777e-06
39	0x35f428d5	1.81913e-06
40	0x36a5bf9a	4.9396886e-06
41	0x364d057b	3.055057e-06
42	0x3682ceec	3.898391e-06
43	0x36f4c6e8	7.2949224e-06
44	0x369b3210	4.625188e-06
45	0x35559516	7.956563e-07
46	0x36ee2524	7.0972765e-06
47	0x36ea2a09	6.978637e-06
48	0x36a2da28	4.853373e-06
49	0x36750267	3.6509243e-06
50	0x36ed415a	7.0707583e-06
51	0x3675d500	3.6631827e-06
52	0x36be8125	5.6774757e-06
53	0x369c0e5f	4.6508353e-06
54	0x3659dac7	3.2462865e-06
55	0x3676c2c6	3.677023e-06
56	0x36bc7c54	5.6173103e-06
57	0x37023852	7.761717e-06
58	0x36216ad2	2.4053047e-06
59	0x3702810f	7.778653e-06
60	0x36b1faf7	5.304227e-06
61	0x35ed1574	1.766412e-06
62	0x370b874c	8.316547e-06
63	0x3743ac31	1.1662997e-05
64	0x36ee2196	7.0968626e-06
65	0x364cee09	3.0536924e-06
66	0x36bc5912	5.6132058e-06
67	0x36541b19	3.1606235e-06
68	0x36860f7c	3.995314e-06
69	0x368b7f4d	4.1573426e-06
70	0x36349627	2.690949e-06
71	0x36923d93	4.3583073e-06
72	0x36a1029e	4.7984786e-06
73	0x36475df3	2.9707996e-06
74	0x366fda0b	3.5740693e-06
75	0x36179a1f	2.2590464e-06
76	0x36e87180	6.927352e-06
77	0x36e190c8	6.7223773e-06
78	0x366229f3	3.3701042e-06
79	0x36407fe1	2.8684665e-06
80	0x36a9aa9d	5.0564545e-06
81	0x35beb8bd	1.4209869e-06
82	0x36c9a2b8	6.0092098e-06
83	0x364efef8	3.0844803e-06
84	0x36ed2398	7.067294e-06
85	0x3662a606	3.3773263e-06
86	0x36dbe3ec	6.553242e-06
87	0x36da383b	6.5034524e-06
88	0x36e80739	6.9149796e-06
89	0x36b33f01	5.3419503e-06
90	0x36eb8fb2	7.020274e-06

weight f4 [47, 91]
0	0x3a8d2819	0.0010769396
1	0xbbec7622	-0.007216231
2	0x3b21940a	0.0024654889
3	0xb95073a9	-0.00019879513
4	0xbb81f583	-0.003966035
5	0xba28d89a	-0.00064409676
6	0xbab7f370	-0.0014034342
7	0x3b0a7b6c	0.0021130694
8	0xba97d930	-0.0011585113
9	0x38a5e438	7.910322e-05
10	0xbade4362	-0.0016957338
11	0xbbdeb1ca	-0.0067960965
12	0x3b46a305	0.003030957
13	0xba49ac6c	-0.00076932344
14	0x3babb7de	0.0052404245
15	0x3a9ecd5f	0.0012115649
16	0xba921cd8	-0.0011147512
17	0xbab4c106	-0.0013790436
18	0x3a706b74	0.0009171285
19	0xbacb9897	-0.0015533146
20	0x3ab59845	0.0013854584
21	0x3a830691	0.0009996464
22	0xbae48a5a	-0.0017436252
23	0xba2affea	-0.00065231195
24	0x3b298f25	0.0025872674
25	0xbb34efc4	-0.0027608732
26	0xbac17e4b	-0.001476237
27	0x3bfa69f8	0.007642027
28	0x3ba3f4ac	0.0050035324
29	0x39053468	0.00012703391
30	0xbb1517fa	-0.0022749887
31	0x3ca117cb	0.019664666
32	0x3c173c09	0.009230622
33	0x3b6db228	0.003626952
34	0x3aec426e	0.0018025169
35	0x3b8d2672	0.0043075616
36	0xbba9d4ba	-0.0051828297
37	0xbb2e108e	-0.002656016
38	0x3a23ff9a	0.0006256044
39	0x3c35e537	0.011102012
40	0x3ae981a5	0.0017815126
41	0x3aaf58d9	0.0013377919
42	0xbb7bb5a6	-0.0038407831
43	0x3bc28ecd	0.0059374333
44	0x3bccb36d	0.006246975
45	0x3c1ac79b	0.009447004
46	0x3c3a0723	0.011354241
47	0x3afacfaa	0.0019135375
48	0xbaf735aa	-0.0018860598
49	0xb9a32d7b	-0.00031123668
50	0x391c4c5b	0.00014905764
51	0x3bd62d95	0.0065361955
52	0xbb0de0a6	-0.0021648793
53	0xbab46364	-0.0013762531
54	0xbb867f2e	-0.0041045165
55	0x3b373fb4	0.0027961554
56	0xba78d0e9	-0.0009491579
57	0x3acb7043	0.0015521127
58	0xbb6c305b	-0.0036039564
59	0xbb87bfd5	-0.004142741
60	0xbb0e6011	-0.002172474
61	0x3c125a41	0.008932651
62	0x38d9dca8	0.00010388467
63	0x3baf6d1d	0.0053535835
64	0x3c03afea	0.008037547
65	0xba8d861e	-0.0010797416
66	0x3bfb045f	0.007660433
67	0x3ae908ed	0.0017779149
68	0x3ac529e2	0.0015042389
69	0x3b7e63a8	0.0038816724
70	0x3b1e2591	0.0024131278
71	0xbb36ee88	-0.0027913172
72	0x3a8344da	0.0010015026
73	0x39eea265	0.0004551589
74	0xbb083505	-0.0020783555
75	0xbb672e5c	-0.0035275435
76	0xbb71fc2b	-0.0036923985
77	0xba48105c	-0.0007631832
78	0x3ad00363	0.001587015
79	0x3b645a65	0.0034843918
80	0xb7e6cb01	-2.7512668e-05
81	0x3b60835d	0.0034257986
82	0x3a8e1a03	0.0010841492
83	0xbac58c55	-0.001507173
84	0xbb93791c	-0.0045005213
85	0x3b0b7c2c	0.002128373
86	0x3c88947d	0.016672367
87	0xba8a90c4	-0.0010571708
88	0xbb1a9f04	-0.0023593316
89	0x3bbea3f0	0.0058178827
90	0xbb65c51e	-0.0035060118
91	0xbbb941a2	-0.005653576
92	0x3b9a28ee	0.004704586
93	0xbacdec95	-0.0015710766
94	0xbba8fe14	-0.0051572416
95	0xbaf99b78	-0.0019043526
96	0xba3d79c6	-0.00072279235
97	0xbc66a4b6	-0.014077356
98	0xba822b82	-0.0009931179
99	0x3b1103d3	0.0022127524
100	0xbb02e5f8	-0.0019973498
101	0xba2d471b	-0.0006610022
102	0xbb3f2716	-0.0029167584
103	0xbb78c7c6	-0.003796087
104	0x393fb26e	0.0001828165
105	0x3b65db6d	0.0035073415
106	0xbb13f91f	-0.0022578908
107	0xbb396442	-0.0028288518
108	0xbb485f7c	-0.0030574491
109	0x3a8c045c	0.0010682452
110	0x3ab7f144	0.0014033695
111	0x3befdcb3	0.0073200106
112	0xbb256d85	-0.002524228
113	0x3c3c2bc7	0.011485047
114	0xba9e4a83	-0.001207665
115	0xba6f3141	-0.0009124466
116	0x3aed4534	0.0018102289
117	0xbb2512a4	-0.0025188113
118	0x3bcaabff	0.0061850543
119	0xbb112b8f	-0.0022151207
120	0x3b11fc40	0.0022275597
121	0xbaba5856	-0.0014217
122	0x3c065193	0.00819816
123	0xbafe54db	-0.0019403951
124	0xbb7aaf51	-0.003825147
125	0x3bd67b57	0.006545465
126	0xbb005975	-0.001958457
127	0x3a49387d	0.0007675959
128	0xbbdf9c71	-0.006824069
129	0x3b9f9d0d	0.004871017
130	0x3b64a8c9	0.0034890643
131	0xb94c1ce2	-0.00019465716
132	0x3ba2050a	0.0049444484
133	0x3b4876c3	0.0030588366
134	0x3aaf5f29	0.00133798
135	0x3aa8c537	0.0012876157
136	0xba3750e5	-0.000699295
137	0x3c100dd1	0.008792357
138	0xbacc5c7e	-0.001559153
139	0xbb146fb0	-0.0022649579
140	0xba9555d7	-0.001139338
141	0x3bc9d30b	0.0061591915
142	0xbb686252	-0.0035458994
143	0x3c1b8e55	0.009494384
144	0xbb71ef30	-0.0036916249
145	0x3c0ba895	0.00852408
146	0x3b6bfbd7	0.0036008263
147	0xbb0163ff	-0.001974344
148	0x3c667341	0.014065565
149	0xbb4c38c1	-0.0031161758
150	0x3a560f23	0.00081657077
151	0xba630495	-0.00086600456
152	0xbb66614a	-0.0035153204
153	0xbbdc4ccf	-0.0067230235
154	0x3b3020e6	0.0026875078
155	0xbacec5d8	-0.0015775515
156	0xba5a6442	-0.00083309796
157	0xbb424df4	-0.0029648514
158	0x3b6b109d	0.0035868057
159	0xbba27de8	-0.004958857
160	0xbb6f1b2d	-0.0036484704
161	0x3baa809e	0.0052033206
162	0xbb5607d9	-0.0032658486
163	0xbb807bd6	-0.0039210124
164	0xbaa6a633	-0.0012714326
165	0xbb0ebb4e	-0.0021779123
166	0x3bf9fdb6	0.0076291217
167	0x3aedbfa5	0.001813878
168	0xbbd1cef3	-0.006402844
169	0xbb9992ba	-0.0046866806
170	0xbbcb0db8	-0.0061967038
171	0xbb9db76a	-0.0048131244
172	0xbb421a94	-0.0029617893
173	0x3c36fcb3	0.011168647
174	0xbb15dd59	-0.002286753
175	0xbc2395eb	-0.009984474
176	0x3bb0cd37	0.0053955573
177	0x3baafefe	0.0052183857
178	0x3c49d733	0.012319374
179	0x3b8b987f	0.0042601223
180	0x3b8c3859	0.004279178
181	0xbbd01312	-0.0063499296
182	0xbb350be7	-0.0027625503
183	0x3b932103	0.0044900193
184	0xbb66deca	-0.0035228007
185	0xbbf37705	-0.0074299597
186	0xbc0e1f81	-0.008674503
187	0x3b5b8f93	0.0033502325
188	0x3b8471f7	0.004041906
189	0x3bae2290	0.0053141788
190	0x399c2007	0.000297785
191	0x3949624f	0.00019205477
192	0x3a910361	0.0011063629
193	0x3a181673	0.0005801685
194	0x3c0deffd	0.008663175
195	0x3b95030c	0.0045474824
196	0x3b721353	0.0036937788
197	0xbb253651	-0.0025209377
198	0xba9c4087	-0.0011921086
199	0xbb2a9b1f	-0.00260324
200	0xbba6f6da	-0.005095345
201	0x3b96adc6	0.004598352
202	0x3b389c41	0.0028169306
203	0x3aa9e350	0.0012961421
204	0x3b82e5b0	0.003994666
205	0xbb72541d	-0.0036976405
206	0x3b92a674	0.004475409
207	0x3ba6aefd	0.005086778
208	0x3babef2c	0.0052470174
209	0xbb211200	-0.002457738
210	0xbb22b31b	-0.0024825993
211	0x3b8a727a	0.0042250725
212	0xbb8f3946	-0.004370841
213	0xbc23df46	-0.010001963
214	0xbbbe7b8c	-0.005813068
215	0xbb80e4c0	-0.003933519
216	0x3b7539ab	0.0037418406
217	0x3b98c5f2	0.004662269
218	0xbb9be297	-0.004757236
219	0xbb279990	-0.0025573708
220	0x3b5981fb	0.0033189047
221	0xbafa820b	-0.0019112242
222	0x3b8a0dd6	0.004213075
223	0x3b28a840	0.002573505
224	0x3b29e190	0.00259218
225	0x3b3ad5b8	0.0028508734
226	0x3b496a98	0.00307337
227	0x3b526766	0.0032105087
228	0x3b4dfce7	0.003143126
229	0xbbc1885c	-0.005906148
230	0xbac35906	-0.001490385
231	0x3a916d53	0.0011095203
232	0x3b8aee7f	0.0042398567
233	0x3b8403b8	0.0040287636
234	0x3b9edda7	0.0048482004
235	0xbb9b22a9	-0.0047343564
236	0xbb86a7ef	-0.0041093747
237	0x3b7e1f3d	0.0038775944
238	0xbb4caeca	-0.0031232112
239	0x3ba8e7f3	0.0051546036
240	0x3ab4d923	0.0013797622
241	0x3b36022e	0.0027772295
242	0xbc072b5f	-0.008250087
243	0x3a387353	0.00070362276
244	0x3b4dc259	0.0031396358
245	0xbaa892f1	-0.0012861175
246	0xb935180b	-0.00017270462
247	0xbaac453d	-0.0013143193
248	0x3977bb87	0.00023625615
249	0x3b7dabcb	0.0038707133
250	0x3b7af6d8	0.0038294103
251	0xbbadf2d1	-0.005308487
252	0x3b216829	0.0024628735
253	0xbc0d92e9	-0.008640983
254	0xbc34e15c	-0.011040058
255	0x394ece0d	0.00019722451

bias f4 [47]
0	0xb9965591	-0.0002867398
1	0xba414024	-0.00073719234
2	0xbb373083	-0.00279525
3	0x3bdb31e1	0.0066892956
4	0xbc05d925	-0.008169447
5	0x3b0931b2	0.0020934162
6	0xbae36d84	-0.0017351364
7	0xb8e0f3a4	-0.00010726534
8	0xba04a8a2	-0.00050605286
9	0xbb2e74e4	-0.0026619965
10	0x386f8561	5.710626e-05
11	0x3b22b22e	0.0024825442
12	0xbacbe5a7	-0.0015556113
13	0xb99cb866	-0.00029892026
14	0xbb5c82e8	-0.0033647362
15	0x3b3b0b08	0.002854051
16	0x3b1302b6	0.0022432036
17	0x3adbb40c	0.0016762032
18	0xbb1685bf	-0.0022967902
19	0x38d3475c	0.00010074556
20	0xb9b0270c	-0.00033598428
21	0x38acce09	8.239976e-05
22	0xbb813d31	-0.003944062
23	0x3b1405e9	0.002258653
24	0xbb1ccfa5	-0.0023927477
25	0x3b458401	0.0030138495
26	0xbadf4b61	-0.0017036014
27	0xbb0889a5	-0.0020833996
28	0x3998b1b8	0.0002912411
29	0xba227644	-0.00061974325
30	0xbba5fdaa	-0.0050656395
31	0x3bad6c3e	0.0052924445
32	0x3b654de1	0.0034989046
33	0xba97b518	-0.0011574356
34	0x3b8a1740	0.0042141974
35	0xb9228eae	-0.00015502676
36	0xbbacf029	-0.0052776528
37	0x3bbea55d	0.0058180527
38	0xbab31e15	-0.0013665581
39	0x3aca1906	0.0015418835
40	0xbb596df0	-0.00331771
41	0x3aa00f71	0.0012211633
42	0x3b90bff4	0.004417414
43	0xbbc903a1	-0.006134466
44	0x3b4a9385	0.0030910682
45	0x3bb44e9b	0.0055025346
46	0xbb268024	-0.0025405968

weight f4 [47]
0	0x3d3f3278	0.04667899
1	0x3d814038	0.06311077
2	0x3d6fa1cb	0.058503907
3	0x3d6c1efd	0.05764674
4	0x3d627df9	0.055295918
5	0x3d49b8da	0.049248554
6	0x3da98930	0.082781196
7	0x3da5058e	0.080577
8	0x3d6b8c96	0.05750712
9	0x3d91b890	0.07115281
10	0x3da31948	0.079638064
11	0x3d965404	0.073402435
12	0x3d8de3dc	0.06928226
13	0x3d4ec451	0.05048019
14	0x3d583e88	0.05279401
15	0x3dfb0d4b	0.12258395
16	0x3dc840c1	0.09777976
17	0x3dc487cf	0.09596216
18	0x3d5c66b5	0.053808887
19	0x3db0d9aa	0.08635266
20	0x3ddb2aff	0.1070156
21	0x3d7aa180	0.061189175
22	0x3da604a0	0.08106351
23	0x3d8a8ce4	0.06765154
24	0x3dc0c87b	0.094132386
25	0x3d762ae1	0.060099486
26	0x3d28be3a	0.04119704
27	0x3dc76dda	0.097377494
28	0x3dda1057	0.10647648
29	0x3d22581a	0.0396348
30	0x3d12903f	0.035782095
31	0x3dfb2744	0.12263349
32	0x3db54f11	0.08852971
33	0x3da1a207	0.078922324
34	0x3d6b97df	0.057517882
35	0x3db60199	0.088870235
36	0x3d6239e0	0.055230975
37	0x3dca896f	0.09889495
38	0x3d815664	0.06315306
39	0x3d7a4bce	0.06110745
40	0x3d9e98c5	0.07743982
41	0x3d935620	0.071941614
42	0x3d6ba529	0.057530556
43	0x3da5d2be	0.080968365
44	0x3d28ebe4	0.041240588
45	0x3d8ad207	0.06778341
46	0x3d97c1f8	0.074100435

bias f4 [47]
0	0xb9b3ccf0	-0.0003429423
1	0x3a292086	0.0006451685
2	0x3a17e6de	0.0005794595
3	0xba6ab6a4	-0.0008953607
4	0xb9c28aef	-0.00037106077
5	0xba3b9d3b	-0.0007156913
6	0xb9b3c9aa	-0.00034291792
7	0xba079631	-0.00051722216
8	0x3a2c5327	0.000657367
9	0xbaae53f7	-0.001330017
10	0x3a1b44c9	0.00059230305
11	0xba0870e7	-0.0005204812
12	0xbade330a	-0.0016952467
13	0x385eb99a	5.310178e-05
14	0xb9a21ec1	-0.0003092196
15	0x39c00c20	0.00036630128
16	0xba230331	-0.0006218432
17	0x38da7bae	0.00010418087
18	0x3958033a	0.00020600567
19	0xba848fdf	-0.0010113678
20	0xba143a38	-0.0005654427
21	0xba41275c	-0.0007368231
22	0xba90b4e7	-0.0011040241
23	0xb9b8cdcc	-0.00035248545
24	0x37ead03d	2.7991942e-05
25	0x39fd4625	0.00048308182
26	0x39a2bdf5	0.00031040577
27	0x3a035227	0.0005009495
28	0xba388a91	-0.0007039691
29	0x3a5847d9	0.0008250452
30	0x3a419768	0.0007384927
31	0x3a2616e5	0.0006335809
32	0x38955200	7.120147e-05
33	0x3ab8522a	0.0014062573
34	0xb9eca2cd	-0.00045134724
35	0xba695e63	-0.00089023093
36	0xba9ce09e	-0.0011968797
37	0x38b0cea7	8.430826e-05
38	0xb8a90a7b	-8.0605e-05
39	0xb9932668	-0.0002806664
40	0xb7fc248a	-3.0057756e-05
41	0x3a71ee3e	0.0009228921
42	0xb950ef8a	-0.00019925661
43	0xba5f60c9	-0.0008521197
44	0x37fe7d5a	3.0337531e-05
45	0xb99e26ce	-0.0003016502
46	0xb8fcb2ac	-0.000120495766

running_mean f4 [47]
0	0xb98bfc0d	-0.00026699938
1	0x3a36b32e	0.0006969449
2	0xba7a11a6	-0.0009539373
3	0x3ac16ba4	0.0014756811
4	0xbae3fdf0	-0.0017394405
5	0xb9811859	-0.00024622938
6	0x399ca572	0.00029877905
7	0xba68cd49	-0.00088806875
8	0xbaaee57f	-0.0013343542
9	0x3a6950f9	0.00089003105
10	0xba262465	-0.00063378207
11	0x3ac7da06	0.0015247471
12	0x3a48327c	0.0007636917
13	0xb9505194	-0.00019866816
14	0xb9f4b9cd	-0.0004667774
15	0xba3cd9f0	-0.0007204106
16	0xb9d38e73	-0.0004035119
17	0x39ac4865	0.00032860335
18	0xba9adbb4	-0.0011814744
19	0xb82d16a4	-4.12675e-05
20	0x393a056d	0.00017740364
21	0xb9ed4964	-0.00045258843
22	0xba997934	-0.0011709095
23	0x3a67db06	0.0008844588
24	0xbacc8301	-0.0015603007
25	0x3a140a83	0.00056473183
26	0xb9e9eadd	-0.0004461621
27	0x3995b6b1	0.0002855561
28	0x38fba24a	0.000119988414
29	0x39e77d26	0.00044152996
30	0xba97f4c4	-0.0011593332
31	0x3a51ae01	0.0007998646
32	0x3aa99e7c	0.0012940909
33	0x3a579a57	0.00082245975
34	0x3abfbfba	0.0014629283
35	0x393801a4	0.00017548219
36	0x3a13f380	0.00056438893
37	0x3a1ccaef	0.0005981167
38	0x3a0265a8	0.00049742544
39	0x3a6ad21a	0.0008957699
40	0xbad242cf	-0.0016041639
41	0x3ae8c226	0.0017758056
42	0x39874847	0.00025803057
43	0xba2b3a84	-0.0006531852
44	0x3a04ac35	0.0005061061
45	0x3b2c5b5d	0.0026299574
46	0xb9ba1cce	-0.00035498146

running_var f4 [47]
0	0x343a0684	1.732497e-07
1	0x360642c0	2.000641e-06
2	0x3659368d	3.2367273e-06
3	0x35f6804c	1.8365768e-06
4	0x36556a11	3.1801212e-06
5	0x35bcfd89	1.408088e-06
6	0x362241ca	2.4178175e-06
7	0x359f4f60	1.1869524e-06
8	0x368d5fb2	4.213268e-06
9	0x368ddb66	4.227669e-06
10	0x36097472	2.048237e-06
11	0x3597f173	1.1320648e-06
12	0x3678a16c	3.704884e-06
13	0x35f29c32	1.8075864e-06
14	0x362d1c0b	2.5795332e-06
15	0x3687737f	4.036759e-06
16	0x35d3ee5a	1.5790094e-06
17	0x36a93918	5.043239e-06
18	0x366ad455	3.499231e-06
19	0x36abe07c	5.1223305e-06
20	0x36347ab1	2.6893506e-06
21	0x3647df86	2.9783419e-06
22	0x366e24aa	3.5486105e-06
23	0x36894416	4.0908444e-06
24	0x3661f1f6	3.3668452e-06
25	0x369b0e51	4.6210266e-06
26	0x355ed325	8.30087e-07
27	0x362eb110	2.6031084e-06
28	0x347fcedc	2.382398e-07
29	0x361157ad	2.1657718e-06
30	0x36346bf5	2.688493e-06
31	0x35fa632d	1.8655315e-06
32	0x36e0a775	6.695215e-06
33	0x3689d4a6	4.1076737e-06
34	0x3633bb2b	2.6782025e-06
35	0x35a0ff8f	1.1995306e-06
36	0x3649839c	3.002794e-06
37	0x36c658ea	5.911211e-06
38	0x366ce0bb	3.529755e-06
39	0x35b9ac44	1.383371e-06
40	0x36cf4107	6.176651e-06
41	0x36b14ba1	5.2838154e-06
42	0x360f9b47	2.1399044e-06
43	0x3673305d	3.6237973e-06
44	0x35b3c3e3	1.339355e-06
45	0x362c4d43	2.567497e-06
46	0x36a35fe6	4.8689426e-06
