mlruns/528961946943719398/models/m-b7abcd430f7b4649b6468d2ff02a856a/artifacts/data/model.pth (torch, 29393 bytes, 11 tensors)

weight f4 [124]
00000000: 243c 7f3f ad2f 803f a49a 803f 4976 803f
00000010: 283a 7f3f f233 803f 2c31 803f 754f 803f
00000020: d172 803f bd33 803f 44b7 7e3f 2154 803f
00000030: 96ed 7e3f 664d 803f 3a11 7f3f 965b 803f
00000040: f44e 7f3f 51d3 7e3f 7f7d 803f 0fc2 7f3f
00000050: 5310 803f cd6c 803f 3f20 7f3f 2815 803f
00000060: 1226 803f 5c23 803f b982 803f ce5d 803f
00000070: a390 803f b634 7f3f fd72 803f af61 803f
00000080: 3056 803f bcef 7f3f 2848 803f 2538 803f
00000090: 5cb8 7f3f d459 7f3f ea0d 803f d851 803f
000000a0: 1a43 803f 7535 803f 8e2f 803f 5072 7f3f
000000b0: 5020 7f3f 5754 803f 99ae 7f3f 2542 803f
000000c0: 280d 7f3f cd4b 803f 7e2a 803f 5dff 7e3f
000000d0: 953c 803f dc11 803f 1774 803f daf2 7f3f
000000e0: 5ddd 7e3f 0355 803f ad2e 803f f483 803f
000000f0: f028 803f 5fc5 7f3f 657f 803f bfa1 7f3f
00000100: 5a5d 803f f0ef 7f3f 0faa 7f3f 2216 7f3f
00000110: a6e9 7f3f 895b 803f bb4f 7f3f 6e59 803f
00000120: 4a0c 7f3f 2ded 7e3f 045c 803f f63e 803f
00000130: ba4a 803f deca 7f3f e52e 803f 42c9 7f3f
00000140: 1a7f 803f 5587 803f f407 803f 352f 803f
00000150: 958e 7f3f 337a 7f3f b84d 803f 8253 803f
00000160: 2627 803f 2f67 803f d16f 803f dd63 803f
00000170: c3d0 7e3f b870 803f 788e 803f 7d2d 7f3f
00000180: 1619 7f3f be4a 803f a822 7f3f 2f3b 803f
00000190: dcb4 7f3f 4d7a 803f a51b 803f 0f81 7f3f
000001a0: 1410 7f3f 104a 803f 065d 803f e04a 7f3f
000001b0: 0d58 7f3f 1e74 803f a208 803f 67df 7f3f
000001c0: f95a 803f e710 7f3f 0946 803f e935 803f
000001d0: a4d3 7e3f ef75 803f a73e 803f f550 803f
000001e0: a565 7f3f d3ea 7f3f 8b23 803f c020 7f3f
0.9970114 1.001455 1.0047193 1.0036098 0.99698114 1.0015852 1.0015006 1.0024248
1.0035039 1.0015789 0.9949839 1.0025674 0.9958128 1.002362 0.9963566 1.002795
0.9972985 0.99541193 1.0038298 0.99905485 1.0004982 1.0033203 0.9965858 1.0006456
1.0011618 1.0010791 1.0039893 1.0028627 1.004414 0.99689806 1.0035092 1.0029811
1.0026302 0.9997518 1.002202 1.0017134 0.99890685 0.9974644 1.0004246 1.0024977
1.0020478 1.0016314 1.0014513 0.997838 0.9965868 1.0025738 0.9987579 1.0020186
0.9962945 1.0023133 1.0012968 0.99608403 1.0018488 1.000545 1.0035428 0.9997994
0.99556524 1.0025944 1.0014244 1.0040269 1.0012493 0.9991054 1.0038878 0.9985618
1.0028489 0.9997549 0.99868864 0.99643147 0.99965894 1.0027934 0.99731034 1.0027292
0.99628127 0.9958065 1.0028081 1.0019214 1.0022805 0.99918926 1.0014311 0.9991647
1.0038788 1.00413 1.0002427 1.0014406 0.9982694 0.99795836 1.0023718 1.0025485
1.0011947 1.0031489 1.0034124 1.0030476 0.99537295 1.0034399 1.0043478 0.99678785
0.99647653 1.002281 0.99662256 1.0018061 0.99885345 1.0037323 1.0008436 0.998063
0.9963391 1.0022602 1.0028389 0.99723625 0.9974373 1.0035436 1.0002635 0.9995026
1.0027763 0.99635166 1.0021373 1.0016452 0.9954169 1.003599 1.001912 1.0024706
0.9976447 0.9996769 1.0010847 0.9965935

bias f4 [124]
00000000: 8cd4 41bb 2dc2 a73a 6951 6aba c2b7 4f3b
00000010: ea2e acba ceb6 54bb baaf b43a 14f2 f23a
00000020: 5899 3939 e139 a43a 314f b3ba b827 06bb
00000030: dfe2 91ba 670d 603b d8c6 5dbb f0e1 5eb9
00000040: 85de 32ba 2e8a 9ab9 1fee 1fbb 3690 403b
00000050: 5c64 683a 69ab 6dbb 4fe0 73ba f477 51bb
00000060: f394 473b de18 9bba 1304 223b 777c 43ba
00000070: fd18 933a fff4 653a f7f8 06bb 37f9 5abb
00000080: 5a8d ac39 5799 5aba ef55 f3ba 2f2d 273b
00000090: f2ee 683b c8bc 11b9 5f67 633b 43fd 30bb
000000a0: 4fd1 2ebb bfdf 183a a1bb 12bb e540 6db9
000000b0: a171 13bb 09e9 b4ba 1699 8ab9 5e07 d4ba
000000c0: d7c9 38bb 413d 18bb 367a 7e3b 0a1c 003b
000000d0: 98ce 86ba 534b e9ba ba69 4cba 502a 5abb
000000e0: b963 b23a 5ec2 6c3b dc09 48ba bc97 51bb
000000f0: 645c 17bb 5f30 ca3a 31eb ed3a dd63 033b
00000100: 12ae 2a3b eea4 d93a 2c19 1aba 012e f73a
00000110: 396a 47bb b474 14bb fd0c 4f3b 29b2 57b9
00000120: bd8b 5eba d3c9 8f3a 813c 6cbb c79d 24ba
00000130: ced6 aa39 14ef d4ba 488a d83a 0219 82b8
00000140: c7ac 7abb 7ffb 61ba d8f8 493a 8d23 473b
00000150: a098 3fbb 366e da3a ba25 c239 f181 ab39
00000160: b1d5 f23a 0f54 c539 61e4 513b 1a91 2bbb
00000170: 4192 52ba 6889 0abb b68b 363b df86 cdba
00000180: e44e 3cba 2a19 09bb 47e5 1abb df3b dfba
00000190: 2194 cc3a 7b66 55ba 478c dc3a e353 1b3b
000001a0: 9f07 64ba 6b8d 2c3b 783d 21bb 282a 26ba
000001b0: f0c4 783a a3c0 63bb 2b9c 90ba b328 84ba
000001c0: 36cc 34bb 55cc 4ebb 6989 68bb 7f1e 4dbb
000001d0: bac0 163b 8914 2f3a 2157 2cbb 45f6 143a
000001e0: a3fc aa3a 9e40 b33a 16ad 17bb 6ab8 cf3a
-0.002957615 0.0012798958 -0.00089385227 0.0031695222 -0.001313654 -0.0032457593 0.0013785281 0.001853528
0.000177001 0.0012529456 -0.0013680217 -0.0020470452 -0.0011130235 0.0034187676 -0.0033840444 -0.00021255738
-0.0006823319 -0.0002947612 -0.0024403406 0.0029382831 0.00088650524 -0.0036265498 -0.0009303139 -0.0031962367
0.003045377 -0.0011832973 0.0024721667 -0.00074572064 0.0011222657 0.0008772164 -0.0020595172 -0.0033412704
0.00032911712 -0.00083388895 -0.0018565039 0.002550911 0.0035542813 -0.00013898604 0.0034699065 -0.0027006424
-0.002667505 0.00058316806 -0.0022389668 -0.00022626256 -0.0022498148 -0.001380236 -0.0002643547 -0.0016176512
-0.0028196478 -0.002322987 0.0038830168 0.0019547963 -0.0010284958 -0.0017798938 -0.0007797737 -0.003328938
0.0013610042 0.0036126594 -0.00076308637 -0.003198131 -0.002309584 0.0015425793 0.0018151758 0.0020048537
0.0026043695 0.0016604939 -0.00058783847 0.0018858315 -0.0030428304 -0.0022652568 0.0031593435 -0.00020570368
-0.00084894506 0.0010970182 -0.0036046805 -0.0006279614 0.0003258497 -0.0016245567 0.0016520703 -6.203541e-05
-0.0038249956 -0.00086205447 0.0007704622 0.003038618 -0.0029235259 0.0016664925 0.00037030672 0.00032712476
0.001852682 0.00037637397 0.0032026994 -0.0026179017 -0.0008032658 -0.002113903 0.002785427 -0.0015680454
-0.00071833865 -0.002091954 -0.0023635195 -0.0017031393 0.0015608111 -0.0008140576 0.0016826474 0.0023701123
-0.00086986454 0.002632941 -0.0024603289 -0.0006338679 0.0009489795 -0.0034752272 -0.001103287 -0.001008293
-0.002758754 -0.0031554897 -0.0035482293 -0.0031298695 0.0023003058 0.000667878 -0.002629705 0.0005682449
0.0013045262 0.0013675874 -0.0023143939 0.0015847806

running_mean f4 [124]
00000000: 3bac 8b42 9d4c 2646 dd06 c440 85e2 b240
00000010: fe31 cf42 ca59 5940 ea98 4540 3beb 5f40
00000020: 9261 3c40 c77a cf3f 23a4 dd43 3ec6 3242
00000030: 3e28 0f44 e314 8440 a02e e03d e5fd 9144
00000040: c672 b043 f449 af40 e3c9 be44 d072 d93e
00000050: 71e7 653d 3278 ca3f 9dfc c33e 97bf 3840
00000060: 6220 863f c89a 6040 0afd d140 f9f9 243e
00000070: f6ac 1e3f e536 ec3f 0208 dd3f fd0a e53f
00000080: f8d7 ee43 59bb 3440 a19b 3440 aa75 143e
00000090: 3aa1 c042 0554 4542 ddd3 ae41 e645 6d40
000000a0: 10d2 7b41 1b0e 2b40 714f 883c cdad 4442
000000b0: f3bc 1b42 3bb8 c841 6638 fa41 1876 fe41
000000c0: 5575 4240 f2f2 9b3f 6917 b73d 237c db3e
000000d0: a133 2a3e 90dc 343f 76bb 3d3e 3541 963d
000000e0: 7b32 193d 74ba 683d 5365 023d 39f7 a73c
000000f0: ab8c ba3d b890 9c3c f6f8 ee3d b237 743f
00000100: 8bfd 713e c64a b03d bf2f b63d 1003 1f3d
00000110: af86 b73e 7a6c 1a3e 8f38 263e d3c8 243e
00000120: c633 d13d 32cf 1e3d 8de5 103d a401 0d3d
00000130: 54ca 813c 225c c23c 71eb 873c c0eb 743c
00000140: 403c 4b3f e3ab 153e d303 1f3d df41 8c3c
00000150: b003 ce3d 18b8 193d 1788 963d c2be 603d
00000160: 7253 af3c b264 083c 5142 023d 9b1a 1d3e
00000170: 56c9 733d b145 e83c d53e 5d3d bd63 9d3d
00000180: 77fe de3c b368 8f3c 077a 513d ba44 1a3d
00000190: 0c02 713d 9e57 873c 7abf c13c 47f9 7b3c
000001a0: ad08 183f 3da6 b93d 183c dc3e e015 d83b
000001b0: 3001 e53e 2cbb 893c e0eb c43c 56d6 6d3f
000001c0: 7dab 833d 18ce 873e e2ef 573d 35a2 c53c
000001d0: 9317 213d f3e8 a63d be04 a13c 2eaf 5e3f
000001e0: b73e 893c f2e5 533f 0a5a 0f3c 9f7e a83d
69.83639 10643.153 6.125838 5.5901513 103.59764 3.3961053 3.0874581 3.4987323
2.9434552 1.6209344 443.28232 44.693596 572.6288 4.1275496 0.10946393 1167.9342
352.89667 5.4777775 1526.309 0.42470407 0.056128923 1.5817931 0.38278666 2.8866937
1.0478632 3.509447 6.5621386 0.16110982 0.6198267 1.8454252 1.7268069 1.7893978
477.68726 2.8239348 2.8219988 0.1449801 96.314896 49.33205 21.853449 3.7073913
15.738785 2.672736 0.016639443 49.169727 38.93452 25.089956 31.277538 31.807663
3.0384114 1.2183516 0.08940012 0.42868146 0.16621257 0.7064905 0.18528542 0.07336656
0.037401658 0.05681844 0.03183491 0.020503627 0.091088615 0.019111976 0.11668579 0.95397484
0.23631875 0.08608012 0.088958256 0.03882128 0.35844943 0.15080443 0.16232513 0.16092233
0.10214953 0.038771816 0.035375167 0.034425393 0.015843548 0.023725573 0.01659176 0.014948785
0.7938881 0.14616351 0.038822006 0.017121254 0.10059297 0.03752908 0.07350176 0.05486942
0.021402095 0.008324789 0.031801526 0.1534218 0.05951818 0.028353544 0.054015 0.07685039
0.027220948 0.01750598 0.051141765 0.0376632 0.058839843 0.016521271 0.023650873 0.015379257
0.5938824 0.090649106 0.43014598 0.0065944046 0.44727468 0.016812883 0.024038255 0.92905176
0.06429193 0.26524425 0.052719004 0.024125198 0.039329123 0.081499 0.019655582 0.86986053
0.016753538 0.82772744 0.008749494 0.08227276

running_var f4 [124]
00000000: 3cf7 f543 08ad ce4c 31d5 ee3f e0f3 a03f
00000010: 8598 ea46 17ca a83e cb1b 033e d830 3d3f
00000020: 3d79 923e 3e29 8e3f 8d0a 4948 e5ee c246
00000030: d1d8 4348 dd46 6e3f 2205 1f3e 00c8 1048
00000040: d8a0 3a48 732e 0b45 2576 8348 5056 893e
00000050: 80f1 5f3d 56f8 993e a214 803e d0e7 243f
00000060: b939 513d f83b dd3e 3f0a 2840 6d1b e33e
00000070: d128 d53e 8d39 5240 5673 4a3f 1f42 0a3f
00000080: bea6 2b47 6738 003f 82cb fd3e f99c 7d3e
00000090: 78c3 8146 5b73 9245 a471 6e45 4138 7144
000000a0: efdf 4645 cf37 c344 3da5 883d 2844 8c48
000000b0: 0c2a 6a44 7260 d643 8ce4 0f44 e3c3 7443
000000c0: 0217 3040 bb7d 153f fce0 073e fd16 b43e
000000d0: 0bab 903e 6281 543e 0daf 1a3e 9b62 8b3d
000000e0: ac8f 283d 9e14 8a3d 041c fd3c 2ac7 a43c
000000f0: 13c4 a93d 8bb2 993c db54 483e 11b2 6a3d
00000100: c91a 893e 778a 213e 4532 a63d ae21 193d
00000110: 5a8e 6b3e 1b3f 033e b471 0b3e e25b 0a3e
00000120: ddfa bb3d 8ded 183d 1ef3 0b3d 177f 083d
00000130: 505e 7f3c 8efb bd3c aae9 853c f862 713c
00000140: 6bab 273e 34e2 ff3d 9517 193d 652b 8a3c
00000150: f50d b93d e25d 143d 96d3 8b3d 7ca6 543d
00000160: fd4f ab3c c65a 073c e2e6 fb3c f066 053e
00000170: b214 653d 151a e23c a4c7 513d 06a7 913d
00000180: 9995 d93c a912 8d3c a7da 463d 87bb 143d
00000190: 4e42 633d d64a 853c de8e bd3c d317 783c
000001a0: 5781 773e 9c25 a93d ba4d 7b3e 1e25 d73b
000001b0: 1515 7d3e afb5 873c 2b9d c03c 433b 873d
000001c0: 03f0 763d 0cc7 473e 238b 4c3d 7020 c13c
000001d0: f826 1b3d 419e 993d 85ce 9d3c 2732 e83d
000001e0: c1d3 863c c136 123e da20 0e3c f5f7 9a3d
491.93152 1.083577e+08 1.8658811 1.2574425 30028.26 0.32966682 0.12803571 0.73902655
0.28608122 1.1106336 205866.2 24951.447 200547.27 0.9307688 0.15529302 148256.0
191107.38 2226.903 269233.16 0.26823664 0.05467367 0.30072278 0.25015742 0.6441622
0.05108044 0.43209815 2.6256254 0.44356862 0.41632703 3.2847626 0.7908224 0.5400714
43942.742 0.50086063 0.49569327 0.24766912 16609.734 4686.4194 3815.1025 964.87897
3181.9958 1561.744 0.06672142 287265.25 936.657 428.75348 575.57104 244.76518
2.7514043 0.58394974 0.13269418 0.3517379 0.28255495 0.2075248 0.15105839 0.06805917
0.04115264 0.06742214 0.030897148 0.0201145 0.08289351 0.018761894 0.1956362 0.057298724
0.26778248 0.15775476 0.08115057 0.037385635 0.23003522 0.12817042 0.13617593 0.13511613
0.09178708 0.03733592 0.0341674 0.033324327 0.015586451 0.02319124 0.016346771 0.014733069
0.16373985 0.12494317 0.037376005 0.016866395 0.09035865 0.036222346 0.06827466 0.051916584
0.020912165 0.008261388 0.030749742 0.13027549 0.05592794 0.027600328 0.051215783 0.07111935
0.026560592 0.017220812 0.048548367 0.036311653 0.055483155 0.016271036 0.023139413 0.015142399
0.24170433 0.082591265 0.24541369 0.006565704 0.24715073 0.016566126 0.023512444 0.066031
0.060287487 0.19509524 0.04993738 0.023575038 0.03787896 0.07500888 0.019263515 0.11337691
0.016458394 0.142787 0.008674825 0.07566825

weight f4 [33, 124]
00000000: 1a3d 86bd acc4 ae3a 8f51 a2bd c66b 673d
00000010: 124c ef3a bc3b 883d 452e 903d 7ebd cb3c
00000020: 1446 993c bd43 ddbc 9d88 a53d 0aee 3f3d
00000030: abb9 453c 497a 91bd 4905 753a 6f41 a73d
00000040: 19df b13d 4353 96bd 0607 45bc 07dc 2c3d
00000050: db72 e53b 4adf 41ba 4d0c fd3c 28cd 40bd
00000060: c853 9a3d 5220 363c fcfe 05bd 5170 293d
00000070: 89d0 fc3c 4669 8dbd 0920 903d b16a 6a3d
00000080: da4e 8abd 68c3 61bc ec57 33bd 4b4c 613d
00000090: 9a6f 15bd 75b6 113d bbc7 8ebd 15e5 d0bc
000000a0: 0d81 863d b86f b33d c356 e6bc f908 f3bc
000000b0: 385c 35bd f900 ccbc 40a7 a1bc 74bc 933d
000000c0: 44eb c33c 7908 a73c f6e4 2cbd 9691 c43c
000000d0: a769 afbd a9ad b23c 3228 853b 700c 273d
000000e0: ead5 9fbd 71f3 883d ec24 993d 6d70 a6ba
000000f0: 12a7 6fbd 2fee b4bd 3f3a 27bd 8df4 5ebd
00000100: 704b 343b 0901 22bd c01b 53bd 75fe c03d
00000110: aaf8 81bd 4c81 873c 94d7 61bd 5dab 70bd
00000120: 7b0b 823d 42ba 543d d3c6 a63c c27d d73c
00000130: d9d1 193d ac48 9b3c 27e8 353d 8463 6dbd
00000140: 2b88 94bd 928a dabc 66e3 a2bb 12cb 0ebd
00000150: a240 9cbd 7190 303d 16b1 f8ba bbda 8bbc
00000160: 96e9 a73c ba84 29bd abd8 5bbd 5a68 093d
00000170: b5d9 8e3d 0c8d 833c 67c4 d53c ff17 ebbc
00000180: 801d 97bc 535c 943d 87af 89bc 0469 943d
00000190: fd19 94bd 464e ddbb 6325 873d 0c1b 05bd
000001a0: d837 bbbd 70f7 713b 312e a53d 7eae 7ebd
000001b0: 5bd3 59bc 41fe ef3c 5b85 11bd acb9 8ebd
000001c0: 8829 5fbd 23d3 973d 3aa5 a2bc a993 4e3d
000001d0: 14fd 93bd d88a ee3c fd37 81bd edbe 68bd
000001e0: d6d7 933d 51ed 7dbd d2d6 86bd 1802 1ebd
000001f0: 8d58 a53d 3659 b73d a925 ed3b 12ea 2fbd
00000200: 1640 ebbc c006 173d 7f17 edbc c713 c5bb
00000210: a059 a4bd 4d48 24bd a558 473d f57a 933d
00000220: 2b25 bb3d f860 8d3c 7bae a13d a9ef 44bd
00000230: 6356 4cbd 5dc1 9e3d fccb 113d 59f3 bebd
00000240: d326 68bd 0f40 9f3d 3d09 563c f80b 093d
00000250: 4cba 9dbd 2e03 0abd 5ef5 a8bd 144b c4bc
00000260: d30f 8fbd 8c6a 92bd 5fb6 81bb 09e5 9abd
00000270: 6032 ebbb 1fd4 77bc 86e3 4fbd 5341 5b3d
00000280: 89c3 8cbd 23e0 aebd b5a1 f13c 7a23 8a3c
00000290: 719a 7f3d be3d e53c 2d70 98bd 28f4 e0bb
000002a0: 42e3 a13b 775e 9d3d c678 95bd 13eb febc
000002b0: 81c8 1b3d 22a3 543c 33b3 10bc 6365 0d3d
000002c0: a7a6 b5bc 362e ccba 5017 473c 4624 5abd
000002d0: c3ae 983c f7a2 ad3d de1f a0bc 68cf 963d
000002e0: 5cfe 963d 86f3 df3c a178 71bd 8dd7 e73a
000002f0: f45c 89bd ad42 a6bd 82b2 4bbc 0800 2abd
00000300: 2f5c 9f3d aec7 113d 5c27 35bd 9748 383d
00000310: 3f37 ed3c ee15 533c 15cf 65bd 2af4 ac3d
00000320: 9316 553d 7234 94bc ddc9 3c3c ab49 89bd
00000330: 4df6 2f3d 57b4 4bbc 3265 b23d c326 9a3d
00000340: bd3d 793d 6f21 a3bd ccf1 e7bc 2d49 4f3c
00000350: 33c4 833d 5f56 46bd 0698 6b3d 7e53 f4bc
00000360: 61a1 84bd d3a4 8a3d d03f a0bd 4ae6 8d3d
00000370: 26b6 9dba c930 8cbd 960a 2dbd 3278 94bd
00000380: 75e9 9c3c da2c 68bc 5801 733d ff98 363d
00000390: cb7f 1b3d 5a04 acbd f036 313c 5eb4 a1ba
000003a0: 20f2 8c3d 1967 8dbd 6a69 8f3d 0768 bd3c
000003b0: 6dc7 303c 2cd6 cf3b 2fa1 8b3d cff1 4b3d
000003c0: 0685 843d 37b4 a6bd 9386 273d c3c1 983c
000003d0: 9334 3dbd cfac 59bd 2554 d43c 1f2b c3bc
000003e0: 2478 97bd 68f6 e93c b16a c53c dbcd 9d3d
000003f0: 0507 a7bd 0303 5cbd 335c 3fbd d670 abbc
-0.06554623 0.0013333759 -0.07925712 0.056499265 0.0018256924 0.066520184 0.07040075 0.02487063
0.018710174 -0.02700984 0.080826975 0.04685787 0.0120681925 -0.07103402 0.0009346796 0.08166777
0.086851306 -0.073401 -0.0120256 0.042202022 0.007002217 -0.00073956384 0.030889655 -0.047070652
0.07535511 0.011116104 -0.032713875 0.04136688 0.030861156 -0.06904845 0.0703736 0.057230655
-0.06753321 -0.013779499 -0.04378502 0.0550044 -0.036483385 0.035574395 -0.06971689 -0.02549986
0.06567583 0.08761543 -0.028117543 -0.029667364 -0.0442774 -0.024902808 -0.019733071 0.07213679
0.023915894 0.020389782 -0.04221054 0.023995202 -0.085650735 0.021811323 0.0040636295 0.040783346
-0.07804473 0.06687058 0.074777454 -0.00126983 -0.05850894 -0.088344924 -0.040827032 -0.05443244
0.0027510785 -0.03955177 -0.051540136 0.09423534 -0.06346257 0.016541146 -0.055137232 -0.058757175
0.06349846 0.05193544 0.020358479 0.026305083 0.037553642 0.018955551 0.04441085 -0.057956234
-0.072525345 -0.026677404 -0.0049709557 -0.03486163 -0.07629515 0.0431065 -0.0018973674 -0.017072072
0.020497125 -0.041386344 -0.053673428 0.033546783 0.06975118 0.016058467 0.026094628 -0.028697966
-0.018446684 0.07244172 -0.01680733 0.07246593 -0.07231519 -0.0067537157 0.06598928 -0.032496497
-0.09141511 0.0036921166 0.08065451 -0.062178127 -0.01329502 0.029296042 -0.03552757 -0.06969008
-0.054482967 0.07413318 -0.019854177 0.05043379 -0.07226005 0.02911894 -0.06309507 -0.056822706
0.07218902 -0.0619939 -0.065839425 -0.038576216 0.0807353 0.089525625 0.0072371555 -0.042947836
-0.028717082 0.03687167 -0.028941868 -0.0060143205 -0.08024907 -0.040108014 0.048668522 0.072011866
0.091379486 0.017258152 0.07894608 -0.04808012 -0.049887072 0.07751725 0.035594925 -0.09323759
-0.05667765 0.0777589 0.013063726 0.03345868 -0.07701549 -0.03369444 -0.08249925 -0.023961581
-0.0698544 -0.071492285 -0.003958508 -0.07563216 -0.007177636 -0.015126257 -0.050754093 0.053529095
-0.06873233 -0.085388444 0.029496053 0.01686262 0.062403146 0.027983543 -0.07443271 -0.006865043
0.0049404213 0.07684033 -0.07298426 -0.031117951 0.038033012 0.012978347 -0.008831787 0.034520518
-0.022174193 -0.0015577737 0.012151554 -0.05325725 0.01863802 0.08478349 -0.019546445 0.07363778
0.07372734 0.0273378 -0.05895293 0.001768814 -0.067071825 -0.08118186 -0.012432696 -0.041503936
0.077812545 0.03559082 -0.04422699 0.044991102 0.028957007 0.012883646 -0.056105692 0.08445008
0.05202348 -0.018091414 0.011522737 -0.06703504 0.0429595 -0.012433133 0.08710708 0.075269245
0.060849894 -0.07965361 -0.02831354 0.012651724 0.064339064 -0.048422214 0.057518028 -0.029824968
-0.06476093 0.06769719 -0.07824671 0.0692869 -0.0012032434 -0.068452425 -0.042246424 -0.07249488
0.01915429 -0.01417085 0.059327453 0.044579502 0.03796367 -0.083992675 0.010816321 -0.0012337079
0.06882119 -0.0690443 0.07002528 0.023120893 0.010789734 0.00634267 0.06817853 0.049791154
0.06470685 -0.08139842 0.040899824 0.01864708 -0.046192717 -0.05314332 0.02591903 -0.023824273
-0.07395962 0.028559878 0.024098726 0.077052794 -0.08155636 -0.05371381 -0.046718787 -0.020927828

bias f4 [33]
00000000: 6c45 ce3c 2f95 273d 1e6b 98bd 7102 fe3c
00000010: bbe0 693d ff3f 67bb 621c 44bc e025 403d
00000020: 23fa 33bb 44b9 98bd 3baf a5bd d4f4 023c
00000030: 812f 923c 1e0b 5a3d e210 adbd 9afd 013a
00000040: 53c1 f53c f21c 2c3d b8f7 513d bcfe 92bd
00000050: 659a 1abd b12b 5ebc 2bf3 673d be2e ab3d
00000060: 9cb2 94bd 8d73 21bc b18c 7ebb 7d0b 9fbd
00000070: 35a4 92bd 7aa9 4d3c efd9 0dbd f1b9 cb3c
00000080: 00c1 8f3d
0.025179587 0.040913757 -0.07442306 0.031007024 0.057099085 -0.0035285947 -0.011969658 0.04691112
-0.0027462326 -0.074572116 -0.08090063 0.007992942 0.017844917 0.05323326 -0.08450486 0.0004958749
0.02999941 0.042019792 0.051261634 -0.07177493 -0.0377449 -0.0135602215 0.056628387 0.08358525
-0.072606295 -0.00985421 -0.0038841183 -0.07765863 -0.07160226 0.012552613 -0.034631666 0.024868937
0.07019234

weight f4 [33]
00000000: 0850 803f df43 7f3f dcaf 7e3f d778 7f3f
00000010: 86df 7e3f a02e 803f f5a5 7e3f cbe6 7e3f
00000020: 02ca 7e3f 29ab 7e3f 95ae 7e3f 1c12 7f3f
00000030: edac 7e3f 3e43 7f3f e495 7f3f eb33 7f3f
00000040: fa12 7f3f ccb9 7e3f 7cbd 7e3f 3d6e 803f
00000050: 6392 7f3f cdcb 7e3f aa20 803f 4257 7f3f
00000060: 4fd6 7e3f b868 7f3f 6364 803f dad4 7e3f
00000070: d053 7f3f 99e6 7e3f 7462 803f 7bae 7e3f
00000080: cac0 7e3f
1.0024424 0.9971294 0.9948709 0.9979376 0.9955982 1.0014229 0.9947198 0.9957091
0.9952699 0.9947992 0.9948514 0.9963701 0.99482614 0.9971198 0.9983809 0.99688596
0.9963833 0.99502254 0.9950788 1.0033642 0.99832743 0.99529725 1.0009968 0.9974252
0.9954576 0.99769163 1.0030636 0.99543536 0.9973726 0.99570614 1.0030046 0.99484986
0.9951292

bias f4 [33]
00000000: 58a6 ed3b 113e be3b 65e9 e73b 3ad1 f03b
00000010: e418 edbb a476 d5bb ca88 023c 416a d6bb
00000020: 6c63 e63b 1ca0 ff3b 3eb8 fabb afbd cabb
00000030: 6ee4 ffbb 1a90 c7bb f6a7 ee3b 182d babb
00000040: de3a ca3b 359b ee3b 0dcf e8bb dc71 d43b
00000050: eaf2 cabb eee7 ff3b 0998 d63b 65ce d03b
00000060: 2b2d e8bb 83b8 ce3b ba5f cfbb d303 dbbb
00000070: 4f7a d73b 5866 edbb 67bb cfbb 2e0e ebbb
00000080: 105f e0bb
0.0072524957 0.0058057387 0.0070773833 0.0073491605 -0.007235633 -0.006514387 0.007967183 -0.006543428
0.007030895 0.007801069 -0.007651358 -0.006187163 -0.0078092134 -0.0060901763 0.007283206 -0.005681645
0.0061715683 0.0072816857 -0.0071047605 0.0064832997 -0.0061935084 0.0078096306 0.0065488857 0.0063722604
-0.0070854626 0.0063086166 -0.00632855 -0.0066838055 0.0065758596 -0.0072448663 -0.006339479 -0.007173321
-0.00684727

running_mean f4 [33]
00000000: 7ab6 ee3d 493b 1b3e a8a3 c13d 6e4f fc3d
00000010: 8c3d 063e 9887 bd3d 336d d53d dd84 0c3e
00000020: 93fa df3d e44c a13d b965 613d 31b7 db3d
00000030: efad ff3d fe07 2b3e 77cd 0e3e 7cc7 d73d
00000040: 7427 153e 66fa fa3d 210d 183e 4025 d23d
00000050: 5b82 c03d 694d e53d 9d41 473e 3ffa 093e
00000060: 90e5 c53d 3a41 bb3d 321d d33d 6e5d 423d
00000070: 4390 ae3d dcd3 ed3d ca51 f63d beb2 c83d
00000080: ef93 163e
0.116558984 0.15159334 0.09455043 0.123198375 0.13109416 0.09254378 0.10421219 0.13722558
0.10936465 0.07875994 0.05502865 0.107283 0.12484347 0.16702268 0.13945566 0.105360955
0.14565831 0.12254791 0.14848758 0.10261011 0.09399863 0.111964054 0.19458623 0.13474368
0.09662926 0.091433 0.10308303 0.047452383 0.085236095 0.116126746 0.12027319 0.09799717
0.1470487

running_var f4 [33]
00000000: b032 1c3e 94a7 7c3e 4e73 ee3d bb5b 653e
00000010: 49f7 183e 1db5 e33d ce45 033e 0d90 323e
00000020: 5f4d 183e 10fc e93d 52e2 ce3d 92e5 143e
00000030: d2db 2a3e 9139 483e aa93 8f3e 4e7f 133e
00000040: 3a3f 0d3e a4d4 e53d e293 5b3e 94a5 293e
00000050: 825f e73d af1a 583e 27f3 803e fab7 293e
00000060: cf11 183e c108 e03d 435b 1e3e 5007 b93d
00000070: 29eb f83d e4e1 083e bbeb 2a3e 2ed2 253e
00000080: c7fc 193e
0.15253711 0.24673301 0.116430864 0.22398274 0.14938082 0.11118529 0.12819597 0.17437764
0.14873265 0.1142503 0.10101761 0.14540699 0.16685417 0.1955321 0.28042346 0.14404032
0.1379365 0.112221986 0.21443132 0.1656707 0.112975135 0.21103929 0.2518551 0.16574088
0.14850543 0.1093917 0.15464501 0.09034598 0.12154228 0.1336742 0.16691487 0.16193458
0.15037833

weight f4 [1, 33]
00000000: bd03 fb3b 60a1 3d3c ffdb c93d 506b 903b
00000010: 30ff e0bd 3186 56bd 0e38 263e f8f9 75bd
00000020: 68ee c13d 94a9 193e 7002 10be fa11 0cbd
00000030: dc01 1abe 897c e5bc 22b1 e93d 3f1a 10bc
00000040: d52d e53c 7d95 e63d cbb9 cdbd c603 4b3d
00000050: 6771 f1bc 504e 1b3e c330 663d 90f8 3a3d
00000060: b612 cbbd 6118 203d 222a 97bc 582c 8fbd
00000070: 9853 743d ecd4 e2bd 1804 0dbd c03a d7bd
00000080: dd8b a6bd
0.0076603577 0.011574119 0.09856414 0.004407324 -0.10986173 -0.05237407 0.1623232 -0.060052842
0.094693005 0.15006095 -0.1406343 -0.03419683 -0.15039772 -0.028013485 0.114107385 -0.00879532
0.027975956 0.112589814 -0.10045203 0.049564146 -0.02947302 0.15166593 0.056198847 0.045647204
-0.09915678 0.03908575 -0.018452708 -0.0699088 0.059650034 -0.11075768 -0.034427732 -0.105092525
-0.081321456
