mlruns/528961946943719398/models/m-15bc6265c24a430e9fb7ff9865d0f8ac/artifacts/data/model.pth (torch, 53457 bytes, 11 tensors)

weight f4 [124]
0.5591338 0.5936758 0.58880526 0.5885704 0.46565616 0.5177943 0.5441195 0.58081377
0.49050507 0.5353069 0.57389134 0.56771773 0.5110615 0.5223175 0.51789606 0.623537
0.6256308 0.5398332 0.58291 0.53524935 0.4848463 0.5557911 0.4897367 0.57837254
0.50274456 0.49511355 0.5515886 0.51306325 0.5471039 0.5214928 0.52615154 0.525917
0.5462506 0.58206546 0.55336714 0.6024065 0.49186778 0.59022605 0.5032302 0.44129947
0.5470661 0.5355337 0.498631 0.5651274 0.5798732 0.53267455 0.5276075 0.49737513
0.5892454 0.5474559 0.5434101 0.4935635 0.57305986 0.49122527 0.5296381 0.5496908
0.5726322 0.5931223 0.60334617 0.5162048 0.5663403 0.4704508 0.39296898 0.584531
0.58817315 0.5142749 0.48722318 0.5349297 0.5140084 0.51228684 0.4546216 0.551725
0.49968886 0.5163935 0.5025611 0.49429816 0.54015076 0.52067375 0.48469248 0.5273409
0.5347817 0.5708093 0.5939946 0.5164102 0.5083349 0.58295965 0.5078648 0.61749405
0.54148906 0.37620968 0.45047104 0.49492747 0.479996 0.5285155 0.48378342 0.52443504
0.60583234 0.52827346 0.45885172 0.53012043 0.5076476 0.5666993 0.51681435 0.51809734
0.4817427 0.54534245 0.53748274 0.43577474 0.5704547 0.41645905 0.5046297 0.59348965
0.5188619 0.540685 0.5948946 0.500329 0.5115453 0.5825527 0.48551306 0.5422624
0.39182547 0.57441807 0.4539378 0.57686305
00000000: 6523 0f3f 23fb 173f f1bb 163f 8dac 163f
00000010: 7c6a ee3e 2b8e 043f 6a4b 0b3f 36b0 143f
00000020: 7b23 fb3e df09 093f 8bea 123f f355 113f
00000030: edd4 023f 9ab6 053f d694 043f 1fa0 1f3f
00000040: 5729 203f 8232 0a3f 9739 153f 1a06 093f
00000050: c63d f83e 5348 0e3f c5be fa3e 3910 143f
00000060: deb3 003f 867f fd3e e934 0d3f 1d58 033f
00000070: 000f 0c3f 8d80 053f deb1 063f 7fa2 063f
00000080: 14d7 0b3f 3e02 153f 78a9 0d3f 5037 1a3f
00000090: 18d6 fb3e 0e19 173f b2d3 003f 01f2 e13e
000000a0: 860c 0c3f bd18 093f 904c ff3e 30ac 103f
000000b0: 9272 143f 5c5d 083f 4911 073f f4a7 fe3e
000000c0: c9d8 163f 1226 0c3f ed1c 0b3f 5bb4 fc3e
000000d0: 0db4 123f e181 fb3e 5d96 073f 89b8 0c3f
000000e0: 0698 123f ddd6 173f e574 1a3f ff25 043f
000000f0: aefb 103f edde f03e 3b33 c93e d3a3 153f
00000100: 8492 163f 85a7 033f 5175 f93e 27f1 083f
00000110: 0e96 033f 3b25 033f 2ac4 e83e d93d 0d3f
00000120: 38d7 ff3e 5d32 043f d8a7 003f a614 fd3e
00000130: 5247 0a3f e04a 053f 9d29 f83e d0ff 063f
00000140: 74e7 083f 8f20 123f 0810 183f 7533 043f
00000150: 3c22 023f d83c 153f 6d03 023f 1714 1e3f
00000160: 079f 0a3f 8e9e c03e 24a4 e63e 2267 fd3e
00000170: 09c2 f53e cb4c 073f 76b2 f73e 6041 063f
00000180: d417 1b3f ee3c 073f 9dee ea3e f9b5 073f
00000190: 31f5 013f 3513 113f f24d 043f 07a2 043f
000001a0: fba6 f63e 909b 0b3f 7898 093f de1d df3e
000001b0: 5209 123f 1f3a d53e 692f 013f f0ee 173f
000001c0: 22d4 043f 556a 0a3f 034b 183f 9015 003f
000001d0: a2f4 023f 2c22 153f 2b95 f83e b5d1 0a3f
000001e0: 599d c83e 100d 133f 896a e83e 4cad 133f

bias f4 [124]
-0.011117605 -0.0508584 0.0050202855 -0.026866198 0.013371916 0.0066714804 0.030909574 -0.009849647
-0.026759451 -0.044215355 0.021018045 -0.022061797 -0.04993059 -0.011616082 -0.04263413 -0.050596934
-0.078940354 0.016276803 -0.07962513 -0.0012847153 -0.00960402 0.011013331 0.021782491 -0.069381975
0.015994549 0.051098708 -0.017348824 -0.00016211059 0.01855173 0.0068391543 -0.011266329 -0.010739622
0.010245915 0.07189331 0.035271548 0.03667778 0.052665178 -0.07860931 0.009200436 0.045688353
0.017664166 -0.047077484 -0.02407088 -0.01394389 -0.0024968414 0.020178277 0.028973402 0.027081234
0.031107517 -0.01833534 0.025241323 -0.0029396815 0.022129595 -0.011058854 0.016732322 0.015406796
-0.028505588 -0.03259687 -0.004848552 0.0070022885 -0.03705247 0.043556858 0.04071183 -0.03334904
-0.11747417 0.039875805 -0.023685044 -0.008124968 0.0034642057 0.022293957 0.051530924 -0.03260143
5.2290092e-05 0.024870116 0.021909924 0.0463531 0.024058072 0.03801514 -0.04703317 0.0013658315
-0.0044698515 0.013538066 0.01088902 0.01098797 0.023871293 -0.0047313087 0.04062936 -0.04545758
-0.031588234 0.0035944409 -0.0120996395 -0.0017533149 0.066242404 0.021908974 -0.0017768622 0.007565247
-0.024259843 -0.031023782 0.0032092144 -0.039639566 0.023045518 -0.063581124 -0.019319264 -0.00085096864
0.00884669 0.040148668 0.080924906 -0.029406274 0.014981239 0.019203218 0.0026380941 0.031981703
0.0037812123 0.013756063 0.0050862976 0.027046986 0.006199626 0.03479198 -0.011060885 -0.017972324
0.04570689 -0.05143769 -0.01034025 0.013689754
00000000: 9d26 36bc e650 50bd 3581 a43b 8016 dcbc
00000010: e115 5b3c 6f9c da3b 1336 fd3c 6a60 21bc
00000020: a336 dbbc 291b 35bd 092e ac3c f1ba b4bc
00000030: 0584 4cbd 6151 3ebc 20a1 2ebd bb3e 4fbd
00000040: 7bab a1bd ee56 853c 8012 a3bd e463 a8ba
00000050: 2e5a 1dbc 4271 343c 3271 b23c 2318 8ebd
00000060: 0007 833c e14c 513d 1f1f 8ebc 3bfc 29b9
00000070: ccf9 973c fc1a e03b 6996 38bc 3df5 2fbc
00000080: 7bde 273c cd3c 933d e678 103d 713b 163d
00000090: 71b7 573d ebfd a0bd 6dbd 163c b623 3b3d
000000a0: 71b4 903c 52d4 40bd 4b30 c5bc ea74 64bc
000000b0: 0ca2 23bb ea4c a53c a159 ed3c 77d9 dd3c
000000c0: 31d5 fe3c ff33 96bc e4c6 ce3c aca7 40bb
000000d0: 2049 b53c 3230 35bc 3912 893c c96c 7c3c
000000e0: 8d84 e9bc 4c84 05bd 9ae0 9ebb 7473 e53b
000000f0: 55c4 17bd ad68 323d 73c1 263d 0199 08bd
00000100: 4c96 f0bd d054 233d 2307 c2bc 961e 05bc
00000110: ba07 633b d1a1 b63c 1712 533d 1489 05bd
00000120: 0f52 5b38 6abc cb3c 717c b33c c0dc 3d3d
00000130: 6f15 c53c c3b5 1b3d daa5 40bd b305 b33a
00000140: d577 92bb c4ce 5d3c dc67 323c e306 343c
00000150: bb8d c33c 1809 9bbb f96a 263d ba31 3abd
00000160: aa62 01bd b690 6b3b 913d 46bc 7ccf e5ba
00000170: 19aa 873d 737a b33c 9ae5 e8ba e4e5 f73b
00000180: 94bc c6bc 9625 febc af51 523b 195d 22bd
00000190: f4c9 bc3c d236 82bd 6f43 9ebc 8a13 5fba
000001a0: b5f1 103c ee72 243d f5bb a53d 6de5 f0bc
000001b0: df73 753c 1150 9d3c e0e3 2c3b 3fff 023d
000001c0: 37ce 773b 1c61 613c f5aa a63b a491 dd3c
000001d0: 3b26 cb3b 0982 0e3d b738 35bc b23a 93bc
000001e0: 2637 3b3d 54b0 52bd 276a 29bc fd4a 603c

running_mean f4 [124]
70.22828 11147.901 6.139359 5.5429697 107.903366 3.3943386 3.090741 3.5049264
2.9439259 1.6186765 446.2013 51.849518 572.1317 4.139398 0.0906453 1184.5671
352.57263 4.939424 1542.0795 0.4173494 0.066279486 1.5955274 0.37250265 2.9265504
1.0518723 3.514064 6.6262083 0.15640683 0.63882965 1.8752223 1.729336 1.8032911
486.37253 2.8290293 2.8230653 0.12821706 101.76773 50.855026 19.232054 3.7333508
16.674942 2.191266 0.01622524 45.11295 37.68097 24.759457 30.53639 31.740063
3.0401325 1.2620695 0.086067505 0.46543255 0.1610969 0.6875624 0.19379634 0.0752527
0.04504131 0.060727503 0.029387334 0.020161923 0.086550154 0.019544039 0.11301208 0.9617927
0.22055192 0.08829303 0.08516915 0.053622168 0.36871815 0.14425384 0.1753555 0.14347653
0.107492104 0.0336129 0.035334274 0.028933296 0.019894702 0.023475919 0.013599551 0.020418812
0.80846566 0.13040583 0.03259019 0.022201337 0.11455097 0.037252907 0.06415447 0.055252414
0.01605607 0.007937756 0.038132813 0.15566652 0.05025498 0.02601119 0.06337676 0.074749075
0.027055409 0.015747437 0.044599745 0.043718863 0.05489842 0.021218494 0.024767004 0.015639378
0.5842447 0.10514448 0.43442932 0.005579944 0.45048404 0.020156238 0.022412939 0.940908
0.07194386 0.27135032 0.051280357 0.030041087 0.03930431 0.085681304 0.024319597 0.8630579
0.014634695 0.82960415 0.007881213 0.08644775
00000000: e174 8c42 9b2f 2e46 a175 c440 0260 b140
00000010: 86ce d742 d83c 5940 b3ce 4540 b750 6040
00000020: 4869 3c40 cb30 cf3f c419 df43 e865 4f42
00000030: 6e08 0f44 f375 8440 3ea4 b93d 2612 9444
00000040: 4c49 b043 c30f 9e40 8bc2 c044 d2ae d53e
00000050: 8abd 873d 3e3a cc3f abb8 be3e 9a4c 3b40
00000060: c0a3 863f 6de6 6040 e609 d440 1d29 203e
00000070: 578a 233f 4907 f03f e25a dd3f 3ed2 e63f
00000080: af2f f343 d10e 3540 1aad 3440 554b 033e
00000090: 1489 cb42 8c6b 4b42 3fdb 9941 38ef 6e40
000000a0: 4866 8541 b43d 0c40 cbea 843c a973 3442
000000b0: 50b9 1642 5e13 c641 874a f441 a6eb fd41
000000c0: 8891 4240 7e8b a13f 2944 b03d 2d4d ee3e
000000d0: 96f6 243e 1704 303f 8c72 463e 161e 9a3d
000000e0: 3d7d 383d 67bd 783d b5bd f03c 9e2a a53c
000000f0: 3541 b13d d21a a03c e172 e73d 0c38 763f
00000100: 5dd8 613e fad2 b43d 2a6d ae3d eba2 5b3d
00000110: a0c8 bc3e 47b7 133e 6490 333e 83eb 123e
00000120: d224 dc3d aead 093d acba 103d 8505 ed3c
00000130: 37fa a23c 9250 c03c a7d0 5e3c 5a45 a73c
00000140: 9bf7 4e3f 1b89 053e 4b7d 053d 94df b53c
00000150: b399 ea3d 8196 183d 6b63 833d 5b50 623d
00000160: 0588 833c 5d0d 023c 2731 1c3d 0b67 1f3e
00000170: 2ad8 4d3d 6b15 d53c adcb 813d 0b16 993d
00000180: 4ea3 dd3c c500 813c 39ae 363d 8d12 333d
00000190: 2add 603d 68d2 ad3c 2ce4 ca3c 271e 803c
000001a0: 1091 153f fd55 d73d 856d de3e f6d7 b63b
000001b0: d8a5 e63e b21e a53c 579b b73c 59df 703f
000001c0: 4d57 933d 6eee 8a3e 5a0b 523d ba18 f63c
000001d0: 8efd 203d ae79 af3d e439 c73c 5df1 5c3f
000001e0: 5cc6 6f3c f060 543f 3420 013c 850b b13d

running_var f4 [124]
472.90137 1.6011344e+08 1.9284376 1.1788133 30268.268 0.3254831 0.13314126 0.7882128
0.30921856 1.1082323 205420.66 28817.021 204104.05 0.9276788 0.13038436 146358.77
199726.97 1954.882 269469.22 0.27024156 0.062788025 0.2963834 0.24584925 0.6719774
0.054903068 0.42539573 2.634307 0.4126595 0.4257699 3.2543619 0.7899389 0.5581771
47754.633 0.48910922 0.48794165 0.22045943 18635.393 5158.6133 3576.8398 945.04346
3420.441 1247.6067 0.071725525 231195.11 871.5868 419.3211 545.89624 250.6698
2.7912807 0.6917096 0.12155314 0.3985803 0.26816908 0.21494842 0.157693 0.07007795
0.046367068 0.073657714 0.028584301 0.0197248 0.07920522 0.019239249 0.19718066 0.06388224
0.24591583 0.15737925 0.07683879 0.04992459 0.23295623 0.12354026 0.1450539 0.12034952
0.097369134 0.03242127 0.03394457 0.02790034 0.019689757 0.023057738 0.013408789 0.020075016
0.15391314 0.11264805 0.03161605 0.022070032 0.09901195 0.035764944 0.05953173 0.0525341
0.015509828 0.007916022 0.037168276 0.13270473 0.047597915 0.025329778 0.058701813 0.0698715
0.02627393 0.01552738 0.04234025 0.042250544 0.051750403 0.021045847 0.0239944 0.015414603
0.2445875 0.0937873 0.24849486 0.0055344445 0.24967055 0.019941526 0.021926887 0.055388704
0.06766875 0.19918941 0.04939951 0.029561192 0.037678823 0.079076566 0.024053 0.11977048
0.014428338 0.1429611 0.007802498 0.079766825
00000000: 6073 ec43 32b2 184d 0bd7 f63f 5be3 963f
00000010: 8978 ec46 b9a5 a63e 2f56 083e 50c8 493f
00000020: e551 9e3e 8eda 8d3f 2a9b 4848 0b22 e146
00000030: 0352 4748 5c7c 6d3f 7a83 053e b1ed 0e48
00000040: be0b 4348 395c f444 a793 8348 1a5d 8a3e
00000050: 0297 803d 91bf 973e e8bf 7b3e b606 2c3f
00000060: 0ae2 603d 78cd d93e 7c98 2840 1b48 d33e
00000070: 83fe d93e 7747 5040 7039 4a3f b2e4 0e3f
00000080: a28a 3a47 866c fa3e 7dd3 f93e 1ec0 613e
00000090: c996 9146 e834 a145 708d 5f45 c842 6c44
000000a0: 0ec7 5545 6af3 9b44 d5e4 923d c7c6 6148
000000b0: 8ee5 5944 1aa9 d143 5c79 0844 78ab 7a43
000000c0: 58a4 3240 e113 313f daf0 f83d b812 cc3e
000000d0: 754d 893e 701b 5c3e 467a 213e 0785 8f3d
000000e0: 65eb 3d3d dbd9 963d a029 ea3c e795 a13c
000000f0: 5936 a23d a19b 9d3c bae9 493e b1d4 823d
00000100: 5cd1 7b3e 0728 213e a85d 9d3d ba7d 4c3d
00000110: 148c 6e3e ad02 fd3d 0289 143e cf79 f63d
00000120: 7869 c73d 2acc 043d 7609 0b3d 418f e43c
00000130: 6a4c a13c 95e3 bc3c 8ab0 5b3c 5c74 a43c
00000140: 689b 1d3e 05b4 e63d d57f 013d 36cc b43c
00000150: c7c6 ca3d 437e 123d 8bd7 733d ff2d 573d
00000160: ef1c 7e3c 34b2 013c c33d 183d c0e3 073e
00000170: 08f6 423d 6580 cf3c 5071 703d ca18 8f3d
00000180: 6d3c d73c 8d66 7e3c f86c 2d3d e80e 2d3d
00000190: 3bf8 533d 5768 ac3c e78f c43c 888d 7c3c
000001a0: 2575 7a3e 8e13 c03d 7075 7e3e 495a b53b
000001b0: a3a9 7f3e 695c a33c 04a0 b33c 44df 623d
000001c0: ea95 8a3d 4ff8 4b3e 2457 4a3d 502a f23c
000001d0: 1c55 1a3d e5f2 a13d cc0a c53c 3a4a f53d
000001e0: d664 6c3c 6564 123e 19ac ff3b ca5c a33d

weight f4 [80, 124]
0.009677625 -0.0075017014 0.02239852 0.090276755 -0.049843468 0.045888938 0.059034623 -0.07867098
0.024639014 0.01993945 -0.03526324 0.04282443 0.03432748 0.07915925 0.04279107 0.0055775875
-0.019555533 0.03575225 0.045380734 -0.009630076 0.053012747 0.043462776 -0.0025249284 0.05557879
-0.0013957095 -0.034589816 -0.023131132 -0.05061056 -0.0036183873 0.041045014 -0.026904458 0.038849298
-0.055835657 -0.057080805 -0.035652336 -0.010956566 -0.039153162 -0.011271473 -0.014208854 -0.021023754
-0.054020166 -0.028717179 -0.038082145 -0.012095727 0.05095059 -0.055794317 0.10001824 -0.033940516
-0.07753669 0.0040977458 0.107003115 0.019633474 0.036273696 0.004768223 0.018085642 0.0040745107
0.028281853 -0.062108632 -0.034630083 -0.004632724 0.06865512 -0.07521754 -0.06263904 0.03185099
0.05477231 -0.059988577 0.057181258 -0.009430617 -0.012455279 0.02453267 -0.010699453 0.029424807
-0.03900378 0.06626789 0.027862052 0.004001706 -0.029810488 -0.01316826 0.050539304 0.031631738
-0.07503679 -0.014311477 0.0059707314 0.009637133 0.034617055 0.03551715 0.08425641 0.084218465
0.0018068524 -0.015509385 0.06861265 0.0334613 -0.031540357 -0.0016840012 -0.007549778 0.022902997
-0.00548357 -0.015432815 -0.0050941803 -0.0047058854 -0.010768819 -0.01145032 0.019336006 0.086795636
0.003243223 -0.004413199 -0.10248 -0.058862556 -0.047264393 -0.00046323225 -0.010629156 -0.006397415
0.020334132 0.0316025 0.035030138 -0.013577047 -0.029753601 -0.013715994 0.004043409 0.045697175
-0.008556893 0.030668652 -0.0115049435 -0.021252748 -0.043152235 -0.011905706 -0.045229707 -0.056239482
-0.04171463 0.037623204 0.050727468 -0.07093376 0.047649596 0.032149535 -0.07984779 -0.012003061
0.030132161 0.08453912 -0.0017445373 -0.019738479 0.010711591 0.0050419914 -0.036555953 0.03369007
-0.011391006 -0.024024885 -0.03576075 -0.0065948474 0.048081506 -0.004719236 -0.08145306 0.024317877
-0.09424619 -0.04113203 -0.052489772 0.029714845 -0.07943545 -0.08838263 0.023139179 0.06353017
0.031021394 -0.054925967 -0.025067838 -0.025626231 0.009884821 0.009948505 0.014966412 0.056048132
0.02502786 -0.042242475 -0.0021554818 0.02450555 0.0550121 0.030042848 0.07983117 -0.06153493
-0.06921102 0.036813024 0.047716703 -0.028407367 0.014541192 0.045340594 0.05269824 -0.026834235
-0.012193955 -0.075495 0.008505162 -0.031208687 -0.008333 0.015148363 0.05520494 -0.029646507
0.095861256 0.03633323 -0.053002708 -0.005961963 -0.030332023 -0.02521314 -0.050482776 0.055067707
0.05495982 -0.032003745 0.018710937 0.0013219081 -0.057557397 0.010030204 0.05235715 -0.040883113
-0.024590632 -0.0006169538 0.048714444 0.04800046 -0.05688225 -0.03185866 0.006502568 -0.059476756
0.006905773 -0.013222461 0.055559155 -0.040897775 -0.019474361 0.004957795 0.049295608 -0.0539017
0.04401246 0.03473818 -0.026449474 0.026287384 0.021329451 -0.028459791 -0.079376854 -0.019595426
-0.047374003 0.016371978 0.009519473 -0.0019730993 -0.0037538004 -0.02760612 -0.008637815 -0.07655958
-0.041750103 -0.013611592 -0.0017192094 0.05037185 -0.018075215 0.034834497 0.014244652 -0.0008707022
-0.041469093 0.0090842815 -0.0056053046 0.03448056 0.0033625688 0.03572308 0.027319165 -0.052023333
00000000: e78e 1e3c d5d0 f5bb 1a7d b73c 05e3 b83d
00000010: aa28 4cbd 0af6 3b3d 4ace 713d 401e a1bd
00000020: c2d7 c93c 0f58 a33c 3070 10bd ab68 2f3d
00000030: f99a 0c3d 3f1e a23d b045 2f3d 32c4 b63b
00000040: ed32 a0bc f470 123d 26e1 393d 77c7 1dbc
00000050: e523 593d 0606 323d 4579 25bb 96a6 633d
00000060: 3df0 b6ba 0dae 0dbd 807d bdbc 054d 4fbd
00000070: 7722 6dbb d11e 283d bd66 dcbc 7120 1f3d
00000080: eeb3 64bd 90cd 69bd 2f08 12bd 2b83 33bc
00000090: 115f 20bd fcab 38bc 41cc 68bc 023a acbc
000000a0: 4044 5dbd 4a40 ebbc 06fc 1bbd 282d 46bc
000000b0: 91b1 503d 9588 64bd 5dd6 cc3d 3605 0bbd
000000c0: 8ecb 9ebd 6246 863b 7324 db3d 61d6 a03c
000000d0: ba93 143d c13e 9c3b 5728 943c 7983 853b
000000e0: 58af e73c 9f65 7ebd 46d8 0dbd 1bce 97bb
000000f0: 0e9b 8c3d a70b 9abd e648 80bd 2f76 023d
00000100: ee58 603d 95b6 75bd e536 6a3d e082 1abc
00000110: 3a11 4cbc bdf8 c83c c24c 2fbc 4b0c f13c
00000120: 6dc2 1fbd 76b7 873d f53e e43c be20 833b
00000130: 2035 f4bc b0bf 57bc 4d02 4f3d 4890 013d
00000140: e3ac 99bd af7a 6abc 20a6 c33b 11e5 1d3c
00000150: 9dca 0d3d 6e7a 113d a08e ac3d bb7a ac3d
00000160: e8d3 ec3a 131b 7ebc ca84 8c3d b70e 093d
00000170: 7630 01bd b4b9 dcba 2164 f7bb 119f bb3c
00000180: 85af b3bb ebd9 7cbc 15ed a6bb d433 9abb
00000190: b36f 30bc 1f9a 3bbc 8b66 9e3c e9c1 b13d
000001a0: 418c 543b 999c 90bb 09e1 d1bd dd19 71bd
000001b0: 4f98 41bd fbdd f2b9 e925 2ebc 68a1 d1bb
000001c0: c493 a63c 9f71 013d c37b 0f3d 4372 5ebc
000001d0: d3bd f3bc 0cb9 60bc 937e 843b f62c 3b3d
000001e0: 3632 0cbc d33c fb3c 3b7f 3cbc 3e1a aebc
000001f0: 66c0 30bd 2610 43bc c942 39bd 5f5b 66bd
00000200: f6dc 2abd ca1a 1a3d 9bc7 4f3d b845 91bd
00000210: 392c 433d 3baf 033d 3d87 a3bd 7da8 44bc
00000220: b9d7 f63c d922 ad3d f5a8 e4ba 97b2 a1bc
00000230: ab7f 2f3c 4a37 a53b b2bb 15bd 99fe 093d
00000240: 58a1 3abc d6cf c4bc dd79 12bd 9719 d8bb
00000250: 1df1 443d d2a3 9abb ddd0 a6bd 4936 c73c
00000260: 2504 c1bd 0f7a 28bd 84ff 56bd 8c6c f33c
00000270: 0eaf a2bd f401 b5bd 608e bd3c 1b1c 823d
00000280: 9420 fe3c 0dfa 60bd 115b cdbc 1aee d1bc
00000290: f2f3 213c 0eff 223c af35 753c ba92 653d
000002a0: 3a07 cd3c 7206 2dbd fc42 0dbb ddbf c83c
000002b0: 5e54 613d 6b1c f63c 867e a33d 0d0c 7cbd
000002c0: 82be 8dbd 41c9 163d 9772 433d 91b6 e8bc
000002d0: 2e3e 6e3c 0fb7 393d 1cda 573d 78d3 dbbc
000002e0: 27c9 47bc 1f9d 9abd 3c59 0b3c 5ca9 ffbc
000002f0: 2387 08bc d730 783c 931e 623d 3bdd f2bc
00000300: e852 c43d 27d2 143d 5e19 59bd 925c c3bb
00000310: dd7a f8bc c98b cebc 07c7 4ebd ad8e 613d
00000320: 8c1d 613d 5c16 03bd ae47 993c e043 ad3a
00000330: 4ec1 6bbd ba55 243c 7374 563d 0d75 27bd
00000340: 4b72 c9bc 12bb 21ba cc88 473d 219c 443d
00000350: 5dfd 68bd 3a7e 02bd 7e13 d53b e69d 73bd
00000360: d349 e23b 05a3 58bc ff91 633d 6d84 27bd
00000370: b288 9fbc 0075 a23b 31ea 493d 07c8 5cbd
00000380: 6946 343d 9f49 0e3d 91ac d8bc a458 d73c
00000390: 1abb ae3c 8224 e9bc 5590 a2bd 9686 a0bc
000003a0: 3e0b 42bd 871e 863c 90f7 1b3c 1d4f 01bb
000003b0: 5202 76bb 3b26 e2bc 9f85 0dbc 45cb 9cbd
000003c0: 2802 2bbd 2803 5fbc 1857 e1ba b752 4e3d
000003d0: 7912 94bc 9eae 0e3d 6762 693c d63f 64ba
000003e0: 7fdb 29bd 3dd6 143c b4ac b7bb 7d3b 0d3d
000003f0: 8b5e 5c3b 5d52 123d 71cc df3c 6b16 55bd

bias f4 [80]
-0.07060071 -0.030713247 -0.079107076 -0.059436906 -0.04041957 -0.07984248 -0.070028625 -0.017818209
-0.01729419 -0.06683893 -0.026764095 -0.031446017 -0.07087508 -0.003157385 -0.027846875 -0.0056602065
-0.021215735 -0.028429395 -0.043782976 -0.06330312 -0.05202724 -0.01525406 -0.031593304 -0.044665422
-0.029166628 -0.034898993 -0.007503458 -0.07386395 -0.06669462 -0.024944417 -0.02457206 -0.021380825
-0.053543646 -0.031065186 -0.066424936 -0.021548115 -0.04270892 -0.113483444 -0.049509447 -0.05485517
-0.019392561 -0.01895168 -0.060253978 -0.042702626 -0.09176121 -0.011813634 -0.01574961 -0.08774693
-0.0069896174 -0.06260733 -0.07881288 -0.08524392 -0.066286765 -0.07127233 -0.013237359 -0.044844847
-0.042124167 -0.03899611 -0.0555803 -0.016901704 -0.0733931 -0.058709845 -0.056419566 -0.025189577
-0.064760804 0.009772353 -0.062452152 -0.092598535 -0.051321898 -0.01785828 -0.06055038 -0.04942123
-0.09824885 -0.022927158 -0.051473763 -0.07062573 0.0172282 -0.05928536 -0.043156542 -0.017933104
00000000: 1b97 90bd 599a fbbc e402 a2bd 1d74 73bd
00000010: fe8e 25bd 7484 a3bd 2b6b 8fbd 7ef7 91bc
00000020: 8cac 8dbc d9e2 88bd 6040 dbbc 8acd 00bd
00000030: f426 91bd 21ec 4ebb 211f e4bc 4179 b9bb
00000040: 9fcc adbc c3e4 e8bc c755 33bd 11a5 81bd
00000050: 841a 55bd 2aec 79bc fb67 01bd 17f3 36bd
00000060: daee eebc 3ff2 0ebd 91df f5bb fc45 97bd
00000070: 3097 88bd 3c58 ccbc 584b c9bc d726 afbc
00000080: 9550 5bbd 6b7c febc cc09 88bd ac85 b0bc
00000090: 8cef 2ebd 026a e8bd 6bca 4abd d1af 60bd
000000a0: 26dd 9ebc 8e40 9bbc e0cc 76bd f3e8 2ebd
000000b0: 4ded bbbd f98d 41bc 5305 81bc aab4 b3bd
000000c0: 2909 e5bb 4638 80bd a668 a1bd 5d94 aebd
000000d0: 5bc1 87bd 3af7 91bd 82e1 58bc 3baf 37bd
000000e0: 648a 2cbd 63ba 1fbd 2ba8 63bd 7175 8abc
000000f0: 1f4f 96bd bc79 70bd 3418 67bd 5f5a cebc
00000100: 50a1 84bd 381c 203c d4cd 7fbd 4da4 bdbd
00000110: e936 52bd 874b 92bc ad03 78bd ea6d 4abd
00000120: b136 c9bd bcd1 bbbc 27d6 52bd 39a4 90bd
00000130: 2722 8d3c 35d5 72bd eac4 30bd 72e8 92bc

weight f4 [80]
0.046555754 0.06425716 0.032723352 0.05571623 0.038488824 0.044925548 0.033399384 0.0514102
0.036999505 0.06722735 0.05559455 0.046068564 0.032169495 0.065690495 0.02658198 0.04579825
0.044967297 0.040041223 0.024770185 0.012941306 0.050031256 0.013465886 0.060605895 0.0530251
0.051499728 0.036797155 0.07143982 0.040583566 0.057703566 0.054438658 0.030884685 0.058788534
0.027957512 0.0735392 0.061733447 0.034285787 0.060753886 0.03899396 0.036456995 0.05448134
0.05059923 0.05686412 0.061623495 0.049298238 0.041200906 0.052718394 0.06929408 0.06852428
0.050120115 0.07603168 0.069817334 0.058239274 0.040498253 0.07245451 0.035454355 0.057529435
0.06018122 0.070927344 0.049365707 0.058640923 0.031130714 0.002096312 0.032892298 0.03175908
0.009073883 0.03279811 0.049356714 0.050642397 0.057328235 0.049557455 0.023357905 0.07227599
0.034335837 0.036953285 0.014575419 0.026738668 0.065617055 0.030824134 0.064785756 0.049607117
00000000: 3fb1 3e3d 4299 833d ec08 063d b436 643d
00000010: 75a6 1d3d da03 383d cbcd 083d 8093 523d
00000020: cb8c 173d 7eae 893d 1cb7 633d 64b2 3c3d
00000030: 29c4 033d bd88 863d 74c2 d93c f296 3b3d
00000040: a12f 383d 4402 243d d8ea ca3c c607 543c
00000050: 93ed 4c3d 05a0 5c3c e33d 783d d930 593d
00000060: 61f1 523d 9db8 163d 0a4f 923d f43a 263d
00000070: 935a 6c3d 12fb 5e3d e101 fd3c 3fcc 703d
00000080: 2707 e53c b89b 963d 36dc 7c3d 416f 0c3d
00000090: 11d9 783d 21b8 1f3d ee53 153d d327 5f3d
000000a0: 2341 4f3d 5aea 683d eb68 7c3d f3ec 493d
000000b0: 48c2 283d 3eef 573d 0eea 8d3d 7556 8c3d
000000c0: c04a 4d3d 7fb6 9b3d 64fc 8e3d 4e8c 6e3d
000000d0: 7fe1 253d 0863 943d 9638 113d fca3 6b3d
000000e0: 9580 763d 5b42 913d b233 4a3d 7731 703d
000000f0: d705 ff3c 4762 093b 13ba 063d cf15 023d
00000100: a0aa 143c 5057 063d 442a 4a3d 676e 4f3d
00000110: 03d1 6a3d c2fc 4a3d 1459 bf3c 6f05 943d
00000120: bca3 0c3d 545c 173d bdcd 6e3c 0d0b db3c
00000130: 3c62 863d e582 fc3c 65ae 843d d530 4b3d

bias f4 [80]
0.3759006 -0.35428724 0.37050936 -0.37527546 -0.3450648 0.3456132 -0.44316065 0.44020522
-0.42410982 -0.35613823 -0.38767892 0.35879654 -0.44393277 0.37090623 -0.40062237 -0.44836137
-0.38246715 0.43367803 0.4281537 -0.3492913 -0.3651376 -0.40638742 -0.42184675 0.3970685
0.41725144 -0.4115353 -0.37713474 0.42467394 -0.45453712 -0.38512504 0.41589493 0.34553373
-0.3440691 0.42058286 0.37745267 -0.34923446 0.40065017 0.41005936 0.37986997 -0.36181498
0.42728946 -0.37348422 -0.37382838 -0.36933002 0.38663048 0.35590988 -0.43132737 0.42200214
0.36962786 0.41684207 0.38985318 -0.36626586 -0.3600652 0.39515808 0.39123973 -0.34403524
0.41095328 -0.4481706 0.3538669 0.3989951 -0.35887882 -0.35150746 -0.362395 0.41999736
0.43481806 -0.4380764 -0.3586235 -0.37388307 0.34206676 0.45149457 -0.396443 0.39437303
-0.37155598 0.34866658 0.42248213 0.42391697 -0.35612226 -0.36111325 0.40025598 -0.3570853
00000000: 0b76 c03e 2365 b5be 67b3 bd3e 1b24 c0be
00000010: 55ac b0be 37f4 b03e f4e5 e2be 9462 e13e
00000020: ec24 d9be c057 b6be da7d c6be 2eb4 b73e
00000030: 284b e3be 6ce7 bd3e 601e cdbe 9f8f e5be
00000040: bcd2 c3be 0c0b de3e f636 db3e 4fd6 b2be
00000050: 51f3 babe 0312 d0be 4cfc d7be 904c cb3e
00000060: fba1 d53e c1b4 d2be ce17 c1be dd6e d93e
00000070: 17b9 e8be 1c2f c5be 2ef0 d43e cce9 b03e
00000080: d329 b0be a356 d73e 7a41 c13e dcce b2be
00000090: 0522 cd3e 4df3 d13e 517e c23e d03f b9be
000000a0: afc5 da3e 5339 bfbe 6f66 bfbe d318 bdbe
000000b0: 6ef4 c53e d239 b63e f1d6 dcbe aa10 d83e
000000c0: dd3f bd3e 536c d53e d69a c73e 3387 bbbe
000000d0: 775a b8be 2952 ca3e 9350 c83e 6325 b0be
000000e0: 7868 d23e 9e76 e5be 0b2e b53e 1649 cc3e
000000f0: f7be b7be c9f8 b3be d68b b9be e509 d73e
00000100: 79a0 de3e 8d4b e0be 809d b7be 9a6d bfbe
00000110: 6023 af3e 4c2a e73e 94fa cabe 43eb c93e
00000120: 963c bebe 6d84 b23e 944f d83e a50b d93e
00000130: a855 b6be d6e3 b8be 5aee cc3e e2d3 b6be

running_mean f4 [80]
-0.025436152 0.020113133 -0.00801313 0.006375455 0.0035022162 -0.0040630344 -0.010401643 0.004324483
0.0009922782 0.0028244774 -0.0065727555 0.0076669855 -0.023433022 0.0020358886 0.0066293036 0.0045631654
0.0006355405 -0.003309239 0.041294638 -0.01635824 -0.0009323602 0.012701952 0.00018309832 0.0057048653
0.012103789 -0.009514204 0.034333117 -0.01033573 -0.00304241 0.017548531 0.0056568943 -0.0041910233
-0.009301224 -0.0038285616 0.0075738407 0.021295998 0.009162754 -0.044556316 -0.003789005 0.014841041
-0.011942901 0.01725809 0.006381645 0.0049343198 -0.023314321 0.00031424777 0.008660022 -0.0042466326
-0.00086713827 0.011447954 -0.014571265 -0.016254587 -0.009950288 -0.013097874 -0.011111016 0.01880607
-0.0007583262 -0.0007968759 -0.004427821 0.00035814743 0.0036277433 -0.01166975 -0.00034639332 0.00023276563
0.010198388 0.026158215 0.018807188 -0.011981314 -0.005433483 0.002233321 -0.010369194 -0.010351529
-0.012969147 -0.0013354528 0.0030483608 0.0077008936 0.020677892 -0.013300941 0.006410704 0.0027866457
00000000: 7a5f d0bc 4cc4 a43c 8149 03bc 31e9 d03b
00000010: 7085 653b 3423 85bb a76b 2abc 65b4 8d3b
00000020: 550f 823a de1a 393b 4560 d7bb 563b fb3b
00000030: 9cf6 bfbc 8b6c 053b a13a d93b 9b86 953b
00000040: 679a 263a d1df 58bb 9124 293d b701 86bc
00000050: a269 74ba d91b 503c 15fe 3f39 e1ef ba3b
00000060: f84e 463c 77e1 1bbc e2a0 0c3d 3257 29bc
00000070: 2b63 47bb f0c1 8f3c 785d b93b da54 89bb
00000080: 2964 18bc 9be8 7abb fb2d f83b f274 ae3c
00000090: 601f 163c af80 36bd f550 78bb d627 733c
000000a0: 28ac 43bc d760 8d3c 1e1d d13b 13b0 a13b
000000b0: adfd bebc 9fc1 a439 c4e2 0d3c 5627 8bbb
000000c0: aa50 63ba 3390 3b3c 51bc 6ebc 5728 85bc
000000d0: 8806 23bc 7798 56bc fb0a 36bc 300f 9a3c
000000e0: 69ca 46ba 70e5 50ba 4117 91bb bcc5 bb39
000000f0: 6fbf 6d3b 7b32 3fbc 209c b5b9 8c12 7439
00000100: 2417 273c c149 d63c 8811 9a3c 464d 44bc
00000110: 5c0b b2bb e95c 123b 8de3 29bc 7699 29bc
00000120: 8c7c 54bc 5c0a afba 02c7 473b c757 fc3b
00000130: af64 a93c 31ec 59bc e210 d23b 28a0 363b

running_var f4 [80]
0.038513333 0.051759444 0.031384822 0.061238844 0.043493327 0.04508319 0.034639593 0.037212558
0.026840208 0.062187668 0.037856508 0.042560626 0.031419195 0.036797903 0.044263046 0.037244257
0.030395588 0.03610878 0.12912256 0.026342414 0.05717181 0.026266836 0.05197762 0.036167372
0.032331143 0.026187107 0.07190076 0.032930076 0.023934485 0.048018783 0.037297428 0.037136894
0.0356683 0.05181855 0.06694671 0.053955916 0.057625722 0.013879546 0.034015067 0.04880416
0.024525197 0.04547152 0.03921193 0.028232738 0.0380848 0.035730083 0.045026865 0.041544378
0.044859998 0.049406722 0.04090153 0.02864963 0.039359752 0.036382902 0.020284621 0.0613397
0.034718126 0.033460815 0.045020904 0.029281983 0.046674624 0.030750353 0.031320445 0.027376119
0.052871022 0.03648926 0.05586715 0.026745029 0.031250495 0.0354128 0.040438812 0.04857836
0.046915963 0.032627665 0.024636324 0.052699126 0.06255723 0.025736347 0.052349288 0.02453171
00000000: 28c0 1d3d b601 543d 5f8d 003d 95d5 7a3d
00000010: 0f26 323d 27a9 383d 3fe2 0d3d 326c 183d
00000020: ffdf db3c 7fb8 7e3d 6d0f 1b3d 0d54 2e3d
00000030: 6ab1 003d 66b9 163d 2b4d 353d 6f8d 183d
00000040: 2b00 f93c cde6 133d b438 043e 0ccc d73c
00000050: fd2c 6a3d 8c2d d73c 7ce6 543d 3d24 143d
00000060: a96d 043d 5886 d63c b540 933d b0e1 063d
00000070: 4112 c43c 58af 443d 30c5 183d db1c 183d
00000080: ec18 123d b03f 543d 5b1b 893d e100 5d3d
00000090: f308 6c3d 0967 633c 6253 0b3d dfe6 473d
000000a0: 11e9 c83c 5840 3a3d b09c 203d 5848 e73c
000000b0: cffe 1b3d b559 123d 176e 383d 702a 2a3d
000000c0: 1ebf 373d b45e 4a3d 5d88 273d a1b2 ea3c
000000d0: b137 213d 3d06 153d ef2b a63c 563f 7b3d
000000e0: 9834 0e3d 350e 093d d767 383d c5e0 ef3c
000000f0: e42d 3f3d 2ae8 fb3c de49 003d e243 e03c
00000100: 498f 583d c375 153d f4d4 643d 6418 db3c
00000110: 8500 003d 030d 113d 2ba3 253d 1afa 463d
00000120: f42a 403d 96a4 053d 1ed2 c93c 0adb 573d
00000130: 011e 803d 08d5 d23c 356c 563d baf6 c83c

weight f4 [1, 80]
0.36495724 -0.38785458 0.39113122 -0.37877882 -0.407827 0.3991517 -0.35429323 0.35392585
-0.36064622 -0.37089083 -0.37862945 0.39474803 -0.3442659 0.36713627 -0.35890785 -0.33731315
-0.3782785 0.357421 0.35330275 -0.41261864 -0.36799595 -0.3886409 -0.35264525 0.3680285
0.3599798 -0.38181996 -0.36276367 0.37963265 -0.34530237 -0.37025073 0.37171307 0.3861248
-0.4005278 0.3503314 0.37821415 -0.3812504 0.36009932 0.3731377 0.37542218 -0.3915274
0.3666486 -0.38947576 -0.39397708 -0.396215 0.37545046 0.38097978 -0.3582207 0.35697573
0.3681786 0.3468789 0.36422926 -0.40359294 -0.36487892 0.3654444 0.3963379 -0.40425697
0.36832565 -0.35792193 0.39538223 0.3714775 -0.38791466 -0.40740064 -0.39370158 0.37854877
0.35586604 -0.3672254 -0.40003473 -0.37223727 0.41287354 0.34525988 -0.36640176 0.36815912
-0.3662591 0.40800163 0.3705556 0.35658935 -0.36973274 -0.39293095 0.36717737 -0.38398647
00000000: addb ba3e e094 c6be 5a42 c83e 4cef c1be
00000010: b3ce d0be 9d5d cc3e ec65 b5be c535 b53e
00000020: 9fa6 b8be 67e5 bdbe b8db c1be 6a1c ca3e
00000030: 9f43 b0be 49f9 bb3e c5c2 b7be 4fb4 acbe
00000040: b8ad c1be e3ff b63e 19e4 b43e c042 d3be
00000050: f769 bcbe f1fb c6be eb8d b4be 3b6e bc3e
00000060: 464f b83e e87d c3be 29bc b9be 365f c23e
00000070: 79cb b0be 8191 bdbe 2d51 be3e 26b2 c53e
00000080: fb11 cdbe a35e b33e 49a5 c13e 4133 c3be
00000090: f05e b83e e80b bf3e 5637 c03e 4876 c8be
000000a0: 5eb9 bb3e 5e69 c7be 5db7 c9be b1dc cabe
000000b0: 0b3b c03e c80f c33e b468 b7be 86c5 b63e
000000c0: e881 bc3e 1c9a b13e 427c ba3e bca3 cebe
000000d0: 69d1 babe 871b bb3e cdec ca3e c5fa cebe
000000e0: 2e95 bc3e 8b41 b7be 8a6f ca3e 4d32 be3e
000000f0: c09c c6be d196 d0be 4193 c9be 25d1 c13e
00000100: 1334 b63e f804 bcbe 5ad1 ccbe e295 bebe
00000110: 2964 d33e e7c5 b03e 0399 bbbe 5a7f bc3e
00000120: 5086 bbbe 97e5 d03e 77b9 bd3e e192 b63e
00000130: 9c4d bdbe 3f2e c9be acfe bb3e e099 c4be
