mlruns/528961946943719398/models/m-2340dead9b2549d3aa0dd1d27e3b3d66/artifacts/data/model.pth (torch, 164334 bytes, 17 tensors)

weight f4 [124]
000000 66 b2 54 3f 43 72 62 3f d1 6e 60 3f 30 90 50 3f
       0.83084714 0.884556 0.8766909 0.8147001
000010 fb ff 49 3f 0d fc 56 3f f1 b0 44 3f ff 9d 5c 3f
       0.7890622 0.8397835 0.7683249 0.8617858
000020 8a 27 68 3f 31 60 66 3f b3 c7 54 3f e0 17 4b 3f
       0.9068533 0.89990526 0.83117217 0.79333305
000030 92 82 4e 3f 71 c6 55 3f 27 fc 5e 3f 53 81 56 3f
       0.80667984 0.8350592 0.87103504 0.83791083
000040 31 4c 50 3f 4e a4 59 3f fe f9 5f 3f 58 04 53 3f
       0.8136626 0.85016334 0.8749083 0.82428503
000050 e0 da 3c 3f db f8 42 3f 43 2a 4f 3f 0b 32 4c 3f
       0.73771477 0.76160973 0.8092386 0.7976386
000060 4a 41 61 3f 75 46 4d 3f 1c 3b 5a 3f 45 c4 4e 3f
       0.8799025 0.80185634 0.85246444 0.80768234
000070 ac 4e 4e 3f 12 ee 4b 3f d7 af 54 3f 66 b2 62 3f
       0.80588794 0.7966014 0.8308081 0.88553464
000080 07 55 57 3f fe ae 6f 3f c1 0e 73 3f 43 0d 66 3f
       0.84114116 0.9362639 0.9494439 0.89863986
000090 3f 75 46 3f f8 72 4e 3f aa 39 59 3f a2 c7 44 3f
       0.77522653 0.8064418 0.84853613 0.76867115
0000a0 42 c9 47 3f 1b b3 57 3f b6 e3 5b 3f 83 99 5e 3f
       0.7804147 0.8425767 0.85894334 0.8695299
0000b0 49 c9 72 3f bd bb 56 3f 4b 2e 5b 3f 8b 4c 44 3f
       0.94838387 0.83880216 0.8561751 0.76679295
0000c0 3f 76 57 3f c3 07 46 3f 43 ca 55 3f 51 9f 55 3f
       0.84164804 0.77355593 0.8351175 0.8344622
0000d0 e0 08 59 3f 46 20 44 3f 99 85 49 3f 94 8b 48 3f
       0.8477917 0.76611745 0.7871948 0.7833798
0000e0 e3 a2 4d 3f bf 17 5c 3f 03 16 45 3f de f5 44 3f
       0.8032667 0.85973734 0.7698671 0.76937664
0000f0 c8 d8 48 3f aa f4 67 3f c8 22 68 3f f4 c6 6a 3f
       0.7845578 0.906077 0.9067807 0.9170983
000100 9b df 4e 3f d7 d2 4c 3f 8c d6 4b 3f 62 c8 39 3f
       0.80809945 0.80009216 0.7962425 0.72571385
000110 5e 12 4c 3f 35 0d 49 3f 39 75 48 3f d5 5f 4f 3f
       0.79715526 0.7853578 0.7830387 0.81005603
000120 64 dd 57 3f 9f ba 5e 3f 38 dd 50 3f 77 49 4f 3f
       0.8432219 0.8700351 0.81587553 0.80971473
000130 fd f1 66 3f a2 f1 4f 3f ed 7b 5a 3f 59 60 65 3f
       0.90212995 0.8122808 0.85345346 0.8960014
000140 d6 3c 63 3f fe 58 6a 3f 20 a2 6b 3f bb e6 80 3f
       0.88764703 0.9154204 0.9204426 1.0070413
000150 c6 5b 3f 3f 69 b5 4f 3f 54 c2 52 3f 9d c4 4e 3f
       0.7474941 0.81136185 0.8232777 0.8076876
000160 e0 dd 5a 3f 61 87 67 3f 29 34 5c 3f 5f 78 42 3f
       0.85494804 0.90440947 0.8601709 0.7596492
000170 90 10 35 3f 5c 9d 44 3f 7f b5 5a 3f 99 87 67 3f
       0.707284 0.7680261 0.8543319 0.9044128
000180 71 6e 3c 3f 4e 0d 5c 3f 54 c1 3c 3f 00 2b 50 3f
       0.7360602 0.859578 0.73732495 0.8131561
000190 a0 1d 5c 3f dc a7 79 3f ab 3f 40 3f 54 10 61 3f
       0.85982704 0.9752176 0.7509715 0.8791554
0001a0 6c 3e 45 3f 0b 6a 46 3f 19 00 5f 3f e8 ab 49 3f
       0.77048373 0.7750556 0.87109524 0.78777933
0001b0 12 8e 47 3f 97 16 61 3f f4 5b 6c 3f 99 a6 7a 3f
       0.7795116 0.87925094 0.9232781 0.9791046
0001c0 6f 15 51 3f 0e b0 56 3f 07 30 6f 3f 21 8e 4b 3f
       0.8167333 0.8386239 0.9343266 0.79513747
0001d0 27 1b 4b 3f a0 0d 69 3f c5 4f 5f 3f 9b e4 58 3f
       0.79338306 0.91036415 0.87231094 0.84723824
0001e0 ef d2 5b 3f c7 e5 4e 3f 05 e5 62 3f 62 e8 66 3f
       0.85868734 0.8081936 0.88630706 0.9019834

bias f4 [124]
000000 da 9a 26 bc c9 0f 3b 3d 36 f6 b4 3c 90 e9 1a 3c
       -0.010168755 0.04566935 0.022090059 0.0094551
000010 1d 65 e3 3c a3 55 4a bb e2 79 22 bd 62 63 7c 3c
       0.027758176 -0.0030873797 -0.039667018 0.015404554
000020 f7 fe 17 bd 00 a8 2e bd 18 73 da ba f6 a6 9a bc
       -0.037108388 -0.042640686 -0.0016666381 -0.018878441
000030 fc 00 e7 3c be 8e 9f 3a ff b1 9d bc 8e 49 82 3c
       0.028198712 0.0012173278 -0.019249914 0.015904214
000040 15 14 7c 3c 74 25 c3 3c b4 a9 0c 3d 47 f0 00 bd
       0.015385647 0.02382157 0.03434153 -0.031479146
000050 d8 c1 68 ba b6 20 5b 3a 9a 3b 60 3c d0 b0 33 3d
       -0.00088789826 0.00083590613 0.013686085 0.043869793
000060 21 26 25 bd 17 e0 08 3d 1a 2e 6c 3d ff 9a 49 bc
       -0.040319566 0.033416834 0.057661153 -0.01230502
000070 a6 55 bb 3c c4 e4 ea 3b 75 e6 92 3c 1c f2 eb 3c
       0.022867989 0.0071683843 0.017932156 0.02880197
000080 70 f0 a4 3d 1a 4b b5 3c c8 81 94 3d e3 1c 22 bd
       0.08053672 0.022130538 0.07251316 -0.03957833
000090 05 0d 58 3c 84 a1 e9 3b b2 7c e4 bc bb ba de 3b
       0.013186698 0.00712985 -0.02789149 0.0067971624
0000a0 44 d5 2d bb 5d 94 e0 3b 55 d1 90 3a 20 6e ca bb
       -0.0026524821 0.006853624 0.0011048714 -0.0061776787
0000b0 66 ce 44 bd 85 da 36 bd 5d 1b 7e ba 42 59 a2 3c
       -0.0480484 -0.04464199 -0.00096934085 0.019817952
0000c0 29 c8 08 3d 86 75 c7 bb 2a 41 ae bc 44 97 50 3d
       0.033394013 -0.006087008 -0.021271307 0.05092551
0000d0 e4 de 49 bd 4c 9b 24 bc 73 3b d9 ba e1 52 3a 3d
       -0.04928483 -0.010046791 -0.0016573503 0.045489196
0000e0 a4 65 bd 3a 11 85 5a bc 6e 97 0d 3d 5a 84 04 ba
       0.0014449847 -0.01333739 0.034568243 -0.00050551223
0000f0 80 40 79 3c 4a 7f 17 bd ae ff ca bb 7c 26 57 3c
       0.015213132 -0.036986627 -0.00619503 0.013131734
000100 e2 57 f7 3b 68 89 d6 3c 91 59 c6 bc 09 81 63 3c
       0.0075483182 0.026188567 -0.02421263 0.013885745
000110 66 6e 7b 3c 3e 8b e1 bc 11 76 58 bc d7 8d 11 bc
       0.015346145 -0.027532216 -0.013211743 -0.008883915
000120 59 e5 77 3a bd 9f 1d 3c 36 71 87 bb a1 1c 8b 3c
       0.0009456478 0.009620604 -0.004133369 0.016981425
000130 63 92 3e bc 85 3d 21 bc 0e 48 73 3c f3 7d 48 bd
       -0.011631581 -0.009841328 0.014848722 -0.04894824
000140 e7 c8 51 3d c1 ed 94 bd 22 b3 3c bd 43 2f cf bc
       0.051216986 -0.072719105 -0.04606927 -0.02529109
000150 26 a4 25 3c 66 c8 b5 3c 54 bd d1 ba c6 f7 04 3b
       0.010109937 0.022190284 -0.0016001859 0.0020289286
000160 f6 23 a0 bc 2a 64 b6 bc 05 0a 04 bd 26 d6 a2 3c
       -0.019548398 -0.022264559 -0.032236118 0.019877505
000170 84 db c0 bc 3c ae 03 bc f3 90 04 bd 57 6c fa bc
       -0.023542173 -0.008037146 -0.032364797 -0.030569239
000180 ab 00 95 bc 35 9c 07 bd bf 2b a3 bc 88 58 05 bc
       -0.018188795 -0.033107955 -0.01991832 -0.008138783
000190 d9 f2 7c bc 5e 04 0e bb 66 5e b0 3b d2 89 cd bc
       -0.015438759 -0.0021670084 0.005382347 -0.025090132
0001a0 04 2b ac bb 68 8d 40 3d 74 03 56 3b 85 7d 47 3c
       -0.0052541513 0.047009856 0.0032655867 0.012175922
0001b0 87 16 ab 3c f5 23 ba 3c e5 aa 99 bc 92 be 2e 3d
       0.020884765 0.022722224 -0.018758247 0.04266221
0001c0 f0 41 d2 bb 78 5d a5 bb 76 92 9d bc f8 13 b2 bb
       -0.006416552 -0.0050465427 -0.019234877 -0.0054345094
0001d0 ae 48 ac bc 5b 6e 01 3c aa ad b6 bd 83 f7 2b 3d
       -0.02103075 0.007899846 -0.089198425 0.041984092
0001e0 29 4a 9f 3c 6f b6 f6 3b f7 78 aa bc 89 e8 f2 bc
       0.019444542 0.007529072 -0.020809634 -0.029651897

running_mean f4 [124]
000000 8d ab 8b 42 36 13 25 46 94 b4 c3 40 1f 94 b2 40
       69.83506 10564.803 6.115793 5.580581
000010 f7 54 d0 42 dc 35 59 40 49 79 45 40 29 2c 5f 40
       104.16595 3.3939123 3.0855277 3.4870703
000020 3c e9 3b 40 93 d2 ce 3f 7d 2f df 43 ab b6 3a 42
       2.9361105 1.6158012 446.371 46.678387
000030 e0 fe 0c 44 72 ee 83 40 4e 4c e2 3d d9 bd 91 44
       563.9824 4.122857 0.1104971 1165.9327
000040 37 22 b1 43 45 58 ba 40 c1 c0 be 44 88 58 db 3e
       354.2673 5.823275 1526.0236 0.4284098
000050 6e ca 6f 3d dc 45 c9 3f d4 a9 c4 3e f1 d9 38 40
       0.05854266 1.5724444 0.3841082 2.888302
000060 05 2a 86 3f 9e 77 60 40 e6 db d1 40 00 c9 22 3e
       1.0481573 3.5073009 6.558093 0.15896988
000070 c0 cd 1c 3f a7 a8 ea 3f 77 e9 db 3f 5e 42 e3 3f
       0.6125145 1.8332719 1.7180623 1.7754629
000080 ab 5f ed 43 83 93 33 40 af 6e 33 40 b9 c7 17 3e
       474.7474 2.8058784 2.8036306 0.14822282
000090 5a 38 c0 42 9f 6e 45 42 13 d4 b1 41 36 13 6c 40
       96.11006 49.35803 22.228552 3.6886725
0000a0 80 1b 74 41 f5 2e 3c 40 98 bb 98 3c 77 96 47 42
       15.256714 2.940366 0.01864414 49.89694
0000b0 73 01 1d 42 83 dc c9 41 cd a0 fa 41 e9 3e fe 41
       39.251415 25.232672 31.328516 31.780718
0000c0 3c e7 42 40 24 ea 9c 3f 28 fc b2 3d 10 cf d5 3e
       3.0453634 1.2258954 0.08739501 0.4175954
0000d0 8a 87 27 3e b7 0e 35 3f da c4 3e 3e ef 1e 91 3d
       0.16360298 0.7072558 0.1862978 0.07085978
0000e0 34 b6 1d 3d d7 9d 66 3d 1d 02 00 3d 6d 5e a2 3c
       0.03850384 0.05630287 0.031252015 0.019820416
0000f0 42 89 bd 3d 85 02 9c 3c cf 90 f1 3d eb 9f 72 3f
       0.092546955 0.01904417 0.11795198 0.94775265
000100 c3 c8 74 3e 0f 79 b7 3d bf 63 b6 3d 0f 98 25 3d
       0.2390471 0.08958637 0.08905744 0.040428218
000110 4a 90 b7 3e c6 57 17 3e 0c 98 22 3e 66 f4 26 3e
       0.3585227 0.14779577 0.15878314 0.16304168
000120 56 5b d7 3d 8b 50 26 3d 8b b2 08 3d 06 ce 0c 3d
       0.10515468 0.040604156 0.033373397 0.034376167
000130 a2 7f 95 3c 30 6f b7 3c 5a f3 8a 3c e5 1b 82 3c
       0.018249337 0.022391886 0.016961742 0.015882442
000140 cf 3d 4a 3f d1 65 1a 3e c5 d0 21 3d 64 94 80 3c
       0.7900056 0.15077902 0.03950574 0.015695758
000150 26 3f c8 3d 12 f0 13 3d fd 78 99 3d 08 76 67 3d
       0.097776696 0.03611762 0.0749378 0.056509048
000160 a6 50 b4 3c 2f cf 0b 3c fe 01 03 3d 26 33 21 3e
       0.022011112 0.008533283 0.03198432 0.15742168
000170 97 ec 5e 3d d8 d1 e0 3c 6f ca 5c 3d 93 d8 a3 3d
       0.05442485 0.027443811 0.053903993 0.08000293
000180 ad 6f e0 3c 1c c8 96 3c c9 a9 53 3d 6c 6b 1a 3d
       0.027397001 0.018405966 0.05167559 0.0377001
000190 36 c7 65 3d 20 78 8a 3c c7 c5 bc 3c 74 71 71 3c
       0.056098185 0.016902983 0.023043526 0.014736522
0001a0 bb 99 18 3f 25 e6 ba 3d 83 43 dd 3e 4c c4 db 3b
       0.59609574 0.09125928 0.4321557 0.00670675
0001b0 f9 23 e3 3e 19 ff 91 3c 2b 78 be 3c 19 7d 6d 3f
       0.44363382 0.017821835 0.02325066 0.9276901
0001c0 5d af 84 3d 1a 15 88 3e 4b 86 6f 3d f6 9f be 3c
       0.064787604 0.265786 0.05847768 0.023269635
0001d0 c4 22 21 3d 8b f7 aa 3d c1 95 a5 3c 20 75 5d 3f
       0.039339796 0.08347996 0.02021301 0.86506844
0001e0 d9 10 80 3c 92 e1 52 3f ff f1 1f 3c 91 7d ac 3d
       0.015633034 0.82375443 0.009762286 0.084223874

running_var f4 [124]
000000 df 40 fe 43 58 f6 c4 4c 91 a3 f2 3f 3d 71 9d 3f
       508.5068 1.0326496e+08 1.8956167 1.2300183
000010 fc 1f f1 46 09 a2 aa 3e 94 aa 04 3e f2 06 46 3f
       30863.992 0.33326748 0.12955695 0.7735435
000020 96 8d 9d 3e 0b 54 8e 3f d2 95 4b 48 03 0a c8 46
       0.30772084 1.1119398 208471.28 25605.006
000030 75 01 40 48 26 56 6e 3f 03 90 20 3e e6 63 0f 48
       196613.83 0.931002 0.15679936 146831.6
000040 ec 81 3c 48 5d 80 11 45 70 8a 86 48 52 99 8a 3e
       193031.69 2328.0227 275539.5 0.270701
000050 3d 8d 68 3d b4 83 98 3e 1d 7a 80 3e 67 f4 28 3f
       0.05677532 0.29787982 0.25093165 0.6599793
000060 87 eb 51 3d 7d 48 e2 3e 39 8f 2a 40 7f 97 dc 3e
       0.051250007 0.4419593 2.6649916 0.43084332
000070 2b f1 d2 3e 5e 7b 53 40 0e 41 4f 3f c2 dc 0e 3f
       0.41199622 3.3044047 0.8095864 0.558056
000080 a2 a6 30 47 f0 f6 0b 3f 53 e3 0a 3f 62 06 82 3e
       45222.633 0.5467367 0.5425312 0.25395495
000090 0b d4 82 46 40 d9 97 45 41 af 75 45 b7 8b 6c 44
       16746.021 4859.1562 3930.9534 946.18304
0000a0 f8 10 44 45 ac 77 d6 44 a3 65 9b 3d 3d df 8b 48
       3137.0605 1715.7397 0.07587745 286457.9
0000b0 b6 47 6d 44 52 44 d7 43 4e 68 10 44 00 00 78 43
       949.1205 430.53375 577.62976 248.0
0000c0 22 bf 30 40 73 f7 1a 3f 1b 22 03 3e b2 1f b3 3e
       2.7616658 0.6053383 0.12805979 0.3498512
0000d0 59 82 8f 3e e2 02 54 3e 50 57 1b 3e 20 fa 86 3d
       0.28029135 0.20704225 0.15170026 0.06590676
0000e0 c8 9c 2f 3d 89 40 88 3d 4b 06 f8 3c 03 15 9f 3c
       0.042874128 0.06652934 0.030276438 0.019419199
0000f0 f4 b8 ab 3d 41 46 99 3c 90 bf 49 3e fa 50 7d 3d
       0.083848864 0.018710257 0.19701982 0.061844803
000100 59 6a 8a 3e a9 23 27 3e b7 08 a6 3d be 64 1f 3d
       0.27034262 0.16322197 0.08107131 0.038914435
000110 6a ad 6b 3e f5 3a 01 3e 6a 3d 09 3e d5 01 0c 3e
       0.23015371 0.12620147 0.13402334 0.13672574
000120 db 22 c1 3d 3b da 1f 3d 2f 4c 04 3d 9e 51 08 3d
       0.09430476 0.03902648 0.032299217 0.03328096
000130 94 92 92 3c b4 85 b3 3c fe c6 88 3c 84 37 80 3c
       0.01789216 0.02191434 0.01669645 0.015651472
000140 d5 0f 2a 3e fe 6f 03 3e 53 c5 1b 3d db a9 7d 3c
       0.16607602 0.1283569 0.03802998 0.015482391
000150 71 02 b5 3d a6 ca 0e 3d 94 66 8e 3d 63 fa 59 3d
       0.08838356 0.03486123 0.06953159 0.053217303
000160 7a ce b0 3c 4e cf 0a 3c d6 74 fd 3c ee d1 07 3e
       0.02158283 0.008472277 0.0309395 0.13263676
000170 c9 64 52 3d 63 df da 3c fe a7 50 3d c9 e4 96 3d
       0.051365647 0.026717847 0.05094146 0.07367856
000180 aa 9c d9 3c 8a 30 94 3c a8 f4 48 3d 17 dc 14 3d
       0.026563961 0.018089551 0.049061447 0.036342707
000190 cd 87 57 3d d3 ed 87 3c 65 69 b8 3c 61 7f 6d 3c
       0.052619744 0.016592896 0.022511194 0.0144957015
0001a0 e1 02 77 3e b5 14 aa 3d 9e 50 7b 3e 55 06 db 3b
       0.24122192 0.08304731 0.24542472 0.0066841044
0001b0 41 0b 7d 3e 5c 97 8f 3c 9c 0f ba 3c 10 9b 89 3d
       0.24711324 0.017528228 0.022712521 0.06719029
0001c0 33 66 77 3d fb 39 48 3e 6b 54 61 3d 14 cb b9 3c
       0.0604002 0.19553368 0.055012148 0.022679843
0001d0 4d bc 1a 3d 0d 11 9d 3d 3d a2 a2 3c 90 e0 ef 3d
       0.037777234 0.07669268 0.019852752 0.11712754
0001e0 8d bb 7c 3c 96 dc 14 3e 8d ab 1e 3c bd 59 9e 3d
       0.015425575 0.14537272 0.009684456 0.0773196

weight f4 [216, 124]
000000 1c ef 89 3c e0 7b 69 3d b0 47 56 3d 13 bf af bc
       0.016837649 0.057002902 0.05231446 -0.021453416
000010 4c 4a 63 3d 9c b4 58 3d ee 15 84 bd f3 60 05 3d
       0.055490777 0.052906618 -0.06449495 0.03256316
000020 4c 31 64 bd d8 98 3e bd ee 3a 63 bd 5d fa 66 bd
       -0.055711076 -0.046532482 -0.05547612 -0.05639111
000030 40 ab c8 3b 8b e7 4c bd 6b 8f ab 3d 93 ee 6a bc
       0.00612393 -0.050025504 0.08376964 -0.014339107
000040 ae d0 28 3d 18 3c 8b 3d 21 7a 97 bd 6b c8 9d bd
       0.041214637 0.06798571 -0.07396341 -0.07704242
000050 aa bb 64 3d 8a 25 75 3d 7c 7f 98 bd 81 c3 a8 3c
       0.055843033 0.059850253 -0.07446191 0.020601036
000060 2c b5 2c 3d bb b8 71 bd 7f 25 ec bc ce 11 2f 3d
       0.042164966 -0.059014063 -0.028826473 0.04274159
000070 e4 55 aa 3b ed ab 92 bd 09 c3 cf bb 49 42 c6 bd
       0.0051982272 -0.071616985 -0.0063403887 -0.09680612
000080 44 fc b1 3c ab c7 f9 3b 5c 21 2c 3a b2 18 25 3c
       0.021726735 0.007622679 0.000656625 0.010076689
000090 0e d3 d2 bc 79 0c 94 bd d2 b4 9d 3d a7 e3 ed bb
       -0.025735404 -0.072289415 0.07700504 -0.0072598043
0000a0 8f 07 98 3d 6c 47 02 3b 13 ee 93 bd a0 0a b2 bc
       0.07423317 0.0019878997 -0.072231434 -0.021733582
0000b0 7e e5 8a 3d 7b fa 50 3d 5a 8e 94 3c 0d c1 23 3d
       0.067820534 0.051020127 0.018134285 0.03997903
0000c0 4a d5 42 bc bf b4 82 3d 4a b8 f7 3c 02 78 be bd
       -0.011891672 0.06382131 0.030239243 -0.093002334
0000d0 00 be 5e bd 85 f1 c0 3d 07 ae 80 bd 9f 1e 0f 3c
       -0.054380417 0.09421066 -0.06283193 0.008735328
0000e0 5c cb 14 bd 81 3a ca bd 41 f8 94 bd 75 b3 27 3d
       -0.03632675 -0.0987444 -0.07273913 0.040942628
0000f0 90 d7 28 3d 64 a7 b2 3c f0 0e 8a bd 78 a3 21 3d
       0.0412212 0.021808334 -0.0674113 0.039462537
000100 46 10 3a bd e5 bc df 3c b2 13 16 3c 2d ae 0b 3c
       -0.045425676 0.027311752 0.009159969 0.008525413
000110 7f f2 ea bc 3c e4 40 bd 21 1a 6c bd ad c3 8e 3c
       -0.028680084 -0.04709266 -0.057642106 0.01742729
000120 9e 07 ed bc 05 45 be 3c 22 58 44 bd dc ad 46 bc
       -0.028934296 0.02322627 -0.047935612 -0.012126412
000130 8d a2 a7 3d 41 c7 3e 3d b7 b2 00 bd b3 9c 6a bc
       0.08185301 0.046576742 -0.031420436 -0.014319587
000140 d6 f0 26 bd af e4 3b bd 55 18 b5 3d 18 23 77 bd
       -0.040757023 -0.045872387 0.088425316 -0.060336202
000150 c2 16 48 3c 51 d8 6b 3d 0f af d8 3c 4c 61 5b bc
       0.012212457 0.057579342 0.026450662 -0.013389897
000160 e7 d0 95 3d 10 e2 ff 37 61 5b 25 3d ad e1 40 3c
       0.073152356 3.0503637e-05 0.04037035 0.011772555
000170 9e af 91 3c d0 50 d9 3c d3 97 8f 3c 60 2c 9f bd
       0.017783936 0.026527792 0.01752845 -0.07772136
000180 c2 40 98 3d af 0c 3a 3d 35 41 5b 3d df 60 9b bd
       0.074342266 0.045422252 0.053528983 -0.07586836
000190 ef 99 ff bc b7 e1 14 bd cb b3 dd 3c 25 18 e4 3b
       -0.031201331 -0.03634807 0.027063271 0.006960886
0001a0 25 e8 6e bc 72 9c 40 bd bd a6 a9 ba cc 60 2b 3d
       -0.014581715 -0.047024198 -0.0012943369 0.04184036
0001b0 6d f2 07 bd bd 9d a3 bc b4 cd 00 bc 7c 30 e6 bd
       -0.03319018 -0.019972676 -0.007861543 -0.112397164
0001c0 3e ca 11 bd df 7c e9 3c 59 59 ec 3c f5 68 38 3d
       -0.035593264 0.028501926 0.028851198 0.04502197
0001d0 c4 94 76 bd 0c c3 dd 3c 09 27 dc 3c 3f 5c 28 bb
       -0.060200468 0.027070545 0.026874082 -0.0025689749
0001e0 dc 51 5b bc c1 f1 84 bc 4a b5 23 3d c6 9b 92 bc
       -0.013386216 -0.016228558 0.039967813 -0.017896544
0001f0 82 8f 74 bd d5 88 8b bc 7c 38 b6 bd d4 e3 1f 3d
       -0.059707172 -0.01703302 -0.08897492 0.039035633
000200 50 57 fd 3b bb c9 3f 3c b9 07 8d 3d 77 77 7b 3c
       0.0077313557 0.011705811 0.068862386 0.015348307
000210 a1 a3 83 bd 40 d2 d0 bc 66 35 87 bd 1e c2 e1 3b
       -0.06427694 -0.02549088 -0.06601982 0.0068895957
000220 26 06 17 bd 23 79 83 bd 92 bc c7 bc 39 06 10 bc
       -0.036871098 -0.06419589 -0.02438191 -0.008790546
000230 f6 67 fd bc ed 69 35 3c 85 d4 6a bd 8b 31 81 bd
       -0.030933362 0.011072618 -0.05733158 -0.06308278
000240 5b 62 25 3d 8e b2 f4 bb a6 1d 35 bd e9 07 a0 bb
       0.040377002 -0.0074675744 -0.044217728 -0.0048837555
000250 05 02 3a bd 95 f3 b2 bd 02 cf 11 3d e3 4d f2 3c
       -0.045412082 -0.08737866 0.03559781 0.029578155
000260 fa 16 78 bd b3 46 00 3c e8 6f fc 3c 4e 2b c4 bd
       -0.060568787 0.007829356 0.03081508 -0.09578572
000270 f6 20 2c bd 8f a2 24 3d 20 fe e7 bd 5e ba e5 bc
       -0.04202362 0.04019409 -0.11327767 -0.028042968
000280 5d fc 32 3d e3 18 c6 bc f5 59 ef bc 6b b2 71 3d
       0.043697704 -0.024181789 -0.0292177 0.059008043
000290 14 53 35 3c 7d fb 98 bc ea c7 05 bd 1d 17 e8 bc
       0.011067171 -0.018674606 -0.032661356 -0.028331334
0002a0 ad d2 e6 3d 89 ec a6 bc 56 9b fc bc dd 9c e8 3c
       0.11270652 -0.02037646 -0.030835789 0.02839511
0002b0 56 78 90 bd 31 fb 88 bd bb 42 81 bd 3c 33 8c bd
       -0.07054202 -0.06688536 -0.06311556 -0.0684571
0002c0 be 23 27 bc 0e ae 31 3d 79 2a de bc be 5f 63 bd
       -0.010201393 0.043378882 -0.027119862 -0.05551123
0002d0 2e 39 17 3d 8e 5c 08 3b 3d 6c 9e bd 9c a1 45 bd
       0.036919765 0.002080712 -0.077354886 -0.048249826
0002e0 0c 31 e4 3b 97 42 c9 3c 34 a7 82 bc 52 09 95 bd
       0.0069638547 0.024567885 -0.01594887 -0.07277168
0002f0 e3 ff 81 bd f8 cf 55 3d 4a 30 2d bd 8e 77 78 bc
       -0.06347635 0.052200288 -0.04228238 -0.015165223
000300 d5 40 38 bd be 81 d9 3b 84 bb 9a 3c 1d ec 6e 3c
       -0.044983704 0.006637781 0.018888243 0.014582661
000310 5f 39 5a 3c dc 4f c7 3c 31 30 a2 3d dc 5f aa bd
       0.013319342 0.024330072 0.07919348 -0.08319065
000320 03 db c2 3d c8 ae 55 3d b4 74 80 bc 0e 64 01 3d
       0.095144294 0.052168638 -0.015680648 0.03158956
000330 e5 47 4e bb 90 28 00 3d e7 7f d0 3b 36 01 c0 3d
       -0.0031475958 0.031288683 0.0063629034 0.09375231
000340 4b ed 8f 3c 84 70 65 3b 26 ba 27 bd c5 55 87 bc
       0.017569205 0.0035009691 -0.04094901 -0.01652039
000350 fe cc ca 3b 51 1b 74 3d c9 5d 7f bc 6b fd 28 bd
       0.0061889878 0.059596363 -0.015586325 -0.041257303
000360 74 dc f6 bb 41 98 a8 3c 28 30 87 3c 14 cf c1 3d
       -0.0075336043 0.020580413 0.016502455 0.09463325
000370 29 98 e8 3c b7 0e a5 3c 52 77 f5 bc 07 34 50 3d
       0.028392868 0.020148618 -0.029964123 0.050830867
000380 64 3c 15 bd fa 07 21 3d e9 8e 51 3c 15 3c 60 3d
       -0.036434546 0.039314248 0.01279042 0.0547448
000390 ad cf 1c 3c b7 90 8a bd 23 ac 9a bd bd 5a 90 3d
       0.009570998 -0.067658834 -0.07552364 0.07048557
0003a0 e2 86 ec bc 93 e6 2d bd e1 a4 c7 3c 3d cb 31 3b
       -0.02887291 -0.04245622 0.024370613 0.0027129196
0003b0 f8 b5 3f bd d8 08 a6 3c 92 c2 d2 bc a6 52 1c 3b
       -0.0468044 0.020267889 -0.025727544 0.0023852973
0003c0 1e 72 bd 3d d1 bc 61 3c 8e 49 01 bc 4e 66 31 3d
       0.09250282 0.0137779275 -0.007891072 0.043310456
0003d0 5f dc be 3d 09 ef c9 3c bd e6 2f 3d 5b a8 04 3d
       0.09319376 0.024650114 0.04294466 0.03238712
0003e0 e9 5b 83 3d 36 24 9d 3d a7 ed 97 39 38 ec 0c 3d
       0.06414015 0.07672922 0.0002897803 0.034404963
0003f0 78 82 af 3b 2b 83 8d bd c6 f6 e0 3c ab 4c 6e 3d
       0.0053561293 -0.06909784 0.02746142 0.058178585

bias f4 [216]
000000 bb 0a 65 3b 51 0d bc 3c f4 37 63 bd 06 fc ee 3c
       0.0034949023 0.022955569 -0.055473283 0.029172909
000010 32 23 9a bc 0f 2d 42 3d f1 37 1a 3d ed 5f 65 bd
       -0.01881561 0.047406252 0.037651006 -0.055999685
000020 ec 95 d8 bc 0c 6c 87 bc f2 bf 4b bc e3 f7 32 bd
       -0.026438676 -0.016531013 -0.0124359 -0.043693434
000030 c8 51 6e 3b d2 e6 b6 ba e9 39 50 3d cc 0a 63 bc
       0.0036364663 -0.0013954288 0.050836477 -0.013857555
000040 7f f9 bc 3c 62 3e 2f bd cf e9 85 bd e8 ab 34 3d
       0.023068188 -0.042784102 -0.06538736 0.044109255
000050 3a 17 54 bd 83 56 24 3d 7a 84 1b bd 35 c4 5b bd
       -0.051779963 0.040121567 -0.037968136 -0.053653914
000060 5b 99 39 3d 7f 86 e3 3c 62 76 40 bd 8d fd 89 bd
       0.045312267 0.027774094 -0.0469879 -0.06737814
000070 09 ef f7 bc 92 87 13 bd 02 86 15 bd 6a f8 85 bd
       -0.030265348 -0.03601796 -0.036504753 -0.06541522
000080 b0 6c 03 3d 9c 5f a7 bd 2f e6 8a 3c 8a a7 d0 bb
       0.032086074 -0.08172533 0.016955463 -0.0063676285
000090 ba f1 51 bd 40 34 4c 3d e7 17 6e 3d fa 2d 8f 3d
       -0.05125592 0.049854517 0.058128264 0.06991191
0000a0 5f 34 4b 3d 5d da a0 ba dd e6 70 bd b5 6a 70 3c
       0.04961049 -0.0012272109 -0.05881392 0.014673878
0000b0 7a 96 b3 3c 29 32 ec bc ee 33 37 3b 7c 53 56 3d
       0.021922339 -0.028832512 0.0027954536 0.05232571
0000c0 f9 c1 63 3c a1 66 aa bc b9 d2 0e 3a a1 b2 4f bc
       0.013901227 -0.02080089 0.000544827 -0.012676866
0000d0 5e 8d 3a bc 3f b4 89 bc 7e c1 99 3d 15 3c e4 bc
       -0.011386244 -0.01680958 0.07507609 -0.02786068
0000e0 e0 97 26 bd 5a 32 01 bd e3 58 3a bd 97 13 85 bd
       -0.040672183 -0.03154216 -0.045494925 -0.06497877
0000f0 21 1f 96 bd 53 55 97 bd 74 9d 92 3c e7 72 63 bb
       -0.07330156 -0.07389321 0.017897345 -0.0034705938
000100 7f ac 12 bc 0c c7 52 3d 57 8a 86 3d ef ce 1e 3d
       -0.008952259 0.051459357 0.06569355 0.038771566
000110 15 ae f7 3c ae 49 67 3d 19 bd 97 bc e7 30 b1 bc
       0.030234376 0.05646675 -0.018522786 -0.021629764
000120 78 1b ef bc 10 37 c3 ba 19 70 96 bd fe d8 f4 bc
       -0.029187903 -0.0014893729 -0.073456 -0.029888626
000130 f4 ec a4 bc ef 7c 3b bd e4 62 2e 3c 2c 0a d9 bc
       -0.02013252 -0.045773443 0.010643695 -0.026494108
000140 92 02 63 3d 9e d8 4d 3c 90 64 9f 3c d5 da 62 3c
       0.055422373 0.012563853 0.019457132 0.013846119
000150 7b d4 82 3d 3c e9 1e bd 6f 18 49 3d d9 de ee bc
       0.06388184 -0.03879665 0.049095567 -0.029158996
000160 eb 8d 20 3b 68 f3 ff bc 5d 35 f6 3c bc 36 16 3c
       0.0024498652 -0.031243995 0.030054742 0.009168323
000170 a9 26 1a 3d 13 ce 27 bd ed 16 87 3c 45 21 a2 3a
       0.037634525 -0.040968012 0.016490424 0.0012369534
000180 b9 ec 08 bc 0c 22 9f bc 74 70 21 bd 2b 8c 84 bc
       -0.00835722 -0.019425415 -0.039413884 -0.016180119
000190 4a 15 04 bc 9f 05 12 bd 27 a6 3a bd 99 7c 68 bc
       -0.008061716 -0.035649892 -0.04556861 -0.014189863
0001a0 0b 95 fd bc 54 97 2c bd a3 a8 a5 bc 9b b3 97 bd
       -0.030954858 -0.042136505 -0.020222014 -0.07407304
0001b0 eb c3 88 3c ea 1c e3 bb d5 0f c3 bc c5 2d 0e 3d
       0.016694983 -0.006930937 -0.02381126 0.034711618
0001c0 1a 74 6f 3d 12 86 01 3c 67 3a 24 3d 51 45 d8 3c
       0.058460332 0.0079055 0.04009476 0.02640024
0001d0 1d 9a 67 ba 45 73 52 3d 4c 44 9b bd 41 7d b4 bc
       -0.00088349154 0.05137946 -0.07581386 -0.022032382
0001e0 95 26 8c 3c 1b ea dd bc 4c 2b a6 bc 60 9e b3 3c
       0.017108241 -0.02708917 -0.020284317 0.021926105
0001f0 cb 33 72 bc a5 1b 19 bd 62 e0 76 bd 8d 5f 87 bd
       -0.014782856 -0.03737988 -0.060272582 -0.06610022
000200 4f c5 1c bd 63 1d f4 3c 62 05 6f 3c 63 cb e2 bc
       -0.038274106 0.029799169 0.014588686 -0.027684873
000210 66 67 3e bd a0 df 5f bd 67 17 3a bd 38 a6 35 3d
       -0.046485327 -0.054656625 -0.045432474 0.04434797
000220 aa ec a7 3c e2 38 b1 bb 56 2a 13 bc 09 98 bc 3c
       0.020498592 -0.0054083923 -0.008982262 0.023021715
000230 40 74 34 3c a9 e5 b3 3c 3c d5 51 bc 19 0e f8 3c
       0.011014044 0.021960096 -0.012807187 0.03028016
000240 f3 7d 80 bc 6b c1 ae 3c 58 a0 1a bd d0 9e a6 bc
       -0.015685057 0.021332463 -0.037750572 -0.0203394
000250 ec b6 45 3c 57 ba 73 3c a6 2c c5 bc 59 24 86 ba
       0.012067538 0.01487597 -0.024069142 -0.0010234221
000260 cf 8d 2a bd 77 2f 0b bd 1b bb a8 3c cb 25 93 bd
       -0.041639145 -0.033980813 0.020597031 -0.07184943
000270 ce 85 82 3d b2 a3 60 3b 20 41 c5 bc cc 9b e7 bc
       0.063731775 0.0034277258 -0.024078906 -0.028272532
000280 53 26 28 bd 36 bc 2a 3d 0d 5d ff bc 81 72 93 bd
       -0.041052174 0.0416834 -0.0311723 -0.07199574
000290 0f 48 02 bd 7b e4 04 bd b3 73 9d 3d a4 ba bf bc
       -0.031807 -0.03244446 0.076880835 -0.023404427
0002a0 d0 6d 07 bd 70 20 7d bd 78 15 ff 3b 47 19 2d 3c
       -0.03306371 -0.061798513 0.0077845417 0.010565109
0002b0 80 44 48 3d db 70 21 3c fd 5e 98 3b c2 ba 37 3c
       0.04889345 0.009853567 0.0046499954 0.01121396
0002c0 81 41 2c bd a7 24 49 3b 9e 0f 86 bd 27 70 a7 bb
       -0.042054657 0.0030692013 -0.065459475 -0.005109805
0002d0 8f 6c 3f bd 0e c7 8b 3c d7 da b0 ba ae 70 ec 3c
       -0.04673439 0.01706269 -0.0013492954 0.028862324
0002e0 57 50 1e bd d4 eb a3 3c 65 f5 b0 3c 47 81 59 bd
       -0.038650837 0.020009913 0.021601388 -0.053101804
0002f0 0c d9 09 bd 3d ba 73 3d 69 28 fe bc b4 a2 07 3d
       -0.033654258 0.059503783 -0.031025128 0.03311415
000300 fd 39 e5 3c e4 de 85 bc da 45 dd ba 7b b2 1c bd
       0.027981753 -0.016341634 -0.0016881779 -0.03825615
000310 cb 3f ad bd b3 ee 82 3d d5 d7 db bc d5 eb 2c bd
       -0.08459433 0.063931845 -0.026836315 -0.042217094
000320 22 f9 8b 3c 24 36 8b bd 9e ca fd bc 9f 83 82 3c
       0.01708657 -0.06797436 -0.030980404 0.015931902
000330 8f b7 42 bd 33 18 b5 3c 09 b6 18 3d 46 e9 a1 3d
       -0.047538336 0.022106266 0.037282977 0.079058215
000340 fa f9 3c bd ce 3f 76 3b 7a ec 6c bc f7 87 a3 bc
       -0.046136834 0.0037574652 -0.014460677 -0.019962294
000350 64 eb 5a 3c c5 4b 57 3d c0 19 4d 3c 6d 5e 52 bd
       0.013361786 0.052562494 0.012518346 -0.051359583

weight f4 [216]
000000 db f9 54 3f 54 dc 3f 3f dd b3 43 3f bd 5b 46 3f
       0.8319375 0.7494557 0.76446325 0.7748373
000010 ac 24 50 3f 10 85 47 3f 2f 9a 3b 3f 73 7e 3d 3f
       0.81305957 0.7793741 0.7328214 0.7402107
000020 f9 e7 57 3f 34 1c 37 3f dd f0 43 3f 0c 4e 49 3f
       0.8433834 0.7152741 0.76539403 0.78634715
000030 59 4e 2a 3f 17 68 4c 3f a5 2c 40 3f 26 37 3f 3f
       0.665258 0.7984633 0.7506812 0.74693525
000040 4b 7d 39 3f 6b 53 46 3f d4 4d 62 3f fa 5b 3a 3f
       0.72456807 0.77471036 0.88400006 0.72796595
000050 6f f6 47 3f 69 60 43 3f 27 7c 52 3f 46 c0 4d 3f
       0.781104 0.76318985 0.8222069 0.8037151
000060 60 91 41 3f 2e 43 37 3f 1e 0a 3b 3f d6 34 44 3f
       0.7561245 0.71586883 0.7306231 0.7664312
000070 a6 bf 4b 3f e4 41 33 3f fb fe 39 3f 34 9b 50 3f
       0.7958931 0.70022416 0.72654694 0.8148682
000080 ab 60 4c 3f 65 fa 52 3f 2d 7d 3c 3f 24 cb 37 3f
       0.79835004 0.8241332 0.73628503 0.71794343
000090 15 29 63 3f d9 07 40 3f 36 98 3b 3f ac 71 4c 3f
       0.8873456 0.75011975 0.7327913 0.7986095
0000a0 6f 24 4b 3f e6 dc 3a 3f fe 92 2c 3f 2d 1f 3c 3f
       0.7935247 0.72993314 0.6741179 0.7348507
0000b0 b8 12 47 3f a4 c2 4d 3f f7 17 4f 3f f6 29 51 3f
       0.7776294 0.80375123 0.8089594 0.8170465
0000c0 3b 60 48 3f b7 16 4f 3f 44 5f 49 3f de 36 56 3f
       0.78271836 0.80894035 0.7866099 0.8367747
0000d0 47 f2 3f 3f 44 c0 4d 3f 00 79 3d 3f db 64 49 3f
       0.7497906 0.803715 0.74012756 0.7866952
0000e0 9e 0d 55 3f 65 7c 56 3f 29 cf 40 3f 85 ec 49 3f
       0.83223903 0.8378356 0.753161 0.78876525
0000f0 97 2a 51 3f 7d fb 3e 3f 02 dd 3c 3f 88 8d 35 3f
       0.8170561 0.7460249 0.7377473 0.70919085
000100 86 af 5b 3f da ef 3a 3f 7f 2e 41 3f fa 63 4a 3f
       0.858147 0.73022234 0.7546157 0.790588
000110 ef f6 4f 3f b6 bd 48 3f 48 73 3d 3f 66 19 4b 3f
       0.81236166 0.78414476 0.7400403 0.7933563
000120 9e 2c 3a 3f 68 e0 36 3f a9 81 5d 3f e8 28 34 3f
       0.7272433 0.71436167 0.8652597 0.7037492
000130 3d 12 54 3f d2 36 38 3f fe 9c 40 3f 02 e3 4c 3f
       0.8284033 0.7195865 0.7523955 0.80033886
000140 7d e6 44 3f 08 5b 4c 3f bd ec 35 3f bc 11 3c 3f
       0.769142 0.798264 0.7106436 0.7346456
000150 ca ac 30 3f 3a 62 4f 3f c6 68 3f 3f 08 19 52 3f
       0.69013655 0.81009257 0.74769247 0.82069445
000160 3e 6f 4d 3f 1e ad 30 3f e9 d6 45 3f 55 d4 43 3f
       0.8024787 0.69014156 0.7728105 0.7649587
000170 3d 7b 39 3f 90 02 41 3f 2d 9a 58 3f 8c 64 4f 3f
       0.7245367 0.75394535 0.84610254 0.810128
000180 0e 9d 36 3f ab 6b 56 3f 12 55 45 3f ed 8d 3b 3f
       0.71333396 0.8375804 0.7708293 0.73263437
000190 9d a3 3f 3f 43 7e 46 3f 1f 61 4b 3f 3b 9b 4f 3f
       0.7485903 0.7753641 0.7944507 0.8109624
0001a0 d3 46 49 3f 5e a5 5a 3f 50 51 46 3f d0 99 41 3f
       0.78623694 0.8540858 0.77467823 0.75625324
0001b0 33 a1 3c 3f c8 3d 36 3f 92 9d 36 3f 91 26 42 3f
       0.7368347 0.7118802 0.71334183 0.758401
0001c0 38 d3 3c 3f bd eb 39 3f 1f 20 49 3f e6 6c 41 3f
       0.73759794 0.72625333 0.7856464 0.7555679
0001d0 c3 56 33 3f 77 44 3c 3f 85 a7 4a 3f 8d 8d 4f 3f
       0.7005426 0.7354197 0.79161865 0.81075364
0001e0 37 77 41 3f bf 43 45 3f 7e e7 43 3f 14 37 56 3f
       0.7557253 0.770565 0.76525104 0.8367779
0001f0 f2 86 50 3f a8 5a 52 3f 52 e0 39 3f f7 4f 4c 3f
       0.8145591 0.8216958 0.7260791 0.79809517
000200 88 00 3d 3f 1f e2 3c 3f 88 dd 4f 3f 3a b7 40 3f
       0.73828936 0.73782533 0.81197405 0.7527958
000210 9a 90 5f 3f 74 0b 42 3f 79 e6 3f 3f 14 97 42 3f
       0.8733002 0.75798726 0.7496105 0.76011777
000220 5e b9 44 3f 84 fa 44 3f d9 58 4e 3f 9b 44 47 3f
       0.7684535 0.76944757 0.8060432 0.7783906
000230 94 ff 43 3f c1 b8 39 3f 99 6e 4f 3f c8 a4 47 3f
       0.76561856 0.7254754 0.81028134 0.7798581
000240 22 9e 4e 3f 98 d6 3f 3f 36 b5 3d 3f dd 61 3f 3f
       0.8071004 0.7493682 0.7410463 0.747587
000250 fc 7f 3d 3f 47 31 42 3f 97 5b 52 3f 6f ed 48 3f
       0.74023414 0.7585644 0.82171005 0.78487295
000260 1d 64 48 3f 1a c8 65 3f 22 de 4f 3f a0 49 43 3f
       0.7827776 0.89758456 0.8119832 0.7628422
000270 79 9a 45 3f bb 13 3b 3f ac e9 4a 3f 13 68 44 3f
       0.7718883 0.7307698 0.79262805 0.76721305
000280 de 17 49 3f 15 b9 4e 3f 99 6b 52 3f d6 1d 51 3f
       0.78552043 0.8075116 0.8219543 0.8168615
000290 03 30 40 3f 4a 1d 55 3f ce ec 3f 3f bb ec 3d 3f
       0.7507326 0.83247817 0.7497071 0.7418935
0002a0 db ce 36 3f 21 86 4d 3f f8 b0 3c 3f 6c 1c 4a 3f
       0.71409386 0.8028279 0.7370753 0.7894962
0002b0 be a5 45 3f dc 8f 4d 3f 61 30 4e 3f 59 3b 4d 3f
       0.7720603 0.80297637 0.8054257 0.8016868
0002c0 3a 57 3d 3f 21 17 46 3f 53 96 56 3f fc 50 3b 3f
       0.7396122 0.7737904 0.83823127 0.7317045
0002d0 14 20 5d 3f 22 0c 3a 3f a9 a1 3a 3f 23 52 46 3f
       0.8637707 0.72674763 0.72902924 0.7746908
0002e0 ac 10 59 3f 13 74 4c 3f 01 bf 3a 3f 9d 99 49 3f
       0.84791064 0.79864615 0.729477 0.7875002
0002f0 0a cb 50 3f d2 01 42 3f 39 d4 3b 3f 3c 48 3d 3f
       0.81559813 0.7578403 0.733707 0.73938346
000300 21 bc 34 3f 8a 6e 52 3f f0 51 43 3f dc b4 49 3f
       0.7059956 0.8219992 0.762969 0.78791595
000310 4e 77 59 3f 42 56 3d 3f 8b 23 42 3f d9 8b 44 3f
       0.8494767 0.73959744 0.75835484 0.7677589
000320 a9 b9 43 3f 57 2b 47 3f 8a ab 60 3f 8a 84 46 3f
       0.7645517 0.77800506 0.8776175 0.7754599
000330 24 d1 3e 3f 48 c9 3e 3f 11 a1 52 3f 8a 13 36 3f
       0.74537873 0.7452588 0.8227702 0.71123564
000340 54 1d 46 3f 6a da 54 3f 5b a7 52 3f ab 59 38 3f
       0.773885 0.83145773 0.82286614 0.7201182
000350 95 fc 59 3f 07 4d 4a 3f e0 ae 42 3f 45 c4 4c 3f
       0.85151035 0.79023784 0.7604809 0.79986984

bias f4 [216]
000000 ce 21 a2 3c 2f c6 00 be 05 ac 61 3b dd c1 09 bd
       0.01979151 -0.12575601 0.0034434807 -0.033632148
000010 05 43 ed 3b 78 c7 8e 3c 19 7c 3d 3d 50 b0 04 3c
       0.0072406554 0.017429098 0.046260927 0.008098677
000020 a9 87 4d bd a8 ee 1b 3d a7 b8 f2 3d 4d 06 3e bc
       -0.050178204 0.038069397 0.11851626 -0.011598182
000030 52 ad 46 3d b9 bd bf bb c3 a6 96 bc 6a 09 59 3d
       0.048505135 -0.005851474 -0.018390065 0.052987494
000040 ed 21 91 3b 50 c5 f0 3b 02 1e fb bd 6d 9a 07 3e
       0.004429093 0.0073477402 -0.12261583 0.13242503
000050 72 e9 1e bb 44 9d ef 3d 57 5b 9f bd c4 00 ac bd
       -0.002424803 0.11699918 -0.077810936 -0.083985835
000060 d5 a7 a2 bc ce 7b be 3b 67 49 45 3d 14 f7 50 bd
       -0.01985542 0.0058130985 0.048165705 -0.051016882
000070 7f 4e d8 bb d1 56 3d bd 82 8c 8a bc ab 5b d3 bc
       -0.0066011543 -0.046225373 -0.016912702 -0.025800547
000080 a1 2b 0b be 3a 13 e5 bd c6 65 13 b9 ae 71 9e bc
       -0.13590862 -0.11185308 -0.00014056926 -0.019341316
000090 77 cf 73 bd ba c2 39 3d bc 0c 83 3d e3 f4 92 3d
       -0.059524026 0.04535172 0.06398913 0.07175615
0000a0 1b c2 d3 bc 1c 24 89 3d c2 a9 8a 3d 6b 75 47 3d
       -0.025849393 0.066963404 0.0677066 0.048695963
0000b0 5c 23 0a 3e 4b 2b c9 3b 38 77 d1 bd 1e 1e 9b bd
       0.13490051 0.006139194 -0.10227817 -0.07574104
0000c0 81 bc bf bd 70 66 8c bb cd d5 8a bd 95 2d 18 bd
       -0.09362126 -0.0042846724 -0.067790605 -0.037152845
0000d0 34 a7 e4 3c ed be a3 bd a0 c0 69 bc 2a de b1 bd
       0.02791176 -0.079954006 -0.014267117 -0.086849526
0000e0 78 5e 0a be c5 31 36 bd 4d 78 a5 bd c9 2a a0 bd
       -0.135126 -0.044481058 -0.08079586 -0.078206606
0000f0 40 bd 04 be 9b c4 4e 3d 49 cd 09 3c 36 e0 14 3e
       -0.12962818 0.050480466 0.00841076 0.14538655
000100 70 21 fc bc 30 4b f2 3d ac 32 7c 3d 4b 99 41 3d
       -0.030777663 0.11830747 0.061571762 0.047265332
000110 d8 ff a4 bd da c1 5f bd 90 a7 00 3c f5 cb 1d 3d
       -0.08056611 -0.05462823 0.00785245 0.038524587
000120 3b ea 24 3b 5c 2b 4c bb ae 71 a6 bd 37 4c a8 3d
       0.0025164026 -0.0031153774 -0.081271514 0.08217662
000130 ed 98 24 bd 0e 8e a1 3c 3c 61 d7 3d 6e 25 e6 bc
       -0.040184904 0.019721057 0.10516593 -0.02809402
000140 44 e7 53 be ff ad 26 bd bd c8 85 3d ed 3c 3c 3d
       -0.2069369 -0.04069328 0.065324284 0.04595654
000150 95 f8 8d 3d 8a 4d a2 bd ad 56 c1 bc c5 5b a4 3c
       0.06932179 -0.07924946 -0.0236009 0.02006329
000160 55 56 ad bd 8c fa 00 3e 9f f8 82 bd 71 ef 47 3d
       -0.08463732 0.12595576 -0.06395077 0.048812333
000170 7a a5 45 3b 1f 9b 9d 3d a8 f8 bc 3c e4 e6 45 3c
       0.0030158446 0.076956026 0.023067787 0.012078974
000180 42 93 f3 bc 2d dc 34 be 6a d0 36 bd 4f 42 a4 bb
       -0.029733304 -0.17662115 -0.044632353 -0.0050127874
000190 6e ea 55 bb 14 b0 70 bd d7 5a 01 be d3 73 6e bd
       -0.0032640952 -0.05876167 -0.12632309 -0.058215927
0001a0 3c 32 b9 bd b6 37 f4 bc 7f d6 9c bd d9 d0 5c bd
       -0.090427846 -0.029811721 -0.076580994 -0.05391011
0001b0 6d 8f 12 3c 77 b1 b0 3d d7 39 34 3d 1c 81 9d bd
       0.008945328 0.08627599 0.044000473 -0.07690641
0001c0 c6 fe 23 bd 02 17 7c bd bf 25 4a 3c 66 5f 57 bd
       -0.040037893 -0.06154538 0.012338101 -0.052581213
0001d0 73 1e 1c 3e c6 d6 17 bc 0a b5 97 bd d2 30 32 bc
       0.1524599 -0.009267515 -0.07407577 -0.0108758975
0001e0 2c 1a 8f bb 3b 99 a5 bd e9 cc 83 bd 70 14 46 bc
       -0.0043671336 -0.08085867 -0.06435568 -0.012089834
0001f0 b6 85 05 bd 0b 76 02 b9 2d 15 be 3b cc 1f 22 be
       -0.03259822 -0.0001244174 0.005800864 -0.15832442
000200 e3 a6 bb bc e5 72 53 3b 51 59 c9 3d 7a 58 88 bd
       -0.022906726 0.0032264527 0.09831489 -0.066575006
000210 db e5 e4 bd 6c 7e a8 3c c2 75 1a 3b d6 7c 51 3d
       -0.11176654 0.020568095 0.0023568724 0.051144443
000220 71 bd 56 3d 59 ce eb 3a 6a a7 88 bd 6c 1c 7d bc
       0.05242676 0.0017990574 -0.06672557 -0.015448671
000230 63 34 49 3d b3 0d e2 3d 76 5f 6b 3a c4 a1 68 bd
       0.049122225 0.11037769 0.00089787634 -0.056794897
000240 a2 c5 f1 bd 99 92 8c 3d a7 98 52 bc 94 57 ff bd
       -0.118052736 0.06863899 -0.012853778 -0.12467876
000250 a7 98 8f bb f2 a2 36 3c 62 b6 74 bd e2 71 05 3d
       -0.0043822112 0.011147248 -0.059744246 0.03257931
000260 a2 ff 58 3c 05 84 05 be b3 03 e1 bd 6b 4b 07 be
       0.013244541 -0.13038643 -0.10987034 -0.13212363
000270 27 06 28 3d 38 9e 38 3d 81 2b db 3c 34 f6 4a bc
       0.041021492 0.045072764 0.026754143 -0.012387801
000280 c9 ea 1d bd 49 ca 11 3d 32 7b 96 bd 7e 4c ba bd
       -0.038553987 0.035593305 -0.073477164 -0.09096621
000290 88 6f a4 3d 16 c7 d7 3c 6b fa ec 3d 7a b2 6d 3c
       0.080290854 0.026340049 0.11571201 0.014507884
0002a0 85 23 e5 3c 1a c1 8a bc b3 41 d8 bc 49 4f 28 bd
       0.027971039 -0.016937781 -0.026398515 -0.041091237
0002b0 7f 5a b1 bc 60 de fd bc 5a 93 ca bd 89 5a 93 bc
       -0.021649597 -0.030989826 -0.09891386 -0.017987506
0002c0 bd 49 9c 3d 2e ff 48 bc ae dc 43 bd 5c 2b d6 3d
       0.07631252 -0.012267871 -0.04781788 0.10457489
0002d0 f7 cf 98 bd 8b 84 7f bd db 70 c7 3d ad 28 be bd
       -0.07461541 -0.062382262 0.09738322 -0.09285102
0002e0 09 92 d6 bb 35 90 ed bd c8 eb 8c 3d d8 bf 8b bd
       -0.0065481705 -0.11599771 0.06880909 -0.06823701
0002f0 45 3b 97 3c 99 9a dd bc c8 6d 8a 3b 33 bc 83 bb
       0.01846088 -0.027051257 0.0042245127 -0.004020238
000300 2d 0c e3 3d 74 b7 52 bd c0 0b 91 bd 11 c8 34 bd
       0.11086307 -0.051444486 -0.07082319 -0.04413611
000310 4c e1 b9 bc 0e 97 d4 bd 21 13 2b bd f6 e7 f5 3c
       -0.022690438 -0.10380374 -0.04176629 0.030017834
000320 ac 96 f2 bd 7f 46 df bc 06 99 1f be 5c f6 8a 3d
       -0.11845145 -0.027255295 -0.15585718 0.067852706
000330 dc 0c 72 3c d7 d9 42 3c e5 51 55 bd 01 07 b7 3c
       0.014773574 0.011892757 -0.052080054 0.022342207
000340 00 04 c1 bd dc 26 85 bd 51 90 27 bd db 75 79 3d
       -0.09424591 -0.065015525 -0.040909115 0.06090341
000350 8c 12 95 bd ec b1 90 bc 64 d3 60 3d b9 2a e1 bd
       -0.07278928 -0.017662965 0.054889098 -0.10994477

running_mean f4 [216]
000000 97 52 f3 3d 50 d5 08 3e f3 2c 71 3d d9 43 ab 3d
       0.11880987 0.13362622 0.058880758 0.0836255
000010 90 df b2 3d ba d8 d5 3d 65 02 e0 3d ca b9 1f 3d
       0.087340474 0.10441728 0.10937957 0.03899554
000020 2d 1a c7 3d 9b cd 04 3e e6 3a b5 3d 72 a0 be 3d
       0.097217895 0.12969057 0.088491246 0.09307946
000030 65 0b bd 3d 78 b5 57 3d 84 cc 19 3e 0c 10 c4 3d
       0.09230689 0.052663296 0.15019423 0.09573373
000040 b8 4f f5 3d 13 12 61 3d ef 10 47 3d bd 8e c6 3d
       0.11978096 0.054948878 0.048600134 0.09695194
000050 7b e3 f9 3d 95 d2 e7 3d 25 00 98 3d e5 ad 83 3d
       0.122015916 0.11319462 0.074219026 0.06429652
000060 1c 54 e8 3d 3e 60 a9 3d cd 9c 8c 3d 24 0b aa 3d
       0.113441676 0.0827031 0.06865845 0.08302906
000070 a4 1f bb 3d 64 ae df 3d 53 9a c1 3d ea 8c ca 3c
       0.09136894 0.10921934 0.09453263 0.024725396
000080 99 cb ee 3d 73 25 87 3d 11 a9 a3 3d a3 6b 94 3d
       0.11659927 0.0659894 0.07991231 0.072470926
000090 17 e6 85 3d 78 7c f6 3d 46 3a fe 3d bf 50 fa 3d
       0.06538027 0.12035459 0.124134585 0.12222432
0000a0 18 52 cf 3d 2f bd fb 3d ac f3 7f 3d 99 02 b3 3d
       0.1012308 0.12291943 0.062488243 0.0874073
0000b0 9a c3 d1 3d 8f e3 97 3d a0 90 25 3e 15 ab 08 3e
       0.10242386 0.0741645 0.16168451 0.13346513
0000c0 05 83 d8 3d 10 8e d7 3d f7 e7 ea 3d be 97 86 3d
       0.10571865 0.10525143 0.11470025 0.06571911
0000d0 41 b6 d2 3d 42 30 9d 3d c7 8a 25 3e d8 24 db 3d
       0.102886684 0.0767522 0.1616622 0.10700387
0000e0 92 88 c2 3d 59 94 b1 3d 19 94 a0 3d e0 8f a0 3d
       0.09498705 0.08670873 0.078407474 0.07839942
0000f0 23 1f c0 3d 7a 0d 05 3d 88 a6 48 3e 95 a2 a7 3d
       0.09380939 0.032483555 0.19594777 0.08185307
000100 7d 09 c0 3d 15 8d f9 3d ca b2 f5 3d 2e d8 0d 3e
       0.0937681 0.121851124 0.11996992 0.13851997
000110 22 e9 56 3e 98 b3 17 3e 86 6f e7 3d 89 c6 9e 3d
       0.2098737 0.14814603 0.11300568 0.07752711
000120 77 6d 8b 3d ae 48 13 3e 9a 8e 56 3d a7 a5 b5 3d
       0.06807988 0.14383194 0.05238209 0.08869486
000130 68 48 ed 3d 4c ea 43 3d 8d d7 c3 3d fb 38 49 3d
       0.11586076 0.047830865 0.095625974 0.049126606
000140 04 33 d3 3d e6 e6 bf 3d e3 71 27 3e 72 d2 a6 3d
       0.10312465 0.09370212 0.16352038 0.08145608
000150 d6 85 05 3e 71 f1 a8 3d 9c a3 ec 3d 22 87 41 3d
       0.13039336 0.08249176 0.115546435 0.047248013
000160 08 45 0e 3e 46 e7 8e 3d 20 2e 19 3e 00 66 0e 3e
       0.13893521 0.06977706 0.14959002 0.13906097
000170 6e a2 cc 3d 68 f5 ae 3d 1e 8c a2 3d a1 88 90 3d
       0.099919185 0.08542901 0.079368815 0.0705731
000180 2d ab b0 3d 2a 9c 32 3e b1 7c 8c 3d 10 86 c1 3d
       0.08626399 0.17442384 0.068597205 0.094493985
000190 97 b9 ab 3d c1 4d f4 3d e2 57 61 3d 81 95 96 3d
       0.08385008 0.11928893 0.055015452 0.07352734
0001a0 27 a9 9f 3d 2c ab 8d 3d 1a 2d c1 3d a3 47 25 3d
       0.07795935 0.06917414 0.094324306 0.04035152
0001b0 2c dc c8 3d dd 5b bb 3d 57 d5 19 3e 7f bb e0 3d
       0.098076195 0.09148381 0.15022789 0.10973262
0001c0 3f b4 dc 3d 00 14 96 3d 16 f4 a8 3d 4c fc be 3d
       0.10776567 0.073280334 0.08249681 0.093254656
0001d0 c8 fb d1 3d 84 18 04 3e bd 19 aa 3d 1b f4 84 3d
       0.102531016 0.12899977 0.083056904 0.06491872
0001e0 76 08 8a 3d 87 0e e4 3d 1f f4 56 3d c3 17 bc 3d
       0.06739895 0.11135583 0.052478906 0.0918422
0001f0 9c 9c c5 3d 4a 49 7b 3d a6 df 4b 3d 5e 32 eb 3d
       0.096490115 0.06134919 0.049773835 0.11484216
000200 39 8c 3d 3d 9e 21 31 3e 2b e4 d8 3d e1 93 d5 3d
       0.046276305 0.1729798 0.105903946 0.10428596
000210 ba 93 9f 3d aa b2 84 3d 8e 18 4c 3d 6c 98 fa 3d
       0.077918485 0.0647939 0.049828105 0.122361034
000220 ca 55 c3 3d 01 ed 52 3d 55 72 70 3e a8 7a a2 3d
       0.09537847 0.051495556 0.23481114 0.07933551
000230 3a 09 f0 3d 35 1f be 3d aa 52 85 3d 89 db c1 3d
       0.1172051 0.09283296 0.065099075 0.09465701
000240 de ff bf 3d bb 9c bc 3d b3 40 f6 3d f8 18 a6 3d
       0.09374975 0.092095815 0.12024059 0.08110231
000250 ab 43 09 3e e1 f7 89 3d 6f 5b 82 3d 00 2b 80 3d
       0.1340472 0.06736732 0.06365096 0.062582016
000260 b6 ab 80 3d 32 f4 b0 3d 85 c9 cd 3d c7 1b d5 3d
       0.06282751 0.086403266 0.100482024 0.10405689
000270 46 aa 05 3e 46 0f a2 3d 39 6e 8b 3d 78 60 b4 3d
       0.13053235 0.079130694 0.06808133 0.088074625
000280 64 9b 7f 3d 00 6c 1b 3e c3 e3 cf 3d 19 c7 a4 3d
       0.06240405 0.15177917 0.10150864 0.08045787
000290 46 85 68 3d f5 ca 2f 3d b0 60 0c 3e 08 aa a5 3d
       0.056767724 0.042918164 0.13708758 0.080890715
0002a0 f9 5a c9 3d 1c 11 94 3d 1d c6 f2 3d c2 c3 fb 3d
       0.09831805 0.07229826 0.11854193 0.12293197
0002b0 c9 48 08 3e b4 e7 a4 3d 5a ae 25 3e 3b cf c3 3d
       0.13309015 0.08052006 0.16179791 0.095610105
0002c0 62 b7 11 3e a0 6d f2 3d e5 36 d4 3d 16 ab a3 3d
       0.14230111 0.118373156 0.10362033 0.079916164
0002d0 22 50 03 3e a5 3d 12 3e 55 f4 ad 3d cd a8 de 3d
       0.12823537 0.14281328 0.08493868 0.1087204
0002e0 41 4a 9c 3d e9 51 f2 3d 20 9b a1 3d ae 09 d2 3d
       0.0763135 0.11832029 0.07890916 0.102557525
0002f0 d3 8f a9 3d 72 83 35 3e dc 52 a6 3d 29 eb 14 3e
       0.082793854 0.17725924 0.08121273 0.14542831
000300 64 47 f3 3d e2 44 cc 3d eb 1b ab 3d 38 08 6a 3d
       0.11878851 0.09974076 0.08354934 0.057136744
000310 1f 8a 32 3d e1 04 23 3e 24 47 1d 3e d9 e9 6a 3d
       0.043588754 0.1591983 0.15359169 0.05735192
000320 8b 0b 15 3e 90 42 69 3d 6d 63 98 3d 5e 39 be 3d
       0.14555185 0.056948245 0.07440839 0.09288286
000330 bb 08 29 3d 74 5e 0a 3e 98 ee fd 3d be a9 29 3e
       0.04126809 0.13512594 0.12399024 0.16568658
000340 e7 30 7b 3d 9e c0 82 3d a5 ed c3 3d b4 64 7f 3d
       0.061325934 0.06384395 0.095668115 0.062351897
000350 db 3a c9 3d 6f 1f 16 3e cc d2 b3 3d 93 4d 5a 3d
       0.09825679 0.14660428 0.08780441 0.053296637

running_var f4 [216]
000000 74 a6 60 3e 12 4b 5e 3e b5 70 e4 3d 6d 0c a8 3d
       0.21938497 0.21708325 0.1115431 0.08205495
000010 df 50 26 3e dd db d9 3d 60 a6 ec 3d 0a bc 9b 3d
       0.16241787 0.10637639 0.11555171 0.07604225
000020 ad 82 a9 3e 2d 16 2b 3e 43 75 e3 3d 29 88 3e 3e
       0.3310751 0.16707678 0.1110635 0.18606628
000030 65 ee 99 3d 7a 49 c8 3d ba 25 2d 3e 09 95 cd 3d
       0.07516173 0.097796395 0.16908923 0.10038192
000040 a9 65 f2 3d d4 f3 0e 3e 7f bf 4b 3e 59 93 ba 3d
       0.118357964 0.139602 0.19897269 0.091101356
000050 97 1b 4e 3e cc f8 94 3d 20 9c 21 3e 40 4e d4 3d
       0.20127712 0.07274017 0.15782213 0.103664875
000060 5e f4 22 3e 65 a3 95 3d ec 47 91 3d a0 b6 de 3d
       0.15913531 0.07306556 0.07093796 0.10874677
000070 56 ee 31 3e d1 bb db 3d b3 62 f9 3d 41 9c ad 3d
       0.17376074 0.107291825 0.121770285 0.08477069
000080 01 6a 60 3e 48 24 45 3e c5 5d c3 3d 4e 0e b4 3d
       0.21915437 0.19252121 0.095393695 0.08791791
000090 6c 41 93 3e 31 be db 3d fd 3f a6 3d 1d 04 d0 3d
       0.2876085 0.107296355 0.081176735 0.101570345
0000a0 75 d4 15 3e 28 58 f7 3d 68 ce 7e 3d 58 0f 97 3d
       0.14631827 0.12077361 0.062208563 0.073759735
0000b0 61 85 d5 3d 0d 00 0b 3e 8a 84 c0 3e e5 3d 7f 3e
       0.10425831 0.13574238 0.3760112 0.24925955
0000c0 6a 72 0f 3e 01 27 4f 3e a6 9f 53 3e f9 27 37 3e
       0.14008489 0.20229723 0.2066637 0.17886342
0000d0 27 98 05 3e 50 7e 51 3e 24 0d 47 3e c7 91 45 3e
       0.13046323 0.2045834 0.19438607 0.19293891
0000e0 1d c6 44 3e d0 29 3b 3e 85 25 f6 3d 67 6a 3f 3e
       0.19216199 0.18277669 0.12018875 0.18692933
0000f0 9a 47 53 3e f4 b6 7e 3d 38 2f 83 3e c6 2d 65 3d
       0.20632783 0.062186196 0.25621963 0.055951856
000100 3a 36 45 3e 9b 4b bd 3d 55 8e e0 3d 6b a8 16 3e
       0.19258967 0.09242936 0.10964648 0.14712684
000110 8b b7 ef 3e c5 78 2c 3e 8a 91 12 3e 91 87 00 3e
       0.4681972 0.16842945 0.14313331 0.12551714
000120 47 80 df 3d 11 7a 0d 3e f6 f5 3d 3e 99 b6 b7 3d
       0.10913139 0.13816096 0.18550858 0.089703746
000130 41 2e 69 3e 83 1c 81 3d f3 87 ae 3d f1 9a fc 3d
       0.2277155 0.06304266 0.08522024 0.1233424
000140 2f 3a 0d 3e 2b 29 0a 3e 7f a8 21 3e fe 2b b6 3d
       0.13791727 0.13492267 0.15786932 0.088951096
000150 da ee 9b 3d b4 98 5e 3e 70 fb 07 3e 16 a3 d5 3d
       0.07613917 0.21737939 0.1327951 0.10431497
000160 c7 75 4a 3e bc 39 74 3d 42 03 7c 3e 3d 7e f4 3d
       0.19771491 0.059625372 0.24610618 0.119381405
000170 00 57 fa 3d dc f0 06 3e 0d 22 52 3e 5d c8 be 3d
       0.12223625 0.13177818 0.20520802 0.0931556
000180 b2 50 87 3d c0 ee 84 3e 47 2b 1a 3e 9a ce 05 3e
       0.06607188 0.25963402 0.15055571 0.13067093
000190 0a 25 e1 3d d8 7b 62 3e 50 cd f2 3d fc 46 1b 3e
       0.10993393 0.22117555 0.118555665 0.15163797
0001a0 5c 35 0c 3e e6 c1 94 3e 67 96 3e 3e a3 b5 b3 3d
       0.1369223 0.29054183 0.18612061 0.08774879
0001b0 dd 18 e8 3d f1 bf d3 3d 11 ee 35 3e f0 01 f7 3d
       0.11332867 0.10339344 0.17766596 0.120609164
0001c0 c8 c5 0c 3e b4 0e e6 3d fe 8e eb 3d 16 a1 26 3e
       0.13747323 0.11233273 0.11501883 0.16272387
0001d0 3a 5a ac 3d a5 11 00 3e 69 ca 69 3e 92 51 11 3e
       0.08415647 0.12506731 0.2283112 0.14191273
0001e0 6e cb a5 3d 6c 65 24 3e 66 31 de 3d d8 d2 03 3e
       0.08095442 0.16054314 0.10849266 0.128734
0001f0 e0 f6 27 3e ac c4 27 3e 39 f2 94 3d 46 43 51 3e
       0.16402769 0.16383618 0.07272763 0.20435819
000200 4f e5 ac 3d 0f 7c 3f 3e 0a 41 01 3e ef b0 23 3e
       0.08442175 0.18699668 0.12622467 0.15985464
000210 1d a9 3e 3e db 00 e5 3d 8e 07 9b 3d d9 88 d4 3d
       0.18619199 0.11181804 0.075698 0.10377664
000220 52 d0 12 3e c6 37 a0 3d 30 97 ca 3e d3 0e 05 3e
       0.1433728 0.07823138 0.39568472 0.12993936
000230 72 f9 13 3e 2f 85 a9 3d 99 0b ee 3d 6f e3 11 3e
       0.14450625 0.08277356 0.11623306 0.14246915
000240 e1 de 5a 3e 43 44 ad 3d 5b d7 4b 3e 11 3d f3 3d
       0.21374084 0.084602855 0.1990637 0.11876882
000250 e2 e4 1b 3e af 79 97 3d 8d f8 41 3e 29 49 b8 3d
       0.1522403 0.07396256 0.18942471 0.08998329
000260 ad 3e de 3d 22 4a 8c 3e e5 00 59 3e 21 0e 7c 3e
       0.10851798 0.2740031 0.21191747 0.24614765
000270 38 0d 11 3e 71 ba b4 3d bf a9 be 3d ad ca 06 3e
       0.14165199 0.088246234 0.0930972 0.13163252
000280 2b 88 de 3d 82 be 6d 3e a1 a8 79 3e 91 4d 3b 3e
       0.10865816 0.23217204 0.24380733 0.18291308
000290 48 94 d5 3d d1 98 aa 3d 85 d4 07 3e c6 38 d7 3d
       0.10428673 0.08329929 0.13264664 0.105088755
0002a0 32 45 d2 3d 52 e9 50 3e e2 00 02 3e ca f0 91 3e
       0.10267104 0.20401505 0.1269565 0.2850402
0002b0 d2 7c 4d 3e 2c 32 e8 3d ee b2 c5 3e 29 df 3f 3e
       0.20067146 0.113376945 0.38613075 0.18737473
0002c0 79 fb 32 3e 88 be 2d 3e a5 b3 58 3e 56 09 c2 3d
       0.17478742 0.16967213 0.21162279 0.09474437
0002d0 4b 55 dc 3e d1 f8 24 3e e6 4a 80 3d 37 b0 24 3e
       0.43033823 0.16110541 0.06264286 0.16082846
0002e0 f8 d4 2f 3e 8c 83 56 3e 71 2c 8e 3d ea 34 42 3e
       0.17171085 0.20948619 0.0694207 0.18965498
0002f0 b8 c2 08 3e 53 89 85 3e 75 91 df 3d 36 e1 4c 3e
       0.1335553 0.26081333 0.109164156 0.20007786
000300 af a5 9c 3d 97 0b 1d 3e 70 4e 01 3e d5 fe d1 3d
       0.07648789 0.15336452 0.12627578 0.102536835
000310 db ef c3 3d 7c 89 30 3e 09 ae 84 3e dc 86 a1 3d
       0.09567233 0.17239946 0.25914028 0.078870505
000320 c6 e2 7e 3e e4 d4 3b 3e c8 f8 66 3e 9e 46 0b 3e
       0.24891195 0.1834293 0.2255584 0.13601157
000330 58 bd 90 3d 3e 5d 35 3e a4 82 29 3e 74 7b 27 3e
       0.070673645 0.1771135 0.16553742 0.16355687
000340 67 2c 01 3e 0c aa f9 3d ea 55 5a 3e d9 50 8f 3d
       0.12614594 0.12190637 0.21321836 0.06997842
000350 0e 95 50 3e 2b 1d 00 3e 6e 7d c5 3d 02 16 e5 3d
       0.2036936 0.12511127 0.096430644 0.11185838
