mlruns/528961946943719398/models/m-383597a19a374217a790774db7a97a06/artifacts/data/model.pth (torch, 138315 bytes, 23 tensors)

weight f4 [124]
0	0x3f7df562	0.9920255
1	0x3f7deb69	0.9918733
2	0x3f7df3b9	0.99200016
3	0x3f7df181	0.9919663
4	0x3f7ded74	0.9919045
5	0x3f7e0347	0.9922375
6	0x3f7deef6	0.9919275
7	0x3f7df467	0.99201053
8	0x3f7def0b	0.99192876
9	0x3f7dec97	0.9918913
10	0x3f7deb87	0.9918751
11	0x3f7df1d1	0.9919711
12	0x3f7dee11	0.99191386
13	0x3f7ddd27	0.99165577
14	0x3f7dee92	0.99192154
15	0x3f7dfef4	0.9921715
16	0x3f7debc7	0.9918789
17	0x3f7debab	0.99187726
18	0x3f7dfee9	0.9921709
19	0x3f7de843	0.9918253
20	0x3f7df52a	0.99202216
21	0x3f7df767	0.9920563
22	0x3f7df2aa	0.991984
23	0x3f7def5a	0.99193347
24	0x3f7df0c4	0.99195504
25	0x3f7dddb7	0.99166435
26	0x3f7ded31	0.9919005
27	0x3f7df414	0.9920056
28	0x3f7de68f	0.9917993
29	0x3f7df8a0	0.99207497
30	0x3f7dfca2	0.9921361
31	0x3f7dfb8c	0.99211955
32	0x3f7de30c	0.9917457
33	0x3f7df23a	0.99197733
34	0x3f7df476	0.9920114
35	0x3f7de7bb	0.9918172
36	0x3f7dea99	0.9918609
37	0x3f7e0038	0.99219084
38	0x3f7df2d6	0.99198663
39	0x3f7ded42	0.9919015
40	0x3f7df28e	0.99198234
41	0x3f7df4c4	0.9920161
42	0x3f7df851	0.99207026
43	0x3f7df403	0.9920046
44	0x3f7df5c1	0.99203116
45	0x3f7de5ef	0.99178976
46	0x3f7deb9c	0.99187636
47	0x3f7df0f5	0.99195796
48	0x3f7df2ac	0.9919841
49	0x3f7df193	0.9919674
50	0x3f7dee14	0.99191403
51	0x3f7ded26	0.99189985
52	0x3f7df1b8	0.9919696
53	0x3f7ded91	0.9919062
54	0x3f7df3b9	0.99200016
55	0x3f7dede7	0.99191135
56	0x3f7df343	0.9919931
57	0x3f7deca2	0.991892
58	0x3f7def13	0.99192923
59	0x3f7df4ea	0.99201834
60	0x3f7debec	0.99188113
61	0x3f7df3e2	0.9920026
62	0x3f7df3b0	0.9919996
63	0x3f7deac5	0.99186355
64	0x3f7deca3	0.99189204
65	0x3f7ded90	0.99190617
66	0x3f7df1e8	0.99197245
67	0x3f7df30f	0.99199003
68	0x3f7df815	0.9920667
69	0x3f7defdd	0.9919413
70	0x3f7df803	0.9920656
71	0x3f7dee50	0.9919176
72	0x3f7df039	0.99194676
73	0x3f7def79	0.9919353
74	0x3f7debbc	0.9918783
75	0x3f7df0fd	0.99195844
76	0x3f7df48b	0.9920127
77	0x3f7dec07	0.99188274
78	0x3f7df620	0.9920368
79	0x3f7e0009	0.99218804
80	0x3f7df261	0.99197966
81	0x3f7df040	0.9919472
82	0x3f7df301	0.9919892
83	0x3f7df1dc	0.99197173
84	0x3f7deeb6	0.9919237
85	0x3f7def9c	0.9919374
86	0x3f7df808	0.9920659
87	0x3f7def5c	0.9919336
88	0x3f7df461	0.9920102
89	0x3f7dee17	0.9919142
90	0x3f7dee44	0.9919169
91	0x3f7dec00	0.9918823
92	0x3f7dee8a	0.99192107
93	0x3f7def8f	0.9919366
94	0x3f7de878	0.99182844
95	0x3f7df0b3	0.991954
96	0x3f7df1ae	0.991969
97	0x3f7dede4	0.9919112
98	0x3f7dee7b	0.9919202
99	0x3f7df01c	0.991945
100	0x3f7df3a1	0.99199873
101	0x3f7dece4	0.9918959
102	0x3f7dea1a	0.99185336
103	0x3f7df7d3	0.99206275
104	0x3f7df423	0.9920065
105	0x3f7dece8	0.99189615
106	0x3f7df6c6	0.9920467
107	0x3f7def4c	0.99193263
108	0x3f7ded74	0.9919045
109	0x3f7df2a3	0.9919836
110	0x3f7dee97	0.99192184
111	0x3f7dfa54	0.99210095
112	0x3f7ded20	0.9918995
113	0x3f7df733	0.9920532
114	0x3f7de809	0.9918218
115	0x3f7df679	0.9920421
116	0x3f7df1be	0.99196994
117	0x3f7dec8e	0.9918908
118	0x3f7df036	0.9919466
119	0x3f7deb93	0.9918758
120	0x3f7dfddd	0.9921549
121	0x3f7df1b8	0.9919696
122	0x3f7dfd2f	0.9921445
123	0x3f7deae8	0.99186563

bias f4 [124]
0	0xbaecb80d	-0.0018060223
1	0xba43129f	-0.00074414344
2	0xba8840e6	-0.0010395318
3	0xb9a79020	-0.00031960104
4	0x3a549526	0.0008109383
5	0xbac38ab0	-0.0014918651
6	0x3a4f353f	0.00079043576
7	0xba3626ab	-0.0006948511
8	0x39cfd8e1	0.00039643704
9	0xba2cdad4	-0.0006593887
10	0xb8a2a741	-7.7559154e-05
11	0x3998cad1	0.0002914281
12	0xb9c005fa	-0.00036625547
13	0xba25d5e6	-0.0006326124
14	0x3a927d94	0.0011176341
15	0xba50da4f	-0.0007967101
16	0xba39a5b7	-0.00070818834
17	0xbac1e960	-0.0014794283
18	0xb8c172b9	-9.224326e-05
19	0x3a72d25d	0.0009262914
20	0x39f74926	0.0004716601
21	0x3a497e24	0.0007686338
22	0x3a94e9b8	0.0011361158
23	0xba81dea7	-0.0009908275
24	0x3ac8cf60	0.0015320592
25	0xba9225a4	-0.0011150134
26	0xba02a0e8	-0.00049830833
27	0x3a49399f	0.0007676128
28	0xb907077f	-0.00012877396
29	0x3a5b8af1	0.0008374891
30	0x39eae1db	0.00044800233
31	0x3a86b104	0.0010276143
32	0xba8f8f83	-0.0010952804
33	0x3a443cd2	0.00074858696
34	0xb8a40576	-7.8211466e-05
35	0x3a1db860	0.0006016549
36	0x3a68d438	0.0008881721
37	0x394feea6	0.00019829962
38	0x3a90349b	0.0011002006
39	0x37f62cf1	2.9346413e-05
40	0x3a8d740d	0.0010792032
41	0x39a1be16	0.00030849938
42	0x3a904e01	0.0011009575
43	0x38541615	5.0565304e-05
44	0x399846a9	0.00029044345
45	0x3a63584c	0.000867252
46	0x391826bf	0.00014510284
47	0x3a8221ae	0.000992825
48	0xb96cebf7	-0.00022594618
49	0x39bdf4fe	0.00036231423
50	0xb949e7e5	-0.00019255241
51	0xbab829e3	-0.0014050569
52	0x3901b711	0.00012370596
53	0x39bd73d1	0.0003613518
54	0x3909175c	0.0001307404
55	0x398e32c6	0.0002712218
56	0xb92fd9dc	-0.0001677046
57	0x3a0e89a2	0.0005437379
58	0x3a22430f	0.0006189802
59	0x3a7a9798	0.00095593324
60	0xba0b08a6	-0.0005303718
61	0x3aab0b80	0.0013049692
62	0xb9698092	-0.00022268508
63	0xba4079b6	-0.0007342355
64	0xb95aa9e9	-0.00020853397
65	0xb82833d2	-4.0102583e-05
66	0x3a78646b	0.00094754127
67	0xb99695aa	-0.00028721738
68	0xb9b268be	-0.00034028845
69	0xb9ad5d1c	-0.00033066503
70	0x3a17d45d	0.00057918375
71	0x3a3405f5	0.0006867343
72	0x3a4da0ae	0.00078440725
73	0x3a2b60ff	0.0006537586
74	0x3999c1ec	0.00029326917
75	0x394210e1	0.0001850757
76	0xbaa87955	-0.0012853543
77	0xba2c7e39	-0.0006580088
78	0x396d193f	0.00022611486
79	0x3a456fb3	0.0007531598
80	0xba451a66	-0.0007518887
81	0xb9d3116d	-0.0004025804
82	0x39942aca	0.0002826064
83	0xba427752	-0.0007418293
84	0x3a50a8b5	0.00079597096
85	0xba09911a	-0.0005247757
86	0x3a20b7b4	0.00061308895
87	0xb9b5b6bd	-0.0003465916
88	0xb9bf865d	-0.00036530467
89	0x3a07095d	0.00051512365
90	0x3aa19edf	0.0012330672
91	0x393ceee4	0.00018018071
92	0xb97ec661	-0.0002429723
93	0x39d3861f	0.00040344984
94	0x392efeb7	0.00016688822
95	0x39449f9e	0.00018751479
96	0x3aa181e0	0.0012322031
97	0xba573b11	-0.00082104007
98	0x3a396d56	0.0007073482
99	0x3a6ca8b4	0.0009027824
100	0x3856cc0b	5.1211606e-05
101	0xb913c761	-0.00014093287
102	0x3a90bae3	0.0011042025
103	0x382e2222	4.151662e-05
104	0xba5215aa	-0.00080140925
105	0xba2ee2f0	-0.00066713896
106	0x382e24f8	4.1519263e-05
107	0xba2da7ad	-0.0006624412
108	0xba0f2c4a	-0.00054616167
109	0xb951d132	-0.00020009725
110	0x38fc0b89	0.00012018445
111	0x3a00f120	0.0004918743
112	0x3861a30b	5.3796026e-05
113	0x3a5b818c	0.0008373491
114	0xba5e4e18	-0.0008480265
115	0x39c582f3	0.00037672333
116	0xba98fd35	-0.0011672141
117	0x3ab8b486	0.0014091886
118	0x3aafe6f5	0.0013420271
119	0x3aac63be	0.0013152284
120	0xb70ceaf4	-8.399355e-06
121	0xb9504212	-0.00019861039
122	0x3a2ae80f	0.0006519565
123	0x39348202	0.0001721457

running_mean f4 [124]
0	0x428bcbf2	69.89833
1	0x46271401	10693.001
2	0x40c419e9	6.128163
3	0x40b2a43c	5.582548
4	0x42d17da3	104.745384
5	0x40592e5b	3.3934543
6	0x4045bb5f	3.0895612
7	0x405fc2c4	3.4962626
8	0x403c6494	2.9436388
9	0x3fd0faf1	1.6326581
10	0x43df70d8	446.8816
11	0x423bfc71	46.996525
12	0x440e77d2	569.8722
13	0x4084276d	4.1298127
14	0x3de874c2	0.11350395
15	0x449229fd	1169.3121
16	0x43afb55d	351.4169
17	0x40adf542	5.4361887
18	0x44bec54b	1526.1654
19	0x3edae5a3	0.42753324
20	0x3d679749	0.05654076
21	0x3fc9cdd1	1.5765935
22	0x3ec31898	0.381047
23	0x40389bbe	2.8845057
24	0x3f86249a	1.047992
25	0x4060797e	3.5074153
26	0x40d1f05e	6.5605917
27	0x3e1dab71	0.15397431
28	0x3f1e0ec2	0.6174127
29	0x3feb558c	1.8385482
30	0x3fdc441d	1.7208287
31	0x3fe3a342	1.7784197
32	0x43edee8c	475.86365
33	0x4033f27a	2.8116746
34	0x4033b179	2.807707
35	0x3e1b8b57	0.15189873
36	0x42c324ba	97.57173
37	0x42480927	50.008938
38	0x41ad3fb6	21.656109
39	0x40674d8a	3.6141076
40	0x41752c35	15.323293
41	0x4028d21f	2.6378248
42	0x3c8c89f4	0.017155625
43	0x424a544a	50.582314
44	0x421bfe9d	38.998646
45	0x41c8ca31	25.098726
46	0x41f9d6e8	31.229935
47	0x41fe3af9	31.778795
48	0x404358ca	3.0522943
49	0x3f9ceae3	1.2259182
50	0x3db240a5	0.08703736
51	0x3ed80e93	0.4219862
52	0x3e2cca17	0.16873966
53	0x3f337693	0.70102805
54	0x3e4217ef	0.18954442
55	0x3d95fb3e	0.07323311
56	0x3d21250b	0.039341968
57	0x3d73a74d	0.059485722
58	0x3d02097a	0.03174732
59	0x3ca728fd	0.020405287
60	0x3dc10181	0.09424115
61	0x3ca429c8	0.020039454
62	0x3de3c5cd	0.11121712
63	0x3f731b1d	0.94963247
64	0x3e6ec5b5	0.23317607
65	0x3db4f81d	0.08836386
66	0x3db8881b	0.09010335
67	0x3d22e4ed	0.039769102
68	0x3eb86852	0.3601709
69	0x3e14414b	0.14478032
70	0x3e26c93e	0.16287705
71	0x3e2848be	0.16433999
72	0x3dd5ca26	0.104389474
73	0x3d215124	0.039384022
74	0x3d0800b0	0.03320378
75	0x3d0e1bbc	0.03469442
76	0x3c84ca95	0.01620988
77	0x3cc00148	0.023438111
78	0x3c86e778	0.016467795
79	0x3c89e016	0.016830485
80	0x3f4ac70d	0.7920998
81	0x3e171eef	0.14757894
82	0x3d1dac8a	0.038494624
83	0x3c86f71d	0.016475255
84	0x3dc4a0e3	0.09600999
85	0x3d1865ca	0.03720645
86	0x3d9841f3	0.07434454
87	0x3d6090b0	0.054825485
88	0x3cb8d5de	0.022562917
89	0x3c04ae01	0.008098126
90	0x3d12a42a	0.03580109
91	0x3e1cc73a	0.15310374
92	0x3d6743eb	0.056461256
93	0x3cebd941	0.028790118
94	0x3d572766	0.052527808
95	0x3da03a29	0.07823593
96	0x3ce9a81d	0.028522545
97	0x3c97a1c6	0.018509757
98	0x3d44a33b	0.04800723
99	0x3d2642cc	0.040591046
100	0x3d6cfc68	0.0578579
101	0x3c8d6140	0.017258286
102	0x3ccbe6b5	0.024890283
103	0x3c85d506	0.016336929
104	0x3f1816b3	0.59409636
105	0x3db4a36f	0.08820235
106	0x3edda524	0.43290055
107	0x3bd0d762	0.006373332
108	0x3ee4aa8e	0.44661373
109	0x3c86fbba	0.016477454
110	0x3cc500d1	0.02404824
111	0x3f6d9ce7	0.9281754
112	0x3d7f093e	0.062264673
113	0x3e861e49	0.2619498
114	0x3d6acb8c	0.057323024
115	0x3cc756d1	0.02433339
116	0x3d1ad326	0.037799023
117	0x3daa765e	0.08323358
118	0x3ca4f9b8	0.020138606
119	0x3f5d6a36	0.8649019
120	0x3c80e8ca	0.015736002
121	0x3f532690	0.82480717
122	0x3c1e75f6	0.009671679
123	0x3dabf09b	0.08395501

running_var f4 [124]
0	0x43f7b1ca	495.38898
1	0x4cd3905b	1.1092041e+08
2	0x3ff0d03d	1.8813549
3	0x3f9f0b99	1.2425414
4	0x46ee2957	30484.67
5	0x3ea9189d	0.3302659
6	0x3e0a76fe	0.13521954
7	0x3f3daf4a	0.74095595
8	0x3e92fbc0	0.28707695
9	0x3f8f1c50	1.1180515
10	0x484f46ba	212250.9
11	0x46cc9586	26186.762
12	0x48433fc4	199935.06
13	0x3f6d293a	0.9264103
14	0x3e26d901	0.16293718
15	0x4810f6dd	148443.45
16	0x483be5a9	192406.64
17	0x450a31df	2211.117
18	0x48860ecb	274550.34
19	0x3e8b6797	0.2722747
20	0x3d61dd4c	0.055142686
21	0x3e989257	0.29799148
22	0x3e7f316f	0.24921201
23	0x3f2835dd	0.6570719
24	0x3d50d1fa	0.0509815
25	0x3edf6a45	0.43635765
26	0x402868c4	2.6313944
27	0x3ed5abfc	0.41732776
28	0x3ed5028e	0.41603512
29	0x4052466e	3.2855487
30	0x3f4eb72c	0.8074825
31	0x3f0f8b4e	0.5607194
32	0x47316534	45413.203
33	0x3f0a2b0e	0.53971946
34	0x3f086686	0.5328144
35	0x3e847b8d	0.25875512
36	0x46881be3	17421.943
37	0x459896a2	4882.829
38	0x456bcb03	3772.6882
39	0x44683f66	928.9906
40	0x454403c3	3136.235
41	0x44c05d9c	1538.9253
42	0x3d9041dc	0.07043812
43	0x489d92b0	322709.5
44	0x446a9747	938.3637
45	0x43d67c5f	428.97165
46	0x440f8a89	574.1646
47	0x4375909c	245.56488
48	0x4030074c	2.7504454
49	0x3f18c24f	0.5967149
50	0x3e041de4	0.12902027
51	0x3eb114d0	0.3458619
52	0x3e930be4	0.2872001
53	0x3e570c50	0.2100079
54	0x3e1d9823	0.15390067
55	0x3d8b5b05	0.0680447
56	0x3d34e8e5	0.044167418
57	0x3d9100da	0.070802405
58	0x3cfc3216	0.030785602
59	0x3ca4318b	0.020043155
60	0x3daf379a	0.08555527
61	0x3ca0b531	0.019617649
62	0x3e3eada9	0.18620934
63	0x3d7ce305	0.06173994
64	0x3e860ee2	0.2618323
65	0x3e25edb6	0.16203961
66	0x3da83a8b	0.08214291
67	0x3d1ca89d	0.03824674
68	0x3e6c7757	0.230924
69	0x3dfd6f7e	0.12374781
70	0x3e0bc48c	0.13649195
71	0x3e0cc583	0.1374722
72	0x3dbfcdd7	0.09365433
73	0x3d1b566e	0.037924223
74	0x3d03806b	0.03210489
75	0x3d096593	0.033544134
76	0x3c830977	0.015995724
77	0x3cbbafba	0.022910941
78	0x3c8489ee	0.016179051
79	0x3c87d13f	0.016579269
80	0x3e2909b2	0.16507605
81	0x3e010b0b	0.12601869
82	0x3d17c478	0.0370526
83	0x3c851895	0.016247073
84	0x3db17d17	0.08666437
85	0x3d12d7b5	0.035850246
86	0x3d8d221e	0.06891273
87	0x3d54379f	0.051810857
88	0x3cb50855	0.0220987
89	0x3c03ba80	0.0080400705
90	0x3d0d89f1	0.03455538
91	0x3e047ee7	0.12939034
92	0x3d5aa30c	0.05337815
93	0x3ce56672	0.028002951
94	0x3d4c3fb6	0.049865447
95	0x3d941e52	0.07232346
96	0x3ce2abfb	0.027669897
97	0x3c950f12	0.018195663
98	0x3d3b425d	0.045717586
99	0x3d1dd09d	0.038529027
100	0x3d5fb66a	0.054617323
101	0x3c8b4ab5	0.017003397
102	0x3cc71b67	0.024305059
103	0x3c83df71	0.016097756
104	0x3e772399	0.24134673
105	0x3da4a879	0.08039946
106	0x3e7c20dd	0.24621911
107	0x3bcf9f90	0.00633616
108	0x3e7d2ae2	0.2472339
109	0x3c84bd7b	0.016203633
110	0x3cc05d61	0.023482027
111	0x3d88f06a	0.0668648
112	0x3d6f1734	0.058371738
113	0x3e45a4f1	0.19301201
114	0x3d5d596f	0.05404037
115	0x3cc31f30	0.023818582
116	0x3d150d12	0.036389418
117	0x3d9ca684	0.07648948
118	0x3ca1af13	0.019736802
119	0x3def5cff	0.116876595
120	0x3c7e3258	0.015514933
121	0x3e13f13e	0.14447495
122	0x3c1d2949	0.009592363
123	0x3d9de446	0.07709555

weight f4 [121, 124]
0	0x3d83caab	0.0643514
1	0x3dae9757	0.085249595
2	0x3d029fc2	0.03189064
3	0x3d7f6809	0.062355075
4	0x3d4f6d1c	0.050641164
5	0x3ccf6c28	0.025320128
6	0x3c1c298c	0.00953139
7	0xbd83733f	-0.06418466
8	0xbce25db3	-0.02763257
9	0xbd47281c	-0.048622236
10	0x3d95b57c	0.07310006
11	0xbd9627e5	-0.07331828
12	0x3d6d795f	0.057977077
13	0x3ccc3b5a	0.024930645
14	0x3da82369	0.08209879
15	0x3d8ce505	0.068796195
16	0xbce518c3	-0.027965909
17	0x3d66458a	0.05621866
18	0x3d36ef1c	0.044661626
19	0x3d796fec	0.060897753
20	0xbc8d0c21	-0.017217698
21	0x3d0807bd	0.033210505
22	0xbaecaa10	-0.0018056054
23	0xbd28ad73	-0.04118104
24	0x3d7358ae	0.059410743
25	0xbd7ed7be	-0.062217467
26	0x3c94249d	0.018083865
27	0xbda7036f	-0.08154952
28	0xbd981e07	-0.07427602
29	0xbcce09d0	-0.025151163
30	0xbc2173de	-0.009854285
31	0x3cbd6808	0.023120895
32	0xbda37980	-0.07982159
33	0xbcfbfff3	-0.030761695
34	0x3da41037	0.08010905
35	0xbc854434	-0.016267873
36	0xbd0c4993	-0.034249853
37	0xbb7051c6	-0.0036669835
38	0x3da54892	0.08070482
39	0xbda78270	-0.08179176
40	0x3c5c96e1	0.013463707
41	0xbd80ced6	-0.06289451
42	0x3d8fff62	0.07031132
43	0x3cd59ddf	0.026076255
44	0xbab22547	-0.0013591432
45	0xbd8118b8	-0.06303543
46	0xbd21c669	-0.03949586
47	0xbd3af877	-0.04564711
48	0x3d1a1cc4	0.03762509
49	0xbd276e71	-0.04087681
50	0x3d4cb71d	0.049979318
51	0xbd297e46	-0.04138019
52	0xbd238ff9	-0.039932225
53	0xbd8a53d9	-0.06754274
54	0xbc8afa3a	-0.01696502
55	0x3d2f9b4b	0.04287271
56	0xbd457762	-0.048209555
57	0xbc3c0942	-0.011476817
58	0xbd443f92	-0.047912188
59	0xbd431647	-0.047628667
60	0xbd911f20	-0.07086015
61	0x3d80cf0b	0.0628949
62	0xbbf3bcf7	-0.007438298
63	0xbd90269c	-0.07038614
64	0xbc858aa0	-0.016301453
65	0x3d95bdc2	0.07311584
66	0x3bd49d33	0.006488466
67	0xbcbffac9	-0.023435013
68	0xbbe3ac33	-0.006948018
69	0xbd2c9063	-0.042129885
70	0xbc74ab2f	-0.0149333915
71	0x3da9e04f	0.082947366
72	0xbd89a626	-0.067211434
73	0x3ccee0fa	0.025253762
74	0x3d80fd6f	0.062983386
75	0xbda5637f	-0.08075618
76	0x3d05eca6	0.03269639
77	0xbb5ff8fe	-0.003417551
78	0xbd8b35dc	-0.06797382
79	0x3bb5106e	0.00552564
80	0x3d248941	0.040169958
81	0x3a31f50b	0.00067885284
82	0x3cb73190	0.0223625
83	0x3c8c566e	0.017131057
84	0x3c70c570	0.01469551
85	0xbc9bc17c	-0.019013159
86	0xbc2dcf80	-0.010608554
87	0x3d3ea19b	0.046540838
88	0x3d8ca611	0.06867612
89	0x3b0e6836	0.0021729595
90	0xbc89f9c3	-0.016842728
91	0x3d7ad5e7	0.06123915
92	0xbd80a39c	-0.06281206
93	0x3d174dd9	0.036939476
94	0x3d8e71af	0.06955277
95	0xbd4d371a	-0.050101377
96	0xbb375815	-0.0027976085
97	0x3da7cdc2	0.08193542
98	0x3ccf4f6e	0.02530643
99	0x3b602ff3	0.0034208267
100	0xbcba7995	-0.022763053
101	0xbd9f42e3	-0.077764295
102	0xbd44d799	-0.048057172
103	0xbd1ab48e	-0.037769847
104	0xbd63df3c	-0.055632815
105	0x3d9bde25	0.0761073
106	0xbca920df	-0.020645557
107	0x3a247587	0.00062736165
108	0x3c5f1b15	0.013617297
109	0xbdad9247	-0.08475166
110	0x3ca67497	0.020319266
111	0xbd665a7e	-0.056238644
112	0x3cf22899	0.029560374
113	0xbd963027	-0.07333403
114	0xbc92a080	-0.017898798
115	0x3da7d866	0.081955716
116	0x3d13bada	0.036066867
117	0xbc82fa83	-0.015988594
118	0x3d420ae1	0.047373656
119	0xbdab39c3	-0.083606265
120	0xbd983fc1	-0.07434035
121	0x3d073cc3	0.03301693
122	0x3d172117	0.03689679
123	0xbccb19a0	-0.024792492
124	0x3d181e58	0.037138313
125	0xbd0adace	-0.033900075
126	0xbd030aa7	-0.03199258
127	0x3d409677	0.047018494
128	0x3d67ca83	0.056589615
129	0x3da149c5	0.078753985
130	0xbcb7f3e7	-0.022455169
131	0xbc673ecf	-0.014114096
132	0x3d021a4a	0.031763352
133	0x3c230c6a	0.00995169
134	0x3d72a2be	0.059237234
135	0xba02302c	-0.00049662846
136	0x3d674277	0.05645987
137	0x3ce3dfa2	0.027816597
138	0x3cca9a71	0.024731847
139	0x3d8b4a2e	0.06801258
140	0xbda4e345	-0.08051161
141	0xbd205208	-0.03914073
142	0xbbf1e205	-0.00738168
143	0x3d3ed77e	0.046592228
144	0xbdab19cc	-0.0835453
145	0xbd1d6c69	-0.038433466
146	0x3d3026ce	0.043005757
147	0x3d2267c1	0.03964973
148	0xbbdaa46a	-0.0066724317
149	0xbd3e26ba	-0.04642365
150	0x3da1630f	0.07880222
151	0xbd0164eb	-0.031590383
152	0x3cefa323	0.029252594
153	0xbceae981	-0.028675796
154	0xbd0c9cbc	-0.03432916
155	0x3d6dca79	0.05805442
156	0x3cbe5af1	0.023236724
157	0xbd9bb78e	-0.0760337
158	0xbd434c06	-0.047679923
159	0xbbac8b7c	-0.0052656513
160	0xbd3591f4	-0.044328645
161	0xbd93be53	-0.07214036
162	0x3d1dac11	0.038494173
163	0x3caebe7d	0.021331066
164	0xbbdc6cf7	-0.006726857
165	0x3c812d10	0.015768558
166	0xbca2af7e	-0.019859072
167	0xbb2eaa11	-0.002665166
168	0x3c858271	0.01629755
169	0x3d851e98	0.06499976
170	0xbd99da63	-0.07512357
171	0xbd58c141	-0.052918676
172	0xbba7fe50	-0.005126752
173	0xbd8c4c00	-0.06850433
174	0x3d525514	0.051350668
175	0xbda305b6	-0.07960074
176	0xbd18f3de	-0.037341945
177	0xbd114c38	-0.03547308
178	0x3da454ab	0.08023962
179	0xbd849b14	-0.06474891
180	0x3d4a1d8a	0.049344577
181	0x3d802cfa	0.062585786
182	0x3d79376b	0.060843866
183	0x3d228375	0.03967615
184	0xbd64106a	-0.055679716
185	0x3d806cbe	0.06270741
186	0xbcf49fa1	-0.029861273
187	0xbd507bd1	-0.05089933
188	0x3c449213	0.011997717
189	0xbd2ea461	-0.042637233
190	0xbd32971a	-0.043601133
191	0xbc5ebd05	-0.01359487
192	0xbda21d76	-0.079157755
193	0xba869bb8	-0.0010269796
194	0x3d736b93	0.059428763
195	0xbc86a52f	-0.016436188
196	0x3d390308	0.045168906
197	0xbc73ee46	-0.014888352
198	0x3d9f10be	0.07766865
199	0x3d3c0d5e	0.045911185
200	0xbd995fe6	-0.07488994
201	0x3d867520	0.065653086
202	0xbd96c4e6	-0.07361774
203	0x3d603800	0.054740906
204	0x3cdc1907	0.026867403
205	0x3ce1d9c4	0.027569659
206	0x3ab9ff57	0.0014190477
207	0xbd9a0ebf	-0.07522344
208	0x3d8ba7ea	0.068191364
209	0x3d02af00	0.031905174
210	0xbd51e74f	-0.051245984
211	0xbca6fd9a	-0.020384599
212	0x3d6a4e88	0.0572038
213	0x3d751829	0.059837494
214	0x3da4df1e	0.08050369
215	0x3da03e8a	0.078244284
216	0x3be9b103	0.007131697
217	0x3db09e37	0.08623927
218	0xbc9fea69	-0.019520955
219	0x3c80e4c0	0.015734076
220	0x3c316bdb	0.010828937
221	0xbcfc8e51	-0.03082958
222	0x3d2536cc	0.04033546
223	0xbd481fd2	-0.04885847
224	0x3dac6c8d	0.08419142
225	0x3c828de2	0.015936796
226	0x3d1532bb	0.036425333
227	0xbd7eb75b	-0.06218658
228	0xbaa33c3f	-0.0012453868
229	0xbcd995f9	-0.02656077
230	0x3ccc7f4d	0.024963045
231	0xbd0606d6	-0.032721363
232	0x3d89911d	0.06717131
233	0xbbd880cb	-0.00660715
234	0xbd96c83f	-0.07362413
235	0x3d5e690e	0.054299407
236	0x3ce0f386	0.027459871
237	0x3bdfbaaf	0.0068276743
238	0xbd84d374	-0.06485644
239	0x3d85dcc7	0.065362506
240	0xbd5a8dc9	-0.053357873
241	0xbd8910ac	-0.06692633
242	0x3c28be1b	0.010299231
243	0xbcc44acb	-0.023961445
244	0xbd6089f6	-0.05481907
245	0xbd2f93b1	-0.04286546
246	0x3b94ed90	0.004544921
247	0xbce75ee7	-0.028243495
248	0x3d078f0d	0.03309541
249	0xbc088e2a	-0.008334676
250	0x3d7fc438	0.06244299
251	0x3d26ee00	0.04075432
252	0xbc236c17	-0.009974501
253	0xbd8675fb	-0.06565472
254	0x3aca3f25	0.0015430195
255	0xbc33dbee	-0.010977728

bias f4 [121]
0	0xbd803e94	-0.06261936
1	0xbd87a793	-0.06623759
2	0x3d6b431b	0.057437044
3	0x3c946418	0.018114135
4	0xbd83ae22	-0.064296976
5	0x3d47d3db	0.048786025
6	0xbc9353f7	-0.017984373
7	0x3da057f5	0.078292765
8	0x3da4f8cf	0.08055269
9	0x3d448061	0.047973994
10	0xbda40cbf	-0.080102436
11	0xbd0736a8	-0.03301111
12	0xbc8e7148	-0.017388001
13	0x3a85f051	0.0010218715
14	0xbd0a4af6	-0.033762895
15	0x3c9fce86	0.019507658
16	0xbd040f55	-0.032241184
17	0xbd06b2fc	-0.032885537
18	0x3d6f1836	0.0583727
19	0x3c6c03ba	0.014405185
20	0xbda1f632	-0.07908286
21	0xbd99a8a8	-0.07502872
22	0xbd9ded44	-0.077112705
23	0x3d7ba702	0.061438568
24	0x3c82d821	0.015972199
25	0x3cf72c7a	0.030172575
26	0xbd40a8cf	-0.04703599
27	0x3c805912	0.015667472
28	0xbcb4771f	-0.022029458
29	0xbcdf02b5	-0.02722297
30	0x3da87c01	0.08226777
31	0x3d9a83e3	0.07544687
32	0x3d0ff54c	0.035146043
33	0x3d8df5d2	0.06931652
34	0xbd08c841	-0.033394102
35	0xba8be1e0	-0.0010672174
36	0xbda655f2	-0.081218615
37	0x3cf6c10f	0.030121354
38	0xbd984769	-0.074354954
39	0x3d9d9231	0.076938994
40	0xbd82e969	-0.06392176
41	0xbd873000	-0.06600952
42	0x3d04c0e6	0.032410525
43	0xbd665dea	-0.056241907
44	0xbda88960	-0.08229327
45	0x3cb89899	0.022533702
46	0xbd86506b	-0.06558307
47	0xbd96c8e5	-0.07362536
48	0xbd81d547	-0.063395076
49	0xbbc5341a	-0.006018174
50	0x3ca3efa9	0.02001174
51	0x3d5243b9	0.051334117
52	0xbd345312	-0.044024535
53	0x3d6ea813	0.058265757
54	0x3d41bbdc	0.047298297
55	0xbd825c91	-0.06365312
56	0xbd946176	-0.07245152
57	0x3d15d1d6	0.03657707
58	0x3cfd6225	0.030930588
59	0xbd04c397	-0.03241309
60	0x3d1fc844	0.039009348
61	0xbba09aa3	-0.0049012466
62	0x3d67c215	0.056581575
63	0xbcc32106	-0.023819458
64	0x3d85d8aa	0.06535466
65	0xbbb08aad	-0.005387625
66	0x39385b67	0.00017581657
67	0xbda9224c	-0.08258495
68	0x3d688f83	0.05677749
69	0x3befb77e	0.007315575
70	0xbd95ffcb	-0.07324179
71	0x3c5f8ab3	0.013643908
72	0xbd151127	-0.03639331
73	0x3c590aab	0.013247172
74	0x3cebee0c	0.028800033
75	0x3d5b1a3a	0.05349181
76	0xbc423085	-0.011852388
77	0x3ce7b93e	0.028286573
78	0xbd0c11ab	-0.034196537
79	0x3c8c663e	0.017138597
80	0xbbeaa15d	-0.0071603493
81	0xbcc3bb1e	-0.023892935
82	0x3c92c2b3	0.017915105
83	0xbd7683d6	-0.060184322
84	0x3da0a8b2	0.07844676
85	0xbd940a8e	-0.07228576
86	0xbda506ad	-0.08057914
87	0xbc6f782d	-0.0146160545
88	0xbd31b75b	-0.043387752
89	0xbce3ffd5	-0.027831951
90	0x3da2300d	0.07919321
91	0xbcc0a232	-0.02351484
92	0xbd26fbf5	-0.04076763
93	0xbd06593f	-0.032799955
94	0x3cd34660	0.025790393
95	0xbc332c81	-0.0109359035
96	0x3cce3846	0.025173318
97	0x3d86fe69	0.06591494
98	0x3d808602	0.0627556
99	0xbd2d3e63	-0.042295825
100	0x3d73a5d0	0.059484303
101	0x3d420d17	0.047375765
102	0xbc116246	-0.008873528
103	0x3d22d865	0.03975715
104	0xbd9ba84f	-0.07600462
105	0xbd9265c6	-0.07148318
106	0x3d9c6011	0.07635511
107	0x3d479361	0.048724536
108	0x3c9e7ed4	0.019347586
109	0xbd9543f5	-0.072883524
110	0xbd94d109	-0.07266433
111	0xbda8e4e8	-0.082467854
112	0xbd5be080	-0.053680897
113	0x3c59ef07	0.0133016175
114	0x3b3c6b0a	0.0028750324
115	0x3d4f8616	0.050664984
116	0x3bcad9bb	0.0061905063
117	0x3ce9558e	0.028483178
118	0xbc3393a9	-0.010960498
119	0x3d6a4de8	0.057203203
120	0xbd8c8fa7	-0.06863337

weight f4 [121]
0	0x3f7deff3	0.9919426
1	0x3f7def6d	0.9919346
2	0x3f7df10a	0.9919592
3	0x3f7deda1	0.9919072
4	0x3f7deede	0.9919261
5	0x3f7deb49	0.9918714
6	0x3f7df22d	0.99197656
7	0x3f7deb4e	0.9918717
8	0x3f7dedea	0.99191153
9	0x3f7df0e1	0.9919568
10	0x3f7df7d0	0.99206257
11	0x3f7df127	0.99196094
12	0x3f7df065	0.9919494
13	0x3f7df1f1	0.991973
14	0x3f7e0217	0.9922194
15	0x3f7df60a	0.9920355
16	0x3f7df137	0.9919619
17	0x3f7df2ed	0.991988
18	0x3f7dee45	0.99191695
19	0x3f7df35d	0.9919947
20	0x3f7dfc40	0.9921303
21	0x3f7dee38	0.9919162
22	0x3f7deabd	0.9918631
23	0x3f7df3c1	0.99200064
24	0x3f7de506	0.9917759
25	0x3f7de86f	0.9918279
26	0x3f7dee59	0.99191815
27	0x3f7df0aa	0.9919535
28	0x3f7deef3	0.9919273
29	0x3f7dfa98	0.992105
30	0x3f7defe6	0.9919418
31	0x3f7df90c	0.9920814
32	0x3f7df0c4	0.99195504
33	0x3f7ded2f	0.9919004
34	0x3f7de937	0.9918398
35	0x3f7df668	0.9920411
36	0x3f7de8f6	0.99183595
37	0x3f7df677	0.992042
38	0x3f7de8e2	0.99183476
39	0x3f7de39d	0.99175435
40	0x3f7df425	0.9920066
41	0x3f7de96b	0.9918429
42	0x3f7df053	0.9919483
43	0x3f7df291	0.9919825
44	0x3f7ded58	0.9919028
45	0x3f7df3b2	0.99199975
46	0x3f7def2a	0.9919306
47	0x3f7de89a	0.99183047
48	0x3f7dfcbb	0.9921376
49	0x3f7de9a8	0.99184656
50	0x3f7deadf	0.9918651
51	0x3f7ded51	0.9919024
52	0x3f7dee2f	0.99191564
53	0x3f7defd3	0.9919407
54	0x3f7deda4	0.99190736
55	0x3f7dfbce	0.9921235
56	0x3f7dec0e	0.99188316
57	0x3f7ded94	0.9919064
58	0x3f7deca0	0.99189186
59	0x3f7ded16	0.9918989
60	0x3f7df0ef	0.9919576
61	0x3f7df325	0.99199134
62	0x3f7de8ea	0.99183524
63	0x3f7df172	0.9919654
64	0x3f7de912	0.9918376
65	0x3f7df785	0.9920581
66	0x3f7e034c	0.9922378
67	0x3f7df297	0.9919829
68	0x3f7dee69	0.9919191
69	0x3f7ded43	0.9919016
70	0x3f7deed1	0.9919253
71	0x3f7dee3f	0.9919166
72	0x3f7ded8e	0.99190605
73	0x3f7df451	0.9920092
74	0x3f7de9ac	0.9918468
75	0x3f7dee19	0.99191433
76	0x3f7df0bb	0.9919545
77	0x3f7df17c	0.991966
78	0x3f7df189	0.9919668
79	0x3f7df8bd	0.9920767
80	0x3f7ded9e	0.991907
81	0x3f7dee8f	0.99192137
82	0x3f7deed1	0.9919253
83	0x3f7df64f	0.9920396
84	0x3f7df7ce	0.99206245
85	0x3f7deaa1	0.9918614
86	0x3f7df04b	0.9919478
87	0x3f7df1a2	0.9919683
88	0x3f7de88e	0.99182975
89	0x3f7defa3	0.9919378
90	0x3f7df340	0.99199295
91	0x3f7e0d6e	0.9923924
92	0x3f7df7b8	0.99206114
93	0x3f7dee2e	0.9919156
94	0x3f7dfd9c	0.992151
95	0x3f7deb2f	0.99186987
96	0x3f7decf1	0.9918967
97	0x3f7def54	0.9919331
98	0x3f7dedf3	0.99191207
99	0x3f7df5d4	0.9920323
100	0x3f7dfe30	0.99215984
101	0x3f7de5b3	0.9917862
102	0x3f7dee50	0.9919176
103	0x3f7def61	0.9919339
104	0x3f7df437	0.9920077
105	0x3f7def86	0.9919361
106	0x3f7dedd0	0.99191
107	0x3f7df553	0.9920246
108	0x3f7de995	0.9918454
109	0x3f7def50	0.99193287
110	0x3f7de893	0.99183005
111	0x3f7debf9	0.9918819
112	0x3f7de9f2	0.991851
113	0x3f7deed0	0.99192524
114	0x3f7df0d9	0.9919563
115	0x3f7decb2	0.99189293
116	0x3f7decbc	0.99189353
117	0x3f7dee51	0.99191767
118	0x3f7de845	0.9918254
119	0x3f7dff4d	0.99217683
120	0x3f7dee7c	0.99192023

bias f4 [121]
0	0xba117bc3	-0.0005549753
1	0xba77bbaf	-0.0009450269
2	0xb99c1ea5	-0.0002977747
3	0x390320f4	0.0001250541
4	0x39bc400f	0.00035905882
5	0xba77f7aa	-0.0009459207
6	0x3a678470	0.00088316854
7	0x3a4c539e	0.00077944424
8	0x3a5b7ab3	0.00083724706
9	0x3a0f5bfd	0.00054687244
10	0x399aba17	0.00029511817
11	0x3929b381	0.00016183966
12	0x394e69e7	0.00019685143
13	0x394b1688	0.00019367982
14	0xb7ead059	-2.7991993e-05
15	0xbac0b4db	-0.0014702337
16	0x3ac4b631	0.001500791
17	0x38d98630	0.00010372361
18	0xb9b9e142	-0.0003545378
19	0xbaa0c971	-0.0012267065
20	0x3ad52b5e	0.0016263535
21	0x3a1c1468	0.00059539685
22	0xba30fae9	-0.0006751256
23	0xba6eccad	-0.00091094786
24	0xb8c5d02b	-9.432466e-05
25	0xba365a15	-0.00069561723
26	0x386387b7	5.424741e-05
27	0xba905647	-0.0011012041
28	0x3a8c00c8	0.0010681385
29	0x3aebddeb	0.0017995214
30	0x3a32e2a8	0.00068239355
31	0x3966d1e8	0.00022012705
32	0xb9245f31	-0.0001567572
33	0x39f61b6e	0.00046941213
34	0xba82e696	-0.0009986933
35	0x38ca7e0c	9.655589e-05
36	0x3abf8507	0.0014611789
37	0x39cbdd08	0.00038883858
38	0x3957334f	0.00020523112
39	0x3adf1ec5	0.001702272
40	0xb90380f4	-0.00012541172
41	0x3ae31906	0.0017326183
42	0x3a151307	0.0005686734
43	0x3ab5379a	0.0013825775
44	0xbab0d0d5	-0.0013489971
45	0xbafb567e	-0.0019175557
46	0x39b49c67	0.00034448804
47	0x351a0493	5.7376127e-07
48	0xb937e79d	-0.00017538523
49	0xb9b585f1	-0.00034622804
50	0xbad0b5ee	-0.001592336
51	0xb9754556	-0.0002339085
52	0xb91830a7	-0.00014513974
53	0x39ccfaba	0.00039096718
54	0x386a1532	5.5809687e-05
55	0xba2c93cb	-0.0006583302
56	0xba59b7a9	-0.00083052606
57	0xb9ca304e	-0.00038564432
58	0xb935bb60	-0.00017331308
59	0x3942f455	0.00018592303
60	0x3a9ec70d	0.0012113765
61	0xbaaa8865	-0.001301062
62	0x39aae940	0.00032598712
63	0x399adc21	0.00029537178
64	0x3a536000	0.00080633163
65	0x38a22725	7.732053e-05
66	0x3ad06b8e	0.0015901194
67	0xba07190d	-0.0005153574
68	0xb898d589	-7.287699e-05
69	0x39fbdbcb	0.0004803821
70	0xb9b786ef	-0.00035005013
71	0xba041d65	-0.00050397805
72	0xb801161c	-3.0776588e-05
73	0x3a9a2a86	0.001176194
74	0x3a8d64a3	0.0010787438
75	0x3a565670	0.00081763323
76	0xba2ca2cf	-0.00065855397
77	0xba2f98e6	-0.0006698504
78	0xba29f25a	-0.00064829516
79	0xb934740a	-0.00017209366
80	0x3a36aedb	0.00069688045
81	0x398a0d7e	0.00026331464
82	0x39aba634	0.00032739493
83	0xba347f79	-0.000688545
84	0x3a0a9bfd	0.00052875263
85	0xba93376a	-0.0011231725
86	0xba440b02	-0.0007478447
87	0xba914651	-0.0011083578
88	0x3b20a7fe	0.0024514194
89	0xb9203eec	-0.0001528223
90	0x354f8c2b	7.731748e-07
91	0x3a15f54b	0.00057204504
92	0xba2df70d	-0.00066362397
93	0xba10976a	-0.00055157265
94	0x3a2776f4	0.000638827
95	0x366f1f7e	3.5632106e-06
96	0xb953790a	-0.00020167619
97	0xba41074c	-0.0007363453
98	0x3a3d9270	0.0007231599
99	0xb9b128a5	-0.00033790353
100	0xb9941651	-0.00028245387
101	0xba54791c	-0.0008105205
102	0x3a55389a	0.00081337395
103	0xba5aa2f4	-0.0008340322
104	0xb93daf11	-0.00018089662
105	0x3b097c3e	0.0020978595
106	0xb90eab01	-0.00013605879
107	0xb7c70bcd	-2.3728144e-05
108	0xba4a0c7d	-0.00077075494
109	0xba5a94f4	-0.0008338236
110	0xb97b065f	-0.00023939599
111	0xba49778b	-0.0007685355
112	0xbacb0614	-0.0015489482
113	0x3aff367b	0.0019471192
114	0xbaca28e0	-0.0015423559
115	0xba0ad5c5	-0.00052961364
116	0xbacb9f9d	-0.0015535239
117	0xbad06e36	-0.0015901986
118	0xb97eb52f	-0.00024290824
119	0xbb166a7d	-0.0022951656
120	0xbac003f1	-0.0014649612

running_mean f4 [121]
0	0x3d9a0183	0.075198196
1	0x3d3be2b0	0.045870483
2	0x3dfc2093	0.123109005
3	0x3dd1754d	0.102274515
4	0x3d807a10	0.062732816
5	0x3e041a22	0.12900594
6	0x3dc8f78e	0.09812842
7	0x3df54472	0.119759455
8	0x3e09a900	0.13443375
9	0x3dfdd388	0.12393862
10	0x3d8839bb	0.06651636
11	0x3da3772e	0.07981716
12	0x3da888c4	0.08229211
13	0x3dcc1bc1	0.09966231
14	0x3daaa278	0.0833177
15	0x3dd62afb	0.104574166
16	0x3df3ee1f	0.11910652
17	0x3d97759e	0.073954806
18	0x3dfb1cc5	0.12261347
19	0x3db1e6fe	0.086866364
20	0x3d4dcfca	0.05024699
21	0x3d17b098	0.037033647
22	0x3da9b11c	0.08285734
23	0x3dec779b	0.115462504
24	0x3e14adeb	0.1451947
25	0x3e14b899	0.14523543
26	0x3d9e7df8	0.077388704
27	0x3d9a0375	0.075201906
28	0x3dc14f05	0.094389
29	0x3daf2000	0.085510254
30	0x3e2134e4	0.15742832
31	0x3deecef3	0.11660566
32	0x3e02d94a	0.12778202
33	0x3e177f7b	0.14794724
34	0x3da67421	0.081276186
35	0x3dc865ce	0.09785043
36	0x3d4b909b	0.049698453
37	0x3e0c3152	0.13690689
38	0x3dc07ef5	0.09399215
39	0x3e30f0dd	0.17279382
40	0x3d660644	0.05615832
41	0x3df02fde	0.1172788
42	0x3de4e055	0.111756004
43	0x3d930a31	0.07179678
44	0x3d7a2268	0.06106797
45	0x3dda0e2e	0.10647236
46	0x3d9216c9	0.07133252
47	0x3d917153	0.07101693
48	0x3daef089	0.08541972
49	0x3de5fa84	0.11229423
50	0x3dd93a34	0.106068045
51	0x3e0f662d	0.1400382
52	0x3d8893db	0.06668826
53	0x3e08a7d9	0.13345279
54	0x3dedb001	0.11605836
55	0x3d9a1b15	0.07524697
56	0x3d8426b1	0.06452692
57	0x3e02ad88	0.1276151
58	0x3e056b96	0.13029322
59	0x3d9c154f	0.07621252
60	0x3df055cb	0.11735114
61	0x3dca6edf	0.09884428
62	0x3e01bf2a	0.1267058
63	0x3dbc811c	0.09204313
64	0x3e1d940e	0.1538851
65	0x3dd0cc1a	0.10195179
66	0x3dbc68a1	0.09199644
67	0x3d70482b	0.058662575
68	0x3de5e899	0.11226005
69	0x3db9ccb1	0.09072245
70	0x3d4ad9e2	0.049524195
71	0x3db2ccde	0.087304816
72	0x3d7588a7	0.059944775
73	0x3de3ca45	0.11122564
74	0x3e06b6e9	0.13155712
75	0x3deb1183	0.114779495
76	0x3dc43a04	0.09581378
77	0x3dfc1284	0.12308219
78	0x3dc14d90	0.09438622
79	0x3df8b004	0.12142947
80	0x3dcabe18	0.09899539
81	0x3da6a044	0.08136037
82	0x3e01f42a	0.12690797
83	0x3d89f230	0.06735647
84	0x3e0e7240	0.1391077
85	0x3d652c79	0.055950616
86	0x3d4772eb	0.04869358
87	0x3db16094	0.08660999
88	0x3d997f9f	0.07495045
89	0x3db9c2e1	0.09070373
90	0x3e0e403e	0.13891694
91	0x3dc1ca13	0.09462371
92	0x3dd5870d	0.104261495
93	0x3db136aa	0.086530045
94	0x3dcc714b	0.099825464
95	0x3d8fd861	0.07023693
96	0x3dd611b1	0.10452593
97	0x3e1c4b6e	0.15263149
98	0x3df45bb5	0.11931554
99	0x3d981b00	0.07427025
100	0x3e05b4ad	0.13057204
101	0x3e125141	0.14288808
102	0x3da83752	0.082136765
103	0x3e08d982	0.13364223
104	0x3d332fee	0.04374688
105	0x3db31fea	0.087463215
106	0x3e146961	0.14493324
107	0x3e077753	0.13229112
108	0x3e11ff5a	0.14257565
109	0x3d968c99	0.073510356
110	0x3da41581	0.08011914
111	0x3d6847ba	0.05670903
112	0x3d9f5836	0.07780497
113	0x3dcde65e	0.10053705
114	0x3df102c3	0.11768105
115	0x3de75db4	0.11297169
116	0x3dea2239	0.11432309
117	0x3dd486f0	0.103773
118	0x3da5ecba	0.08101793
119	0x3de6af02	0.11263849
120	0x3d94f7b8	0.07273811

running_var f4 [121]
0	0x3e0c1957	0.13681541
1	0x3dac1f17	0.084043674
2	0x3dff3c37	0.12462657
3	0x3df23afa	0.11827655
4	0x3de2686c	0.11055073
5	0x3e209f6b	0.15685813
6	0x3e20cdb1	0.15703465
7	0x3e02432e	0.1272094
8	0x3e3e5cae	0.18590042
9	0x3e29d17d	0.1658382
10	0x3e1b3b6e	0.1515939
11	0x3df4a5d8	0.11945695
12	0x3dd3f780	0.10349941
13	0x3e2ac599	0.1667694
14	0x3e013625	0.12618311
15	0x3df9322d	0.121677734
16	0x3e53f9a9	0.20700707
17	0x3de3d95e	0.11125444
18	0x3e16d991	0.14731432
19	0x3df1d288	0.11807734
20	0x3ddbe49d	0.10736964
21	0x3d90b3d6	0.07065551
22	0x3df4cc2d	0.11953006
23	0x3dfd8acd	0.1237999
24	0x3e418c80	0.18901253
25	0x3e8a9e5d	0.27073947
26	0x3e16ce83	0.14727215
27	0x3dbb0a6e	0.09132849
28	0x3e34327d	0.17597385
29	0x3e331483	0.17488293
30	0x3e4679bf	0.1938238
31	0x3df8e583	0.12153151
32	0x3e1d6b86	0.15373048
33	0x3e3acff4	0.1824339
34	0x3e19b002	0.15008548
35	0x3e163593	0.14668874
36	0x3db9d439	0.090736814
37	0x3e1575f4	0.14595777
38	0x3e3ed499	0.18635787
39	0x3e588751	0.21145369
40	0x3df62345	0.12018446
41	0x3e753d46	0.23949155
42	0x3e081750	0.13290143
43	0x3e196c97	0.1498283
44	0x3debc264	0.115116864
45	0x3e03ed5e	0.12883517
46	0x3e126473	0.14296131
47	0x3df2bac0	0.11852026
48	0x3e096d18	0.13420522
49	0x3e3523a5	0.17689379
50	0x3e0c599d	0.1370606
51	0x3e585d9c	0.21129459
52	0x3e0b54dc	0.1360659
53	0x3e2eae0c	0.17058581
54	0x3e19b1ef	0.15009283
55	0x3e1c2172	0.15247133
56	0x3df9a22b	0.12189134
57	0x3e6a0eb7	0.22857176
58	0x3e2e4af1	0.17020775
59	0x3dc00e3d	0.09377716
60	0x3e23dd96	0.16002497
61	0x3e1fb889	0.15597738
62	0x3e33e654	0.17568332
63	0x3e11a74b	0.14223973
64	0x3e48c580	0.1960659
65	0x3e0ef314	0.13959914
66	0x3dec73aa	0.11545499
67	0x3e07cfa2	0.132628
68	0x3df71e5e	0.12066339
69	0x3ddf1479	0.10892577
70	0x3dc3b6fd	0.095563866
71	0x3e0532bd	0.13007636
72	0x3dcff34d	0.10153828
73	0x3e2ad48a	0.1668264
74	0x3e1b3476	0.15156731
75	0x3dfe1b2a	0.12407525
76	0x3e004531	0.12526394
77	0x3e45cf21	0.19317295
78	0x3e4f8ee4	0.20269352
79	0x3e37c508	0.17946255
80	0x3e139bc7	0.14414893
81	0x3e165bad	0.14683409
82	0x3e1b5a06	0.1517106
83	0x3dd6d798	0.1049034
84	0x3e09e432	0.13465956
85	0x3dd83261	0.10556484
86	0x3db268d0	0.08711398
87	0x3e036f8b	0.12835519
88	0x3de8b6b4	0.11362973
89	0x3dce2da1	0.10067297
90	0x3e23ea43	0.16007333
91	0x3e5c03f6	0.21485886
92	0x3e38c557	0.18044029
93	0x3dedb12e	0.1160606
94	0x3de7d723	0.11320331
95	0x3da5d2ee	0.08096872
96	0x3e13215e	0.14368197
97	0x3e50dd6b	0.20396964
98	0x3e190c80	0.14946175
99	0x3e0d7f4d	0.13818093
100	0x3e1d5911	0.15366007
101	0x3e8ac33f	0.27102086
102	0x3e01d030	0.12677073
103	0x3e3269b5	0.17423137
104	0x3ddd221f	0.10797524
105	0x3e076649	0.13222612
106	0x3e4ad5ef	0.19808172
107	0x3e47db9b	0.19517367
108	0x3e4f9022	0.20269826
109	0x3e103b04	0.14085013
110	0x3e02dbb0	0.12779117
111	0x3df0c894	0.11757007
112	0x3e26c081	0.16284372
113	0x3e17e9ca	0.14835277
114	0x3e604ab3	0.21903495
115	0x3e174a37	0.14774404
116	0x3e5f9b32	0.21836546
117	0x3e0634c5	0.13106067
118	0x3de562d7	0.11200493
119	0x3dfaffae	0.12255798
120	0x3dfed8d9	0.12443704

weight f4 [87, 121]
0	0x3d93ce81	0.07217122
1	0xbda0012a	-0.07812722
2	0xbc019fc0	-0.0079116225
3	0xbcf20013	-0.029541051
4	0xbc023a9b	-0.007948543
5	0xbd3a1fce	-0.045440488
6	0x3d366fcf	0.044540223
7	0x3dab49ba	0.083636716
8	0x3d193d4f	0.037411984
9	0x3bf8e573	0.007595712
10	0xbc4f3464	-0.012646768
11	0x3c7d35ad	0.015454692
12	0xbcb12f2e	-0.021628942
13	0x3d7f9e87	0.062407043
14	0x3d24abbe	0.04020285
15	0x3d1e9fca	0.038726605
16	0x3d1a48f9	0.03766725
17	0xbd0e0bf6	-0.034679376
18	0x3d6dce18	0.058057874
19	0xbd1e8734	-0.03870316
20	0x3d128afa	0.03577707
21	0xbc999c53	-0.018751299
22	0x3c38ca2c	0.01127867
23	0xbcd09f75	-0.02546666
24	0xbd8e53c4	-0.06949571
25	0x3cd1ab12	0.025594268
26	0x3b9e7f2d	0.004836938
27	0x3cf948f5	0.030430296
28	0xbd2830a7	-0.041062023
29	0xbda958f5	-0.0826892
30	0x3db19381	0.08670712
31	0x3cd73c09	0.026273744
32	0xbbae58b2	-0.005320632
33	0xbd78d1c6	-0.06074693
34	0x3d6a0634	0.057134822
35	0x3b47bfd3	0.0030479326
36	0x3c989c27	0.018629147
37	0x3c07d2bf	0.008289992
38	0xbd5e99a6	-0.05434575
39	0xbd3e8d0b	-0.046521228
40	0x3d7ee3e3	0.06222905
41	0xbda942aa	-0.08264668
42	0x3d5e9faa	0.054351486
43	0x3d150813	0.036384653
44	0xbd670b5d	-0.05640732
45	0xbd1a3272	-0.037645765
46	0xbd6e9121	-0.058243874
47	0xbc8b468a	-0.01700141
48	0x3d74656c	0.059667036
49	0xbd194ab9	-0.037424777
50	0xbd765f4a	-0.06014947
51	0x3c71cc7b	0.014758225
52	0x3c9a65c4	0.018847354
53	0x3daaf1d4	0.08346906
54	0xbc772fb6	-0.015087059
55	0x3b5eee60	0.0034016594
56	0xbc8ccdb6	-0.017187934
57	0xbd60c6a6	-0.054876946
58	0xbd5a45c4	-0.05328919
59	0xbd989d39	-0.07451863
60	0xbda23731	-0.07920683
61	0xbd860681	-0.06544209
62	0x3d07cb52	0.033152886
63	0xbd95b5d2	-0.0731007
64	0xbcc5c3dc	-0.024141245
65	0x3d22877d	0.039679993
66	0xbd68445b	-0.056705814
67	0x3d962887	0.07331949
68	0xbcf3b11c	-0.029747538
69	0x3d01e812	0.03171546
70	0x3c46bdd5	0.01213022
71	0xbd70b9a8	-0.058770806
72	0x39d491f4	0.00040544535
73	0xba9fdc66	-0.0012196421
74	0xbd8afe6f	-0.067868106
75	0x3a6895d6	0.0008872425
76	0xbd9defdd	-0.07711766
77	0xbbc573c7	-0.0060257646
78	0x3da3847f	0.07984256
79	0xbd05a366	-0.032626532
80	0x3d81aabd	0.06331394
81	0x3c274ce4	0.010211203
82	0x3da87876	0.08226101
83	0xbda95b4d	-0.08269367
84	0x3aa50a10	0.00125915
85	0x3c058bdb	0.00815102
86	0xbc42571d	-0.01186159
87	0x3b68cfc7	0.0035524236
88	0xbd9530c8	-0.07284695
89	0xbd274086	-0.04083302
90	0x3d1260e3	0.03573693
91	0x3c632328	0.013863362
92	0x3d514aea	0.051096834
93	0x3d1bc54a	0.038029946
94	0x3d478280	0.04870844
95	0x3d40f7cb	0.047111314
96	0xbd547e19	-0.05187807
97	0x3d9e5b58	0.07732266
98	0xbd777ff2	-0.060424753
99	0x3d7aa26f	0.061190065
100	0x3c1fd035	0.00975423
101	0x3d339f21	0.04385293
102	0xbd2e8b8d	-0.042613555
103	0x3d9dbf97	0.077025585
104	0x3b338f4b	0.0027398642
105	0xbd57928e	-0.05263
106	0x3db00051	0.0859381
107	0xbd814d44	-0.063135654
108	0x3c369cca	0.01114578
109	0xbd0c50ce	-0.03425675
110	0x3d0fb293	0.03508241
111	0xbbf484ff	-0.0074621434
112	0x3d9f2668	0.07770997
113	0x3d64b3f8	0.055835694
114	0x3c8d640a	0.017259616
115	0x3d4527c9	0.048133645
116	0x3d131d1c	0.035916433
117	0x3dafc1aa	0.0858186
118	0x3d3696bc	0.044577345
119	0x3d5f5723	0.05452646
120	0x3dab2ac4	0.08357766
121	0x3da6fb11	0.08153356
122	0xbd333607	-0.043752696
123	0x3da95100	0.08267403
124	0xbd512c3c	-0.051067576
125	0xbd0f2d60	-0.034955382
126	0xbd5a36a5	-0.05327477
127	0x3c0343c4	0.008011762
128	0xbd1dd53f	-0.038533445
129	0xbd85bb33	-0.06529846
130	0x3a8ea529	0.0010882962
131	0x3d828dda	0.06374712
132	0x3d1ea322	0.038729794
133	0x3dadc3c1	0.08484603
134	0xbd221572	-0.039571233
135	0xbd9e7421	-0.077369936
136	0x3c7ae93f	0.015314399
137	0x3da85700	0.08219719
138	0xbd1198ca	-0.0355461
139	0x3ae1036e	0.001716716
140	0x3ccefd06	0.025267135
141	0xbd8b08d9	-0.06788797
142	0xbd87dacd	-0.0663353
143	0xbc95c8e1	-0.018284263
144	0x3c93d99b	0.018048098
145	0x3c23ad36	0.009990027
146	0xbda79d66	-0.08184318
147	0xbd014953	-0.031564068
148	0x3d2333aa	0.039844193
149	0xbd9eb7a6	-0.07749872
150	0x3c806862	0.015674774
151	0x3d422ce0	0.047406077
152	0x3d0ff017	0.035141077
153	0x3c4f4f9e	0.01265326
154	0xbcd7b41e	-0.026331004
155	0x3d58d1c9	0.05293444
156	0xbd04cb54	-0.03242047
157	0x3d97dd36	0.074152395
158	0xbd78bd4c	-0.060727403
159	0x3c1014c4	0.008794013
160	0x3da1ef25	0.07906941
161	0xbcc8e533	-0.024523353
162	0xbd249751	-0.04018337
163	0x3d455aa1	0.048182134
164	0x3d2c6586	0.042089008
165	0xbd09b7ee	-0.033622675
166	0x3d236d17	0.039898958
167	0xbd3cfafc	-0.046137795
168	0x3c216cb2	0.009852575
169	0xbd23698e	-0.039895587
170	0xbd9bde56	-0.076107666
171	0x3d310f4d	0.043227483
172	0x3d6bd096	0.05757197
173	0x3d6b31f6	0.057420693
174	0xbd7fc162	-0.062440284
175	0x3d8c4d34	0.06850663
176	0x3cc07765	0.023494432
177	0x3d31cd76	0.043408833
178	0xbdaf7455	-0.085671104
179	0x3d01738a	0.031604327
180	0xbd33f890	-0.04393822
181	0xbd99c715	-0.07508675
182	0x3d35ea3e	0.044412844
183	0xbcc126b5	-0.023578027
184	0xbd6626cf	-0.056189355
185	0x3ce2d796	0.02769069
186	0xbd435922	-0.047692426
187	0x3d925786	0.071456
188	0xbcaa2b59	-0.020772623
189	0x3d0ff775	0.035148103
190	0xbd9689fa	-0.07350536
191	0xbc9bc457	-0.01901452
192	0xbd2acdef	-0.0417003
193	0xbd3fbfcc	-0.04681377
194	0x3d4500f1	0.0480966
195	0xbced7afa	-0.028989304
196	0x3ca110e2	0.01966137
197	0xbd2bab8f	-0.041911658
198	0xbd615503	-0.055012714
199	0x3ce2185a	0.027599502
200	0xbc8f43b3	-0.017488336
201	0xbcb86802	-0.022510532
202	0x3d81ba82	0.06334402
203	0xbd3d502a	-0.04621903
204	0xbd3d9df2	-0.046293207
205	0x3cca5259	0.02469747
206	0xbc681660	-0.014165491
207	0xbd3c7724	-0.04601206
208	0x3d5582ec	0.05212681
209	0x3c8fa34b	0.017533919
210	0x3cbcc600	0.023043633
211	0x3c9e74aa	0.01934274
212	0xbd9ebf36	-0.07751314
213	0x3c1960b8	0.009361438
214	0x3c082398	0.008309267
215	0xbdac7dbf	-0.08422422
216	0xbce7c076	-0.028290015
217	0xbd9b6f1d	-0.075895526
218	0xbcdf0fa9	-0.027229147
219	0xbd2b993b	-0.04189418
220	0x3d72b504	0.05925466
221	0x3c791d3c	0.015204724
222	0xbd107db6	-0.035276137
223	0x3d9647bc	0.07337901
224	0xbda2ce77	-0.07949536
225	0x3d67f03e	0.056625597
226	0xbd90d01b	-0.07070943
227	0xbd04c783	-0.03241683
228	0xbd02a280	-0.031893253
229	0x3d3a4a40	0.045480967
230	0x3c26b674	0.010175336
231	0xbd7a41ac	-0.061097786
232	0xbab1f42f	-0.0013576801
233	0x3db30f39	0.08743138
234	0x3dadd18f	0.08487236
235	0x3d90765d	0.07053826
236	0x3d72c513	0.059269976
237	0x3aa2eb07	0.0012429663
238	0x3c8fa1a1	0.017533125
239	0xbd5cc31f	-0.05389702
240	0x3d166bf7	0.036724057
241	0x3cd0c438	0.02548419
242	0xbd789fe8	-0.060699373
243	0xbc3d180b	-0.011541377
244	0x3d353943	0.044244062
245	0xbd9d0656	-0.07667224
246	0x3bd50563	0.0065008863
247	0xbd6c0165	-0.057618517
248	0xbd906d00	-0.0705204
249	0x3d8070f7	0.06271546
250	0x3b76e697	0.0037674063
251	0x3d7a6f8f	0.061141547
252	0xbd0f2c99	-0.03495464
253	0x3d9f5cc9	0.07781369
254	0xbd81c6e9	-0.06336767
255	0x3d915c55	0.07097689

bias f4 [87]
0	0x3d27ed38	0.040997714
1	0xbc6b6e4c	-0.014369559
2	0x3cf65976	0.030071955
3	0x3d135f55	0.035979588
4	0xbd264d1f	-0.040600892
5	0xbda44ca9	-0.08022434
6	0x3d43a295	0.047762472
7	0xbd4b2887	-0.049599197
8	0xbd9051a7	-0.07046824
9	0x3d6c2854	0.057655647
10	0xbd244905	-0.0401087
11	0x3d6b2d44	0.057416216
12	0xbda57c57	-0.080803566
13	0x3d446c59	0.04795489
14	0xbcb25bf2	-0.021772359
15	0xbcbfcebf	-0.023414014
16	0x3c5bfb29	0.0134265805
17	0xbc50b021	-0.012737305
18	0xbcf132a0	-0.029443085
19	0xbcd97942	-0.026547078
20	0xbd8c743a	-0.06858106
21	0x3d85c7a5	0.0653222
22	0xbd6ac9de	-0.05732142
23	0xbcd54ef0	-0.026038617
24	0x3da06fbe	0.07833813
25	0x3c5fd301	0.013661147
26	0x3d839dea	0.06426604
27	0x3d61a504	0.05508901
28	0x3d41b5b7	0.047292437
29	0x3dabc385	0.08386902
30	0x3c155286	0.009113913
31	0xbd14bafe	-0.036311142
32	0xbd65280a	-0.055946387
33	0x3c64710d	0.013942969
34	0x3d87c634	0.06629601
35	0x3d9da28e	0.076970205
36	0x3c84b75a	0.01620071
37	0xbc6e8e5e	-0.01456031
38	0xbd5f80ff	-0.05456638
39	0x3d45a0a4	0.048248902
40	0xbcfb2474	-0.03065703
41	0xbd978d95	-0.074000515
42	0x3d20f5d9	0.03929696
43	0xbd1b3c09	-0.03789905
44	0x3dab3673	0.08359995
45	0x3d890a48	0.06691414
46	0xbda1cdf4	-0.079006106
47	0x3d879d13	0.066217564
48	0x3ceb676c	0.028735839
49	0x3d91b10a	0.07113846
50	0x3d8a321b	0.06747838
51	0xbd54f665	-0.051992793
52	0xbda1288c	-0.07869062
53	0xbc46e593	-0.012139696
54	0x3d4742f9	0.048647854
55	0x3d51b29f	0.051195737
56	0x3d8ed3e4	0.06974009
57	0xbd6b4023	-0.057434212
58	0x3d67b6d6	0.05657085
59	0x3d1dc4c4	0.03851773
60	0xbdaad75f	-0.0834186
61	0x3d7435ea	0.05962173
62	0x3c2f318e	0.010692967
63	0xbd480096	-0.048828684
64	0xbbcaa529	-0.0061842394
65	0xbda8a97a	-0.0823545
66	0x3d905133	0.070467375
67	0xb891b5e1	-6.9480164e-05
68	0x3cd40c98	0.025884911
69	0x3c7da5cf	0.015481426
70	0xbd64e151	-0.05587894
71	0x3c275d8d	0.010215175
72	0x3d874134	0.066042334
73	0xbd2f54ae	-0.042805366
74	0x3cc71ef9	0.024306761
75	0x3d5fab07	0.054606464
76	0xbc15b230	-0.0091367215
77	0x3da33111	0.07968343
78	0xbcfd1994	-0.030895986
79	0xbc411e1a	-0.011786962
80	0xbd8e79d3	-0.0695683
81	0xbcf3f5ec	-0.02978035
82	0xb9d47f21	-0.0004053051
83	0x3c4e3220	0.012585193
84	0xbd80ca6e	-0.062886104
85	0xbd61983f	-0.055076834
86	0xbd876e3f	-0.06612825

weight f4 [87]
0	0x3f7de930	0.9918394
1	0x3f7de991	0.9918452
2	0x3f7debd2	0.9918796
3	0x3f7df235	0.99197704
4	0x3f7df30c	0.99198985
5	0x3f7df582	0.9920274
6	0x3f7defd2	0.9919406
7	0x3f7df70d	0.99205095
8	0x3f7deaff	0.991867
9	0x3f7e0a3c	0.99234366
10	0x3f7de87b	0.9918286
11	0x3f7de679	0.991798
12	0x3f7de5ad	0.9917858
13	0x3f7df616	0.9920362
14	0x3f7dea33	0.99185485
15	0x3f7ded58	0.9919028
16	0x3f7de6a7	0.9918007
17	0x3f7df0dd	0.99195653
18	0x3f7de7ff	0.9918212
19	0x3f7deec8	0.99192476
20	0x3f7de4d7	0.99177307
21	0x3f7dea5c	0.9918573
22	0x3f7deab0	0.9918623
23	0x3f7dec22	0.99188435
24	0x3f7dee78	0.99192
25	0x3f7df9c0	0.99209213
26	0x3f7de932	0.9918395
27	0x3f7de725	0.99180824
28	0x3f7ded50	0.99190235
29	0x3f7deda8	0.9919076
30	0x3f7de90b	0.9918372
31	0x3f7de2ef	0.991744
32	0x3f7df97c	0.9920881
33	0x3f7df3bb	0.9920003
34	0x3f7df66a	0.99204123
35	0x3f7df404	0.99200463
36	0x3f7df4a3	0.9920141
37	0x3f7de76a	0.99181235
38	0x3f7dfc0d	0.99212724
39	0x3f7df581	0.99202734
40	0x3f7dee5e	0.99191844
41	0x3f7de909	0.9918371
42	0x3f7df2b1	0.9919844
43	0x3f7e0614	0.99228024
44	0x3f7df0bb	0.9919545
45	0x3f7ded79	0.9919048
46	0x3f7def5f	0.99193376
47	0x3f7df756	0.9920553
48	0x3f7df811	0.99206644
49	0x3f7df9f3	0.9920952
50	0x3f7df40f	0.9920053
51	0x3f7df323	0.9919912
52	0x3f7de259	0.99173504
53	0x3f7df3ca	0.9920012
54	0x3f7ded61	0.99190336
55	0x3f7de95d	0.9918421
56	0x3f7df68a	0.99204314
57	0x3f7de81f	0.99182314
58	0x3f7de977	0.99184364
59	0x3f7debda	0.99188006
60	0x3f7df092	0.99195206
61	0x3f7dfa5f	0.9921016
62	0x3f7dea63	0.9918577
63	0x3f7debcc	0.9918792
64	0x3f7df7c2	0.99206173
65	0x3f7deae2	0.9918653
66	0x3f7df361	0.9919949
67	0x3f7df092	0.99195206
68	0x3f7df905	0.992081
69	0x3f7dee63	0.99191874
70	0x3f7df782	0.9920579
71	0x3f7de93f	0.9918403
72	0x3f7df37f	0.9919967
73	0x3f7df7f7	0.9920649
74	0x3f7df4c0	0.99201584
75	0x3f7def0c	0.9919288
76	0x3f7deede	0.9919261
77	0x3f7dec8f	0.99189085
78	0x3f7df166	0.9919647
79	0x3f7df59b	0.9920289
80	0x3f7df1c0	0.99197006
81	0x3f7df09c	0.99195266
82	0x3f7dfa9c	0.99210525
83	0x3f7df09c	0.99195266
84	0x3f7df0fc	0.9919584
85	0x3f7ded0f	0.9918985
86	0x3f7def08	0.9919286

bias f4 [87]
0	0xbb0a76c9	-0.002112793
1	0xba309233	-0.00067356526
2	0xba214c3d	-0.0006153023
3	0xbacf290d	-0.0015805081
4	0x3a0cdbef	0.0005373349
5	0xbae5edc5	-0.0017542174
6	0x3a0758d2	0.00051630766
7	0x3b00e63b	0.0019668478
8	0xba68306c	-0.0008857313
9	0x3b10824f	0.0022050326
10	0xb9c23690	-0.00037043216
11	0xbb477edb	-0.0030440602
12	0x3a808a31	0.0009806809
13	0x3a264078	0.0006342004
14	0xba7b1c82	-0.0009579138
15	0x3a5fbe81	0.0008535162
16	0x3aa15553	0.0012308754
17	0xbaf29e7f	-0.001851037
18	0x3b08e39a	0.0020887614
19	0xba658b73	-0.00087564363
20	0xbb109684	-0.002206237
21	0x3a205efd	0.000611767
22	0xbaa925c5	-0.0012904933
23	0x3a791cd4	0.0009502892
24	0x3a779209	0.0009444063
25	0x3880817d	6.127635e-05
26	0xba9e930e	-0.0012098269
27	0xb9b76d19	-0.00034985764
28	0xbaa27895	-0.0012395555
29	0xba365767	-0.0006955773
30	0xba3f6ac7	-0.0007301983
31	0xbb31982c	-0.0027098758
32	0x39486b29	0.00019113407
33	0xb9997c34	-0.00029274973
34	0xb88c7ffc	-6.699559e-05
35	0xb6df152b	-6.648382e-06
36	0xbae6ac9d	-0.001759905
37	0x3a45316a	0.0007522317
38	0x3b049c63	0.0020234815
39	0xb9c5fc43	-0.00037762718
40	0xba5e752d	-0.00084860885
41	0x3a23d596	0.00062497833
42	0xba2d357f	-0.0006607398
43	0x3b05e522	0.0020430763
44	0xb904d886	-0.00012669162
45	0x3a13b75f	0.00056349294
46	0xbaafbf59	-0.0013408466
47	0xbabe6534	-0.001452601
48	0x3abcebbd	0.0014413517
49	0x3aadaee9	0.001325098
50	0xba530dbe	-0.0008051059
51	0xbb14c9a3	-0.0022703193
52	0xba5657aa	-0.0008176515
53	0x3ae2585a	0.0017268762
54	0xba8ae2c1	-0.0010596142
55	0xb9560a40	-0.00020412449
56	0x3a22c41c	0.0006209032
57	0xba9f7149	-0.0012164499
58	0x3b1dbb41	0.002406791
59	0x3af18366	0.0018426001
60	0xb9f8746e	-0.00047388993
61	0x3ab262d3	0.0013609774
62	0xba5c8603	-0.0008412303
63	0xbae95b1a	-0.001780364
64	0x39cb9a6e	0.00038834236
65	0xba7b23cb	-0.00095802237
66	0xba4ddd04	-0.0007853063
67	0xbae8e404	-0.0017768149
68	0x37b07926	2.103725e-05
69	0x38ed8169	0.00011325145
70	0x3aa07652	0.0012242293
71	0xba3fdba2	-0.00073187996
72	0x3acc2801	0.0015575887
73	0xbb02b71d	-0.001994557
74	0x3aca97b8	0.0015456593
75	0x39905b01	0.00027533624
76	0x38dfbe9f	0.000106689746
77	0xb9b995bc	-0.0003539751
78	0x3afeded3	0.0019445069
79	0x3a83fbc9	0.0010069545
80	0x3b434bdb	0.0029799852
81	0xba8b1c8e	-0.0010613368
82	0x39288551	0.00016071393
83	0x3b05ccda	0.002041629
84	0xba8577a5	-0.0010182752
85	0xbad3b0e2	-0.0016150738
86	0x3a8c619d	0.0010710243
