mlruns/528961946943719398/models/m-996487f706d747f296da069d140aea79/artifacts/data/model.pth (torch, 91822 bytes, 17 tensors)

weight f4 [124]
0.29348823 0.5304033 0.34891102 0.37059444 0.1652849 0.21147794 0.22999948 0.2559958
0.239636 0.17947757 0.35611442 0.20655759 0.20263474 0.2089043 0.42118946 0.2748282
0.22013704 0.33457926 0.45528513 0.17416564 0.13716327 0.2370332 0.19056305 0.30952978
0.2881572 0.3322474 0.31547725 0.36755955 0.1974286 0.18448134 0.18106458 0.3325583
0.24113755 0.4963862 0.527043 0.471784 0.2018318 0.3055726 0.2984747 0.24788326
0.16966097 0.15224771 0.105731666 0.28933987 0.32532257 0.26922807 0.18103752 0.17410794
0.15529406 0.22397487 0.25769648 0.15591097 0.41062313 0.21598749 0.13944288 0.14029998
0.095663235 0.5922382 0.09648081 0.19283642 0.24726085 0.17853269 0.18832621 0.39907357
0.17614906 0.2568816 0.14334214 0.30562446 0.13140465 0.2000483 0.11940534 0.16801433
0.17767936 0.30304694 0.2305995 0.19772099 0.4882153 0.43853182 0.1721154 0.24667448
0.26498684 0.2534178 0.33190197 0.32754216 0.037287198 0.3795434 0.3323215 0.11616259
0.28031462 0.31047493 0.22941536 0.3072755 0.179083 0.10936044 0.21364442 0.37775248
0.07922846 0.3690021 0.0643768 0.06963357 0.13098736 0.16087927 0.1911203 0.28309447
0.12272452 0.19781336 0.11321351 0.28547463 0.19448015 0.48432553 0.2824798 0.34776524
0.34378585 0.20809704 0.3255678 0.23987646 0.2640943 0.23166248 0.21079963 0.2087049
0.07937673 0.28540042 0.24518949 0.23050497
00000000: 1744 963e 83c8 073f 77a4 b23e 8ebe bd3e
00000010: 7240 293e ac8d 583e fc84 6b3e e211 833e
00000020: 2463 753e f8c8 373e a154 b63e d583 533e
00000030: 7b7f 4f3e 02eb 553e 25a6 d73e 48b6 8c3e
00000040: 9b6b 613e f94d ab3e 221b e93e 7a58 323e
00000050: 8774 0c3e d5b8 723e f622 433e b07a 9e3e
00000060: 5789 933e 551c aa3e 3c86 a13e c430 bc3e
00000070: b92a 4a3e ade8 3c3e fe68 393e 1545 aa3e
00000080: c3ec 763e 5526 fe3e 4aec 063f ac8d f13e
00000090: ffac 4e3e 0374 9c3e add1 983e 1cd5 7d3e
000000a0: 9bbb 2d3e d3e6 1b3e d889 d83d 5b24 943e
000000b0: ae90 a63e 43d8 893e e661 393e 5a49 323e
000000c0: 6805 1f3e ab59 653e cbf0 833e 20a7 1f3e
000000d0: 323d d23e d32b 5d3e 1dca 0e3e ccaa 0f3e
000000e0: 16eb c33d ec9c 173f bb97 c53d e976 453e
000000f0: f331 7d3e 46d1 363e 96d8 403e 5f53 cc3e
00000100: 6b60 343e fc85 833e 48c8 123e cf7a 9c3e
00000110: f18e 063e 76d9 4c3e c98a f43d f30b 2c3e
00000120: 94f1 353e f828 9b3e 4622 6c3e 5f77 4a3e
00000130: 5bf7 f93e 3e87 e03e 053f 303e 3c98 7c3e
00000140: 5bac 873e fabf 813e 0eef a93e 9bb3 a73e
00000150: 76ba 183d 8353 c23e 0b26 aa3e a7e6 ed3d
00000160: 6685 8f3e 92f6 9e3e dceb 6a3e 3753 9d3e
00000170: 8961 373e 5ef8 df3d 9ac5 5a3e c668 c13e
00000180: 8842 a23d d8ed bc3e fcd7 833d 0c9c 8e3d
00000190: 8d21 063e 89bd 243e 0ab5 433e c2f1 903e
000001a0: fe56 fb3d 968f 4a3e 7cdc e73d bb29 923e
000001b0: ce25 473e 84f9 f73e 31a1 903e 490e b23e
000001c0: b304 b03e 6417 553e d3b0 a63e 2da2 753e
000001d0: 5e37 873e ee38 6d3e dcdb 573e bdb6 553e
000001e0: 4490 a23d 0120 923e f412 7b3e 7f09 6c3e

bias f4 [124]
0.011957048 -0.0009097311 -0.0007987977 0.013784365 0.004550553 -0.004791209 -0.0025347508 -0.0048075016
0.00024218002 -0.0031324532 0.018147215 -0.00033603344 -0.0050501903 0.000612953 -0.008369566 0.0029903944
0.0023784144 -0.0026930743 0.010835645 0.0058165854 -0.0032134552 0.0028241023 0.0042233546 0.0060781916
-0.0061151986 -0.0011057312 0.012826339 -0.0003202186 -0.001172563 0.0034617053 0.005466038 -0.00078141654
-0.0059505976 0.0076072835 0.008090154 -0.0103568155 0.0036040675 0.008078247 -0.0048825573 -0.0011696112
-0.0023720888 0.003866766 0.0028286127 -0.0047099045 -0.0061965315 -0.0007752107 -0.004755713 0.0012509535
0.00010332825 -0.00475214 0.0042888983 0.0036831163 -0.0004296943 0.0004644114 0.0028807777 -0.0066819633
-0.0018883807 -0.017137794 0.0047740554 0.011870698 0.00078461476 0.0023854643 -0.0019136779 0.005232084
-0.004806318 -0.004044951 -0.005213343 -0.0012316686 -0.0048841913 0.004494322 -0.0020245565 0.0003809019
0.0018977141 0.0006444843 -0.00042110734 0.0026292533 -0.0022222088 -0.0031341861 -0.011781289 -0.0053780666
0.012115424 -0.006869552 -0.0028140666 -0.0044342675 -0.0010696811 -0.00556024 0.0068372115 -0.0018868019
-0.0062836204 -0.006227246 -0.0029707453 0.010265957 0.0019302276 -0.007938863 -0.011166879 -0.010631766
-0.0024621799 -0.0013494084 0.0065544476 -0.0044066804 0.0009381739 -0.01121461 -0.0064669386 0.0143185025
-0.0042663123 -0.00090688904 0.0035310115 -0.011485198 -0.00091601105 -0.0017896603 -0.0035043121 0.00540122
-0.001967236 0.0012188695 -0.0018721091 -0.0061890604 0.0008111722 -0.0006745499 -0.007453959 -0.0034539197
-0.003250115 0.0053589433 -0.00825571 -0.0032316002
00000000: 7fe7 433c 057b 6eba 6866 51ba d1d7 613c
00000010: ce1c 953b 93ff 9cbb 101e 26bb 3f88 9dbb
00000020: b4f1 7d39 d849 4dbb 78a9 943c a52d b0b9
00000030: 117c a5bb 94ae 203a 8120 09bc 7efa 433b
00000040: 2cdf 1b3b 4a7e 30bb fd87 313c 0e99 be3b
00000050: d598 52bb 9314 393b 1164 8a3b 912b c73b
00000060: 0162 c8bb 2fee 90ba 9125 523c 03e3 a7b9
00000070: afb0 99ba c7dd 623b 731c b33b fad7 4cba
00000080: 3bfd c2bb 8546 f93b 918c 043c a2af 29bc
00000090: 3832 6c3b a05a 043c dcfd 9fbb a44d 99ba
000000a0: 0c75 1bbb 9269 7d3b 3f60 393b 8b55 9abb
000000b0: 460c cbbb 8237 4bba d0d5 9bbb 09f7 a33a
000000c0: efb1 d838 d7b7 9bbb e389 8c3b 7060 713b
000000d0: 9848 e1b9 3e7c f339 6ecb 3c3b 5ff4 dabb
000000e0: 8b83 f7ba 8f64 8cbc ae6f 9c3b 517d 423c
000000f0: 9bae 4d3a 7355 1c3b 60d4 faba e771 ab3b
00000100: 517e 9dbb 828b 84bb b1d4 aabb f16f a1ba
00000110: 910b a0bb 1b45 933b 6cae 04bb cab3 c739
00000120: b8bc f83a 9cf2 283a 12c8 dcb9 8d4f 2c3b
00000130: 7aa2 11bb eb66 4dbb 4f06 41bc 7e3a b0bb
00000140: c57f 463c fb19 e1bb 346c 38bb 554d 91bb
00000150: 8b34 8cba ac32 b6bb b00a e03b 914e f7ba
00000160: d4e6 cdbb ed0d ccbb d6b0 42bb 8b32 283c
00000170: b1ff fc3a 0112 02bc 49f5 36bc dc30 2ebc
00000180: 865c 21bb a2de b0ba b1c6 d63b ea65 90bb
00000190: c9ef 753a 7cbd 37bc 9de8 d3bb 2798 6a3c
000001a0: 6ccc 8bbb 4bbc 6dba 8b68 673b 692c 3cbc
000001b0: 7620 70ba 0993 eaba 9aa8 65bb b8fc b03b
000001c0: beec 00bb 79c2 9f3a 8f61 f5ba 9acd cabb
000001d0: d8a4 543a 47d4 30ba 5740 f4bb 285b 62bb
000001e0: e2ff 54bb 139a af3b f542 07bc 41c9 53bb

running_mean f4 [124]
69.53364 10344.418 6.0582223 5.5840755 102.46545 3.3830729 3.086042 3.4680371
2.941725 1.5928595 449.44354 46.71202 560.06915 4.1050777 0.10867778 1164.783
352.1994 4.816616 1521.7988 0.4419026 0.05636106 1.5595561 0.38407686 2.9070976
1.0556589 3.506257 6.578744 0.17924847 0.619993 1.8898162 1.7137493 1.7685775
473.55865 2.8294847 2.8238814 0.15245233 96.28444 49.95292 21.466627 3.1250541
16.473562 2.5606518 0.016886756 39.60083 40.00947 25.42487 32.30517 32.275772
3.039226 1.2318801 0.082760245 0.42019358 0.14276461 0.6633308 0.23009154 0.0733978
0.035218205 0.049804024 0.02890176 0.020300101 0.09102276 0.016680723 0.12445004 0.95601636
0.27417666 0.089634225 0.094921485 0.033186205 0.34817356 0.14382443 0.1594627 0.16331922
0.11976246 0.04557964 0.032951813 0.029212585 0.017044952 0.020904109 0.01588926 0.01387208
0.7957308 0.15096945 0.033734005 0.020314038 0.08891315 0.040345035 0.0693633 0.056574915
0.021712175 0.012993308 0.03988014 0.16909745 0.05625696 0.024636285 0.047872722 0.0883649
0.03469922 0.015073738 0.049874023 0.03345692 0.05108033 0.015700284 0.020106435 0.015151837
0.6055859 0.077005096 0.45445487 0.0061082602 0.4206877 0.015314647 0.022278883 0.9170893
0.064248025 0.2609607 0.04974586 0.027698021 0.033276517 0.0805126 0.023944857 0.86815757
0.013331055 0.8364904 0.008256956 0.081381194
00000000: 3911 8b42 aca1 2146 f5dc c140 bfb0 b240
00000010: 4fee cc42 4484 5840 b681 4540 52f4 5d40
00000020: 3945 3c40 d2e2 cb3f c6b8 e043 1cd9 3a42
00000030: 6d04 0c44 cc5c 8340 7592 de3d 0e99 9144
00000040: 8619 b043 b821 9a40 9039 be44 0f41 e23e
00000050: dbda 663d 899f c73f b9a5 c43e e30d 3a40
00000060: d51f 873f 8466 6040 1285 d240 e98c 373e
00000070: dcb7 1e3f 7fe5 f13f 235c db3f bf60 e23f
00000080: 82c7 ec43 4716 3540 79ba 3440 771c 1c3e
00000090: a291 c042 cacf 4742 a7bb ab41 e300 4840
000000a0: dbc9 8341 b8e1 2340 1856 8a3c 4067 1e42
000000b0: b309 2042 2266 cb41 7e38 0142 641a 0142
000000c0: ae82 4240 3fae 9d3f 347e a93d 9d23 d73e
000000d0: e330 123e 0cd0 293f 1e9d 6b3e 9651 963d
000000e0: f740 103d 4eff 4b3d 62c3 ec3c 664c a63c
000000f0: 246a ba3d 03a6 883c aadf fe3d 7dbd 743f
00000100: e260 8c3e 2692 b73d 3266 c23d 42ee 073d
00000110: ce43 b23e b646 133e 314a 233e 273d 273e
00000120: 0546 f53d b7b1 3a3d 7bf8 063d 3b4f ef3c
00000130: dba1 8b3c 183f ab3c 322a 823c b847 633c
00000140: 04b5 4b3f bc97 1a3e ab2c 0a3d a069 a63c
00000150: 1918 b63d d640 253d 590e 8e3d 19bb 673d
00000160: bbdd b13c e2e1 543c 5c59 233d e227 2d3e
00000170: b36d 663d 09d2 c93c 3016 443d a8f8 b43d
00000180: c520 0e3d d7f7 763c b448 4c3d 200a 093d
00000190: 9c39 513d e29d 803c 40b6 a43c 693f 783c
000001a0: ad07 1b3f d9b4 9d3d 4fae e83e cd27 c83b
000001b0: 6164 d73e 49ea 7a3c 3482 b63c 5dc6 6a3f
000001c0: 7894 833d a49c 853e 51c2 4b3d f6e6 e23c
000001d0: f54c 083d cae3 a43d 0128 c43c 933f 5e3f
000001e0: 7f6a 5a3c 3c24 563f 2f48 073c 2fab a63d

running_var f4 [124]
498.69437 8.885225e+07 1.799579 1.258546 33048.766 0.3176641 0.13379084 0.7125481
0.2665984 1.059382 200562.42 25231.201 188959.6 0.92311025 0.15912329 140944.61
195520.25 1872.1265 269884.47 0.27294338 0.055105377 0.29295328 0.24920669 0.63962203
0.058259774 0.43250588 2.637772 0.51080495 0.3954154 3.2836719 0.7961886 0.52369386
41699.434 0.47299773 0.47346714 0.26424566 19477.797 5106.046 3806.9246 827.129
3295.6006 1513.1344 0.07081972 212597.25 959.3635 431.75552 588.66113 249.83485
2.6726408 0.59861296 0.119628936 0.344107 0.24576037 0.21469998 0.16622847 0.06862463
0.038100317 0.05872349 0.02800832 0.019949505 0.08329284 0.016427394 0.21318091 0.053172912
0.30488855 0.16521077 0.086658575 0.03183902 0.22811425 0.12453932 0.13479015 0.13790302
0.10489802 0.043459557 0.031861693 0.028280035 0.016819317 0.020455776 0.015640076 0.013699926
0.16310962 0.12892735 0.032394186 0.020092832 0.08075195 0.039042927 0.06487043 0.05406015
0.021300115 0.012922792 0.038614623 0.14113 0.05351465 0.024048816 0.045406234 0.08109444
0.03375058 0.014843185 0.047831114 0.032121036 0.048207693 0.015492207 0.0196445 0.014898291
0.24009405 0.07008157 0.244219 0.006075011 0.24255098 0.015058043 0.021746216 0.0765461
0.060658883 0.19425595 0.046853263 0.02718123 0.03203628 0.07473259 0.023619428 0.11568907
0.013169767 0.13636555 0.0081977965 0.07547361
00000000: e158 f943 e378 a94c 9b58 e63f 0918 a13f
00000010: c418 0147 dea4 a23e 7700 093e 8d69 363f
00000020: 967f 883e d499 873f 9bdc 4348 671e c546
00000030: e687 3848 f450 6c3f 37f1 223e 27a4 0948
00000040: 10f0 3e48 0c04 ea44 8fc7 8348 3cbf 8b3e
00000050: 2db6 613d f9fd 953e 0a30 7f3e 45be 233f
00000060: cda1 6e3d 6971 dd3e 42d1 2840 1dc4 023f
00000070: e373 ca3e ae27 5240 04d3 4b3f cd10 063f
00000080: 6fe3 2247 c22c f23e 496a f23e 354b 873e
00000090: 982b 9846 5e90 9f45 cbee 6d45 42c8 4e44
000000a0: 9cf9 4d45 4d24 bd44 ee09 913d 509d 4f48
000000b0: 44d7 6f44 b5e0 d743 502a 1344 b9d5 7943
000000c0: 8c0c 2b40 b33e 193f 0400 f53d cb2e b03e
000000d0: 9ba8 7b3e 50da 5b3e cc37 2a3e 128b 8c3d
000000e0: 140f 1c3d 0b88 703d b471 e53c 256d a33c
000000f0: 7095 aa3d be92 863c 194c 5a3e d7cb 593d
00000100: 5a1a 9c3e 032d 293e 0d7a b13d a269 023d
00000110: c896 693e 790e ff3d 6e06 0a3e 7336 0d3e
00000120: c6d4 d63d a602 323d 6881 023d 88ab e73c
00000130: aac8 893c df92 a73c 9e1f 803c a875 603c
00000140: 3506 273e 8805 043e c4af 043d b999 a43c
00000150: 4761 a53d 7aeb 1f3d cada 843d 2d6e 5d3d
00000160: 947d ae3c 1eba 533c 5e2a 1e3d 6284 103e
00000170: 2d32 5b3d 0602 c53c e3fb 393d d714 a63d
00000180: 0c3e 0a3d d530 733c 8fea 433d 5991 033d
00000190: 6e75 453d 07d3 7d3c 81ed a03c f617 743c
000001a0: 37db 753e ed86 8f3d 8c14 7a3e e310 c73b
000001b0: 495f 783e 03b6 763c 1f25 b23c 34c4 9c3d
000001c0: 7375 783d 08eb 463e 35e9 3f3d 2cab de3c
000001d0: 7938 033d 660d 993d 887d c13c 64ee ec3d
000001e0: 02c6 573c 69a3 0b3e 0d50 063c e891 9a3d

weight f4 [113, 124]
-0.049848318 -0.04081369 -0.0153587805 -0.0045961803 0.005620154 -0.017622486 0.020341925 -0.0054027825
-0.0059944117 -0.009353813 -0.022307625 -0.025676299 -0.021217579 -0.020640748 0.0064816126 -0.07015239
-0.0040739323 -0.0062855445 -0.07012674 0.017632721 0.0037651854 -0.013559367 -0.011093491 -0.015302268
0.0016105165 0.012720397 -0.026977174 0.008785123 -0.016900979 -0.016613489 -0.016769957 -0.043604225
0.009504984 0.015127882 0.030805 -0.007595008 -0.037897453 -0.03121248 -0.033346314 0.01640281
-0.0109244585 -0.009665013 -0.007619754 0.01954224 0.03129575 0.018328754 0.032009996 0.012569233
0.0123210065 -0.012715791 0.025392646 -0.027930493 -0.005823642 -0.017810235 -0.009666431 0.021501377
0.044296708 -0.022921419 0.0014337165 -0.0030359696 -0.004496039 0.00030157538 0.040899195 -0.03551555
-0.0014739074 0.012312595 -0.013824704 -0.0035493204 -0.008031366 0.00035687847 0.017584348 0.008137534
0.013958001 0.0047824066 0.0034776435 -0.006807382 -0.008677948 0.01571486 0.03079432 -0.0036196436
-0.010628145 0.02074838 -0.018071854 0.024785256 0.0042182454 -0.0016419374 -0.0013296652 0.0045916727
0.019536315 -0.022984348 -0.011786623 -0.019873515 0.015442653 0.012438965 0.0020968392 0.041448474
-0.0046573076 0.0009707791 -0.01088439 0.0041672424 -0.015835518 -0.017340032 0.001906528 0.020599274
-0.009282205 0.011501628 0.013649734 0.0032525004 0.014033289 -0.023355227 -0.011613752 -0.037237905
-0.0012117926 -0.0031548087 0.012406071 -0.0067964005 0.008182986 -0.014908999 -0.0080680065 0.00019004733
0.0022976082 0.017161438 0.0062403423 -0.013044832 -0.018887239 -0.032051433 0.07190372 0.0025720608
0.01277283 0.045793615 -0.008489757 0.023193993 -0.00087832264 0.0017856702 -0.028391713 0.007909202
0.007396133 -0.006190757 0.015741246 0.051878236 0.02872272 0.029114777 0.09004745 -0.0041230805
-0.015193059 0.027123636 0.007624645 0.025608594 0.009894868 0.0129178725 -0.026574636 -0.03857817
0.031959523 -0.026236262 0.014886857 0.015104671 0.026217435 0.02058683 -0.006330659 0.022735406
-0.018938508 -0.03165391 0.047098204 0.023477605 0.03764218 -0.024845485 -0.00090525526 0.059776478
-0.032085717 -0.0010880177 -0.0072066234 -0.032681745 0.02018864 0.0018169149 -0.021507815 0.0104835825
-0.07828614 0.026863351 -0.009217654 0.035229497 -0.02209445 0.04029822 -0.0183836 -0.030166041
0.020081189 -0.019638961 0.0065586134 -0.017027535 0.030129153 -0.009422848 -0.023222065 -0.0088118585
0.008198172 -0.012815147 -0.02014073 0.01823711 -0.002126651 -0.025910314 0.050006017 -0.04601101
0.0004928881 -0.024786111 0.014338922 0.024096446 -0.034899652 -0.022886625 0.014616182 0.026470823
0.005050109 0.030183023 -0.06588704 -0.013511392 0.028081425 -0.015128652 0.011914714 -0.01436686
-0.018016845 0.019439917 0.020791331 0.036704123 -0.0031930075 -0.024850357 -0.014749977 0.003910787
0.020198068 0.03919367 0.007708271 -0.026479768 0.03101139 0.030569103 0.014415787 0.015446883
0.018706143 -0.0112472465 0.012063121 0.034820348 -0.017198002 -0.0023019959 0.04137473 -0.02436035
-0.013158613 0.001658295 0.007845468 0.010610762 0.0089941425 0.0014706439 0.03788794 0.027551565
-0.012718884 0.0011033034 0.06880137 0.015158054 -0.0034862403 0.017401569 -0.009470994 -0.01501746
00000000: c02d 4cbd 412c 27bd 65a3 7bbc 8e9b 96bb
00000010: 4529 b83b 085d 90bc 1ca4 a63c d309 b1bb
00000020: c56c c4bb bc40 19bc 7bbe b6bc 1a57 d2bc
00000030: 7dd0 adbc c916 a9bc b563 d43b 0eac 8fbd
00000040: 9f7e 85bb f8f6 cdbb 9c9e 8fbd 7f72 903c
00000050: 54c1 763b 1b28 5ebc 79c1 35bc 5db6 7abc
00000060: f717 d33a 3669 503c 3cff dcbc 7aef 0f3c
00000070: ec73 8abc 0319 88bc 2661 89bc 589a 32bd
00000080: cbba 1b3c f0da 773c c45a fc3c 8bdf f8bb
00000090: 5c3a 1bbd 51b1 ffbc 2596 08bd 305f 863c
000000a0: 80fc 32bc 015a 1ebc 21af f9bb 0c17 a03c
000000b0: f92f 003d 2f26 963c ea1c 033d 2fef 4d3c
000000c0: 0cde 493c e555 50bc 3d04 d03c 7dce e4bc
000000d0: 40d4 bebb c5e6 91bc f35f 1ebc a823 b03c
000000e0: 7770 353d b3c5 bbbc 8beb bb3a 1ef7 46bb
000000f0: 8253 93bb c31c 9e39 ea85 273d c178 11bd
00000100: 2030 c1ba c4ba 493c 0381 62bc b79b 68bb
00000110: fe95 03bc 6b1b bb39 0d0d 903c 4b53 053c
00000120: 19b0 643c bcb5 9c3b 2de9 633b 7610 dfbb
00000130: f42d 0ebc 73bc 803c 5f44 fc3c 8b37 6dbb
00000140: ac21 2ebc 82f8 a93c 6d0b 94bc 730a cb3c
00000150: 3539 8a3b 4736 d7ba 2948 aeba be75 963b
00000160: 9f0a a03c ac49 bcbc ae1c 41bc c8cd a2bc
00000170: 2e03 7d3c cdcc 4b3c 206b 093b e0c5 293d
00000180: 549c 98bb e27b 7e3a 7154 32bc 5d8d 883b
00000190: 7db9 81bc af0c 8ebc 77e4 f93a cfbf a83c
000001a0: 6414 18bc 5371 3c3c 22a3 5f3c e727 553b
000001b0: e1eb 653c 7653 bfbc 9b47 3ebc c686 18bd
000001c0: 03d5 9eba e8c0 4ebb d542 4b3c 57b4 debb
000001d0: ee11 063c e044 74bc ac2f 04bc 7147 4739
000001e0: 7893 163b 2596 8c3c c97b cc3b feb9 55bc
000001f0: 69b9 9abc 5d48 03bd 4242 933d 0590 283b
00000200: 2245 513c 1692 3b3d 9f18 0bbc 5401 be3c
00000210: 3c3f 66ba 260d ea3a bd95 e8bc 9995 013c
00000220: 435b f23b d5db cabb c9f3 803c 467e 543d
00000230: e94b eb3c 1d82 ee3c cc6a b83d e81a 87bb
00000240: 4fec 78bc 6332 de3c 28d8 f93b 1dc9 d13c
00000250: 161e 223c 7ca5 533c 0db3 d9bc 2504 1ebd
00000260: fde7 023d 6eed d6bc 01e8 733c 9579 773c
00000270: f2c5 d63c b6a5 a83c 6b71 cfbb 9a3f ba3c
00000280: ee24 9bbc 88a7 01bd 0cea 403d 1b54 c03c
00000290: b02e 1a3d c288 cbbc a74e 6dba 2ed8 743d
000002a0: 506c 03bd d19b 8eba 8a25 ecbb 4bdd 05bd
000002b0: a662 a53c 8c25 ee3a 2831 b0bc 55c3 2b3c
000002c0: 7c54 a0bd 8810 dc3c a505 17bc ce4c 103d
000002d0: 6cff b4bc bf0f 253d 3499 96bc c61e f7bc
000002e0: 4e81 a43c e3e1 a0bc a3e9 d63b 547d 8bbc
000002f0: 6ad1 f63c 4a62 1abc 333c bebc 9d5f 10bc
00000300: a051 063c 9ff6 51bc 2cfe a4bc fe65 953c
00000310: 485f 0bbb de41 d4bc 1cd3 4c3d 0a76 3cbd
00000320: 2935 013a 3e0c cbbc cced 6a3c e965 c53c
00000330: f0f2 0ebd bb7c bbbc b678 6f3c 57d9 d83c
00000340: 627b a53b 6342 f73c c9ef 86bd e35e 5dbc
00000350: 040b e63c 2ade 77bc ef35 433c fa62 6bbc
00000360: 1098 93bc 7640 9f3c 9552 aa3c 1057 163d
00000370: c741 51bb fa92 cbbc e3a9 71bc 0f26 803b
00000380: 6b76 a53c 8b89 203d aa95 fc3b 19ec d8bc
00000390: 990b fe3c 0e6c fa3c 3130 6c3c ec14 7d3c
000003a0: a03d 993c 5f46 38bc 66a4 453c c89f 0e3d
000003b0: d3e2 8cbc 15dd 16bb 8d78 293d 5b8f c7bc
000003c0: 3997 57bc 265b d93a 478a 003c c3d8 2d3c
000003d0: 2b5c 133c 9fc2 c03a 6230 1b3d d2b3 e13c
000003e0: de62 50bc b89c 903a bce7 8c3d 7d59 783c
000003f0: 6879 64bb bc8d 8e3c 3a2c 1bbc cb0b 76bc

bias f4 [113]
-0.0051579913 -0.029863026 -0.0054656025 -0.0033413433 -0.004123715 -0.011258894 0.0059691183 -0.010241482
-0.002547217 -0.029719498 -0.011697005 -0.03363707 -0.006863133 -0.036437273 -0.008324778 0.0044785566
0.00019089686 -0.020357993 -0.04743046 -0.011797974 -0.00874485 -0.0035981245 -0.019033875 -0.004391931
0.012616142 0.0053504454 -0.010275329 0.0031910709 -0.00038806966 -0.0013005784 -0.031115973 -0.007223331
-0.00108493 -0.018499447 0.02073574 -0.004325038 -0.029199429 -0.005888203 -0.009769591 -0.0023014008
0.007981399 -0.0126137715 0.008667732 -0.0076490203 0.0015852343 0.0047540036 -0.023060312 0.0011019483
0.008248545 0.002486743 -0.015738687 -0.008205106 0.00016339915 -0.004913368 0.0034834929 0.0029418122
-0.0037779703 -0.0009726341 -0.029169532 -0.011003691 0.0014411686 0.004683151 -0.006519374 -0.007037343
-0.024035268 -0.0030781112 0.015694078 -0.023385776 0.002387614 0.008980417 0.0065725413 -0.0023275276
-0.00708559 -0.03299442 -0.010910329 -0.006404981 -0.0072409296 -0.022755304 -0.011399751 0.006164521
-0.011463789 -0.008171903 -0.0018213505 -0.009371245 -0.007375521 0.0022309846 0.0048587495 -0.007994188
-0.0073169186 -0.008394577 -0.0024119671 -0.0081990585 -0.0016836255 -0.0038637938 -0.010276671 -0.025658088
-0.036833532 0.0049820803 -0.012816959 -0.004950933 0.0015365343 -0.02698738 -0.00051746925 -0.004339156
0.0053528063 -0.021433815 -0.0023046993 0.009289478 -0.006496171 -0.0077515915 0.008524003 0.0031072397
-0.0018971214
00000000: 5e04 a9bb 4ea3 f4bc cc18 b3bb 70fa 5abb
00000010: 3b20 87bb 3977 38bc 9898 c33b e4cb 27bc
00000020: 36ef 26bb 4e76 f3bc cba4 3fbc 06c7 09bd
00000030: 22e4 e0bb 403f 15bd a664 08bc dbc0 923b
00000040: 7c2b 4839 cec5 a6bc 7146 42bd 4a4c 41bc
00000050: 8f46 0fbc 83ce 6bbb eeec 9bbc 30ea 8fbb
00000060: efb3 4e3c ca52 af3b db59 28bc 4921 513b
00000070: d475 cbb9 2b78 aaba ede6 febc b1b1 ecbb
00000080: 3634 8eba 278c 97bc 00de a93c 0cb9 8dbb
00000090: a433 efbc d4f1 c0bb a210 20bc 19d3 16bb
000000a0: 6ac4 023c fea9 4ebc 1a03 0e3c a2a4 fabb
000000b0: a3c7 cf3a 79c7 9b3b fbe8 bcbc 406f 903a
000000c0: e824 073c a0f8 223b 6bee 80bc b56e 06bc
000000d0: 2056 2b39 5100 a1bb 504b 643b 6bcb 403b
000000e0: d397 77bb 5ff8 7eba f1f4 eebc d348 34bc
000000f0: 98e5 bc3a 1e75 993b 79a0 d5bb 8399 e6bb
00000100: 9ce5 c4bc 23ba 49bb de90 803c 8793 bfbc
00000110: 8479 1c3b 9922 133c 795e d73b 6f89 18bb
00000120: 3d2e e8bb 2825 07bd 3dc1 32bc e0e0 d1bb
00000130: 5245 edbb 5569 babc 05c6 3abc c0ff c93b
00000140: 9ed2 3bbc 72e3 05bc 62ba eeba da89 19bc
00000150: 5bae f1bb b635 123b 2536 9f3b 0efa 02bc
00000160: c3c2 efbb 6889 09bc 1812 1ebb 5855 06bc
00000170: 19ad dcba b437 7dbb 7b5f 28bc e930 d2bc
00000180: c2de 16bd b840 a33b 39fe 51bc 703b a2bb
00000190: 8965 c93a a314 ddbc c6a6 07ba 7b2f 8ebb
000001a0: 9866 af3b f895 afbc 700a 17bb e532 183c
000001b0: d5dd d4bb 1001 febb 43a8 0b3c d5a2 4b3b
000001c0: d5a8 f8ba

weight f4 [113]
0.16592085 0.24139267 0.23106433 0.24389951 0.15038067 0.26695713 0.22897369 0.17917214
0.16348496 0.3011735 0.26055518 0.31938636 0.18011007 0.2719413 0.10857224 0.3202632
0.25854915 0.3102122 0.38299823 0.30620322 0.26353297 0.10623476 0.22707261 0.24415214
0.19617449 0.2081966 0.25343227 0.16412607 0.28784725 0.18174718 0.36204523 0.20704654
0.18482801 0.3235412 0.3627259 0.16768147 0.19516215 0.13909684 0.31835777 0.28405887
0.18896192 0.21263115 0.21083377 0.19802906 0.24794362 0.23061079 0.3558527 0.25636852
0.16995361 0.18485002 0.3551406 0.3223096 0.24870057 0.1643679 0.27997428 0.23718925
0.242632 0.26611933 0.19329841 0.22374105 0.23464443 0.3030488 0.13166253 0.16452901
0.2589692 0.3150788 0.3261225 0.29624015 0.16047029 0.2120464 0.2298304 0.278728
0.22368261 0.24191086 0.27839112 0.330296 0.36816886 0.34095028 0.29640198 0.16034134
0.17924845 0.2950985 0.19468369 0.14539747 0.33402345 0.24851575 0.15828376 0.334713
0.24200471 0.13944629 0.16786838 0.2346628 0.2027733 0.18347281 0.22105566 0.21744777
0.33367288 0.23194025 0.28895092 0.1811367 0.17815489 0.35076287 0.17310756 0.2640754
0.33250383 0.23728958 0.19937663 0.21230808 0.21446575 0.29563 0.16278449 0.2892526
0.21264954
00000000: 28e7 293e a42f 773e 219c 6c3e cbc0 793e
00000010: 64fd 193e 9bae 883e 1478 6a3e e778 373e
00000020: 9a68 273e 6a33 9a3e 7d67 853e 9c86 a33e
00000030: c66e 383e e43b 8b3e 1f5b de3d 8af9 a33e
00000040: 8e60 843e 22d4 9e3e 5818 c43e abc6 9c3e
00000050: cbed 863e 9c91 d93d b985 683e 0503 7a3e
00000060: f7e1 483e 7d31 553e e0c1 813e aa10 283e
00000070: b760 933e ef1b 3a3e fe5d b93e 0204 543e
00000080: 8e43 3d3e 31a7 a53e 36b7 b93e b1b4 2b3e
00000090: 96d8 473e 676f 0e3e caff a23e 2a70 913e
000000a0: 3c7f 413e fbbb 593e cfe4 573e 21c8 4a3e
000000b0: efe4 7d3e 3c25 6c3e 5332 b63e bc42 833e
000000c0: 5208 2e3e 5349 3d3e fdd4 b53e c405 a53e
000000d0: 5dab 7e3e 0f50 283e ca58 8f3e bde1 723e
000000e0: 8674 783e cb40 883e 05f0 453e 601c 653e
000000f0: a146 703e 3629 9b3e 8bd2 063e 4b7a 283e
00000100: 9c97 843e 0252 a13e 87f9 a63e caac 973e
00000110: 5352 243e b122 593e a958 6b3e 70b5 8e3e
00000120: 0e0d 653e 7bb7 773e 4889 8e3e 8f1c a93e
00000130: a180 bc3e 0991 ae3e 00c2 973e 8530 243e
00000140: e88c 373e 2717 973e 295b 473e 13e3 143e
00000150: 1f05 ab3e ea7a 7e3e 2315 223e 815f ab3e
00000160: 15d0 773e 02cb 0e3e b0e5 2b3e 724b 703e
00000170: cea3 4f3e 4ce0 3b3e 6a5c 623e a1aa 5e3e
00000180: 2cd7 aa3e bf81 6d3e 60f1 933e e67b 393e
00000190: 3c6e 363e 3197 b33e 1c43 313e e434 873e
000001a0: f13d aa3e 0afc 723e 6329 4c3e 4a67 593e
000001b0: e99c 5b3e d15c 973e fab0 263e eb18 943e
000001c0: cdc0 593e

bias f4 [113]
-0.0001312507 -0.007738969 -0.0030430255 0.0014459825 0.01486968 0.00805036 0.013647677 -0.011705752
-0.009426219 -0.019592792 0.011236267 0.00677759 0.016575165 -6.314635e-05 0.009313551 0.010917506
-0.0015516449 0.016910385 -0.011203018 0.008490815 -0.020741321 -0.002101399 -0.001882612 -0.0022325127
0.009061134 -0.002083397 -0.0073615997 -0.0020879826 -0.00916043 -0.0005185332 -0.007865848 0.0070790052
0.0012433608 0.011332384 -0.011917835 -0.0020328881 -0.0018750207 0.0027284638 -0.002439978 -0.014112382
-0.0007742537 -0.00012951726 0.0016165557 -0.013451716 0.003930132 0.006525467 -0.0047807256 0.013685518
-0.0028324826 -0.003389258 0.00023345531 -0.025205784 -0.0024177693 -0.0015171735 0.01249037 0.0072553866
-0.0059412075 -0.0033246933 -0.004118039 0.008391017 0.004341631 -0.0033898547 -0.011913407 -0.004618378
-0.00036494917 0.0034956445 0.011481252 0.007013598 -0.0073260595 -0.0014249771 0.004464235 -0.016301986
-0.004716026 -0.0051053013 -0.004639418 0.0043360456 -0.009370409 -0.0041963775 -0.0048996503 0.0011094314
0.002086057 -0.001866713 -0.007177485 -0.0031859565 0.000314052 0.0027464044 0.0008745921 -0.0012167612
-0.006963727 -0.0029410995 -0.0079621645 -0.023182403 0.0004616732 0.0018383745 0.012777205 -0.009109485
-0.0012454286 0.002592706 0.00049883855 -0.009008556 -0.0012876837 0.015161809 -0.00030786562 -0.011951691
-0.002328317 -0.008040881 0.0137247825 -0.013231319 0.0036841105 -0.011312079 0.00085028616 0.016132284
-0.0033664713
00000000: 57a0 09b9 2d97 fdbb 7f6d 47bb 1f87 bd3a
00000010: f59f 733c a8e5 033c 829a 5f3c 7cc9 3fbc
00000020: 6e70 1abc 1081 a0bc 5218 383c 8c16 de3b
00000030: a4c8 873c 706d 84b8 dd97 183c 57df 323c
00000040: 9060 cbba a687 8a3c dd8c 37bc 0f1d 0b3c
00000050: b4e9 a9bc a0b7 09bb fac1 f6ba 594f 12bb
00000060: 2775 143c 9a89 08bb 9339 f1bb 89d6 08bb
00000070: a115 16bc 2dee 07ba c2df 00bc 00f7 e73b
00000080: 44f8 a23a 77ab 393c 0643 43bc 343a 05bb
00000090: 41c3 f5ba 07d0 323b 0ae8 1fbb 9f37 67bc
000000a0: 49f7 4aba 06cf 07b9 9ce2 d33a 9664 5cbc
000000b0: 56c8 803b 96d3 d53b a2a7 9cbb 3939 603c
000000c0: 2ca1 39bb 501e 5ebb afcb 7439 5c7c cebc
000000d0: 7073 1ebb e5db c6ba 69a4 4c3c 98be ed3b
000000e0: 76ae c2bb 19e3 59bb 9df0 86bb 7a7a 093c
000000f0: 3e44 8e3b 5328 5ebb 7330 43bc c355 97bb
00000100: a656 bfb9 2f17 653b dc1b 3c3c 53d2 e53b
00000110: 710f f0bb 4cc6 baba b848 923b be8b 85bc
00000120: e588 9abb 5f4a a7bb 4206 98bb 6315 8e3b
00000130: 5886 19bc c481 89bb 3f8d a0bb 576a 913a
00000140: 3bb6 083b 7fac f4ba 1c31 ebbb 7bcb 50bb
00000150: 59a7 a439 05fd 333b e244 653a bb7b 9fba
00000160: fa2f e4bb 76bf 40bb bd73 02bc 06e9 bdbc
00000170: ba0c f239 9df5 f03a 7b57 513c f33f 15bc
00000180: a63d a3ba 63ea 293b 7dc4 023a 9f98 13bc
00000190: 7fc7 a8ba 3c69 783c 0669 a1b9 06d1 43bc
000001a0: ad96 18bb e6bd 03bc e9dd 603c 2dc8 58bc
000001b0: 1e71 713b 4c56 39bc bde5 5e3a da27 843c
000001c0: 04a0 5cbb

running_mean f4 [113]
0.0022982068 -0.013563117 -0.00015739501 0.0025322186 0.00022673262 0.0013785551 0.005809538 -0.0014541106
-0.00012044222 -0.0114089735 0.0004414323 -0.008090468 0.0028282898 -0.01740842 -0.0015381331 0.010496755
0.0035213218 -0.0052631367 -0.019947072 -0.0044171284 -0.0047640665 -0.00046667742 -0.0059390226 0.0027278906
0.010288917 0.0047046035 -0.0034771068 0.007001035 0.0088805 0.0051005473 -0.010556919 0.0013073351
0.0029634705 -0.0018347761 0.021627156 0.0010247394 -0.0106796995 -0.0024775069 0.0007265961 0.0031253325
0.010265442 -0.004967322 0.01116552 -0.0002650738 0.0076744594 0.009701624 -0.00027375235 0.009537586
0.008703093 0.004022574 0.0063795727 0.0013563255 0.0018527699 0.0031308285 0.004069167 0.0050987615
0.00018318318 0.004013845 -0.012135016 -0.0013277037 0.002557149 0.0090305535 -0.0013190781 -0.0012555486
-0.006866492 0.004455 0.020389663 -0.0058472157 0.0016749225 0.009212243 0.0084890425 0.0015592289
-0.0024186494 -0.014597182 -0.004067905 0.005354358 0.0018696784 -0.0008936837 -0.0010835711 0.008206682
-0.002977077 0.006513191 0.00075123814 -0.0025710894 0.0059611467 0.005015495 0.0041343435 0.004567863
0.001027166 -0.002225151 0.00049388834 0.00062692276 0.0018232473 0.002396863 -0.0023134635 -0.0102824345
-0.01419913 0.008163985 0.0075090798 -0.0019517906 0.005451237 -0.008646467 0.0032228795 0.0051527605
0.006289846 -0.007695224 0.003944447 0.0066457023 0.0028172608 0.0029875347 0.0057141115 0.005980135
0.008535309
00000000: 839d 163b d637 5ebc 670a 25b9 94f3 253b
00000010: 13bf 6d39 a2b0 b43a f05d be3b db97 beba
00000020: ed95 fcb8 b4ec 3abc 0a70 e739 e28d 04bc
00000030: d45a 393b 1a9c 8ebc 2f9b c9ba 95fa 2b3c
00000040: fac5 663b 6476 acbb 0b68 a3bc 8fbd 90bb
00000050: e31b 9cbb 62ac f4b9 229c c2bb 69c6 323b
00000060: d992 283c 1329 9a3b 2ce0 63bb f068 e53b
00000070: 847f 113c 7e22 a73b edf6 2cbc e35a ab3a
00000080: c936 423b df7c f0ba 6f2b b13c 8c50 863a
00000090: e8f9 2ebc ab5d 22bb 0a79 3e3a 61d2 4c3b
000000a0: 6230 283c ebc4 a2bb 96ef 363c 9af9 8ab9
000000b0: 087a fb3b 8ff3 1e3c 6b86 8fb9 8943 1c3c
000000c0: 6b97 0e3c cccf 833b bc0b d13b bbc6 b13a
000000d0: a4d8 f23a 962e 4d3b a656 853b 8313 a73b
000000e0: dc14 4039 9386 833b f2d1 46bc 5806 aeba
000000f0: d795 273b e3f4 133c ebe4 acba 3891 a4ba
00000100: 4f00 e1bb 40fb 913b 3908 a73c 009a bfbb
00000110: 1389 db3a f3ee 163c a015 0b3c 0a5f cc3a
00000120: 3482 1ebb 0529 6fbc 0f4c 85bb 9c73 af3b
00000130: ff0f f53a 1946 6aba 9d06 8eba 5275 063c
00000140: 101b 43bb 9b6c d53b bdee 443a b97f 28bb
00000150: b955 c33b 0559 a43b 6379 873b 03ae 953b
00000160: f9a1 863a d7d3 11bb 4978 013a 1358 243a
00000170: 07fa ee3a b014 1d3b 7a9d 17bb a877 28bc
00000180: 78a3 68bc 3cc2 053c ba0e f63b 3ad3 ffba
00000190: 4aa0 b23b e9a9 0dbc f236 533b 7dd8 a83b
000001a0: 0d1b ce3b 3828 fcbb 6b40 813b 31c4 d93b
000001b0: cba1 383b 84ca 433b 713d bb3b 02f5 c33b
000001c0: aed7 0b3c

running_var f4 [113]
0.003959779 0.003329803 0.0027014297 0.0032554397 0.0012229446 0.006324818 0.0032342186 0.0033014046
0.0022579231 0.0045236843 0.0048610815 0.008255402 0.0062121823 0.001993082 0.0024826052 0.012841005
0.008396056 0.0041100667 0.0063611628 0.0038833644 0.0016089311 0.001484269 0.0034669016 0.0046496578
0.0035171655 0.0019561814 0.0060184523 0.003061388 0.014399922 0.005345302 0.009998945 0.0042352458
0.0041294754 0.0039040744 0.017249249 0.004860514 0.0022078948 0.000572673 0.011628473 0.007373332
0.007517057 0.0013024939 0.010080338 0.0031343754 0.0065213786 0.00953742 0.014555943 0.0099111125
0.0038676728 0.0016941811 0.010260468 0.004431162 0.0032407043 0.0015157382 0.0035912087 0.0042745196
0.004217858 0.005882272 0.0023334974 0.002746116 0.0014828689 0.01090653 0.0017867669 0.0010017819
0.0054309927 0.004101949 0.009524092 0.004855817 0.0015361764 0.0030253502 0.006811234 0.0016164865
0.0018723452 0.002031396 0.002984404 0.008495223 0.008797095 0.009760544 0.008251106 0.0018047941
0.0021298155 0.011940735 0.0013708792 0.0026930065 0.014052942 0.0031252543 0.0011619887 0.016440783
0.0033880298 0.0015197762 0.0018603206 0.006260002 0.0015111788 0.0017842954 0.001085501 0.0025709453
0.006172567 0.0027160507 0.025396675 0.0010044386 0.00420924 0.004425317 0.0028330137 0.0106160445
0.004356712 0.0039190813 0.0052430406 0.0013329604 0.006239807 0.012328999 0.0015061769 0.006201046
0.007582361
00000000: 09c1 813b d338 5a3b 780a 313b 3759 553b
00000010: 364b a03a 6b40 cf3b 2ff5 533b 615c 583b
00000020: aaf9 133b 6a3b 943b b549 9f3b aa41 073c
00000030: 908f cb3b 5e9e 023b 34b3 223b 1463 523c
00000040: 9c8f 093c bdad 863b 4d71 d03b 0b80 7e3b
00000050: c5e2 d23a ce8b c23a f534 633b 285c 983b
00000060: 3f80 663b 4733 003b 7036 c53b 91a1 483b
00000070: a7ed 6b3c a527 af3b 9dd2 233c d1c7 8a3b
00000080: 8d50 873b 80db 7f3b 4c4e 8d3c f244 9f3b
00000090: 54b2 103b 6f1f 163a 5a85 3e3c fe9b f13b
000000a0: a551 f63b 71b8 aa3a 0128 253c 186a 4d3b
000000b0: 4ab1 d53b d742 1c3c 0d7c 6e3c 3862 223c
000000c0: c878 7d3b 490f de3a 861b 283c 4833 913b
000000d0: ff61 543b bcab c63a 7c5a 6b3b 4511 8c3b
000000e0: f535 8a3b 13c0 c03b 97ed 183b 2ef8 333b
000000f0: d35c c23a 4db1 323c f331 ea3a 394e 833a
00000100: 78f6 b13b a469 863b f00a 1c3c 8c1d 9f3b
00000110: 8759 c93a f444 463b c630 df3b 49e0 d33a
00000120: 7b69 f53a 2b21 053b fe95 433b 8c2f 0b3c
00000130: b121 103c b0ea 1f3c a62f 073c d78e ec3a
00000140: 6094 0b3b 13a3 433c 13af b33a 277d 303b
00000150: 503e 663c 11d1 4c3b df4d 983a d2ae 863c
00000160: b509 5e3b 3a33 c73a 00d6 f33a b420 cd3b
00000170: bf12 c63a 05df e93a 5f47 8e3a 4e7d 283b
00000180: 3f43 ca3b c5ff 313b b00c d03c 5ea7 833a
00000190: aaed 893b 4002 913b 15aa 393b ebee 2d3c
000001a0: c0c2 8e3b a36b 803b d0cd ab3b bbb6 ae3a
000001b0: 4b77 cc3b 92ff 493c e96a c53a 2532 cb3b
000001c0: 7475 f83b

weight f4 [39, 113]
0.017579205 0.023663439 0.0028684235 -0.0022144318 -0.01097341 0.016895851 -0.016880842 -0.013888572
0.011622166 0.075618245 0.05576439 0.034239266 0.046564005 0.038772985 0.0097152665 -0.00010183321
0.060190305 0.06659742 0.05297264 0.065800436 -0.026594862 -0.024302753 -0.032955267 -0.051345475
0.007825375 0.0069873156 0.013608746 0.0038592827 0.034342054 -0.040446367 0.06554396 0.021775307
-0.014650538 -0.06174512 -0.050760146 0.04539544 -0.011602682 -0.010222236 0.06849295 -0.083737984
0.013301354 0.015195789 0.02909918 -0.0472205 -0.048586987 0.04612858 0.057510607 -0.008132717
-0.041910402 -0.050477225 0.0457849 -0.06024405 0.021388965 -0.055257674 0.0412944 -0.018218093
-0.03827855 0.01847537 0.005457224 -0.031809907 -0.009443858 0.04478586 -0.04573637 -0.0153016765
0.017060213 0.030145971 -0.02503758 0.043526657 0.0005134575 0.032520737 -0.03277482 -0.041358978
-0.0343254 -0.005269744 0.04252114 -0.049805045 -0.018320598 0.035406884 0.07170027 -0.010440735
-0.0065322868 -0.028409718 -0.00019322587 0.005686596 -0.0015850308 -0.023306703 -0.046190523 -0.03180004
-0.016005075 0.027744554 -0.016518226 0.06629475 0.0046789213 -0.046413682 -0.058729157 -0.03110614
0.0071133776 0.017674299 -0.01704355 -0.03204237 0.010869364 0.094687715 -0.002675763 0.022554979
0.09432092 0.015789805 0.028093172 -0.024546389 0.03862041 -0.005933004 -0.04336917 0.0030833057
0.013609907 -0.023793017 -0.017492281 -0.006064659 0.031422634 -0.038815636 -0.01989929 -0.022998324
-0.028621929 -0.036094945 0.055170413 0.02967829 -0.011412418 -0.0012267907 0.0052040895 -0.06213771
0.07783057 0.098332696 0.0068017724 0.0078051267 0.029621404 0.0028970905 0.024469396 -0.005147647
-0.028427148 0.048675537 -0.039684165 -0.047376283 -0.019029105 0.0007457051 0.014450855 -0.0024037412
0.05924469 -0.034724846 0.0030000876 0.036853973 0.034938905 -0.026537258 0.0029315802 0.009214656
0.10098667 0.06685562 -0.011610027 0.047803573 -0.015353081 0.013112335 0.010088281 0.009792494
0.01724831 0.003113264 -0.007510364 0.036128037 0.007469906 -0.019907081 -0.0069125174 0.06383812
0.04043332 -0.013266092 0.02864653 -0.02877508 -0.077308506 0.050442375 -0.029379807 -0.046455197
0.051694162 -0.0074297823 0.0383744 -0.027647704 0.0025969064 -0.014453105 0.056885824 -0.0028476622
0.09780858 0.02597461 0.015571218 -0.010941173 0.057234578 0.074404284 0.031212136 0.085219935
0.032817002 -0.01188986 0.099175766 -0.009630497 -0.040415067 0.029372215 0.011019114 -0.0069194315
0.09136187 0.020384274 0.013443191 0.009059217 0.023275552 0.045308486 -0.03881864 0.008821362
-0.0011920958 -0.043482177 0.020132933 0.11447442 -0.021554623 0.012429764 0.048941918 0.007106155
0.030247428 0.09746665 0.082886934 0.025004083 0.003815265 -0.034675226 0.021327345 0.026740866
0.052965082 0.045137066 0.012787389 0.084621795 -0.028022401 0.030103559 0.039325763 -0.014002653
0.027877677 0.012082802 0.036419533 0.002789055 0.0028507814 0.051636055 0.05754436 0.032789163
-0.0015016365 -0.022438405 0.022006998 -0.005267574 0.051727653 0.06632161 -0.044762757 -0.038365815
-0.034373865 -0.042956654 0.04273751 0.061995678 0.07471528 -0.052215293 -0.01078515 -0.039811157
00000000: 4402 903c d4d9 c13c 29fc 3b3b 0020 11bb
00000010: d1c9 33bc 2b69 8a3c b149 8abc e58c 63bc
00000020: e66a 3e3c bddd 9a3d 3369 643d 793e 0c3d
00000030: e6b9 3e3d 6cd0 1e3d c82c 1f3c 4a8f d5b8
00000040: 1c8a 763d 3a64 883d d7f9 583d 61c2 863d
00000050: 78dd d9bc 9116 c7bc 1afc 06bd a24f 52bd
00000060: 0036 003c daf5 e43b 38f7 5e3c 05ec 7c3b
00000070: 41aa 0c3d 17ab 25bd e93b 863d 2162 b23c
00000080: cf08 70bc 73e8 7cbd dfe9 4fbd 92f0 393d
00000090: 2d19 3ebc 2a7b 27bc 0846 8c3d d27e abbd
000000a0: eced 593c c2f7 783c 6761 ee3c 486a 41bd
000000b0: 2603 47bd 52f1 3c3d 3e90 6b3d 163f 05bc
000000c0: 3eaa 2bbd 35c1 4ebd f388 3b3d 77c2 76bd
000000d0: e937 af3c df55 62bd 5124 293d 1c3e 95bc
000000e0: f8c9 1cbd a959 973c 83d2 b23b 1b4b 02bd
000000f0: 69ba 1abc 6171 373d 0f56 3bbd e2b3 7abc
00000100: dcc1 8b3c aff4 f63c 9c1b cdbc 0249 323d
00000110: 8d99 063a 7734 053d e43e 06bd 0868 29bd
00000120: ca98 0cbd d1ad acbb a62a 2e3d 6000 4cbd
00000130: 1415 96bc cf06 113d 97d7 923d 9e0f 2bbc
00000140: cb0c d6bb 7fbb e8bc ad9c 4ab9 a056 ba3b
00000150: cfc0 cfba b3ed bebc 4632 3dbd c240 02bd
00000160: 131d 83bc 8c48 e33c 3b51 87bc 8bc5 873d
00000170: a351 993b 461c 3ebd fc8d 70bd 4ed2 febc
00000180: 5617 e93b b1c9 903c ea9e 8bbc dc3e 03bd
00000190: 6b15 323c a2eb c13d db5b 2fbb 38c5 b83c
000001a0: 542b c13d 9f59 813c a723 e63c 8215 c9bc
000001b0: 6f30 1e3d a569 c2bb dfa3 31bd 4911 4a3b
000001c0: 16fc 5e3c 93e9 c2bc f94b 8fbc 0cba c6bb
000001d0: 05b5 003d 25fd 1ebd d603 a3bc fb66 bcbc
000001e0: 8978 eabc 4bd8 13bd 5ffa 613d e31f f33c
000001f0: 27fb 3abc 44cc a0ba 1187 aa3b 1d84 7ebd
00000200: a265 9f3d a762 c93d 67e1 de3b 26c2 ff3b
00000210: 96a8 f23c 1ddd 3d3b 0b74 c83c 98ad a8bb
00000220: 0de0 e8bc 0060 473d dd8b 22bd a20d 42bd
00000230: ede2 9bbc 6c7b 433a 47c3 6c3c 1688 1dbb
00000240: 8faa 723d a43b 0ebd 1e9d 443b 31f4 163d
00000250: 191c 0f3d aa64 d9bc c11f 403b 12f9 163c
00000260: 19d2 ce3d 99eb 883d fc37 3ebc aecd 433d
00000270: 7d8b 7bbc 1ed5 563c 5149 253c b270 203c
00000280: 544c 8d3c e707 4c3b 8019 f6bb fefa 133d
00000290: 1dc6 f43b 2d14 a3bc 6682 e2bb 8fbd 823d
000002a0: 699d 253d 065a 59bc 21ac ea3c b7b9 ebbc
000002b0: ec53 9ebd aa9c 4e3d ecad f0bc ce47 3ebd
000002c0: 42bd 533d 8875 f3bb 7a2e 1d3d 707d e2bc
000002d0: dc30 2a3b b7cc 6cbc 1c01 693d d89f 3abb
000002e0: dd4f c83d b5c8 d43c 6c1e 7f3c 9b42 33bc
000002f0: ce6e 6a3d 4661 983d 98b0 ff3c ca87 ae3d
00000300: 1f6b 063d b0cd 42bc aa1c cb3d 3bc9 1dbc
00000310: 458a 25bd 009e f03c 8489 343c 66bc e2bb
00000320: ef1b bb3d ecfc a63c d440 5c3c 1c6d 143c
00000330: 5fac be3c 6495 393d 4b00 1fbd 7987 103c
00000340: 1940 9cba 5e1a 32bd d2ed a43c 9171 ea3d
00000350: 5293 b0bc 35a6 4b3c 5277 483d c0da e83b
00000360: 74c9 f73c 989c c73d a0c0 a93d 5dd5 cc3c
00000370: 8609 7a3b 9c07 0ebd afb6 ae3c a90f db3c
00000380: eaf1 583d a5e1 383d 3282 513c 314e ad3d
00000390: 3c8f e5bc bd9b f63c 0d14 213d 626b 65bc
000003a0: ba5f e43c f2f6 453c a62c 153d 94c8 363b
000003b0: 2dd4 3a3b 5480 533d a3b3 6b3d ee4d 063d
000003c0: 8fd2 c4ba bfd0 b7bc 0548 b43c 9d9b acbb
000003d0: 60e0 533d a0d3 873d 2759 37bd 7925 1dbd
000003e0: 9ccb 0cbd 51f3 2fbd 870d 2f3d 2eef 7d3d
000003f0: 5304 993d b4df 55bd 33b4 30bc 0611 23bd

bias f4 [39]
0.0154309785 -0.025931858 0.010262875 -0.020614242 -0.0046624723 0.006701979 0.0011097485 0.0076762456
0.014925 0.031818677 -0.013320119 -0.019502074 -0.043848574 -0.031801775 0.027241426 0.0034978357
-0.02234447 -0.028793566 -0.02255422 -0.036171928 -0.026031082 -0.021744229 0.010450249 -0.023517707
0.012272047 -0.0035730242 -0.010754072 -0.058253407 -0.030651059 0.021398418 -0.028592315 0.016117636
-0.025995811 -0.03357903 -0.050309133 -0.039735105 0.040246766 -0.039209288 -0.014995771
00000000: 37d2 7c3c 0c6f d4bc 9e25 283c 33df a8bc
00000010: a7c7 98bb 469c db3b fb74 913a 0489 fb3b
00000020: fd87 743c 4d54 023d a13c 5abc d0c2 9fbc
00000030: 909a 33bd 9442 02bd 6929 df3c f23b 653b
00000040: c00b b7bc 7ce0 ebbc a1c3 b8bc 0429 14bd
00000050: 233f d5bc f420 b2bc 8537 2b3c 35a8 c0bc
00000060: b210 493c 6629 6abb d931 30bc 209b 6ebd
00000070: ee17 fbbc bc4b af3c 6e3a eabc 2209 843c
00000080: 2bf5 d4bc 2a8a 09bd f310 4ebd 47c1 22bd
00000090: cbd9 243d eb99 20bd d3b0 75bc

weight f4 [39]
0.026370691 0.007112597 -0.011794433 -0.009891929 0.034743942 0.031691037 0.019510183 0.040363364
0.025352603 0.0269674 0.00882395 0.017577348 0.047636602 -0.019932695 0.030348653 0.01791759
0.04970591 -0.0137529895 0.037993 -0.021373497 0.021712197 -0.0026322515 0.04018071 -0.010198561
0.03946619 -0.0055686627 0.027172215 0.050930455 0.058329344 0.044230077 -0.008370261 0.02960648
-0.044944655 -0.006576427 0.048746493 -0.011222725 0.03624252 -0.050746605 0.049440075
00000000: 5907 d83c ca10 e93b 703d 41bc c211 22bc
00000010: aa4f 0e3d 76ce 013d d2d3 9f3c 0e54 253d
00000020: 43b0 cf3c bdea dc3c 5492 103c 5ffe 8f3c
00000030: 991e 433d e449 a3bc bd9d f83c e9c7 923c
00000040: 6d98 4b3d 3854 61bc 8c9e 1b3d 7917 afbc
00000050: c7dd b13c da81 2cbb 8794 243d dd17 27bc
00000060: 4da7 213d 5479 b6bb 4498 de3c 749c 503d
00000070: c0ea 6e3d 992a 353d 6b23 09bc 4a89 f23c
00000080: e317 38bd 117f d7bb 67aa 473d 85df 37bc
00000090: 0973 143d acdb 4fbd ad81 4a3d

bias f4 [39]
-0.55872333 -0.5251621 0.523778 0.5285619 0.53382295 -0.53350526 -0.5285685 -0.5313693
0.5415718 0.533631 -0.5230203 0.5199216 0.5270729 0.564911 -0.5261607 -0.5505096
-0.546106 0.52509207 -0.53078467 0.5571348 -0.539588 0.5738334 0.52098376 -0.5246115
-0.55747485 0.5422632 -0.531316 0.53333503 -0.52021116 -0.5303381 0.5307399 -0.5311382
-0.5499044 0.53564465 0.52564377 0.5412937 -0.522892 -0.54446113 0.5267511
00000000: 7e08 0fbf 0671 06bf 5116 063f d54f 073f
00000010: 9fa8 083f cd93 08bf 4450 07bf d207 08bf
00000020: 73a4 0a3f 0b9c 083f a9e4 05bf 9519 053f
00000030: 40ee 063f 029e 103f 78b2 06bf 32ee 0cbf
00000040: 9acd 0bbf 6f6c 063f 81e1 07bf 63a0 0e3f
00000050: 7022 0abf bfe6 123f 315f 053f f04c 06bf
00000060: acb6 0ebf c3d1 0a3f 5304 08bf a588 083f
00000070: 8f2c 05bf 3dc4 07bf 92de 073f acf8 07bf
00000080: 89c6 0cbf 0220 093f 9790 063f 3992 0a3f
00000090: 40dc 05bf ce61 0bbf 29d9 063f

running_mean f4 [39]
0.04201416 0.017385684 0.03753588 0.04366816 0.006377365 0.023082038 0.0391639 0.025509324
0.038810387 0.07803237 0.035339028 0.015374357 -0.009360245 0.0078517655 0.043912847 0.0365972
0.0030469089 0.02543529 -0.00076397555 0.020354373 -0.0023337381 0.027539007 0.037179366 0.009424012
0.019461561 0.03226729 0.004503252 -0.0088921655 -0.0025021606 0.031311765 0.028771842 0.03554403
-0.0015305694 0.037149243 -0.004933144 0.009991683 0.043913174 -0.002051479 0.017328035
00000000: 0a17 2c3d 6c6c 8e3c 39bf 193d 62dd 323d
00000010: 37f9 d03b 8b16 bd3c 536a 203d eef8 d03c
00000020: a4f7 1e3d 6fcf 9f3d a8bf 103d bae4 7b3c
00000030: b75b 19bc b1a4 003c f5dd 333d f2e6 153d
00000040: a6ae 473b ab5d d03c 8845 48ba 37be a63c
00000050: a1f1 18bb 7c99 e13c 6449 183d 2c67 1a3c
00000060: da6d 9f3c b52a 043d 0490 933b 72b0 11bc
00000070: 4afb 23bb c440 003d edb2 eb3c 9e96 113d
00000080: 639d c8ba ce29 183d 36a6 a1bb 28b4 233c
00000090: 4dde 333d 1b72 06bb 86f3 8d3c

running_var f4 [39]
0.036133017 0.08955609 0.0737958 0.1445151 0.01623993 0.020541463 0.110332265 0.02080905
0.039279137 0.09890661 0.13830644 0.028328065 0.014887729 0.035824608 0.030341772 0.05282567
0.0075818067 0.08088331 0.0065723327 0.06034421 0.018385725 0.07646142 0.043050993 0.050671518
0.015579849 0.065212935 0.008653113 0.014614755 0.010171899 0.019101692 0.113372646 0.047627322
0.017562374 0.12868471 0.01721159 0.072425835 0.025556097 0.015984748 0.028068565
00000000: 3700 143d 2f69 b73d 4122 973d c4fb 133e
00000010: 9a09 853c 9246 a83c e2f5 e13d be77 aa3c
00000020: 29e3 203d 8c8f ca3d 34a0 0d3e 4210 e83c
00000030: a9eb 733c d3bc 123d 4f8f f83c bb5f 583d
00000040: ce70 f83b 26a6 a53d b95c d73b 7e2b 773d
00000050: a99d 963c ce97 9c3d 3d56 303d f08c 4f3d
00000060: 9f42 7f3c 5c8e 853d c9c5 0d3c ba72 6f3c
00000070: 09a8 263c 277b 9c3c eb2f e83d de14 433d
00000080: f8de 8f3c edc5 033e 52ff 8c3c ff53 943d
00000090: 055b d13c 72f2 823c 0cf0 e53c

weight f4 [1, 39]
-0.52380013 -0.51128966 0.51523095 0.5276773 0.54537934 -0.5529111 -0.49570447 -0.5478214
0.53213644 0.5287101 -0.5102309 0.5356814 0.5385372 0.5405465 -0.51973903 -0.5246077
-0.55164343 0.5313805 -0.5481684 0.53639984 -0.51732904 0.51837945 0.5180877 -0.5210057
-0.50728995 0.50741476 -0.5257257 0.5322153 -0.5297973 -0.51250374 0.49738026 -0.4957621
-0.53109074 0.5326888 0.53565663 0.5080749 -0.52100277 -0.5391978 0.53931594
00000000: c417 06bf e1e3 02bf 2de6 033f dc15 073f
00000010: fb9d 0b3f 958b 0dbf facc fdbe 063e 0cbf
00000020: 183a 083f 8c59 073f 7e9e 02bf 6b22 093f
00000030: 93dd 093f 4161 0a3f 9e0d 05bf b14c 06bf
00000040: 8138 0dbf 8d08 083f c454 0cbf 8051 093f
00000050: ad6f 04bf 84b4 043f 65a1 043f a160 05bf
00000060: c1dd 01bf efe5 013f f695 06bf 433f 083f
00000070: cca0 07bf 7233 03bf a0a8 fe3e 88d4 fdbe
00000080: 90f5 07bf 4b5e 083f cb20 093f 3211 023f
00000090: 7060 05bf de08 0abf 9c10 0a3f
