mlruns/528961946943719398/models/m-d052355a783142a4bb8fb4c8bd4cee79/artifacts/data/model.pth (torch, 220142 bytes, 17 tensors)

weight f4 [124]
000000 80 67 53 3f 27 6d 59 3f ce 03 57 3f 9e 49 4f 3f
       0.82579803 0.8493218 0.8399018 0.80971706
000010 bb ba 52 3f 08 98 50 3f 9a 91 4f 3f e4 da 51 3f
       0.8231618 0.8148198 0.81081545 0.81974626
000020 50 64 52 3f 4a be 47 3f 76 f1 52 3f 03 16 4c 3f
       0.82184315 0.78024733 0.8239969 0.7972109
000030 c2 ce 48 3f 6f d2 52 3f 75 42 57 3f 32 50 55 3f
       0.7844049 0.82352346 0.8408578 0.83325493
000040 a5 e5 52 3f ab 2e 5a 3f d6 9f 52 3f e6 57 4c 3f
       0.8238166 0.8522746 0.8227514 0.7982162
000050 e9 55 4b 3f cc cf 4c 3f c7 16 4a 3f 8e 3d 58 3f
       0.79427963 0.8000457 0.78941005 0.84468925
000060 93 a4 5a 3f a1 4b 4d 3f 22 b2 56 3f 88 2a 4f 3f
       0.8540737 0.80193526 0.8386556 0.8092427
000070 a1 52 4a 3f bb 75 4b 3f 09 8b 51 3f 2f a5 52 3f
       0.7903233 0.7947652 0.81852776 0.822833
000080 1e 18 55 3f f5 1c 58 3f 0c 07 54 3f 10 38 5a 3f
       0.83239925 0.84419185 0.8282325 0.85241795
000090 7d 5c 4d 3f 32 d6 58 3f dd 5a 55 3f 78 28 54 3f
       0.8021925 0.84701836 0.8334177 0.8287425
0000a0 e7 cb 4d 3f 37 52 5d 3f 3d a9 58 3f d1 a5 66 3f
       0.80389255 0.86453575 0.8463324 0.90096766
0000b0 09 39 4c 3f c8 ee 49 3f 6b ff 50 3f 43 1c 48 3f
       0.7977453 0.78879976 0.81639737 0.78168124
0000c0 3a 73 4d 3f 58 98 4b 3f a7 94 4e 3f a6 29 4e 3f
       0.80253947 0.79529333 0.80695575 0.805323
0000d0 3b d7 4a 3f 3f 7b 4d 3f d7 57 4a 3f 99 ee 49 3f
       0.79234666 0.80266184 0.7904028 0.78879696
0000e0 a5 ab 57 3f 79 16 4c 3f d3 dc 53 3f 90 2f 54 3f
       0.84246284 0.7972179 0.82758826 0.82885075
0000f0 00 77 4f 3f ff d9 52 3f 1e 18 50 3f 3d 7c 5a 3f
       0.81040955 0.82363886 0.812868 0.8534582
000100 7b db 4c 3f 5e ff 4f 3f 28 f7 45 3f cf 22 55 3f
       0.800224 0.81249034 0.77330256 0.8325624
000110 00 2e 4b 3f 4f fa 4b 3f fb 5b 45 3f cc ea 50 3f
       0.79367065 0.79678816 0.77093476 0.8160827
000120 54 e2 4c 3f 77 cf 5a 3f cd a2 49 3f 1e f8 54 3f
       0.8003285 0.85472816 0.7876404 0.83191097
000130 75 01 5a 3f 35 23 57 3f bf 8f 59 3f dc c9 5a 3f
       0.85158473 0.84038097 0.84984964 0.8546426
000140 99 2b 4f 3f 10 4a 59 3f 2c 67 59 3f 6f 1d 59 3f
       0.809259 0.84878635 0.8492305 0.8481054
000150 0e 36 3d 3f 7d 69 4c 3f bf d0 4a 3f ab 3a 44 3f
       0.73910606 0.7984846 0.7922477 0.7665202
000160 96 30 5c 3f 4e e7 5d 3f f6 e5 42 3f 2d 56 53 3f
       0.86011636 0.8668107 0.7613214 0.8255337
000170 1d 41 49 3f c4 bc 4b 3f 74 75 4f 3f bb 7b 51 3f
       0.7861498 0.7958491 0.81038594 0.8182942
000180 44 5c 55 3f a0 67 5c 3f 1b f9 4a 3f 9e 34 49 3f
       0.8334391 0.8609562 0.79286355 0.7859591
000190 fb e2 4f 3f 39 6c 5c 3f dc 5e 53 3f d1 a4 59 3f
       0.8120572 0.86102635 0.8256662 0.85017115
0001a0 fa d0 51 3f 58 3f 4e 3f 18 fc 4d 3f 0c 6c 5c 3f
       0.819595 0.80565405 0.8046279 0.86102366
0001b0 86 38 49 3f e9 3c 5f 3f 56 93 55 3f 8f 5e 53 3f
       0.7860187 0.87202317 0.8342794 0.8256616
0001c0 19 48 4c 3f 0e d3 48 3f 6f 2c 60 3f 23 fc 4e 3f
       0.7979751 0.78447044 0.875678 0.8085348
0001d0 88 c9 59 3f 14 35 4c 3f 3e b7 57 3f 2a 9c 47 3f
       0.8507314 0.7976849 0.8426398 0.7797266
0001e0 7f b4 55 3f 19 27 49 3f 88 3e 5c 3f 83 fe 4b 3f
       0.8347854 0.78575283 0.86032915 0.7968523

bias f4 [124]
000000 8f aa 13 bb 43 b9 c7 3c 78 ba 3b bc 41 a7 2d 3c
       -0.002253208 0.024380332 -0.011458032 0.0105989585
000010 8b 1a 65 bc fe b4 99 3b 7e cf 9e 3c 66 c1 cc ba
       -0.013983379 0.0046907654 0.01938605 -0.0015621602
000020 74 77 73 3c 38 5a db 3b 9c 32 50 bb 90 52 8a bc
       0.014860023 0.0066941045 -0.0031768447 -0.016885072
000030 a3 82 8d 3c 19 e9 28 3c 54 69 b3 3c f8 aa 03 3b
       0.017274207 0.010309481 0.02190081 0.002009092
000040 75 4d 2f ba 2e 75 87 bc f3 12 6f bb 1c 9b a6 bc
       -0.0006687262 -0.016535368 -0.00364798 -0.020337634
000050 f5 f8 2c 3c 5e 1f 6e b8 cf 1b 80 bc cc e8 2c ba
       0.010557403 -5.6772835e-05 -0.01563826 -0.0006595969
000060 48 04 e6 bc 88 22 ba bb df e7 0b 3b 2e c2 6d 3a
       -0.028078213 -0.005680386 0.0021347923 0.00090697675
000070 33 56 67 3b b6 91 61 3b 29 54 48 bb d4 c1 bb 3b
       0.0035299181 0.0034419126 -0.0030567741 0.005729893
000080 ca 3f a2 3c 50 64 90 3c 06 11 9a 3c b3 e4 a3 ba
       0.019805808 0.017625958 0.018806946 -0.0012504071
000090 9a ec c8 3c 98 e7 3e bc f6 56 89 bc 26 f8 23 38
       0.024526883 -0.011651896 -0.016765099 3.9093335e-05
0000a0 e6 39 f5 3b 70 c8 96 ba de 64 13 3c 8d 69 d9 bb
       0.0074837087 -0.0011503827 0.008996217 -0.006634897
0000b0 8e 27 43 bc 98 aa 7a 3c 62 9b ea 3a cb f6 61 3b
       -0.011911286 0.015299462 0.0017899091 0.0034479375
0000c0 47 b8 95 bc 48 a0 f8 ba f2 1a 86 3a b6 44 4a 3c
       -0.018276347 -0.0018968666 0.0010231419 0.0123454835
0000d0 9f 6a 7d 3c c5 bf ac bb 49 95 0f 3c 6b 9d d5 ba
       0.015467315 -0.005271884 0.00876362 -0.0016297525
0000e0 6e cf 9b bb e8 88 2d 3c 3e 3d 78 3c 0c 12 0e 3b
       -0.004754952 0.010591723 0.01515132 0.0021678237
0000f0 11 1c 89 bc 2b 24 9b bc c8 ac 32 3c 8a 48 2e 3c
       -0.016737016 -0.018938145 0.010905452 0.010637412
000100 10 e4 55 3c 96 c4 31 bc b1 78 0b bc cc 83 34 bc
       0.013054863 -0.010850092 -0.008512662 -0.011017751
000110 94 31 ff 3b 8c f4 33 bb 64 80 4c bb 15 ba ad bc
       0.0077878926 -0.0027458994 -0.0031204456 -0.021206895
000120 c8 36 46 3c fb 0b ef bc 16 c9 19 3c f3 5c 82 bc
       0.012098022 -0.029180517 0.0093863215 -0.015913462
000130 df 5a 4d 3c 43 fc 9c 3c f3 88 9b 3c ec b7 49 bb
       0.012533872 0.019163257 0.0189862 -0.0030779792
000140 e2 bf 9b 3c 6d 5c c8 bb 80 35 62 bc c8 60 84 39
       0.019012395 -0.0061145336 -0.013806701 0.0002524911
000150 8e c1 04 3d 9d 72 3f 3c 01 d2 8d 3b 83 9d 9b bb
       0.03241115 0.011685041 0.004328013 -0.0047490015
000160 e1 21 e5 bb 1b a2 3a 3c 65 ff 40 3c 32 73 e9 3c
       -0.006992564 0.011391188 0.011779641 0.028497312
000170 75 fd f3 3b db 75 36 3c c3 f3 7c 3b 1b 75 3b bc
       0.007445986 0.011136497 0.0038597442 -0.011441494
000180 db 1e 93 ba 39 5a 2d 3b b1 24 f7 3a cf 70 5b bc
       -0.0011224406 0.0026451482 0.0018855539 -0.013393595
000190 36 e8 9b 3b 32 4b 3e bc 38 49 1a bb 0a 02 c7 3c
       0.0047579063 -0.011614608 -0.0023542177 0.024292964
0001a0 ed 2f 4d bc 66 57 07 bd 83 06 1a 3c be ae 2c 3c
       -0.012523633 -0.033042334 0.009400967 0.010539709
0001b0 23 a1 8f bc 72 6b 9e 3b f4 2d f2 3b 44 52 62 bc
       -0.01753289 0.004834586 0.007390732 -0.013813559
0001c0 a8 0b 92 bb cf 3d cc 3c c3 55 b5 bc 56 76 7b bc
       -0.004456956 0.024931816 -0.022135621 -0.015348038
0001d0 ec 97 d2 3b 70 56 eb 3b 29 63 7c bb de e8 57 3c
       0.006426802 0.007181935 -0.0038511252 0.013178078
0001e0 1f e4 89 bb 8d 8c ed bb 5a 3c a3 3b bd 0f 0b 3c
       -0.0042081024 -0.007249421 0.0049815597 0.008487639

running_mean f4 [124]
000000 66 e3 8b 42 15 f6 26 46 b5 1a c4 40 e5 c3 b2 40
       69.94414 10685.5205 6.12826 5.586413
000010 73 af d2 42 73 3e 59 40 0f b8 45 40 2d 86 5f 40
       105.342674 3.3944366 3.089359 3.4925644
000020 36 3a 3c 40 43 06 cf 3f 42 c7 df 43 ed 63 34 42
       2.941053 1.6173786 447.5567 45.097584
000030 74 02 0f 44 c5 5e 84 40 eb a7 e3 3d 08 6e 92 44
       572.0383 4.1365685 0.11116012 1171.4385
000040 18 ca b1 43 c8 45 ac 40 d4 8c bf 44 13 a6 d9 3e
       355.57886 5.383518 1532.4009 0.42509517
000050 84 fe 68 3d d2 12 ca 3f a3 60 c4 3e 93 42 39 40
       0.05688335 1.5786994 0.38354978 2.8946884
000060 8f 2d 86 3f 70 84 60 40 d6 28 d2 40 ad 9c 25 3e
       1.0482653 3.5080833 6.567485 0.16173048
000070 5c 11 1d 3f c2 c9 e9 3f 66 24 dd 3f 96 fa e4 3f
       0.61354613 1.8264697 1.7276733 1.7888973
000080 65 36 ef 43 e5 bf 34 40 84 95 34 40 c6 77 14 3e
       478.42496 2.8242123 2.8216257 0.14498815
000090 96 c8 c1 42 c0 e5 45 42 81 79 b0 41 b2 de 7a 40
       96.89177 49.474365 22.059328 3.9198422
0000a0 5e ec 75 41 c5 5b 49 40 8c a1 a5 3c 7e a3 5b 42
       15.370207 3.1462262 0.020218633 54.90966
0000b0 29 5f 1b 42 61 b1 c7 41 30 6e f9 41 29 79 fd 41
       38.84293 24.96161 31.178802 31.68416
0000c0 0c 0a 43 40 58 4d 9c 3f fe e6 b9 3d c0 99 db 3e
       3.0474882 1.2211103 0.090772614 0.4289074
0000d0 58 6e 25 3e 36 2b 33 3f b5 ee 40 3e d1 4c 9a 3d
       0.16155374 0.6998781 0.1884106 0.07534183
0000e0 1b df 1e 3d 59 e4 6b 3d 23 56 06 3d dc e5 a6 3c
       0.03878699 0.057590816 0.03279699 0.020373277
0000f0 dd 28 c1 3d 9e eb 95 3c f0 52 e7 3d e4 44 74 3f
       0.09431622 0.018300828 0.11295116 0.9541762
000100 e6 2e 72 3e 8d 6c a9 3d 42 ff b7 3d e0 45 1f 3d
       0.23650703 0.082726575 0.089842334 0.038884997
000110 8b b4 b9 3e b3 47 18 3e 5d bb 26 3e 19 f0 1f 3e
       0.36270556 0.14871101 0.16282411 0.15618934
000120 f8 30 d8 3d 47 02 18 3d 81 34 18 3d de 93 09 3d
       0.10556215 0.037111547 0.037159447 0.033588283
000130 91 0d 8a 3c b5 e0 ba 3c 8d 77 8b 3c 83 d4 81 3c
       0.016852172 0.022812227 0.01702478 0.015848404
000140 0f 78 4a 3f b2 a3 16 3e 4d 8a 1e 3d 14 26 7f 3c
       0.79089445 0.14710882 0.038706113 0.015573043
000150 8f 50 ca 3d 88 07 13 3d 9a 1a 9a 3d 00 63 61 3d
       0.098786466 0.035895854 0.07524605 0.055026054
000160 7f 63 ab 3c 6a ee 02 3c f1 72 17 3d 16 f8 1e 3e
       0.020921467 0.007991413 0.03697485 0.15524325
000170 71 af 6b 3d 9b 62 e7 3c d9 53 55 3d 05 93 a0 3d
       0.05754036 0.028245261 0.052081916 0.07840542
000180 5c 54 e5 3c 50 db 95 3c e1 a4 45 3d 94 d2 1a 3d
       0.027994327 0.018293053 0.048252944 0.03779848
000190 02 6c 75 3d 90 e1 82 3c 53 9f c0 3c 17 67 8e 3c
       0.059917457 0.015976697 0.023513472 0.017383141
0001a0 84 4f 18 3f 10 74 bc 3d b2 fc dd 3e f1 ee eb 3b
       0.5949633 0.09201825 0.43356854 0.007200115
0001b0 35 30 e3 3e 13 ed 87 3c ef fb be 3c a7 59 6e 3f
       0.44372717 0.016592538 0.02331349 0.9310555
0001c0 37 7a 82 3d 51 62 86 3e 36 3d 58 3d ba 47 d3 3c
       0.06370967 0.26246884 0.05279275 0.025791038
0001d0 76 5f 27 3d d3 49 ab 3d 0d bf a2 3c 49 9e 5d 3f
       0.040862523 0.0836369 0.01986649 0.8656965
0001e0 3f c0 7a 3c d6 c8 52 3f 19 8c 14 3c 30 18 ad 3d
       0.015304624 0.823377 0.009066605 0.08451879

running_var f4 [124]
000000 26 3a 08 44 84 60 d7 4c 7f e2 ee 3f 98 d9 a0 3f
       544.90857 1.1291958e+08 1.8662871 1.2566404
000010 c5 7c f3 46 a6 9a a8 3e 47 58 06 3e 4f 49 40 3f
       31166.385 0.32930487 0.13119613 0.7511186
000020 fa a0 96 3e 04 95 8d 3f 45 31 5a 48 b3 10 c5 46
       0.2941969 1.1061101 223429.08 25224.35
000030 ee b3 43 48 e2 d7 6c 3f 76 07 23 3e 8e cd 18 48
       200399.72 0.9251691 0.15920815 156470.22
000040 6c 77 3d 48 db 9f 07 45 1d 13 8a 48 fc 61 8b 3e
       194013.69 2169.991 282776.9 0.27223194
000050 2f 70 62 3d eb 57 99 3e 02 fd 7f 3e c9 e4 24 3f
       0.055282768 0.2994989 0.24998859 0.644116
000060 83 11 52 3d 99 2a e0 3e a7 28 28 40 b8 92 e5 3e
       0.05128623 0.437825 2.6274812 0.448385
000070 19 a1 d5 3e 02 6d 52 40 4d 87 4b 3f 4e 87 0a 3f
       0.4172447 3.2879033 0.7950333 0.5411271
000080 94 94 2d 47 bb 72 00 3f 04 59 fe 3e cb 13 7f 3e
       44436.58 0.50175065 0.4967729 0.24909894
000090 f9 f1 83 46 78 04 96 45 89 39 76 45 2a f2 80 44
       16888.986 4800.5586 3939.596 1031.5676
0000a0 7b 59 43 45 d9 a9 e4 44 7f a6 a7 3d 87 ab ae 48
       3125.5925 1829.3077 0.081860535 357724.22
0000b0 87 2b 69 44 c9 02 d6 43 e1 12 0f 44 e0 00 7a 43
       932.6801 428.02176 572.295 250.00342
0000c0 37 42 30 40 32 ab 19 3f 20 fe 0a 3e ba ca b4 3e
       2.7540414 0.6002685 0.13573503 0.35310918
0000d0 93 1f 8d 3e 0f 65 57 3e 1f 19 1d 3e c0 e3 8e 3d
       0.27563152 0.21034645 0.15341614 0.069770336
0000e0 e4 98 2c 3d 9e b1 8c 3d 37 00 02 3d 07 63 a3 3c
       0.042137995 0.06869815 0.031738486 0.01994468
0000f0 24 18 af 3d aa 38 93 3c 12 72 41 3e 94 bc 6b 3d
       0.08549526 0.017971355 0.1889117 0.05755289
000100 bf 1d 89 3e cd d2 1a 3e 3d cd a7 3d 82 0d 19 3d
       0.26780507 0.15119477 0.08193443 0.037366398
000110 d0 4d 6d 3e c5 c1 01 3e c2 8a 0b 3e da 9b 06 3e
       0.23174214 0.12671573 0.1362715 0.1314539
000120 7c eb c0 3d 0a 02 12 3d 9e 9c 12 3d 2b 37 05 3d
       0.09419915 0.035646476 0.035793893 0.032523315
000130 00 06 88 3c bb c4 b6 3c 21 7a 89 3c c7 06 80 3c
       0.016604424 0.022310605 0.016781868 0.015628232
000140 41 81 29 3e 69 b0 00 3e 54 4e 18 3d 02 6f 7b 3c
       0.16553213 0.12567295 0.037184075 0.015346291
000150 be f2 b6 3d 22 e7 0d 3d 2e c2 8e 3d 56 1f 55 3d
       0.08933018 0.034644254 0.069706306 0.052031837
000160 19 a5 a7 3c 12 25 02 3c a9 d4 11 3d 05 a4 06 3e
       0.020464467 0.007943409 0.0356032 0.13148506
000170 f5 66 5e 3d b8 05 e1 3c f2 a1 4a 3d 22 4d 94 3d
       0.054297406 0.027468547 0.04947085 0.072412744
000180 b0 4d df 3c b2 69 93 3c a6 21 3c 3d f4 71 15 3d
       0.027258724 0.017994735 0.045930527 0.036485627
000190 09 51 67 3d ee f0 80 3c c4 67 bc 3c 2c 06 8c 3c
       0.056473766 0.015739884 0.022998698 0.017092787
0001a0 23 48 77 3e 52 86 ab 3d 2b cf 7b 3e 41 9e ea 3b
       0.24148612 0.08375229 0.24590747 0.0071599786
0001b0 7b 8c 7c 3e 71 e8 85 3c 6c 0f bb 3c 67 69 83 3d
       0.24662964 0.016346188 0.022834502 0.06416588
0001c0 0d a5 74 3d 64 ac 46 3e 36 a2 4c 3d af 59 ce 3c
       0.059727717 0.194017 0.049959384 0.025189249
0001d0 0e 51 20 3d 28 48 9d 3d 39 83 9f 3c 35 e8 ee 3d
       0.0391398 0.07679778 0.019471752 0.11665384
0001e0 a1 29 77 3c d3 38 15 3e d0 60 13 3c a9 c5 9e 3d
       0.015085609 0.14572458 0.00899525 0.077525444

weight f4 [148, 124]
000000 61 df db bb a7 39 5e 3d 28 6a 76 3c ff c3 6e bc
       -0.0067099785 0.0542542 0.015039958 -0.014573096
000010 4f be 87 bd 9c db 8d 3d e5 93 14 bd 5a 09 4b 3d
       -0.06628095 0.06926653 -0.036273856 0.049569465
000020 28 c6 32 3c 07 58 71 3d 1f db 92 3d 40 b7 80 bd
       0.010911502 0.05892184 0.071707 -0.06284952
000030 22 6c 3c bb b8 ba 80 3c c2 62 90 bb 1e 06 9e 3c
       -0.0028750976 0.015714034 -0.004406304 0.019290026
000040 02 a1 c6 3d 51 cc 5d bd 19 e2 96 bc 76 23 fb bb
       0.096986786 -0.05414993 -0.018418359 -0.0076641394
000050 68 55 21 3c aa e4 44 3d 7b e2 55 3c 46 94 85 3d
       0.009847023 0.048069634 0.013054485 0.065224215
000060 55 83 c8 3c 6f 9e 67 3d f6 e7 0d bd f1 21 01 bd
       0.024476686 0.05654758 -0.034645043 -0.03152651
000070 64 f8 c7 3c 82 9e 38 bd b5 6c bb ba 4d 29 51 bc
       0.024410434 -0.04507304 -0.0014299365 -0.0127661945
000080 c1 dd 37 3a 86 67 4c 3d bd 88 8c bd b6 cd 84 bd
       0.000701394 0.049903415 -0.06862018 -0.06484549
000090 f4 50 b6 3c 78 78 95 3d c5 fb 59 bd dd 91 87 3c
       0.022255398 0.07298368 -0.05321862 0.016549045
0000a0 ec be cf 3d 2e 3f 53 bc ec 6e 3a bd a4 73 56 3b
       0.10143837 -0.012893481 -0.04551594 0.0032722736
0000b0 69 f5 fc 3c a5 bf 0d 3d c7 99 24 3d cd a1 f4 bc
       0.03087874 0.034606595 0.040185716 -0.029862309
0000c0 e0 94 74 3d 02 ec 57 3c 64 1b 12 bd d8 39 02 bd
       0.05971229 0.013178827 -0.035670653 -0.031793445
0000d0 d6 4f 2b bb 3e fb b7 bd f6 ce 14 3d a8 43 31 3d
       -0.0026140115 -0.089834675 0.036330186 0.043277413
0000e0 b2 32 83 bd 7e fb db bc 82 a9 2e 3d db 80 71 bd
       -0.06406154 -0.02685332 0.042642124 -0.058960777
0000f0 84 db e8 3b af 77 71 3d 3e c4 3d bd f9 61 97 3c
       0.0071062464 0.05895203 -0.04632973 0.018479334
000100 d8 04 83 3d a3 47 c6 bc b2 d0 b0 bc 2f 4a 8c bd
       0.06397408 -0.02420408 -0.021583889 -0.06850087
000110 52 93 01 3c 76 75 31 bd ab 78 88 bd cd 21 47 3d
       0.007908659 -0.04332491 -0.066636406 0.04861622
000120 66 5c d4 3c b1 d2 79 bd 31 56 e7 bb cd 36 57 3d
       0.025922965 -0.060991947 -0.0070598354 0.052542496
000130 9d 4b a6 bc 72 f3 9c bd f2 e0 27 3d 43 0d 80 3c
       -0.020299727 -0.07663621 0.04098601 0.015631324
000140 05 ef b5 3c f2 36 ea 3b a1 53 bc 3c 65 7e 1e bd
       0.0222087 0.0071476633 0.022989096 -0.038694758
000150 7f 2e 05 3c 61 41 eb 3c 94 72 1e bd 8f 6a bd bc
       0.008128761 0.028717699 -0.03868349 -0.0231221
000160 2b 03 b0 3d 98 c1 12 3a f2 8c bb bc 66 6c 42 3d
       0.08594354 0.0005598306 -0.022894356 0.047466658
000170 22 2e 35 bd fa dd 6b 3c 5e 22 42 3d e9 27 5d bd
       -0.04423345 0.014396185 0.047396056 -0.05399314
000180 cd 90 79 3d 0e 7f 02 bd 34 33 22 3d 13 0e 01 bc
       0.06092911 -0.03185945 0.039599612 -0.007876891
000190 89 30 5b bd 75 8f 1a 3c ae 7e 1f bd 0f 14 21 bd
       -0.053513084 0.009433617 -0.03893917 -0.03932577
0001a0 58 4a 23 3d 89 50 56 3c fa 97 69 bd 3d 7a 90 3d
       0.03986582 0.0130807245 -0.0570297 0.07054565
0001b0 39 bf 92 3b d1 d3 23 bd c2 46 fe 3c b8 f5 eb 3c
       0.004478362 -0.039996926 0.0310396 0.028803691
0001c0 88 ce a7 ba b7 ae 23 3d cc b0 5b bd 4e 24 19 bd
       -0.001280264 0.039961543 -0.053635404 -0.03738814
0001d0 88 4b 14 3d 44 a6 73 bd 90 26 53 3c 93 62 42 bd
       0.036204845 -0.059484735 0.012887612 -0.04745729
0001e0 4c e0 34 bd a7 c1 34 3d 25 41 8f 3d 75 5d 63 bd
       -0.04415922 0.044129994 0.06994847 -0.05550905
0001f0 70 25 6e bc 78 07 a6 3d e9 f6 c2 3d f9 07 75 bd
       -0.014535293 0.08106893 0.095197506 -0.059822056
000200 5b 50 02 bd 84 1b 8b 3d ff 66 87 3d b0 c3 ea 3b
       -0.031814914 0.067923576 0.06611442 0.007164441
000210 c4 fd 20 3d f3 c1 96 3c 95 6c c7 bc a4 72 95 bc
       0.03930451 0.01840303 -0.024343768 -0.018243141
000220 45 e7 1c bd 9e de 93 bc c7 a0 18 3d 37 fe 0b bd
       -0.038306493 -0.018050488 0.037262704 -0.034177985
000230 4f 31 cd 3c 51 b3 95 bc 53 a4 cb bc 51 1b af 3d
       0.025047926 -0.018273981 -0.02485863 0.08550132
000240 7a fa db 3c 44 02 0f bd c6 b0 21 bc 13 c1 66 bb
       0.026852835 -0.03491427 -0.009868806 -0.0035210296
000250 ee 4f e1 bc dd 3a ee 3c a4 e4 ac 3c 47 90 37 bd
       -0.027503934 0.029080803 0.021105118 -0.044815328
000260 30 86 28 3d 18 22 06 bd 46 cc cf ba 4a c6 a9 3c
       0.041143596 -0.032747358 -0.0015853725 0.020724434
000270 e1 15 91 3c 71 c0 1d bd 77 93 2e 3d 91 ec 05 3d
       0.017710628 -0.038513605 0.042621102 0.03269631
000280 93 84 ce 3b 6f 5e 9c 3c f8 20 dd 3c e5 31 1d 3a
       0.006302425 0.019087998 0.02699326 0.00059965096
000290 e1 9d 27 bc 70 12 a6 bb cb 64 34 3d 50 59 a2 3c
       -0.010230512 -0.005068116 0.044041436 0.019817978
0002a0 9d e3 97 3c 10 80 96 ba 21 17 85 bd 9c 6c 17 bc
       0.018541152 -0.0011482257 -0.06498552 -0.009242203
0002b0 29 d6 f8 3a 06 52 10 bd ef 63 4b 3d ef c9 32 bc
       0.0018984723 -0.035234474 0.04965585 -0.0109124025
0002c0 11 dd 6d bd 51 ab 67 bd ce 9a 67 3d 43 e7 8c bd
       -0.058072153 -0.056559864 0.056544118 -0.06880047
0002d0 c5 71 a8 3d 60 bc f9 3c 85 22 4a bc 1c 3b 5b 3c
       0.08224825 0.030485332 -0.012337332 0.013380792
0002e0 e1 c7 7f 3c 15 21 21 bd 5e 38 5b bd 09 50 0c 3d
       0.01561162 -0.03933819 -0.053520553 0.034256015
0002f0 13 93 22 bd e3 2e 0b 3c 54 cd 18 3d 28 90 c6 bb
       -0.039691042 0.008495065 0.03730519 -0.0060596652
000300 26 ba 5a bd 97 16 11 bc 65 f3 7f bd ae e0 ec bc
       -0.05340018 -0.0088554835 -0.06248798 -0.02891573
000310 13 5b 7b bd ac 7a a8 3d 9e 76 a1 bc e7 81 77 bd
       -0.061366152 0.08226523 -0.019709881 -0.06042662
000320 03 2c 6d 3c af d3 ef 3b 2d 2e cd 3c 58 6e 07 bd
       0.014475825 0.007318936 0.025046432 -0.033064216
000330 0c dd b4 bc b4 03 9b bd 08 47 07 bc 8d b5 a9 3c
       -0.02207806 -0.07569066 -0.008256681 0.020716453
000340 db 39 11 bc 03 1d 1f bd af 2d bc 3c 69 c6 19 3d
       -0.0088638915 -0.038846027 0.022971002 0.037542734
000350 b8 56 29 bc 63 cf e3 3c 4c 0a 3a bd ad 8e e7 bc
       -0.010335617 0.02780885 -0.045419976 -0.028266275
000360 f7 a5 68 bd bd f2 3e 3d 4d 28 ba 3c 7a b6 6e bc
       -0.0567989 0.046618212 0.022724295 -0.014569873
000370 fe 89 53 bd ca 03 06 3c 43 b4 ba 3c 3a bf 10 3d
       -0.05164527 0.008179614 0.022791034 0.035338618
000380 48 e7 9b 3d 24 31 30 bd 78 a6 44 3d 52 f1 74 bd
       0.07612473 -0.043015614 0.04801032 -0.059800453
000390 48 f4 24 bd 4a ea 90 3d 00 23 b4 3c cf 06 26 3d
       -0.040272027 0.07075937 0.021989346 0.040533837
0003a0 e3 a9 73 bb 17 74 38 bb bd 60 23 3d c1 62 dd bb
       -0.0037180118 -0.0028145367 0.03988718 -0.006756157
0003b0 39 4c 1c bd 85 66 ad 3c e6 ac 13 3d 96 9a 83 bc
       -0.03815863 0.02116705 0.03605356 -0.016064923
0003c0 8a 02 7d bd 39 59 23 3d ce f4 29 3d ce 8a e6 bc
       -0.06177 0.03988001 0.04149323 -0.02814236
0003d0 27 50 91 3d e0 a3 44 bd 5a 86 07 3d e4 2c 5c bc
       0.07095366 -0.048007846 0.033087112 -0.013438437
0003e0 c6 2d 32 bc f8 55 1a bd 28 be b1 bc 71 37 cd bb
       -0.010875171 -0.037679642 -0.021697119 -0.0062627126
0003f0 cb 55 3a bd 72 db 25 bd e0 d0 57 bd aa d2 d4 3c
       -0.045491975 -0.040492482 -0.052689433 0.025979359

bias f4 [148]
000000 23 5d e1 3c 6a 4f 5d bd 3c ae e4 3c 8d 99 1d 3d
       0.027510231 -0.054030813 0.027915113 0.038476516
000010 d4 d1 f7 bc 22 7b 1a 3c dc ab a1 3c aa 1d 24 3d
       -0.030251421 0.009428771 0.01973527 0.040067352
000020 fe 95 b6 bc 50 bc ca bc 3a 11 aa 3a 71 24 e9 bc
       -0.022288319 -0.024747998 0.0012975105 -0.02845976
000030 c6 8e a6 bb 21 63 79 bd bf 89 91 3c c7 4b 75 3c
       -0.005082938 -0.060885552 0.017765878 0.01497168
000040 fa db fc 3c dd 78 27 bd b1 9b ae bc 7f 0e fb bc
       0.030866612 -0.04088675 -0.021314474 -0.03064656
000050 ba 0f 29 3c e7 e2 fa bb 92 e5 c1 ba 9c 92 c9 bc
       0.010318691 -0.0076564434 -0.0014793149 -0.024606042
000060 8f 32 69 bc 04 36 e6 bb 60 04 fd bb 54 a7 f6 39
       -0.0142332455 -0.007025482 -0.007721469 0.00047045446
000070 45 5a 7c bc 90 33 0f 3d a8 17 01 bd ad 89 3c 3c
       -0.015402381 0.034961283 -0.0315167 0.011507434
000080 aa 4b 0f bd 93 d9 5f 3b 7b 7a bc 3b 01 ba 3d 3d
       -0.03498427 0.0034156784 0.0057519055 0.046319965
000090 25 f9 ca bc 59 49 24 bd e9 56 c1 bb 2e f2 d7 ba
       -0.024777004 -0.040109012 -0.005900253 -0.0016475373
0000a0 43 b7 21 bd a9 eb 01 ba 6c 20 94 3d e8 37 0b 3d
       -0.039481413 -0.00049560756 0.072327465 0.033988863
0000b0 34 74 7b bd f9 fb be bc 90 ca 39 3d 6c 94 3c 3d
       -0.061390117 -0.02331351 0.045359194 0.046039984
0000c0 75 43 12 bd 3f d5 64 3d d0 a6 0d 3b 57 5f 44 bd
       -0.035708863 0.05586743 0.002161432 -0.047942486
0000d0 53 61 e5 3c 5f 21 fc bc 09 01 88 bc 98 dd a8 bc
       0.02800051 -0.030777631 -0.016602056 -0.020613477
0000e0 cb 72 80 bc 22 2a 1f 3d 67 4b 0a 3d 0e af 2c 3d
       -0.015679738 0.03885854 0.033763316 0.042159133
0000f0 c6 ee 72 bd bb de 9b bc 5c 42 fa bc df a9 b9 3c
       -0.059309743 -0.019027105 -0.03054922 0.022664009
000100 7a 50 05 bd 01 cb 0e bd 15 e9 5d bd c8 0a f2 3c
       -0.03254745 -0.03486157 -0.054177362 0.029546157
000110 27 7a cd 3c 3d 71 3e 3d fa 9e 52 bd d9 c6 09 bd
       0.02508266 0.04649471 -0.051421143 -0.0336369
000120 e9 2a 96 3c 22 03 3e 3d 39 e3 c6 bc c2 fa c8 bc
       0.018331008 0.046389706 -0.02427827 -0.024533633
000130 47 83 44 bd 05 40 2b bb a6 09 cf bb d6 9a a6 3c
       -0.04797676 -0.0026130688 -0.006318289 0.020337503
000140 9c 8c 24 bd fe 1f 0a bc 1a 3d d9 3c 4b b3 77 bd
       -0.040173158 -0.008430479 0.026518393 -0.06047372
000150 57 c2 e3 bc 96 3e 84 bb 3a 48 45 3c e0 d8 35 bd
       -0.02780263 -0.004035781 0.012041146 -0.04439628
000160 b8 67 31 bc 35 1d 90 3b 07 3c 5a 3d 28 5e 48 bd
       -0.010827951 0.004398013 0.053279903 -0.04891792
000170 03 bf bc 3c 71 b0 4f 3d 1d 3c e6 3b f1 b5 54 bd
       0.0230403 0.050705377 0.007026209 -0.051931325
000180 3e 65 7e 3a 4c 5b b4 bc e9 df 4f 3d 3e c5 ac 3c
       0.00097044173 -0.02201619 0.050750647 0.021090146
000190 d7 9c b8 3c 87 38 1b 3d 09 dc c7 bc 76 e8 73 bd
       0.022535725 0.037895706 -0.024396913 -0.059547864
0001a0 31 bd 1f 3d 4d 25 31 bd 7d 45 e5 bc 68 7f 6a bc
       0.038998786 -0.043248463 -0.027987236 -0.014312603
0001b0 bc a2 38 3d a4 d7 05 bd 35 10 02 3d 3e 67 47 3d
       0.04507707 -0.032676354 0.031753737 0.048682444
0001c0 f6 78 0c 3c 2a 5b 1d 3c 8e 2a d3 3c bc 55 86 3d
       0.008573761 0.009604255 0.025777128 0.06559321
0001d0 2c d8 69 bc 86 e0 b4 3a 12 d0 d3 3c 56 e0 44 bd
       -0.014272731 0.0013799823 0.025856052 -0.048065506
0001e0 28 a0 00 3d 77 83 0d bd 77 87 af 3c 62 00 66 bd
       0.031402737 -0.034549203 0.0214269 -0.05615271
0001f0 81 f4 fd bc bd 8a 75 3c cc 9b 19 3c a3 ea 32 3d
       -0.031000378 0.014986691 0.009375524 0.0436808
000200 73 0f 20 bc ce fe e5 bc 72 4f a6 bd cb 5e 63 bd
       -0.009769308 -0.028075602 -0.08120622 -0.055510323
000210 79 c8 3e bd 67 ab 92 3d e7 4d 4d bc 30 77 07 3d
       -0.046577904 0.07161599 -0.01253078 0.03307265
000220 4e e5 5f bb ea c5 cb 3c 25 5f d9 bc d0 77 2b ba
       -0.0034163776 0.024874646 -0.026534626 -0.0006540986
000230 0a ed 27 3a 20 8f c4 3c 1b 67 9f 3c 39 85 20 3d
       0.0006405866 0.023994029 0.019458344 0.03918955
000240 ce 1e 00 3d 9b e9 43 3a f0 1d aa 3c fb 49 78 bd
       0.031279378 0.00074734696 0.020766228 -0.06061743

weight f4 [148]
000000 13 85 4a 3f 85 8a 4f 3f d9 31 52 3f e8 1e 4b 3f
       0.79109305 0.8107074 0.8210731 0.79344034
000010 26 b5 46 3f fc 42 4a 3f 02 af 4b 3f ef e0 4a 3f
       0.7762016 0.7900846 0.79563916 0.7924947
000020 93 9b 4e 3f f8 88 48 3f 6a 2f 4b 3f ec 66 53 3f
       0.8070614 0.78334 0.79369223 0.8257892
000030 df b4 49 3f 6b d6 55 3f 5b ab 4e 3f 88 fb 48 3f
       0.7879161 0.835303 0.8073022 0.78508806
000040 86 d6 4a 3f e3 82 53 3f dd 05 47 3f ec d9 48 3f
       0.79233587 0.8262159 0.7774332 0.7845752
000050 03 e8 50 3f 5c c2 4c 3f ec 70 47 3f 3c 9d 45 3f
       0.8160402 0.7998407 0.7790668 0.77193046
000060 48 a4 46 3f 60 cf 4a 3f b0 23 4a 3f 0c 5d 53 3f
       0.77594423 0.7922268 0.78960705 0.82563853
000070 2a 79 51 3f 09 24 4b 3f 81 e6 4b 3f c8 a6 4d 3f
       0.81825507 0.7935186 0.79648596 0.80332613
000080 a8 13 4b 3f 86 9c 44 3f 5f 3f 4d 3f 60 9b 48 3f
       0.7932687 0.76801336 0.8017482 0.78362083
000090 96 bb 48 3f 20 61 4c 3f 85 7a 4e 3f ec d5 4b 3f
       0.78411233 0.798357 0.806557 0.79623294
0000a0 41 ec 43 3f 2d b8 48 3f 35 2e 4f 3f 3b 91 48 3f
       0.7653237 0.7840603 0.8092988 0.78346604
0000b0 0b a0 56 3f 7b 68 4f 3f 97 e8 40 3f e4 30 4f 3f
       0.83837956 0.810188 0.75354904 0.80933976
0000c0 cd 77 46 3f 06 1b 4b 3f 94 64 50 3f 4f 9e 50 3f
       0.7752655 0.7933811 0.8140347 0.8149156
0000d0 54 e5 58 3f 9e bc 4c 3f 60 82 4d 3f 29 ca 45 3f
       0.84724927 0.79975307 0.8027706 0.77261597
0000e0 58 6c 4f 3f 18 e2 55 3f ec 38 4a 3f 34 97 4a 3f
       0.81024694 0.83548117 0.78993106 0.7913697
0000f0 db 39 53 3f 8c 3b 47 3f a4 25 4c 3f ff 05 4c 3f
       0.82510155 0.77825236 0.79744935 0.7969665
000100 b8 b9 50 3f a4 cb 4e 3f 22 56 53 3f 45 74 4b 3f
       0.81533384 0.8077948 0.82553303 0.7947429
000110 a3 4f 53 3f 34 99 4f 3f 00 bc 49 3f 44 89 48 3f
       0.8254339 0.81093144 0.7880249 0.7833445
000120 7d 31 50 3f 9f c6 4c 3f df 9b 4a 3f 43 71 50 3f
       0.81325513 0.7999057 0.7914409 0.81422824
000130 3a dc 5e 3f b7 58 4d 3f a4 a5 4b 3f 00 9a 49 3f
       0.8705479 0.80213493 0.7954962 0.7875061
000140 f5 07 4c 3f 08 06 4a 3f 1f 2e 51 3f f1 9b 48 3f
       0.7969964 0.7891545 0.81711 0.7836295
000150 93 5d 4e 3f a6 46 50 3f 21 60 4c 3f 16 9b 48 3f
       0.8061153 0.813578 0.7983418 0.7836164
000160 44 90 53 3f 5e 5e 4f 3f ec 02 4d 3f 2b 2b 4b 3f
       0.82642007 0.8100337 0.80082583 0.79362744
000170 3f cb 50 3f 06 ad 52 3f dd 4d 4f 3f 4e ff 56 3f
       0.8156013 0.8229526 0.80978185 0.83983314
000180 27 f9 4d 3f 6b b7 4d 3f b6 ec 44 3f fa 4b 55 3f
       0.804583 0.80358 0.7692369 0.83319056
000190 68 44 4c 3f 40 ab 4d 3f 42 54 49 3f 5d a4 56 3f
       0.7979188 0.8033943 0.7864419 0.8384455
0001a0 b2 ed 55 3f af 7d 49 3f df d5 4d 3f b8 8a 51 3f
       0.8356582 0.787074 0.80404466 0.81852293
0001b0 75 e2 4d 3f c3 12 50 3f 6e 37 53 3f 9b b5 4b 3f
       0.8042367 0.8127863 0.82506454 0.7957398
0001c0 17 c6 4e 3f e0 a4 48 3f 59 c5 47 3f 2c ea 48 3f
       0.8077101 0.7837658 0.78035504 0.7848232
0001d0 d1 c4 4e 3f ec 22 4e 3f 92 8d 4b 3f cc c9 50 3f
       0.8076907 0.80522037 0.79512894 0.8155792
0001e0 ab 10 54 3f e5 22 4f 3f aa 65 4a 3f 7b 6d 48 3f
       0.82837933 0.8091262 0.7906138 0.78292054
0001f0 56 83 4f 3f ac b6 52 3f bc c3 4b 3f 2e 2a 49 3f
       0.8105978 0.82309985 0.7959554 0.78579986
000200 6d a3 51 3f bb 56 4f 3f 4c da 52 3f c2 a6 54 3f
       0.8188999 0.80991715 0.82364345 0.8306695
000210 40 a8 4d 3f ca 9b 45 3f 4e 92 52 3f 29 fe 4e 3f
       0.80334854 0.7719084 0.82254493 0.8085657
000220 f8 4b 4a 3f 5b 95 51 3f 7b cf 51 3f da 97 49 3f
       0.7902217 0.81868523 0.81957215 0.7874733
000230 fe 0c 4e 3f 7e 90 47 3f 46 62 4d 3f 0d 93 4a 3f
       0.80488575 0.7795485 0.8022808 0.7913063
000240 d3 62 47 3f 44 48 4d 3f a9 d2 55 3f 3a fa 48 3f
       0.7788517 0.80188394 0.83524567 0.78506815

bias f4 [148]
000000 b6 c7 8e 3b 8d 17 db bc 03 e5 1e bd b1 80 00 3c
       0.0043573035 -0.026744628 -0.03879262 0.007843182
000010 7c 13 24 3c 2e 9d 8b bb 45 d8 f0 bc 03 3b 9d bb
       0.010014411 -0.0042606806 -0.0294 -0.0047982945
000020 79 8f fa ba 31 82 09 bc 94 d5 87 3c e7 6e d0 bc
       -0.0019116245 -0.008392856 0.016581334 -0.025443507
000030 3b ff 4d bd 50 d8 39 bd ab 8c 69 3c 7c 65 05 3d
       -0.050292235 -0.045372307 0.014254729 0.032567486
000040 05 f0 0e 3c c6 34 c6 3c 96 72 0a 3d fd bb 1d bd
       0.008724217 0.024195086 0.033800684 -0.038509358
000050 b2 3f 42 bc 38 88 09 3d 4c f8 b2 3c a0 e9 6b 3b
       -0.011856006 0.033577174 0.021846913 0.0035997406
000060 88 6a db bc 1f c1 cb bc 37 88 0e 3d 94 41 55 3c
       -0.026784196 -0.02487236 0.034797873 0.013016123
000070 1e 03 24 3c af c3 8c 3c b7 02 81 3b a7 8b 2c bb
       0.010010509 0.017183153 0.003937091 -0.0026328356
000080 f1 da 17 3c ee 71 c4 bc 48 3e e5 bb 05 8e 1c bc
       0.009268508 -0.023980107 -0.00699595 -0.0095553445
000090 fc 90 62 37 d9 31 52 bd 70 78 fa bc 0d 61 b1 bc
       1.35044065e-05 -0.05131707 -0.030575007 -0.021652723
0000a0 f7 a6 31 3d ba c0 34 bc 53 79 9b bc 45 ab 69 3c
       0.04337212 -0.011032278 -0.01897875 0.014262025
0000b0 89 4b 39 bd b7 8f 74 bc 5a 6f e9 3c 30 58 21 bd
       -0.04523805 -0.014926842 0.02849548 -0.039390743
0000c0 eb 25 e0 bb 06 84 07 3c 97 7b 1e 3c 48 6b a2 bc
       -0.0068404577 0.008271223 0.009673021 -0.019826546
0000d0 2f ce ef bc 1d b3 3a bb 16 5f a4 bc a2 36 2f 3a
       -0.02927312 -0.0028488107 -0.020064872 0.0006683861
0000e0 86 e1 fc bc 69 80 85 bd 89 82 d9 3b 10 5f 92 3c
       -0.030869257 -0.06518633 0.0066378755 0.017867595
0000f0 8f c1 09 bd f9 b3 8b 3c f8 47 21 bd b4 03 fb bc
       -0.033631857 0.017053591 -0.039375275 -0.030641414
000100 16 65 3f bd c4 f0 1c bc 91 55 0d bd 87 86 a0 3c
       -0.046727262 -0.009578887 -0.03450543 0.019595398
000110 f8 85 85 3b 21 c8 b7 bb a7 7c 46 3d 29 89 b1 bc
       0.004074808 -0.005608574 0.04845872 -0.021671848
000120 12 78 32 bd 97 ab 45 bc d9 35 43 bc ec 7d 49 bc
       -0.04357154 -0.012064836 -0.011914694 -0.0122980885
000130 6e f0 82 bc 7d 73 1a bc 92 ab 88 bc cb e5 13 3d
       -0.015983786 -0.009426949 -0.016683374 0.03610782
000140 3b 56 67 3b b6 b3 d2 bc 1a 0e 84 3c b3 33 e9 3c
       0.00352992 -0.025720458 0.016120005 0.028467035
000150 b1 ee 98 3b 64 5c a5 bc 02 d2 f0 bc c9 6c b0 3c
       0.004667126 -0.020185657 -0.029397015 0.021536248
000160 56 3a 18 bd d8 60 64 3c 3d 22 27 bd b6 74 f9 3b
       -0.03716501 0.013939105 -0.040804137 0.00761279
000170 8f 2c 5d bc 25 76 2d 3b 11 17 c7 3b a0 5b 00 bd
       -0.013499393 0.0026468125 0.006075748 -0.03133738
000180 8c bc 39 3c be 01 ed bc 6c 76 63 3c 43 49 92 bd
       0.011336457 -0.028931495 0.013883214 -0.0714288
000190 e5 60 07 bd 4f f0 68 bc 24 0d dc 3b f7 13 5a bd
       -0.03305139 -0.01421745 0.0067154337 -0.053241696
0001a0 62 59 a5 bc 63 4e 11 bd b9 ee d5 bc 78 11 76 bc
       -0.020184223 -0.035475146 -0.026114808 -0.015018813
0001b0 27 59 ce 3a bf 41 08 bd 33 3c c8 3b 55 35 93 bc
       0.0015743122 -0.033265825 0.006110692 -0.017969767
0001c0 60 f2 45 bd 72 48 85 bb fa 47 df bc 10 04 40 bc
       -0.04832685 -0.004067474 -0.027256 -0.011719719
0001d0 db 11 09 bd 87 37 f1 bc 3c d2 5e bd b0 cb dc bb
       -0.033464294 -0.029445423 -0.054399714 -0.0067381486
0001e0 47 6e 94 bb fd 18 c7 3c b1 f5 da ba f7 80 18 bd
       -0.0045297476 0.024303908 -0.0016705302 -0.037232365
0001f0 46 2a 83 bb ce 20 72 3c 3c 15 9e bc 47 aa a6 ba
       -0.004002842 0.014778329 -0.019297235 -0.0012715542
000200 31 62 a9 bd 01 88 e9 3c fc 4d b6 bc ac 1d 12 bc
       -0.08270682 0.028507235 -0.022253983 -0.008918207
000210 09 34 f3 3b 5e 44 9d b9 56 36 01 3d dc d8 f9 bc
       0.0074219746 -0.0002999631 0.03154596 -0.030498914
000220 1f 0f 56 bb 7f 24 4c 3a 32 73 bb bc 56 d3 56 bb
       -0.0032662821 0.0007787421 -0.022882078 -0.0032779775
000230 cc 90 a5 3c 5f 69 bf 3c 9a 41 fc 3b 7e 78 24 bc
       0.020210646 0.023365675 0.00769825 -0.010038493
000240 7a cc 60 bb 0a a8 31 3a a8 80 2d bd 09 9c 04 bd
       -0.0034301565 0.0006777054 -0.042359024 -0.03237537

running_mean f4 [148]
000000 76 11 9c 3d 0e 55 dc 3c d6 42 9d 3d 74 44 b1 3d
       0.07620518 0.026896026 0.076787636 0.086556345
000010 f8 1a 71 3d 38 4b 8f 3d 0d 26 a8 3d 02 6f c8 3d
       0.05886361 0.06996769 0.082103826 0.09786798
000020 7f df 85 3d d3 d5 93 3d f0 1a 96 3d 37 10 5d 3d
       0.06536769 0.07218518 0.07329357 0.05397054
000030 de ca 83 3d ad 3c 7d 3d 50 a8 84 3d 58 a3 ed 3d
       0.06435178 0.061825443 0.064774156 0.11603421
000040 b6 ec ff 3d 85 bc 67 3d 15 34 c4 3d 27 f2 2c 3d
       0.12496321 0.05657627 0.09580246 0.042223122
000050 9e 25 d2 3d 97 8a c7 3d 60 39 9e 3d 10 e7 a5 3d
       0.10261081 0.09743231 0.07725787 0.08100712
000060 83 dd 64 3d 53 3f 9d 3d de ea 92 3d fc 75 47 3d
       0.055875313 0.07678094 0.071737036 0.048696503
000070 03 a4 ac 3d 49 34 bd 3d c9 fe 22 3d 93 9d c1 3d
       0.0842972 0.09238488 0.039793763 0.09453883
000080 59 69 48 3d d3 fa 86 3d 08 4b 6a 3d 26 29 9d 3d
       0.048928592 0.0659081 0.05720046 0.07673864
000090 2f 75 9b 3d 12 d8 07 3d b7 8a 8c 3d 3f 37 d7 3d
       0.0759071 0.033165045 0.06862395 0.10508584
0000a0 de 12 0c 3d ca ac 9a 3d 7f c8 02 3e a7 49 85 3d
       0.03419768 0.07552488 0.12771796 0.06508189
0000b0 b2 8f eb 3c 9c f6 64 3d 6e dd b1 3d 3e 84 d6 3d
       0.028755043 0.055899248 0.086848125 0.10474442
0000c0 77 f5 89 3d 8f 9d dd 3d 6c c1 b9 3d 1a 11 1d 3d
       0.06736272 0.108210675 0.090700954 0.038346387
0000d0 8e df ad 3d 2c 5a bd 3d a6 ce b9 3d c3 f2 7b 3d
       0.08489905 0.092457145 0.09072618 0.061510812
0000e0 5b 8e 4f 3d 3d 7a 08 3e 7d 94 ba 3d 47 f6 da 3d
       0.05067287 0.1332788 0.09110353 0.10691505
0000f0 c8 31 27 3d 2e ef 69 3d 2a 8c 2c 3d 5a 58 9d 3d
       0.04081896 0.057112865 0.04212586 0.07682867
000100 5e 8f 30 3d 11 48 89 3d d7 11 70 3d 47 26 ad 3d
       0.043105476 0.06703199 0.058610763 0.084545664
000110 a3 62 8f 3d 48 d9 e5 3d 6b b3 99 3d 45 23 df 3d
       0.07001235 0.11223084 0.075049244 0.10895399
000120 29 0a dd 3d ef 43 bc 3d 11 60 60 3d cd d7 00 3d
       0.107929535 0.09192645 0.054779116 0.031455804
000130 f9 25 8d 3d 3c ac ac 3d 24 ef f2 3d d0 57 c9 3d
       0.06892008 0.084312886 0.11862019 0.09831202
000140 37 c2 52 3d 1c 23 62 3d 0e 02 ad 3d 63 ae e8 3c
       0.05145475 0.055209264 0.084476575 0.028403467
000150 00 67 af 3d 7f 4e b7 3d cf 6c 7a 3d 5f 67 5e 3d
       0.085645676 0.08950519 0.061138924 0.0542978
000160 d7 f3 55 3d 24 44 ec 3d b6 0c b8 3d 1a 9c 04 3d
       0.052234497 0.11536434 0.089867994 0.032375433
000170 8d c4 df 3d 5c fe d1 3d ff aa a5 3d 0f 66 b1 3d
       0.10926161 0.10253593 0.080892555 0.08662044
000180 d9 09 8d 3d 96 13 46 3d 5a ab cc 3d 06 b7 9b 3d
       0.06886644 0.048358522 0.0999362 0.07603268
000190 e7 6e 8d 3d 0e dd ae 3d 5c 11 25 3d c9 01 61 3d
       0.069059186 0.085382566 0.04029976 0.054933343
0001a0 f0 ed c6 3d 15 9a 2e 3d 6d 5f 1c 3d ba 0b b2 3d
       0.09713352 0.042627413 0.038176943 0.08693643
0001b0 31 f6 eb 3d 23 01 05 3d a7 ad c8 3d 5a 80 ef 3d
       0.11521567 0.032471787 0.097987466 0.11694403
0001c0 b6 2a be 3d df b1 ab 3d 1f ca 9e 3d fb a7 a6 3d
       0.0928549 0.083835356 0.07753395 0.081375085
0001d0 e5 4d 87 3d 34 7e b9 3d b0 63 b0 3d a3 48 64 3d
       0.06606654 0.090572745 0.08612764 0.055733334
0001e0 6e 7b e5 3d 04 96 78 3d 4c fe ca 3d fe de 0c 3d
       0.11205183 0.06068994 0.099117845 0.03439235
0001f0 13 bf 3a 3d 77 16 98 3d c2 5f 8f 3d 96 d2 d1 3d
       0.04559238 0.0742616 0.07000686 0.10245244
000200 28 07 73 3d bc 0a de 3d 88 ca 2d 3c 9d 27 86 3d
       0.059332997 0.10841891 0.010607369 0.065505244
000210 fe 04 29 3d 37 cd 02 3e 8b b6 7a 3d ac b7 b2 3d
       0.041264527 0.12773596 0.061209243 0.08726439
000220 b6 c5 a2 3d a4 ff b5 3d 35 34 1d 3d a5 b5 84 3d
       0.079478666 0.0888665 0.038379867 0.064799584
000230 dd b6 62 3d ee 1d c8 3d dc 83 91 3d 69 f6 9f 3d
       0.055350173 0.09771334 0.07105228 0.07810671
000240 d0 85 f7 3d f2 17 54 3d ff 1d de 3d 40 25 14 3d
       0.120860696 0.05178065 0.10845565 0.036168337

running_var f4 [148]
000000 dd 8f ce 3d ce 94 c8 3d be c4 18 3e 77 c3 e4 3d
       0.100860335 0.09794007 0.14918801 0.111700945
000010 8d fe 00 3e 8e ea b2 3d a9 4e 09 3e ac be e2 3d
       0.12597103 0.08736144 0.13408913 0.11071524
000020 cf 76 f6 3d e1 50 f1 3d 9f 93 06 3e 5a c8 e9 3d
       0.1203438 0.117830046 0.1314225 0.11415167
000030 28 17 28 3e 80 09 3e 3e b8 37 da 3d 3e 89 31 3e
       0.16415083 0.18558311 0.10655159 0.1733751
000040 ca 31 53 3e 6c 28 0e 3e 5f 99 3a 3e 9d 35 a6 3d
       0.20624462 0.13882607 0.18222569 0.08115695
000050 4d 71 2f 3e 13 c2 8f 3e 56 5c 09 3e c4 23 09 3e
       0.17133065 0.28077754 0.1341413 0.1339255
000060 3e cb 9f 3d 17 8c 35 3e e0 6f fa 3d 7f 9a d7 3d
       0.07802437 0.17729221 0.1222837 0.10527515
000070 52 98 22 3e 6f 61 05 3e 11 cd 92 3d 19 ac 44 3e
       0.15878418 0.13025449 0.071680196 0.19206275
000080 8a 28 f9 3d 0f 4d e0 3d dc f4 ce 3d db a8 db 3d
       0.12165935 0.10952198 0.10105297 0.10725566
000090 44 c5 0d 3e da 70 a2 3d 51 34 24 3e f2 ec 2e 3e
       0.13844782 0.07931681 0.16035582 0.17082575
0000a0 f5 7f 95 3d eb ef d1 3d b9 68 53 3e bf 2d aa 3d
       0.072997965 0.10250839 0.20645417 0.083095066
0000b0 4f b5 d6 3d ba 5a 45 3e a0 dc d8 3d be 3c 68 3e
       0.104838006 0.1927289 0.10588956 0.22679421
0000c0 5d 05 df 3d 4e 7c 21 3e a4 13 19 3e 00 35 d8 3d
       0.10889695 0.15770075 0.14948899 0.10556984
0000d0 c2 8e 67 3e 41 a9 1f 3e 2c bc 1e 3e 95 f6 e5 3d
       0.22613052 0.15591909 0.1550147 0.112286724
0000e0 fa 5c d6 3d f7 52 86 3e 7a 54 02 3e d8 ff 24 3e
       0.104669526 0.26235172 0.12727538 0.16113222
0000f0 14 a1 02 3e d8 07 f2 3d b9 92 9e 3d ff e5 df 3d
       0.12756759 0.11817902 0.07742829 0.1093254
000100 f6 b2 dc 3d 9c 90 16 3e 8a fa 3a 3e 04 10 0e 3e
       0.107763216 0.14703602 0.18259636 0.13873297
000110 43 ff fe 3d 11 77 2c 3e b7 2c 4f 3e ba 96 4e 3e
       0.12451031 0.16842295 0.20231901 0.20174685
000120 64 41 21 3e e4 1f 19 3e 49 59 f2 3d df ba ab 3d
       0.15747601 0.14953572 0.11833436 0.08385252
000130 cd 70 82 3e 05 b8 19 3e a8 61 64 3e 73 00 f7 3d
       0.25476685 0.15011604 0.22302878 0.120606326
000140 fe 65 bc 3d 69 de c4 3d 54 75 14 3e 71 d4 95 3d
       0.09199141 0.09612734 0.14497882 0.073159106
000150 73 04 4d 3e 0e dc 26 3e c4 29 c4 3d 33 25 ca 3d
       0.20021228 0.16294882 0.09578279 0.098703764
000160 1c 06 f7 3d 2d e5 60 3e 82 cf de 3d b8 f3 cf 3d
       0.12061712 0.21962424 0.10879423 0.101539075
000170 d0 b4 57 3e 11 f9 ff 3d ab 00 4d 3e 6c ed 71 3e
       0.21065068 0.124986775 0.20019786 0.23625726
000180 b6 39 1e 3e 6e 1f c3 3d 68 ea 1d 3e 3f 2b 0e 3e
       0.15451702 0.09527479 0.1542145 0.13883685
000190 41 f1 c8 3d b4 b8 0e 3e 35 19 9e 3d bb 93 6b 3e
       0.098116405 0.13937646 0.077196516 0.23005573
0001a0 b7 4d 43 3e b0 00 ba 3d 31 b4 e0 3d 65 2d 4f 3e
       0.19072615 0.090821624 0.10971869 0.2023216
0001b0 ed 7a 2a 3e ef cb ac 3d 45 fb 6f 3e 7b 31 2f 3e
       0.16648455 0.08437335 0.23435695 0.17108719
0001c0 0b d3 59 3e fb 81 1a 3e f3 a2 dc 3d 00 cd b3 3d
       0.21271913 0.15088646 0.107732676 0.08779335
0001d0 28 f9 2d 3e b3 02 44 3e c0 54 2d 3e 86 88 1a 3e
       0.16989577 0.19141655 0.16926861 0.15091142
0001e0 23 68 a4 3e c6 c2 0a 3e dd 24 5e 3e 5b 68 a4 3d
       0.321107 0.13550863 0.2169375 0.08027717
0001f0 4a c8 a3 3d 97 53 44 3e 38 62 e9 3d 36 8e 0e 3e
       0.079971865 0.19172512 0.11395687 0.13921437
000200 88 77 e2 3d de 1e 76 3e c2 bb bb 3d 53 1f 68 3e
       0.11057955 0.24035212 0.09166671 0.22668199
000210 ea 3e ad 3d 2a 12 20 3e 6e 2a ef 3d 7f 29 13 3e
       0.084592655 0.15631929 0.11678015 0.14371298
000220 ee 95 17 3e 9b 2c 16 3e b3 96 c1 3d 74 e3 dc 3d
       0.14803287 0.14665453 0.09452572 0.10785571
000230 92 53 07 3e 98 41 29 3e 7a 24 be 3d 66 65 d9 3d
       0.13215473 0.16528928 0.09284301 0.10615043
000240 6f 91 4a 3e 05 45 cc 3d 5d 52 ae 3e 70 da c3 3d
       0.19782041 0.09974102 0.34047213 0.09563148

weight f4 [209, 148]
000000 7a ad 44 3d 45 40 53 bc af d6 0d 3c 84 21 00 bd
       0.048017003 -0.012893741 0.008657142 -0.031281963
000010 d5 b7 1c bd 64 86 92 bc ef 32 45 bc de 47 5f bd
       -0.038261253 -0.017886348 -0.012036069 -0.054511897
000020 87 95 01 bd 57 6a 0d 3d 0a f2 19 3d 2f 86 6b bc
       -0.03163674 0.03452524 0.037584342 -0.014375254
000030 86 01 e4 bc ed ec 9f bc 3d 0c e1 bb a4 f7 e3 bc
       -0.027832758 -0.019522155 -0.006867914 -0.027828045
000040 b4 4e 3c 3d eb 7e 4d bd 46 db 2b bd f9 41 ad 3c
       0.045973495 -0.050169867 -0.041957162 0.021149622
000050 d0 59 73 3d 8a 7e ba 3d 65 c5 d5 bc 9d 52 20 3d
       0.059411824 0.09106167 -0.026095102 0.039141286
000060 ff 1f 86 bd 70 2b c6 bc 48 93 a5 bd 7b 17 9b ba
       -0.065490715 -0.024190634 -0.08084732 -0.0011832559
000070 ca f7 fa bc a2 0d 6c bd a8 25 ab 3b 28 94 77 3c
       -0.030635733 -0.05763019 0.005222995 0.015111007
000080 d3 77 88 b8 d1 2a a0 39 9b 7c b4 3b 3c 6d d6 3c
       -6.507304e-05 0.0003054948 0.005508018 0.026175134
000090 6c 71 29 bc 03 fd f8 3b cb b1 85 bc 60 0e 81 3d
       -0.010341983 0.0075985207 -0.01632013 0.0630157
0000a0 36 67 94 3b b7 40 4a 3a 90 90 b1 3c 28 32 54 3d
       0.0045289053 0.0007715332 0.021675378 0.051805645
0000b0 39 df 2f 3c c3 67 7c 3c 19 f3 0f 3c 9d dd 1f 3d
       0.010734373 0.015405598 0.008785986 0.039029706
0000c0 1e b1 1e 3d fb b7 43 3c f4 46 1f bd cf 20 2e 3a
       0.03874313 0.01194572 -0.038886026 0.0006642462
0000d0 e7 87 25 bd 7f 29 7b bb 60 8b 55 3b 8c fe 0d bc
       -0.04041281 -0.0038324294 0.0032584295 -0.008666646
0000e0 a2 3d 5d bd 28 c2 2c 3c 29 aa fd 3c 20 99 00 3d
       -0.054013856 0.010544337 0.030964928 0.03139603
0000f0 ed dc e6 bc 63 37 78 bb 0c ba 94 3c e7 1a 04 bd
       -0.028181517 -0.003787481 0.01815512 -0.03225222
000100 5a 5e 85 bd 2d 2e 00 bc ee 9d 70 bd 08 e1 e8 3a
       -0.06512137 -0.007823509 -0.058744363 0.001776726
000110 b9 0e 1b 39 fe 87 27 3d 52 45 fb bc 58 32 49 bc
       0.00014787437 0.040901177 -0.030672703 -0.012280069
000120 a3 88 2d bd 3b 1d 1e 3d c7 5b ee bc ec 9f 01 3d
       -0.042366635 0.038602095 -0.029096497 0.031646654
000130 e6 92 05 bd fa 56 f1 3b a5 5e bd 3a fc 25 a6 3c
       -0.032610796 0.0073651047 0.0014447762 0.020281784
000140 52 37 00 3d c0 56 65 3b fd 90 06 bd 63 d6 ef 3c
       0.031302758 0.0034994334 -0.032853115 0.029277032
000150 b9 bf 6c bd 0a 4f f4 3c 33 b1 53 bb 8d 5a 42 3c
       -0.05780003 0.029822845 -0.0032301664 0.011862409
000160 b3 57 a5 3c 97 ee c3 bc bc 8b 31 bd dd 66 d1 bc
       0.02018342 -0.02391748 -0.04334615 -0.025561744
000170 55 f2 e5 bc b2 c7 91 bc 6d 5c 2e bc 15 07 ed 3c
       -0.028069654 -0.017795417 -0.010642153 0.028934041
000180 7a ad dd bc e2 d5 e6 3c f7 66 6d 3c c5 b5 ac 3c
       -0.02706026 0.02817816 0.014489881 0.021082768
000190 fa 66 c6 bc 01 1c b7 bc c7 28 88 bc 43 ee f3 bc
       -0.024219025 -0.02235222 -0.016621007 -0.029776698
0001a0 e4 2e 88 3d 60 63 20 3d 5b fb 0b 3d c4 e0 64 bc
       0.06649569 0.03915727 0.034175258 -0.013969604
0001b0 66 9a 2c bd fd 56 13 bc d1 5b cc 3c 1b cf 00 3d
       -0.042139433 -0.008992908 0.024946125 0.03144751
0001c0 bf bd 5e bb b3 d3 ef bc 83 59 97 bc 1b db 28 bc
       -0.003398761 -0.02927575 -0.0184753 -0.010306145
0001d0 dd 11 39 3d 29 d2 2f bd 08 d1 77 bb c2 db 1b 3d
       0.04518305 -0.042925034 -0.0037813801 0.038051374
0001e0 ad e8 a4 3c d1 ed f7 bc ec 4c c8 3b b4 9a 31 3d
       0.02013048 -0.030264767 0.0061126854 0.043360427
0001f0 6f dd 77 bc f5 98 76 bd 05 ab 01 bd b0 bf 66 3d
       -0.0151284775 -0.060204465 -0.031657238 0.05633515
000200 7b 90 71 3d cd e6 2b bd 2d 6e bb bc 26 5c e6 bc
       0.058975678 -0.041968156 -0.022879684 -0.028120112
000210 fd fa 78 bd f0 97 91 bc c4 1a 66 bd a7 64 49 bd
       -0.060786236 -0.017772645 -0.05617787 -0.049168255
000220 10 f8 8e bd 0b 89 44 bd a4 96 b3 3b 0c f9 00 3d
       -0.06980908 -0.047982257 0.0054806042 0.03148751
000230 d6 62 b0 bb d5 d2 45 bd ac b1 1a 3d 09 28 ba bc
       -0.005382876 -0.04829677 0.037767097 -0.022724168
000240 9b 45 39 3c 96 48 0d 3d 6f 51 4a 3d 69 96 c3 bb
       0.011308099 0.03449305 0.049394067 -0.005968858
000250 11 f3 73 3d cc ff 7b bc eb 05 04 bd 11 cf 0a 3d
       0.059557978 -0.015380811 -0.032232206 0.03388888
000260 02 e6 47 ba dd 70 fe 3c 81 6d cf 39 46 dd 16 3d
       -0.00076255214 0.031059677 0.00039563703 0.036832117
000270 70 ad c4 3a 87 bd 22 bd dd a1 61 3c 6b 8d 3a bc
       0.0015005302 -0.03973153 0.013771501 -0.011386256
000280 0b 19 1f bc be 90 9f bd ca b0 f5 bc 5c e9 9f 3c
       -0.009710561 -0.07791279 -0.029991526 0.019520454
000290 1c 58 92 bc 95 bb 11 bc 7c 67 b5 bc 01 ac 90 3d
       -0.01786428 -0.008894821 -0.022144072 0.07064057
0002a0 3c 34 8b 3c 35 0b 19 3c 08 c5 8c 3d 9b 46 05 3b
       0.01699268 0.009341051 0.06873518 0.0020336274
0002b0 90 5c c0 bb 10 1e 02 bd dc 3c 80 3d ed 86 23 bd
       -0.0058704093 -0.03176695 0.06261608 -0.039923597
0002c0 d9 10 de 3c 3c 6d 1f bd fe 20 34 bd 25 53 b2 3d
       0.027107643 -0.038922533 -0.043976776 0.08707265
0002d0 d7 bd 6d bd 22 c5 19 3d 55 1b bc 3c f6 80 39 bd
       -0.058042374 0.037541516 0.022962252 -0.045289002
0002e0 8f 0c 61 3c fa f2 a9 3c 71 6a 01 bb ad b3 30 3d
       0.013735904 0.020745743 -0.0019747282 0.043140102
0002f0 87 d8 03 bd bd f1 7f 3c 93 4c 71 3d ec 1b 52 3d
       -0.03218892 0.0156216 0.058910917 0.05129616
000300 86 d0 3c bd 77 1c 8d bb 3e 87 d1 bc c2 bb 31 3c
       -0.0460973 -0.004306372 -0.025577184 0.010847988
000310 18 8d 5c 3d ba a5 0a bc 0e 83 15 3d a4 28 11 3d
       0.053845495 -0.008462364 0.036501937 0.03543915
000320 0b 91 3d 3d 96 b5 b0 3c 35 1b 2e bd 7d 82 12 bb
       0.046280902 0.021570962 -0.042506415 -0.002235561
000330 34 0a 5c 3d ae f3 93 3c 97 ac 67 3d 77 14 07 bd
       0.053720668 0.018060531 0.05656108 -0.0329785
000340 51 5a 9d 3d 76 e0 2d bd 72 76 e5 bb 22 1e a5 3c
       0.07683242 -0.04245039 -0.007002645 0.02015597
000350 b4 a4 be 3c 8f db 1a bd 75 e6 40 3d 54 6d 80 bd
       0.023271896 -0.037807044 0.04709478 -0.06270853
000360 96 47 dc bc 3f cd 53 3d 39 07 37 bd 73 b6 21 3d
       -0.026889604 0.05170941 -0.044684622 0.039480638
000370 66 64 c8 bc fa 8c 7b bd d9 19 90 3d 5f 18 38 bd
       -0.024461936 -0.061413743 0.0703618 -0.044945117
000380 35 0e 05 bd c7 48 77 bc ce 56 e9 ba 82 21 6b bc
       -0.032484252 -0.015093035 -0.0017802359 -0.014351251
000390 47 2c 61 bd a4 b1 75 3d bd 72 78 3d b8 15 f6 bc
       -0.054973867 0.059983864 0.060656298 -0.030039653
0003a0 d3 a8 5d 3c 26 8e 27 bd f2 fb 21 3d 95 10 a4 3a
       0.01352902 -0.040907048 0.039546914 0.0012517149
0003b0 27 73 15 bd db 3b 6e bc eb 4a a2 3d c7 47 16 3d
       -0.03648677 -0.014540638 0.07924446 0.036689546
0003c0 58 c1 0f bd b9 9b 55 bd a1 ca a9 3c 40 b0 d1 3c
       -0.035096496 -0.05215046 0.020726504 0.025596738
0003d0 69 b3 3a bd f7 0c 70 3d 97 4f 8b 3d b2 c0 b8 3d
       -0.045581255 0.058606114 0.0680229 0.09021129
0003e0 d8 dc d4 3b 53 9c c9 3c 9b bb 92 3d 51 f1 57 3d
       0.006496053 0.024610674 0.07164689 0.05272037
0003f0 6c 94 a3 bc 22 f4 03 3d 84 d4 3b bc d2 f0 07 bc
       -0.019968234 0.032215245 -0.011464242 -0.008297162
