mlruns/528961946943719398/models/m-db39dfab170d451b943b448c5f7950de/artifacts/data/model.pth (torch, 73134 bytes, 17 tensors)

weight f4 [124]
0	0x3f5a9154	0.85378003
1	0x3f50b9ad	0.8153332
2	0x3f6be2e4	0.9214308
3	0x3f55032b	0.8320796
4	0x3f5bd6e2	0.8587476
5	0x3f6bc28b	0.92093724
6	0x3f60bf6c	0.87792087
7	0x3f5fa608	0.8736272
8	0x3f699335	0.91240245
9	0x3f693cb4	0.9110825
10	0x3f759287	0.9592671
11	0x3f56fa6a	0.8397585
12	0x3f56bcc1	0.83881766
13	0x3f5c64e0	0.86091423
14	0x3f5dbf85	0.8662036
15	0x3f6eaa1f	0.93228334
16	0x3f69db45	0.91350204
17	0x3f5009b2	0.81264794
18	0x3f65e1a4	0.89797425
19	0x3f41a5c6	0.75643575
20	0x3f5ce41c	0.8628557
21	0x3f61f681	0.8826676
22	0x3f5acbb0	0.8546705
23	0x3f4cc6b6	0.7999071
24	0x3f5dad90	0.8659296
25	0x3f5b3b5b	0.85637444
26	0x3f592662	0.8482419
27	0x3f5211f1	0.82058626
28	0x3f4cbef6	0.79978883
29	0x3f583128	0.84450006
30	0x3f564f05	0.83714324
31	0x3f747d05	0.95503265
32	0x3f569ccc	0.83833003
33	0x3f5ba78f	0.8580255
34	0x3f5ebadd	0.8700388
35	0x3f4c51a4	0.79812074
36	0x3f519cfd	0.8188017
37	0x3f4a764e	0.7908677
38	0x3f4a3937	0.7899355
39	0x3f5bd1a9	0.8586679
40	0x3f5c2545	0.8599437
41	0x3f4c54b6	0.7981676
42	0x3f5512d5	0.8323186
43	0x3f3caedf	0.7370433
44	0x3f543c9c	0.8290498
45	0x3f5e37b6	0.8680376
46	0x3f639ea6	0.88913953
47	0x3f532ff5	0.8249505
48	0x3f5a1b91	0.85198313
49	0x3f69d83b	0.91345567
50	0x3f518619	0.8184524
51	0x3f4f810d	0.8105629
52	0x3f566b6a	0.8375765
53	0x3f60fca8	0.8788552
54	0x3f4db385	0.8035205
55	0x3f5212bc	0.82059836
56	0x3f5ea0ce	0.8696412
57	0x3f5ecffc	0.8703611
58	0x3f5ce0ac	0.8628032
59	0x3f73e314	0.9526837
60	0x3f422306	0.7583469
61	0x3f5dd22a	0.8664881
62	0x3f7eb64d	0.9949692
63	0x3f5525eb	0.83260983
64	0x3f578da9	0.8420053
65	0x3f423662	0.7586423
66	0x3f6d0d01	0.9259797
67	0x3f513c78	0.81732893
68	0x3f5cb84a	0.862187
69	0x3f345497	0.70441574
70	0x3f46ce8e	0.7765893
71	0x3f44618d	0.7671135
72	0x3f553dfe	0.8329772
73	0x3f6d9209	0.92800957
74	0x3f5217ca	0.8206755
75	0x3f4206a1	0.75791365
76	0x3f67fddb	0.9062173
77	0x3f508678	0.81455183
78	0x3f5199a6	0.81875074
79	0x3f5af946	0.8553661
80	0x3f5e1a43	0.8675882
81	0x3f6bbe8f	0.92087644
82	0x3f50164c	0.8128402
83	0x3f689d52	0.9086505
84	0x3f5985cd	0.8496979
85	0x3f54a06c	0.83057284
86	0x3f52017e	0.82033527
87	0x3f4a4d5d	0.79024297
88	0x3f64ec46	0.89423025
89	0x3f6238da	0.88368
90	0x3f606bae	0.87664306
91	0x3f4d0336	0.80083025
92	0x3f7bea17	0.9840407
93	0x3f5474fa	0.8299099
94	0x3f70853e	0.9395331
95	0x3f4dafde	0.8034648
96	0x3f5056b7	0.81382316
97	0x3f4aeb6b	0.7926547
98	0x3f3b749e	0.7322482
99	0x3f45f51e	0.77327144
100	0x3f638ef1	0.88889986
101	0x3f4a8d32	0.79121697
102	0x3f6c7f24	0.923815
103	0x3f68ddc7	0.90963405
104	0x3f4a2b2a	0.78972113
105	0x3f6067b3	0.8765823
106	0x3f698345	0.91215926
107	0x3f414436	0.75494707
108	0x3f630701	0.8868256
109	0x3f5ca1f7	0.8618464
110	0x3f5a5fdd	0.85302526
111	0x3f4e03ba	0.80474436
112	0x3f50421e	0.81350887
113	0x3f573f80	0.8408127
114	0x3f59df77	0.85106605
115	0x3f572661	0.84042937
116	0x3f4d26ef	0.8013753
117	0x3f5fdb82	0.8744432
118	0x3f5622a4	0.8364661
119	0x3f5c5498	0.8606658
120	0x3f545a2e	0.82950103
121	0x3f59fcc0	0.8515129
122	0x3f4fbd39	0.81148106
123	0x3f649a33	0.8929779

bias f4 [124]
0	0x3caa5947	0.020794524
1	0x3d5067f3	0.050880384
2	0x3cf78225	0.030213425
3	0x3d7b521d	0.061357606
4	0xbc45e024	-0.012077365
5	0x3c4f8596	0.012666127
6	0xbd4f20b7	-0.05056831
7	0x3d23f12e	0.04002493
8	0x3cce00d2	0.025146876
9	0x3d1b8728	0.037970692
10	0x3d8839bb	0.06651636
11	0xbda2faaf	-0.0795797
12	0x3b82ab7a	0.0039877268
13	0x3d21c712	0.03949649
14	0x3bdd84fe	0.0067602387
15	0x3c5e079f	0.013551622
16	0xbc66626e	-0.014061553
17	0xbccee73c	-0.025256746
18	0xbca70f27	-0.020392967
19	0x3b6d6ad4	0.0036227005
20	0xbd478d06	-0.048718475
21	0xbc8bfa80	-0.017087221
22	0xbd3d0fcf	-0.046157654
23	0xbd4a2e65	-0.04936065
24	0x3c6c12e6	0.014408803
25	0xbd72ead9	-0.059306
26	0xbc3e41a7	-0.011612332
27	0x3c7febc0	0.015620172
28	0xbb6da656	-0.0036262474
29	0xbcc098b6	-0.023510318
30	0x3d159c13	0.036525797
31	0x3d24c13c	0.040223345
32	0x3cbf0ddb	0.023322036
33	0x3cd15c05	0.025556574
34	0x3d7a104a	0.06105069
35	0xbc1d281f	-0.009592085
36	0x3c82db86	0.015973818
37	0xbacd31fd	-0.0015655156
38	0x3c806a2d	0.015675629
39	0xbcf15e8e	-0.029464033
40	0xbd1d87a8	-0.03845945
41	0x3d3c21e2	0.04593075
42	0x3a04d790	0.00050675217
43	0x3be09d2a	0.006854673
44	0x3cf61b8a	0.030042429
45	0xbc6995d4	-0.014256913
46	0xbc0a1922	-0.008428844
47	0x3cdabfa6	0.026702713
48	0xbbcfbaa8	-0.00633939
49	0x3cfda75a	0.030963589
50	0xbb913eb5	-0.004432524
51	0xbb1ac649	-0.0023616722
52	0x3c830a91	0.01599625
53	0xbd88b12f	-0.0667442
54	0x3cdd25db	0.02699559
55	0x3cf4a779	0.029865013
56	0xbbbeac32	-0.005818867
57	0xbce61b61	-0.028089227
58	0x3cf52de9	0.029929118
59	0xbd1899fc	-0.037256226
60	0x3d430107	0.0476084
61	0xbd12c65d	-0.035833705
62	0xbcce6e91	-0.025199207
63	0x3c06ced7	0.008228025
64	0xbc99c081	-0.01876855
65	0xba5283fd	-0.0008030532
66	0xbc3adb0c	-0.011404764
67	0x3d49243f	0.049106833
68	0x3ce38ed2	0.027778063
69	0x3cdfef92	0.027335916
70	0x3ca8b908	0.020596042
71	0x3ca5be7d	0.020232433
72	0x3cbf1a3f	0.023327945
73	0xbc42bdb1	-0.011886046
74	0xbc111fe5	-0.008857702
75	0x3c2e2e51	0.01063116
76	0xbd413363	-0.047168147
77	0x3cbeda3a	0.023297418
78	0xbd0cee78	-0.03440711
79	0x3d50b1a9	0.05095068
80	0x3aa285bb	0.0012399474
81	0xbccd790f	-0.02508214
82	0x3c9bcad6	0.019017618
83	0xbccf8115	-0.025330106
84	0xbc833565	-0.016016671
85	0xbd158a3c	-0.036508784
86	0x3c8a00b8	0.016846046
87	0xbd15e668	-0.036596686
88	0xbb9b8c32	-0.004746937
89	0xbd0bd6e4	-0.034140483
90	0x3d4c33be	0.049854033
91	0x3c886eae	0.016654339
92	0xbd8351b6	-0.064120695
93	0xbcb24d09	-0.021765249
94	0x3b0bef73	0.002135244
95	0xbc74b1a1	-0.014934928
96	0x3cd8467a	0.026400793
97	0xbca9f8ae	-0.020748463
98	0x3caef584	0.021357305
99	0x3bfbfc27	0.007689971
100	0xbb864d2e	-0.004098556
101	0xbd45af57	-0.04826292
102	0x3c9b22bc	0.018937461
103	0x3c9f9b22	0.019483153
104	0xbb88e247	-0.004177365
105	0x3c13373f	0.00898534
106	0x3c3c2aac	0.011484783
107	0xbd22df8e	-0.03976398
108	0xbd5d33e3	-0.05400456
109	0xbd121422	-0.03566373
110	0x3d8bc660	0.068249464
111	0xbd35ccc5	-0.044384737
112	0x3cb63741	0.022243144
113	0xbd6fcedb	-0.058546882
114	0xbc9d90df	-0.019234119
115	0xbd1a1e3f	-0.0376265
116	0xbba7ae95	-0.0051172473
117	0x3d069e79	0.032865975
118	0x3d2b7b9d	0.041865934
119	0x3cefb0ca	0.029259104
120	0xbcea9564	-0.028635688
121	0xbd2130d4	-0.039353207
122	0x3c557162	0.013027521
123	0xbaa44c8c	-0.001253502

running_mean f4 [124]
0	0x428b90aa	69.78255
1	0x462f75c7	11229.444
2	0x40c3ffae	6.124961
3	0x40b25ab1	5.5735707
4	0x42c829ac	100.08139
5	0x405a92a3	3.4152
6	0x4045ddc8	3.0916615
7	0x40618852	3.5239453
8	0x403c7005	2.9443371
9	0x3fce6476	1.6124408
10	0x43daaefd	437.3671
11	0x4237d81c	45.961044
12	0x44123d98	584.9624
13	0x4085b0b1	4.177819
14	0x3dcf8a24	0.1013377
15	0x44928857	1172.2606
16	0x43af2015	350.25064
17	0x40f577f4	7.6708927
18	0x44bf45d5	1530.1823
19	0x3edc2964	0.4300033
20	0x3d651201	0.055925373
21	0x3fcb96a2	1.5905344
22	0x3ec5a5cb	0.38603052
23	0x40376a40	2.86586
24	0x3f85dac9	1.0457393
25	0x40615cfa	3.5212998
26	0x40d2042b	6.563009
27	0x3e126490	0.14296174
28	0x3f1ca9a5	0.61196357
29	0x3fe9d2d7	1.8267468
30	0x3fe1a40b	1.7628187
31	0x3fe42e6b	1.7826666
32	0x43ed7138	474.88452
33	0x403310df	2.7979047
34	0x4032df06	2.7948623
35	0x3e14c206	0.14527139
36	0x42c23093	97.09487
37	0x42518bd0	52.386536
38	0x41b8a705	23.081553
39	0x40549151	3.3213694
40	0x41854866	16.66035
41	0x40101340	2.251175
42	0x3c6bc70e	0.01439072
43	0x42344ea5	45.0768
44	0x4218e231	38.22089
45	0x41c0ba66	24.091015
46	0x41f2043e	30.252071
47	0x41fd6cf3	31.678198
48	0x4043f728	3.0619602
49	0x3f9f92cc	1.2466674
50	0x3dde2b5e	0.108481154
51	0x3ef30bb2	0.4746986
52	0x3e2fa5c0	0.17153072
53	0x3f32fb86	0.69915044
54	0x3e4ddad1	0.20103003
55	0x3d904869	0.07045061
56	0x3cffb27d	0.03121304
57	0x3d84bcbe	0.06481312
58	0x3d084e76	0.03327795
59	0x3c8fa6ef	0.017535655
60	0x3dcbcf46	0.09951644
61	0x3c9685d0	0.018374354
62	0x3de86e99	0.1134922
63	0x3f7218bb	0.94568986
64	0x3e702f3a	0.23455516
65	0x3d96a467	0.07355576
66	0x3da5b632	0.080913916
67	0x3d3b8d63	0.045789134
68	0x3ebe2f6c	0.37145555
69	0x3e1c6780	0.15273857
70	0x3e24ed8a	0.16106239
71	0x3e1e56e5	0.15462835
72	0x3dcdd6cf	0.10050737
73	0x3d11535f	0.0354799
74	0x3d01b797	0.031669226
75	0x3cfc18dc	0.030773573
76	0x3c60be1a	0.013717199
77	0x3cab2d65	0.02089567
78	0x3c7c0ed6	0.015384397
79	0x3c9ef563	0.019404119
80	0x3f49e399	0.7886291
81	0x3e0ddb55	0.138532
82	0x3d23e422	0.040012486
83	0x3ca5c6fe	0.020236488
84	0x3dc5e49b	0.09662744
85	0x3d0b6aa5	0.03403725
86	0x3d90927f	0.07059192
87	0x3d65c10f	0.05609232
88	0x3cc6ac68	0.024252132
89	0x3beb8114	0.007187018
90	0x3d05f1d1	0.032701317
91	0x3e16783a	0.146943
92	0x3d6f526d	0.058428217
93	0x3cdcb2f0	0.026940793
94	0x3d64b47c	0.055836186
95	0x3d9aadf7	0.075527124
96	0x3cf8aee7	0.030356837
97	0x3c8a5111	0.016884359
98	0x3d53f1d4	0.051744297
99	0x3d129165	0.03578319
100	0x3d84fd21	0.06493593
101	0x3ca5672e	0.020190801
102	0x3ccc8ac6	0.024968516
103	0x3c904b05	0.017613897
104	0x3f197ebb	0.59959
105	0x3dbea4e1	0.09308792
106	0x3ed82160	0.42212963
107	0x3bd674a9	0.0065446687
108	0x3eefefe6	0.46862715
109	0x3c7b49ee	0.01533745
110	0x3ccd3b00	0.025052547
111	0x3f6c4c5f	0.92304033
112	0x3d8e76d9	0.06956262
113	0x3e833b36	0.25631112
114	0x3d77c0db	0.060486656
115	0x3cba7f0c	0.022765659
116	0x3d25d925	0.04049029
117	0x3da44047	0.080200724
118	0x3cc6702e	0.024223413
119	0x3f5e93f1	0.8694449
120	0x3c5d68b9	0.013513737
121	0x3f55991d	0.8343676
122	0x3be3d2da	0.0069526257
123	0x3da58a26	0.0808299

running_var f4 [124]
0	0x43e34f4b	454.61948
1	0x4d461ff5	2.0774894e+08
2	0x3ffe300a	1.985841
3	0x3fa112cd	1.2583863
4	0x46e37b1b	29117.553
5	0x3eb0c141	0.3452244
6	0x3e13cf8f	0.14434646
7	0x3f379775	0.7171548
8	0x3e8e67b8	0.27813506
9	0x3f8d2cd7	1.1029309
10	0x4847cc52	204593.28
11	0x46ca5e2d	25903.088
12	0x4848fca7	205810.61
13	0x3f648a3e	0.8927344
14	0x3e0ce44d	0.13758965
15	0x480bd285	143178.08
16	0x483ea383	195214.05
17	0x45560562	3424.3364
18	0x487a63be	256398.97
19	0x3e8ab5da	0.27091867
20	0x3d5eda9e	0.05440771
21	0x3e90023c	0.28126705
22	0x3e7d736a	0.24751058
23	0x3f1fb75c	0.6238916
24	0x3d46f184	0.04857017
25	0x3ef2a6a2	0.47392756
26	0x40287966	2.6324096
27	0x3ec8a240	0.39186287
28	0x3ed22f1f	0.41051576
29	0x4051b3c5	3.2765973
30	0x3f548a32	0.8302337
31	0x3f0cbc3d	0.5497473
32	0x472c0e66	44046.4
33	0x3f0f8e4a	0.5607649
34	0x3f0e80e5	0.5566543
35	0x3e81e2ea	0.25368434
36	0x468b25d2	17810.91
37	0x459a6d0a	4941.63
38	0x457c3d76	4035.8413
39	0x445cefe1	883.7481
40	0x455030e2	3331.0552
41	0x44a4a616	1317.1902
42	0x3d701c1f	0.05862057
43	0x4868c5d7	238359.36
44	0x446dc4e0	951.0762
45	0x43cf2a24	414.32922
46	0x440edf8e	571.49304
47	0x437a7d84	250.4903
48	0x403404a5	2.8127835
49	0x3f2f09e8	0.6837449
50	0x3e3085e1	0.17238571
51	0x3ecb73ba	0.3973673
52	0x3e92788a	0.2860759
53	0x3e58d547	0.21175109
54	0x3e24e570	0.16103148
55	0x3d86a631	0.06574667
56	0x3d0a75b7	0.033803668
57	0x3da10e56	0.078640625
58	0x3d04fd4a	0.032468118
59	0x3c8c5585	0.017130623
60	0x3db78241	0.08960391
61	0x3c93a783	0.018024212
62	0x3e494b59	0.19657649
63	0x3d83089d	0.06398127
64	0x3e8bed03	0.27329263
65	0x3e0a0c34	0.13481218
66	0x3d977d6c	0.07396969
67	0x3d351052	0.044205017
68	0x3e6f9cb7	0.23399626
69	0x3e05c15b	0.1306204
70	0x3e0be168	0.13660204
71	0x3e05dd2a	0.13072649
72	0x3dba2f80	0.09091091
73	0x3d0b56c2	0.034018286
74	0x3cfc21aa	0.030777771
75	0x3cf28801	0.029605867
76	0x3c5cf50c	0.013486158
77	0x3ca76d1c	0.02043777
78	0x3c77e2d4	0.015129764
79	0x3c9dac7e	0.01924729
80	0x3e2ca4b0	0.16859698
81	0x3df3c2ef	0.11902415
82	0x3d1e7b63	0.03869189
83	0x3ca3e746	0.02000774
84	0x3db3808a	0.08764751
85	0x3d070984	0.03296806
86	0x3d866680	0.06562519
87	0x3d5ba9a9	0.053628597
88	0x3cc39478	0.023874506
89	0x3be9bc48	0.0071330406
90	0x3d01cc4a	0.031688966
91	0x3e0053b3	0.12531929
92	0x3d63b0f4	0.055588678
93	0x3cd713fa	0.026254643
94	0x3d5a27d5	0.053260643
95	0x3d8f85de	0.07007955
96	0x3cf4531f	0.029824791
97	0x3c884348	0.016633645
98	0x3d4a3ca7	0.04937425
99	0x3d0d7ac0	0.03454089
100	0x3d79ed15	0.061017115
101	0x3ca3b8d3	0.019985592
102	0x3cc6733f	0.024224875
103	0x3c8e546b	0.017374238
104	0x3e743f11	0.23852183
105	0x3dac9adc	0.084279746
106	0x3e7bab29	0.24577011
107	0x3bd53b59	0.006507319
108	0x3e7d61ca	0.24744335
109	0x3c767ebb	0.015044863
110	0x3cc71683	0.024302727
111	0x3d92ee5f	0.07174372
112	0x3d85b221	0.06528116
113	0x3e430323	0.19044165
114	0x3d69938b	0.057025474
115	0x3cb60994	0.022221364
116	0x3d20a917	0.039223757
117	0x3d9756c1	0.07389594
118	0x3cc3c8c9	0.023899453
119	0x3dea615d	0.11444352
120	0x3c5a18ff	0.013311624
121	0x3e0df91b	0.13864557
122	0x3be20276	0.006897266
123	0x3d9866e0	0.07441497

weight f4 [58, 124]
0	0x3d0ef6d0	0.034903347
1	0xbd8bea2b	-0.06831773
2	0xbd9b1650	-0.07572615
3	0xbd8c8cec	-0.06862816
4	0x3cf4ad34	0.029867746
5	0x3d2585c7	0.040410783
6	0xbdd65b18	-0.104665935
7	0xbb870e2b	-0.004121562
8	0x3cc768a9	0.024341898
9	0x3d0fd374	0.035113767
10	0x3d7cf69d	0.061758626
11	0x3d7f7d51	0.06237537
12	0xbd9b69e9	-0.0758856
13	0x3dabac92	0.083825245
14	0xbc21be38	-0.009872012
15	0xbe01472f	-0.1262481
16	0xbdc0c780	-0.094130516
17	0xbcc3cc40	-0.023901105
18	0x3cf03136	0.02932034
19	0x3d8f0eb5	0.06985227
20	0x3dba9ac2	0.09111549
21	0x3dc35e25	0.09539441
22	0x3c084472	0.0083171
23	0x3db812ed	0.08987985
24	0xbd2a70ca	-0.04161147
25	0x3d8b96a1	0.068158396
26	0xbc306cd8	-0.010768138
27	0x3b596962	0.0033174385
28	0xbcbb61dc	-0.022873811
29	0xbda398a6	-0.079881
30	0x3aea40cb	0.0017872093
31	0xbd2b7ff8	-0.041870087
32	0x3d1cd2f9	0.038287137
33	0x3d888526	0.06666021
34	0xbc706139	-0.014671617
35	0xbc1b9f76	-0.009498468
36	0x3c59fcba	0.013304884
37	0xbd423837	-0.047416892
38	0x3b5f336a	0.0034057745
39	0x3d272286	0.04080441
40	0x3d3cc540	0.04608655
41	0xbd0efa23	-0.034906518
42	0xbda1d35d	-0.079016425
43	0xbdde5c2d	-0.10857425
44	0xbc8b2a89	-0.016988056
45	0xbd643868	-0.055717856
46	0xbd27d8c3	-0.040978204
47	0x3db9c5a9	0.09070904
48	0x3d650bd7	0.055919494
49	0x3d7fd233	0.06245632
50	0x3d56a944	0.052407518
51	0x3d5b1e78	0.053495854
52	0xbd364cb8	-0.04450676
53	0x3da82154	0.08209482
54	0xbdc49f44	-0.0960069
55	0xbc192b8c	-0.009348761
56	0x3e2c1bec	0.16807526
57	0x3d5af1f4	0.0534534
58	0x3de88a29	0.11354477
59	0xbca9e588	-0.020739332
60	0x3d8203e3	0.063483976
61	0x3c3492b5	0.011021306
62	0x3c234893	0.0099660335
63	0x3d2ef2e7	0.04271212
64	0xbd55596c	-0.052087232
65	0x3cb76ff0	0.022392243
66	0xbdeb7e0e	-0.114986524
67	0x3b8a90e1	0.0042286967
68	0xbc873f5d	-0.016509706
69	0xbd081c2b	-0.033229988
70	0x3a1b69f4	0.0005928569
71	0x3d0f1e9a	0.034941293
72	0xbda695bb	-0.081340276
73	0xbdaca2c2	-0.08429481
74	0x3c02fdb1	0.007995055
75	0x3cf46820	0.029834807
76	0xbdcb208d	-0.09918318
77	0xbd034228	-0.032045513
78	0xbce5a285	-0.028031597
79	0xbce89186	-0.028389703
80	0xbda16522	-0.07880618
81	0xbd9cc544	-0.07654813
82	0x3d174692	0.036932535
83	0x3da49c99	0.08037681
84	0x3df62b64	0.12019995
85	0xbc5ec421	-0.013596565
86	0xbd59a359	-0.053134296
87	0x3df1cbaf	0.11806428
88	0x3c409f69	0.011756756
89	0x3c8c498a	0.01712491
90	0x3cee32c8	0.029076949
91	0x3c0b1441	0.008488716
92	0x3d9b44e9	0.07581503
93	0xbd181e0b	-0.037138026
94	0xbdf3d55d	-0.1190593
95	0xbcdfb909	-0.027309911
96	0x3c509b2d	0.012732309
97	0xbd9d4880	-0.07679844
98	0xbcde6333	-0.027146911
99	0x3d1fd300	0.039019585
100	0x3c3ece2a	0.011645833
101	0xbccd3574	-0.025049902
102	0xbcd00df4	-0.025397278
103	0xbc08f2cf	-0.008358671
104	0xbd311cf4	-0.043240502
105	0xbd539b59	-0.051661823
106	0x3be0cd46	0.006860408
107	0x3cd49b77	0.025953038
108	0x3db8a121	0.09015108
109	0xbc1b6ea1	-0.009486825
110	0x3d3e1c1f	0.046413537
111	0xbc8474cc	-0.016168974
112	0xbc8323f3	-0.016008353
113	0xba1703e8	-0.0005760775
114	0x3d97655b	0.07392379
115	0xbd477697	-0.04869708
116	0xbd9c99bb	-0.07646509
117	0x3c32f436	0.010922482
118	0x3dc8ccab	0.09804662
119	0xbda017d7	-0.07817047
120	0x3db4d8aa	0.08830388
121	0xbda03183	-0.078219436
122	0xbd9359d1	-0.071948655
123	0x3d8ad588	0.06779009
124	0xbc898e99	-0.016791629
125	0xbb0ac282	-0.0021173065
126	0xbe2e8f9b	-0.17046969
127	0x3d0fccd4	0.03510745
128	0xbd1f96d8	-0.038962215
129	0xbce671c9	-0.028130429
130	0xbd172fbe	-0.036910765
131	0xbce5e238	-0.028061971
132	0x3bcb767e	0.0062091937
133	0xbd621124	-0.055192128
134	0x3d262f1d	0.040572274
135	0xbdb879e3	-0.09007623
136	0x3d3d65e0	0.046239734
137	0x3da20588	0.07911211
138	0xbcb5274f	-0.02211347
139	0xbd9dfb48	-0.07713944
140	0x3bb4e2e6	0.0055202125
141	0x3d9bfbba	0.076163724
142	0xbde0b1bb	-0.109713994
143	0xbc59f531	-0.013303087
144	0xbc6b1a0b	-0.014349471
145	0xbc8fa7fb	-0.017536154
146	0x3d9e4602	0.07728197
147	0xbd3faa85	-0.04679348
148	0x3e27e990	0.16397691
149	0x3cbf107d	0.023323292
150	0xbd873e98	-0.06603736
151	0x3cea0114	0.028564967
152	0xbd800f74	-0.062529474
153	0xbdb2d1e5	-0.087314405
154	0x3cba4d6c	0.022741996
155	0xbdbf6c0f	-0.093467824
156	0xbd0529ee	-0.03251069
157	0x3cbe0cb4	0.023199417
158	0xbdc6e83d	-0.09712265
159	0xbd0b03d9	-0.033939216
160	0xbc3ff782	-0.011716725
161	0xbd2d6449	-0.042331968
162	0x3d0d5d7b	0.034512978
163	0xbc0e7025	-0.0086937295
164	0x3d41f0c9	0.04734877
165	0xbb6a0d64	-0.0035713548
166	0xbb9def3d	-0.004819779
167	0x3cedff47	0.02905239
168	0xbcd3e52c	-0.025866114
169	0xbd392d47	-0.045209195
170	0xbd4d7e44	-0.050169244
171	0xbb6caff2	-0.0036115614
172	0x3de9a2ba	0.11407991
173	0x3d912e37	0.07088893
174	0xbcbcfcd1	-0.023069771
175	0xbd8836b3	-0.06651058
176	0x3d8a9541	0.06766749
177	0xbcabaeda	-0.0209574
178	0x3db799c3	0.089648746
179	0xbd036a60	-0.03208387
180	0x3c79e212	0.015251653
181	0x3d0be189	0.034150634
182	0x3d6763a7	0.05649152
183	0x3c94c4ca	0.018160243
184	0x3d493c5b	0.049129825
185	0x3d8d640a	0.069038466
186	0xbd7633af	-0.060107883
187	0xbdaf27d4	-0.085525185
188	0x3cd388dc	0.025822096
189	0xbd45a6c3	-0.04825474
190	0x3d1361f2	0.03598208
191	0x3de542fc	0.11194417
192	0xbd5832cf	-0.05278283
193	0x3db2ac2d	0.08724246
194	0xbd985c7d	-0.07439516
195	0xbb9b8fa4	-0.004747348
196	0xbd6e83d2	-0.058231182
197	0xbd904eaf	-0.07046258
198	0xbd48ea45	-0.04905154
199	0x3da56594	0.08076015
200	0xbdbab9c1	-0.09117461
201	0xbda76c5f	-0.08174967
202	0x3d5aa1b5	0.053376872
203	0x3dddc3e7	0.10828381
204	0x3d9eff72	0.07763566
205	0xbdab68a4	-0.08369568
206	0xbc403ae2	-0.011732789
207	0x3d33346b	0.04375116
208	0x3cec889b	0.028873732
209	0xbd515ca1	-0.05111373
210	0xbd8551d4	-0.06509748
211	0xbd0f50c6	-0.03498914
212	0xbd38c1c7	-0.045106675
213	0xbd46592f	-0.048424896
214	0xbd08c296	-0.033388697
215	0x3e1d7620	0.15377092
216	0xbd00f514	-0.031483725
217	0xbbd1d7bd	-0.006403892
218	0x3c62d52e	0.013844771
219	0x3dadc4aa	0.08484776
220	0x3da40751	0.08009208
221	0x3dbe3dc5	0.09289125
222	0xbcad02f5	-0.021119574
223	0xbd0ba9bf	-0.03409743
224	0xbd3c9baa	-0.04604689
225	0x39fdaad4	0.00048383197
226	0xbd1b2ef2	-0.037886567
227	0xbd2b5610	-0.041830122
228	0x3c2372b4	0.009976078
229	0x3c5c41bd	0.013443408
230	0x3ceee117	0.029160066
231	0xbccf0dca	-0.02527513
232	0xbda68f7e	-0.08132838
233	0xbda38ad7	-0.07985466
234	0xbd7d36ef	-0.061819967
235	0x3d1aa054	0.037750557
236	0xbd205504	-0.039143577
237	0x3d9ef677	0.07761853
238	0x3ca8ac8a	0.020590086
239	0x3ca17751	0.019710215
240	0xbd327fd1	-0.043578926
241	0x3d99dd38	0.07512897
242	0x3c91212d	0.017716015
243	0x3d8a219c	0.06744692
244	0x3be3a698	0.0069473498
245	0xbd8d9d14	-0.06914726
246	0x3d620ce4	0.055188075
247	0x3d380f9c	0.04493676
248	0x3d4a9bfa	0.049465157
249	0xbd15cb5d	-0.036570895
250	0x3ca1c620	0.019747794
251	0x3d215c22	0.039394505
252	0xbdbcf0f1	-0.092256434
253	0xbd7bcc95	-0.0614744
254	0x3d0d8f21	0.034560326
255	0xbb7a27d2	-0.0038170707

bias f4 [58]
0	0xbdc968e1	-0.09834457
1	0xbda025d3	-0.078197144
2	0xbd6aa00e	-0.057281546
3	0x3d806b5b	0.062704764
4	0x3c695cac	0.014243286
5	0x3d6546dd	0.055975784
6	0x3c66aa5a	0.014078701
7	0x3c298a76	0.010347953
8	0xbd79dbf5	-0.061000783
9	0xbdb9ac2a	-0.09066041
10	0x3d6ea3eb	0.058261793
11	0xbcfe8294	-0.031068124
12	0x3da1f282	0.07907583
13	0xba0f1607	-0.00054582994
14	0xbd5e4a4d	-0.054270077
15	0xbd2f0e3a	-0.042738177
16	0x3c943cc2	0.018095378
17	0xbd97e3e6	-0.07416515
18	0x3dcac8d4	0.09901586
19	0x3cd53cb3	0.02602992
20	0xbd03ac7a	-0.03214691
21	0xbd16e519	-0.03683958
22	0xbd1b5fa0	-0.037932992
23	0x3dbbe054	0.091736466
24	0x3d3b0ba5	0.045665402
25	0xbd4cf9e2	-0.050042994
26	0xbd1e0f44	-0.038588777
27	0x3d07d3a6	0.033160828
28	0xbd8e8c51	-0.06960357
29	0x3d0313f6	0.032001458
30	0x3c8e6426	0.017381739
31	0xbcf153e0	-0.02945894
32	0xbcc5a342	-0.024125699
33	0xbb76bfe4	-0.0037650997
34	0x3cd763d3	0.026292717
35	0xbd014669	-0.03156129
36	0xbb85aa07	-0.0040791067
37	0xbd974219	-0.07385654
38	0xbe46545b	-0.19368117
39	0xbda712cb	-0.08157881
40	0x3d4a1060	0.049332023
41	0x3d5e1ddb	0.05422769
42	0xbbba3776	-0.005682881
43	0xbd7278df	-0.059197303
44	0xbd77dde1	-0.060514335
45	0x3d491af9	0.04909799
46	0x3bf1084d	0.007355726
47	0xbd9b58d0	-0.07585299
48	0x3d379730	0.044821918
49	0x3b87672d	0.0041321726
50	0x3d24c326	0.04022517
51	0xbd64b3a7	-0.055835392
52	0x3d5a92ec	0.053362772
53	0xbd83b9cd	-0.06431923
54	0xbd29d620	-0.04146397
55	0x3a6bc845	0.0008994381
56	0xbc863a01	-0.01638508
57	0xbd164822	-0.036689885

weight f4 [58]
0	0x3f4c48cf	0.797986
1	0x3f4e07cd	0.80480653
2	0x3f3b79bb	0.7323262
3	0x3f4d407d	0.80176526
4	0x3f53b05a	0.82690966
5	0x3f439796	0.76403177
6	0x3f565dcf	0.8373689
7	0x3f595fb6	0.8491167
8	0x3f5e3a10	0.86807346
9	0x3f5d4797	0.8643736
10	0x3f4ae035	0.7924836
11	0x3f4e3169	0.80544144
12	0x3f521f36	0.82078874
13	0x3f4dbf80	0.8037033
14	0x3f515ee7	0.81785434
15	0x3f5e42b0	0.8682051
16	0x3f52aedf	0.8229808
17	0x3f55a4d1	0.83454615
18	0x3f53c542	0.82722867
19	0x3f4d974e	0.80309
20	0x3f3bacf5	0.73310786
21	0x3f59d281	0.8508683
22	0x3f53cae1	0.82731444
23	0x3f531b7f	0.8246383
24	0x3f6b6cf3	0.9196312
25	0x3f687bd5	0.9081395
26	0x3f55a355	0.8345235
27	0x3f530af8	0.8243861
28	0x3f57b7e1	0.8426495
29	0x3f5a1d07	0.8520054
30	0x3f5826e1	0.84434325
31	0x3f579595	0.8421262
32	0x3f47f105	0.7810214
33	0x3f527b64	0.8221953
34	0x3f51f2ac	0.8201091
35	0x3f52e3de	0.8237895
36	0x3f3bd0ce	0.73365486
37	0x3f4fefe8	0.8122544
38	0x3f7bafc1	0.98315054
39	0x3f5a0f56	0.8517965
40	0x3f4f87cb	0.8106658
41	0x3f62a29d	0.8852938
42	0x3f51ecb1	0.8200179
43	0x3f44a67b	0.7681653
44	0x3f514201	0.8174134
45	0x3f4e0f5c	0.80492187
46	0x3f60fa4b	0.87881917
47	0x3f5c1a69	0.859778
48	0x3f4a1d42	0.78950894
49	0x3f5952eb	0.8489215
50	0x3f5c3a52	0.8602649
51	0x3f5c6dc7	0.86105007
52	0x3f5dcb8c	0.8663871
53	0x3f592d80	0.8483505
54	0x3f671422	0.90265095
55	0x3f53ad64	0.8268645
56	0x3f5e9057	0.86938995
57	0x3f72a36f	0.9478063

bias f4 [58]
0	0xbd50fd49	-0.0510228
1	0xbd291705	-0.04128172
2	0xbd8881e5	-0.066654004
3	0xbd0c1bd2	-0.03420622
4	0xbd74fc96	-0.059811197
5	0xbd0aab05	-0.033854503
6	0xbc6884fe	-0.014191864
7	0x3cf622a3	0.030045813
8	0x3cd3beae	0.02584776
9	0xbe0ffaa0	-0.1406045
10	0xbc70ad58	-0.014689766
11	0x3e1ab549	0.15108217
12	0xbdee0821	-0.11622644
13	0x3e01e3f9	0.12684621
14	0xbc9c0094	-0.019043244
15	0xbd74ff95	-0.059814055
16	0x3bb69388	0.0055717863
17	0xbd7cb52f	-0.061696228
18	0xbd814d05	-0.063135184
19	0xbd8c663c	-0.06855437
20	0xbc56e646	-0.013116425
21	0x3c996a0c	0.018727325
22	0x3d5d196e	0.05397933
23	0xbc9ef0e0	-0.019401968
24	0xbe0d297a	-0.13785353
25	0xbc202036	-0.009773305
26	0xbbe45b42	-0.0069688866
27	0xbe0ff999	-0.14060058
28	0xbdbf7c1f	-0.09349846
29	0xbe0fea5f	-0.14054249
30	0xbe5de4fd	-0.21669383
31	0xbd90d6e4	-0.07072237
32	0x3d05b68e	0.0326448
33	0xbd2a29d5	-0.0415438
34	0x3c523add	0.012831417
35	0x3c4bbdae	0.01243536
36	0xbda358d0	-0.07975924
37	0xbd24d420	-0.04024136
38	0xbe4a86c3	-0.1977797
39	0xbe0778eb	-0.1322972
40	0xbcc8dcd6	-0.024519365
41	0xbe1c9280	-0.1529026
42	0xbdc74352	-0.09729637
43	0x3b400322	0.0029298742
44	0xbe1681a1	-0.14697887
45	0xbdb92a04	-0.09041217
46	0x3b088c30	0.0020835511
47	0xbc699ce8	-0.014258601
48	0xbdb60a6a	-0.08888705
49	0xbd8ad003	-0.06777956
50	0xbdefbe8e	-0.11706267
51	0xbe045707	-0.12923823
52	0xbd85884f	-0.065201394
53	0xbcbfb061	-0.023399534
54	0xbe067dae	-0.1313388
55	0xbca14874	-0.019687869
56	0x3d02ff80	0.031981945
57	0xbca75df0	-0.020430535

running_mean f4 [58]
0	0x3dbc5532	0.09195937
1	0x3e1758f8	0.14780033
2	0x3da2ed7c	0.07955453
3	0x3e267434	0.16255265
4	0x3e24c6b9	0.16091432
5	0x3e3c0f1d	0.1836514
6	0x3e28d894	0.16488868
7	0x3e58f1e6	0.21186027
8	0x3e12c5cd	0.14333268
9	0x3d9a7922	0.075426355
10	0x3e6c4913	0.2307475
11	0x3e204bd7	0.1565393
12	0x3ed7f6f8	0.4218061
13	0x3e9a04a7	0.30081674
14	0x3dbf3e6b	0.09338077
15	0x3dc8390e	0.09776507
16	0x3e54ee80	0.20794106
17	0x3dc45554	0.095865875
18	0x3eb01716	0.34392613
19	0x3e6b55f7	0.22982012
20	0x3e76eb9d	0.24113317
21	0x3e71bff0	0.23608375
22	0x3e0b3edb	0.13598196
23	0x3e8c38f0	0.2738719
24	0x3ea82adc	0.328452
25	0x3e86f8e4	0.26361763
26	0x3e456a6a	0.19278875
27	0x3e23247a	0.15931883
28	0x3deb2d6a	0.114832714
29	0x3e4af478	0.1981982
30	0x3df7141d	0.12064383
31	0x3e817761	0.2528639
32	0x3df48fbb	0.11941477
33	0x3e95c3bd	0.292509
34	0x3e72cc85	0.2371083
35	0x3de138f7	0.10997193
36	0x3e0d3321	0.13789035
37	0x3e058d79	0.13042249
38	0x3d764756	0.060126625
39	0x3dfb5b56	0.1227328
40	0x3e63e4a1	0.22255184
41	0x3e5abaff	0.21360396
42	0x3e5891b6	0.21149334
43	0x3d9031be	0.070407376
44	0x3e0fd970	0.1404779
45	0x3e39ed7a	0.18156996
46	0x3e9353a8	0.28774762
47	0x3e227c9a	0.15867844
48	0x3e213e68	0.15746462
49	0x3e3cbef8	0.18432224
50	0x3e598914	0.21243697
51	0x3e977f12	0.29589134
52	0x3ea365c2	0.31913573
53	0x3de6b413	0.11264815
54	0x3de3dac6	0.11125712
55	0x3ea42b02	0.32064062
56	0x3e6e9a3c	0.23301023
57	0x3e03b81e	0.12863204

running_var f4 [58]
0	0x3e2d9634	0.16951829
1	0x3e8ca3df	0.27468774
2	0x3e794028	0.2434088
3	0x3e6fe682	0.23427776
4	0x3e70490f	0.2346537
5	0x3ea4bc30	0.32174826
6	0x3e99b9a0	0.30024433
7	0x3e9f9490	0.31168032
8	0x3e8be5da	0.273238
9	0x3e518308	0.2046014
10	0x3edd4335	0.43215337
11	0x3e5bf2a0	0.21479273
12	0x3f67862e	0.90439117
13	0x3f14a1d8	0.58059454
14	0x3e836f90	0.25671053
15	0x3e5db0a6	0.21649417
16	0x3ea7a71d	0.32744685
17	0x3e5786b7	0.21047483
18	0x3f0d70f5	0.55250484
19	0x3f27172f	0.6526975
20	0x3ed66297	0.41872093
21	0x3ee7c9b3	0.45271072
22	0x3e683e4d	0.22680016
23	0x3eebd5d1	0.46061566
24	0x3f26c335	0.6514161
25	0x3ee5e9e5	0.4490501
26	0x3ea87a36	0.3290574
27	0x3e93f064	0.2889434
28	0x3e8404d8	0.25784945
29	0x3ec81277	0.39076588
30	0x3e67b580	0.2262783
31	0x3eb35c78	0.35031486
32	0x3e45bee7	0.19311105
33	0x3f0e9005	0.55688506
34	0x3ee207aa	0.44146472
35	0x3e420bda	0.18949834
36	0x3e58dc53	0.21177797
37	0x3e7f4949	0.249303
38	0x3ec239c1	0.37934688
39	0x3e81aecb	0.2532867
40	0x3ecac9c6	0.39607066
41	0x3ed5a658	0.41728473
42	0x3edbd6c6	0.42937297
43	0x3de8db07	0.11369901
44	0x3e8b377a	0.27190763
45	0x3ea9655c	0.33085144
46	0x3f4f39a3	0.8094732
47	0x3eb05442	0.34439284
48	0x3e82062c	0.25395334
49	0x3ed499a7	0.41523477
50	0x3f02fe25	0.51169044
51	0x3f5967d4	0.84924054
52	0x3f041fff	0.5161132
53	0x3e6adc3d	0.22935577
54	0x3ec96a10	0.39338732
55	0x3f123657	0.57114166
56	0x3ea409b0	0.3203864
57	0x3e947a9a	0.28999788

weight f4 [112, 58]
0	0xbbade981	-0.005307377
1	0x3c1cdb1e	0.009573726
2	0x3cc1debb	0.023665776
3	0xbd54b7d3	-0.05193312
4	0x3d5a9ed4	0.053374127
5	0xbddd08d0	-0.107926965
6	0xbd17af6c	-0.03703253
7	0xbd76e119	-0.060273264
8	0x3df68041	0.12036181
9	0xbbb9e696	-0.00567324
10	0x3c21c537	0.00987368
11	0xbd6348a2	-0.05548919
12	0xbdcead92	-0.100917
13	0x3dd45972	0.10368623
14	0x3c0b7d0d	0.008513701
15	0xbe027281	-0.12738992
16	0x3c554b79	0.013018482
17	0x3d1cf690	0.038321078
18	0xbd9aee51	-0.075649865
19	0x3d7951b8	0.06086895
20	0x3cc2cda1	0.023779692
21	0x3e0855cc	0.13313979
22	0xbdbd9b7b	-0.09258171
23	0x3dd5fa66	0.1044815
24	0xbd3f3b39	-0.04668734
25	0xbe026c46	-0.12736616
26	0x3d06caef	0.032908376
27	0xbd6ef42c	-0.05833833
28	0x3b588f33	0.0033044338
29	0xbd24b1ce	-0.04020863
30	0xbe11616f	-0.14197324
31	0x3d87862a	0.06617387
32	0x3c0477a4	0.008085165
33	0x3df7fe9a	0.12109108
34	0xbcfa837b	-0.030580273
35	0xbdd35adf	-0.10320067
36	0xbda3a3d7	-0.07990234
37	0xbd1f642a	-0.038913883
38	0xba96c480	-0.0011502653
39	0x3d81038e	0.06299506
40	0x3d52bb67	0.051448252
41	0xbdb2ed31	-0.08736647
42	0x3d51c473	0.05121274
43	0xbc2437f8	-0.01002311
44	0x3d9c8853	0.07643189
45	0x3baade1a	0.005214465
46	0x3dbf8db6	0.09353201
47	0x3bc8aa54	0.0061238203
48	0x3e0f4bdd	0.13993783
49	0x3dafedbe	0.085902676
50	0xbdc9f059	-0.09860296
51	0xbd12424e	-0.035707764
52	0x3bc5fea4	0.0060423184
53	0x3dac232e	0.084051475
54	0x3e1adf24	0.15124184
55	0x3d1f8e71	0.038954202
56	0xbcfc3bf9	-0.030790316
57	0xbd933c9b	-0.07189294
58	0x3d27f2c7	0.041003015
59	0xbd181622	-0.037130482
60	0x3d693da1	0.05694354
61	0xbd01282f	-0.031532463
62	0xbda0ccf6	-0.07851593
63	0xbdc83fd2	-0.09777798
64	0xbdaa00c7	-0.083009295
65	0xbe06ef46	-0.13177213
66	0x3de9c460	0.11414409
67	0x3cd2e9ed	0.02574631
68	0xbd9be531	-0.07612074
69	0x3d9224f0	0.071359515
70	0xbe19757d	-0.14986224
71	0x3c8538ce	0.016262438
72	0xbb148d3e	-0.0022667195
73	0x3e2ae4d9	0.16688861
74	0x3d91f794	0.071273
75	0x3d2892e3	0.041155707
76	0xbe08c2c2	-0.13355544
77	0xbd39c01a	-0.045349218
78	0xbd6fd627	-0.05855384
79	0xbdf2e1e1	-0.11859489
80	0xbdbd931f	-0.09256577
81	0xbdd08d5b	-0.101832114
82	0xbc623e82	-0.013808848
83	0xbd7453a2	-0.05965007
84	0xbc56bab0	-0.013106033
85	0x3d4af195	0.049546797
86	0x3dfb4b25	0.12270192
87	0x3d451de8	0.048124224
88	0xbc425b86	-0.011862641
89	0xbcf56f6a	-0.029960353
90	0x3cf08b58	0.02936332
91	0xbdd63958	-0.10460156
92	0x3d98c4f9	0.074594446
93	0xbc516e36	-0.012782624
94	0x3d8959ba	0.06706567
95	0x3bb59fad	0.0055427165
96	0x3dddadf2	0.10824193
97	0x3c75d948	0.015005417
98	0x3d7b2f04	0.061324134
99	0x3df13558	0.11777753
100	0x3dc482b8	0.09595245
101	0xbd57aad9	-0.052653167
102	0x3dbef9fb	0.09325024
103	0xbcbbc47f	-0.022920845
104	0x3dc85b8f	0.097830884
105	0xbdcbce7b	-0.099514924
106	0xbd561d19	-0.052273843
107	0x3dd812c8	0.10550457
108	0xbd81e720	-0.06342912
109	0x3dcc0dea	0.099635914
110	0xbdec7faf	-0.11547791
111	0xbcb7dde1	-0.022444667
112	0x3e167fdd	0.14697213
113	0x3b7b3ea6	0.0038336902
114	0x3d8c67ef	0.06855761
115	0xbe0e9f0f	-0.13927864
116	0x3d8e2a31	0.06941641
117	0xbccbe496	-0.024889272
118	0x3d818b59	0.063254066
119	0x3dc61c21	0.09673334
120	0xbda33daa	-0.07970746
121	0x3d4a2a6a	0.049356855
122	0xbdceb2e9	-0.10092718
123	0x3c9d2db5	0.019186834
124	0x3c2dd6a9	0.010610261
125	0x3d7b9385	0.061419982
126	0x3c8c9e74	0.0171654
127	0x3d7c4d8d	0.061597396
128	0x3c41aa9a	0.01182046
129	0x3cf6c802	0.030124668
130	0x3d8169b2	0.06318988
131	0xbda9259a	-0.08259125
132	0xbce734d7	-0.028223438
133	0x3dc87b4c	0.09789142
134	0xbd75bd60	-0.059995055
135	0xbd03b829	-0.03215805
136	0x3e0a0e16	0.13481936
137	0x3e3bdf58	0.18346918
138	0xbcefbcb5	-0.029264787
139	0xbdb7b001	-0.08969117
140	0xbd92c660	-0.07166743
141	0xbdb7e76a	-0.089796856
142	0x3da2d30a	0.07950409
143	0x3d55677f	0.052100655
144	0xbdafbcbf	-0.08580922
145	0xbd8b5298	-0.06802863
146	0x3d557f5a	0.052123405
147	0xbe08e38d	-0.13368054
148	0x3c4c020d	0.012451661
149	0x3c453f50	0.012039021
150	0xbae7b079	-0.0017676494
151	0xbc43a529	-0.011941233
152	0xbdd3c987	-0.10341173
153	0xbd805ef9	-0.062681146
154	0x3b1e3aa3	0.0024143837
155	0xbd82979e	-0.06376575
156	0xbb069418	-0.0020535048
157	0x3c5065b0	0.012719557
158	0xbd04d2c7	-0.032427575
159	0xbd81ee0d	-0.06344233
160	0x3c867c12	0.016416583
161	0x3d0abdeb	0.033872526
162	0x3e1adf68	0.15124285
163	0x3d2aa50d	0.04166131
164	0xbca615ab	-0.020274004
165	0x3dcc490d	0.09974871
166	0xbd04cdfd	-0.03242301
167	0x3e088813	0.13333158
168	0xbd911fd3	-0.07086148
169	0xbd20eae4	-0.03928651
170	0xbbb06f6d	-0.0053843767
171	0xbde587d6	-0.11207549
172	0xbd47efb5	-0.048812587
173	0x3d60d1df	0.05488765
174	0x3caa5276	0.020791274
175	0x3c99db7e	0.01878142
176	0x3d6f3bf7	0.058406796
177	0xbaf14e80	-0.0018410236
178	0x3d9dd9b2	0.07707538
179	0x3e08031b	0.13282435
180	0x3d0d3773	0.03447671
181	0xbc319d29	-0.010840693
182	0x3d0479e3	0.032342803
183	0xbc4ac71e	-0.012376575
184	0x3d6c41ae	0.057679825
185	0x3d22eac7	0.039774682
186	0x3c8aded3	0.016951954
187	0xbda6519b	-0.08121034
188	0x3d9a9e1d	0.07549689
189	0x3d58744c	0.052845284
190	0xba8c4c87	-0.0010703959
191	0x3dc6a798	0.09699935
192	0xbdeac817	-0.11463945
193	0x3c56cc9f	0.013110309
194	0xbdd96138	-0.10614246
195	0xbd9e7c35	-0.07738534
196	0xbd2cab6f	-0.04215568
197	0xbdb316b3	-0.08744564
198	0xbd59295b	-0.053017955
199	0x3d403276	0.046923123
200	0xbd2df114	-0.04246624
201	0x3dbda186	0.09259324
202	0x3dff8918	0.124773204
203	0x3dcc5721	0.09977556
204	0x3d2fe2e6	0.042940997
205	0x3d260333	0.040530395
206	0x3d2b06a0	0.041754365
207	0xbe09b15e	-0.13446566
208	0xbe01b77b	-0.12667648
209	0x3c1d4afb	0.009600396
210	0xbd014707	-0.031561878
211	0xbd5990ed	-0.053116728
212	0x3be3f2d6	0.0069564385
213	0x3d5a3067	0.053268816
214	0xbd964ef5	-0.073392786
215	0xbd9f7f3e	-0.077879414
216	0xbd915ace	-0.07097398
217	0xbdac10a2	-0.0840161
218	0xbbbf4b2c	-0.0058378186
219	0x3d0fa83d	0.035072554
220	0xbd1ea91d	-0.038735498
221	0xbd93ae86	-0.07211022
222	0xbdb82327	-0.0899108
223	0x3de5316e	0.111910686
224	0x3d85a3bf	0.06525373
225	0xbadda7c2	-0.0016910958
226	0x3d99208b	0.0747691
227	0x3e0cc79f	0.13748024
228	0xbda3fc7c	-0.08007142
229	0xbd27588f	-0.04085594
230	0xba2eb6de	-0.00066648226
231	0x3df4eeaf	0.11959588
232	0xbdb5bcc2	-0.08873893
233	0xbd583e56	-0.052793823
234	0x3dd248b6	0.10267775
235	0xbd890d7f	-0.06692027
236	0x3de412fb	0.11136433
237	0x3df57034	0.11984292
238	0xbd338160	-0.043824553
239	0x3da0959b	0.07841035
240	0x3d3e88cd	0.046517182
241	0xbdd4f579	-0.10398383
242	0x3e601de4	0.21886402
243	0x3ddb619a	0.107119754
244	0xbd459b0e	-0.048243575
245	0xbdc917a2	-0.09818961
246	0x3d708476	0.058720075
247	0xbd5a8eb0	-0.053358734
248	0x3e02926b	0.12751167
249	0xbb74a117	-0.0037327462
250	0x3db5103f	0.08840989
251	0x3ccc58f0	0.024944752
252	0x3c85fd8e	0.016356256
253	0x3c87e753	0.016589796
254	0xbd5dd978	-0.054162472
255	0xbd91ee97	-0.071255855

bias f4 [112]
0	0xbc90f14b	-0.017693182
1	0x3d083a4d	0.033258725
2	0xbde10991	-0.10988153
3	0xbd9557a4	-0.07292107
4	0xba84b760	-0.0010125451
5	0x3d83c6fd	0.064344384
6	0x3dae7cd7	0.08519905
7	0x3ba02caf	0.004888139
8	0xbd034778	-0.03205058
9	0xbb2e75aa	-0.0026620426
10	0xbdce4b03	-0.10072901
11	0xbdacd4b9	-0.08439011
12	0xbe2bb4ba	-0.1676816
13	0xbde34255	-0.11096636
14	0xbd605142	-0.054764993
15	0xbb338c73	-0.0027396947
16	0xbdcbd59b	-0.099528514
17	0xbca4597e	-0.020062204
18	0x3d0b0d18	0.033948034
19	0xbd873402	-0.066017166
20	0xbd8c0788	-0.06837374
21	0xbd8bd6a0	-0.06828046
22	0xbceeda5f	-0.029156862
23	0xbe468015	-0.19384797
24	0xbd86d6bd	-0.06583927
25	0xbb864761	-0.0040978645
26	0x3ca6be57	0.020354433
27	0xbd5b5186	-0.053544544
28	0xbda92110	-0.08258259
29	0xbd3601ed	-0.04443543
30	0xbdc0a3ed	-0.09406266
31	0xbd477740	-0.04869771
32	0xbd84f2f4	-0.06491652
33	0xbd82d1ff	-0.0638771
34	0x3d05b51f	0.032643434
35	0xbe1ed3bf	-0.15510462
36	0xbd5e45f0	-0.054265916
37	0xbd6960fc	-0.056977257
38	0xbc65324b	-0.013989042
39	0xbdb8533b	-0.0900025
40	0x3c14206f	0.009040936
41	0xbd7c82f2	-0.061648317
42	0xbdeb8a8f	-0.11501037
43	0xbdb53abe	-0.08849095
44	0xbd1216f5	-0.035666425
45	0xbdf9f3cd	-0.122047044
46	0xbda2b64e	-0.07944928
47	0x3aa60fdc	0.0012669521
48	0xbb7ee9a6	-0.003889659
49	0xbdf3140e	-0.118690595
50	0xbdd32aca	-0.10310896
51	0xbd3f8c6e	-0.046764784
52	0xbd94dc32	-0.072685614
53	0x3c81d986	0.015850794
54	0xbd962934	-0.073320776
55	0xbd62a105	-0.05532934
56	0xbc813595	-0.01577262
57	0xbd918b8d	-0.07106695
58	0xbd85075a	-0.06495543
59	0xbc4ab484	-0.01237214
60	0xbd4b80e7	-0.049683478
61	0x3ca1319a	0.019676972
62	0xbe00f0ea	-0.12591901
63	0xbd63998a	-0.055566348
64	0xbd23e08e	-0.040009074
65	0x3c3ff4b8	0.01171606
66	0xbdeea05e	-0.11651681
67	0xbc37bf00	-0.011214972
68	0xbd01eada	-0.031718113
69	0xbe0f0ba8	-0.1396929
70	0x3cea7142	0.028618459
71	0xbd296bf6	-0.041362725
72	0xbcfde9fb	-0.03099536
73	0xbd1f1144	-0.038834825
74	0xbd09790b	-0.0335627
75	0xbc935385	-0.017984161
76	0x3b70c094	0.003673588
77	0xbe04708b	-0.12933557
78	0xbd9c80ee	-0.07641779
79	0xbdc5e5b3	-0.09662952
80	0xbdec0142	-0.115236774
81	0xbd475ae4	-0.048670664
82	0xbd21ef43	-0.03953482
83	0xbc411d5a	-0.011786783
84	0xbda69e9d	-0.08135722
85	0xbd24212d	-0.0400707
86	0xbcf02719	-0.029315518
87	0x3bc7896c	0.00608938
88	0xbd278884	-0.040901676
89	0x3cbde74a	0.023181576
90	0xbe19cadb	-0.1501879
91	0xbce49a51	-0.027905615
92	0xbd9cfbf2	-0.07665242
93	0xbd1d039d	-0.038333524
94	0x3bf2452e	0.007393501
95	0xbdaf3721	-0.08555437
96	0xbdc1000d	-0.09423838
97	0xbbcefbe3	-0.0063166483
98	0xbcc8e68e	-0.024524
99	0xbb6512d1	-0.0034953842
100	0xbd8b9f8c	-0.068175405
101	0xbd6abc23	-0.057308327
102	0xbe0e49df	-0.13895367
103	0xbdc7cc7e	-0.09755801
104	0xbdbda5d6	-0.09260146
105	0xbbea72ed	-0.0071548135
106	0xbcbecf76	-0.023292284
107	0xbda68503	-0.08130839
108	0xbe18e00a	-0.14929214
109	0xbd5bf360	-0.053698897
110	0x3bd77fcc	0.006576514
111	0xbd864837	-0.06556743

weight f4 [112]
0	0x3df8f732	0.12156524
1	0x3e209ebb	0.15685551
2	0x3e247585	0.16060455
3	0x3e2ad29c	0.16681904
4	0x3e58ae79	0.21160306
5	0x3e48c1ce	0.1960518
6	0x3de4715d	0.11154435
7	0x3e3aeaac	0.18253583
8	0x3e5b6e78	0.21428859
9	0x3da7fbf8	0.08202356
10	0x3e2ab01d	0.16668744
11	0x3e27e2ef	0.16395162
12	0x3de71895	0.112839855
13	0x3de3cff6	0.1112365
14	0x3e31f050	0.17376828
15	0x3e0887cc	0.13333052
16	0x3e3b3290	0.18281007
17	0x3e6f1b95	0.23350365
18	0x3e2a12ee	0.16608784
19	0x3e4299ce	0.19003984
20	0x3e612e79	0.21990384
21	0x3e13f6f6	0.14449677
22	0x3e450be6	0.1924282
23	0x3e98b8ec	0.29828584
24	0x3e4319e9	0.19052853
25	0x3e4d38b9	0.20041169
26	0x3e64be42	0.22338203
27	0x3e32a1c5	0.17444523
28	0x3e4b41ad	0.19849272
29	0x3e29a82a	0.16568056
30	0x3e34f87a	0.17672911
31	0x3e1d3827	0.15353452
32	0x3e32bbad	0.17454405
33	0x3e320b48	0.17387116
34	0x3e46d924	0.1941877
35	0x3e2423b9	0.16029252
36	0x3e260f44	0.16216761
37	0x3e29ec38	0.16594017
38	0x3da5f316	0.081030056
39	0x3e03ff5b	0.12890379
40	0x3e1ede8b	0.15514581
41	0x3d9d44b5	0.076791205
42	0x3e0f25a1	0.13979198
43	0x3e7a6d0e	0.24455664
44	0x3dea882a	0.114517525
45	0x3e675d03	0.22594075
46	0x3e1a15e0	0.15047407
47	0x3e251f73	0.16125278
48	0x3e345815	0.17611726
49	0x3e44b1d1	0.19208457
50	0x3e79e9a8	0.24405539
51	0x3dec6f3c	0.11544654
52	0x3e6db2c3	0.23212723
53	0x3e15017d	0.14551349
54	0x3e001400	0.1250763
55	0x3e44118a	0.19147316
56	0x3e747466	0.23872527
57	0x3e28c7c5	0.16482456
58	0x3e6eda34	0.23325425
59	0x3e422719	0.18960227
60	0x3e3792dd	0.17927118
61	0x3e6838a8	0.22677863
62	0x3e531dbf	0.20616816
63	0x3e0f7993	0.1401122
64	0x3e387d20	0.18016481
65	0x3e1bce1a	0.1521534
66	0x3e4903bd	0.19630332
67	0x3e2b0539	0.16701211
68	0x3e016d76	0.12639412
69	0x3e61c845	0.22049053
70	0x3e26c983	0.16287808
71	0x3e46708f	0.19378875
72	0x3e1f8e03	0.15581517
73	0x3d929a42	0.071583286
74	0x3e34c053	0.17651491
75	0x3e3c255c	0.18373626
76	0x3e5b229b	0.2139992
77	0x3e32931d	0.17438932
78	0x3e633309	0.22187437
79	0x3e07243b	0.13197415
80	0x3e6fca43	0.23417
81	0x3e52efeb	0.20599334
82	0x3e1aa696	0.1510261
83	0x3e01c0ad	0.12671156
84	0x3e3fab20	0.18717623
85	0x3e4e356f	0.20137571
86	0x3e4f6127	0.20251904
87	0x3e326bbd	0.17423911
88	0x3e5f3f64	0.21801525
89	0x3df22a11	0.1182443
90	0x3e58dd26	0.21178111
91	0x3e0152b7	0.1262921
92	0x3e015d52	0.12633255
93	0x3e616de0	0.2201457
94	0x3dc6b259	0.09701986
95	0x3e806056	0.25073498
96	0x3e652fd1	0.22381522
97	0x3e3aaf5b	0.18230955
98	0x3e294ad0	0.16532445
99	0x3e1f01b5	0.15527995
100	0x3e0dd1c7	0.13849555
101	0x3e2bd6be	0.16781136
102	0x3df81681	0.12113667
103	0x3e334422	0.1750646
104	0x3e5df781	0.21676446
105	0x3def4395	0.11682812
106	0x3e01c71a	0.12673607
107	0x3e2872ab	0.16449992
108	0x3e24cb5b	0.16093199
109	0x3e37ca31	0.17948224
110	0x3e34e9cf	0.17667316
111	0x3e4b8ab4	0.1987713

bias f4 [112]
0	0xbec20e1d	-0.37901393
1	0xbeaec313	-0.34133205
2	0xbec1cd1e	-0.37851804
3	0x3ecf2d2c	0.4046415
4	0x3ec3c8e1	0.38239196
5	0x3ea91cf6	0.33029908
6	0xbeb525e1	-0.35380462
7	0x3ebce0a4	0.36890137
8	0xbed0a475	-0.4075047
9	0xbeabcac3	-0.33553132
10	0x3eafc4cc	0.34329832
11	0x3eaf5f9b	0.3425263
12	0x3ecb3fe4	0.39697182
13	0x3ecd08a3	0.40045652
14	0x3eb3ed50	0.35141993
15	0x3eb0e360	0.34548473
16	0xbec4d0d4	-0.38440573
17	0x3eb4f91c	0.35346305
18	0x3ebe654c	0.37186658
19	0x3eb06d28	0.3445828
20	0x3eaaefd0	0.33386087
21	0x3ec0b090	0.37634706
22	0xbeb097e6	-0.3449089
23	0x3eacbddf	0.3373861
24	0xbea84b48	-0.32869935
25	0x3ea8a84f	0.3294091
26	0xbeab53f8	-0.334625
27	0x3ebbd70b	0.36687502
28	0x3eae0a2a	0.3399213
29	0xbeab02e1	-0.33400634
30	0xbea74d17	-0.32676002
31	0xbecace7c	-0.3961066
32	0xbeb975c9	-0.36222675
33	0x3ebbb69f	0.36662766
34	0xbecadfad	-0.39623776
35	0x3ea8663b	0.32890496
36	0xbea87cec	-0.32907808
37	0xbeaa84ee	-0.33304542
38	0xbed72260	-0.42018414
39	0xbed7c6b8	-0.42143798
40	0xbed4bb63	-0.41549215
41	0xbec6d005	-0.3883058
42	0xbeb57a26	-0.35444754
43	0x3eb9aacb	0.36263117
44	0xbeafdfc9	-0.34350422
45	0xbeb69018	-0.3565681
46	0x3ec802f1	0.39064744
47	0x3eb8b34f	0.36074302
48	0x3ec6973d	0.3878726
49	0xbeba1090	-0.3634076
50	0xbebf463b	-0.3735827
51	0xbed47707	-0.4149706
52	0x3ed0156f	0.40641353
53	0xbea8b500	-0.32950592
54	0x3eab14e3	0.33414373
55	0xbea7c764	-0.3276931
56	0xbeb88454	-0.36038458
57	0xbea77b15	-0.32711092
58	0xbeb89509	-0.36051205
59	0x3ec8de4c	0.392321
60	0xbea653d7	-0.3248584
61	0xbeb2b2f4	-0.34902155
62	0x3eacadf4	0.33726466
63	0xbeaead06	-0.3411638
64	0xbed23a04	-0.41059887
65	0x3eab14bb	0.33414254
66	0xbed1f020	-0.41003513
67	0x3eaa7550	0.33292627
68	0x3eb9fae0	0.36324215
69	0x3ebc34e9	0.36759117
70	0xbeb19e09	-0.34690884
71	0xbebde5e3	-0.37089452
72	0x3ea9d98d	0.3317379
73	0xbec147c9	-0.3775008
74	0x3ea5554e	0.32291645
75	0xbeb8279b	-0.35967717
76	0x3eb6d48f	0.35709044
77	0x3ea977ea	0.330993
78	0x3ebdef42	0.37096602
79	0x3eb274de	0.34854788
80	0x3eae24c4	0.34012425
81	0xbeaa3f64	-0.33251488
82	0xbead0f54	-0.33800757
83	0xbeb2fb14	-0.34957182
84	0xbed293dc	-0.41128433
85	0xbea83d8a	-0.3285945
86	0x3eb14ff7	0.3463132
87	0x3ec870c5	0.39148536
88	0xbec62ec8	-0.38707566
89	0xbeaab47b	-0.3334082
90	0x3eb11dea	0.34593135
91	0xbea5974d	-0.32341996
92	0x3eb144d5	0.34622827
93	0x3ead3ca2	0.33835322
94	0xbeb2155f	-0.3478193
95	0x3eb06824	0.34454453
96	0x3eb331ea	0.3499902
97	0x3eaf52f0	0.34242964
98	0xbec03ce9	-0.3754647
99	0xbea6d743	-0.32586107
100	0xbea78f8a	-0.327267
101	0x3ec40aaa	0.38289386
102	0xbec44622	-0.38334757
103	0x3ea815c8	0.32829118
104	0x3ecc5fae	0.39916748
105	0xbeaa17ea	-0.3322137
106	0xbec529f2	-0.38508564
107	0xbec4f7fa	-0.3847044
108	0x3ec7e1c3	0.3903943
109	0xbebf7e92	-0.37401253
110	0xbeb21ac3	-0.34786043
111	0xbed6378b	-0.4183925

running_mean f4 [112]
0	0x3e01a3d2	0.12660149
1	0x3e13e65e	0.14443347
2	0x3db36d25	0.08761052
3	0x3d2bf616	0.041982733
4	0x3e0bf3ff	0.13667296
5	0x3e0035fc	0.12520593
6	0x3e48ec7c	0.19621462
7	0x3e0b4f96	0.13604578
8	0x3dfc5a17	0.12321871
9	0x3e16a685	0.1471196
10	0x3cb9f1ea	0.022698361
11	0x3d544690	0.051825106
12	0x3d34b614	0.044118956
13	0x3d711dc6	0.058866285
14	0x3b2b4b00	0.0026137233
15	0x3d5f8ff6	0.05458065
16	0x3d1745d2	0.03693182
17	0x3df2b4e9	0.11850912
18	0x3df960d5	0.12176672
19	0x3dadb042	0.08480884
20	0x3e1ad9f6	0.15122208
21	0x3cf1845a	0.029482055
22	0x3d729b63	0.05923022
23	0x3e09212e	0.13391563
24	0x3dd881f5	0.10571662
25	0x3df3aca1	0.11898161
26	0x3d52d839	0.051475737
27	0x3da43267	0.08017426
28	0x3de1f358	0.11032742
29	0x3da498d8	0.08036965
30	0x3d89b8cf	0.067247026
31	0x3da33529	0.07969124
32	0x3dbe3c23	0.09288814
33	0x3d59cdab	0.053174656
34	0x3de10b36	0.109884664
35	0x3dbf6768	0.09345895
36	0x3d9daa17	0.07698458
37	0x3d9fdb8d	0.07805548
38	0x3d82f0ed	0.06393609
39	0x3d9ff9ec	0.07811341
40	0x3dddaed2	0.1082436
41	0x3df9c34f	0.12195455
42	0x3d5d9c57	0.054104175
43	0x3d9b729f	0.075902216
44	0x3d88f7c4	0.066878825
45	0x3d6cf4a1	0.057850484
46	0x3cb316f4	0.02186153
47	0x3df78627	0.120861344
48	0x3db6a0a8	0.089173615
49	0x3dc9a4d4	0.098458916
50	0x3d653f6e	0.055968694
51	0x3ceb0a7e	0.028691527
52	0x3d42f22e	0.04759424
53	0x3e12d80d	0.1434023
54	0x3c9dd735	0.019267658
55	0x3d69d578	0.057088345
56	0x3da660a8	0.081239045
57	0x3d124ff9	0.0357208
58	0x3d5a417f	0.05328512
59	0x3d6b60e5	0.057465453
60	0x3d88e70a	0.06684692
61	0x3db36fec	0.08761582
62	0x3d918e3f	0.071072094
63	0x3e031445	0.12800701
64	0x3d565c0a	0.05233387
65	0x3e178280	0.14795876
66	0x3d3dbeca	0.04632453
67	0x3e64f873	0.22360401
68	0x3e1e981e	0.15487716
69	0x3cd3630a	0.025804061
70	0x3de1a214	0.11017242
71	0x3db7ca9f	0.08974194
72	0x3d911c57	0.070854835
73	0x3e1c27c9	0.15249552
74	0x3d449344	0.047992006
75	0x3e0e4b39	0.13895883
76	0x3dc448e3	0.095842145
77	0x3c8104d7	0.015749378
78	0x3dce8967	0.10084801
79	0x3d222e9c	0.03959523
80	0x3db3a59e	0.08771823
81	0x3cab0062	0.020874206
82	0x3dacfad6	0.08446281
83	0x3e325c20	0.17417955
84	0x3e2500ad	0.16113539
85	0x3dc9b194	0.098483235
86	0x3d757b3e	0.059931986
87	0x3db5ba94	0.088734776
88	0x3d7bf270	0.061510503
89	0x3dc368ff	0.09541511
90	0x3dac1382	0.08402158
91	0x3d63c782	0.055610187
92	0x3daa7058	0.08322209
93	0x3d66a9a2	0.05631412
94	0x3dafc6b8	0.085828245
95	0x3dc11531	0.0942787
96	0x3ddf71b0	0.10910356
97	0x3d904bf4	0.07045737
98	0x3e558e9d	0.20855184
99	0x3d6586e7	0.056036856
100	0x3e010544	0.12599665
101	0x3db2633a	0.08710332
102	0x3d7a02a5	0.06103768
103	0x3da726df	0.08161711
104	0x3d23030f	0.03979784
105	0x3df528aa	0.11970647
106	0x3d634263	0.055483233
107	0x3c7eb490	0.015545979
108	0x3d3a42b3	0.045473766
109	0x3dd253b3	0.102698706
110	0x3dc41219	0.09573764
111	0x3d9e14e2	0.07718827

running_var f4 [112]
0	0x3e22f72d	0.15914603
1	0x3e7bfd8b	0.24608438
2	0x3e730083	0.23730664
3	0x3e1bec87	0.15226947
4	0x3e88fa33	0.26753387
5	0x3e911436	0.28335732
6	0x3eafeca9	0.34360245
7	0x3e9a31cf	0.30116126
8	0x3eb6542c	0.35611093
9	0x3e259397	0.16169582
10	0x3de5b732	0.11216582
11	0x3e64c602	0.22341159
12	0x3dd0895d	0.1018245
13	0x3e06fd08	0.13182461
14	0x3e16a741	0.1471224
15	0x3e02fd47	0.1279193
16	0x3e28c3a4	0.16480881
17	0x3e8a5d83	0.2702447
18	0x3eabdd47	0.3356726
19	0x3e0f31dd	0.13983865
20	0x3ecdc4fd	0.40189353
21	0x3de6990d	0.11259661
22	0x3e197811	0.14987208
23	0x3eefaa9d	0.46809855
24	0x3e5f8054	0.21826297
25	0x3e7e917d	0.24860187
26	0x3e1dbac6	0.1540328
27	0x3e302280	0.1720066
28	0x3e967395	0.29385057
29	0x3e519b79	0.20469464
30	0x3e8d473a	0.27593404
31	0x3e53611a	0.2064251
32	0x3e72fb3f	0.23728655
33	0x3e5f371b	0.21798365
34	0x3eacf75e	0.33782476
35	0x3e1e5f89	0.15466131
36	0x3e4d508f	0.20050262
37	0x3e072234	0.13196641
38	0x3dbb47a9	0.091445275
39	0x3e34afec	0.17645234
40	0x3e815132	0.2525726
41	0x3e0ab97c	0.13547319
42	0x3e288548	0.16457093
43	0x3e908caf	0.28232333
44	0x3dbecfad	0.09316955
45	0x3e6b9ace	0.23008272
46	0x3e07d86f	0.13266157
47	0x3e3d8e51	0.1851132
48	0x3e85fe7a	0.26170713
49	0x3e8a0f9e	0.2696504
50	0x3e93ca8e	0.28865474
51	0x3db74e9d	0.08950541
52	0x3e27a79d	0.16372533
53	0x3e8fb6d7	0.28069183
54	0x3ddf47d5	0.10902373
55	0x3e5a4782	0.2131634
56	0x3e847b31	0.25875238
57	0x3df0bd1c	0.1175482
58	0x3e99ff2c	0.30077493
59	0x3e63a7ce	0.22231981
60	0x3e539e7b	0.20665924
61	0x3ea3282c	0.31866586
62	0x3e8b427d	0.27199164
63	0x3ea12c68	0.31479192
64	0x3e2b7790	0.16744828
65	0x3e9c3f61	0.30517104
66	0x3e4d6727	0.20058881
67	0x3f163cf3	0.5868675
68	0x3e87de69	0.26536873
69	0x3e2e4d41	0.17021658
70	0x3e8aa06a	0.2707551
71	0x3e98d699	0.29851225
72	0x3e31f6b8	0.17379272
73	0x3e0caddf	0.13738202
74	0x3df6da49	0.12053353
75	0x3ea6489c	0.32477272
76	0x3e73b606	0.23799905
77	0x3df759b8	0.12077659
78	0x3ec840bd	0.3911189
79	0x3dcf814b	0.101320826
80	0x3e8cbecf	0.27489325
81	0x3dff38af	0.124619834
82	0x3e0b0896	0.13577494
83	0x3e746080	0.23864937
84	0x3efefb71	0.4980121
85	0x3ea71fb7	0.32641384
86	0x3e448e73	0.19194965
87	0x3e8f87f6	0.28033417
88	0x3e6b35ae	0.22969696
89	0x3e3b1684	0.18270308
90	0x3ec7a608	0.3899386
91	0x3e2e61be	0.17029473
92	0x3dde403b	0.10852095
93	0x3e913d86	0.2836725
94	0x3dbab705	0.091169395
95	0x3ed3bc84	0.41354764
96	0x3e9f4aac	0.31111658
97	0x3e34279b	0.17593233
98	0x3eda4b26	0.4263546
99	0x3e3417ea	0.17587247
100	0x3e5e6c6c	0.21721047
101	0x3e7b8cc5	0.24565418
102	0x3dec44bb	0.11536547
103	0x3e783283	0.24238019
104	0x3e4759b4	0.19467813
105	0x3e522708	0.20522702
106	0x3e305482	0.17219737
107	0x3dcc2e0f	0.099697225
108	0x3e2c6708	0.16836178
109	0x3e8231cb	0.25428614
110	0x3e76f4be	0.24116799
111	0x3e8a10cc	0.2696594
