mlruns/528961946943719398/models/m-92f248b3f19748c7a7bb2a4816f54d63/artifacts/data/model.pth (torch, 30865 bytes, 11 tensors)

weight f4 [124]
0.99391484 0.9189879 1.0119827 0.93620163 0.97105455 0.9616692 0.97846174 1.0148365
0.95156854 0.96427184 0.971128 0.9992131 0.9877876 0.945502 1.0047414 1.0070148
0.99816704 0.9541819 0.99693793 0.9742554 0.9502234 0.9556933 0.96422434 0.9530878
0.96511245 0.9792861 0.9418199 0.97965735 0.9477903 0.9430827 0.975311 1.0130047
0.9508347 0.9682585 0.99606997 0.96508735 0.94799906 0.93193114 0.96624607 0.9691338
0.92022043 0.96790534 0.96807593 0.95346314 0.9706038 0.98362774 0.960965 0.94986886
0.91019243 0.97298354 0.9691265 0.9641847 0.93249017 0.9641206 0.96779215 0.9438117
0.9866142 0.95373327 0.9650322 0.99570984 0.95221967 0.9891032 0.94350296 0.98829406
0.9573991 0.94389164 0.95013624 0.9720884 0.9632752 0.9403026 0.96792984 0.9743692
0.93000585 0.93827903 0.99074244 0.9856095 0.9662954 0.99189866 0.9846741 0.966292
0.9798049 0.9853069 0.9685789 0.95766234 0.98703605 0.9884435 0.9699054 0.9717825
0.9637316 0.9863878 0.96247256 0.95996636 0.9819626 0.9885737 0.99624807 0.9845644
0.9998816 0.97105783 0.9790311 1.0019667 0.9663734 0.99548715 0.98483056 0.9935751
0.9614469 0.9662223 0.98146063 0.96791 0.96365124 0.9912642 0.9596754 0.95930797
0.9796465 1.0123297 0.9661011 0.9209815 0.96019244 1.048502 0.97434527 0.9951735
0.9864745 1.0093713 0.96357715 0.9813415
00000000: 3471 7e3f ca42 6b3f a688 813f e9aa 6f3f
00000010: 0897 783f f42f 763f 787c 7a3f 2ae6 813f
00000020: ff99 733f 85da 763f d89b 783f 6ecc 7f3f
00000030: a6df 7c3f 6b0c 723f 5e9b 803f dce5 803f
00000040: e087 7f3f 4445 743f 5337 7f3f cd68 793f
00000050: d741 733f 51a8 743f 68d7 763f 90fd 733f
00000060: 9c11 773f 7eb2 7a3f 1c1b 713f d3ca 7a3f
00000070: 63a2 723f de6d 713f fbad 793f 23aa 813f
00000080: e769 733f cadf 773f 71fe 7e3f f70f 773f
00000090: 11b0 723f 0a93 6e3f e75b 773f 2719 783f
000000a0: 9193 6b3f a5c8 773f d3d3 773f 2916 743f
000000b0: 7e79 783f 07cf 7b3f cd01 763f 9b2a 733f
000000c0: 5f02 693f 7315 793f ad18 783f cfd4 763f
000000d0: adb7 6e3f 9cd0 763f 3ac1 773f a59d 713f
000000e0: c092 7c3f dd27 743f 5a0c 773f d7e6 7e3f
000000f0: abc4 733f de35 7d3f 6989 713f d700 7d3f
00000100: 1b18 753f e2a2 713f 213c 733f c9da 783f
00000110: 3499 763f acb7 703f 40ca 773f 4370 793f
00000120: dd14 6e3f 0e33 703f 4ca1 7d3f e750 7c3f
00000130: 235f 773f 12ed 7d3f 9a13 7c3f ea5e 773f
00000140: 7ed4 7a3f 133d 7c3f c9f4 773f 5c29 753f
00000150: 65ae 7c3f a20a 7d3f b84b 783f bdc6 783f
00000160: 1db7 763f e983 7c3f 9a64 763f 5bc0 753f
00000170: e761 7b3f 2a13 7d3f 1d0a 7f3f 6a0c 7c3f
00000180: 3ef8 7f3f 3f97 783f c8a1 7a3f 7240 803f
00000190: 3f64 773f 3fd8 7e3f db1d 7c3f f05a 7e3f
000001a0: 6221 763f 585a 773f 0141 7b3f f3c8 773f
000001b0: d9b1 763f 7ec3 7d3f 49ad 753f 3595 753f
000001c0: 1dca 7a3f 0594 813f 6752 773f 72c5 6b3f
000001d0: 2ccf 753f 5035 863f b16e 793f b1c3 7e3f
000001e0: 9889 7c3f 1433 813f feac 763f 3239 7b3f

bias f4 [124]
0.005056978 0.022175036 -0.06541924 -0.014223537 0.001658712 0.07963185 -0.07481324 0.06564327
0.03121159 0.002078463 0.040207583 -0.016154617 0.026997712 -0.031579677 -0.022280974 0.03660156
-0.06982461 -0.00473427 -0.03064236 -0.01347468 0.04476849 -0.013714261 -0.020540128 -0.00447698
0.024118032 -0.012753755 0.019167906 -0.06772301 -0.040879924 0.0006310833 -0.030418346 -0.038286
0.051832754 -0.008254113 0.033953376 -0.010342992 -0.053388573 -0.040420868 -0.025159936 0.02253426
0.023177389 0.0033505345 0.03823898 0.017246904 0.018225577 -0.017464586 -0.024559598 -0.0005279094
-0.02269164 -0.03126027 -0.0645334 -0.017052013 -0.023893336 0.028520228 -0.09402493 0.03528073
-0.011490472 0.033975977 -0.05634343 -0.035232462 -0.009208422 0.045805886 -0.04994457 0.11306451
-0.035334192 0.05131386 0.060496826 0.0039818417 0.011990296 0.03497784 0.086902946 -0.063011065
-0.07902974 0.010150453 -0.0053645493 -0.031367157 0.034323584 -0.037559167 -0.07656009 -0.037402537
-0.008339835 0.026000006 -0.054614574 -0.025824439 0.061769955 -0.0007761578 -0.06657916 0.0031139278
0.061274745 0.040430628 -0.02861312 0.030193333 0.03388274 -0.0023634145 -0.11912511 -0.021894516
0.0049717342 -0.013857215 -0.11590996 0.03740838 0.06043165 -0.049580265 0.0068786107 0.014705676
0.04327274 -0.019391226 0.028504606 -0.07623935 0.029979555 -0.01553049 0.039037555 -0.026722036
0.031570245 -0.1393926 -0.03576863 0.019092761 -0.004568551 -0.03970671 0.015880307 0.04558788
-0.05534292 0.013005043 -0.024598869 0.0027100856
00000000: 02b5 a53b 6ca8 b53c 86fa 85bd d709 69bc
00000010: 2469 d93a 0616 a33d af37 99bd fb6f 863d
00000020: 73af ff3c d336 083b b5b0 243d b056 84bc
00000030: 4e2a dd3c b159 01bd 9786 b6bc 84eb 153d
00000040: 3500 8fbd ef21 9bbb b005 fbbc e7c4 5cbc
00000050: 2a5f 373d c8b1 60bc c543 a8bc a1b3 92bb
00000060: 2e93 c53c 20f5 50bc 0306 9d3c 5db2 8abd
00000070: b571 27bd 496f 253a e52f f9bc c8d1 1cbd
00000080: 954e 543d 423c 07bc b212 0b3d a775 29bc
00000090: faad 5abd 5a90 25bd 361c cebc c599 b83c
000000a0: 82de bd3c a494 5b3b 7aa0 1c3d 6149 8d3c
000000b0: ce4d 953c e411 8fbc 3631 c9bc 6663 0aba
000000c0: d1e3 b9bc c50a 00bd 162a 84bd aab0 8bbc
000000d0: f5bb c3bc 41a3 e93c 2490 c0bd 8782 103d
000000e0: 8842 3cbc 652a 0b3d 5ec8 66bd ea4f 10bd
000000f0: ecde 16bc f49e 3b3d ad92 4cbd 5e8e e73d
00000100: 96ba 10bd 7b2e 523d 85cb 773d 1c7a 823b
00000110: f272 443c ec44 0f3d 2cfa b13d f20b 81bd
00000120: 58da a1bd 164e 263c 1ac9 afbb d97a 00bd
00000130: e396 0c3d a4d7 19bd 89cb 9cbd 6733 19bd
00000140: cea3 08bc f7fd d43c 88b3 5fbd c68d d3bc
00000150: 7e02 7d3d 1177 4bba a85a 88bd 0a13 4c3b
00000160: 3afb 7a3d 969a 253d 1066 eabc 0258 f73c
00000170: a1c8 0a3d 84e3 1abb def7 f3bd 215c b3bc
00000180: eee9 a23b 5f09 63bc 3362 edbd 8839 193d
00000190: 2e87 773d ad14 4bbd f865 e13b 13f0 703c
000001a0: c23e 313d 59da 9ebc 7e82 e93c 6023 9cbd
000001b0: af97 f53c 9973 7ebc d8e5 1f3d 2ce8 dabc
000001c0: cd4f 013d efbc 0ebe 2182 12bd 6c68 9c3c
000001d0: c9b3 95bb 81a3 22bd 6b17 823c 5bba 3a3d
000001e0: 42af 62bd 1b13 553c 9183 c9bc b19b 313b

running_mean f4 [124]
69.330666 10470.956 6.178197 5.5507083 103.36322 3.4295752 3.0961766 3.51518
2.937837 1.6033672 444.6144 39.834496 578.445 4.1224136 0.11211638 1169.111
372.6683 10.145246 1551.9246 0.41070607 0.05363743 1.5845964 0.38736078 2.87069
1.0507164 3.540543 6.617731 0.14194034 0.6362276 1.9361749 1.7599157 1.8154887
480.89832 2.8493655 2.8531864 0.12504582 100.43064 51.119587 20.297361 3.8711438
14.008059 6.951059 0.040768582 51.158783 38.51018 24.99385 30.934675 32.1076
3.0104363 1.1941952 0.097728275 0.4144496 0.15391421 0.708035 0.19056241 0.07110889
0.031599447 0.050854273 0.031020856 0.023528127 0.081704915 0.02631169 0.11128089 0.9592476
0.21172398 0.07672719 0.07867049 0.03283451 0.36816 0.15569392 0.16540638 0.14786166
0.101023056 0.037123363 0.029111398 0.043162473 0.011912028 0.030216657 0.014134155 0.013767081
0.78644955 0.1530201 0.04452733 0.01626674 0.10255184 0.028885564 0.06888479 0.06664488
0.022065107 0.0074274936 0.03050007 0.14490797 0.05784304 0.025441643 0.055331226 0.07915688
0.024173442 0.022202136 0.045049056 0.032812644 0.060493 0.02805024 0.02542607 0.021494575
0.5821153 0.0939793 0.39765245 0.006736846 0.47837478 0.018358875 0.02486321 0.92481947
0.07235817 0.27102306 0.045835104 0.022133749 0.042262975 0.08214515 0.017651804 0.86880195
0.019119924 0.82043844 0.014075178 0.08292098
00000000: 4da9 8a42 d39b 2346 cab3 c540 679f b140
00000010: f8b9 ce42 297e 5b40 c227 4640 b6f8 6040
00000020: 8505 3c40 233b cd3f a54e de43 8656 1f42
00000030: 7b9c 1044 d0ea 8340 469d e53d 8d23 9244
00000040: 8b55 ba43 ed52 2241 96fd c144 1148 d23e
00000050: ecb2 5b3d 0ed4 ca3f 2754 c63e 63b9 3740
00000060: e07d 863f 4298 6240 74c4 d340 cf58 113e
00000070: d0df 223f 94d4 f73f eb44 e13f ef61 e83f
00000080: fc72 f043 015c 3640 9b9a 3640 030c 003e
00000090: 7ddc c842 757a 4c42 ff60 a241 d2c0 7740
000000a0: 0221 6041 136f de40 f5fc 263d 98a2 4c42
000000b0: 6d0a 1a42 68f3 c741 377a f741 2f6e 0042
000000c0: fdaa 4040 63db 983f c325 c83d bd32 d43e
000000d0: b09b 1d3e c841 353f cb22 433e 8aa1 913d
000000e0: 6c6e 013d 924c 503d 731f fe3c 0fbe c03c
000000f0: e854 a73d 9d8b d73c 3ce7 e33d 4091 753f
00000100: 2cce 583e 2523 9d3d fe1d a13d 7b7d 063d
00000110: 787f bc3e 3a6e 1f3e 4a60 293e 0c69 173e
00000120: 2de5 ce3d ab0e 183d 077b ee3c 22cb 303d
00000130: ab2a 433c ec88 f73c f192 673c 538f 613c
00000140: c254 493f 4db1 1c3e 4a62 363d d441 853c
00000150: b306 d23d 6ba1 ec3c 7813 8d3d 1c7d 883d
00000160: e2c1 b43c 5562 f33b 48db f93c c162 143e
00000170: d3ec 6c3d fe6a d03c ffa2 623d 011d a23d
00000180: 6207 c63c 41e1 b53c 5c85 383d 8d66 063d
00000190: 82c7 773d 9ec9 e53c 554a d03c 6415 b03c
000001a0: 8205 153f 3878 c03d 1a99 cb3e c3c0 dc3b
000001b0: 8aed f43e 5a65 963c eead cb3c f8c0 6c3f
000001c0: 8530 943d 89c3 8a3e 97bd 3b3d d651 b53c
000001d0: f11b 2d3d b73b a83d 849a 903c ce69 5e3f
000001e0: 63a1 9c3c 4108 523f 939b 663c 7ad2 a93d

running_var f4 [124]
489.5057 9.914948e+07 2.0433624 1.1466768 28384.312 0.33350188 0.12785603 0.76106393
0.3088933 1.1009954 231572.75 21783.55 198562.0 0.9316784 0.14790735 155071.22
191655.78 4082.9607 277709.0 0.27031213 0.05192237 0.2954317 0.24954426 0.7243502
0.053306334 0.45075452 2.730999 0.37833577 0.4205369 3.387531 0.7978751 0.52782893
42329.547 0.44690627 0.44623724 0.2173055 18582.719 5101.3853 3569.358 1086.1853
2848.137 4648.4414 0.16247924 228463.34 981.06445 428.6078 602.2546 248.82726
2.8400607 0.5448621 0.14529996 0.3318168 0.26582828 0.20808402 0.15533005 0.06648149
0.03309885 0.063371085 0.030103015 0.023293514 0.07480128 0.025835002 0.19115552 0.049160402
0.2428571 0.13710013 0.071254306 0.031716947 0.23275705 0.13142663 0.13750133 0.12531881
0.090758815 0.035756506 0.027746923 0.041324437 0.011709723 0.029071398 0.013895529 0.013635228
0.1690698 0.12982057 0.042482357 0.015924752 0.09310366 0.027919002 0.064911924 0.06226967
0.021823283 0.007326869 0.02935768 0.12391496 0.054850683 0.02486732 0.05283941 0.073687255
0.02358252 0.021917919 0.0425514 0.031703364 0.056473922 0.027090011 0.024386212 0.02131217
0.24606496 0.08611572 0.23628114 0.0067341924 0.24841836 0.018185373 0.024505652 0.070310086
0.06752802 0.19881603 0.043548014 0.02164267 0.04109611 0.07426 0.017363327 0.11264104
0.018991197 0.1486904 0.0139909275 0.074870355
00000000: bbc0 f443 d51c bd4c 73c6 0240 4ec6 923f
00000010: a0c0 dd46 c2c0 aa3e b1ec 023e 16d5 423f
00000020: 4327 9e3e 6bed 8c3f 3025 6248 1a2f aa46
00000030: 80e8 4148 7a82 6e3f 0675 173e ce6f 1748
00000040: f229 3b48 5f2f 7f45 a099 8748 5a66 8a3e
00000050: 8dac 543d d342 973e 8888 7f3e 046f 393f
00000060: be57 5a3d 4cc9 e63e b0c8 2e40 3ab5 c13e
00000070: 9d50 d73e 4fcd 5840 8b41 4c3f cc1f 073f
00000080: 8c59 2547 e6d0 e43e 3579 e43e 5585 5e3e
00000090: 702d 9146 156b 9f45 ba15 5f45 eec5 8744
000000a0: 3102 3245 8843 9145 f560 263e d61b 5f48
000000b0: 2044 7544 cc4d d643 4b90 1644 c7d3 7843
000000c0: 8ec3 3540 157c 0b3f 83c9 143e e4e3 a93e
000000d0: a51a 883e fa13 553e d70e 1f3e 7327 883d
000000e0: a992 073d b3c8 813d 999a f63c 0ad2 be3c
000000f0: 6a31 993d eda3 d33c 46be 433e 6b5c 493d
00000100: 88af 783e fa63 0c3e c7ed 913d a1e9 013d
00000110: dd57 6e3e b494 063e 26cd 0c3e 9353 003e
00000120: c2df b93d 6a75 123d 844d e33c d043 293d
00000130: 23da 3f3c 2427 ee3c 13aa 633c 4b66 5f3c
00000140: a220 2d3e afef 043e fb01 2e3d a074 823c
00000150: 22ad be3d 64b6 e43c 8bf0 843d 7b0e 7f3d
00000160: bec6 b23c 3b16 f03b 847f f03c 20c7 fd3d
00000170: 1cab 603d 8db6 cb3c 236e 583d 58e9 963d
00000180: 2130 c13c 358d b33c 604a 2e3d 63db 013d
00000190: 3351 673d dfeb dd3c 98c5 c73c dc96 ae3c
000001a0: 74f8 7b3e 705d b03d aff3 713e 80aa dc3b
000001b0: 6261 7e3e 7ef9 943c 14c0 c83c bcfe 8f3d
000001c0: 214c 8a3d 6e96 4b3e 675f 323d f84b b13c
000001d0: 6554 283d a015 983d 893d 8e3c 58b0 e63d
000001e0: 6d93 9b3c 4c42 183e 343a 653c a155 993d

weight f4 [36, 124]
0.056923393 0.055306472 0.010550512 -0.007850509 0.041648548 -0.0641546 0.03763295 -0.04032666
0.014410264 0.002169839 -0.07139877 0.06358069 -0.055831783 0.056855105 -0.0038596618 0.02769673
0.07007507 0.006023055 -0.026687035 -0.027369136 -0.05703875 0.099415295 -0.032452766 0.020679174
-0.06676747 0.0051224967 0.002425528 0.0004964624 -0.021611456 0.0008502955 0.07418752 0.096906886
-0.032875422 -0.07639036 -0.022137057 -0.03630819 0.057608336 0.07224188 -0.05895665 -0.07518323
0.044137187 0.0701237 -0.0075527965 0.020021446 0.0009814822 -0.07746174 0.023521839 -0.05121121
-0.013704683 -0.06674939 -0.015450822 -0.034632042 0.01570216 0.043429933 0.047110394 0.041192465
0.04356535 -0.06292172 0.01387302 -4.1787964e-05 0.03049648 -0.055913333 -0.0065312227 0.012172363
0.0012078185 0.017992413 -0.024415264 0.012230522 0.0026277446 0.002523268 -0.01899924 -0.04042608
0.031873327 0.022114081 -0.034133557 -0.021102648 0.0045172786 0.05789615 -0.04066315 0.023256863
-0.001182813 -0.061771855 0.028968254 0.03636636 -0.06552735 -0.034413643 -0.013143317 -0.068747066
0.01321049 -0.030107656 0.0437935 -0.06494752 -0.04767228 0.09642672 0.0877822 -0.07813429
-0.09021359 -0.043415446 -0.0052297483 -0.022957878 -0.037572242 0.03683161 0.089161634 -0.012901575
-0.08253035 0.08839581 -0.105412066 0.094559915 -0.07293739 0.07244827 -0.06786003 0.0046084537
-0.0028655615 -0.055270586 -0.022367949 0.04339664 -0.066889584 0.10264885 0.018886164 -0.023801843
0.014142464 0.03980044 -0.031345814 -0.06492044 -0.040902637 -0.046037555 0.007036994 0.07582141
-0.058926847 -0.02774373 0.1036158 9.880898e-05 0.019159393 0.0012268297 -0.0049245595 0.10556882
0.027432092 -0.021308253 0.043766465 0.045966774 -0.03358718 -0.0010637463 -0.011401263 0.041884474
0.048075683 -0.030156812 -0.046956662 0.049641237 0.047488347 0.021602653 0.005896312 0.0529155
-0.049584396 0.041692443 -0.027120471 0.097992316 -0.055793054 0.012257634 0.018481983 0.09685527
-0.010095677 0.018377358 0.08665033 0.024187103 0.006874146 -0.023239631 -0.06152075 0.06718634
0.03263281 -0.0048475126 0.07194826 -0.033598393 0.0062933583 0.009094217 0.007417346 -0.015565878
0.02663493 0.05310511 0.018741583 -0.07367176 -0.04430292 -0.024161555 0.05442963 -0.032890245
-0.024430092 -0.067223966 0.003069068 -0.015464578 0.0015573432 0.04834139 -0.0325439 -0.060544685
-0.042512372 -0.01931367 0.0037016596 0.018056268 0.087263905 -0.015843865 0.065450124 0.045112688
-0.066360034 -0.08899598 -0.0053350977 0.08056357 -0.038970433 -0.051508468 0.04076111 -0.0075021773
0.02633291 0.039698206 -0.0018565211 0.05747254 0.0037931132 -0.028644877 -0.046389177 -0.050092433
-0.061678622 -0.016434453 0.029289568 -0.03388304 -0.045968845 -0.090038136 0.026893875 -0.07845583
0.08300712 0.082397595 -0.06585678 -0.011698394 0.0038390486 -0.023468439 -0.054177586 0.021026896
0.022543442 -0.06627194 -0.024943434 -0.051340643 0.007305456 0.028296478 0.061520454 -0.0172396
0.0059300405 -0.028654046 0.07627303 -0.07665852 -0.014490486 -0.09051552 -0.030784067 -0.0066355453
0.05609896 -0.045982253 0.091712706 0.0068140114 0.05362973 0.015238729 -0.046826914 -0.05873787
00000000: 8128 693d 0a89 623d 0edc 2c3c 6c9f 00bc
00000010: ab97 2a3d 7d63 83bd 0225 1a3d 912d 25bd
00000020: 0719 6c3c dc33 0e3b 8539 92bd 9836 823d
00000030: deaf 64bd e6e0 683d 61f2 7cbb 41e4 e23c
00000040: 8583 8f3d 0c5d c53b c59e dabc 3d35 e0bc
00000050: 77a1 69bd 3f9a cb3d 31ed 04bd 5f67 a93c
00000060: 62bd 88bd 9eda a73b 9bf5 1e3b 0725 023a
00000070: 820a b1bc 5de6 5e3a a0ef 973d 1e77 c63d
00000080: 61a8 06bd 8d72 9cbd c658 b5bc e6b7 14bd
00000090: b8f6 6b3d 8df3 933d 877c 71bd aaf9 99bd
000000a0: 32c9 343d 049d 8f3d 737d f7bb 0404 a43c
000000b0: 14a5 803a 43a4 9ebd dfb0 c03c d9c2 51bd
000000c0: 9b89 60bc e7b3 88bd 7225 7dbc 54da 0dbd
000000d0: d1a1 803c 96e3 313d d4f6 403d 6eb9 283d
000000e0: 9571 323d 1add 80bd aa4b 633c 7c45 2fb8
000000f0: c1d3 f93c 6105 65bd de03 d6bb 976e 473c
00000100: aa4f 9e3a d364 933c 8502 c8bc 8762 483c
00000110: 3d36 2c3b 6a5d 253b 4ba4 9bbc d195 25bd
00000120: 9b8d 023d 9728 b53c a1cf 0bbd 76df acbc
00000130: ae05 943b 8324 6d3d 678e 26bd 2d85 be3c
00000140: 9e08 9bba 7c04 7dbd d54e ed3c e4f4 143d
00000150: 3433 86bd 52f5 0cbd 1157 57bc 43cb 8cbd
00000160: d070 583c 55a4 f6bc d060 333d 3503 85bd
00000170: 0244 43bd 5f7b c53d 27c7 b33d df04 a0bd
00000180: e7c1 b8bd 65d4 31bd 4f5e abbb 2912 bcbc
00000190: 5ae5 19bd bedc 163d 609a b63d 2161 53bc
000001a0: ac05 a9bd dd08 b53d 48e2 d7bd a1a8 c13d
000001b0: 3360 95bd c25f 943d 33fa 8abd 8302 973b
000001c0: 25cc 3bbb 6963 62bd fd3c b7bc adc0 313d
000001d0: 68fd 88bd 8f39 d23d 28b7 9a3c 15fc c2bc
000001e0: cbb5 673c c905 233d 7864 00bd 02f5 84bd
000001f0: 8689 27bd e091 3cbd 9696 e63b 4148 9b3d
00000200: 475d 71bd d246 e3bc 8534 d43d ab37 cf38
00000210: 29f4 9c3c 93cd a03a 335e a1bb 7734 d83d
00000220: 44b9 e03c a58e aebc 7744 333d a847 3c3d
00000230: b692 09bd 676d 8bba 5dcc 3abc 0e8f 2b3d
00000240: 02eb 443d 6b0b f7bc a155 40bd 9c54 4b3d
00000250: 2483 423d 0cf8 b03c da35 c13b ecbd 583d
00000260: 0219 4bbd b2c5 2a3d c02b debc 32b0 c83d
00000270: 4287 64bd 3ed4 483c 8767 973c 0e5c c63d
00000280: 5768 25bc 1d8c 963c ba75 b13d 0824 c63c
00000290: 8440 e13b 0a61 bebc 2ffd 7bbd fe98 893d
000002a0: fba9 053d e2d7 9ebb 9c59 933d 789e 09bd
000002b0: 8438 ce3b e9ff 143c 350d f33b 0608 7fbc
000002c0: 7f31 da3c be84 593d f387 993c 38e1 96bd
000002d0: fb76 35bd 74ee c5bc 9bf1 5e3d ecb7 06bd
000002e0: 9e21 c8bc b8ac 89bd 6b22 493b 245f 7dbc
000002f0: c41f cc3a 9f01 463d c14c 05bd b4fd 77bd
00000300: 7421 2ebd b437 9ebc 8b97 723b bdea 933c
00000310: 6bb7 b23d feca 81bc b70a 863d 15c8 383d
00000320: c5e7 87bd 8643 b6bd 0bd2 aebb 83fe a43d
00000330: 769f 1fbd 8bfa 52bd 1ff5 263d d3d4 f5bb
00000340: 1db8 d73c 969a 223d 8356 f3ba 5368 6b3d
00000350: e195 783b a9a8 eabc 9402 3ebd b92d 4dbd
00000360: b9a2 7cbd 8ca1 86bc adf0 ef3c f1c8 0abd
00000370: d449 3cbd ea65 b8bd 8b50 dc3c 73ad a0bd
00000380: a3ff a93d 12c0 a83d ebdf 86bd 9faa 3fbc
00000390: 8c98 7b3b e240 c0bc 51e9 5dbd 9940 ac3c
000003a0: 06ad b83c 95b9 87bd 2c56 ccbc 914a 52bd
000003b0: 9b62 ef3b 04ce e73c dffc 7b3d 103a 8dbc
000003c0: c950 c23b e4bb eabc 0935 9c3d 24ff 9cbd
000003d0: 8169 6dbc 3360 b9bd de2e fcbc fd6e d9bb
000003e0: 06c8 653d e357 3cbd dfd3 bb3d 1248 df3b
000003f0: d9aa 5b3d ddab 793c 94cd 3fbd 1f97 70bd

bias f4 [36]
-0.00035051387 -0.054847375 -0.05134793 -0.0020364851 -0.06751046 -0.06605819 -0.028063508 -0.053647254
-0.07003823 0.010509157 -0.09202825 -0.028900454 -0.08480418 0.008124896 -0.021900525 -0.05310036
-0.0044017695 -0.07058893 -0.00020547064 -0.045941595 -0.06572022 -0.08287312 0.020105695 -0.0031078963
-0.09285999 0.0018027367 0.007768455 -0.007926951 -0.002564772 -0.05627332 -0.05144128 -0.057791304
-0.044501785 0.007532225 -0.061957505 -0.021657903
00000000: 2dc5 b7b9 a4a7 60bd 3552 52bd 8d76 05bb
00000010: ed42 8abd 8449 87bd 71e5 e5bc 39bd 5bbd
00000020: 3470 8fbd 992e 2c3c 4f79 bcbd a5c0 ecbc
00000030: d0ad adbd 491e 053c bb68 b3bc c37f 59bd
00000040: b83c 90bb ee90 90bd 9b73 57b9 412d 3cbd
00000050: 5398 86bd 62b9 a9bd b3b4 a43c d9ad 4bbb
00000060: 612d bebd ce49 ec3a 868e fe3b 0be0 01bc
00000070: bc15 28bb da7e 66bd 17b4 52bd 93b6 6cbd
00000080: 8147 36bd e2d0 f63b 27c7 7dbd ea6b b1bc

weight f4 [36]
0.6146635 0.6628516 0.5903684 0.6409604 0.6971877 0.6388437 0.64523417 0.6845149
0.6647289 0.61733276 0.61076474 0.6354655 0.6896147 0.64725333 0.60428846 0.63356155
0.62544495 0.6638031 0.664214 0.67668396 0.66765165 0.6210931 0.6837869 0.6227211
0.6750805 0.6663963 0.6921163 0.6477748 0.6325877 0.61054957 0.639111 0.67125916
0.6015035 0.6001577 0.6592617 0.68560374
00000000: 965a 1d3f a4b0 293f 6222 173f fb15 243f
00000010: e57a 323f 438b 233f 112e 253f 5e3c 2f3f
00000020: ac2b 2a3f 8509 1e3f 145b 1c3f dead 223f
00000030: 978a 303f 65b2 253f a6b2 1a3f 1731 223f
00000040: 291d 203f 00ef 293f ee09 2a3f 293b 2d3f
00000050: 38eb 2a3f f5ff 1e3f a90c 2f3f a66a 1f3f
00000060: 13d2 2c3f f398 2a3f 892e 313f 92d4 253f
00000070: 44f1 213f fa4c 1c3f c79c 233f a4d7 2b3f
00000080: 22fc 193f efa3 193f 60c5 283f ba83 2f3f

bias f4 [36]
0.46416387 -0.48743483 0.49050546 0.5174261 0.56488264 -0.4714659 0.46232685 -0.5631801
0.51661557 0.4837042 -0.46965814 0.52205074 -0.5050024 -0.49801424 0.47738376 0.47715744
-0.46479744 -0.56785166 0.5271691 -0.4870742 -0.5404143 0.48154274 0.52854943 0.46842661
-0.5248849 -0.5893693 -0.55887365 -0.47524267 0.46282494 0.5056327 -0.4589141 0.57075477
0.46070033 0.47690395 -0.4904694 -0.5387667
00000000: e3a6 ed3e 0f91 f9be 8823 fb3e 0976 043f
00000010: 269c 103f fa63 f1be 1bb6 ec3e 922c 10bf
00000020: eb40 043f 14a8 f73e 0877 f0be 1ea5 053f
00000030: d647 01bf b9fb febe a56b f43e fb4d f43e
00000040: eef9 edbe ba5e 11bf 8ef4 063f ca61 f9be
00000050: 9758 0abf c58c f63e 044f 073f 9dd5 ef3e
00000060: db5e 06bf e8e0 16bf 5812 0fbf 0253 f3be
00000070: 64f7 ec3e 2571 013f caf6 eabe fc1c 123f
00000080: eae0 eb3e c12c f43e ce1e fbbe 9dec 09bf

running_mean f4 [36]
0.07004376 0.02759754 0.09119291 0.10366391 0.064706534 0.022651555 0.063394286 0.086141914
0.0756 0.058665983 0.023116658 0.04816175 0.06288395 0.07403772 0.040904757 0.08421046
0.09347572 0.047123093 0.14450209 0.07129338 0.039577495 0.044882838 0.16262165 0.05849552
0.109580666 0.08261743 0.19860232 0.073205985 0.060685344 0.04726148 0.051883608 0.0717438
0.04402007 0.06369437 0.046829887 0.06474037
00000000: 1a73 8f3d 3c14 e23c 59c3 ba3d be4d d43d
00000010: dc84 843d c18f b93c ddd4 813d 2c6b b03d
00000020: 2cd4 9a3d be4b 703d 255f bd3c 4145 453d
00000030: 4dc9 803d 17a1 973d bf8b 273d 8976 ac3d
00000040: 3370 bf3d 2504 413d 5bf8 133e 4302 923d
00000050: 031c 223d 11d7 373d 4a86 263e 0099 6f3d
00000060: d46b e03d 5433 a93d 685e 4b3e 05ed 953d
00000070: 3291 783d 4195 413d e883 543d 6aee 923d
00000080: 644e 343d 3272 823d b2d0 3f3d 9996 843d

running_var f4 [36]
0.13471656 0.07775415 0.116149314 0.127693 0.11896 0.066668615 0.13150376 0.16394879
0.133021 0.099001355 0.064297125 0.069317445 0.116092846 0.11176008 0.068478286 0.12686579
0.14936066 0.09672941 0.21284814 0.16796806 0.070011035 0.08399307 0.27214012 0.1050376
0.22177002 0.103893206 0.32069638 0.13031799 0.12275916 0.058673464 0.10452132 0.12963696
0.07673954 0.08143289 0.084762774 0.115792826
00000000: 23f3 093e 913d 9f3d b1df ed3d f4c1 023e
00000010: 4da1 f33d 8e89 883d eca8 063e 31e2 273e
00000020: a836 083e 39c1 ca3d 36ae 833d 4ef6 8d3d
00000030: 16c2 ed3d 78e2 e43d 583e 8c3d 1be9 013e
00000040: 00f2 183e 121a c63d ddf4 593e d2ff 2b3e
00000050: f261 8f3d 8f04 ac3d f355 8b3e f41d d73d
00000060: ae17 633e f6c5 d43d 5132 a43e 1472 053e
00000070: 2869 fb3d 9653 703d 460f d63d 8dbf 043e
00000080: 9f29 9d3d 49c6 a63d 1b98 ad3d ca24 ed3d

weight f4 [1, 36]
0.7102404 -0.6538568 0.65658873 0.61006635 0.56318915 -0.6849924 0.7068477 -0.5614783
0.61207986 0.6651496 -0.6953814 0.6045876 -0.6226606 -0.63660854 0.6768626 0.6773157
-0.7071142 -0.56042504 0.59637254 -0.6533588 -0.5845143 0.66719174 0.5961779 0.6927173
-0.60137916 -0.5459929 -0.56800514 -0.6792072 0.7059729 0.62941486 -0.7189925 0.55823255
0.715193 0.6796347 -0.6484502 -0.58563983
00000000: 51d2 353f 2963 27bf 3316 283f 4f2d 1c3f
00000010: 2a2d 103f a95b 2fbf f9f3 343f 0bbd 0fbf
00000020: 44b1 1c3f 3f47 2a3f 8404 32bf 41c6 1a3f
00000030: af66 1fbf c7f8 22bf de46 2d3f 9064 2d3f
00000040: 7005 35bf 0478 0fbf dfab 183f 8642 27bf
00000050: bba2 15bf 14cd 2a3f 1d9f 183f ec55 313f
00000060: fcf3 19bf 31c6 0bbf c968 11bf 86e0 2dbf
00000070: a4ba 343f 5521 213f e40f 38bf 54e8 0e3f
00000080: e316 373f 8afc 2d3f d500 26bf 7eec 15bf
