mlruns/528961946943719398/models/m-788e40e0698a47fea620bc9f130dc541/artifacts/data/model.pth (torch, 175854 bytes, 17 tensors)

weight f4 [124]
0	0x3f769738	0.9632449
1	0x3f75fc29	0.9608789
2	0x3f75228c	0.9575584
3	0x3f70d345	0.9407237
4	0x3f714cfa	0.9425808
5	0x3f730a96	0.9493803
6	0x3f6f38eb	0.93446225
7	0x3f71d04d	0.94458467
8	0x3f722b9d	0.945978
9	0x3f70c287	0.94046825
10	0x3f73bf1d	0.9521349
11	0x3f72998d	0.9476555
12	0x3f6f4085	0.93457824
13	0x3f6fced2	0.9367496
14	0x3f720e5f	0.9455318
15	0x3f71e83f	0.94495004
16	0x3f7069b5	0.93911296
17	0x3f73ee14	0.95285153
18	0x3f75c180	0.9599838
19	0x3f71a7b1	0.943965
20	0x3f725acb	0.9466979
21	0x3f71bae2	0.94425786
22	0x3f6f9fbd	0.93603116
23	0x3f729656	0.94760644
24	0x3f735bee	0.9506215
25	0x3f72c43d	0.94830686
26	0x3f73bafc	0.9520719
27	0x3f76f7df	0.9647197
28	0x3f70c8fd	0.94056684
29	0x3f710bd4	0.94158673
30	0x3f6faa97	0.93619674
31	0x3f740ad7	0.9532904
32	0x3f728da1	0.9474736
33	0x3f7663c5	0.96245986
34	0x3f739dbc	0.9516256
35	0x3f7201c3	0.9453394
36	0x3f6fecc9	0.9372068
37	0x3f7368eb	0.9508197
38	0x3f6e68cf	0.93128675
39	0x3f72a210	0.9477854
40	0x3f71ed6b	0.94502896
41	0x3f77075c	0.96495605
42	0x3f781c3c	0.9691808
43	0x3f7910d0	0.9729128
44	0x3f71780d	0.9432381
45	0x3f72985a	0.9476372
46	0x3f7079ce	0.9393586
47	0x3f70675a	0.939077
48	0x3f6fbcfa	0.9364773
49	0x3f74ffa5	0.9570258
50	0x3f704715	0.9385846
51	0x3f6f9c52	0.935979
52	0x3f731376	0.9495157
53	0x3f709cfb	0.93989533
54	0x3f70a0ef	0.93995565
55	0x3f70a85d	0.940069
56	0x3f6e77e6	0.931517
57	0x3f6fcff9	0.93676716
58	0x3f746f90	0.9548273
59	0x3f72f720	0.9490833
60	0x3f7139bd	0.94228727
61	0x3f73bb09	0.9520727
62	0x3f6ec8c4	0.93275094
63	0x3f746bde	0.9547709
64	0x3f70f0bf	0.9411735
65	0x3f72f11c	0.94899154
66	0x3f6ef6da	0.93345416
67	0x3f70e3f8	0.9409785
68	0x3f6db6d7	0.92857116
69	0x3f700a20	0.9376545
70	0x3f707864	0.939337
71	0x3f6fe025	0.9370139
72	0x3f718b6d	0.9435337
73	0x3f714762	0.94249547
74	0x3f71b785	0.94420654
75	0x3f7229c5	0.94594985
76	0x3f72e6bf	0.9488334
77	0x3f781f61	0.9692288
78	0x3f744bf2	0.95428383
79	0x3f74d694	0.9563992
80	0x3f6f3477	0.9343943
81	0x3f714e0e	0.94259727
82	0x3f739258	0.9514518
83	0x3f774d3c	0.96602225
84	0x3f6a62e6	0.9155716
85	0x3f734c3c	0.950382
86	0x3f73d2b2	0.9524337
87	0x3f6eaede	0.93235576
88	0x3f725d72	0.94673836
89	0x3f77ea48	0.9684186
90	0x3f6e2463	0.9302427
91	0x3f6e8978	0.9317851
92	0x3f70a36a	0.9399935
93	0x3f72201d	0.9458025
94	0x3f7389c7	0.95132107
95	0x3f713ab3	0.9423019
96	0x3f6fb96f	0.93642324
97	0x3f76d2a7	0.9641518
98	0x3f70b753	0.9402973
99	0x3f70b037	0.9401888
100	0x3f6f3a07	0.9344792
101	0x3f732968	0.94985056
102	0x3f748289	0.9551168
103	0x3f76f137	0.96461815
104	0x3f6e7a07	0.9315495
105	0x3f717a31	0.94327074
106	0x3f6ea80b	0.93225163
107	0x3f737bbb	0.9511067
108	0x3f6bc701	0.9210053
109	0x3f708630	0.93954754
110	0x3f765b25	0.96232826
111	0x3f72baa6	0.9481605
112	0x3f6ecaa1	0.9327794
113	0x3f6faf65	0.93627006
114	0x3f74e59b	0.9566285
115	0x3f723a8b	0.9462058
116	0x3f74c35b	0.9561059
117	0x3f749d6b	0.955527
118	0x3f753824	0.9578879
119	0x3f712cb4	0.94208837
120	0x3f736461	0.9507504
121	0x3f732a68	0.9498658
122	0x3f74b30a	0.9558569
123	0x3f71ea58	0.94498205

bias f4 [124]
0	0xbaa0fc3e	-0.0012282205
1	0xbb32cfcd	-0.0027284503
2	0xbbd1baee	-0.0064004576
3	0xbbdc951c	-0.0067316424
4	0x3aaadf8d	0.0013036594
5	0xbba2457c	-0.004952131
6	0xbbac5b93	-0.00525994
7	0xbc2b7fd7	-0.010467491
8	0xbc156eb8	-0.009120636
9	0x3b7cb218	0.00385583
10	0x3c1ef2c4	0.0097014345
11	0xbb4afb39	-0.0030972494
12	0x3c3a8113	0.011383313
13	0x3b553045	0.0032529992
14	0x3ab861b1	0.00140672
15	0xbb9f2ce4	-0.0048576463
16	0xbc46150d	-0.01208998
17	0x3be93299	0.0071166274
18	0xbc027886	-0.007963305
19	0xb8a97036	-8.079449e-05
20	0x3b366dc8	0.002783643
21	0x3b9ded68	0.004819561
22	0xba2cd4ea	-0.0006593006
23	0xbbd8f465	-0.006620931
24	0x3ab74020	0.0013980903
25	0x3b2b5735	0.0026144509
26	0x3bb04727	0.005379576
27	0x3c0bc83f	0.008531629
28	0x3ba4219e	0.0050088903
29	0x3c1a0ece	0.009402944
30	0xbb156e42	-0.0022801314
31	0xba868f9d	-0.0010266189
32	0x3c3e261a	0.011605764
33	0x3b89ba8a	0.0042031454
34	0x3b91fe68	0.0044553764
35	0xba2a4f0e	-0.00064967654
36	0x3c1d5d2a	0.009604732
37	0xbbe1a164	-0.0068856943
38	0xbb7da19b	-0.003870106
39	0xbc3110e3	-0.010807249
40	0xbb66f42f	-0.003524076
41	0xb9d049f3	-0.00039727948
42	0x3b726105	0.0036984098
43	0x3a103649	0.0005501253
44	0xbba21a38	-0.004946973
45	0x389ad5f9	7.383148e-05
46	0x3b1e317d	0.0024138384
47	0xbbb356da	-0.005473
48	0xbae2bb03	-0.0017298165
49	0xbbf2bcf0	-0.007407777
50	0x3b86cef4	0.004114026
51	0xbbff4dd0	-0.0077912584
52	0xbb43b07e	-0.0029859836
53	0x3c25abdd	0.010111776
54	0x3bec43ef	0.0072102468
55	0x3ad0a40e	0.0015918033
56	0xb8922e8a	-6.970491e-05
57	0x3b84bf42	0.00405112
58	0xbb659f7d	-0.003503769
59	0xbb8f1d19	-0.0043674824
60	0xbbca8594	-0.0061804745
61	0xbb7b9fe0	-0.0038394853
62	0x3c12eb50	0.008967236
63	0x3b2f183e	0.002671733
64	0x3b9532b4	0.0045531634
65	0xbbdd6eab	-0.0067575774
66	0x3bef339b	0.007299853
67	0x3c4ce482	0.012505652
68	0x3bcad16a	0.006189515
69	0x3b4648dc	0.003025583
70	0x3c98598f	0.018597392
71	0xb96df04b	-0.00022691597
72	0x3c088fe6	0.008335089
73	0xbbefa3a9	-0.007313211
74	0xbbd11491	-0.0063806255
75	0xbbd4aa33	-0.006490016
76	0xbb9ccb2a	-0.004784961
77	0xbb5754cc	-0.003285694
78	0x3ba1181b	0.0049162037
79	0xbb689984	-0.0035491893
80	0x3aeaaa2e	0.0017903501
81	0x3b04c825	0.0020260897
82	0xbb0e1de2	-0.0021685292
83	0x3b38d59c	0.0028203493
84	0x3bdadaed	0.00667893
85	0x3ad736b5	0.0016419502
86	0xbc2e7d0c	-0.010649931
87	0xba338cfa	-0.0006849315
88	0x3c362879	0.011118048
89	0xbbae9c98	-0.005328726
90	0x3b63d82b	0.0034766297
91	0x3b635d18	0.003469294
92	0xbbfd3a14	-0.0077278707
93	0x3b0931bf	0.0020934192
94	0xba8cf1b4	-0.0010753185
95	0x3c713aa6	0.0147234555
96	0x3b9ccebf	0.0047853882
97	0x3af473c1	0.001865022
98	0x3c148ee6	0.009067273
99	0x3c23ea4d	0.010004592
100	0x3c1acf85	0.009448891
101	0x3bb857d3	0.005625704
102	0xbbb2fb03	-0.005462052
103	0x3a9e6f24	0.0012087566
104	0x3bb3ad3b	0.005483297
105	0x3b960a95	0.004578898
106	0x3c3fccda	0.011706555
107	0x3aa1cfb8	0.001234523
108	0x3b1ba5f0	0.002375003
109	0xbc244fb3	-0.010028767
110	0xbc1e4bad	-0.009661597
111	0xbbb0f81d	-0.005400671
112	0x3bc27e34	0.0059354547
113	0xbb8982e4	-0.0041965116
114	0x3bf812cb	0.0075705997
115	0x3b6f5c34	0.0036523463
116	0x3b16858d	0.0022967786
117	0x3b6cf3df	0.00361561
118	0xbb9eb03c	-0.004842786
119	0x3bcfaec8	0.006337974
120	0xbc34dcc5	-0.011038964
121	0x3b910adb	0.004426343
122	0xba65ff9e	-0.00087737467
123	0x3a619749	0.0008605612

running_mean f4 [124]
0	0x428bc2f9	69.880806
1	0x4626e3b1	10680.923
2	0x40c38145	6.10953
3	0x40b2bcfa	5.5855684
4	0x42ccdd96	102.432785
5	0x4058ebf7	3.3894022
6	0x40458ab9	3.086592
7	0x405f0691	3.4847758
8	0x403bf500	2.9368286
9	0x3fcde2fa	1.6084893
10	0x43de895f	445.0732
11	0x42356b7a	45.354958
12	0x440e5a62	569.41223
13	0x4083ddc2	4.12082
14	0x3dda20a5	0.10650758
15	0x44920cb3	1168.3969
16	0x43af9eec	351.24158
17	0x40abcad0	5.3685074
18	0x44bea03a	1525.0071
19	0x3ed8125b	0.42201504
20	0x3d73ceba	0.05952332
21	0x3fca0bb3	1.578482
22	0x3ec2f7ea	0.38079768
23	0x403923db	2.8928134
24	0x3f861d6b	1.0477728
25	0x405fe3ff	3.4982908
26	0x40d1f40e	6.561042
27	0x3e1f8609	0.15578474
28	0x3f1e346a	0.6179873
29	0x3feaf3a6	1.8355606
30	0x3fdbfb73	1.7186111
31	0x3fe30269	1.773511
32	0x43ed4f50	474.61963
33	0x403451d6	2.8174949
34	0x40341ac7	2.8141344
35	0x3e162ef6	0.14666352
36	0x42bedd6d	95.43247
37	0x4245cac1	49.448
38	0x41afe3d7	21.98625
39	0x40713366	3.768762
40	0x41788571	15.532578
41	0x404ca04d	3.197284
42	0x3ca94ab9	0.020665513
43	0x4253bb68	52.933014
44	0x421c4119	39.063572
45	0x41ca4799	25.28496
46	0x41fbcfb0	31.47641
47	0x41febcb0	31.842133
48	0x4042be11	3.0428507
49	0x3f9c1418	1.2193632
50	0x3dadfab1	0.08495081
51	0x3ed80dbf	0.42197987
52	0x3e273d37	0.16331945
53	0x3f342483	0.7036821
54	0x3e431a13	0.19052915
55	0x3d91ecd6	0.07125251
56	0x3d17d50d	0.037068415
57	0x3d6cf3fb	0.057849865
58	0x3d0ecf5e	0.03486573
59	0x3ca4e514	0.020128764
60	0x3dc194b0	0.09452188
61	0x3ca78dcd	0.020453358
62	0x3ded5e5d	0.11590264
63	0x3f739903	0.9515535
64	0x3e6e7f2c	0.232907
65	0x3daf667a	0.08564468
66	0x3db8a83c	0.09016463
67	0x3d207c28	0.039180905
68	0x3eb824f3	0.3596569
69	0x3e1a4e04	0.15068823
70	0x3e24a9fc	0.16080469
71	0x3e23c36c	0.15992516
72	0x3dd9a081	0.10626317
73	0x3d1f81e2	0.038942225
74	0x3d0e1f17	0.03469762
75	0x3d09c281	0.03363276
76	0x3c8c63bb	0.017137399
77	0x3cbaa442	0.022783402
78	0x3c98b75f	0.018642126
79	0x3c897b3f	0.016782401
80	0x3f4c2f23	0.79759425
81	0x3e126d53	0.14299516
82	0x3d217b03	0.039423954
83	0x3c835c80	0.016035318
84	0x3dc92f9f	0.09823536
85	0x3d16a6b3	0.03678007
86	0x3d9d566d	0.076825
87	0x3d636237	0.055513587
88	0x3cb32041	0.021865966
89	0x3c114849	0.008867332
90	0x3d0cef83	0.034408104
91	0x3e22bf1b	0.15893213
92	0x3d6b17f1	0.05739588
93	0x3ce399e9	0.027783351
94	0x3d5153c1	0.051105265
95	0x3d998e8f	0.07497894
96	0x3cda6cbd	0.026663179
97	0x3c8eb293	0.017419135
98	0x3d4957d4	0.049156025
99	0x3d1cfc81	0.038326744
100	0x3d6d985f	0.05800664
101	0x3c89d14a	0.01682343
102	0x3cc54f70	0.02408573
103	0x3c89ffcb	0.016845604
104	0x3f190e4a	0.5978743
105	0x3dbb0664	0.09132078
106	0x3edeca75	0.43513837
107	0x3bdb7d4f	0.0066982876
108	0x3ee1b48b	0.44083056
109	0x3c943816	0.01809315
110	0x3cc16340	0.023606896
111	0x3f6da1fb	0.9282529
112	0x3d80f6a2	0.062970415
113	0x3e8611e0	0.26185513
114	0x3d619750	0.055075943
115	0x3cc07c97	0.023496909
116	0x3d237b03	0.039912235
117	0x3da5ef7b	0.08102318
118	0x3ca659b8	0.020306453
119	0x3f5e2203	0.8677065
120	0x3c731739	0.01483708
121	0x3f54381e	0.8289813
122	0x3c078015	0.008270283
123	0x3da865b2	0.08222522

running_var f4 [124]
0	0x43f6d5af	493.6694
1	0x4cd997d9	1.1408148e+08
2	0x3fed4573	1.8536819
3	0x3f9be6d3	1.2179817
4	0x46e68ba4	29509.82
5	0x3ea69118	0.32532573
6	0x3e03c211	0.12866999
7	0x3f437975	0.76357204
8	0x3e9b1f1e	0.30297178
9	0x3f8d0e55	1.1019999
10	0x484d5a61	210281.52
11	0x46c2b346	24921.637
12	0x4844d2b4	201546.81
13	0x3f6fdd37	0.9369692
14	0x3e190ff2	0.14947489
15	0x4811732a	148940.66
16	0x483abb4f	191213.23
17	0x450579aa	2135.604
18	0x48859acb	273622.34
19	0x3e89b4ae	0.2689566
20	0x3d6afc15	0.05736931
21	0x3e98cdb5	0.29844442
22	0x3e8049c2	0.25056273
23	0x3f2445db	0.6416909
24	0x3d4dcae0	0.050242305
25	0x3edd50cf	0.43225715
26	0x4027a043	2.6191566
27	0x3ed862f9	0.4226301
28	0x3ed61838	0.41815352
29	0x4051a2ae	3.2755542
30	0x3f4bb882	0.7957841
31	0x3f0c59ea	0.548247
32	0x472e8927	44681.152
33	0x3f05062b	0.51962537
34	0x3f037982	0.5135728
35	0x3e8007a5	0.25005832
36	0x46843834	16924.102
37	0x4595aec2	4789.8447
38	0x4574f7c1	3919.4846
39	0x446ccf6e	947.2411
40	0x454574b2	3159.2935
41	0x44e953af	1866.6151
42	0x3dad4127	0.084596924
43	0x489b945f	318626.97
44	0x44693cfc	932.9529
45	0x43d63ad6	428.45966
46	0x4410aa12	578.65735
47	0x437689cb	246.53825
48	0x402f387e	2.737823
49	0x3f18500b	0.59497136
50	0x3e007a65	0.1254669
51	0x3eb2050b	0.34769472
52	0x3e8e96c7	0.2784941
53	0x3e55bb5d	0.20872255
54	0x3e1e2252	0.1544278
55	0x3d87cb52	0.06630577
56	0x3d26f63b	0.040762167
57	0x3d8e3648	0.06943947
58	0x3d09c591	0.03363568
59	0x3ca1d1e6	0.019753408
60	0x3daf777c	0.08567712
61	0x3ca41b8a	0.020032663
62	0x3e46f551	0.19429518
63	0x3d73674b	0.05942468
64	0x3e86ce15	0.26329103
65	0x3e1f3765	0.15548475
66	0x3da87506	0.082254454
67	0x3d1a62ed	0.037692
68	0x3e6c758b	0.23091714
69	0x3e030520	0.12794924
70	0x3e0a7afd	0.13523479
71	0x3e09d278	0.13459194
72	0x3dc2b755	0.09507624
73	0x3d197d19	0.037472818
74	0x3d090387	0.03345063
75	0x3d055395	0.032550413
76	0x3c8a48a8	0.016880348
77	0x3cb67df5	0.022276858
78	0x3c95ddc4	0.018294223
79	0x3c874b08	0.01651527
80	0x3e24f99c	0.16110843
81	0x3dfae8e5	0.12251452
82	0x3d1b2c03	0.03788377
83	0x3c819249	0.015816825
84	0x3db56d19	0.08858699
85	0x3d1150be	0.035477392
86	0x3d9176e5	0.071027555
87	0x3d56e02c	0.05245988
88	0x3caf6755	0.021411577
89	0x3c1047fe	0.008806227
90	0x3d084bc8	0.033275396
91	0x3e08e18f	0.13367294
92	0x3d5dd9a6	0.054162644
93	0x3cdd93c0	0.027047992
94	0x3d46d9bc	0.04854749
95	0x3d8e14fd	0.06937597
96	0x3cd49a00	0.02595234
97	0x3c8c7b46	0.017148625
98	0x3d3fd730	0.04683608
99	0x3d1710e5	0.036881346
100	0x3d600e43	0.0547011
101	0x3c87be00	0.016570091
102	0x3cc0d5ac	0.023539387
103	0x3c87c3fb	0.016572943
104	0x3e76db75	0.24107154
105	0x3daa44d1	0.08313907
106	0x3e7c18af	0.24618791
107	0x3bdaaede	0.006673678
108	0x3e7cb91b	0.24679987
109	0x3c91a8ed	0.017780745
110	0x3cbd4822	0.023105685
111	0x3d886591	0.06659997
112	0x3d71b2bc	0.059008345
113	0x3e45e789	0.19326605
114	0x3d5553c9	0.052081857
115	0x3cbc4887	0.022983802
116	0x3d1d572c	0.03841321
117	0x3d98762d	0.07444415
118	0x3ca3531a	0.019937087
119	0x3deaefd8	0.11471528
120	0x3c6f8dcf	0.014621212
121	0x3e108367	0.14112626
122	0x3c06763b	0.008206899
123	0x3d9a9b31	0.07549132

weight f4 [210, 124]
0	0xbba9fb84	-0.0051874537
1	0x3d88604e	0.06658994
2	0x3cf82d10	0.030294925
3	0xbc4024b5	-0.011727502
4	0x3d037d71	0.032102052
5	0xbd4471f5	-0.04796024
6	0x3d941a8a	0.072316244
7	0xbcbe4f82	-0.023231272
8	0x3d97be55	0.0740935
9	0x3cc57659	0.024104284
10	0x3c8c5777	0.01713155
11	0xbda2ec5d	-0.07955239
12	0x3c199920	0.009374887
13	0xbd047661	-0.032339457
14	0x3b6212b8	0.003449602
15	0x3da4a500	0.08039284
16	0x3db36279	0.087590165
17	0xbd9823e7	-0.07428723
18	0x3c55c602	0.013047697
19	0xbdb23032	-0.08700599
20	0xbc24b637	-0.010053209
21	0xbd9891b7	-0.07449668
22	0xbd5c0207	-0.05371287
23	0x3da857bf	0.08219861
24	0xbd11bc1b	-0.035579782
25	0xbc6fafb4	-0.014629293
26	0x3be809c8	0.007081244
27	0x3d03c19d	0.032167066
28	0xbd9db634	-0.07700768
29	0x3d9ed412	0.07755293
30	0x3db8278f	0.0899192
31	0x3d97f8e7	0.07420521
32	0x3cefbc89	0.029264705
33	0xbd7c875d	-0.06165253
34	0x3d850a5b	0.06496116
35	0xbc29c588	-0.0103620365
36	0xbce0a1d2	-0.027420912
37	0xbd8e8179	-0.06958289
38	0x3d0a92aa	0.033831276
39	0xbcba367a	-0.022731055
40	0x3d82710a	0.06369217
41	0x3d1e35ce	0.03862553
42	0xbda5ebdf	-0.081016295
43	0x3d9d6834	0.07685891
44	0x3d9828cf	0.074296586
45	0x3d917a90	0.07103455
46	0xbcd3621c	-0.025803618
47	0xbc25a432	-0.010109948
48	0xbd81964e	-0.063274965
49	0x3bfb8e22	0.0076768557
50	0xbd286d4b	-0.041119855
51	0x3b6f5bc6	0.0036523207
52	0x3daca761	0.084303625
53	0x3d829062	0.06375195
54	0xbda95c02	-0.08269502
55	0x3d2338e2	0.03984917
56	0x3d437767	0.047721293
57	0x3d92a562	0.071604505
58	0xbd529cf6	-0.05141922
59	0xbda48e23	-0.08034923
60	0x3d4cbde3	0.049985778
61	0xbd8d9243	-0.06912663
62	0xbd5809be	-0.052743666
63	0x3d9a1e84	0.07525352
64	0x3ce5864b	0.028018137
65	0x3c79a5be	0.01523727
66	0xbd2e4097	-0.042542066
67	0x3d77884c	0.060432717
68	0x3ce91159	0.028450655
69	0x3cca019d	0.024658972
70	0x3d397508	0.045277625
71	0x3c204210	0.0097813755
72	0xbd57223a	-0.052522875
73	0x3c3891c3	0.011265221
74	0xbd5b0fd6	-0.0534819
75	0xbd828573	-0.0637311
76	0x3d42f131	0.0475933
77	0xbcba745d	-0.022760564
78	0x3d0cd23b	0.03438018
79	0xbc331674	-0.010930646
80	0x3b95ba7f	0.004569351
81	0xbd340bf8	-0.043956727
82	0xbd4932ea	-0.04912082
83	0xbd1b66c9	-0.03793982
84	0x3dac699a	0.084185794
85	0x3c94f707	0.018184198
86	0x3cca850c	0.024721645
87	0x3cb6fd2c	0.022337519
88	0x3c48800d	0.012237561
89	0xbd6c32ca	-0.057665624
90	0x3c47ade8	0.012187459
91	0xbd2a5e56	-0.041593872
92	0x3da37e70	0.079831004
93	0xbadeaa8a	-0.001698808
94	0x3d531b9f	0.051540013
95	0x3d916d79	0.071009584
96	0xbd70c784	-0.058784023
97	0x3d371d18	0.04470548
98	0x3d48467c	0.048895344
99	0x3c6e4d3d	0.014544782
100	0x3bac89a8	0.0052654333
101	0xbd520ba3	-0.05128063
102	0xbcdfb03f	-0.02730572
103	0xbc70746d	-0.014676196
104	0xbda2c3eb	-0.07947525
105	0x3d1497ae	0.036277466
106	0xbd4d21ad	-0.050080944
107	0xbd5935ae	-0.05302971
108	0xbc8d8005	-0.017272959
109	0xbcf3db32	-0.029767606
110	0x3ca13b9b	0.019681742
111	0xbd608d0f	-0.054822024
112	0xbd98aac1	-0.07454444
113	0x3b73829f	0.0037156714
114	0xbda638f3	-0.08116331
115	0xbacb3eca	-0.0015506383
116	0x3d00ea01	0.031473164
117	0xbd2571b8	-0.040391654
118	0xbc7064e7	-0.0146724945
119	0x3d56c279	0.052431557
120	0xbd7fda71	-0.06246418
121	0x3da2d966	0.07951622
122	0xbc61982b	-0.01376919
123	0xbc3a84ca	-0.011384198
124	0x3c259531	0.010106371
125	0xbc31c1ce	-0.010849429
126	0x3cd3273f	0.02577555
127	0x3d94502c	0.07241854
128	0xbd66b80c	-0.056327865
129	0x3d9cbb3b	0.07652899
130	0x3c41c802	0.011827471
131	0x3c54a35a	0.012978399
132	0x3d21810d	0.039429713
133	0x3d585ff3	0.05282588
134	0xbdc1c88a	-0.09462078
135	0xbd330250	-0.043703377
136	0x3d5064b1	0.050877277
137	0xbb11035c	-0.0022127246
138	0xbd60d36f	-0.05488914
139	0xbd7d9037	-0.061905112
140	0xbbd51942	-0.006503255
141	0x3d3837ef	0.044975217
142	0x3d864281	0.06555653
143	0x3d6b6163	0.057465922
144	0x3b4b5f68	0.0031032208
145	0x3d75ba2e	0.059992008
146	0xbdb2e6c9	-0.08735425
147	0xbd1f20f7	-0.038849797
148	0xbdc2140a	-0.094764784
149	0xbd182c72	-0.03715176
150	0x3d0ce095	0.034393866
151	0xbd0b4836	-0.034004413
152	0x3d638ef9	0.05555627
153	0xbd6f6a27	-0.058450844
154	0xbd990c30	-0.07473028
155	0x3db0e8e8	0.08638173
156	0xbbbc1110	-0.0057393387
157	0x3d708657	0.058721866
158	0x3d37f262	0.04490889
159	0x3d929cc1	0.07158805
160	0x3cefb4f2	0.029261086
161	0xbccb6a62	-0.024831
162	0xbcdc2e3f	-0.02687752
163	0xbae894d3	-0.0017744548
164	0xbd4a2951	-0.04935581
165	0xbc8d7705	-0.017268667
166	0xbc65d08b	-0.014026771
167	0x3b0ade73	0.002118972
168	0x3cd46d85	0.02593113
169	0xbcc2be17	-0.023772283
170	0xbdb4c24b	-0.08826121
171	0xbd73b711	-0.059500758
172	0x3d2d4474	0.04230161
173	0xbc7413f6	-0.014897337
174	0xbd59cae7	-0.05317202
175	0x3d1df876	0.03856703
176	0xbcae4a11	-0.021275552
177	0xbaf8dfc4	-0.0018987586
178	0x3d9dec65	0.07711104
179	0x3b8a0f9f	0.004213288
180	0xbd754e3e	-0.05988907
181	0x3da45104	0.08023265
182	0x3d5ad3bb	0.05342458
183	0x3c813c6d	0.015775884
184	0xbd825233	-0.063633345
185	0x3d899b9a	0.06719132
186	0xbd3d6f06	-0.04624846
187	0x3d6feeda	0.058577396
188	0x3d71430f	0.058901843
189	0xbceffdfb	-0.029295912
190	0x3bae2f4a	0.005315696
191	0x3d99d20b	0.07510766
192	0xbd20fdae	-0.039304428
193	0xbd813647	-0.06309181
194	0x3c072f55	0.008251031
195	0xbd8421d2	-0.06451763
196	0x3c80aeca	0.015708346
197	0x3d8e5087	0.06948953
198	0x3d7c79ce	0.0616396
199	0xbd1c772a	-0.03819958
200	0xbd059995	-0.03261717
201	0x3caca5c9	0.021075146
202	0xbd8ea3fb	-0.069648705
203	0xbd6fec3b	-0.058574896
204	0xbbbeae81	-0.0058191423
205	0x3cd9bee8	0.026580289
206	0xbda0c0c6	-0.078492686
207	0x3d2368db	0.03989492
208	0x3d9cbd98	0.0765335
209	0xbcc474ad	-0.023981417
210	0xbce56d2d	-0.02800616
211	0xbd087e2a	-0.033323444
212	0xbd032141	-0.032014135
213	0xbd88ba2e	-0.06676136
214	0xbda845f6	-0.08216469
215	0x3d8838b6	0.06651442
216	0xbd2f0673	-0.04273076
217	0xbd48c460	-0.049015403
218	0x3d1f8a45	0.038950223
219	0xbd6db122	-0.058030255
220	0x3d4f6735	0.050635535
221	0xbd64b14b	-0.055833142
222	0xbcb05a64	-0.021527477
223	0x3c69c745	0.014268701
224	0x3db205f5	0.086925425
225	0x3d7a2bad	0.06107681
226	0xbd105980	-0.035241604
227	0x3cfbf274	0.03075526
228	0xbd75167b	-0.059835892
229	0xbd2d5a52	-0.042322464
230	0x3cb0592f	0.021526901
231	0x3d68ad64	0.056805983
232	0xbd1487c9	-0.036262307
233	0x3cb15566	0.021647166
234	0xbd59416b	-0.053040903
235	0x3c92bd03	0.017912393
236	0x3d43e42f	0.047825035
237	0x3d53558e	0.051595263
238	0x3ca66c09	0.020315187
239	0x3d3a2f9b	0.045455556
240	0xbaf07f0c	-0.001834841
241	0x3db904f7	0.0903415
242	0x3cddf7a3	0.027095621
243	0xbd90cefa	-0.07070728
244	0xbd3862e4	-0.045016184
245	0xbd237f15	-0.039916117
246	0xbd8ee272	-0.06976785
247	0x3c9cc3dc	0.019136362
248	0x3ba9cab6	0.0051816357
249	0xbcbffdb3	-0.023436403
250	0xbcd71673	-0.026255822
251	0x3d1783bb	0.036990862
252	0xbc21d44d	-0.009877277
253	0x3d58b450	0.052906334
254	0x3d135bdd	0.03597628
255	0x3b3a8ebe	0.0028466429

bias f4 [210]
0	0x3cc88722	0.024478499
1	0xbd0131e3	-0.031541716
2	0x3cace10c	0.021103404
3	0x3d0bc8e0	0.034127116
4	0x3c886eda	0.01665442
5	0xbbf7b27c	-0.007559119
6	0xbd8708a6	-0.065934464
7	0xbd17693d	-0.036965597
8	0x3be97890	0.007124968
9	0x3d4858c4	0.04891278
10	0xbd8e7fb3	-0.069579504
11	0xbd8bc98c	-0.068255514
12	0x3cbc89e6	0.023014974
13	0x3c19f8e2	0.009397717
14	0xbc16d22b	-0.009205381
15	0xbd71bdda	-0.059018947
16	0xbcb67ff7	-0.022277815
17	0xbd819a73	-0.06328287
18	0x3d890ab4	0.066914946
19	0xbd5ee351	-0.054416005
20	0x3d6ed581	0.058309082
21	0xbd973b9f	-0.07384419
22	0xbb8f835f	-0.0043796743
23	0x3d28674f	0.041114148
24	0xbcaf0940	-0.021366715
25	0x3d8dcf31	0.06924284
26	0x3cc80bac	0.024419628
27	0xbd314416	-0.043277822
28	0xbd95174e	-0.07279836
29	0x3c9c08af	0.01904711
30	0xbc4c5f07	-0.012473828
31	0xbd992e16	-0.07479493
32	0xbd34d3bc	-0.044147238
33	0x3d7316db	0.05934797
34	0x3d4da5ee	0.05020707
35	0xbd8b3027	-0.06796294
36	0x3b2a991d	0.0026031204
37	0xbd97e745	-0.07417158
38	0x3d1dbedc	0.038512096
39	0x3c97e163	0.01854009
40	0xbd883342	-0.06650402
41	0x3d0fdfa2	0.035125382
42	0xbda18194	-0.07886043
43	0xbd0b8cf5	-0.034069974
44	0x3cc2083b	0.023685565
45	0x3c9cb682	0.019129995
46	0x3d68f3cc	0.056873128
47	0x3bd19e09	0.006397013
48	0x3d804b85	0.06264404
49	0xbce56c0e	-0.028005626
50	0xbce66433	-0.02812395
51	0xbd0ba25e	-0.034090392
52	0xbc92576f	-0.017863957
53	0xbb7e53e1	-0.003880732
54	0xbd86aaea	-0.06575568
55	0xbbdd4151	-0.006752171
56	0x3aa71608	0.0012747655
57	0xbd7dbb92	-0.06194646
58	0xbd43547b	-0.04768799
59	0xbceb4b31	-0.028722377
60	0x3cf881ea	0.030335385
61	0x3c82822b	0.01593121
62	0x3d5162c8	0.051119596
63	0x3d2d3251	0.042284314
64	0xbcdcd3e3	-0.026956504
65	0xbcf59571	-0.029978486
66	0x3c955d6c	0.018233024
67	0x3d8674e8	0.06565267
68	0xbd961e7c	-0.07330033
69	0xbd4461a3	-0.047944676
70	0x3d23b159	0.039964054
71	0xbd4f7183	-0.050645363
72	0xbc49578b	-0.012288938
73	0xbc2b32fb	-0.010449166
74	0x3c65c27c	0.0140234195
75	0xbce19604	-0.027537353
76	0xbd9d0eec	-0.07668862
77	0x3ca4e8f9	0.020130621
78	0xbcf0b7f7	-0.029384596
79	0xbcf528e8	-0.029926732
80	0xbd55d8df	-0.052208778
81	0x3d4a1ffd	0.049346913
82	0x3cc944c1	0.024568917
83	0xbc96ae6d	-0.01839372
84	0xbcba3d75	-0.022734383
85	0xbd56663c	-0.052343592
86	0xbd0fcedd	-0.03510939
87	0x3c70fc8d	0.01470865
88	0xbd395821	-0.045250062
89	0xbda0e0d5	-0.07855383
90	0xbc98d511	-0.018656285
91	0xbd7d291d	-0.061806787
92	0xbd9140c7	-0.070924334
93	0xbd3de8c0	-0.046364546
94	0x3cfc5281	0.03080106
95	0xbd391c69	-0.04519311
96	0xbd86e175	-0.06585971
97	0x3d9d2fd0	0.07675135
98	0x3d90f9a6	0.07078867
99	0xbd3f3174	-0.04667802
100	0xbc4b1819	-0.012395882
101	0x3b26a4ff	0.0025427935
102	0xbd7aa8e0	-0.061196208
103	0xbc1e1a86	-0.009649878
104	0x3a9b1636	0.0011832181
105	0x3d46b872	0.048515745
106	0xbcb7184a	-0.02235045
107	0x3cab7e84	0.02093435
108	0xbd42fd83	-0.04760505
109	0xbd9c267d	-0.076245286
110	0x3d8190da	0.06326456
111	0x3d036ee3	0.03208817
112	0xbd1c45f2	-0.038152643
113	0x3d74dc05	0.05978014
114	0x3d1577af	0.036491092
115	0x3d044101	0.032288555
116	0xbd969a52	-0.07353653
117	0xbd278ba0	-0.04090464
118	0x3d8e1519	0.06937618
119	0x3c421b58	0.01184734
120	0xbd8a270c	-0.06745729
121	0xbb009bb4	-0.0019624056
122	0xbd5deb13	-0.054179262
123	0x3d7d42c8	0.061831266
124	0x3b4bead3	0.0031115308
125	0x3d13f00b	0.036117595
126	0xbd95d0bd	-0.07315204
127	0x3d498963	0.049203288
128	0xbd5deeae	-0.0541827
129	0x3d3a8981	0.04554129
130	0x3cabbfc5	0.020965466
131	0xbd8fbbff	-0.07018279
132	0xbd82303c	-0.06356856
133	0x3d4c7154	0.049912766
134	0xbdab5b94	-0.083670765
135	0xbd7cab85	-0.06168701
136	0xbd3c92f8	-0.046038598
137	0x3caa5688	0.020793214
138	0x3c2cf84a	0.010557244
139	0x3cd46e0a	0.025931377
140	0xbc411bd1	-0.011786417
141	0xbd4b671e	-0.049658887
142	0x3d6b2c61	0.05741537
143	0xbd9d389c	-0.07676813
144	0xbd35e023	-0.044403207
145	0xbd40ad55	-0.047040302
146	0x3d578959	0.05262122
147	0x3d944ddb	0.07241412
148	0xbd0a95c9	-0.033834253
149	0xbd8d0b5f	-0.068869345
150	0xbd567c8e	-0.05236488
151	0x3d7cd660	0.06172788
152	0xbd5d4944	-0.05402495
153	0x3d09daa2	0.03365577
154	0x3d86d643	0.06583836
155	0x3d731335	0.05934449
156	0x3cbc5058	0.02298753
157	0xbd5abcab	-0.053402584
158	0xbd233675	-0.039846856
159	0xbd992e1f	-0.074795
160	0xbc92ede8	-0.017935708
161	0x3d8fe1be	0.07025479
162	0x3d07d4b3	0.03316183
163	0x3d0db98d	0.034600783
164	0x3d8aab0f	0.06770908
165	0x3c36002a	0.011108438
166	0x3d998524	0.07496098
167	0x3d86b692	0.06577791
168	0x3ba396bc	0.004992334
169	0x3d29cd30	0.041455448
170	0xbd27964b	-0.040914815
171	0xbb7fe370	-0.0039045475
172	0x3da01c2d	0.07817874
173	0xbd73e4ee	-0.059544496
174	0xbd65edc1	-0.056134943
175	0xbc589fc1	-0.013221682
176	0xbd9bb95e	-0.07603715
177	0xbb9c1b6a	-0.00476401
178	0xbd24f1d9	-0.040269706
179	0x3d094856	0.03351625
180	0x3d8a6c78	0.0675897
181	0xbd8facf0	-0.07015407
182	0xbd1db93a	-0.038506724
183	0x3d373d06	0.04473593
184	0xbd5097ec	-0.050926134
185	0x3d1f3418	0.03886804
186	0xbd7fa11d	-0.06240951
187	0x3d1cde1a	0.03829775
188	0x3c868cd4	0.016424574
189	0xbd290132	-0.041260906
190	0x3d7f2dd0	0.06229955
191	0xbd38f09b	-0.045151334
192	0x3ce80b99	0.028325843
193	0xbd6dc372	-0.05804772
194	0x3d6dae6f	0.05802768
195	0x3a1bdb5f	0.00059454696
196	0xbd195731	-0.037436668
197	0xbd4c495f	-0.04987466
198	0xbd184dc8	-0.037183553
199	0xbd2c410a	-0.042054214
200	0x3d9eeb32	0.07759704
201	0xbc6c0ff3	-0.014408099
202	0xbd54f1ac	-0.05198829
203	0xbd8f24e1	-0.06989456
204	0xbd0b3848	-0.03398922
205	0x3d058118	0.032593817
206	0x3d635549	0.055501256
207	0x3c6372fc	0.013882395
208	0x3d9d82c9	0.07690961
209	0xbd350b9e	-0.044200532

weight f4 [210]
0	0x3f6d97d8	0.9280982
1	0x3f6abbb4	0.9169266
2	0x3f6d6b5e	0.92741954
3	0x3f6f1e7f	0.9340591
4	0x3f6e1a4e	0.9300889
5	0x3f70fa9c	0.941324
6	0x3f6ec5d9	0.9327064
7	0x3f71a96a	0.9439913
8	0x3f6bf083	0.92163867
9	0x3f6cb4b5	0.9246324
10	0x3f69d2b0	0.9133711
11	0x3f6e0d20	0.9298878
12	0x3f6ba784	0.92052484
13	0x3f6efb0c	0.9335182
14	0x3f6ca221	0.9243489
15	0x3f6e2980	0.93032074
16	0x3f6f20b5	0.9340928
17	0x3f6da838	0.92834806
18	0x3f70b1ca	0.94021285
19	0x3f71804f	0.9433641
20	0x3f701e51	0.9379626
21	0x3f6ecb19	0.9327865
22	0x3f6d2fc7	0.9265103
23	0x3f6edeaf	0.9330854
24	0x3f6c36a1	0.9227086
25	0x3f6c8af5	0.9239953
26	0x3f6e0821	0.92981154
27	0x3f6ee14d	0.9331253
28	0x3f6e0c32	0.9298736
29	0x3f6feea2	0.937235
30	0x3f6fd088	0.9367757
31	0x3f6d60d7	0.9272589
32	0x3f717761	0.9432278
33	0x3f6db354	0.9285176
34	0x3f6e736d	0.93144876
35	0x3f70d082	0.9406816
36	0x3f700aa9	0.93766266
37	0x3f7040fc	0.9384916
38	0x3f6cfcf5	0.9257348
39	0x3f6c985d	0.9241999
40	0x3f6b9ba6	0.92034376
41	0x3f6f4403	0.9346315
42	0x3f6d5305	0.927048
43	0x3f6cd448	0.92511415
44	0x3f705a8b	0.9388816
45	0x3f6cf606	0.925629
46	0x3f6ccd2e	0.9250058
47	0x3f6bbb53	0.9208271
48	0x3f6e6aae	0.9313153
49	0x3f712d78	0.94210005
50	0x3f6e17ba	0.93004954
51	0x3f6eafac	0.93236804
52	0x3f7045e2	0.9385663
53	0x3f6ca268	0.9243531
54	0x3f6c4cc8	0.9230466
55	0x3f705e41	0.9389382
56	0x3f6e85c8	0.93172884
57	0x3f6bea41	0.9215432
58	0x3f6e59ea	0.9310595
59	0x3f6d2afc	0.92643714
60	0x3f6cef53	0.9255268
61	0x3f6cd079	0.92505604
62	0x3f6c8da9	0.92403656
63	0x3f6ee34d	0.93315583
64	0x3f6ff5f1	0.9373465
65	0x3f6b1f47	0.918446
66	0x3f6e358e	0.9305047
67	0x3f6e5bff	0.93109125
68	0x3f6c3045	0.92261153
69	0x3f6f7d28	0.9355035
70	0x3f6b9cf4	0.92036366
71	0x3f6cbe06	0.9247745
72	0x3f6e849d	0.931711
73	0x3f6d91c4	0.92800546
74	0x3f702754	0.9381001
75	0x3f6e3cde	0.93061626
76	0x3f709255	0.93973285
77	0x3f6b6807	0.9195561
78	0x3f6ba1b0	0.9204359
79	0x3f6e6818	0.93127584
80	0x3f6d2145	0.9262889
81	0x3f6b3bda	0.918882
82	0x3f6aeac4	0.91764474
83	0x3f6e0b40	0.92985916
84	0x3f6e1bb1	0.93011004
85	0x3f6dd78e	0.92907035
86	0x3f70a5d1	0.94003016
87	0x3f6c4b19	0.9230209
88	0x3f6a92e2	0.91630375
89	0x3f6b93d1	0.92022425
90	0x3f6c6fdf	0.923582
91	0x3f6e6685	0.9312518
92	0x3f6f9067	0.93579715
93	0x3f6b9411	0.92022806
94	0x3f704e2d	0.93869287
95	0x3f719088	0.9436116
96	0x3f6c6e81	0.92356116
97	0x3f6bb054	0.9206593
98	0x3f6cda5d	0.92520696
99	0x3f6f3037	0.93432945
100	0x3f702eff	0.9382171
101	0x3f6bf1ea	0.92166007
102	0x3f7174fc	0.9431913
103	0x3f6cc841	0.92493063
104	0x3f6ee054	0.9331105
105	0x3f6c7cf6	0.92378175
106	0x3f70b71b	0.94029397
107	0x3f721327	0.94560474
108	0x3f6b119a	0.9182373
109	0x3f6d188c	0.9261558
110	0x3f6f8453	0.93561286
111	0x3f6f0ea4	0.93381715
112	0x3f6f41ba	0.93459666
113	0x3f6e36a7	0.9305214
114	0x3f6b38bc	0.91883445
115	0x3f6c62c7	0.9233822
116	0x3f6d185e	0.92615306
117	0x3f709823	0.9398214
118	0x3f6da1a1	0.9282475
119	0x3f6f1e57	0.9340567
120	0x3f6e3cd0	0.9306154
121	0x3f6cdaa2	0.9252111
122	0x3f6b63f9	0.9194942
123	0x3f6ea2da	0.9321724
124	0x3f6a2945	0.9146922
125	0x3f6b2cb9	0.91865116
126	0x3f6f661c	0.9351518
127	0x3f6be70d	0.9214943
128	0x3f6d172a	0.9261347
129	0x3f6e01a5	0.9297126
130	0x3f6ef4c0	0.9334221
131	0x3f6c26aa	0.92246497
132	0x3f6d5ce1	0.92719847
133	0x3f6bf32d	0.9216793
134	0x3f6d11fe	0.9260558
135	0x3f6d43fa	0.9268185
136	0x3f6b9e71	0.9203864
137	0x3f6eddca	0.93307173
138	0x3f6b02cd	0.9180115
139	0x3f70c2ec	0.9404743
140	0x3f6ea8dc	0.9322641
141	0x3f6c5fd8	0.92333746
142	0x3f6cf729	0.92564636
143	0x3f6d293a	0.9264103
144	0x3f6df410	0.92950535
145	0x3f712a07	0.94204754
146	0x3f71f864	0.9451964
147	0x3f6ed0c5	0.9328731
148	0x3f6e521a	0.9309403
149	0x3f69986c	0.912482
150	0x3f6c1ab3	0.9222824
151	0x3f6ebdc9	0.9325834
152	0x3f6a9677	0.9163584
153	0x3f6d4959	0.92690045
154	0x3f6d1e63	0.9262449
155	0x3f6ee2cf	0.9331483
156	0x3f69843b	0.9121739
157	0x3f6eaed7	0.93235534
158	0x3f707354	0.93925977
159	0x3f6c65ca	0.9234282
160	0x3f6e775b	0.9315087
161	0x3f6a55f1	0.91537386
162	0x3f6aeebc	0.9177053
163	0x3f7092a8	0.9397378
164	0x3f6cdf5b	0.92528313
165	0x3f6b3b83	0.9188768
166	0x3f6ded4a	0.929402
167	0x3f6deeb7	0.92942375
168	0x3f7061bb	0.93899125
169	0x3f6c9c80	0.924263
170	0x3f6c6e9a	0.92356265
171	0x3f6d6852	0.92737305
172	0x3f6d9102	0.9279939
173	0x3f6cdcd9	0.92524487
174	0x3f6d1a5f	0.92618364
175	0x3f6e03a9	0.92974335
176	0x3f6d9c0d	0.9281624
177	0x3f716bf7	0.94305366
178	0x3f6c68d3	0.9234745
179	0x3f70ea68	0.94107676
180	0x3f6d7344	0.92754006
181	0x3f6a84b2	0.91608727
182	0x3f6bec04	0.92157006
183	0x3f6d723b	0.92752427
184	0x3f6d00d3	0.9257938
185	0x3f708f58	0.93968725
186	0x3f6dc2e5	0.9287551
187	0x3f6d32d3	0.92655677
188	0x3f712376	0.94194734
189	0x3f6cd703	0.9251558
190	0x3f69bb93	0.9130184
191	0x3f6d7351	0.92754084
192	0x3f6d2b71	0.9264441
193	0x3f6e463b	0.93075913
194	0x3f6e17ee	0.93005264
195	0x3f6da8bc	0.92835593
196	0x3f6e2856	0.930303
197	0x3f6cd812	0.925172
198	0x3f6ae126	0.917498
199	0x3f71393f	0.94227976
200	0x3f6d4e34	0.92697453
201	0x3f6ebcec	0.9325702
202	0x3f6e3101	0.93043524
203	0x3f6d6a05	0.927399
204	0x3f6e15ca	0.93002
205	0x3f6c62af	0.9233808
206	0x3f6dbd52	0.92867005
207	0x3f6a7005	0.9157718
208	0x3f6bfc2e	0.9218167
209	0x3f69a6d2	0.9127017

bias f4 [210]
0	0x3b41c6fa	0.0029568062
1	0x3c9e9821	0.01935965
2	0xbb957465	-0.0045609945
3	0xbc477294	-0.012173314
4	0xbb1d3b05	-0.0023991477
5	0x3c5c7262	0.013455005
6	0x3c7efba2	0.015562924
7	0xbc0522e3	-0.008125993
8	0x3ba3536b	0.0049843094
9	0xbb299296	-0.0025874726
10	0x3c908e6b	0.017646035
11	0x3c12185c	0.008916941
12	0x3b7772ce	0.0037757638
13	0xbaae9dc4	-0.0013322164
14	0xbb94ee91	-0.004545041
15	0xbc05bbab	-0.008162419
16	0xbc94b103	-0.018150812
17	0x3c3d718f	0.011562719
18	0xbc9a25ef	-0.018816916
19	0xbc0b07c8	-0.008485742
20	0xbbba2e45	-0.0056817853
21	0xbb5175f8	-0.0031961184
22	0x3c787367	0.015164233
23	0xbc1d4a91	-0.009600298
24	0x3bc73439	0.0060792235
25	0x3c9d611b	0.019211343
26	0xbc0680a4	-0.008209381
27	0xbbbbdfe8	-0.005733479
28	0xbca55d0f	-0.020185975
29	0xbca6f9ec	-0.020382844
30	0x3916330c	0.00014324131
31	0x3bb1000f	0.0054016183
32	0xbc16539b	-0.009175207
33	0xbbc536f6	-0.0060185147
34	0xbb7b6dcd	-0.0038365007
35	0xbc8ebe89	-0.017424839
36	0xbbc9a5d9	-0.006153804
37	0x3b8013ea	0.003908624
38	0xbc74f898	-0.0149518475
39	0xbb1ab671	-0.0023607279
40	0xbbf93fa4	-0.0076064635
41	0xbc9f80fb	-0.019470682
42	0x3c530b45	0.012881105
43	0x3cf5b8c2	0.029995326
44	0xbc7e20c2	-0.01551074
45	0xbc43f2fe	-0.011959789
46	0x3bf31075	0.0074177333
47	0x3c0824b4	0.008309532
48	0x39fe490f	0.00048501088
49	0x3c2c9494	0.010533471
50	0xbc11aba2	-0.008891018
51	0xbbe09257	-0.0068533826
52	0x3c218a3c	0.009859618
53	0x3c5f96b7	0.013646773
54	0xbb873a88	-0.0041268505
55	0xbc5fec86	-0.013667231
56	0xbbb9f759	-0.005675238
57	0x3c503a12	0.012709158
58	0xbc1fbaa6	-0.00974909
59	0x3cfc2a85	0.030781994
60	0xbc8a9f3f	-0.016921638
61	0x3a1fda90	0.0006097937
62	0x3c66f7e3	0.014097187
63	0x3ca8d78e	0.020610597
64	0x3cb3ec38	0.021963224
65	0xbbf66dd7	-0.007520418
66	0xbc55773a	-0.013028914
67	0xbc202070	-0.009773359
68	0x3ca8e417	0.020616574
69	0x3b6a46fe	0.003574788
70	0x3bc3c541	0.005974442
71	0xbb00a327	-0.0019628496
72	0x3c958824	0.018253393
73	0xbc90c794	-0.017673291
74	0xbb843d30	-0.0040356144
75	0x3ca4549a	0.020059872
76	0xbb659c20	-0.0035035685
77	0x3c6d4f62	0.014484258
78	0xbc20c430	-0.0098124
79	0xbc963d8d	-0.018339897
80	0x3cbabcd2	0.022795115
81	0x3d09cd1f	0.033642884
82	0x3c448086	0.011993533
83	0x3c1edb53	0.009695846
84	0x3b6cf171	0.0036154652
85	0x3b2cc73e	0.0026363875
86	0xbc9bc267	-0.019013597
87	0xbb8ccd10	-0.0042969063
88	0x3b7225f5	0.0036948894
89	0x3d0561b4	0.03256388
90	0x3c07194e	0.008245779
91	0x3c2ae4f9	0.010430568
92	0x39fd6700	0.0004833266
93	0x3c30caba	0.010790521
94	0xbcd7e6fe	-0.026355263
95	0xbc0e8969	-0.008699753
96	0xba059369	-0.0005095513
97	0x3bd58e04	0.0065171737
98	0x3a177225	0.0005777202
99	0xbc35c71f	-0.011094837
100	0xbb9416e6	-0.0045193313
101	0x3be1cde3	0.0068909987
102	0x3c82f80f	0.015987424
103	0x380c3b5e	3.343389e-05
104	0xbcbf1558	-0.023325607
105	0x3c30f93a	0.010801608
106	0x3a90cda2	0.0011047611
107	0x3c15e5c4	0.009149019
108	0x3a388119	0.000703828
109	0x3c729a9d	0.0148073705
110	0xbb524fc0	-0.0032090992
111	0x3b839969	0.0040160907
112	0xbc42edee	-0.011897547
113	0xbc7f5ba3	-0.015585813
114	0x3b8551f8	0.0040686093
115	0x3cade1cd	0.021225834
116	0xbc20e14e	-0.009819342
117	0x3b95ad81	0.0045678024
118	0x3c58361f	0.013196497
119	0xbc237810	-0.009977356
120	0xbab17b2b	-0.0013540735
121	0xbc8f82b3	-0.017518377
122	0xbc1a0c4c	-0.009402346
123	0xbc5b7c25	-0.013396298
124	0x3abf0746	0.0014574311
125	0xb9d73e28	-0.00041054306
126	0xbc944c60	-0.018102825
127	0x3bd9940d	0.0066399635
128	0xba434f01	-0.0007450432
129	0x3c4446e9	0.011979797
130	0xbbd0d141	-0.0063726013
131	0x3cd0cdfd	0.025488848
132	0x3cecdee1	0.02891487
133	0xbc75a8f8	-0.014993899
134	0xbc585682	-0.013204219
135	0xbc63281d	-0.013864544
136	0x3c393b21	0.011305601
137	0xbbb04e9a	-0.005380464
138	0x3ab5ae80	0.0013861209
139	0xbbb19825	-0.0054197484
140	0xbcb7ed3f	-0.022451995
141	0xbbcf443f	-0.0063252742
142	0x3bb30b1f	0.005463972
143	0x3c2f2466	0.01068983
144	0x3ac093c4	0.0014692475
145	0xbbd0610f	-0.0063592265
146	0xbd03f2c9	-0.03221396
147	0xbc839337	-0.016061408
148	0x3ba986c0	0.005173534
149	0xbbdb1f7f	-0.0066871042
150	0xbb5ef766	-0.0034021973
151	0x3c085678	0.008321397
152	0xbb806527	-0.0039183083
153	0x3c47f566	0.012204504
154	0xbbf7fb47	-0.0075677964
155	0xbbb7a751	-0.0056046625
156	0x3c8751b6	0.016518455
157	0xbbe7dadd	-0.007075651
158	0xbcb18afa	-0.021672715
159	0x3b82e042	0.003994019
160	0xbccafd79	-0.024779068
161	0x3c5685d1	0.013093428
162	0xbbe7c573	-0.0070730983
163	0xbbcfdacd	-0.0063432218
164	0xba986663	-0.0011627193
165	0x3b55f514	0.0032647299
166	0x3abf7c72	0.0014609231
167	0xbbc9fb0b	-0.00616396
168	0xbc34557b	-0.011006708
169	0xbcae662f	-0.02128896
170	0x3ca5fb49	0.020261424
171	0xbc388dee	-0.011264307
172	0x3c2284b7	0.009919337
173	0x3c17905c	0.009250727
174	0x3a873136	0.0010314349
175	0x3bdfad62	0.0068260888
176	0xbc03c888	-0.008043416
177	0xbb6868e9	-0.0035462922
178	0xbcc4b3fe	-0.024011608
179	0xbc11e755	-0.0089052515
180	0x3c1f5975	0.009725918
181	0x3c219cfd	0.009864089
182	0xbc97bcf1	-0.018522711
183	0xbc10f6c2	-0.008847894
184	0xbc35fb11	-0.011107222
185	0xbcb3de02	-0.021956448
186	0x3b9d002b	0.00479128
187	0x3a8c290b	0.0010693384
188	0xbbc9dacf	-0.006160117
189	0x3c043f90	0.008071795
190	0x3b9db434	0.0048127417
191	0xbcf4b07f	-0.029869316
192	0xbb9f39c1	-0.0048591797
193	0xbc006681	-0.007836939
194	0xbc41149a	-0.011784697
195	0xbc232bb0	-0.009959146
196	0xbcc2ce9c	-0.02378016
197	0x3bbc7e30	0.0057523474
198	0xbb3802ef	-0.002807792
199	0xbc092da4	-0.008372698
200	0x3bf97780	0.0076131225
201	0x3c4ce00a	0.012504587
202	0x3ad1b08a	0.0015998047
203	0x391982a1	0.0001463988
204	0x3c7df0ee	0.015499337
205	0x3c280be8	0.010256745
206	0x3c73b79c	0.014875319
207	0xba818fee	-0.0009884813
208	0x3b19e019	0.002347952
209	0xbb76a5d4	-0.0037635462

running_mean f4 [210]
0	0x3def4519	0.11683101
1	0x3de061ff	0.10956191
2	0x3dbc5363	0.09195592
3	0x3dd16ccd	0.1022583
4	0x3dd6829b	0.1047413
5	0x3d9ee17e	0.07757853
6	0x3d9637f7	0.07334893
7	0x3dffdff5	0.12493888
8	0x3e1f7f49	0.15575899
9	0x3e28d6d1	0.16488196
10	0x3d691348	0.056903154
11	0x3d96f29d	0.073704936
12	0x3dd0c1af	0.10193192
13	0x3dc4c383	0.096076034
14	0x3dd49932	0.10380782
15	0x3da1bd17	0.07897394
16	0x3ddd9c83	0.10820868
17	0x3d259aaa	0.040430702
18	0x3de81d10	0.11333668
19	0x3d93e433	0.0722126
20	0x3de7b4bf	0.113137715
21	0x3d8e26bb	0.06940981
22	0x3ddba0e5	0.107240476
23	0x3dc0d085	0.09414772
24	0x3db2bdd2	0.087276116
25	0x3e06badc	0.13157219
26	0x3e00dcf0	0.12584281
27	0x3db86d19	0.09005184
28	0x3d5e4093	0.0542608
29	0x3dba9269	0.09109957
30	0x3dc839f3	0.09776678
31	0x3d440b2f	0.047862228
32	0x3d84c2e0	0.06482482
33	0x3dfdcb1d	0.123922564
34	0x3dd29e0e	0.10284053
35	0x3d622601	0.055212025
36	0x3dcd22be	0.10016392
37	0x3d312cd0	0.043255627
38	0x3e02227b	0.12708466
39	0x3e079e35	0.13243945
40	0x3d69345c	0.0569347
41	0x3dcbf69f	0.099591486
42	0x3d691000	0.056900024
43	0x3da1e983	0.07905867
44	0x3dc51572	0.09623231
45	0x3dd11606	0.10209279
46	0x3e22e0da	0.15906087
47	0x3e14a868	0.14517367
48	0x3e08ac1d	0.13346906
49	0x3d9d54ab	0.07682165
50	0x3de7f726	0.11326437
51	0x3da83d66	0.08214836
52	0x3d7e2f56	0.06205686
53	0x3dd5ed3e	0.10445641
54	0x3d21c7e2	0.039497264
55	0x3dae973d	0.0852494
56	0x3e0261ba	0.12732592
57	0x3d4cfebc	0.05004762
58	0x3d661866	0.056175612
59	0x3da831b1	0.08212603
60	0x3de660cd	0.11248932
61	0x3db55738	0.08854526
62	0x3de86f79	0.11349387
63	0x3de84738	0.11341709
64	0x3da04779	0.07826132
65	0x3d9fa314	0.077947766
66	0x3df2fad0	0.11864245
67	0x3dfa22bc	0.12213656
68	0x3cde6fa6	0.027152847
69	0x3dacd4d7	0.084390335
70	0x3dbb1425	0.09134702
71	0x3daa74ac	0.08323035
72	0x3d990723	0.07472064
73	0x3da2268a	0.07917507
74	0x3da638dc	0.08116314
75	0x3d8b5e48	0.06805092
76	0x3d5831ce	0.052781872
77	0x3db4498b	0.0880309
78	0x3d9c5da3	0.07635047
79	0x3d929d22	0.07158877
80	0x3d71dea2	0.05905021
81	0x3dd4f10f	0.10397541
82	0x3e2c7299	0.1684059
83	0x3d8b469b	0.06800576
84	0x3d71dca9	0.05904833
85	0x3d95453b	0.07288595
86	0x3de11d05	0.10991863
87	0x3dce4014	0.10070816
88	0x3d97f92a	0.07420571
89	0x3d627e05	0.055295963
90	0x3dc3776d	0.09544263
91	0x3d29ea70	0.041483343
92	0x3d8c9b33	0.068655394
93	0x3d5b218d	0.053498793
94	0x3dc7aebb	0.09750124
95	0x3d8460ee	0.064638
96	0x3d3cfbf8	0.046138734
97	0x3e009e20	0.1256032
98	0x3df2e313	0.11859717
99	0x3deebdee	0.1165732
100	0x3d94a07c	0.072571725
101	0x3db16ff1	0.08663929
102	0x3d5ee64a	0.05441884
103	0x3d966b8d	0.073447324
104	0x3d9cf9fc	0.07664868
105	0x3dc817f1	0.097701915
106	0x3d944dc7	0.07241397
107	0x3ddb94f5	0.10721771
108	0x3dd649a8	0.104632676
109	0x3d5259a8	0.051355034
110	0x3deabf85	0.11462311
111	0x3dd6c64d	0.104870416
112	0x3d752647	0.059850957
113	0x3de757be	0.11296032
114	0x3e073586	0.13204011
115	0x3dd00755	0.101576485
116	0x3dc72df2	0.0972556
117	0x3de7aa15	0.113117374
118	0x3dfda802	0.123855606
119	0x3dd70000	0.10498047
120	0x3da25d83	0.07927992
121	0x3e0dab5e	0.13834903
122	0x3d849abe	0.06474827
123	0x3dfaf65c	0.122540206
124	0x3dba8851	0.091080315
125	0x3dde1671	0.10844124
126	0x3df60678	0.120129526
127	0x3df7498e	0.12074576
128	0x3d7fd43e	0.06245827
129	0x3e22b755	0.15890248
130	0x3e14ceff	0.14532088
131	0x3d4ebfee	0.050476007
132	0x3d82bb9b	0.06383439
133	0x3dc1df25	0.094663896
134	0x3d2826a7	0.041052487
135	0x3d278b13	0.040904116
136	0x3dc68ce8	0.096948445
137	0x3e00e316	0.12586626
138	0x3da9ce88	0.08291346
139	0x3da3b892	0.07994188
140	0x3db84659	0.08997793
141	0x3d9191d8	0.071078956
142	0x3dd1eb10	0.10249913
143	0x3d8a398e	0.06749259
144	0x3d86a60e	0.06574641
145	0x3d9fb61f	0.07798409
146	0x3dcadbc1	0.09905196
147	0x3de951da	0.11392565
148	0x3d8163ce	0.06317864
149	0x3de162f1	0.110052
150	0x3d744ba0	0.059642434
151	0x3e1839a0	0.14865732
152	0x3dd96dde	0.10616659
153	0x3e0806f3	0.13283901
154	0x3e0eace9	0.13933147
155	0x3de45875	0.11149684
156	0x3dbe0b4c	0.092794985
157	0x3d618315	0.05505665
158	0x3d7aad23	0.061200272
159	0x3dd91ae3	0.10600831
160	0x3daed545	0.08536772
161	0x3e0b31cb	0.13593213
162	0x3df1bab3	0.11803188
163	0x3de3b713	0.11118903
164	0x3e137a26	0.14402065
165	0x3dc227af	0.09480225
166	0x3e12e318	0.14344442
167	0x3e2b659c	0.1673798
168	0x3d8a0d24	0.067407876
169	0x3dc32e49	0.095303126
170	0x3d8776c7	0.06614452
171	0x3dfbb94e	0.122912034
172	0x3e0d6bfa	0.13810721
173	0x3d91ad0f	0.071130864
174	0x3dab67cf	0.08369409
175	0x3ddaf51d	0.10691283
176	0x3d88340d	0.06650553
177	0x3ddbbadb	0.10728999
178	0x3d83b59f	0.06431126
179	0x3dd08cb6	0.101830885
180	0x3e142fdd	0.14471383
181	0x3d5d2910	0.05399424
182	0x3d9cb261	0.076512106
183	0x3dc85b59	0.09783048
184	0x3d92380e	0.07139598
185	0x3df369fb	0.118854485
186	0x3d56b151	0.052415196
187	0x3ddecbff	0.10878753
188	0x3de35d7a	0.111018136
189	0x3d92b432	0.07163276
190	0x3e0b53ed	0.13606234
191	0x3d8c6e9f	0.06857037
192	0x3dc86153	0.09784188
193	0x3dacea0d	0.08443079
194	0x3ddeb471	0.1087426
195	0x3dadc571	0.084849246
196	0x3d78ec84	0.060772434
197	0x3d8d83fd	0.069099404
198	0x3db28043	0.0871587
199	0x3db27a01	0.08714677
200	0x3e026f88	0.12737858
201	0x3db7ede0	0.08980918
202	0x3daede12	0.0853845
203	0x3d50c466	0.05096855
204	0x3dc8c1e2	0.09802605
205	0x3dc08b58	0.09401578
206	0x3df8a8f8	0.12141603
207	0x3dce97a5	0.10087518
208	0x3e2cee09	0.16887678
209	0x3d69108c	0.056900546

running_var f4 [210]
0	0x3e2172af	0.15766405
1	0x3e4b9e08	0.19884503
2	0x3df0a800	0.117507935
3	0x3e366850	0.1781323
4	0x3e549374	0.20759374
5	0x3e167fe8	0.1469723
6	0x3e1212cc	0.14264983
7	0x3e8eef18	0.2791679
8	0x3ea2c510	0.31790972
9	0x3e869a8c	0.26289785
10	0x3de7d811	0.11320508
11	0x3e1649f7	0.14676653
12	0x3e20299d	0.15640874
13	0x3e12b197	0.14325558
14	0x3e6e365a	0.23262921
15	0x3e0e57c6	0.1390067
16	0x3e5ef804	0.21774298
17	0x3dbc9841	0.09208728
18	0x3e26419e	0.16235968
19	0x3dfcdf77	0.1234731
20	0x3e368e45	0.17827709
21	0x3e2cf08b	0.16888635
22	0x3e4207ad	0.1894824
23	0x3e0c7450	0.13716245
24	0x3e1e0a41	0.15433599
25	0x3e2e7f73	0.17040806
26	0x3e62577e	0.22103688
27	0x3e5abdd5	0.21361478
28	0x3e11acc9	0.14226069
29	0x3e130036	0.14355549
30	0x3e3407e3	0.17581134
31	0x3e02e794	0.12783653
32	0x3e238037	0.15966879
33	0x3e3477ae	0.17623779
34	0x3e22b27f	0.15888403
35	0x3e0b96f9	0.1363181
36	0x3e2de1c6	0.16980657
37	0x3e060f05	0.13091667
38	0x3e52f273	0.206003
39	0x3e84f567	0.25968477
40	0x3e016174	0.12634832
41	0x3e415a3f	0.18882082
42	0x3e0127a9	0.12612785
43	0x3e03ba93	0.12864141
44	0x3e21afc2	0.15789703
45	0x3e10ac10	0.14128137
46	0x3e825c2a	0.2546094
47	0x3e656502	0.22401813
48	0x3e56691c	0.20938534
49	0x3e1e074c	0.15432471
50	0x3e5e1d64	0.21690899
51	0x3e3986e8	0.18117869
52	0x3dec07ee	0.1152495
53	0x3e2a61cd	0.1663887
54	0x3d8aedd4	0.06783643
55	0x3e0db2f6	0.138378
56	0x3e60fa3b	0.21970455
57	0x3ddac9b8	0.10683006
58	0x3ddd06a9	0.10792286
59	0x3e08ac0f	0.13346885
60	0x3e40fb1d	0.18845792
61	0x3e0698aa	0.13144174
62	0x3e123cc3	0.14280991
63	0x3e38241c	0.17982525
64	0x3e373d14	0.17894393
65	0x3e00f500	0.1259346
66	0x3e4033c2	0.18769744
67	0x3e3d9105	0.18512352
68	0x3d991425	0.074745454
69	0x3e2d6e5e	0.16936633
70	0x3df3b104	0.118989974
71	0x3e275121	0.16339542
72	0x3e1786b0	0.14797473
73	0x3e2a39ae	0.16623566
74	0x3e01f928	0.12692702
75	0x3e027bf6	0.127426
76	0x3dfc3da9	0.12316448
77	0x3dc9b087	0.09848123
78	0x3e0197b5	0.12655528
79	0x3dfc8fef	0.12332141
80	0x3df3a9ce	0.11897622
81	0x3e1afb73	0.15134983
82	0x3eb1ef97	0.34753105
83	0x3de1926d	0.110142566
84	0x3de24be6	0.11049633
85	0x3e259f03	0.1617394
86	0x3e7b59a4	0.24545914
87	0x3e06fcb2	0.13182333
88	0x3e25505e	0.16143939
89	0x3df9ec17	0.12203234
90	0x3e4089c6	0.18802556
91	0x3da6b2a6	0.08139543
92	0x3e2a0cf4	0.16606504
93	0x3de3b47e	0.111184105
94	0x3e295679	0.16536893
95	0x3e254860	0.1614089
96	0x3dbf2ef2	0.09335126
97	0x3e59f84a	0.21286121
98	0x3e34f42f	0.17671274
99	0x3e8e3b48	0.27779603
100	0x3e01b1c6	0.12665471
101	0x3e0dca5b	0.13846724
102	0x3df0508a	0.117341116
103	0x3e0dfaab	0.13865153
104	0x3e03235c	0.12806457
105	0x3def261a	0.11677189
106	0x3e004f3c	0.12530226
107	0x3e7c3572	0.24629763
108	0x3e4c9c17	0.19981419
109	0x3dd03849	0.101669855
110	0x3e468a42	0.19388679
111	0x3e23ad37	0.15984045
112	0x3df67269	0.12033541
113	0x3e33e3b1	0.17567326
114	0x3e41a1a4	0.18909317
115	0x3dfed979	0.12443823
116	0x3e51b5bc	0.20479482
117	0x3e90be68	0.28270268
118	0x3e3773c7	0.1791526
119	0x3e4461a4	0.19177872
120	0x3e39bccd	0.18138428
121	0x3e7681d1	0.24072959
122	0x3defd2b6	0.11710112
123	0x3e27e1a5	0.1639467
124	0x3df26e1a	0.118374065
125	0x3e2c4190	0.16821885
126	0x3e85e456	0.2615077
127	0x3e65aead	0.22429915
128	0x3e0d8205	0.1381913
129	0x3e8a510b	0.27014956
130	0x3e8e11c3	0.27747926
131	0x3de522a7	0.1118825
132	0x3e288172	0.1645563
133	0x3df52985	0.1197081
134	0x3de9c866	0.11415176
135	0x3dc3100b	0.09524544
136	0x3e24fd72	0.16112307
137	0x3e50ad60	0.20378637
138	0x3dd2c086	0.10290627
139	0x3e11b6b4	0.14229852
140	0x3e334aae	0.17508957
141	0x3e149d8e	0.14513227
142	0x3e24a475	0.1607836
143	0x3e26c826	0.16287288
144	0x3e23b925	0.15988596
145	0x3e2e8e00	0.17046356
146	0x3e18cbc3	0.14921479
147	0x3e19759a	0.14986268
148	0x3df744b5	0.12073652
149	0x3e38feb5	0.18065913
150	0x3dda1db3	0.10650196
151	0x3e80ea2d	0.25178662
152	0x3e4d4371	0.20045258
153	0x3e61e84e	0.22061273
154	0x3e57ae43	0.2106257
155	0x3e4370e0	0.19086027
156	0x3e077250	0.132272
157	0x3df7cc34	0.120994955
158	0x3e024fe2	0.12725785
159	0x3e4c98ca	0.1998016
160	0x3e1e4bc0	0.15458584
161	0x3e5436bd	0.20724006
162	0x3e274c6b	0.16337745
163	0x3e374135	0.17895968
164	0x3e2974fb	0.16548531
165	0x3e122103	0.14270405
166	0x3e3e3dec	0.18578309
167	0x3e96bf46	0.29442805
168	0x3de1a74d	0.11018238
169	0x3dffca72	0.12489785
170	0x3e116116	0.14197192
171	0x3e6e0dbc	0.23247427
172	0x3e276a8e	0.16349241
173	0x3dfe8c2e	0.12429081
174	0x3e179dbf	0.14806269
175	0x3e34b646	0.17647657
176	0x3e01bca6	0.1266962
177	0x3e46aef5	0.19402678
178	0x3de88111	0.113527425
179	0x3e127529	0.14302506
180	0x3e304de8	0.17217219
181	0x3df9dc32	0.12200202
182	0x3dfbb7f4	0.12290946
183	0x3e0ad1d6	0.13556609
184	0x3e059081	0.13043405
185	0x3e6a25dd	0.22866006
186	0x3dd5a0ea	0.104310825
187	0x3e28f88f	0.16501068
188	0x3e44c436	0.19215474
189	0x3e1b72b0	0.15180469
190	0x3e2b31a8	0.16718161
191	0x3e21f0c6	0.15814504
192	0x3e1e8853	0.15481691
193	0x3e295dbd	0.16539665
194	0x3e15acf5	0.14616759
195	0x3e12d255	0.14338048
196	0x3df87ba7	0.1213296
197	0x3ded3e0b	0.115840994
198	0x3e3bbc3c	0.18333524
199	0x3e483ae0	0.19553709
200	0x3e3c9600	0.18416595
201	0x3e0e8912	0.13919476
202	0x3e2764b6	0.16347012
203	0x3de70f6d	0.11282239
204	0x3e5ef7c4	0.21774203
205	0x3e0c93be	0.13728234
206	0x3e43ef6e	0.19134304
207	0x3e0586ef	0.13039754
208	0x3e91a40b	0.28445467
209	0x3ddeb296	0.10873906
