mlruns/528961946943719398/models/m-7980d442b8f5476f8531ea11bed28aeb/artifacts/data/model.pth (torch, 57419 bytes, 23 tensors)

weight f4 [124]
000000 d3 4d 7c 3f 5f 0f 69 3f d0 50 8f 3f 67 a2 81 3f
       0.9855625 0.9103908 1.1196537 1.0127686
000010 12 80 7e 3f 71 3f 70 3f b6 f9 7b 3f fe 7d 74 3f
       0.9941417 0.93846804 0.98427904 0.9550475
000020 b1 16 6b 3f ef 62 75 3f d4 80 79 3f dc 89 77 3f
       0.918315 0.95854086 0.974622 0.9669473
000030 2a 12 79 3f 4f d1 7c 3f b8 56 77 3f 63 34 84 3f
       0.9729334 0.9875688 0.966167 1.0328487
000040 87 b7 71 3f 2b 76 72 3f 48 e3 80 3f c6 c2 75 3f
       0.94420666 0.9471156 1.0069361 0.96000326
000050 18 85 6b 3f 93 ed 82 3f 6d 01 72 3f 43 08 6a 3f
       0.9199996 1.0228752 0.94533426 0.91418856
000060 7b 28 6d 3f 71 77 83 3f 99 fc 83 3f fd 6c 81 3f
       0.92639893 1.0270826 1.0311462 1.0111386
000070 8d b7 7b 3f a3 81 81 3f a3 6c 68 3f 0d 35 83 3f
       0.9832695 1.0117687 0.90790766 1.0250565
000080 fb 6c 74 3f f2 4d 7d 3f ab a2 6c 3f b4 7f 7c 3f
       0.9547879 0.9894706 0.9243571 0.9863236
000090 4f 88 7a 3f ca 62 71 3f 2d e8 73 3f 1e 93 65 3f
       0.9786424 0.94291365 0.9527615 0.8967761
0000a0 5b 54 71 3f b5 86 6e 3f b2 f2 77 3f 6c d8 71 3f
       0.9426934 0.93174297 0.968547 0.9447086
0000b0 d3 25 70 3f c5 9e 7a 3f 86 4a 79 3f 90 58 68 3f
       0.93807715 0.97898513 0.9737934 0.90760136
0000c0 1f 67 67 3f f1 94 6d 3f 88 3a 79 3f 16 c2 69 3f
       0.90391725 0.9280539 0.97354937 0.91311777
0000d0 84 4d 7b 3f ad 87 6e 3f 23 13 5e 3f 92 b6 6b 3f
       0.98165154 0.93175775 0.8674795 0.92075455
0000e0 47 38 6e 3f ff a3 65 3f e3 f9 6f 3f b0 32 73 3f
       0.9305462 0.89703363 0.9374067 0.9499922
0000f0 84 9a 6a 3f cb bd 76 3f 91 3b 74 3f 25 d4 7b 3f
       0.9164202 0.9638335 0.9540339 0.9837058
000100 98 42 68 3f 4b 51 76 3f 28 35 77 3f 87 3d 65 3f
       0.90726614 0.96217793 0.96565485 0.8954701
000110 c1 10 71 3f 0d 09 71 3f b2 c7 66 3f 13 b0 68 3f
       0.9416619 0.94154435 0.9014846 0.9089367
000120 6a f5 6a 3f d8 15 72 3f 60 dd 68 3f 40 6d 6f 3f
       0.9178072 0.9456458 0.9096279 0.9352608
000130 2c d9 75 3f 2a f4 76 3f 62 e6 71 3f 84 44 6f 3f
       0.96034503 0.96466315 0.9449216 0.9346392
000140 a3 99 76 3f 63 a5 74 3f 12 13 78 3f d4 34 6a 3f
       0.9632818 0.9556486 0.969041 0.9148686
000150 f6 4b 77 3f 64 20 6d 3f 5c 5e 80 3f 3f e7 71 3f
       0.9660028 0.9262755 1.0028796 0.9449348
000160 10 ae 72 3f 05 3d 75 3f 5a 62 77 3f 75 bb 84 3f
       0.9479685 0.95796233 0.9663445 1.0369707
000170 87 a7 6f 3f fb 8e 68 3f 87 c9 82 3f 8a 32 81 3f
       0.93615 0.9084317 1.0217751 1.0093548
000180 a9 77 62 3f 19 da 6f 3f 89 cc 6d 3f 39 f3 75 3f
       0.88463837 0.93692166 0.9289022 0.96074253
000190 a8 9d 7e 3f 4b fe 70 3f 23 d4 67 3f 41 0e 6c 3f
       0.99459314 0.9413802 0.9055807 0.9220925
0001a0 42 a4 70 3f e2 c7 7e 3f 3d 43 65 3f e5 4e 6f 3f
       0.9400064 0.99523747 0.8955572 0.9347976
0001b0 71 13 7f 3f 25 bf 7b 3f 30 72 6b 3f 45 18 6d 3f
       0.9963904 0.9833854 0.9197111 0.9261516
0001c0 dc 26 6e 3f 62 25 73 3f 99 a6 75 3f fe 30 72 3f
       0.93028045 0.94978917 0.9595733 0.94606006
0001d0 87 16 77 3f 3c 11 84 3f 05 ec 6e 3f 0c 18 80 3f
       0.9651875 1.031776 0.9332889 1.0007339
0001e0 8f ff 75 3f cb a7 6b 3f 36 e1 63 3f 70 db 76 3f
       0.96093076 0.92052907 0.8901552 0.96428585

bias f4 [124]
000000 74 f3 0a bd 58 a6 0a 3d 18 91 ed 3b 78 7f b2 3b
       -0.03392358 0.033850044 0.0072499625 0.0054473244
000010 4f ef 19 bd de 34 a3 3b 95 e6 f3 3b 26 d8 1f bc
       -0.037581738 0.0049806675 0.007443259 -0.009756124
000020 ae 95 96 bc 27 fe f8 3c cf e9 7f 3d 54 53 e9 38
       -0.01838192 0.030394627 0.062478837 0.00011125827
000030 ee 07 95 3c a7 43 37 bc d0 2b 36 bd 0a 50 74 bc
       0.018192258 -0.011185563 -0.044475377 -0.014911661
000040 c3 9d f2 3c 6f 2a 1f bb 65 a6 54 bc 0a e7 32 3a
       0.029616242 -0.0024286767 -0.012979125 0.00068245886
000050 86 b0 63 3c ee 23 be ba 83 f6 e4 bc 3d a3 ac 3c
       0.013897067 -0.0014506557 -0.027949577 0.021073932
000060 7e 49 5d bc 51 6d c1 ba 9a 9d 53 bc 8a 66 a1 bc
       -0.013506291 -0.001475731 -0.012915993 -0.019702215
000070 67 35 27 3b 9e 88 18 3c 09 86 0d 3d 01 9b 01 3c
       0.0025514008 0.009309916 0.034551654 0.007910491
000080 5c 94 c9 3c 84 3e 6c bc dc f4 da bb fb 04 ac bb
       0.024606876 -0.014419202 -0.0066820215 -0.005249617
000090 07 7d 13 bd 95 4a 3d 3c d3 e0 1f bd 83 dc 0c b9
       -0.036007907 0.011553426 -0.03903277 -0.00013433587
0000a0 c9 21 cc bc 31 7c eb bc 1c 34 dc bc e3 36 88 3c
       -0.024918454 -0.028745743 -0.026880316 0.016627735
0000b0 44 7d 2a bc 95 6e 40 bd dc b6 12 bd cf 3f ed bc
       -0.010405842 -0.04698046 -0.03581892 -0.02896109
0000c0 b2 71 be 3a d9 6a 47 bb c7 f3 06 3c a9 c9 87 3c
       0.0014529733 -0.0030428676 0.008236832 0.016575651
0000d0 17 b9 db 3c 96 5c 03 bc da b2 6e 3c cc 89 e6 bc
       0.026821656 -0.00801768 0.014569009 -0.028141879
0000e0 e3 07 bf bc e1 bf 0d 3d b4 51 ad 3c 51 f6 8f bc
       -0.02331919 0.034606818 0.021157123 -0.017573508
0000f0 6d c6 39 3c f9 05 7f bc 3e 59 f1 3b c7 21 71 bc
       0.011338812 -0.015565389 0.007365375 -0.014717526
000100 f6 45 05 3d fb 90 36 3c 9c d4 31 bc 4f ef e0 3b
       0.032537423 0.0111429645 -0.010853913 0.0068644653
000110 03 17 2d bd 6a cf 6d 3b 78 a6 99 3c 9a d3 1c 3d
       -0.042258274 0.0036286958 0.018756136 0.038287736
000120 28 7b 63 3c 84 32 02 bd 6d a2 c6 bb 51 6d ce 3c
       0.013884343 -0.031786457 -0.006061843 0.02519861
000130 8e 63 0a bb 8c 71 ae 3b 7b e2 be bc a9 26 84 3b
       -0.0021116468 0.0053235944 -0.023301354 0.004032929
000140 41 95 d4 bc 53 4f 3f bd 6a e2 58 bd 71 5d a6 3c
       -0.025950076 -0.04670651 -0.0529503 0.020308228
000150 b9 fa e2 bc 5b 81 79 3c ad 34 17 bc 02 38 bd bc
       -0.027707445 0.015228595 -0.0092288675 -0.023097996
000160 f1 e0 e9 bc b8 0a 25 bd 62 b2 14 bc 2a c1 f7 3c
       -0.028549643 -0.040293425 -0.009075733 0.030243475
000170 6a 39 02 bb c9 c2 f6 bb fd 9f 0d bd 8d 80 a7 3a
       -0.0019870647 -0.0075305444 -0.034576405 0.00127794
000180 a3 d8 e0 3c ed 26 4d bc 7e f2 90 3c be 94 f8 3c
       0.02744705 -0.012521488 0.017693754 0.030344363
000190 72 e0 17 bd b6 e1 05 bd 2d 6e 83 bb e4 ac dc 3c
       -0.037079282 -0.032685958 -0.0040109367 0.02693791
0001a0 be 6f d4 3c 1b ef 8f bc 8a 4a 09 bd 2a 93 d2 3c
       0.02593219 -0.017570069 -0.03351835 0.025704939
0001b0 a7 ab 0a 3c 00 91 f7 bc 42 18 c5 3c af f4 fb 3c
       0.008463777 -0.030220509 0.024059419 0.030756323
0001c0 56 a6 b0 bc 59 2c 2b bc 3c ad 4d 3d dd 63 9b 3c
       -0.02156369 -0.010447585 0.050214037 0.018968517
0001d0 4a 6d cb bc e8 fc 21 bd c4 dc 50 ba 0f d2 fd 3c
       -0.024832387 -0.03954783 -0.0007967467 0.030983953
0001e0 ed 31 b0 3c 83 22 90 3b 4f 58 e7 bc eb 33 e2 3b
       0.021508181 0.0043986454 -0.028240351 0.0069031618

running_mean f4 [124]
000000 e3 ea 8b 42 df 9e 27 46 53 8d c3 40 61 44 b2 40
       69.95876 10727.718 6.1110015 5.570847
000010 c3 0e cb 42 b2 de 58 40 42 61 45 40 2c 78 5f 40
       101.52883 3.3885922 3.0840611 3.4917097
000020 a3 07 3c 40 de cb cf 3f cf 63 dd 43 4b 90 3a 42
       2.937966 1.623409 442.77975 46.64091
000030 5c 9a 0e 44 52 0e 84 40 b7 10 df 3d e0 f5 91 44
       570.41187 4.126748 0.1089186 1167.6836
000040 a2 ac af 43 5f 64 be 40 6e 9f be 44 48 8a d9 3e
       351.3487 5.9497523 1524.9822 0.42488313
000050 6a cb 6b 3d 7c 52 c9 3f 93 8e c3 3e 80 db 38 40
       0.057567038 1.5728297 0.38194713 2.8883972
000060 13 05 86 3f e7 07 60 40 4e bf d1 40 b3 ac 26 3e
       1.0470299 3.5004823 6.5546026 0.16276817
000070 61 6b 1d 3f 1e 52 eb 3f 8a 75 dc 3f eb 5d e4 3f
       0.6149197 1.8384435 1.722337 1.7841161
000080 56 b2 ee 43 0d 96 34 40 85 7d 34 40 2e 09 16 3e
       477.39325 2.8216584 2.820161 0.1465194
000090 f5 3d bf 42 c7 85 44 42 b2 0f b0 41 e7 30 7a 40
       95.62101 49.130642 22.007664 3.9092348
0000a0 b6 29 78 41 bb a9 3e 40 10 f4 9d 3c 4b a0 4b 42
       15.510183 2.9791095 0.019281417 50.906536
0000b0 ae 31 1c 42 a4 b1 c9 41 76 c7 fa 41 77 2e fe 41
       39.048515 25.211739 31.347393 31.772688
0000c0 58 28 42 40 44 0a 9d 3f 42 c4 bd 3d 18 df d6 3e
       3.0337124 1.2268758 0.09265949 0.41967082
0000d0 4a e7 29 3e 5b 0e 34 3f 0f cc 42 3e f4 e0 93 3d
       0.16592136 0.70334405 0.19023155 0.07220641
0000e0 b9 6c 15 3d 53 dd 75 3d 30 e7 04 3d b6 b0 a5 3c
       0.03648064 0.060025524 0.03244704 0.020225864
0000f0 60 f4 ba 3d 45 11 a4 3c e8 74 ef 3d f4 41 74 3f
       0.09128642 0.020027766 0.1169222 0.95413136
000100 12 6a 6b 3e e9 ec af 3d 84 1f b5 3d 81 ec 1f 3d
       0.22989681 0.08590109 0.08843902 0.039043907
000110 5d f2 b7 3e bd 1a 18 3e ea 22 27 3e 51 b6 22 3e
       0.35927096 0.1485395 0.16321912 0.1588986
000120 1a 82 d7 3d 22 d1 1e 3d ce aa 08 3d 57 7e 06 3d
       0.10522862 0.038773663 0.033366017 0.03283533
000130 4a d6 87 3c 52 12 c6 3c cd 33 88 3c f3 5d 85 3c
       0.016581673 0.024178658 0.016626263 0.01628015
000140 c2 8b 4a 3f 6a 70 14 3e 49 c0 1c 3d 94 57 7f 3c
       0.79119503 0.14496008 0.038269315 0.015584845
000150 3c 72 c4 3d 44 32 1a 3d 9c d0 9e 3d fa 99 69 3d
       0.09592101 0.037645593 0.07754633 0.05703161
000160 c7 45 ab 3c ba 3d 0d 3c 8a d1 0f 3d 79 ed 1b 3e
       0.020907296 0.008620674 0.03511194 0.15227307
000170 d8 45 6e 3d da c8 e8 3c bc c6 52 3d 44 cc 9d 3d
       0.058172077 0.028416086 0.05145906 0.07704976
000180 5e bb d4 3c 9a 7a 97 3c 7a e6 4e 3d db d4 1a 3d
       0.02596825 0.018491078 0.05051277 0.03780065
000190 28 29 7c 3d 3e 95 85 3c ce 08 c5 3c cf 3b 7f 3c
       0.061562687 0.016306516 0.02405205 0.015578224
0001a0 8f e6 19 3f 9b f3 b8 3d cd 58 dc 3e 60 39 d6 3b
       0.6011743 0.09030839 0.430365 0.0065376014
0001b0 39 fd e4 3e 5d e6 8d 3c 5c d0 cb 3c 6e 84 6d 3f
       0.44724444 0.01732176 0.024879627 0.92780197
0001c0 fd 21 84 3d b2 0a 88 3e 0d f8 58 3d fb 1d d6 3c
       0.06451795 0.2657066 0.052970935 0.026137343
0001d0 ef cf 22 3d 4c 01 aa 3d a9 05 a5 3c 5e ad 5d 3f
       0.039749082 0.083010286 0.0201443 0.8659266
0001e0 95 8a 83 3c 22 1e 53 3f eb 8e 0f 3c f5 b0 ab 3d
       0.016057292 0.82467854 0.008762102 0.08383361

running_var f4 [124]
000000 16 81 00 44 72 bf d8 4c e1 7b ef 3f 37 f7 9c 3f
       514.01697 1.1363829e+08 1.870968 1.2262944
000010 af e9 e3 46 dc 90 a7 3e 6c bf 02 3e 16 47 40 3f
       29172.842 0.32727706 0.12768334 0.7510847
000020 94 bb 97 3e a8 ff 8e 3f fe a0 4b 48 aa 2f cb 46
       0.29635298 1.117177 208515.97 26007.832
000030 47 52 43 48 82 0d 6f 3f 88 8d 1d 3e be 81 12 48
       200009.11 0.93379986 0.15386021 150022.97
000040 f5 1b 3c 48 b7 34 16 45 8d f1 83 48 89 c1 89 3e
       192623.83 2403.2947 270220.4 0.26905468
000050 84 0d 65 3d 18 15 99 3e ab 12 80 3e af 4e 25 3f
       0.055921093 0.29898906 0.25014243 0.64573187
000060 4d 61 4e 3d f0 8e dd 3e 82 ed 26 40 82 3f e5 3e
       0.050385762 0.43273115 2.6082463 0.44775015
000070 ab 5b d3 3e cc c9 52 40 6b 1e 4c 3f 01 a0 0a 3f
       0.41280875 3.2935667 0.79733914 0.54150397
000080 a8 c3 2c 47 18 74 01 3f 29 28 00 3f 6a ef 7f 3e
       44227.656 0.5056777 0.5006128 0.24993673
000090 c4 41 83 46 43 6f 92 45 98 c2 76 45 a4 af 86 44
       16800.883 4685.9077 3948.162 1077.4888
0000a0 e6 43 44 45 8c 42 d8 44 c6 38 a2 3d 8b ca 8a 48
       3140.2437 1730.0796 0.07920985 284244.34
0000b0 a7 3c 6b 44 89 d8 d7 43 39 4f 11 44 f5 fb 76 43
       940.9477 431.69168 581.23785 246.9842
0000c0 41 6e 2f 40 ac e3 1c 3f ad 16 0e 3e a3 e2 b1 3e
       2.7411044 0.612849 0.13875838 0.34743223
0000d0 e8 3c 90 3e 09 b1 55 3e 3a b9 1d 3e 2a 87 89 3d
       0.28171468 0.20868315 0.1540269 0.067152336
0000e0 0b 88 22 3d 51 ca 95 3d 8f da 00 3d c5 4f a2 3c
       0.039680522 0.073139794 0.031458434 0.019813428
0000f0 27 e9 a9 3d c0 97 a0 3c f3 93 49 3e a5 d5 6d 3d
       0.082964234 0.01960361 0.19685344 0.058065075
000100 fc 81 85 3e f7 41 21 3e f6 4f a5 3d 22 03 1a 3d
       0.26075733 0.1574782 0.08071892 0.037600644
000110 5d c9 6b 3e e3 e3 01 3e 39 89 0b 3e 30 f3 08 3e
       0.23026033 0.12684588 0.13626565 0.13374019
000120 42 0a c1 3d ca fe 18 3d 9f 41 04 3d e5 2c 02 3d
       0.09425785 0.03735236 0.032289144 0.031781096
000130 bd c1 85 3c 7a 04 c1 3c 98 23 86 3c 01 3f 83 3c
       0.016327733 0.023561705 0.016374394 0.016021254
000140 27 99 29 3e 32 11 fe 3d 71 ea 16 3d 0c 8d 7b 3c
       0.16562329 0.124056235 0.036844674 0.015353452
000150 35 3d b1 3d a9 ab 14 3d 01 72 92 3d 69 59 5c 3d
       0.086542524 0.03629652 0.07150651 0.053796206
000160 97 bb a7 3c d6 00 0c 3c da e9 0a 3d 71 5b 04 3e
       0.020475192 0.008545121 0.033914424 0.12925507
000170 92 46 60 3d 73 4a e2 3c a3 74 48 3d e7 7e 91 3d
       0.0547548 0.02762339 0.04893936 0.07104283
000180 15 3e cf 3c 15 ea 94 3c e9 a0 44 3d 7b 26 15 3d
       0.025298158 0.018178025 0.04800502 0.03641365
000190 64 cb 6c 3d 15 83 83 3c 50 ac c0 3c 9a 95 7b 3c
       0.057811156 0.016053716 0.023519665 0.015355492
0001a0 86 88 75 3e cc 8b a8 3d 88 28 7b 3e fe f4 d4 3b
       0.23977861 0.08229789 0.2452718 0.006498932
0001b0 f2 ea 7c 3e 9e 9a 8b 3c 3c 63 c6 3c 7c 26 89 3d
       0.24699 0.0170415 0.02421724 0.066967934
0001c0 ff 6b 77 3d 2c 59 48 3e aa d7 4d 3d 4b d7 d0 3c
       0.060405727 0.19565266 0.0502545 0.025493285
0001d0 9a 71 1c 3d 40 60 9c 3d a6 e6 a1 3c 60 2e ee 3d
       0.038194276 0.07635546 0.019763302 0.11629939
0001e0 23 c6 81 3c 89 4d 14 3e d2 58 0e 3c a0 cf 9d 3d
       0.01584155 0.14482702 0.008688169 0.07705617

weight f4 [42, 124]
000000 dd e7 83 3b f6 1e de bc 19 2d d3 bd ad f9 85 3d
       0.004025443 -0.027114373 -0.10311336 0.065417625
000010 af d7 60 bd e7 4c 19 3d 90 98 f0 3d b8 18 85 bc
       -0.054893192 0.037426855 0.11747849 -0.016247138
000020 db 60 b2 bc 00 13 a1 3a 12 0e a2 3d ff fe 51 bd
       -0.0217747 0.0012288988 0.0791284 -0.051268574
000030 e0 d9 51 bd 64 89 5c 3c 6d fd 82 bd 05 ea bc bc
       -0.051233172 0.013460491 -0.063959934 -0.023060808
000040 47 d8 10 bd 18 4c 01 3d 65 1e 16 bc 82 34 49 bc
       -0.03536251 0.03156671 -0.00916252 -0.012280585
000050 fb 5f b2 bc 57 05 16 3d 31 7c 4a 3c aa bd 83 3d
       -0.021774283 0.036626186 0.012358711 0.0643266
000060 2c 01 da bc 4f 45 c9 3c 39 7a 96 3d 48 89 e3 bd
       -0.026611887 0.024569182 0.07347531 -0.11110169
000070 fe a5 e8 bd bb 39 7c bd c8 b8 93 3d 56 a9 fe bc
       -0.113597855 -0.061578494 0.072129786 -0.031086605
000080 f3 e9 50 bd 8c fe 44 3c 3e b5 a7 bc 8a 2f b2 3d
       -0.05100436 0.012023579 -0.020472165 0.087004736
000090 b1 7b d2 bc 5b ae e0 bd 32 2c 65 bd e0 b5 91 bd
       -0.025693746 -0.10970756 -0.05595035 -0.07114768
0000a0 e2 76 ea bc 57 7c 91 3d 70 bb a1 bd 85 90 8f 3d
       -0.02862114 0.07103794 -0.07897079 0.07009987
0000b0 cb d6 25 3d 9f 35 da bd 73 9c 11 bd ca be c2 bc
       0.040488046 -0.10654759 -0.035549592 -0.023772616
0000c0 7d d1 fc 3b c2 9c 81 3d bb de b4 3c 00 9d a0 bd
       0.0077154026 0.06328727 0.022078862 -0.078424454
0000d0 c6 3d 40 3d 40 5b 99 3d 1a 1d d0 bc ef d1 b9 bd
       0.04693391 0.07488108 -0.025404502 -0.09073245
0000e0 72 c9 4e bd 9e 5f d6 3a 2e c3 c7 bd a1 9b b6 3d
       -0.050485082 0.00163554 -0.097540244 0.089164026
0000f0 a9 ea 49 3d 5c 40 87 3c d6 0a 99 3d f4 86 6d 3c
       0.049296055 0.016510181 0.0747277 0.014497507
000100 15 6f b2 3d 58 9b 24 3c 85 f2 d8 3d 79 bd 8d 3b
       0.087125935 0.010046802 0.10593132 0.0043255654
000110 de 98 a8 bd f0 b4 b7 bd b2 34 7c 3d de 41 5b 3d
       -0.08232282 -0.08970058 0.06157369 0.053529613
000120 00 f0 20 3d 92 44 9d 3d 70 3b b0 ba 29 fc 93 3c
       0.03929138 0.076790944 -0.0013445448 0.018064575
000130 f7 a0 43 bd f9 a4 24 3d 13 cd 19 bc 96 7f 13 3d
       -0.04776093 0.040196393 -0.009387272 0.036010347
000140 45 f6 25 3d 3d a8 ec bc bf ed e0 bd 91 48 83 3d
       0.040518064 -0.028888816 -0.109828465 0.06410325
000150 ac 94 02 be e1 fa b6 bd 00 3e cd bc 3d 40 a6 bd
       -0.12752026 -0.0893457 -0.025053978 -0.08117721
000160 2b 26 8d bc 6d d2 e3 bd eb d7 b5 3d 38 8b b6 3d
       -0.017230114 -0.1112412 0.08879074 0.089132726
000170 88 51 49 bd b8 01 06 bd 2b c7 3f 3d ed 27 c8 3d
       -0.04915002 -0.032716483 0.0468208 0.0977324
000180 74 32 14 3d 4a 83 fb bc 80 80 60 3c 11 97 b1 3c
       0.03618093 -0.030702252 0.013702512 0.02167848
000190 12 51 e1 bd ba 8c 52 bd 76 c0 9c 3c 07 36 32 3d
       -0.11001791 -0.05140374 0.019134741 0.043508556
0001a0 94 38 9a 3d 35 c4 b4 bd 96 62 56 bd f2 a9 6f bd
       0.07530323 -0.08826486 -0.052340113 -0.05851168
0001b0 7f 69 62 bd 1b 9b db bd 3a 8f ed 3c 44 91 69 3c
       -0.05527639 -0.107229434 0.02899896 0.014255825
0001c0 99 4c 3b bd 45 37 04 bb be b9 46 bc d9 9b 98 bd
       -0.045727346 -0.0020174545 -0.012129245 -0.074516006
0001d0 e8 1b 92 bd b0 7d b4 bd 9b 47 a6 3d d5 ab 27 3c
       -0.07134229 -0.088130355 0.081191264 0.010233839
0001e0 f6 16 4f bd 1c 71 ba bd 8e d8 0c bd a5 bc 60 3a
       -0.050559007 -0.09103605 -0.03438621 0.0008573032
0001f0 6a 6f 4b bd 58 01 33 bd 23 4a 2e bd 4f b4 c0 3d
       -0.0496668 -0.043702453 -0.04255117 0.09409391
000200 bc 3f d6 bd df f6 63 bc 72 98 60 bd 25 b3 82 bc
       -0.10461375 -0.013913839 -0.054832883 -0.015954563
000210 ca df 25 bc 7f 64 80 bb fd 16 51 3d 0c ad 8d bd
       -0.010124156 -0.00391823 0.051047314 -0.06917772
000220 92 c5 ee 3a 11 ab 47 bd 18 cc a4 bc f6 cd 21 bd
       0.001821684 -0.048747126 -0.02011685 -0.03950306
000230 7f 1e e1 bd ab ef 4c bc 89 eb d3 3c ef 54 d3 bd
       -0.10992145 -0.012508313 0.025869148 -0.10318934
000240 5f dd 87 3d e4 4a e7 bd 85 b5 e1 bd b6 19 8d 3d
       0.0663402 -0.11293581 -0.1102095 0.068896696
000250 43 0a d9 bc 8c 94 36 3d a6 ba 53 bd d4 56 3a bd
       -0.026494151 0.04457526 -0.051691674 -0.045492962
000260 4d 4a d3 bd de 30 b1 bd d7 be e9 3c b7 b2 63 bd
       -0.10316906 -0.08651899 0.028533382 -0.055590358
000270 bf 95 a4 bd d7 2f 12 3c a5 d4 00 3d a8 a5 4c 3d
       -0.08036374 0.008922539 0.031452794 0.04996267
000280 3f f0 4d 3c 85 c8 51 bd eb ae 85 bc 2a 7a 80 bd
       0.012569486 -0.05121662 -0.016318759 -0.06273301
000290 d2 51 b9 bc 86 df 0f bd 83 18 ca bc d1 59 33 bd
       -0.022622023 -0.035125278 -0.024669891 -0.043786827
0002a0 32 e1 5f 3d 70 f4 af bb 78 d5 84 3d d4 c1 6b bc
       0.054658122 -0.0053697154 0.064860284 -0.014389474
0002b0 3c c3 64 3b 9f a5 93 3d 24 a2 8a 3d ba 2d 06 bd
       0.0034906408 0.07209324 0.06769207 -0.032758452
0002c0 61 d2 cd 3d 24 f8 a3 3c b8 f5 98 3d 2d 81 68 bd
       0.10049892 0.020015784 0.07468742 -0.056763817
0002d0 f9 41 22 3d 3e 79 23 bd 22 c5 8e bd 7a d0 58 bd
       0.039613698 -0.039910547 -0.06971194 -0.052933194
0002e0 8b 7d a0 3d 61 c9 1c 3d b0 ec b4 3d f5 b0 0d 3d
       0.078364454 0.038277987 0.08834207 0.034592588
0002f0 07 0b f1 bb 80 2c 14 bd 4f 2b 45 3d 1d 18 c2 3d
       -0.007356051 -0.03617525 0.048137005 0.094772555
000300 d5 a7 8d bd 59 e3 b7 bc d0 de e2 3c 59 1c 2f 3d
       -0.06916777 -0.022447275 0.027694136 0.042751644
000310 6f a7 30 3c 20 d4 d1 bd de 7d 93 bd a9 70 af 3d
       0.010782107 -0.10245538 -0.07201742 0.0856641
000320 92 a6 71 3d 7d e8 d1 bc d7 ed 08 bd ae af c5 bd
       0.058996744 -0.025623554 -0.033429947 -0.09652649
000330 b5 75 82 3c ab 74 0b bd 91 76 6a bc a0 d7 35 3d
       0.015925268 -0.03404681 -0.014310495 0.04439509
000340 7a 4e bd bc d2 6f 4e 3d 09 f7 04 bd b3 0b 53 bd
       -0.02310871 0.05039961 -0.032462154 -0.05152483
000350 ad a9 73 bc a5 d6 9d 3d 35 d0 83 3d a4 c1 5f bb
       -0.014871997 0.07706956 0.06436197 -0.0034142518
000360 5c 22 35 bd 39 f8 12 bb b5 2a f1 bd 86 5d b1 3d
       -0.04422222 -0.0022425784 -0.11775724 0.08660416
000370 4d c8 a1 bc 64 47 80 3b dc a1 3a 3d d0 df 85 bd
       -0.019748831 0.0039147604 0.045564517 -0.065368295
000380 61 6a bb bd 66 46 02 3c 6d 9a 71 3d d2 79 b4 bd
       -0.091511495 0.007951355 0.058985163 -0.08812298
000390 2a d0 29 bb 11 e2 78 3c 23 49 d0 bc 57 90 42 bd
       -0.002591143 0.015190617 -0.0254255 -0.047500934
0003a0 40 3f 86 bc 7e e2 13 bc 09 d5 e6 3b fb bf bb bc
       -0.016387582 -0.009026168 0.0070444387 -0.022918692
0003b0 c2 ee fb 3c 8e 96 5e 3d 2e 84 9c 3d bd 18 bc 3c
       0.030753497 0.0543428 0.07642399 0.022961015
0003c0 85 c5 53 bd 2d be c8 bd 73 f2 50 3d 25 c8 7e 3c
       -0.05170204 -0.09801898 0.051012468 0.015550648
0003d0 c4 5e 95 3d d2 e7 39 3d 9c d6 d9 bd 3b a0 9f bd
       0.07293466 0.045387097 -0.106366366 -0.077942334
0003e0 cb cf c9 bb c4 36 a0 bd 31 1e 0c be bd a9 b3 bd
       -0.006158804 -0.07822946 -0.13683392 -0.087726094
0003f0 4a a9 59 bd 0c ea 4a bb 6b b2 4f bb c8 ba 26 bd
       -0.053139962 -0.0030962257 -0.0031692039 -0.040705472

bias f4 [42]
000000 f1 7f 10 bd 60 c1 51 3c f2 ab 89 bd 61 e0 b0 bd
       -0.035278264 0.012802452 -0.06722249 -0.08636547
000010 ae 55 a8 39 24 4e 20 bd bb 71 13 3d bc 45 68 bd
       0.00032107293 -0.03913702 0.035997134 -0.05670713
000020 72 5b f1 3a 8b b0 5e bd f0 34 c3 bd 01 dd c8 3d
       0.0018414094 -0.054367583 -0.095315814 0.09807778
000030 0f 73 eb bd 6e 26 af bd cf f3 b3 3d fd 55 8b 3d
       -0.11496555 -0.08552252 0.08786737 0.0680351
000040 d1 db b4 bd 84 2e 31 bd 5f ce 50 3d 2a 0b bf bd
       -0.08830989 -0.04325725 0.05097806 -0.09328301
000050 3d 0f 8e 3d 0b ab 2c 3d 62 56 3b 3d 2c 45 3d 3c
       0.069365 0.042155307 0.045736678 0.011552136
000060 82 69 de bc 08 8f 75 3d e0 ca 68 3d f9 e1 aa bc
       -0.02714992 0.05995086 0.0568341 -0.020859705
000070 52 d7 a6 bd 5b f3 b4 3d 15 ce 43 3d 43 db c5 bc
       -0.08146538 0.08835479 0.047803957 -0.024152404
000080 b7 b2 c5 bd 15 60 8d 3b cc 74 63 3d 9c 8d ce 3c
       -0.09653228 0.0043144324 0.055531308 0.025214009
000090 5b 51 ac bd 56 7b a4 3d 88 76 fb bc 86 68 94 3b
       -0.08413955 0.08031337 -0.030696169 0.0045290617
0000a0 6b 82 2f 3d b5 dd ec bc
       0.042848986 -0.028914312

weight f4 [42]
000000 c4 3b 79 3f 14 c0 69 3f 0b ab 82 3f 97 cc 72 3f
       0.9735682 0.9130871 1.0208448 0.9484343
000010 30 b7 7a 3f 17 e4 82 3f 1d 13 6c 3f f9 47 6d 3f
       0.9793577 1.0225857 0.92216665 0.92687947
000020 a0 f9 85 3f 4e 35 72 3f 82 6d 85 3f 98 1c 76 3f
       1.0466805 0.94612586 1.0424044 0.9613738
000030 6b 89 84 3f 7b 38 7c 3f 99 00 77 3f bc 11 68 3f
       1.0354437 0.9852368 0.96485287 0.9065206
000040 7e 12 72 3f bf 06 8b 3f f0 5c 72 3f 9d 03 80 3f
       0.94559467 1.0861434 0.9467306 1.0001103
000050 7f 81 79 3f 3f bf 72 3f f0 3a 74 3f 6f 26 83 3f
       0.9746322 0.9482307 0.9540243 1.0246104
000060 aa 85 85 3f 37 bc 81 3f 2b 6b 81 3f 16 fa 73 3f
       1.0431416 1.0135564 1.011083 0.95303476
000070 1a 6e 81 3f 17 22 81 3f c3 a8 87 3f f3 39 86 3f
       1.0111725 1.0088528 1.0598377 1.0486435
000080 c1 39 7b 3f 5b 08 81 3f 4c 32 71 3f e7 d0 66 3f
       0.98135 1.0080675 0.9421737 0.9016251
000090 32 9f 72 3f 2d 51 70 3f f2 6f 6e 3f e7 55 79 3f
       0.9477416 0.93873864 0.93139565 0.973967
0000a0 01 f6 7e 3f bb 26 77 3f
       0.9959412 0.96543473

bias f4 [42]
000000 75 76 25 bd e7 6e c0 bb 73 6f 2b bc bd d6 49 3c
       -0.040396173 -0.0058725956 -0.010463583 0.012319264
000010 4b 3f 71 3c 36 60 05 bd 52 5d 83 3d 3c 0d 25 3c
       0.014724563 -0.032562457 0.06414284 0.010073956
000020 5e 96 87 bd ea 29 08 ba e4 90 82 bd 5b 7b e9 bc
       -0.06620477 -0.0005194234 -0.06375292 -0.028501203
000030 43 9d ce bd c2 59 6c bd da 78 24 3d 7e ce 59 bc
       -0.10088589 -0.057702787 0.040154316 -0.0132938605
000040 aa e5 8b 3c 3d 59 bf 3c 1d bd d2 bc 41 8a 05 bd
       0.017077286 0.023357982 -0.025724942 -0.032602552
000050 e5 ee 20 3b 18 60 fc bc 97 bb 6e bb 1b ca c5 3c
       0.0024556455 -0.03080754 -0.003642773 0.024144223
000060 5b 05 37 bd 8e 81 54 bc d4 32 42 3c 15 42 e1 3c
       -0.04468284 -0.012970341 0.011852939 0.02749733
000070 c6 6b ce bc b3 40 de 3c 55 7c 8a bd 55 fb 8a bc
       -0.025197875 0.02713046 -0.06761996 -0.016965548
000080 aa 88 b4 ba 4a 2f 27 bc f0 4b 4b 3c cd 66 58 3d
       -0.0013773639 -0.010204146 0.012408242 0.052832413
000090 d0 0f e7 3c 86 b1 94 3c 50 a1 ea bc 65 93 97 bd
       0.028205782 0.018151056 -0.028641373 -0.0740116
0000a0 54 60 c8 bc 60 0b 26 3c
       -0.024459995 0.010134548

running_mean f4 [42]
000000 55 a0 3a 3e c0 e0 a5 3e e5 96 44 3e b8 2a 21 3e
       0.18225224 0.32398033 0.19198187 0.15738952
000010 ce 39 62 3e 94 c0 ac 3e a1 74 e9 3d b4 e2 ef 3d
       0.22092363 0.33740675 0.11399198 0.11713162
000020 90 3e 55 3e 65 fc 43 3e 07 ed 7a 3e e7 84 b2 3e
       0.20824647 0.1913925 0.24504481 0.3486702
000030 68 d9 27 3e 05 00 95 3e 90 64 67 3e da 53 1e 3e
       0.16391528 0.29101577 0.22596955 0.15461674
000040 a3 e6 c7 3d 55 d6 45 3e 79 90 25 3e be 70 68 3d
       0.09760787 0.19320042 0.16168393 0.056748144
000050 2d 12 8a 3e af af 8d 3e 95 10 9a 3e 21 18 3a 3e
       0.26966992 0.27673098 0.30090776 0.18173267
000060 04 82 8d 3e a3 6d 54 3e 1a b3 6b 3e 21 6a 2a 3e
       0.27638257 0.20744948 0.2301754 0.16642047
000070 9a 1f 38 3e f9 da 95 3e df 74 58 3e 0b 03 88 3e
       0.17980805 0.29268625 0.21138333 0.26564822
000080 63 17 7d 3d f5 af 2d 3e a7 c1 4b 3e d5 73 1d 3e
       0.06178988 0.16961654 0.19898091 0.15376218
000090 d6 21 16 3e d1 ef 85 3e c5 65 14 3e c6 18 83 3e
       0.14661345 0.26159528 0.14491947 0.25604838
0000a0 24 01 8d 3e b0 bb 86 3e
       0.27539933 0.2631507

running_var f4 [42]
000000 67 85 8a 3e eb b5 f5 3e 66 86 c7 3e d1 df 91 3e
       0.27054903 0.47990355 0.38969725 0.2849107
000010 07 e3 f9 3e 7b f7 3a 3f 1f ac 0b 3e b8 ac 47 3e
       0.4880602 0.73033875 0.13639878 0.1949948
000020 56 b5 0c 3f 10 ec a0 3e d2 63 16 3f db b0 24 3f
       0.54964197 0.314301 0.58746064 0.6433236
000030 ec c9 03 3f 1e dd 4a 3f 70 7f a9 3e 31 32 46 3e
       0.51479983 0.7924365 0.3310504 0.19355084
000040 d1 87 4e 3e 65 01 a4 3e 38 ac 81 3e 64 58 2c 3e
       0.20168997 0.32032314 0.25326705 0.16830593
000050 69 e4 c6 3e a7 84 11 3f 0c c5 3b 3f 87 12 99 3e
       0.38846138 0.56843036 0.73347545 0.29896948
000060 c7 86 29 3f cb 75 96 3e 31 94 0c 3f 28 d4 9c 3e
       0.6622128 0.29386744 0.5491362 0.30630612
000070 8d 62 07 3f da 1b d6 3e 81 aa df 3e 5c 9b 2c 3f
       0.5288475 0.41818124 0.43684772 0.6742456
000080 96 06 19 3e af 82 fe 3e 1d 49 ab 3e 87 28 39 3e
       0.14943919 0.4970908 0.33454219 0.18081866
000090 09 4c a2 3e 63 f3 de 3e 22 6e 74 3e 68 55 ff 3e
       0.31698635 0.43545064 0.23870137 0.49869847
0000a0 af f1 0a 3f ec 25 09 3f
       0.5427503 0.5357349

weight f4 [52, 42]
000000 07 65 03 be 81 84 8d bc fd a7 a1 bd b9 9b bc bb
       -0.12831508 -0.017275097 -0.07893369 -0.0057558683
000010 19 6d e6 bd 7e 77 0b be c6 19 23 bd 43 af a5 3d
       -0.112512775 -0.13619801 -0.0398195 0.08090069
000020 59 ec d6 bd 82 9e 69 3d f5 8d 87 bd 71 3f c2 bd
       -0.104942985 0.05703593 -0.06618873 -0.09484757
000030 92 f7 00 ba 4a e7 64 3d b4 75 92 3d 7e ef e1 bc
       -0.00049197034 0.055884637 0.07151356 -0.02758002
000040 f5 62 b9 bd 8f 74 9b bc 90 fc 13 be d3 31 b6 3d
       -0.09052078 -0.018976478 -0.14451814 0.08896222
000050 06 6e 1f be 1b 7c a6 bd 01 01 1b 3d c5 0e 29 be
       -0.15569314 -0.0812914 0.037842754 -0.1650954
000060 72 33 c6 bd ed d8 0d 3d b1 cd 23 3d 15 92 ff bd
       -0.09677781 0.034630705 0.039991084 -0.12479035
000070 8d 52 a1 bd 35 84 08 3e 1a 2e b4 bd 0c 3f 8e bd
       -0.078770734 0.13331683 -0.08797856 -0.06945619
000080 db f2 7f 3d bc 9f df bd b2 60 0c be 57 d2 9e 3d
       0.062487464 -0.10919139 -0.13708761 0.07754963
000090 8c 16 e2 bd 13 d4 7e 3c 4c 43 e9 3d 15 a1 23 3e
       -0.11039457 0.015553492 0.11389789 0.15979417
0000a0 52 6d 88 3d 26 17 8e bc d7 49 d5 3d 4b 22 a2 3c
       0.06661476 -0.017345022 0.104144745 0.019791743
0000b0 e5 00 e3 3d 83 38 fb 3d e4 5d f0 3c d5 eb d1 bc
       0.11084155 0.12266638 0.029341646 -0.025625149
0000c0 b7 96 27 be 3b 2e ff bd 93 0a 76 3d f5 1a 19 3e
       -0.16366087 -0.1245999 0.060068678 0.1495169
0000d0 60 d3 2b be 92 67 c2 bd 65 7f c9 bd f4 58 07 be
       -0.16779852 -0.09492411 -0.09838752 -0.13217527
0000e0 f2 d0 79 3d 83 0a 0c bd 8a c1 80 3d a4 a9 9a bd
       0.06099028 -0.034189712 0.06286915 -0.07551888
0000f0 ce fd 32 be 76 9b 04 3e df 58 04 3d a3 8f f3 39
       -0.17479631 0.12949929 0.032311317 0.0004645559
000100 8f a0 4d 3d 38 ae 45 be 09 7d 07 3e 28 ee e6 bc
       0.05020195 -0.1930474 0.13231291 -0.028189734
000110 82 0d d1 3d 4e 84 25 be 48 18 9f bd 21 15 43 3d
       0.102076545 -0.16163751 -0.07768303 0.047627572
000120 e6 e7 03 bd 4c ab 29 be 31 aa d1 3d fb c8 d9 bd
       -0.032203577 -0.16569251 0.102375396 -0.10634037
000130 52 ad 5f 3d 27 f0 57 3d ad 12 b5 3d de d6 b8 3d
       0.05460865 0.05271926 0.08841453 0.09025358
000140 ad ae 19 be 82 45 b5 3d 76 f4 a2 bc db 70 ad 3d
       -0.1500804 0.08851148 -0.019891959 0.08468791
000150 13 ee d7 bc cf 47 f5 3d b0 02 08 bd b3 c1 15 3e
       -0.02635864 0.11976587 -0.033205688 0.14624672
000160 b2 fe 5d bd 06 cf 2a 3e 76 93 4c 3d d6 71 e5 bb
       -0.054197975 0.16680536 0.049945317 -0.0070020957
000170 55 6b 04 3d 96 78 60 bb b7 8d ab bd 44 1e 86 3d
       0.032328922 -0.0034251562 -0.08376639 0.065487415
000180 21 88 19 be 7b d2 b0 3d a5 72 f9 bc 76 ae 2e bd
       -0.14993335 0.08633896 -0.030450175 -0.042646848
000190 80 5a 9e 3c ef 42 4e 3c 3f 1b 2c be 6b 05 2f 3d
       0.019330263 0.0125892 -0.16807269 0.042729776
0001a0 13 cf 50 bb b0 2e bb bd 79 2e 0e be ed 3d 19 be
       -0.0031861707 -0.09139764 -0.13884915 -0.14965029
0001b0 a6 38 6f 3d 82 e4 19 3d 36 e9 ba bd 40 10 f7 bd
       0.058403634 0.037571438 -0.09126513 -0.12063646
0001c0 21 41 36 bd 86 2a 30 3c 6c c3 6d 3d 54 43 d1 bd
       -0.044495706 0.010752326 0.058047697 -0.1021792
0001d0 8b 92 7f 3c 07 fc b2 3d 33 bc 96 bd 3e 3b 23 bc
       0.015598903 0.08739477 -0.07360115 -0.009962855
0001e0 2c 33 97 bd 1a d9 ff bc 35 bf d6 3d a8 aa 94 bd
       -0.07382807 -0.031231452 0.104856886 -0.072591126
0001f0 62 6c c9 ba 03 5a 45 3d fa 94 cf bd f5 23 45 bc
       -0.0015367384 0.048181545 -0.10135837 -0.012032499
000200 f5 39 54 bd e5 27 c9 bd 67 8d 9e 3c 6f 08 22 bd
       -0.051813085 -0.098220624 0.019354535 -0.039558824
000210 a4 8e c6 3d 94 50 83 3c f9 ed b6 3d 55 08 f4 bd
       0.09695175 0.016029634 0.089321084 -0.11915652
000220 6a d5 63 3d 69 44 94 bd 61 05 2a be 37 de 13 3e
       0.05562345 -0.07239611 -0.16603614 0.14440237
000230 7f 55 a2 bc 66 6a 0f 3e 60 35 84 bd aa 32 0d 3e
       -0.019816158 0.14005432 -0.06455493 0.13788858
000240 f9 3e c9 3d 9f 75 10 be e3 01 63 bd 4a 93 da 39
       0.09826464 -0.14107369 -0.05542172 0.0004168994
000250 86 8e 00 3e b9 91 06 be 08 4d c7 ba f5 e3 d8 bd
       0.12554368 -0.13141526 -0.0015205452 -0.10590354
000260 30 fe d3 bc 4b 61 81 3d 89 8e 0a 3e c9 38 3b 3d
       -0.025878042 0.06317385 0.13530935 0.04570845
000270 92 be fd bd 92 a1 6f bd 41 e4 b1 bd ac 77 a8 3d
       -0.12389864 -0.058503695 -0.08686114 0.082259506
000280 c0 fc ba bd 04 12 27 3c f6 5f 01 3e 04 f5 29 bd
       -0.091302395 0.010197166 0.12634262 -0.04149343
000290 f2 f9 fa bc 06 ab 21 3e 45 91 c9 bd cf 0e b2 3d
       -0.030636761 0.15787897 -0.09842161 0.08694231
0002a0 4c af 0d bb 54 ed 9d bd 27 6a 0a 3e b2 e1 f5 3d
       -0.0021619378 -0.07711282 0.13517056 0.120059386
0002b0 d8 87 f4 3d 60 df 8b 3d 3c 25 d5 3c 25 db a3 bd
       0.11939973 0.06829715 0.026018731 -0.08000783
0002c0 ff b7 0e 3e 0f ab 06 3e ce 8b 25 3e ab 08 11 3e
       0.13937376 0.13151191 0.16166613 0.14163463
0002d0 f3 ca da bb c4 b1 d2 3d 48 81 20 be 06 7a b6 3d
       -0.0066770255 0.10287812 -0.15674317 0.08909993
0002e0 d4 de a4 bb 6b 71 36 be 9e 14 c5 3d 79 6b 3d 3e
       -0.005031446 -0.17816703 0.09623073 0.18498029
0002f0 16 d6 cf bc 34 e2 9d bd d0 2d 6f bb 60 e5 8c 3c
       -0.025370639 -0.077091604 -0.0036495812 0.017199218
000300 f2 85 0e bb 87 b7 fa bd 62 e4 a7 3d d4 c2 a9 3c
       -0.0021747318 -0.12242036 0.081978574 0.020722784
000310 d8 43 d9 bd 53 49 93 bd c4 b6 2b 3e d0 29 41 3d
       -0.10608643 -0.0719172 0.16768938 0.047159016
000320 06 6b 10 3e d3 be 13 be 14 02 b5 bc fe 78 a4 bc
       0.14103326 -0.14428262 -0.022095717 -0.020077225
000330 08 dd 36 3d 23 92 89 bd 67 99 cf bc 3d 6f 47 bd
       0.044644386 -0.067173265 -0.025341703 -0.04869007
000340 ea 81 02 bb 48 f3 af bd 9d e0 ba bd db 67 33 be
       -0.001991386 -0.08591324 -0.09124873 -0.17520086
000350 f3 6c 9f 3d 5b 41 00 be a0 51 32 bd 4b 3c eb bd
       0.07784452 -0.12524931 -0.043534875 -0.11486109
000360 8c 37 d0 bc 5e 6b fc bd 8e 47 06 3e e6 e5 13 3d
       -0.025417112 -0.12325166 0.13113233 0.03610792
000370 82 ae 8b bc df 36 1c be e0 be 9a bd c7 64 a1 3d
       -0.017050985 -0.15255307 -0.07555938 0.0788055
000380 78 59 0a 3d 2b a3 87 bc f6 25 e7 3d 97 82 a8 3d
       0.03377673 -0.016557297 0.11286537 0.08228033
000390 37 48 19 bd ff 31 d5 bd 58 c5 0d 3d cf a0 89 3d
       -0.037422385 -0.104099266 0.03461203 0.06720125
0003a0 f0 8e e6 3d 44 58 15 3e 49 c7 08 be 39 f8 ea bd
       0.11257732 0.14584452 -0.13357271 -0.11473126
0003b0 26 f3 01 3e 8a 5e 8f 3d 03 64 98 3c 0c 12 ee 3d
       0.1269041 0.07000454 0.018602377 0.11624536
0003c0 15 c0 8c bc 7c 23 dd 3d 9e fa 7f 3d af 02 c3 bd
       -0.017181436 0.10797784 0.062494867 -0.09521996
0003d0 02 bb 28 bd de 08 07 3e 4e f5 8e bb cf c8 1e 3e
       -0.04119397 0.13186976 -0.0043627387 0.1550629
0003e0 d3 00 05 bd 5d 6a 6d 3d a0 92 ad 3d 13 7b 15 be
       -0.03247149 0.057962764 0.08475232 -0.1459773
0003f0 3a 52 42 3d 32 47 96 3d 79 16 e7 bc 29 37 21 bd
       0.0474417 0.07337798 -0.028208958 -0.039359245

bias f4 [52]
000000 a6 cf 83 bd 17 0b 73 3d f6 18 69 3d 50 68 e4 bd
       -0.0643609 0.059336748 0.05690857 -0.111527085
000010 ec b1 bb bd e2 72 aa bd 0b a5 21 be 87 e4 c0 bd
       -0.09164795 -0.083226934 -0.15785615 -0.09418588
000020 d9 d7 f0 3a 32 e2 75 3c 1d a2 07 be 23 bb f2 3d
       0.0018374874 0.015007542 -0.13245435 0.118521
000030 df 31 70 bd aa 58 29 3c 92 e8 aa 3d ae a8 cc bb
       -0.05864131 0.010336081 0.083451405 -0.006245694
000040 95 97 aa bd 01 07 b9 bc 38 95 1c 3d 56 63 34 bd
       -0.08329693 -0.022586348 0.038228244 -0.044040047
000050 25 6d 3b bc 74 97 12 3e 1e 1a 4a 3e c4 b7 6e bd
       -0.011439596 0.14315587 0.19736525 -0.05828072
000060 ad 82 3a 3c 1f 30 f3 bd 93 1d 73 3d a6 9c 36 be
       0.011383695 -0.11874413 0.059354376 -0.17833194
000070 2e cd 45 3d 82 75 5f bd 16 54 92 3d 98 22 6b bd
       0.048291378 -0.054555424 0.07144944 -0.057406038
000080 7b bd 42 bb e8 05 18 3e b8 ba cb bd c7 25 b7 3d
       -0.002971499 0.14846003 -0.09947723 0.08942752
000090 d8 29 15 3d 76 20 d1 3d 04 0e de 3d 9c d4 80 bd
       0.03641686 0.102112696 0.10842517 -0.06290552
0000a0 57 85 98 3d 81 7e f5 3b 1c e2 ae bd c8 c6 bf bd
       0.074473076 0.007491887 -0.08539221 -0.093640864
0000b0 1c 15 9c 3d 68 fe 3d bd c0 b4 97 3d d6 3a aa 3d
       0.07621214 -0.0463852 0.07407522 0.08312003
0000c0 48 82 e2 3b 21 1b e0 bc 53 cc 4f be 56 21 44 3d
       0.0069125034 -0.027356686 -0.20292787 0.047883354

weight f4 [52]
000000 02 d4 53 3f 85 c5 5b 3f 4f 1b 6e 3f c8 57 3f 3f
       0.82745373 0.85848266 0.9301042 0.7474332
000010 1f ba 81 3f 27 9f 6f 3f c8 a0 83 3f 81 3e 7c 3f
       1.0134925 0.9360222 1.0283442 0.98532873
000020 85 4b 7d 3f 6e e2 68 3f 47 97 88 3f 8c ec 65 3f
       0.9894336 0.90970504 1.0671166 0.89814067
000030 2a be 70 3f 43 2f 7f 3f b3 a0 67 3f 58 43 6c 3f
       0.9404017 0.9968149 0.9047958 0.9229026
000040 21 2f 52 3f ee f5 5d 3f 49 b5 73 3f 58 7e 54 3f
       0.82103163 0.86703384 0.95198494 0.83005285
000050 96 28 59 3f 2c a7 68 3f e3 49 72 3f ca ff 7d 3f
       0.84827554 0.90880084 0.9464399 0.9921843
000060 34 47 76 3f b6 f5 5b 3f 9b 2e 6e 3f b0 0a 84 3f
       0.962024 0.859218 0.93039864 1.0315762
000070 ee 3c 81 3f cf c4 6b 3f ac 97 82 3f 1c 86 5d 3f
       1.0096719 0.9209718 1.0202537 0.8653276
000080 eb ee 6d 3f ed a4 59 3f e0 48 67 3f d8 d9 6c 3f
       0.92942685 0.8501728 0.90345573 0.92519903
000090 4d af 52 3f 2d df 42 3f fb d8 49 3f ee c7 66 3f
       0.8229874 0.7612179 0.7884671 0.9014882
0000a0 5f 4c 64 3f c0 68 68 3f 09 12 68 3f fe 20 5b 3f
       0.89179033 0.90784836 0.9065252 0.8559722
0000b0 9d 68 4a 3f 5c 78 5c 3f 96 af 5d 3f 70 37 78 3f
       0.7906588 0.86121154 0.8659605 0.9695959
0000c0 f3 68 5e 3f b9 0a 6b 3f f6 8b 6f 3f 39 9f 63 3f
       0.8687889 0.91813236 0.9357294 0.8891483

bias f4 [52]
000000 d7 cc 67 bd 5a 8c 39 bc 3c 32 59 bd 0a 0a ff bc
       -0.056591835 -0.011324966 -0.053026423 -0.031132717
000010 57 19 43 3b bd d3 f1 bc fd b0 1c be fd ed a0 bd
       0.0029769742 -0.02951991 -0.1530189 -0.07857893
000020 22 ba c7 bc 0a 5e fa bd b1 dd 13 be f7 41 eb 3c
       -0.024380747 -0.12224968 -0.14440037 0.028717978
000030 b1 cd 99 3d e4 8f b0 bd 31 30 c3 bd e8 3b 98 3b
       0.07509936 -0.08621195 -0.09530676 0.0046458133
000040 4f 50 67 bd 4d cb e1 bd 32 5e f1 bc 25 55 94 bd
       -0.056473073 -0.11025105 -0.029463861 -0.072428025
000050 e7 17 92 3d 1b fc 3e bd ae 37 9e 3d 11 e9 18 be
       0.07133465 -0.046627145 0.07725464 -0.14932658
000060 5a 5b 1a 3d fe fc a4 bd 4c f3 e2 bd a3 9f 11 be
       0.037684776 -0.08056067 -0.110815614 -0.14221053
000070 8b 87 ba bd cb 2e 56 bd 4e 0b 84 bd ae cd f8 3c
       -0.09107884 -0.05229072 -0.06447469 0.030371513
000080 36 f7 af 3d e9 4d 70 bb 8b 28 92 3d e8 9a 6f bc
       0.085920736 -0.0036667532 0.07136639 -0.014624335
000090 61 93 ff 3c 71 fb 7e b9 09 9d 2a 3d b2 bb bf bd
       0.031198205 -0.00024316997 0.041653667 -0.09361972
0000a0 e1 11 83 bc a7 3f 2f bd 0b d1 c6 bd e2 59 8b 3a
       -0.015999736 -0.042785313 -0.097078405 0.0010631646
0000b0 77 1e 14 3d ad 6c a4 3d d8 e1 93 3d 7e 53 bb bd
       0.036161866 0.08028541 0.07220811 -0.09146784
0000c0 78 33 41 bc d7 d2 10 be 4e ed d6 bd ae 9c a4 ba
       -0.011792056 -0.14142929 -0.10494481 -0.0012558901

running_mean f4 [52]
000000 9a 8e 1e 3e 58 6c 8e 3e 3d 5b 7c 3e 0a 5a fc 3d
       0.15484086 0.27817035 0.2464418 0.12321861
000010 7b aa be 3d 62 1a ad 3e d7 e0 bc 3d 25 a1 00 3e
       0.0930986 0.3380919 0.09222572 0.12561472
000020 ee 29 97 3e e1 5a 41 3e 04 6d 1b 3e 7c 00 9f 3e
       0.29524177 0.18882324 0.15178305 0.31055057
000030 18 f7 ea 3d 3a a4 80 3e 2e 94 3a 3e c8 fc 61 3e
       0.11472911 0.25125295 0.18220589 0.22069085
000040 10 b6 2f 3e 0b b3 15 3e 44 5f 37 3e 5a 97 5f 3e
       0.17159295 0.1461908 0.17907435 0.2183508
000050 8c c9 87 3e e4 47 7f 3e 74 ba 94 3e 2d 53 41 3e
       0.26520956 0.24929768 0.29048502 0.18879385
000060 78 7f f3 3d a7 7c 3f 3d 91 70 8c 3e d9 e4 3f 3e
       0.11889547 0.046749737 0.2742963 0.18739642
000070 98 1c 7e 3e 99 0c 5c 3e 7f f7 4e 3e d8 bd f0 3d
       0.24815595 0.2148918 0.202116 0.1175496
000080 a7 43 0b 3e a5 ee 83 3e 31 ed c6 3d 94 ee 8b 3e
       0.13600026 0.2576801 0.097132094 0.27330458
000090 1e 78 4d 3e 17 24 08 3e bc a1 14 3e e2 5b 67 3e
       0.20065352 0.13295017 0.14514822 0.22593644
0000a0 74 48 8c 3e d1 d8 40 3e ab b1 2a 3e 01 61 db 3d
       0.27399027 0.18832709 0.16669337 0.107118614
0000b0 ee 8a 33 3e eb 00 39 3e 96 d5 4f 3e 6d 92 8e 3e
       0.17533466 0.18066756 0.2029632 0.2784609
0000c0 e9 c6 22 3e 26 c4 20 3e ad 0a 8c 3d e6 1f 6f 3e
       0.1589619 0.15699825 0.06837974 0.23352012

running_var f4 [52]
000000 4b 70 55 3e ab 57 0b 3f bd cf bc 3e 03 35 92 3e
       0.20843618 0.54430646 0.36877242 0.2855607
000010 99 aa a9 3e cd 59 72 3f ee 0a 12 3f e7 a9 fe 3e
       0.33137968 0.94668275 0.5704793 0.49739
000020 b6 85 26 3f 03 fd 6a 3f cd 52 26 3f 1e 54 1e 3f
       0.65047777 0.91792315 0.64970094 0.618471
000030 56 d4 fb 3d f1 8a 4d 3f 60 82 df 3e 8f 07 0f 3f
       0.12296359 0.8029013 0.43654156 0.5587091
000040 db 48 a0 3e 50 88 06 3f 34 17 35 3f a3 a8 c7 3e
       0.31305584 0.52551746 0.7073853 0.38995847
000050 55 37 c5 3e 39 d9 d6 3e 0f 11 80 3e 47 55 1a 3f
       0.38518777 0.41962603 0.25013015 0.6028637
000060 c7 69 8f 3e 59 5f 30 3e 5c 91 7e 3f f6 98 5f 3f
       0.2801039 0.17223872 0.9944055 0.87342775
000070 e4 a6 7b 3f b4 e9 0d 3f 98 58 89 3e 84 7f 2e 3e
       0.9830153 0.5543473 0.26825404 0.17040831
000080 fd 49 7d 3e 43 12 b0 3e aa 10 ad 3e 7e ca 23 3f
       0.24735256 0.34388933 0.33801776 0.63980854
000090 93 56 a4 3e ed 02 27 3e dc 60 55 3e 93 53 54 3f
       0.320973 0.1630971 0.2083773 0.82940024
0000a0 40 97 ad 3e 32 e3 0a 3f 72 b0 1b 3f 51 63 93 3e
       0.33904457 0.5425292 0.6081611 0.2878671
0000b0 06 8d 6f 3e b2 81 48 3e 4f 8f 70 3e b7 fe 54 3f
       0.2339364 0.19580725 0.23492168 0.83201164
0000c0 78 67 b7 3e f3 2b f6 3e 44 8e 82 3e 90 82 23 3f
       0.35821128 0.48080406 0.25499165 0.638711

weight f4 [36, 52]
000000 4d 75 00 be 3e 79 19 bd 70 16 9e bd e8 fe 49 3d
       -0.12544747 -0.03746914 -0.07719123 0.049315363
000010 2a 7d 99 3d 0f 8a d9 bd 94 ff 35 bd 07 0c d6 bd
       0.07494576 -0.10622036 -0.04443319 -0.10451513
000020 b4 89 6e bd ac 27 f1 3c b1 f4 fa 3d f8 f0 8d bc
       -0.058236793 0.029437862 0.122537024 -0.017326817
000030 ba fe e4 bd 00 62 e1 3d ca 55 c6 bd 3d 7c cb bb
       -0.11181398 0.1100502 -0.09684332 -0.0062098787
000040 98 6d 0d 3d 81 02 ea bb cf 25 f9 3d 8f 66 d8 bd
       0.034528345 -0.007141412 0.121654145 -0.105664365
000050 4b 61 bd bd dc c2 e8 3c ab 39 9a bd de 1c a8 bd
       -0.09247073 0.028413229 -0.075305305 -0.08208631
000060 4b 57 61 bc 50 78 99 3d 76 ef 30 bd 21 23 20 3e
       -0.013753722 0.07493651 -0.043197118 0.156384
000070 d2 52 4e 3d 3c 75 fd 3c b3 10 ad bd 26 e8 02 be
       0.050371952 0.03093969 -0.08450451 -0.1278387
000080 97 ef 43 bd 3a 24 92 3d aa 56 c3 3c bc 05 d1 3d
       -0.047835913 0.07135816 0.023845036 0.10206172
000090 2b af 50 bd a2 01 d7 bc e2 a7 73 bd 95 63 b8 3d
       -0.050948303 -0.026245896 -0.059486277 0.09003369
0000a0 2f 6a bf 3c 78 9a c1 bd cc 1d 61 3d 98 a3 cb bc
       0.023366062 -0.09453291 0.054960057 -0.024858281
0000b0 e6 72 f5 bd 20 5f ae bd 46 ec 45 bd 8e 42 44 3e
       -0.11984806 -0.085142374 -0.04832103 0.19166014
0000c0 f0 08 82 3d ce d7 9a 3d 74 1c 57 3c 63 a8 63 bd
       0.06349361 0.07560693 0.013129342 -0.055580508
0000d0 4f ee a4 bc d0 07 30 bd f7 99 6c 3d 01 0e 9c 3d
       -0.020133166 -0.0429762 0.05776402 0.076198585
0000e0 5d ec 2e 3d e0 c9 41 3d 24 f9 1b 3e 4d 60 42 3d
       0.042705882 0.047311664 0.15231758 0.04745512
0000f0 75 da b7 3d de 67 ea 3c 80 79 a1 3d 13 ad c1 bd
       0.08977214 0.02861398 0.078845024 -0.094568394
000100 85 5a a4 bd 04 50 87 bd d1 08 97 3d 31 9e e3 bd
       -0.08025078 -0.06607059 0.073747285 -0.11114157
000110 c9 7e b3 3d db ed a8 3d 3e 19 ef 3d 5f a4 35 3d
       0.08764417 0.08248492 0.116747364 0.04434621
000120 ae 23 ab bb fd aa ec 3c c4 1b 5e 3d a8 d4 f9 3d
       -0.005222759 0.028890127 0.054225698 0.12198764
000130 a4 42 0b 3d d2 46 e5 3d 6c db fc 3d d4 f8 1f 3e
       0.0339991 0.111951485 0.12346539 0.15622264
000140 87 75 c1 3d 88 aa 61 b8 7f 2d 7b 3d db 20 66 3d
       0.09446245 -5.3803e-05 0.061322685 0.056183677
000150 10 df 4a 3d ab 36 20 3d 64 c5 cf bc 53 24 90 3d
       0.049529135 0.039114635 -0.025362678 0.07038178
000160 39 3a 4d bd 10 15 5a bd 44 32 06 3d ac 8b 98 bd
       -0.050104354 -0.053242743 0.03276278 -0.07448515
000170 5e b0 91 bd fe a9 8c 3d e2 7c 08 3c 42 f6 39 3d
       -0.071137175 0.06868361 0.008330556 0.045400865
000180 65 05 c0 bd b5 80 08 3d 5d 22 c7 bd d2 d9 bf bd
       -0.09376029 0.03332587 -0.09723351 -0.09367718
000190 c5 1f 82 3d 81 d0 8e bb 37 d4 d9 3c 8f 1c cf bd
       0.06353716 -0.0043583517 0.02659045 -0.10112869
0001a0 e5 bf a4 3c 9e a1 ce bc 62 59 4b 3d 74 c4 cb bd
       0.020111034 -0.02522355 0.04964579 -0.0994958
0001b0 47 4f 08 3e 32 9d 19 bc b0 d3 d9 3d f4 e4 02 3e
       0.13311492 -0.009375857 0.10636079 0.12782651
0001c0 0b 83 b2 3d 05 82 1c 3e ce 02 29 3e b8 27 50 3d
       0.08716401 0.15283974 0.16504976 0.05081913
0001d0 20 20 52 3d 3e ca 04 3e 9b 02 c9 bd 04 f2 fa bc
       0.051300168 0.12967774 -0.0981495 -0.03063298
0001e0 5a d6 cd 3d 63 93 01 3e 79 bc d9 3c 9b c3 11 bd
       0.1005065 0.1265388 0.026579129 -0.035586935
0001f0 8a 58 13 3d b6 0d ee 3d dc f7 57 3d ad fc 17 bc
       0.03597311 0.11623709 0.05272661 -0.009276551
000200 54 13 90 3d be f6 36 bd 7a bc 85 bc c8 a5 d5 3c
       0.070349365 -0.044668905 -0.016325224 0.026080027
000210 38 91 95 3d 90 71 54 3c 86 d1 af bd ec 6c 1d bd
       0.07303089 0.012966529 -0.08584885 -0.038433954
000220 b5 00 6e bd bb e0 77 3d 37 70 39 bd ef 2d 13 3e
       -0.058106143 0.060517054 -0.045273032 0.14372991
000230 07 f4 da 3d 95 b6 dc 3b 30 a8 d7 bd 51 83 1b 3c
       0.10691076 0.0067356327 -0.10530126 0.0094917575
000240 bc 12 a8 bd 64 a0 96 3c d5 0c aa 3d bb 60 92 3d
       -0.08206698 0.018387027 0.08303229 0.07147356
000250 b5 e4 09 bc 96 b6 96 bc e0 0a 38 bd e8 fa 62 3d
       -0.008416344 -0.01839761 -0.044932246 0.055415064
000260 c3 9a f9 3c 0a 41 12 3d 11 e7 eb 3d fc 78 35 bd
       0.030469304 0.035706557 0.11518682 -0.044304833
000270 49 fb e7 bd d3 b3 b5 3c 6a 3d 21 be 97 7d 2a 3d
       -0.11327226 0.022180473 -0.15746084 0.041623678
000280 00 56 db 3d 70 5b 99 bd a2 1b 40 3e a9 c7 30 bc
       0.107097626 -0.074881434 0.18760541 -0.01078979
000290 20 c8 32 3d de d8 3c bd 0a 47 9f bd ef df 5a 3d
       0.043647885 -0.04610526 -0.077772215 0.053436216
0002a0 c6 72 c1 bd 86 c4 a2 3d 91 30 cd bb 7e 82 29 3d
       -0.094457194 0.0794764 -0.006261893 0.041384213
0002b0 6d e2 bc bd 60 90 c1 3d 9a 31 3e bc b6 2e a4 3d
       -0.09222875 0.094513655 -0.011608506 0.08016722
0002c0 df 71 fe 3b 91 9e b1 bd c8 11 e9 bd 30 38 db 3d
       0.0077650393 -0.08672822 -0.11380345 0.10704076
0002d0 3f 00 13 3e 27 aa d0 3d d6 94 54 3d 26 03 9f bc
       0.14355563 0.10188704 0.051899754 -0.019410681
0002e0 86 62 84 3c 99 da 01 be a6 bd ca bd e6 59 b3 3d
       0.01616026 -0.12681045 -0.09899454 0.08757381
0002f0 9d 81 7b bd d5 fc a9 bd 13 4a 20 3d 21 2e 9b bb
       -0.061402906 -0.08300177 0.039133143 -0.0047357236
000300 6a 60 e3 3c 0d d4 67 bc bf b2 cc 3d d6 16 9b bc
       0.027755935 -0.014149678 0.099950306 -0.018931787
000310 fb 88 af bd bc fa 12 3c 06 d8 b9 bb 80 25 6b 3d
       -0.08571049 0.008970913 -0.005671504 0.05740881
000320 ba 5e 09 3d 87 51 4c bd d0 50 23 3c 8b 76 8a bd
       0.033537604 -0.049882438 0.009967998 -0.067608915
000330 6e 20 36 bd 3b 7c 27 be ea ee 9d 3d 31 a5 c4 bd
       -0.04446452 -0.16355984 0.07711585 -0.0960182
000340 03 d5 67 bd a5 6c df bc 81 6b aa 3c 75 5b d4 3c
       -0.05659963 -0.027273485 0.020803215 0.025922516
000350 e8 07 b3 bd 3b 55 a6 bd 6a 94 a2 bd fb a6 1e bc
       -0.08741742 -0.08121725 -0.07938464 -0.009683366
000360 01 53 ce bd 53 02 65 3d 29 8d 93 bd 04 48 a4 bd
       -0.100744255 0.05591042 -0.072046585 -0.080215484
000370 b6 b8 c5 3c 9d 35 22 bd f5 1e 3d bd 91 8f 8a bd
       0.024135929 -0.03960191 -0.0461721 -0.06765664
000380 6c cb 4d bc 71 92 3b bd 5a d6 68 bd cf 4d 50 bc
       -0.012560707 -0.045793954 -0.056845047 -0.0127138635
000390 d8 14 6c 3c ce 42 9a bd c7 8d e3 bc 87 e9 a4 3b
       0.014409266 -0.07532273 -0.027777566 0.0050327214
0003a0 d7 ae 99 bd 8a 81 78 bd db 7b d5 3d 61 d1 dd 3c
       -0.07504051 -0.060670413 0.10424014 0.027077379
0003b0 a1 61 ba bd 47 24 60 3d 26 74 1d 3e f1 26 85 bc
       -0.091006525 0.054722097 0.15376338 -0.01625392
0003c0 6c a9 76 3d 28 37 81 3d 29 47 7d 3d 19 da 99 bd
       0.060220167 0.06309348 0.06183544 -0.07512302
0003d0 b9 12 16 3c af c2 c7 bd 47 8a b6 bd 8a 79 b0 bd
       0.009159737 -0.0975393 -0.08913093 -0.08616932
0003e0 2f 8c 52 bd de 6a 9c 3d 86 3f 22 3d 3e 73 53 bd
       -0.05140322 0.07637571 0.039611362 -0.051623575
0003f0 92 ac 03 3d 2d 71 1f bd 18 82 29 3d 49 66 2b bd
       0.032146998 -0.038926292 0.041383833 -0.041845594

bias f4 [36]
000000 99 4f 6d 3d b9 1c 46 3c 0f 5c 43 3d b3 16 df 3d
       0.05793724 0.012091809 0.047695216 0.108930014
000010 ea ac 6a bd 1d 93 23 be 19 8d 15 3c 0f c4 3a 3d
       -0.05729381 -0.15974088 0.009127879 0.045597132
000020 0c 99 99 bd 6f 95 b9 3d 20 f9 29 3c 73 d4 ac bd
       -0.074998945 0.09061705 0.010374337 -0.08438959
000030 59 57 25 bc 95 08 2a be 9c d6 07 3e 24 f8 0a 3c
       -0.010091626 -0.16604836 0.1326546 0.008482013
000040 d8 20 2c 3d bd c5 e5 bc 7a 60 a7 bd 98 b9 e7 3c
       0.04202351 -0.02804839 -0.08172698 0.02828674
000050 18 ee 5e 3d 01 81 19 be 5b 69 00 3e 90 aa 15 be
       0.054426283 -0.14990617 0.1254019 -0.14615846
000060 74 d4 76 3d cd 28 a2 3b 5c 88 ba bd 41 da 50 3d
       0.060261205 0.0049487115 -0.0910804 0.050989393
000070 d7 52 4e bd af 21 58 be 22 4e b3 3c f2 c6 99 bd
       -0.05037197 -0.211066 0.021887843 -0.07508649
000080 1e 83 d2 3b 60 48 56 be 44 99 39 bd 7e f4 a7 bd
       0.006424322 -0.20926046 -0.04531218 -0.0820093

weight f4 [36]
000000 4c c5 db 3e 1d 47 05 3f 6e 8d 00 3f ba 6f cc 3e
       0.42923963 0.52061635 0.50215805 0.3992899
000010 5f d8 9e 3e 53 f6 1e 3f 11 82 d0 3e 26 40 ad 3e
       0.31024453 0.6209461 0.40724233 0.33838004
000020 c4 7f cf 3e 5b 19 c2 3e d6 24 f3 3e 67 d7 16 3f
       0.40527165 0.3790997 0.4748904 0.5892243
000030 31 d7 14 3f 89 35 1b 3f c0 5c c6 3e c6 50 ce 3e
       0.58140856 0.60628563 0.38742638 0.40296
000040 65 10 f8 3e ba 6f 0b 3f ab 46 24 3f e2 61 95 3e
       0.48450008 0.54467356 0.6417033 0.2917624
000050 fd 82 f8 3e 96 41 02 3f ea 7a f7 3e 39 0a 03 3f
       0.48537436 0.50881326 0.48335963 0.51187474
000060 e0 0f 9b 3e bb 01 04 3f 49 e4 15 3f 71 16 ec 3e
       0.3028555 0.5156514 0.5855146 0.4611087
000070 2f c8 a6 3e 39 47 0f 3f 23 8d ca 3e 54 40 10 3f
       0.32574603 0.5596805 0.39560804 0.56348157
000080 85 6f d1 3e 3a 26 e9 3e 13 e1 1f 3f f1 9d fc 3e
       0.40905395 0.45536977 0.6245281 0.4933925

bias f4 [36]
000000 55 80 f6 be 78 61 00 bf f8 bd f6 be 36 0e 0a bf
       -0.48144785 -0.50148726 -0.4819181 -0.53927934
000010 c6 84 fe be 62 00 f0 3e 82 76 f6 be 5d 25 09 bf
       -0.49710673 0.46875292 -0.4813729 -0.53572637
000020 be 51 ed be 21 11 10 bf 02 f2 08 bf ed 36 f1 3e
       -0.46351427 -0.56276137 -0.53494275 0.47112218
000030 59 0b 04 3f d6 ba f2 3e 80 fb 04 bf 81 1a 13 bf
       0.51579815 0.4740817 -0.5194626 -0.57462317
000040 bb c0 f5 be 16 a6 02 bf 9b 74 ff 3e eb ec 10 bf
       -0.47998604 -0.5103468 0.4989365 -0.5661151
000050 09 42 fc be 67 f8 13 3f 04 05 eb be 7c 38 fc 3e
       -0.4926913 0.57800907 -0.45902264 0.49261844
000060 09 79 11 bf b2 50 f2 be 91 b2 eb 3e 4d 02 f0 be
       -0.5682531 -0.4732719 0.46034673 -0.46876755
000070 a2 63 00 bf a2 75 14 3f 14 ed 07 bf 10 4a ef 3e
       -0.5015203 0.57991993 -0.5309613 0.46736193
000080 5a 8a ed be 14 8d ef 3e 19 21 19 3f 50 6d ea be
       -0.46394616 0.46787322 0.5981613 -0.45786524
