mlruns/528961946943719398/models/m-0e94edc01ac94710b844b45e29d69b92/artifacts/data/model.pth (torch, 65198 bytes, 17 tensors)

weight f4 [124]
000000 32 66 0f 3d 55 b9 1c 3d 7a 3a 96 3d f2 2a 73 3d
       0.03500957 0.038262684 0.07335372 0.059367128
000010 49 6a fa 3b 0d 9e 43 3c 74 93 7d 3c a0 b8 16 3d
       0.0076420647 0.011939538 0.01547705 0.036797166
000020 97 90 79 3c 29 f4 0c 3d 79 cc 5c 3d 95 bc bd 3c
       0.015232227 0.034412537 0.053905938 0.023161212
000030 38 77 be 3c 9b 1d ca 3c f9 5d d0 3c ad d6 5d 3d
       0.023250207 0.02467232 0.025435435 0.05415981
000040 be f0 90 3c 8d c9 a7 3c 22 e4 b1 3d f8 72 27 3d
       0.01769292 0.02048185 0.08686091 0.040881127
000050 ed bc 47 3b 45 4e 06 3d 2d cd f1 3c b4 aa d5 3c
       0.0030477599 0.032789487 0.02951678 0.026082374
000060 64 31 0f 3d 1a 28 e8 3c 84 bc 04 3d 97 fb 38 3d
       0.034959212 0.028339434 0.032406345 0.04516181
000070 06 52 f2 3c 7d 7f ea 3c 07 cd 8a 3c ab 1f 67 3d
       0.029580127 0.028625244 0.016943468 0.056426685
000080 e6 40 e9 3c fc 32 f3 3c a0 ba 8c 3c 52 d6 a6 3c
       0.028473329 0.029687397 0.017178833 0.020365868
000090 38 4a 15 3d f9 c1 9f 3c a4 8b d7 3c fb 83 d7 3c
       0.036447734 0.019501673 0.026311703 0.02630805
0000a0 f4 1e 10 3d db 3b 1f 3d df ae 5e 3d ba 57 1a 3d
       0.03518577 0.038875442 0.05436599 0.03768132
0000b0 06 93 77 3d 8f 30 22 3d 71 b8 b2 3c 60 47 7d 3c
       0.060442947 0.03959709 0.021816464 0.015458912
0000c0 6e e6 de 3c 1d da 4f 3c d7 ac 0d 3d c9 0e 1d 3c
       0.027209487 0.01268628 0.03458866 0.009586045
0000d0 ad e2 17 3d d6 dc 04 3c b9 e8 7c 3c b6 12 04 3d
       0.03708141 0.008109292 0.015436345 0.032244407
0000e0 dc 4c 98 3c be 52 9b 3c 82 17 8a 3c 7c 3f f5 3c
       0.018591337 0.018960353 0.016856913 0.029937498
0000f0 f6 29 25 3d 77 52 5f 3d ea c3 83 3c 42 dd c3 3c
       0.04032322 0.054522004 0.01608463 0.023909215
000100 1c 10 98 3c cc d3 0e 3d 98 b8 ef 3b af 1e ba 3c
       0.018562369 0.034869954 0.0073157065 0.02271971
000110 df 1b 72 3c 05 c3 a0 3c a1 7a 76 3c 25 46 3f 3c
       0.014777153 0.019624243 0.015043885 0.011674439
000120 ce 87 88 3c e4 8a 7d 3c f7 ce 2b 3d e2 74 c0 3c
       0.01666632 0.015475009 0.041945424 0.023493234
000130 2a 77 ba 3d f3 7d 27 3d 19 f3 ca 3c 74 3f 33 3d
       0.0910476 0.0408916 0.024774121 0.043761685
000140 2b b4 57 3c 92 90 11 3d 4f fc d4 3c ef f1 d1 3c
       0.013165514 0.035538264 0.025999216 0.025628058
000150 dd 75 2e 3b ba 6c 2f 3d 8b c1 38 3d 44 60 8c 3c
       0.0026620545 0.0428283 0.045106452 0.017135747
000160 e0 38 73 3c 59 94 1d 3d cb 42 91 3c 67 24 22 3c
       0.014845103 0.038471553 0.017732045 0.009896374
000170 14 cb 6c 3c 5c df 10 3d f4 5f 39 3d 93 dc 98 3d
       0.0144527145 0.035369262 0.045257524 0.07463946
000180 2a 87 b4 3c 93 ff 78 3d 35 61 c9 3b b9 b0 86 3c
       0.022037107 0.06079061 0.006145621 0.01644169
000190 26 63 e5 3c d3 64 27 3d 39 a9 a9 3c c2 7d 0e 3d
       0.02800138 0.040867638 0.020710574 0.0347879
0001a0 51 c5 13 3c cf d2 3f 3c 6b 1e c1 3b 16 6f a8 3b
       0.009019212 0.0117079755 0.0058935187 0.0051401956
0001b0 71 25 1d 3d 40 1f 8a 3c 2c c5 91 3c a9 19 76 3d
       0.038365785 0.016860604 0.017794214 0.060083065
0001c0 dd d1 21 3c f1 80 d1 3c 5a db 64 3c 9f 67 e1 3c
       0.009876695 0.02557418 0.013968313 0.02751523
0001d0 6f b9 b6 3c b3 e5 f8 3c 42 b4 d1 3c f9 f9 22 3c
       0.022305219 0.030382967 0.025598649 0.009947293
0001e0 94 26 34 3b ad d9 26 3d d5 57 0c 3d 90 44 06 3d
       0.0027488815 0.040734936 0.03426345 0.03278023

bias f4 [124]
000000 be 90 70 ba 3a c5 67 ba 2d e5 b7 b9 cc 98 1a 3a
       -0.00091768417 -0.000884134 -0.0003507523 0.00058974023
000010 f1 0a 5e b9 a3 cc 9b b7 f3 66 f9 b8 62 9f 8a b8
       -0.00021175646 -1.8572731e-05 -0.00011892421 -6.61004e-05
000020 da 07 a4 38 4c 5c 58 ba f4 e9 cd ba 40 bc 72 36
       7.821592e-05 -0.00082534994 -0.0015709982 3.6170386e-06
000030 07 80 90 b9 f6 b3 99 38 95 5d 2e ba 08 35 cb ba
       -0.00027561208 7.329129e-05 -0.0006651518 -0.0015503475
000040 25 81 41 b9 1e e6 5f ba 36 8a 1c bb 06 89 27 ba
       -0.00018454024 -0.0008541065 -0.002388609 -0.00063909625
000050 67 8a 54 38 b1 12 d6 b9 02 75 04 39 7c be f9 b7
       5.0673636e-05 -0.00040831187 0.0001263209 -2.9771814e-05
000060 a8 d4 6a b9 ea 9d 04 b9 b9 26 37 ba 41 af 6b ba
       -0.000223952 -0.00012647329 -0.0006986666 -0.00089906534
000070 79 8d 1d ba 7c f0 50 b9 e1 36 d7 38 16 50 96 b8
       -0.0006010156 -0.00019926013 0.00010262221 -7.1674745e-05
000080 d7 1d 8e b9 41 dd 61 3a c2 4b 10 39 4c 3c 0b ba
       -0.00027106583 0.0008616038 0.00013761132 -0.0005311414
000090 42 85 e6 b8 44 1b 28 b8 06 f2 59 ba a4 50 34 39
       -0.00010992076 -4.0079714e-05 -0.00083139574 0.00017196179
0000a0 fe 6a 25 ba c4 ce 9a ba 0a ba c7 b9 86 32 99 b8
       -0.00063101936 -0.0011810889 -0.00038094848 -7.305019e-05
0000b0 17 37 0b ba 3e cf a4 b9 5d 07 65 38 00 b5 a0 b9
       -0.0005310638 -0.00031434925 5.4604712e-05 -0.00030652434
0000c0 1c ea ce b9 d5 51 d3 39 4a 62 c4 39 f6 b0 8b b6
       -0.00039465807 0.00040306026 0.00037457264 -4.163124e-06
0000d0 75 3f 67 b9 90 1e 8c b6 b3 7b 85 b9 30 62 ac 38
       -0.00022053516 -4.175883e-06 -0.000254599 8.219888e-05
0000e0 cf 13 83 39 2e d3 30 b9 7d 54 8e 39 4c 43 b3 b9
       0.00025001026 -0.00016863339 0.000271473 -0.0003419168
0000f0 b7 23 b1 b9 d6 ab ce 38 9a 65 3a b9 df 0b bc 3a
       -0.0003378668 9.8548524e-05 -0.00017776192 0.00143468
000100 df ab 9f 39 44 bd 60 b9 76 3e a3 39 31 cd 5f 39
       0.00030454897 -0.00021432812 0.0003113632 0.00021343377
000110 db 15 82 b9 d4 74 fe 38 43 f7 70 39 1f dd 81 b9
       -0.00024811816 0.00012133425 0.00022980296 -0.00024769545
000120 d9 14 df 39 6a 49 ba b8 b5 94 a8 39 bf 23 08 39
       0.00042549407 -8.8828456e-05 0.00032154252 0.00012983287
000130 b6 2a 0c b8 c1 e0 8e b9 04 eb 83 39 98 5d f4 b9
       -3.341838e-05 -0.00027251805 0.00025161367 -0.0004660904
000140 7d 0c d0 b9 cf d9 41 3a 29 c9 37 38 aa b2 89 b8
       -0.00039682156 0.0007394822 4.3817945e-05 -6.565948e-05
000150 b2 f2 06 b9 36 67 37 ba 5e ae 0f ba 12 48 02 3a
       -0.00012869647 -0.00069962756 -0.0005481 0.0004969846
000160 d0 82 bd b8 c5 f2 f0 39 31 e9 af 38 58 9c 41 b7
       -9.036588e-05 0.00045957245 8.3880856e-05 -1.1540098e-05
000170 86 9f 13 b9 ca 73 14 ba 79 aa 89 ba 77 e5 3e ba
       -0.0001407844 -0.0005663006 -0.0010503075 -0.0007282118
000180 dd ef dc 39 ab 78 e7 b8 05 ae 52 39 dd 2b a7 39
       0.00042140382 -0.000110374145 0.00020091988 0.00031885403
000190 e0 7e 85 3a 1a b7 09 ba ff 20 eb b9 20 77 a4 39
       0.0010184906 -0.00052534195 -0.00044847277 0.00031369273
0001a0 93 a3 3a 38 e0 de 45 b9 12 54 87 38 a9 f2 83 b9
       4.4498196e-05 -0.00018870411 6.452961e-05 -0.00025167063
0001b0 d4 29 a9 38 82 25 7b b9 9c 8b 3c 3a 4f d9 14 3a
       8.066339e-05 -0.00023951198 0.0007192434 0.00056781335
0001c0 0c c1 39 b9 89 92 62 38 1d ba e3 b9 14 2d 0e 3a
       -0.0001771489 5.401907e-05 -0.0004343548 0.0005423587
0001d0 4e 89 67 b9 fb e2 98 ba 35 a4 93 b9 ab 33 2a 39
       -0.00022081027 -0.0011664325 -0.0002816037 0.00016231711
0001e0 3f 79 89 b8 ea 14 82 3a fe de ae b9 68 62 ac ba
       -6.555253e-05 0.0009924446 -0.00033354008 -0.0013151886

running_mean f4 [124]
000000 23 96 8d 42 5a 25 27 46 34 0d c4 40 c2 a1 b3 40
       70.793236 10697.338 6.1266117 5.613496
000010 f3 32 dc 42 9e 2e 5a 40 35 b7 46 40 85 1e 5f 40
       110.09951 3.4090953 3.104932 3.4862378
000020 6e de 3c 40 13 c7 d5 3f 63 c2 e8 43 ec a1 47 42
       2.951076 1.6701378 465.51865 49.908127
000030 1c ab 0a 44 9e fb 83 40 08 40 fe 3d db e1 92 44
       554.6736 4.124465 0.12414557 1175.058
000040 73 42 b2 43 1c fe a6 40 77 19 c0 44 84 f8 de 3e
       356.51913 5.218519 1536.7958 0.43548977
000050 a5 6b 8f 3d c2 7b c9 3f dd 52 bc 3e 0d 07 38 40
       0.070029534 1.5740893 0.3678197 2.8754303
000060 b2 05 86 3f 07 96 61 40 25 48 d0 40 fd 70 20 3e
       1.0470488 3.524782 6.5088067 0.15668102
000070 25 72 28 3f d3 1d f7 3f 26 99 da 3f 41 78 e2 3f
       0.6579917 1.9305977 1.7077987 1.7692949
000080 e1 98 ef 43 60 20 35 40 17 93 34 40 a8 b8 0a 3e
       479.19437 2.830101 2.8214777 0.13547003
000090 cd 6e cd 42 15 0b 3d 42 af 90 b0 41 71 49 58 40
       102.71641 47.260822 22.070646 3.3794825
0000a0 01 9d 83 41 39 e7 2c 40 b9 e5 95 3c f4 3a 37 42
       16.451662 2.7016127 0.018298017 45.80757
0000b0 51 08 1e 42 1c 00 ce 41 21 af fd 41 0d 70 00 42
       39.50812 25.750053 31.710512 32.109425
0000c0 1d 0c 48 40 52 44 a3 3f 61 44 a3 3d 19 f4 d0 3e
       3.1257393 1.2755225 0.079720266 0.40811232
0000d0 f0 80 1f 3e d9 48 35 3f a7 53 4d 3e 2b 18 78 3d
       0.1557653 0.7081428 0.20051442 0.060569923
0000e0 18 fe 06 3d 6b cc 82 3d 6d 01 e9 3c 24 24 98 3c
       0.032957166 0.06386646 0.028443063 0.01857192
0000f0 92 99 ce 3d a3 f4 90 3c 5a 04 19 3e ec 82 73 3f
       0.10087885 0.017694777 0.14943066 0.95121646
000100 7d 1d 71 3e 5a 24 db 3d f5 7c dd 3d 6d ce 67 3d
       0.23546405 0.10700293 0.10814849 0.056593347
000110 44 cd ad 3e 5e 3d 1a 3e 61 93 25 3e 4a 9e 32 3e
       0.33945668 0.15062472 0.16169502 0.17443195
000120 04 36 c4 3d 56 89 2f 3d d9 0b ec 3c a7 ca 17 3d
       0.09580615 0.042855583 0.028814243 0.0370585
000130 21 2c 6e 3c c8 fc df 3c 19 d1 a7 3c 89 47 6c 3c
       0.014536888 0.027342215 0.020485448 0.014421352
000140 f7 0e 4b 3f 9b 46 1a 3e b2 1c 51 3d 78 51 65 3c
       0.7931971 0.15065996 0.051052757 0.013996474
000150 78 93 b7 3d 80 5c 06 3d 45 7f 9f 3d 41 cc 4e 3d
       0.08963674 0.03280306 0.077879466 0.05048776
000160 c1 7c a5 3c aa ff f6 3b 9e d6 26 3d 96 b3 26 3e
       0.020201089 0.0075378018 0.04073202 0.16279444
000170 cd 8a 65 3d 7f 21 c5 3c 1d fe 60 3d 08 1b 9f 3d
       0.056040574 0.024063824 0.05492984 0.07768828
000180 cd 70 bd 3c e2 45 8e 3c e3 1d 48 3d 68 ad 0a 3d
       0.023125077 0.017367307 0.048856627 0.03385678
000190 12 29 60 3d 3a 93 b7 3c e9 35 f8 3c b3 04 89 3c
       0.054726668 0.02240907 0.030299144 0.016725874
0001a0 9c f0 15 3f 00 93 ba 3d e6 9e e3 3e c6 6f bd 3b
       0.58570266 0.09110069 0.44457167 0.0057811467
0001b0 b9 84 db 3e 8b 17 7f 3c 41 93 b4 3c d1 cb 6d 3f
       0.42874697 0.015569578 0.022042872 0.92889124
0001c0 54 2f a5 3d 3f 78 81 3e 34 4d 5c 3d 00 15 df 3c
       0.08065668 0.25287053 0.053784564 0.027231693
0001d0 c2 cc 1e 3d a6 95 9a 3d 48 db 8a 3c 71 9f 61 3f
       0.03876949 0.075480744 0.016950265 0.88133913
0001e0 59 f1 57 3c 28 f3 53 3f 40 c3 06 3c f5 09 9c 3d
       0.0131801 0.827929 0.008225262 0.07619087

running_var f4 [124]
000000 a0 97 01 44 8a 47 dd 4c c0 ee ea 3f b3 6b a4 3f
       518.36914 1.1601416e+08 1.8354111 1.2845367
000010 e4 b8 fd 46 34 ef ad 3e b8 9a 0c 3e b1 34 36 3f
       32476.445 0.3397156 0.13730896 0.7117415
000020 ab 5a 8f 3e 99 46 96 3f 58 02 51 48 90 73 ce 46
       0.27998862 1.1740295 214025.38 26425.781
000030 17 be 44 48 cb 72 6b 3f 16 ce 30 3e 6a 21 18 48
       201464.36 0.91972035 0.17266116 155781.66
000040 b1 5a 3c 48 23 07 01 45 24 a2 90 48 56 08 8b 3e
       192874.77 2064.446 296209.12 0.27154797
000050 ef d3 86 3d e0 02 9b 3e c6 f9 82 3e 27 ee 21 3f
       0.06583392 0.3027563 0.25581187 0.63254017
000060 d3 d7 49 3d 02 1a e2 3e 62 61 25 40 dd f6 d0 3e
       0.04927809 0.44160467 2.5840688 0.40813342
000070 e2 9f d5 3e 85 e7 4d 40 38 8f 47 3f 9f 19 0a 3f
       0.41723543 3.2172558 0.7795291 0.53945345
000080 82 01 2d 47 37 c1 04 3f da 48 01 3f 29 f2 6a 3e
       44289.508 0.5185732 0.5050179 0.2294394
000090 63 2d 8b 46 bd e7 8e 45 5e 01 80 45 78 88 5d 44
       17814.693 4572.9673 4096.171 886.1323
0000a0 88 af 3f 45 2b b6 c1 44 50 7b 9c 3d 3c 83 76 48
       3066.9707 1549.6927 0.076407075 252428.94
0000b0 3e c1 66 44 c8 03 da 43 da 56 0e 44 78 24 71 43
       923.0194 436.02954 569.35706 241.14246
0000c0 ee c3 2a 40 67 99 2f 3f ce 9e ef 3d 7c ed ad 3e
       2.6682086 0.6859345 0.117002115 0.3397025
0000d0 91 9e 87 3e 08 35 54 3e ee 03 24 3e 2c 11 67 3d
       0.26488164 0.20723355 0.16017124 0.05641286
0000e0 19 80 14 3d 82 25 96 3d 2d f6 e1 3c b4 c0 95 3c
       0.036254976 0.07331373 0.027583206 0.018280365
0000f0 4f 5c ba 3d 46 84 8e 3c cf 06 72 3e 2d b0 68 3d
       0.09099638 0.017397057 0.2363541 0.05680864
000100 2d 0f 85 3e 73 17 42 3e 96 e9 c3 3d bd 22 57 3d
       0.2598814 0.18954258 0.09566037 0.052523363
000110 63 6d 63 3e bb b4 03 3e c7 78 0c 3e 13 b1 13 3e
       0.22209696 0.12861912 0.13717948 0.14423017
000120 b0 da b1 3d 6c 55 23 3d ae 50 e4 3c 0c 10 14 3d
       0.086842895 0.039876387 0.027870502 0.036148116
000130 79 c9 6a 3c 44 eb db 3c df 15 a6 3c 4e 06 68 3c
       0.014330261 0.026845582 0.0202741 0.014161659
000140 9a 0f 2a 3e 35 7b 04 3e a3 7a 42 3d e4 2d 62 3c
       0.16607514 0.12937625 0.047480237 0.0138048865
000150 19 73 a7 3d 83 e8 01 3d 2a 1d 94 3d 18 f3 42 3d
       0.0817625 0.03171588 0.07232125 0.047595114
000160 9a 5f a2 3c e9 96 f5 3b f4 89 1f 3d 8f 74 0c 3e
       0.019820977 0.0074947965 0.03894992 0.13716339
000170 f4 05 5b 3d 8e 38 c0 3c bc d5 56 3d 27 38 93 3d
       0.053472474 0.023464467 0.052449927 0.071884446
000180 66 33 b8 3c 4d ae 8b 3c 3e 1b 40 3d b5 f8 04 3d
       0.022485446 0.017050887 0.04690098 0.032463748
000190 52 c2 53 3d 34 24 b6 3c cd 53 f4 3c 63 26 87 3c
       0.05169899 0.02223406 0.029825116 0.016497796
0001a0 22 b9 79 3e 29 c4 a6 3d f2 e2 7a 3e 00 b8 bc 3b
       0.24387029 0.08142883 0.24500635 0.005759239
0001b0 3b d4 78 3e b9 6b 7a 3c 4a 5d b0 3c 63 98 88 3d
       0.2429971 0.015284472 0.021528859 0.066696905
0001c0 ff e5 96 3d 50 0e 41 3e 69 07 52 3d 3b aa da 3c
       0.07368087 0.18853116 0.051276598 0.0266925
0001d0 ab 0f 1a 3d 4b 5b 8e 3d 92 17 88 3c 86 a6 d3 3d
       0.0376126 0.069510065 0.016612802 0.10334496
0001e0 e5 20 55 3c 81 50 13 3e 5c b9 05 3c 1a 89 8f 3d
       0.013008331 0.14386179 0.008161869 0.07008572

weight f4 [75, 124]
000000 be 78 89 bb ab 93 f3 bb d4 c3 06 bc 65 44 66 bc
       -0.004195302 -0.007433375 -0.0082254 -0.014054392
000010 92 cb 81 39 3e 34 69 ba 50 ae c0 bb d3 c9 08 bc
       0.0002475647 -0.00088960293 -0.0058801547 -0.0083489
000020 02 56 8b bb 44 73 b3 bb c8 f7 01 bc 6b a3 21 ba
       -0.0042521963 -0.005476387 -0.007932611 -0.0006166014
000030 d6 43 80 bb 8f 16 68 bb 07 a2 f5 3a fe 89 14 bc
       -0.0039143367 -0.0035413837 0.0018740305 -0.009066103
000040 a7 fc 49 b9 fa c1 b8 ba f8 02 0c bc 31 9f 20 bb
       -0.00019262974 -0.0014095895 -0.00854563 -0.0024508948
000050 e3 58 c5 39 a9 a3 96 bb f4 5e 06 bc dd a6 9b bb
       0.00037640994 -0.0045971465 -0.0082013495 -0.0047501163
000060 05 d0 23 bc 34 08 86 bb 3f 73 f2 bb 99 e8 e5 3b
       -0.009998326 -0.0040903334 -0.0073989923 0.007016253
000070 a5 7f a5 bb cd 8a 7b bb 27 d8 8d ba be 0c 50 bb
       -0.005050617 -0.0038382292 -0.0010821865 -0.0031745876
000080 ec 5c 2f bb 21 4f 05 3b 23 11 27 bb 5a 92 6d 39
       -0.0026758267 0.0020341354 -0.0025492392 0.00022656602
000090 01 7b 0c bb aa 73 8c bb e3 e3 52 bb 0e a5 56 bb
       -0.002143562 -0.004286249 -0.0032179288 -0.003275219
0000a0 57 4f 9e bb 81 00 f3 3a ea 44 d5 3b 70 84 d8 3b
       -0.0048312354 0.0018539579 0.0065084593 0.0066075847
0000b0 d5 a8 0a 3c 3d 49 e4 3b 92 42 1c 3a 40 48 c4 ba
       0.008463104 0.0069667385 0.00059608475 -0.0014975145
0000c0 41 11 ca bb 84 22 41 bb a7 de 39 ba 2d 02 3d 3a
       -0.0061666076 -0.0029470036 -0.0007090368 0.0007210102
0000d0 9c 38 f7 3a 7a b8 18 3b 2d cd 3f bb 15 36 a3 bb
       0.0018861475 0.0023303316 -0.0029266581 -0.0049808123
0000e0 d4 bb 13 3b 70 71 1c 3a 1c f4 3f 3b 28 8b 40 3b
       0.0022542374 0.0005967831 0.0029289788 0.0029379819
0000f0 44 24 84 3b b5 16 86 3b b6 ce b4 39 2d 68 8b 3b
       0.0040326435 0.0040920624 0.00034486287 0.004254362
000100 41 74 2c ba a7 dd ff 3a 86 a2 9e 3a 6e e9 82 bb
       -0.00065786025 0.0019521014 0.0012102879 -0.003995112
000110 f5 11 96 39 a7 59 07 bb 2d 11 c6 3a 9f 93 63 ba
       0.00028623609 -0.0020652802 0.001511132 -0.000868136
000120 b0 26 e9 3a 0e c3 2c bb 6a e6 4b bb 85 20 a9 3b
       0.0017788019 -0.002636138 -0.003111268 0.0051613473
000130 8a 55 45 3a 89 05 91 bb 77 9f 10 3b 9c 3d b1 3a
       0.00075277 -0.0044257087 0.0022067705 0.0013522389
000140 ce 8e c6 ba fd 6f c6 3b ae ef 83 ba ab d6 a0 ba
       -0.001514876 0.0060558305 -0.0010065937 -0.0012271007
000150 6a 53 af b9 a1 0c d3 ba 31 4c b8 3a 73 ca 19 3b
       -0.0003344075 -0.0016101786 0.0014060793 0.0023466616
000160 ae 44 36 3b f0 dd 3f 3b a3 7f e5 3a b6 7c 74 bb
       0.0027811932 0.0029276572 0.0017509352 -0.0037305779
000170 e5 25 09 3b 6a 2e 26 bb 7d af e1 bb 91 bd 93 bb
       0.0020927128 -0.0025357255 -0.006887375 -0.004508682
000180 4b 4f 79 3b 65 16 82 39 57 e1 f1 3a da 79 57 3b
       0.0038041647 0.00024812217 0.0018453997 0.0032879026
000190 8e 69 69 bb 55 89 a5 bb 91 93 24 bb 60 9e c4 3b
       -0.0035615894 -0.0050517716 -0.002511237 0.006000325
0001a0 d3 36 8e b9 df 1d d9 ba f5 89 1d ba d0 1d b4 3a
       -0.00027125198 -0.0016564688 -0.0006009632 0.0013741795
0001b0 8e 32 8a bb 6c 98 30 3c b8 01 5a 3b 0f b0 e8 bb
       -0.0042174524 0.010778528 0.0033265185 -0.007101066
0001c0 5b 64 6c 3a c1 75 dc 3b 09 8a 7a bb 0c 51 9c 3b
       0.00090176397 0.0067279045 -0.0038229248 0.0047704037
0001d0 b0 1e e8 3b 6c 57 96 bb c7 95 2d bb 81 a1 03 39
       0.0070837364 -0.004588058 -0.002648698 0.00012553298
0001e0 5d ae 80 39 26 ee 4e bb cb ca 86 bb 9e f6 a5 bb
       0.00024543973 -0.0031575053 -0.0041135303 -0.0050647995
0001f0 19 43 bb 3a 09 93 a3 bb 13 25 5e bc 2c 6e 66 bc
       0.0014286964 -0.004991893 -0.013558644 -0.014064353
000200 d6 7e 2e 3b 50 c6 ab ba 77 e3 2c 3c 5d 3d 13 bb
       0.0026625893 -0.0013105366 0.010552279 -0.0022466995
000210 d6 b1 69 3c 0e a9 cc bb 38 74 0e bc 52 46 90 bb
       0.014263591 -0.006245739 -0.008694701 -0.004402914
000220 14 dd 74 bb de 80 66 bb 09 00 ca 3b 23 b3 c1 ba
       -0.0037363218 -0.0035172026 0.006164555 -0.0014778118
000230 26 ea d6 bb b7 7e 21 bb fd ed a0 bc a7 22 09 bc
       -0.0065586744 -0.0024642178 -0.019644732 -0.008370078
000240 16 71 d7 3a 5c 2b b7 bb cc 76 ce bb 23 bb 8b bb
       0.00164369 -0.0055898856 -0.006300783 -0.004264252
000250 e6 72 26 3c 7c d6 68 bb ea a5 18 bc 16 d4 00 3c
       0.01015923 -0.0035528233 -0.009316901 0.007863065
000260 ff 54 92 bb db 80 e7 bb 73 be b2 ba 89 4b 03 bc
       -0.0044656987 -0.0070649213 -0.001363708 -0.008013614
000270 61 f6 75 bb a2 28 04 bc a4 26 31 bc b2 3b 6d bb
       -0.0037530886 -0.008066328 -0.010812435 -0.0036198911
000280 b7 99 6d bb 15 2d 56 bb da ca 9e bb a1 2b d8 ba
       -0.0036254951 -0.003268068 -0.004845959 -0.0016492495
000290 20 17 92 bb 72 56 f6 3b 68 61 22 3c 8b ef 82 b9
       -0.004458323 0.0075176293 0.009910919 -0.00024974006
0002a0 e0 38 23 3c 7c 5b 1f 3c e8 41 29 bb df 02 9d bb
       0.0099622905 0.009726401 -0.0025826637 -0.004791602
0002b0 3b 18 8b bb 9b 4b 81 3a a4 2e d6 bb 73 b5 2c ba
       -0.004244832 0.0009864451 -0.0065363217 -0.00065883173
0002c0 f5 a3 bd ba f4 96 97 3b 63 b2 4f 3b 48 84 94 bb
       -0.0014468419 0.0046261493 0.003169202 -0.0045323707
0002d0 b7 da 34 3b c2 06 87 39 30 31 50 3b 36 e5 8f 3b
       0.0027596185 0.00025754242 0.00317676 0.0043913377
0002e0 91 fb d1 3b c0 40 de bb ed f0 c5 3b 34 ab f7 bb
       0.006408163 -0.006782621 0.0060406835 -0.007558251
0002f0 4c bc cc bb 6b 1d 74 3c 4a d4 cf 3a 78 20 8a 3a
       -0.0062480327 0.014899592 0.0015856114 0.0010538241
000300 80 36 25 ba b1 e8 ac ba fa 10 ee 3b d5 70 0c 3a
       -0.00063023716 -0.0013191906 0.0072652074 0.00053573895
000310 26 c6 1f 3b 7e 16 90 ba ee 80 a7 bb 78 86 93 b9
       0.002437958 -0.0010993031 -0.005111805 -0.00028138212
000320 6c c6 b3 bb 28 26 56 bb 1a ae ca 38 c3 6f f2 3b
       -0.0054863 -0.0032676551 9.6645395e-05 0.007398577
000330 5a ca 0b bc 6e d2 ac 3b 99 87 47 bb 2a 79 94 bb
       -0.008532131 0.0052741086 -0.0030445813 -0.0045310454
000340 b8 1f 4c 3a 28 da a2 bb 12 1f 41 3b 7e 4a 0a 3b
       0.0007786709 -0.004969854 0.0029467982 0.002110153
000350 17 7e 30 3c 02 97 af 3b 23 c9 18 3b ad 53 bb ba
       0.01077225 0.0053585777 0.0023313246 -0.0014291905
000360 f5 d2 3c 3b c5 da 55 bb 3b 6e bc bb 5e 70 11 3b
       0.0028812264 -0.0032631618 -0.005750445 0.002219222
000370 e4 79 50 39 8c 18 2f bc 85 2f b5 3a a0 0d 04 3b
       0.00019881834 -0.010687005 0.0013823366 0.0020149723
000380 f5 df 38 bb 3a b8 e6 bb 10 04 3b bb 0e 64 5e 3c
       -0.002820966 -0.0070410045 -0.0028536357 0.01357366
000390 74 60 8d bb b2 98 0c bb 5a 61 2a 3b 5f c1 41 ba
       -0.0043144766 -0.0021453318 0.0025997967 -0.000739118
0003a0 59 5b 9b bb 6d 77 9e 3a f5 b5 d6 3b 29 6f 91 ba
       -0.004741114 0.0012090035 0.0065524527 -0.001109575
0003b0 8a 41 7c 3a 63 b4 fa 3b ac ad 04 bc 55 b3 13 3b
       0.0009622803 0.0076508983 -0.008098047 0.002253731
0003c0 c1 f2 64 ba 58 bd 94 bb 10 46 13 bb 89 b2 c9 ba
       -0.0008733683 -0.004539173 -0.002247218 -0.0015388291
0003d0 91 bf e8 39 23 e5 3b bc 4a f0 d1 bb fc c5 a8 bb
       0.00044393216 -0.011468205 -0.0064068185 -0.0051505547
0003e0 0d 59 bb bb a0 ef c2 bb ae ba 0a bc 81 51 c8 bb
       -0.005717403 -0.0059489757 -0.0084673595 -0.0061132316
0003f0 47 06 ad ba 0b 77 46 bb 53 bd 36 bb 27 79 e5 39
       -0.0013200723 -0.0030283357 -0.0027883842 0.0004376855

bias f4 [75]
000000 30 0f 13 3b 8c 82 82 38 98 36 72 39 9e 08 dd b9
       0.0022439472 6.223199e-05 0.00023099256 -0.00042158825
000010 92 9f a0 bb 80 74 fb ba 05 d8 59 bb fa c5 0b 3c
       -0.0049018348 -0.00191845 -0.003324033 0.008531088
000020 8a 23 ac ba a2 dc 37 39 75 f3 17 3b 94 f7 dd ba
       -0.001313315 0.00017534432 0.0023185883 -0.0016934746
000030 12 9f 89 3a 10 88 7e 3a 91 15 a7 3a 70 e7 51 ba
       0.0010499677 0.0009709606 0.0012747516 -0.0008007204
000040 81 29 8b ba 16 d0 c4 39 cf 67 1c 3b da 46 72 3b
       -0.0010617228 0.0003753907 0.0023865586 0.00369685
000050 1e 55 59 3a a1 82 03 bb 96 e8 e0 3a 31 84 f4 39
       0.00082905765 -0.0020066875 0.001715916 0.00046637797
000060 ac 40 7c b9 29 9e 8d 3a ad 09 68 3a 82 10 12 3b
       -0.00024056685 0.0010804582 0.00088515395 0.0022287671
000070 9c 68 68 bb 0a b7 79 37 8d af b9 39 2e 2e db bb
       -0.0035462743 1.4884174e-05 0.00035416745 -0.0066888547
000080 5e cb 33 3a dd 4f 09 3b 2d d7 0d 3b 12 33 74 3a
       0.0006858612 0.0020952143 0.0021643147 0.00093154714
000090 27 45 41 3b 62 56 0b 3b d4 9c f5 3a 5d b4 0c b9
       0.002949068 0.0021261205 0.0018738755 -0.00013418631
0000a0 a2 bc c3 3a 46 9a 63 bb 65 bd c1 3b b5 e4 29 ba
       0.0014933536 -0.0034729405 0.00591247 -0.00064809184
0000b0 86 61 47 b9 a7 a5 0e bb 20 cc 7a bb e7 45 9d 3b
       -0.00019014449 -0.0021766217 -0.003826864 0.004799593
0000c0 42 bf 1e 3b fe eb 29 3c ef da 8b ba 9c 13 99 39
       0.0024222885 0.010371206 -0.0010670106 0.00029197044
0000d0 6e 88 57 3b 98 29 c1 b7 e7 bf dc 3a c3 0c 47 3b
       0.0032887715 -2.3026761e-05 0.0016841859 0.0030372597
0000e0 d8 90 a5 39 33 c0 16 bb 0a 01 17 bc 76 99 26 bb
       0.0003157917 -0.0023002743 -0.009216556 -0.002542106
0000f0 84 2a 38 bb f0 58 4a 3b cb e7 fa ba 1c ec 01 bb
       -0.0028101513 0.0030875765 -0.0019142566 -0.001982457
000100 d3 80 5f 3a 30 5b ea 3a 72 db 81 bb 4b ef 03 3a
       0.0008525971 0.0017879959 -0.0039629275 0.0005032911
000110 07 a9 94 3a 20 5f 89 3a 70 70 ef ba 53 57 4d ba
       0.0011341878 0.001048062 -0.0018267762 -0.0007833142
000120 a2 ad 9f 3b dc 24 87 ba 16 ba cc 3a
       0.0048729936 -0.0010310668 0.0015619423

weight f4 [75]
000000 be c6 56 3d 3d 39 45 3d f2 05 1f 3d 38 ee 19 3d
       0.05243563 0.04815029 0.03882403 0.0375807
000010 a4 22 ff 3c aa 12 2f 3d 46 cc eb 3c 5d 82 42 3d
       0.031144448 0.04274241 0.028783929 0.047487605
000020 f7 cb 06 3d 1f 69 2d 3d 10 0d 63 3d 4b 32 89 3d
       0.03290936 0.04233658 0.05543238 0.06699046
000030 20 52 27 3d 0d dc 63 3d 9c d4 ff 3c 07 37 7e 3d
       0.040849805 0.05562978 0.03122931 0.062064197
000040 ee 62 e1 3c 0c 41 10 3d 2c 6d 3a 3d 99 af f4 3c
       0.027512994 0.035218284 0.04551427 0.029868888
000050 dc a3 0e 3d 76 14 08 3d 9d 6b 24 3d d4 8a 01 3d
       0.034824237 0.033222638 0.04014169 0.031626537
000060 86 ba 39 3d 2b be 81 3d 67 86 96 3d 2a 66 96 3c
       0.0453439 0.063351 0.07349854 0.018359262
000070 bc 04 46 3d e9 3b 47 3d cc 94 52 3d b7 0e c0 3c
       0.04834436 0.04864112 0.051411435 0.023444517
000080 79 88 19 3d 56 7c 23 3d 10 8d ab 3c 36 87 c7 3c
       0.037483666 0.039913498 0.020941287 0.024356466
000090 09 70 0b 3d 43 33 cb 3c 2e 1d f6 3c fd c3 85 3d
       0.034042392 0.024804717 0.03004321 0.065315224
0000a0 b9 e3 2a 3d e4 c2 b9 3c f5 6e 0a 3d df da 42 3c
       0.04172108 0.022675939 0.033797223 0.011893003
0000b0 ad 44 25 3d de 08 27 3d b2 c0 1a 3d 5a b9 23 3d
       0.040348697 0.04077994 0.037781425 0.039971687
0000c0 fe 86 3e 3d 9a 1e 07 3d ba b2 40 3d 5f fc 22 3d
       0.046515457 0.03298817 0.047045447 0.03979146
0000d0 ac be 07 3d 5e ae 7e 3c 5b a8 03 3d c0 aa 18 3d
       0.033140823 0.015544502 0.03214298 0.037272215
0000e0 df 45 47 3d 5a 88 d8 3c 5f 6f ec 3c e6 ce 0b 3d
       0.04865062 0.026432205 0.0288617 0.03413286
0000f0 84 f8 a8 3d 2c b6 28 3d 86 02 1c 3d 82 e4 cd 3c
       0.082505256 0.041189358 0.038088344 0.025133375
000100 8b 48 06 3d 7d e4 2e 3d 37 2b dc 3c c6 2b 8a 3d
       0.032784026 0.042698372 0.026876075 0.0674663
000110 5b d1 ec 3c f7 62 fb 3c 7a 21 3d 3d 44 ad 40 3d
       0.028908422 0.030686839 0.046174504 0.04704024
000120 99 17 02 3d c8 ba dd 3c 4e 7c 09 3d
       0.031760786 0.027066603 0.03356581

bias f4 [75]
000000 6c b7 fe 3a c4 d3 0b 3b 21 95 20 3b d7 8c 09 3b
       0.0019433326 0.002133594 0.002450295 0.0020988488
000010 75 17 db b9 ee 4e f3 39 54 0a 6c ba 4b 9d dd b9
       -0.00041788412 0.0004640738 -0.00090042246 -0.00042269597
000020 1c 85 5e 37 cb d2 f6 3a ac ed 90 3a 6f e1 11 3b
       1.3263223e-05 0.0018831132 0.001105716 0.0022259613
000030 ef 6f 1d 3a 82 29 ba 3a 36 6e 99 b9 9a a8 e8 3a
       0.0006005754 0.0014203044 -0.00029264548 0.0017750442
000040 2f 83 23 b8 6e 90 03 b9 65 49 f8 3a 7a 6a 75 3a
       -3.8984403e-05 -0.00012546938 0.0018942772 0.00093618745
000050 50 3f 3f 3a 4a 5e 46 ba 31 dc 6f b9 7f e6 e8 3a
       0.0007295506 -0.0007567151 -0.00022874844 0.0017768889
000060 0d 72 4b ba 41 d7 0a 3b 81 78 2a ba 8a d3 3e ba
       -0.00077608303 0.002118543 -0.0006502942 -0.00072794466
000070 8d 7e 23 3a 64 1e 91 b9 ae 0b 7d 3b 75 c8 f4 3a
       0.0006236814 -0.00027679198 0.0038611698 0.0018675464
000080 c5 1a b7 ba 0d e4 97 39 9a 5f 4a 3a ec 4a 79 3a
       -0.001396977 0.00028970875 0.0007719934 0.00095097604
000090 96 fd 2d 3a b8 d4 89 3a ad 37 09 3b 1b e0 4c 3b
       0.00066372135 0.0010515666 0.0020937726 0.0031261507
0000a0 9d 19 aa 3a f4 f1 50 38 55 5e 71 b9 ca 57 5d b9
       0.0012977604 4.98164e-05 -0.00023018692 -0.00021108906
0000b0 0f 5b 56 3b 51 29 27 3a 33 f9 82 b9 11 c5 aa 3a
       0.0032708084 0.0006376701 -0.000249812 0.0013028701
0000c0 10 d8 61 b9 16 04 b9 3a a3 87 56 3b 19 c0 28 3b
       -0.00021538162 0.0014115598 0.0032734654 0.0025749265
0000d0 1f e8 c5 3a bb 5a 13 ba a0 dc b4 39 90 82 c8 39
       0.0015099085 -0.0005621125 0.00034496654 0.0003824425
0000e0 57 be c3 3a a7 90 48 ba d7 91 c6 3a 72 26 57 ba
       0.0014934045 -0.00076509494 0.0015149665 -0.0008207328
0000f0 aa 86 d9 3a 37 0f 51 3a a6 7e dd 3a 85 6b 9b ba
       0.0016595919 0.00079749845 0.0016898706 -0.0011857605
000100 b5 91 69 3a 1d 0b 85 3a 2e 3c ea b9 20 4d 4b 3b
       0.00089099567 0.0010150407 -0.00044676795 0.0031021312
000110 dd b5 33 3a f6 01 d3 b9 9f 0f 5e 3b 17 d4 37 3b
       0.0006855408 -0.00040246517 0.0033883823 0.002805
000120 05 9e 5e ba f2 6e 43 ba e4 a7 44 3a
       -0.00084921747 -0.0007455192 0.00075018243

running_mean f4 [75]
000000 ba 91 55 3a b9 e0 81 b9 e9 6b a9 39 f5 bd 5e 3a
       0.000814702 -0.0002477223 0.0003231459 0.0008496934
000010 bd e3 14 bb 1d 33 03 ba cc 53 bd ba 56 54 98 3b
       -0.002271875 -0.000500487 -0.0014444529 0.0046487255
000020 54 8b e1 39 46 d9 3b ba 26 1c b8 3a e3 c1 76 ba
       0.00043019152 -0.000716586 0.0014046475 -0.00094130466
000030 3e 58 21 ba d3 8c bf 39 aa 71 69 39 64 d8 d7 b9
       -0.00061548117 0.0003653528 0.00022262955 -0.0004116922
000040 38 33 29 ba 8d 65 c6 3a 3c 15 72 3a 6c d5 0e 3b
       -0.00064544706 0.0015136466 0.00092347316 0.002179469
000050 2e 80 0b 3a 2f c0 e7 b9 ef 67 77 3a 7a 91 f7 b9
       0.00053215295 -0.0004420294 0.00094377896 -0.000472199
000060 ff 4b ae 38 33 43 7d 38 f6 9f eb 39 28 3f b9 3a
       8.311122e-05 6.0382485e-05 0.00044941873 0.0014133202
000070 5c a9 0f bb 81 e2 85 39 5c dc 77 ba 2b 6f 57 bb
       -0.0021921014 0.00025536495 -0.00094551384 -0.0032872658
000080 7b 74 85 3a 7b a4 8c 39 7f d1 80 3a ec 7b 7a 3a
       0.0010181809 0.00026825428 0.000982806 0.0009555209
000090 1d 23 30 39 0e 60 7a 3a 9a 9f 17 3a b5 eb eb 37
       0.00016797749 0.00095510564 0.00057839754 2.8123943e-05
0000a0 92 48 b5 3a a9 e0 ae ba b4 c8 48 3b 22 1a 1f ba
       0.0013830832 -0.00133421 0.0030637207 -0.0006069263
0000b0 3c 0c 2d ba 78 e9 90 ba 9e e1 c4 ba 02 04 1f 3b
       -0.00066012493 -0.0011055907 -0.0015020852 0.0024263863
0000c0 2e f8 8d 3a 72 74 b7 3b 58 b9 21 ba 63 73 c2 38
       0.001083141 0.005598598 -0.0006169281 9.272133e-05
0000d0 85 31 fe 3a b7 48 d2 37 9e e4 06 3a 29 4e b5 3a
       0.001939342 2.5067811e-05 0.0005145761 0.0013832498
0000e0 1c 58 99 b7 21 03 33 ba 52 fc 93 bb a1 d6 1f ba
       -1.828005e-05 -0.00068287743 -0.004516163 -0.0006097351
0000f0 85 98 8b ba 9f 20 ba 3a 29 4c 81 ba e9 fe 69 b9
       -0.0010650313 0.0014200396 -0.0009864616 -0.00022315573
000100 d0 bc 90 b8 c6 c7 8b 3a 9a b8 c4 ba 38 9c 8f 3a
       -6.901624e-05 0.0010664396 -0.0015008629 0.0010956591
000110 23 f1 15 3a a3 e7 81 39 ed 2a 07 ba e5 35 00 3a
       0.0005719831 0.0002477738 -0.0005156238 0.00048908434
000120 01 67 24 3b e4 80 80 ba e0 b0 05 b9
       0.002508581 -0.0009804037 -0.0001274976

running_var f4 [75]
000000 6d e0 e0 36 b8 55 1c 37 37 82 ac 36 d1 f9 39 36
       6.701847e-06 9.3182825e-06 5.1411585e-06 2.771256e-06
000010 e3 fa 12 37 6d b0 0b 37 29 d9 86 36 a9 be 27 37
       8.760692e-06 8.326123e-06 4.018792e-06 9.998367e-06
000020 f1 37 a4 36 c6 7b f8 36 90 28 1e 37 8b db 13 37
       4.8940933e-06 7.405385e-06 9.426978e-06 8.812999e-06
000030 1c ed e9 36 ad ad cf 36 15 e3 5c 36 23 89 1c 37
       6.9715443e-06 6.1892993e-06 3.2914734e-06 9.330254e-06
000040 a8 2f 06 36 01 90 0f 37 5e d4 ed 36 d3 16 cd 36
       1.9995296e-06 8.556993e-06 7.087873e-06 6.112133e-06
000050 e7 3a ab 36 08 f8 73 36 00 78 eb 36 67 c9 b7 36
       5.1030543e-06 3.6354195e-06 7.0175156e-06 5.4772713e-06
000060 be 90 9f 36 8f f1 be 36 77 91 06 37 51 0d 17 36
       4.7554195e-06 5.6905624e-06 8.020891e-06 2.2508505e-06
000070 68 ee 3e 37 8c 2c ce 36 3e f5 eb 36 47 4a d8 36
       1.1380391e-05 6.1444644e-06 7.0320957e-06 6.4459487e-06
000080 16 75 c5 36 80 cf 81 36 ba 26 0e 36 35 a5 5f 36
       5.884688e-06 3.8686558e-06 2.118219e-06 3.3325753e-06
000090 02 b6 b4 36 7d 98 05 36 69 17 8e 36 f9 22 03 37
       5.3856065e-06 1.9907304e-06 4.234655e-06 7.816351e-06
0000a0 75 f5 c3 36 00 ca 0f 36 96 d1 1d 37 08 dc fb 34
       5.840028e-06 2.142624e-06 9.406727e-06 4.6912487e-07
0000b0 79 9b c6 36 89 c8 74 36 d9 95 a8 36 e8 e9 d8 36
       5.9189592e-06 3.647556e-06 5.0242347e-06 6.464532e-06
0000c0 26 46 a5 36 4f cf 31 37 20 a1 07 37 99 93 10 37
       4.9255495e-06 1.059829e-05 8.084142e-06 8.617434e-06
0000d0 0c bc c9 36 24 02 94 35 71 93 b0 36 ec 5a e2 36
       6.0121583e-06 1.1027482e-06 5.262373e-06 6.7459096e-06
0000e0 9f 50 1a 37 db 26 1a 36 b2 d3 14 37 5b 87 b0 36
       9.197886e-06 2.2970405e-06 8.870777e-06 5.260966e-06
0000f0 bb 28 14 37 ed 87 12 37 aa a7 a8 36 36 73 4e 36
       8.830971e-06 8.733926e-06 5.026309e-06 3.0763454e-06
000100 ac ee d0 36 0e 93 2e 37 24 ff c6 36 9b f8 2d 37
       6.226668e-06 1.0405447e-05 5.930562e-06 1.03694865e-05
000110 ca 0c 95 36 12 bc 5c 36 60 c2 3e 36 d1 52 43 37
       4.442035e-06 3.2892026e-06 2.8425347e-06 1.1642188e-05
000120 cf 99 e4 36 ab b6 a8 36 d1 c6 cc 36
       6.812835e-06 5.0280555e-06 6.102819e-06

weight f4 [36, 75]
000000 43 52 e3 3b 21 a0 3b bc 72 ab 31 bb c3 77 d5 3a
       0.0069372966 -0.011451752 -0.0027110246 0.0016286302
000010 40 bd 0e 3c 37 c2 86 bb 83 41 c9 3c dc 9e 3b bc
       0.008712113 -0.0041125077 0.024567371 -0.011451449
000020 d5 c5 c6 ba c8 94 5f 3c a8 98 b5 3b 42 b2 94 3a
       -0.001516516 0.013646312 0.0055418797 0.0011344629
000030 06 69 0e bc 5c de 0c 3c c5 37 a9 3c d6 98 42 ba
       -0.008692032 0.0085979365 0.020656476 -0.0007423287
000040 cb 92 fe 3b e6 e0 17 3c c1 39 1a 3c 04 6c d8 3b
       0.007768964 0.009269929 0.009413184 0.0066046733
000050 9a 85 92 3c 93 34 e6 3c 03 dd 0f bb 67 f6 a7 bb
       0.017885972 0.028101241 -0.0021951802 -0.005125809
000060 28 d8 a7 bc 1b 28 7c 3c 86 42 a2 3c 70 ba 40 3c
       -0.020488814 0.015390421 0.019807111 0.0117632
000070 29 67 61 bb 1c 8f 14 3c 5a 07 f9 bb cc 50 09 bb
       -0.0034393764 0.009067323 -0.0075997533 -0.00209527
000080 b1 df 16 3c 8f 55 1a bc 42 02 a1 ba fb 32 be bb
       0.009208606 -0.009419813 -0.0012283998 -0.005804417
000090 5b 8a e3 ba 39 19 97 3b 08 7c 21 bc 94 af 95 3c
       -0.0017359959 0.004611161 -0.0098562315 0.018272199
0000a0 52 9b 93 b8 07 1d fa 3b fa ca b5 3c 79 19 14 3a
       -7.038437e-05 0.007632855 0.022191513 0.00056495477
0000b0 9b e8 06 bc 0e 8f 9e 3c e4 f4 1d bb 0c 1a ae bb
       -0.008234168 0.019355323 -0.0024102265 -0.0053131636
0000c0 1e aa 07 bc 3a 2d a6 3a 83 4e c8 3c 10 47 9c 3b
       -0.008280305 0.0012678273 0.0244515 0.0047692135
0000d0 a1 fd 0d 3c 99 46 c8 bb ff 9b 0a bc 8a 93 df ba
       0.008666427 -0.0061119315 -0.008460044 -0.001705752
0000e0 e8 c6 16 3c 31 8d 0f 3c 76 5d cd bb bd 8a 61 3c
       0.009202696 0.00876169 -0.006267245 0.013765988
0000f0 30 fd 1b bc ca b5 8b bb 32 54 ff 3c 2a 20 f6 38
       -0.009520814 -0.0042636143 0.031168077 0.00011736185
000100 9f 84 52 bc 8a 9d 69 3a ba 4a 7e bc 39 36 92 3b
       -0.012849002 0.000891172 -0.015520746 0.0044620303
000110 9c fb 9c 3b a7 5d 48 3c a7 19 94 3b 0e ce 2f 3c
       0.0047907364 0.01222936 0.0045196596 0.01073028
000120 99 97 9c 3b ff c9 c7 bb 17 50 e0 bb f1 49 51 3c
       0.004778814 -0.006097078 -0.006845485 0.012773977
000130 39 3c e8 3c f7 c2 26 3d 55 78 34 3d 24 65 97 bc
       0.028349029 0.040713277 0.04406007 -0.018480845
000140 3f 2f 96 3c 84 24 cf bb b6 81 d6 bb 8f af 12 bb
       0.018333076 -0.0063214917 -0.0065462245 -0.0022382473
000150 e2 8a 0b 3b de ee 47 3c af e8 7d bc 61 47 39 bc
       0.0021292497 0.0122029465 -0.015497371 -0.011308522
000160 bc 44 dc 3c 77 fd 79 bc ad ce 31 3c 5f 6e a3 bb
       0.026888244 -0.015258185 0.010852498 -0.0049875225
000170 e1 69 19 3b c7 46 98 3b 1d e6 a9 3c a6 91 be bb
       0.0023409056 0.004647109 0.02073961 -0.0058157025
000180 9f a3 8f bb bf ad d6 bb 9b a4 a3 bb 4c 2f f0 bb
       -0.004383519 -0.006551474 -0.0049939877 -0.007329857
000190 89 05 65 bc 0c 87 56 39 f2 3d d0 ba 42 1d f1 3c
       -0.01397837 0.00020458939 -0.0015887602 0.029432897
0001a0 bb f4 54 bc 48 18 32 3d 23 0b f4 3c 2e bb 64 ba
       -0.012997801 0.043480188 0.029790467 -0.0008725402
0001b0 cf b8 36 bc a3 71 f6 3c 8d 7d 6e bb 57 1c bd 3b
       -0.01115246 0.030083483 -0.0036390752 0.0057712006
0001c0 8f 61 20 3c 58 a4 22 3d f5 ae f2 3c f6 63 a6 bc
       0.009788885 0.03970751 0.029624442 -0.020311337
0001d0 c1 e9 02 bc 5a 5f f0 bb c1 c1 5c bc cd b8 06 bc
       -0.007990302 -0.0073355855 -0.013473929 -0.008222771
0001e0 e7 0a 9f 3c 88 83 bf bb 30 36 be 3b 4e 3b 79 3b
       0.019414378 -0.005844537 0.0058047995 0.0038029733
0001f0 ef 2e 0a 3c ec 53 c3 3b dd c3 15 3d c8 7a 6f bc
       0.008434041 0.005960932 0.036563743 -0.014616676
000200 88 ae 31 bc 16 58 62 3c 8e a1 37 bc f3 49 8f bc
       -0.010844834 0.013814947 -0.011207951 -0.017491316
000210 5e f3 71 bb 0e 54 95 3c 4e df ab bc c0 45 d1 3c
       -0.003691874 0.018228557 -0.020980503 0.025545955
000220 75 22 5b 3d cc 1c 53 bb 71 05 0e 3b 29 5d e0 3b
       0.053499658 -0.003221321 0.0021670724 0.006847043
000230 8a c2 86 3c 4e cf 49 3c 90 fe bf 3b e4 0e 85 bb
       0.016450185 0.012317492 0.0058592036 -0.004060613
000240 7e 1b 1b bc 5e 28 a1 bc 72 27 b9 3c 36 c2 6f bc
       -0.009467004 -0.019672569 0.022601817 -0.014633706
000250 3c 74 a2 bc b5 29 c6 ba 78 d2 f5 3a 3e 18 b6 3c
       -0.019830815 -0.0015118631 0.0018754741 0.022228356
000260 9c b5 0b bd db 2a 09 3d e2 12 14 3b 08 d7 f9 3c
       -0.034108743 0.033488136 0.0022594263 0.030498043
000270 dd 53 9a 3a 03 a8 bb bc 0e 0b 09 3c db 5b 64 bc
       0.0011774261 -0.022907263 0.008364452 -0.013937916
000280 a3 ff 6b 39 e5 4a 4b bc 03 8d c5 3c 96 7f 0c 3d
       0.00022506579 -0.012407993 0.024115091 0.034301363
000290 b5 ff 1c 38 00 17 37 3d 6a 00 43 bb 7b ec 44 3c
       3.7431444e-05 0.04469967 -0.0029754885 0.012019272
0002a0 8a 37 b9 3c c6 a6 93 bc 5c cc 39 3a 01 19 6e ba
       0.02260949 -0.01802386 0.0007087642 -0.00090827054
0002b0 85 69 27 bc b8 11 8c 3c f6 ee a2 bb ca 59 2a bd
       -0.010218029 0.017098293 -0.004972334 -0.041589536
0002c0 81 93 e5 3c 3c 2e 19 3a cc 24 ec 3b 6d 17 0c 3d
       0.028024437 0.0005843376 0.007206535 0.034202028
0002d0 de 71 af 3c 63 b1 6c 3b 21 b1 39 bb cf c9 18 bc
       0.0214166 0.0036116473 -0.0028334337 -0.009325459
0002e0 8b 06 95 bc 83 e1 03 3a d1 e4 89 bc 90 14 d8 3c
       -0.018191596 0.0005030857 -0.016832741 0.026376992
0002f0 fe dc 08 3c 54 aa 2f 3d 2a 80 3a bb 30 7b 03 bc
       0.00835347 0.042887047 -0.002845774 -0.008024976
000300 b1 6a 3a 3a ba 0f 84 39 c1 2e c6 bb 96 aa 96 bb
       0.0007111235 0.0002518872 -0.006048054 -0.004597972
000310 cc 9a d0 bc e5 ed cf 3b d5 54 98 3c 04 2e ee bc
       -0.025464438 0.006345498 0.018595139 -0.029074676
000320 a1 ef 3b 3d 7f 48 02 3d b3 c3 cc 3a 4a b8 d5 ba
       0.045882825 0.03180742 0.0015622288 -0.0016305533
000330 3a 46 02 3a f8 34 de 3c 41 24 e1 3c 7d 5a 4a 3b
       0.0004969571 0.027124867 0.027483108 0.003087669
000340 5e 01 42 bd c5 87 88 3b 5f 4f 80 3c e4 39 df bc
       -0.047364585 0.0041665756 0.015662847 -0.027249284
000350 c5 e6 60 bc 01 09 48 3b 9c 8f b9 3c d3 32 55 bc
       -0.013726895 0.0030522945 0.022651486 -0.013012606
000360 89 9d 45 3c c0 c5 fd 3b 15 ae 34 3b a1 1a 0b ba
       0.012061485 0.007744521 0.0027569581 -0.0005306397
000370 75 e8 0a bb 91 52 d8 bc 63 3c 73 bb e5 da 71 3c
       -0.0021195684 -0.026406558 -0.003711485 0.014761661
000380 56 c1 2a 3c 6a 09 c6 3c 90 13 c2 3a 91 3e 74 bb
       0.010422071 0.02417441 0.0014806855 -0.0037268738
000390 bd 9c 43 3c 3f c9 03 3b 0e 28 25 3d 90 c3 96 ba
       0.011939225 0.0020108966 0.040321402 -0.0011502374
0003a0 07 fc 0d 3d 15 40 98 3a 6d 11 4e bb 01 8f 8a 3c
       0.03466418 0.0011615778 -0.0031443492 0.016913893
0003b0 72 9f 62 3d 25 f6 8d bb e7 1b 71 3c 96 d6 29 3b
       0.05532784 -0.004332321 0.014716125 0.0025915257
0003c0 ec 74 34 3c f4 9d a9 ba 86 9e b8 3a af 37 52 bc
       0.0110142045 -0.001294075 0.001408533 -0.012830659
0003d0 56 c2 10 3c 3b 36 aa 3b 7f a9 99 b9 be 68 b8 ba
       0.008835396 0.005194453 -0.00029308719 -0.0014069302
0003e0 09 f5 75 bc 53 08 70 bb ae b2 a0 3b 97 fa 82 3c
       -0.015012034 -0.0036626055 0.004904113 0.015988631
0003f0 49 f5 03 bc dd b5 1e 3c 08 1f b4 3c c6 17 29 3d
       -0.008054086 0.009686914 0.021987453 0.041282438

bias f4 [36]
000000 de 8d 5f 39 06 4a 87 3a d5 3e c5 bb 06 67 22 bb
       0.00021319787 0.0010321743 -0.006019453 -0.0024780645
000010 ea 2e 2b 3b 1f 14 ee b9 c5 2b 26 bb bf 5a 39 3a
       0.0026120492 -0.0004540989 -0.0025355679 0.0007070712
000020 cc 6f 83 b9 03 8b d5 3a bb b4 ef ba e7 38 bd bb
       -0.00025069562 0.0016292039 -0.0018288115 -0.0057746056
000030 18 6f 44 bb 7d ba c1 bb b0 c7 83 b9 de 89 5e 3a
       -0.0029973444 -0.0059121237 -0.00025135046 0.0008489172
000040 63 86 c7 bb 08 5c 36 3b b2 b9 38 bb 21 4d 83 bb
       -0.006089018 0.002782585 -0.0028186855 -0.004006997
000050 a7 9d 1d bb 81 bd 40 bb 92 4e 02 39 ee 4e 80 bb
       -0.0024050267 -0.0029409828 0.00012427036 -0.003915659
000060 df 3c a7 bb a0 65 c9 b7 70 b5 7b 3b a8 42 16 3b
       -0.005103692 -2.400839e-05 0.0038407706 0.0022927914
000070 6b 97 4d 3b 06 5f b1 3a 5b e5 53 3b c9 e9 1d bb
       0.003137077 0.0013532348 0.0032332751 -0.0024095646
000080 58 2a 91 ba db c2 fd ba 6d fc ec 39 0a 37 19 39
       -0.0011075241 -0.001936044 0.000452015 0.0001461172

weight f4 [36]
000000 14 7c 24 3d b1 e6 24 3d 4b 49 d1 bb c1 2e b8 bb
       0.040157393 0.040259067 -0.006386911 -0.005620808
000010 d6 a3 00 3d b0 45 0e 3d b6 ca f7 bb 64 e9 0d 3d
       0.031406246 0.034734428 -0.007562007 0.034646407
000020 a1 97 37 3d c5 5d f0 3c de 6d 09 3d 07 01 2b 3d
       0.04482234 0.029341588 0.033552043 0.041749027
000030 6b c5 fd 3c f4 84 66 bb 45 08 ee 3c be f8 9b bc
       0.030977925 -0.003517446 0.029056678 -0.019039508
000040 2f ea c1 bc 46 11 16 3d f2 9d 60 bc 01 c4 24 3d
       -0.023671238 0.036637567 -0.013709532 0.040225986
000050 62 1c e2 bb cb 4b b5 3c f1 d0 c3 3c 60 00 36 3d
       -0.006900356 0.022130867 0.023903342 0.04443395
000060 1b bd 7e bb db 74 27 3d 15 92 ff 3c ea 94 ab 3c
       -0.003887004 0.040882926 0.031197587 0.020945031
000070 e8 a0 11 bb 3a cc 0b 3d 48 96 1f 3c eb 45 09 3d
       -0.0022221152 0.034130313 0.00974042 0.033513945
000080 91 dd 2f 3d 51 2d 0e 3d ac 95 14 3d 6e 4e 21 3d
       0.04293591 0.034711186 0.03627555 0.039381437

bias f4 [36]
000000 4b 0f 03 3f 8c 9e 04 bf bb fb 04 3f 68 f6 11 3f
       0.5119521 -0.51804423 0.5194661 0.5701661
000010 58 68 03 3f 12 0b 07 3f 02 ac 04 bf 9a 02 11 3f
       0.5133109 0.52751267 -0.51824963 0.56644595
000020 0a 8e 0d bf 44 92 05 bf 6a 6b 0a bf 03 0e 03 3f
       -0.5529486 -0.5217631 -0.5407015 0.51193255
000030 4f d8 03 3f 37 1c 12 3f 2f 69 03 bf 44 ca 0d bf
       0.51501936 0.570743 -0.5133237 -0.5538676
000040 14 b4 03 bf 9a 5c 04 bf a9 13 03 bf f8 ad 09 3f
       -0.5144665 -0.517038 -0.51201874 0.5378108
000050 4b e9 03 3f 4c e1 08 3f 42 92 02 3f 90 17 11 bf
       0.5152785 0.53468776 0.5100442 -0.5667658
000060 06 c6 03 3f 94 d0 0c bf c3 63 03 bf 2f dd 02 3f
       0.51474035 -0.55005765 -0.513241 0.5111875
000070 fd 52 18 3f d1 57 06 bf 80 98 06 3f ad 2c 0e bf
       0.5950163 -0.5247775 0.52576447 -0.5553692
000080 34 ad 02 bf 2a 10 06 bf f2 bb 13 3f ea 97 03 3f
       -0.51045537 -0.52368414 0.57708657 0.5140368

running_mean f4 [36]
000000 cf 65 68 39 fe 73 12 3a 59 dc 23 bb 3e dc cd b9
       0.00022163171 0.0005586742 -0.0025003164 -0.0003926474
000010 5b 05 cf 39 f4 c7 a3 ba d6 8f 69 ba 4c ab 34 3a
       0.00039486107 -0.0012495504 -0.0008909678 0.00068919803
000020 54 a4 64 39 5a 71 06 3b a4 f0 14 3a 75 00 20 bb
       0.00021804991 0.002051434 0.000568161 -0.0024414335
000030 89 8d 9f ba 5b fc 23 bb 9d 14 2a 3a be 48 2a 3a
       -0.0012172918 -0.0025022242 0.0006488057 0.0006495825
000040 21 77 30 bb 4a 2e e9 3a 73 1f 4c ba 34 55 92 ba
       -0.0026926475 0.0017790284 -0.0007786669 -0.0011164309
000050 df 43 fb b9 9c d9 b2 ba 61 03 34 b9 58 83 48 ba
       -0.0004792502 -0.0013645175 -0.00017167396 -0.0007648966
000060 4d c3 f2 ba 88 94 14 b9 b6 dc 0f 3b da 72 f7 3a
       -0.0018521339 -0.00014169712 0.0021951622 0.0018878833
000070 21 d0 0f 3b 84 d0 89 3a 89 cd e0 3a cb dd eb b9
       0.0021944123 0.0010514413 0.0017151098 -0.00044987942
000080 18 ab e6 39 f2 19 3e ba ca b9 78 3a 8a 77 a2 3a
       0.00043996493 -0.0007251791 0.0009488134 0.0012395245

running_var f4 [36]
000000 40 78 58 37 10 43 13 38 1b d1 32 38 46 0a 3d 38
       1.2902601e-05 3.5109988e-05 4.263325e-05 4.507068e-05
000010 3e ca d8 37 01 a2 38 38 16 4a ae 36 9d c1 1f 37
       2.5843383e-05 4.4019896e-05 5.194229e-06 9.522218e-06
000020 5a f3 8d 38 42 35 b0 37 59 d3 7b 38 f2 3a 9b 37
       6.768732e-05 2.1005635e-05 6.0039896e-05 1.8504888e-05
000030 99 05 68 37 36 d5 ac 37 52 7f 98 37 25 b5 06 37
       1.3829581e-05 2.0603282e-05 1.81791e-05 8.029198e-06
000040 bc 7a 06 37 6c fa 2d 38 9c 0c 00 38 e8 3e 32 37
       8.015599e-06 4.1479638e-05 3.052932e-05 1.0624273e-05
000050 8b 84 73 37 40 d6 05 37 ad 4e e0 36 7c 79 0d 38
       1.4514789e-05 7.977302e-06 6.6848793e-06 3.373016e-05
000060 33 5a f6 37 e5 2a d4 37 64 4c 67 38 04 00 3f 37
       2.9367488e-05 2.5292344e-05 5.5145836e-05 1.1384491e-05
000070 ee 13 9d 37 93 f1 d1 37 7a 83 bd 36 b3 dd 4f 38
       1.8725139e-05 2.5027233e-05 5.647945e-06 4.955912e-05
000080 eb 3b b7 38 22 13 ec 37 55 d1 e8 36 a6 3d 43 37
       8.7372806e-05 2.8142302e-05 6.9385082e-06 1.1637259e-05

weight f4 [1, 36]
000000 28 e3 16 3f e4 c3 11 bf be c3 11 3f e2 24 10 3f
       0.5894036 -0.5693953 0.56939304 0.5630628
000010 77 9f 17 3f 94 19 11 3f f3 ca 12 bf b2 e2 12 3f
       0.592277 0.56679654 -0.57340926 0.5737716
000020 c9 f9 10 bf 65 e9 11 bf 05 2b 12 bf b1 ee 14 3f
       -0.5663114 -0.56996757 -0.5709689 0.58176714
000030 24 cc 13 3f e7 1a 10 3f 7c a1 14 bf 62 d1 12 bf
       0.5773337 0.5629105 -0.58058906 -0.5735074
000040 20 31 15 bf 1d 94 11 bf 19 c2 16 bf 5e a0 13 3f
       -0.58278084 -0.5686663 -0.5888992 0.57666576
000050 01 e2 13 3f 75 c2 10 3f d7 b8 15 3f 8c 5c 11 bf
       0.5776673 0.5654672 0.5848517 -0.5678184
000060 59 c7 15 3f cd 2b 12 bf de 8a 15 bf b2 84 17 3f
       0.58507305 -0.57098085 -0.5841502 0.5918685
000070 82 30 10 3f 6b 54 13 bf 3a 2a 12 3f f9 2d 12 bf
       0.5632402 -0.57550687 0.5709568 -0.571014
000080 08 a1 16 bf 12 d3 12 bf bf d7 13 3f e3 23 15 3f
       -0.58839464 -0.5735332 0.5775108 0.58257884
