mlruns/528961946943719398/models/m-bf9bc9563eae41228d088233d0825f92/artifacts/data/model.pth (torch, 51246 bytes, 17 tensors)

weight f4 [124]
00000000: 3d9e 773f d56a 5a3f f877 a63f 6574 8d3f
00000010: 900f 613f bae4 483f 7a24 623f 1ce5 683f
00000020: 5324 663f 8d14 513f b102 873f 2bc8 403f
00000030: 7d17 673f 6959 6f3f bb0f 4c3f f5d5 8f3f
00000040: e813 523f 6593 473f 9768 933f 9220 743f
00000050: 9ee5 4a3f 3cfd 733f 0e69 593f d7a1 563f
00000060: 9def 763f 463f 683f 4a45 803f 78a3 663f
00000070: bffd 623f 4093 693f 381a 753f fbdd 5c3f
00000080: 83c8 7b3f 03c2 6e3f 84e2 723f 93ee 7d3f
00000090: ab7b 4f3f 4b44 643f 812e 5f3f f25d 5f3f
000000a0: b322 5e3f 1c28 593f b741 593f 678a 3a3f
000000b0: 9c2b 7a3f 73d8 643f 5913 6e3f f976 563f
000000c0: 1f4b 6c3f 26fd 513f 0743 493f d5cd 5e3f
000000d0: 7e1b 4a3f 7f42 433f 0e32 4e3f d03b 6d3f
000000e0: 4667 583f 99bf 4b3f 9a4a 413f 7da3 523f
000000f0: 2c67 5e3f ad64 663f d85d 4b3f df05 593f
00000100: 9d24 513f dade 753f b254 693f 8f36 6d3f
00000110: dab2 683f 4b91 563f bb15 5a3f 8ebb 5e3f
00000120: decc 603f 8a12 5a3f cefd 683f 57d7 5d3f
00000130: 9de1 483f da82 4b3f f0d5 753f 1a94 4e3f
00000140: a0ad 613f d116 723f ccaa 5c3f ab59 583f
00000150: f572 623f aae6 913f 7c22 803f 9edd 543f
00000160: b5d9 533f 0e53 6c3f 05f7 843f c98f 633f
00000170: 3ea0 763f dbe8 6d3f a871 4d3f 3d6a 463f
00000180: 2dfc 693f dbf4 723f fb55 6e3f 2cde 603f
00000190: 9571 543f 1947 6e3f 0468 503f 7449 563f
000001a0: 01f1 593f d5cf 493f ba02 533f 62c6 4b3f
000001b0: acad 693f 38d1 643f 5bb3 483f 9c52 773f
000001c0: 75b4 703f e5b9 593f 3c2e 7f3f b8d0 523f
000001d0: 40c4 4c3f 506e 4a3f a688 4e3f d3c6 643f
000001e0: 7623 5c3f 1063 643f f216 6a3f da57 5a3f
0.9672583 0.8531926 1.3005362 1.1051146 0.8791437 0.7847401 0.8833691 0.90974593
0.89899176 0.81671983 1.0547696 0.7530543 0.90270215 0.93495804 0.797115 1.123717
0.82061625 0.7795928 1.1516293 0.953622 0.7925662 0.9530828 0.84925926 0.838407
0.9645937 0.9072155 1.0021145 0.90093184 0.88668436 0.9124031 0.9574313 0.86276215
0.9835283 0.9326479 0.94876885 0.9919216 0.8104808 0.89166707 0.87180334 0.87252724
0.86771697 0.8482683 0.848659 0.72867435 0.9772279 0.89392775 0.9299827 0.8377529
0.92302126 0.820269 0.786179 0.87032825 0.789482 0.7627334 0.8054513 0.9266939
0.8453258 0.7958923 0.7550446 0.82280713 0.8687618 0.8999737 0.7944007 0.84774584
0.8169649 0.9604317 0.9114486 0.92661375 0.90897906 0.8381545 0.8518941 0.87004936
0.878126 0.8518454 0.91012275 0.8665671 0.7846926 0.7949654 0.9602957 0.80694735
0.88155556 0.94566065 0.86198115 0.8451182 0.8845666 1.1398518 1.0010524 0.8315066
0.8275407 0.9231423 1.0387884 0.88891274 0.9633826 0.92933434 0.8025155 0.77505857
0.91400415 0.9490487 0.93099946 0.8783901 0.8298581 0.93077236 0.81408715 0.8370583
0.8513337 0.7883275 0.82426035 0.79599583 0.9128063 0.8938174 0.78398675 0.96610427
0.94025356 0.8504928 0.99679923 0.8234973 0.79986954 0.79074574 0.8067726 0.8936588
0.8599161 0.8921366 0.9144126 0.852903

bias f4 [124]
00000000: 47f5 1a3b 9250 adbc 43dc c83b c51e e93c
00000010: 7e77 87bd 623f 04bd 4714 86bd 9c9e 613b
00000020: 5d32 033d 5ac8 c4bc e957 5f3b 4bd3 473d
00000030: 3287 98bd 335f 623d a632 a63c f4ac 213d
00000040: b296 f83b eeb3 7f3d 733b 0c3d 2265 64bd
00000050: 4b9e 3c3d bef7 b83c 0fc8 763b 43d1 633c
00000060: fae0 ab3b fbd6 b93c 2f55 98bc 03de bdba
00000070: c4f2 ca3c b299 a1bc 2f19 2bbb 0e50 c33c
00000080: 63fe 35bd 75fa 52bd 4ecc 9cbc fd2a 543d
00000090: 64ed 44bd 9268 4d3c 685e 3ebc 0036 b6bd
000000a0: 9ee0 c73c 64d3 6e3d a4fd 923d 7985 a4bc
000000b0: 7db5 91bd 5319 09bd 20c8 82bc 41d1 b33d
000000c0: 2613 1dbd 574e c73b e3bf 22bd ce80 9fbd
000000d0: 99e1 dfbb 9b69 2bbd 47dc 19bd ad23 bcbc
000000e0: 2e65 8bbc cbff 373d 7b4c d8bc 34c9 5dbd
000000f0: b3e0 8abd 3722 e3bc be80 1f3d be55 993d
00000100: be11 97bd 88a2 97bd badd 87bc 26b2 9bba
00000110: 3b47 b53d b8c4 1a3d 1a22 733c 077e 96bd
00000120: 4843 dcbb 72df 38bd c3dd 28bd 7898 e2bc
00000130: db86 153d 36c2 823c cb86 733d 3724 e9bb
00000140: a889 8dbd 3c6f 4e3d ad72 8abd 913f 13bd
00000150: 9777 adbc 741e 05bd afad 9fbb e57c 003d
00000160: b341 223d 0a2b a2bc 9222 023c af5b e1bc
00000170: c4d0 233e e797 7bbb 7cce 973c 8df6 42bd
00000180: 063d 89bd 80d9 8dbc 4686 dfbd 300c 1a3d
00000190: 29c6 843d bae7 6ebd 9a55 233c 224a 0a3c
000001a0: 1762 133c 0f4d a33c b31d 323c c25f 303d
000001b0: ee4a 633c 4b85 18bb b421 cf3c 628c cc3b
000001c0: 7401 013c 6a1d 25bb 0954 d1bc 047e 733c
000001d0: 1c04 043c aff2 d2ba 1867 4b3c 135b 983d
000001e0: 2288 03bd 1d15 fe3d 9cf6 7a3d 8974 083d
0.0023644732 -0.021156583 0.006129773 0.028457055 -0.06614588 -0.03228701 -0.06546836 0.0034426814
0.032030452 -0.024021316 0.0034079498 0.04878549 -0.074476615 0.05526657 0.020287823 0.03947158
0.0075863237 0.062427454 0.034236383 -0.05576051 0.046049397 0.02257907 0.0037655865 0.013904872
0.005245325 0.022685518 -0.018595306 -0.001448572 0.024773963 -0.019726608 -0.002610754 0.023841884
-0.044432055 -0.051508386 -0.019140389 0.05179881 -0.048077956 0.012537139 -0.011619188 -0.088970184
0.024399098 0.058307067 0.07177284 -0.020083176 -0.07114694 -0.033471417 -0.015964568 0.087801464
-0.03834834 0.006082337 -0.03973378 -0.077882394 -0.0068323133 -0.04184876 -0.03756359 -0.02296623
-0.01701602 0.044921678 -0.026403656 -0.05414696 -0.06781139 -0.027726276 0.038941137 0.07487057
-0.07376431 -0.07404047 -0.01658522 -0.0011878654 0.08851477 0.037785262 0.014839673 -0.073482566
-0.0067218877 -0.04513497 -0.041227113 -0.027660593 0.03650556 0.015961748 0.05945472 -0.007114913
-0.069110215 0.05039905 -0.06760154 -0.035949294 -0.021175189 -0.032499745 -0.0048729996 0.03136911
0.039613437 -0.019795913 0.0079428125 -0.027509538 0.15997607 -0.0038390101 0.018531077 -0.04759841
-0.067010924 -0.017315626 -0.109142825 0.03760928 0.064831086 -0.05832646 0.0099691395 0.008440526
0.008995554 0.019934205 0.010871339 0.04306007 0.013872845 -0.0023272808 0.025284626 0.006242321
0.007873882 -0.0025194534 -0.025552766 0.014861587 0.00805762 -0.0016094054 0.012414716 0.07439246
-0.03211225 0.12406371 0.06127034 0.03331426

running_mean f4 [124]
00000000: 06d9 8a42 de76 2446 3669 c340 96d7 b140
00000010: 3430 d442 479a 5840 6802 4640 d22a 5f40
00000020: b9d7 3b40 10e5 cc3f de6d da43 cdc5 4a42
00000030: 7481 0f44 d959 8440 b2da e03d 339b 9244
00000040: a6b6 a943 91c9 9c40 a6a5 bd44 0cc0 d43e
00000050: 28c5 633d ff13 ca3f 734b bb3e 161d 3840
00000060: 66bd 863f 4929 6040 cc20 d140 637b 333e
00000070: 5c90 1a3f b8a2 eb3f a54f dd3f 0c0c e63f
00000080: d263 ee43 f56d 3540 a370 3540 ad58 123e
00000090: 394a b742 8344 4c42 49c5 ad41 fbe6 6040
000000a0: 0b77 9141 0134 3240 3590 933c d4f8 2542
000000b0: 89ad 1c42 e8c0 cb41 f481 fe41 6760 fe41
000000c0: 8dec 4440 65df 9e3f 70b7 b83d b461 d23e
000000d0: 137f 1b3e 986e 333f bc3d 453e 6852 903d
000000e0: a9c8 1b3d ff28 6a3d e2fe f63c ec87 963c
000000f0: b1be c53d 862b 8e3c dadd 043e 90f2 753f
00000100: e2c0 7a3e 5142 a93d 92be b43d d6f4 263d
00000110: 6a5e b93e 08eb 0e3e 798f 233e 4c69 2f3e
00000120: b3e1 c13d 2381 163d 3ef1 423d 0a0d f83c
00000130: 2093 813c 7734 ae3c 2def 813c c1f5 953c
00000140: 3f6c 4a3f dbce 1a3e b086 273d d99f 883c
00000150: 94ae c93d a397 143d 48b7 993d eaa2 4a3d
00000160: 6c79 983c a912 023c a479 183d 882e 263e
00000170: 657d 6a3d aec3 b83c 9b6b 3a3d 96c5 a03d
00000180: 8886 043d d908 7a3c 973d 2c3d d5b5 2e3d
00000190: e183 543d 3c9b 9a3c 6b58 0e3d 2899 883c
000001a0: 34cd 183f f351 ab3d 741c e03e 6fcc ea3b
000001b0: ea66 e23e 08fe a43c fc0c e03c ab62 6e3f
000001c0: bea2 6f3d 1c1c 803e b8f0 453d 9e51 173d
000001d0: 90c7 0d3d da71 ad3d 8543 8d3c f591 5d3f
000001e0: bbaf 483c e213 533f ab92 e53b 5164 af3d
69.423874 10525.717 6.106593 5.5575666 106.09415 3.3844163 3.0938969 3.4869885
2.9350417 1.6007404 436.85834 50.693165 574.0227 4.1359677 0.10979213 1172.85
339.42694 4.8996053 1517.1765 0.4155277 0.055607945 1.5787352 0.36581 2.8767753
1.052655 3.5025198 6.5352535 0.17527537 0.60376525 1.8409033 1.728993 1.7972426
476.77985 2.8348362 2.8349998 0.1429164 91.644966 51.066906 21.72133 3.514098
18.183126 2.784424 0.0180131 41.492996 39.169468 25.469193 31.813454 31.797071
3.076938 1.2411925 0.09019363 0.41090167 0.15185194 0.7009063 0.19261831 0.07046968
0.03803316 0.057168003 0.030150834 0.01837536 0.09655512 0.017354738 0.12975255 0.96073246
0.24487641 0.08264602 0.08825411 0.040760837 0.36204845 0.13956845 0.15972699 0.17130011
0.09466877 0.036744248 0.047593348 0.030279655 0.015817225 0.021265252 0.015861118 0.018305661
0.7907142 0.15117972 0.040899932 0.016677784 0.09847751 0.036277425 0.07505661 0.049471773
0.018612586 0.007939019 0.03722538 0.16228688 0.05724849 0.022554245 0.045512777 0.078501865
0.03235486 0.0152608985 0.042050924 0.042653877 0.051883582 0.01887285 0.03475229 0.016674593
0.59688115 0.0836524 0.43771708 0.0071654837 0.44219142 0.020140663 0.027349941 0.93119305
0.058504812 0.25021446 0.04832527 0.03694307 0.034614146 0.08468981 0.01724411 0.8655084
0.012248929 0.82452214 0.0070060096 0.08564056

running_var f4 [124]
00000000: a4b4 fb43 4101 cf4c 1eae e93f cab7 983f
00000010: 710a f546 cf4c a33e 2a79 083e 717d 4c3f
00000020: ea15 a03e 7e7d 883f 8620 4a48 798c d846
00000030: ea66 4448 c3f2 6d3f 7bf1 143e 176d 0948
00000040: 6b1d 3548 f649 f644 d1eb 7d48 bf7e 883e
00000050: 32d2 5e3d f79a 953e 4b2e 7b3e 37bd 1b3f
00000060: 783b 613d f0bd d23e 8908 1c40 743c f53e
00000070: 250f cb3e aed6 5540 bc91 493f 2b49 0b3f
00000080: 039a 3047 db77 eb3e 890d ea3e ed64 7f3e
00000090: 4f75 7546 82d4 9b45 bb7e 7345 f6f3 5a44
000000a0: d6f2 5845 0a2c ca44 a9d3 963d a76c 5c48
000000b0: 87b1 6744 54aa dc43 6f92 1044 b2ae 7743
000000c0: 06c7 2c40 a487 2b3f 408d 113e 5c95 a93e
000000d0: f920 843e e8e0 563e 4f37 203e eaa0 863d
000000e0: 5431 283d f85e 8b3d 7d4c ef3c 736b 933c
000000f0: 2035 b43d 185f 8b3c f4ce 643e c262 613d
00000100: 3e4a 923e dfa8 1a3e 3cf4 a53d 493b 213d
00000110: 1670 6d3e 27b9 f63d 0ba1 0a3e e670 123e
00000120: 7a95 ae3d f66a 113d 181a 353d 749d f03c
00000130: 4d7c 7f3c a7be aa3c 19f0 7f3c e00f 923c
00000140: f408 2b3e 722b 043e 40b1 213d 4440 863c
00000150: e3e4 b73d e556 0f3d 28a4 8f3d c005 403d
00000160: 12aa 953c 8c03 013c 45af 143d c425 0b3e
00000170: e444 603d 0495 b33c 7bd6 303d 4abc 953d
00000180: 0ff3 013d f93a 763c 38cd 233d fbc2 283d
00000190: cccc 473d 0f9b 963c f945 093d fd33 873c
000001a0: 168d 783e f41f 9c3d 0fcb 7a3e c9af e93b
000001b0: 1922 7d3e f719 a33c 2555 dc3c 172b 843d
000001c0: e08c 603d e915 403e 3a90 3b3d 1af8 093d
000001d0: 642f 083d 889a 9f3d 1ac1 8a3c 2f9c ef3d
000001e0: c357 463c 2fd2 153e f24c e33b 9319 a13d
503.41125 1.08530184e+08 1.8256261 1.1931088 31365.22 0.31894538 0.1332747 0.7987891
0.3126672 1.0663297 206978.1 27718.236 201115.66 0.9294855 0.14545242 140724.36
185461.67 1970.3113 260015.27 0.266592 0.054399677 0.2921979 0.24529378 0.60835594
0.054988354 0.41160536 2.438021 0.47897685 0.39659992 3.341228 0.78738 0.5440852
45210.01 0.4598988 0.45713452 0.24940844 15709.327 4986.5635 3895.9207 875.8119
3471.1772 1617.3762 0.0736459 225714.61 926.77386 441.3307 578.288 247.6824
2.6996474 0.67003846 0.14214039 0.33121765 0.25806406 0.20984232 0.15646099 0.06573661
0.041062668 0.06805223 0.029211277 0.017995572 0.08799195 0.017013118 0.22344571 0.055025823
0.28572267 0.15103482 0.08103225 0.03936318 0.23187289 0.12047034 0.13537996 0.1430088
0.08524604 0.035502397 0.044214338 0.029371955 0.0155936 0.020842863 0.015621209 0.017829835
0.16702634 0.12907198 0.03947568 0.016388066 0.089792036 0.03499498 0.07013732 0.046880484
0.018269572 0.007874381 0.036299963 0.13588625 0.0547532 0.021921642 0.043173295 0.07311304
0.03172594 0.015028709 0.039990634 0.041201573 0.048779294 0.018384485 0.033513997 0.016504282
0.2427257 0.07623282 0.24491523 0.007131551 0.24720038 0.019909842 0.026896069 0.06453531
0.05482185 0.18758358 0.045791842 0.033683874 0.03324832 0.07793146 0.016937781 0.116997115
0.012105885 0.1463096 0.006936663 0.07866206

weight f4 [37, 124]
00000000: 4671 d4bb 62be 1a3e 7a7f 453e 6403 6d3d
00000010: 0cb3 cd3d 1e40 2d3c 970d 023d 4617 413d
00000020: bd2a aebc 18b4 833d a065 243d 8bc5 923d
00000030: 45ff fe3c 9ce7 e33c a75b e93c 2b23 853d
00000040: ed27 2d3d b81f 97bd 8af0 2a3e 249f a0bd
00000050: e03c 36bd 09f2 d73d 7e16 983d 566e 03bd
00000060: 76c8 77bd c169 7b3d e255 1a3e 2edf adbd
00000070: 11ea 5f3d 001f b73d a33a 22bd 4576 813d
00000080: 8171 053e 70a8 d4bd 3eae 9a3d c088 d0bc
00000090: f899 be3d cf6c ec3d c9b2 763c 4c40 803d
000000a0: e407 fd37 599b 5bbd dd1a 893c e8ae 513c
000000b0: 7b1a 94bc 5bcd bfbd c32d 803d 7a67 6cbc
000000c0: 2515 7dbd 5488 cfbd 114d 89bd 5428 693d
000000d0: 00f0 9bbd 3bac 2fbd db8f 25bb b206 41bc
000000e0: 36f6 03ba 6890 8fbc 31a8 973c c593 3bbd
000000f0: 5454 b6bd ee42 383d 8e11 86bc 8d1f 34bd
00000100: 1089 d13c 6601 da3c 030d 20bc 3fe6 ec3c
00000110: 422c 04bd 7369 adbc 6920 083d 7eed 283d
00000120: ff93 693c f54b 7d3d cdd7 9a3d 214e 49bd
00000130: 3419 453c 63c8 e3bd 5a4b b23d dcea a1bd
00000140: db32 203d 722a 38bd e76f dc3d 7a7b 51bd
00000150: b6dd 703d 0977 283b c492 15bd 4138 65bd
00000160: a225 033d a045 87bd e701 48bd 5d3b 65bd
00000170: d2da b7bd 545c 5b3d f3b3 ac3d 9469 66bc
00000180: 228c 2cbd a579 cbbd 7ea6 1a3d 1652 80bd
00000190: c2eb 723d c238 293e d4ca e0bc 9117 c4ba
000001a0: d769 bfbc 3f7a 8bbc ba62 363d cbe7 073d
000001b0: 4284 05bd 0a56 493d 043c 3cbd 57cc 1ebd
000001c0: a75c 103e d3e7 dd3d 5881 233d d4d1 91bc
000001d0: a524 a43d 66c7 e9bc 47ca 59bd a82f a83d
000001e0: 8fe6 60bd 2ca9 97bc d9cd 913d d29f af3d
000001f0: 9e79 bf3c 1b15 a13d abd7 293e 85f2 2c3e
00000200: e0b3 043e 3e0d dc3d 4087 0d3d 4b58 92bd
00000210: 5512 77bd a201 1b3e 09c1 8a3d 11c8 6fbd
00000220: 1d0c 853d 949e fdbd 350f 4f3d f1dd 2d3e
00000230: ed3f 9c3d f074 753d cc7f 3c3e 3dbd 663d
00000240: 7281 5a3d 21f7 45bc ed0d e13d 8884 913d
00000250: 90df 8cbd 194f b33d 661e 053e dab4 c2bd
00000260: caa8 d23d 8a61 d63d 53cc a6bd 0b00 6cbc
00000270: abaf 213e 076f 06be 17e9 32bd d3df d43c
00000280: ab0f 193c c4ba 723d b8c0 303d a6ac 743d
00000290: d3b5 603b 8db8 a23d dd52 ea3d dde7 f2bd
000002a0: 8c35 f33d 6832 613d df43 10bc f0e8 e93d
000002b0: b9a8 303d 936f 963d 455b 833d 244e 5c3a
000002c0: 32eb 9a3d 6a03 a2bb 79f2 73bc 057f 753d
000002d0: 3a22 b6bd 15af fdbc af23 88bd 682d 2d3d
000002e0: e746 57bc 6c5e 29bd 3b90 883c 1d5b 49bd
000002f0: d2fd a03d 50d0 6a3c 842b bf3d 7e3a d7bd
00000300: 0b46 67bd f60e 8fbd e1e8 b939 2b24 cd3b
00000310: 20c6 283d 8ee0 73bd 9d6d 1f3e 20d0 c2bd
00000320: abf2 30bd 2810 ee3d 947b aebd 032e 173c
00000330: 5836 ed3d 4956 fc3c 5a31 023e 4001 d8bb
00000340: c144 803c a148 6b3d a715 08bd f3be 963b
00000350: cc41 9cbd 82ca 89bb 85a7 9ebc 6c21 64bc
00000360: 67ce 823c 252b 443d 6ba8 a23d e3ff c7bd
00000370: df78 653d 81db 74bd b076 1a3d 0632 f73c
00000380: 5373 4abc fbd6 693d b401 d7bc d54e 993c
00000390: 5938 753c 76d8 003d 8bcd 853c 0be9 583d
000003a0: 3383 033d 790d 7f3d 6558 6a3d 9982 d7bc
000003b0: 9fef 6abd 4e69 e03c e294 ca3d 82e5 eabd
000003c0: 68e4 9bbd 8c5f 663d 44f4 17be 060d 3e3d
000003d0: 8c55 87bd 6e92 963d aa54 c13c aa9e 17bd
000003e0: 0d1b e63d 46cf 7a3b 12a2 113d 3e1f af3c
000003f0: a83f ccbb f810 be3d 9f9e b03c c0cf 42bc
-0.00648323 0.15111688 0.1928691 0.05786456 0.10043916 0.010574369 0.03175124 0.047141336
-0.021260614 0.064308345 0.04013598 0.071665846 0.031127581 0.0278204 0.028486086 0.065008484
0.042274404 -0.07379097 0.16693321 -0.07842854 -0.04449165 0.105442114 0.07426165 -0.032087646
-0.06049391 0.06138015 0.15071824 -0.08489834 0.054666582 0.0894146 -0.0396067 0.06321386
0.1303158 -0.103836894 0.07552765 -0.025455832 0.09306711 0.11544191 0.015057274 0.06262264
3.0163625e-05 -0.053614948 0.016736442 0.012798049 -0.018079033 -0.0936534 0.06258728 -0.014428968
-0.061787743 -0.101334244 -0.067041524 0.056923226 -0.07614136 -0.04288886 -0.0025262746 -0.011781381
-0.00050339417 -0.017524913 0.018512817 -0.04579522 -0.08902803 0.044985704 -0.016365793 -0.0439754
0.025578052 0.026611995 -0.009768727 0.028918384 -0.03226877 -0.021168446 0.033234034 0.041242115
0.014256476 0.061840016 0.07560692 -0.049146775 0.012029935 -0.11122205 0.087057784 -0.07906124
0.039111 -0.044962354 0.10763531 -0.051143147 0.05880519 0.0025705716 -0.03651692 -0.05596185
0.03201831 -0.06605077 -0.04882994 -0.055964816 -0.089772835 0.053554848 0.0843276 -0.014063258
-0.04212583 -0.09935311 0.037756436 -0.06265657 0.059306867 0.16525558 -0.027440466 -0.0014960637
-0.023365898 -0.017026065 0.044527747 0.03318004 -0.032596834 0.04915432 -0.045955673 -0.038769092
0.14097844 0.108352326 0.039918274 -0.01780025 0.08014802 -0.028537463 -0.053171422 0.08212215
-0.054907378 -0.018513285 0.071193404 0.08575405 0.023373421 0.07865354 0.16586177 0.16889389
0.12959242 0.10744713 0.034552813 -0.07145747 -0.060320217 0.15137342 0.067751 -0.058540408
0.06496451 -0.12383762 0.050551612 0.16979195 0.076293804 0.059925973 0.18408126 0.056332815
0.053346105 -0.012082846 0.10988984 0.071053565 -0.06878579 0.08755321 0.12999877 -0.09507151
0.102861 0.10467823 -0.081444405 -0.014404307 0.15789668 -0.13128291 -0.043679323 0.025985634
0.009342114 0.059260145 0.04315254 0.059734963 0.0034288063 0.079453565 0.11441586 -0.11860631
0.11875448 0.05497971 -0.008805244 0.114213824 0.043129656 0.073455 0.06413893 0.0008403978
0.07564391 -0.0049442546 -0.014889353 0.05993559 -0.08893247 -0.030967275 -0.06647431 0.04227963
-0.013139463 -0.041349813 0.016670337 -0.049159158 0.078609124 0.014331892 0.09334472 -0.105092034
-0.056463283 -0.069852754 0.00035459458 0.006260415 0.04120457 -0.059540324 0.15569158 -0.09512353
-0.043200176 0.11624175 -0.085196644 0.009227279 0.11582631 0.030802863 0.12714139 -0.006591946
0.015657784 0.05744231 -0.033223774 0.0046003996 -0.07629737 -0.004205049 -0.019366989 -0.013923984
0.015967561 0.04789271 0.079422794 -0.097656034 0.056023475 -0.059779648 0.037710845 0.03017522
-0.012356597 0.057089787 -0.02624593 0.018714348 0.014967048 0.031456433 0.016333362 0.052956622
0.032107543 0.062268708 0.057213206 -0.026307391 -0.057357427 0.027393963 0.098916784 -0.114695564
-0.076119244 0.056243464 -0.14839274 0.04639914 -0.06608114 0.07352148 0.023599941 -0.03701655
0.11235628 0.0038270517 0.035554953 0.021377202 -0.0062331744 0.0928058 0.021560011 -0.011890352

bias f4 [37]
00000000: 1b83 31bc fa92 613c 5e1e 3abe 5e56 ddbd
00000010: 25c4 8abb 831f 9b3d dd68 81bd 069a 893d
00000020: 14e8 c03c 622f e8bc d503 263d 4082 d5bd
00000030: 1e71 64b9 28ff 9bb8 ad18 373d c8eb 0dbe
00000040: ec80 983d c7eb 21bc 72dc 2f3c 3f12 b13b
00000050: 9b28 443d ed47 11bd 19ec a13c 52c7 b93d
00000060: b75f 123e fdee cbbd 93c8 00bd 4a5d 7a3d
00000070: a5f3 0ebe 83dc 9cbd c38f 2a3e adc7 4f3c
00000080: b34d e7bc 0e0c aabd 6814 2bbd cdff 8d3d
00000090: bd47 14bd
-0.010834481 0.013767952 -0.18175647 -0.10807489 -0.004234808 0.0757437 -0.06318829 0.06718831
0.023548163 -0.028342906 0.040531 -0.10425234 -0.00021785914 -7.4385025e-05 0.044701267 -0.13859475
0.07446465 -0.009882874 0.010733711 0.0054037864 0.047890287 -0.035468984 0.0197659 0.090712205
0.14294325 -0.09957693 -0.031441282 0.061124124 -0.1396013 -0.07659247 0.16656403 0.012681884
-0.028235292 -0.083030805 -0.041767508 0.06933556 -0.036201227

weight f4 [37]
00000000: 3467 6e3f 5585 723f 0164 4e3f f5f8 533f
00000010: 3fdc 4f3f 7360 7c3f 678c 513f ce2e 423f
00000020: 618b 5b3f cd7e 663f 7b09 513f 259a 4b3f
00000030: 3cb1 5a3f 6dc5 3b3f fbff 3b3f 75a8 823f
00000040: 5a79 6c3f 0fe0 473f 60d0 413f 64d6 3a3f
00000050: 88df 313f 1e99 773f ea3b 583f f1c9 3e3f
00000060: 6cd4 503f d616 423f 05ea 483f c30b 553f
00000070: 5915 603f f224 593f de73 433f 4e3e 693f
00000080: 25b1 413f b4c0 633f 1ad7 653f 3a79 7d3f
00000090: 99ce 4f3f
0.93126225 0.947347 0.80621344 0.82801753 0.81195444 0.9858467 0.8185486 0.7585267
0.8575955 0.9003723 0.8165509 0.7953208 0.8542669 0.7334812 0.7343747 1.0207659
0.9237267 0.7807626 0.7570858 0.72983384 0.69481707 0.96718013 0.8446642 0.7452689
0.8157413 0.75816095 0.78482085 0.8322107 0.87532574 0.84822 0.76348674 0.91110694
0.75660926 0.88965917 0.89781344 0.990131 0.8117462

bias f4 [37]
00000000: 2004 cdbd 3538 9ebd 9280 ea3d 25ff 65bd
00000010: 2932 29be 7e5e 3b3d ba8c 44bd b76f cabd
00000020: 155c 463d 998a 773d 96b8 18bd 9164 583c
00000030: 8de0 bb3d c49d a43d 1519 ea3d 57ac 56be
00000040: 4454 003b 09c2 1cbe f3ee bf3d b9d6 bbbd
00000050: baf5 c2bc 9070 febd e173 c0bd 6859 efbd
00000060: f20b 88bd 9743 e7bd 4259 cb3d 69fc 893d
00000070: f986 debd 714a b5bd 6c71 413e 57b8 0ebe
00000080: aca9 a7bd da2b a3bd 13b8 bcbd d8fc 443b
00000090: 85b3 01be
-0.100105524 -0.077255644 0.11450304 -0.056151528 -0.16523041 0.04574441 -0.04798577 -0.09884589
0.04842766 0.06043491 -0.03728541 0.013207571 0.09173689 0.08037904 0.11430565 -0.2096418
0.0019581476 -0.15308394 0.09371748 -0.091718145 -0.023798812 -0.12423813 -0.09397102 -0.11686975
-0.066429034 -0.112921886 0.09929134 0.067375965 -0.10865588 -0.08852089 0.18890923 -0.13937508
-0.08186659 -0.079673484 -0.09214797 0.0030057933 -0.12666138

running_mean f4 [37]
00000000: f299 a43e 494a a63e e0e4 473e bdf9 913e
00000010: 7f4b 783e 521b c53e 1269 8b3e 0260 de3e
00000020: 6185 b63e 5cd5 bf3e f8f1 bc3e 6ab3 703e
00000030: 0db9 7d3e 28f0 b23e b003 9c3e 971f d13e
00000040: 83da b53e 7a80 ae3e 6c84 fd3e ca03 ef3e
00000050: ffb9 8b3e fb15 9e3e 09fc aa3e a362 da3e
00000060: 9b7a c63e 7089 a03e 3008 833e 0ae4 de3e
00000070: 588a 9c3e c52e a23e 1f1d cc3e 90de 793e
00000080: 2a24 003f 40ea d13e 7470 3a3e 879b 133f
00000090: 7f9f d83e
0.321487 0.3247855 0.19520903 0.28510848 0.2424755 0.38497406 0.272286 0.43432623
0.35648635 0.37467468 0.36903358 0.23505941 0.24777623 0.3494885 0.30471563 0.40844414
0.35518274 0.34082395 0.49515092 0.46682578 0.2729034 0.30876145 0.33395413 0.4265338
0.38765416 0.31354856 0.25592184 0.43533355 0.30574298 0.31676307 0.39865968 0.24401307
0.5005518 0.4099903 0.1820696 0.5765919 0.42309186

running_var f4 [37]
00000000: e487 8a3f a2b5 863f b2fc 233f c921 3d3f
00000010: f069 ed3e 223d 8c3f 9bf2 313f 5c97 823f
00000020: c583 be3f 07e7 413f fb05 743f c836 423f
00000030: c9d4 223f 6a0c 233f e9e3 173f 6e5c bf3f
00000040: 2c86 233f bdbe 823f a02e 973f d605 6f3f
00000050: b0e8 8e3f bcd6 2e3f 95dd 843f e578 b03f
00000060: 4382 4d3f c0e5 4a3f 38f8 113f 10fa a13f
00000070: 7967 943f f6dc 5d3f ab45 343f 02ec e63e
00000080: 2c7a ab3f 67fc bf3f 07be c63e 8615 ad3f
00000090: d4cd 8b3f
1.082272 1.052418 0.6405746 0.7387968 0.46369886 1.0956156 0.6951081 1.0202441
1.4883963 0.75743145 0.95321625 0.7586484 0.63605934 0.6369082 0.5933214 1.4950082
0.63876605 1.0214459 1.1811104 0.9336828 1.116476 0.6829641 1.0380121 1.3786894
0.8027689 0.7925682 0.57019377 1.2654438 1.1594077 0.86665285 0.70418805 0.45101935
1.3396659 1.4998902 0.38816854 1.3522193 1.0922189

weight f4 [100, 37]
00000000: 4bc2 d3bd 51c6 503e 8ba0 093c 9d60 cd3d
00000010: d692 8d3c 4a27 263e 7577 423e dd19 213d
00000020: e835 5abc 9a2f 59be 24cd 4d3d 4dea fabd
00000030: f319 d73b 8801 833d 9b8d 443c 0f4b d83d
00000040: 229a 7c3e d463 3c3d 22ff 0b3e d694 833d
00000050: 4fba ecbd 87d8 8ebd 0e71 30bd 2a14 f93c
00000060: 4a8d e1bd f769 aaba 40c5 0abe 4645 df3d
00000070: da72 d93a ed11 87bd fe8b 23be 6694 183d
00000080: cf57 043e ec52 c5bd e96f 0c3d 54e6 d8bd
00000090: 918e cebc bf5d 3e3e e56a 3a3e ff97 e2bb
000000a0: 981d ecbd b3cc f13d d4c9 bebd 87f8 96bd
000000b0: 9140 2b3e c7ac e7bc c05d 8abd 1e67 b9bd
000000c0: 5f39 afbd a2bb 1fbd 5e86 213e cfbb 343e
000000d0: e430 ff3d 8f8f e43d 83d7 293d 519d debd
000000e0: 067f 763d 6a1d 053e efbf bbbd 30ce 9ebc
000000f0: 3834 8ebc a625 5d3d 80cc 31be 867d 8abd
00000100: b733 e4bd ccc7 a1bd 2aba ca3d 4098 bd3d
00000110: a39d 82bd 9060 18be 0e10 cb3d f84b 5a3e
00000120: cb1e c93c 4e1e be3d 4e7d 68bc a874 b33d
00000130: 2f4f 6c3e 1011 83bc 9de1 3d3e ae1d 2f3d
00000140: e896 2a3d 4a52 13bd ab0d 05bb b860 f5bd
00000150: 8756 583d 8b9d febc 6a8e 4f3d 3e35 d1bd
00000160: 1311 8e3d 9355 8d3d da18 15be 0949 0d3d
00000170: d7d5 943d c9c0 21be cab7 fa3d 7b21 373e
00000180: e25c 8abd 8f5d 97bc 2f51 d93c 83bb 2abd
00000190: 904d 74bd 3bd3 263d 957c d2bd 6fee 2fbe
000001a0: 3bc5 dfbd 1b7b be3d 6089 12bc f016 033d
000001b0: 2050 003e a2e4 4ebe 6bd9 2cbe 4e63 f63d
000001c0: 3406 003e ada3 6fbd c575 24bd f23c 9cbc
000001d0: 27a0 853e da3b f93d 588a d2bc 7e95 0f3e
000001e0: 6296 8438 9e97 08be bfc0 de3d 11cb 0cbe
000001f0: 0198 073d 29d5 0dbe bf15 433d ae6f e5bd
00000200: b06e be3d 8751 17bd 6334 99bd cac0 e2bc
00000210: a19b 05be 2f8a ca3d d205 9a3d 2bac e63d
00000220: 2d48 e43d a062 443d 37d5 c73b 7b94 ddbd
00000230: b2c8 2a3e b6a1 ba3d a49a 46bd 2717 45bd
00000240: 0f5c eb3d 7631 b8bd 633f 87bd a7ba cdbd
00000250: e955 453d 0ffc 123e 436c 8cbd de05 343e
00000260: fe42 1c3e 6c7f adbd 2868 c8bd 568b 19bd
00000270: 08d4 ff3c 6eed 0bbc 1003 d5bd c8ec 993d
00000280: ef71 013e 1f9d 023e 3411 eebd f8b1 383e
00000290: 063d 09be 5352 b4bd abb4 c5bd e518 9cbd
000002a0: 5628 efbd b0cd 1c3e 9e59 12bc a79b a93c
000002b0: f595 22be 252d 483e ec0c 2ebe 9512 1fbe
000002c0: 6e8e 95bd ff01 203d 3977 1f3d c104 ae3c
000002d0: c680 b63c 7e73 1e3e f10c 55bc 690d 09bd
000002e0: 0dbb 863b 5f85 23bd 7fd1 0bbd 0168 c5bd
000002f0: 10e8 713e 3871 463d 712d a6bd a3df 063d
00000300: 1d56 99bd 85f4 6b3d d92c 3ebe 32f2 6bba
00000310: 3676 87bd 0786 44bd e8d4 1cbd 2f96 cbbc
00000320: bf42 16be 3ddd adbd 3bfc 0dbe eb9b 803b
00000330: 7246 0bbe f126 a03d e340 e83c 1890 523d
00000340: 8afd 2dbd 0dda 41bd 6c68 d8bd f2bf d1bd
00000350: 1f83 fa3d bf28 ef3d 8d63 b73d a23c 96bd
00000360: d712 223e 3ff0 f2bd 925d 94bd 8364 94bd
00000370: 4033 e8bd 8d7a e03d 8089 4dbd 5237 59be
00000380: 827e d9bd 21f5 b9bd 0cc0 5e3c 1c46 b3bd
00000390: e8dd abb9 e545 e03d a2b4 5dbd bcbe 38bd
000003a0: b52f 3f3c ddf5 dbbd 70bb 913b dce6 03be
000003b0: 6b02 a4bd 94e4 c5bd a5cf d7bc 7e13 543d
000003c0: 9a78 233e 7358 cabd 53fb 0fbd 6e3a 29bd
000003d0: 5054 023d a32b 35bd 02a7 1dbe e45c dabb
000003e0: 7eb9 fa3c 0739 0f3e 56d9 e33d ea1f b53d
000003f0: e02e 98b6 7405 d9bd f35a 94bd d4c1 453c
-0.10339793 0.20388152 0.008400093 0.10028193 0.01728193 0.16225925 0.18990882 0.039331306
-0.013318516 -0.21209565 0.050244465 -0.122517206 0.0065643727 0.063967764 0.011996652 0.10561191
0.24668172 0.04599364 0.13671544 0.064248726 -0.11558973 -0.06974893 -0.043076567 0.030405123
-0.11013277 -0.0013001551 -0.13551807 0.10901885 0.0016590015 -0.06595216 -0.15971372 0.0372509
0.12924121 -0.09634957 0.034286413 -0.105908066 -0.025214465 0.18590449 0.1820484 -0.006915092
-0.11529082 0.118066214 -0.093158394 -0.073716216 0.16723849 -0.028280629 -0.06756163 -0.09052871
-0.085558645 -0.0389973 0.15773913 0.17649768 0.12460497 0.11160194 0.041465294 -0.108698495
0.060179733 0.12999502 -0.09167468 -0.019385427 -0.017358884 0.053990982 -0.17363167 -0.06762223
-0.11142676 -0.07899436 0.09898789 0.09257555 -0.06377723 -0.14880586 0.099151716 0.21318042
0.024550816 0.09283124 -0.014190031 0.08762485 0.23077081 -0.015999347 0.18543096 0.042752914
0.04164782 -0.03596715 -0.0020302336 -0.11981338 0.052816894 -0.031080982 0.050672926 -0.10215233
0.069368504 0.069010876 -0.14560261 0.03449348 0.07267349 -0.15796198 0.12242086 0.17883866
-0.06755997 -0.01847723 0.02652797 -0.04168273 -0.059644282 0.04072879 -0.102776684 -0.17180799
-0.109262906 0.09300824 -0.008943886 0.032004297 0.12530565 -0.20204404 -0.16879813 0.120306596
0.12502366 -0.058505703 -0.040151376 -0.01907203 0.2609875 0.12169619 -0.025700733 0.1402187
6.3222615e-05 -0.13339087 0.10876607 -0.13749339 0.033103947 -0.13850845 0.04762816 -0.11202942
0.09298456 -0.036942985 -0.07480695 -0.02767982 -0.13047649 0.09889638 0.075206414 0.11263307
0.11146579 0.04794562 0.0060984152 -0.10819336 0.16678122 0.09112875 -0.04848732 -0.048117783
0.11492168 -0.08993809 -0.06603887 -0.10045367 0.048177633 0.14353965 -0.06856587 0.17580363
0.1525993 -0.084715694 -0.09785491 -0.037486397 0.031229034 -0.008540494 -0.10400975 0.075158656
0.12641118 0.1275525 -0.11624375 0.1803664 -0.13402185 -0.088047646 -0.096536 -0.07621936
-0.11677615 0.15312839 -0.008932499 0.020704104 -0.15877517 0.19548471 -0.16997117 -0.15534432
-0.07302557 0.039064404 0.03893206 0.021242501 0.0222782 0.15473744 -0.013003574 -0.033460055
0.0041116537 -0.039922114 -0.034135338 -0.09638978 0.23623681 0.048447818 -0.08114136 0.03292812
-0.07487128 0.05760624 -0.18571796 -0.00090006285 -0.06614344 -0.04797938 -0.03828898 -0.024851887
-0.14673899 -0.084894635 -0.1386575 0.003924837 -0.13601092 0.078199275 0.028351253 0.05140695
-0.04247812 -0.04732709 -0.10566792 -0.10241689 0.122320406 0.116776936 0.08954535 -0.073357835
0.158275 -0.118622296 -0.072444096 -0.072457336 -0.113379 0.10960875 -0.05017996 -0.2121251
-0.106198326 -0.09079958 0.013595592 -0.08753607 -0.00032780995 0.10950831 -0.054127343 -0.045103773
0.011669089 -0.10740254 0.004447393 -0.12881035 -0.08008274 -0.096627384 -0.02634413 0.0517764
0.15963975 -0.098801516 -0.03515179 -0.04131549 0.031818688 -0.04423107 -0.1539574 -0.0066639055
0.030606028 0.13986598 0.11125438 0.08843978 -4.53541e-06 -0.10596743 -0.0724391 0.012070138

bias f4 [100]
00000000: 9304 47bd 5a11 d2bd f8e7 4bbe 7710 8dbd
00000010: c7c1 af3d 8ff1 85bd 508f d1bd bc48 8ebd
00000020: cb71 dfbd 8d22 77bd da19 553c 4641 afbd
00000030: 57e5 5bbd d74a 2dbe c69c 00be e368 51bd
00000040: 0b60 20be 26c3 503d 9cb1 11be ca10 e8bd
00000050: 60bf 50bd ed71 cf3b a923 8ebb 5720 d0bd
00000060: b090 5abd 490d 9dbd 63bd aabd 275b 40bd
00000070: 280c 83bd f11f 29bd ee57 863c d95d 78be
00000080: 9923 e2bd 7236 d9bc d252 10bc eac7 f5bd
00000090: 31f0 13bc 2653 eebd e202 8f3c 796f 6c3d
000000a0: 3dbd e63b 04ae b8bd 8adb d3bd bee6 68bc
000000b0: 685f 9dbd 7522 25bc 6fe9 1a3d dec5 133c
000000c0: a134 8ebd 2f2d 9cbc 7993 ce3c 79fb 6cbe
000000d0: 40e7 ddbc 2ede 59be 9b83 bbbd 7d17 173d
000000e0: c634 e3bd a16a cebd 368a 35bd 62a2 96bd
000000f0: 3ed8 03bd 8f46 a53d ba9f bcbd 7dec ebbd
00000100: 25a3 01be 3e72 283c 0ab6 5cbc 7965 93bd
00000110: ca09 8dbd 95d4 883c 829e 15be cb2e efbd
00000120: 5701 4bbd e6d7 d9bd 0732 85bd 3cc0 16be
00000130: 60c9 b8bc 905f 453d 957b 38be 51de 16be
00000140: 4093 fabc 125f dbbd e9a4 b23c 3a7a bebd
00000150: 8b5c 06bd b475 80bd 2f04 9bbd c64e 02bd
00000160: c676 7d3d 87b7 063e 09b4 e5bd 6a26 003d
00000170: 7cf4 38bd 70a5 39be 2b63 d5bd b054 21bd
00000180: 7f42 c33d 1857 eebd d2f7 03be 6ec0 bdbc
-0.048588347 -0.10257216 -0.19912708 -0.06887906 0.08581882 -0.06540214 -0.10232413 -0.06947467
-0.10910376 -0.060335685 0.013006652 -0.08557372 -0.053685512 -0.1692308 -0.12559804 -0.05112542
-0.15661637 0.050967358 -0.14227909 -0.11331327 -0.05096376 0.0063307197 -0.004337747 -0.10162418
-0.05336064 -0.076685496 -0.08336904 -0.04696193 -0.06398803 -0.041290227 0.01639935 -0.2425455
-0.11041946 -0.02651522 -0.008808808 -0.12001021 -0.009029434 -0.11636953 0.01745743 0.057723496
0.007041602 -0.09017566 -0.10344608 -0.0142151695 -0.07684213 -0.010079016 0.037820276 0.009019343
-0.06943632 -0.019064514 0.025216805 -0.23142804 -0.027087808 -0.21276161 -0.09155961 0.036887635
-0.1109405 -0.100789316 -0.04432126 -0.07355191 -0.032188646 0.080700986 -0.09210153 -0.11519716
-0.12659891 0.010281144 -0.013471136 -0.07197089 -0.06886633 0.01670293 -0.14611247 -0.11678847
-0.049561825 -0.106368825 -0.065036826 -0.14721769 -0.02255696 0.04818684 -0.18015893 -0.14733244
-0.030587792 -0.107114926 0.02180715 -0.093006566 -0.0328031 -0.0627245 -0.07569157 -0.031813405
0.06188085 0.13155948 -0.112159796 0.031286635 -0.045155033 -0.18129516 -0.104193054 -0.039387405
0.095341675 -0.116377056 -0.12887505 -0.023163047

weight f4 [100]
00000000: 4dfe ed3c 3c9d 783c c3b8 953d e4f6 fb3c
00000010: b1f9 503d 8190 933d d7fb 4a3d f68f 7e3d
00000020: 355e 5c3d 96ce 5e3d 60e1 3e3d 8e64 3f3d
00000030: a8e3 b63c 32bf 5a3c bcfb 783d df87 4f3d
00000040: 5e99 4cbc 2e0d 2a3d 3466 4c3d 1675 d83c
00000050: e8f5 c83c 844d 243d dd9d 96bc 40f5 2d3d
00000060: 45c9 9cb9 c7bb 713c 0d7e 213d 5e20 9d3d
00000070: 7324 8c3d 12f4 f43c 2ccb 4abc 4f9b 2d3d
00000080: f57b 2e3a 7bec e73c f503 c3bc ced1 203d
00000090: 20aa 1bbd de0c 4c3d 59f1 3b3d e36f 743d
000000a0: 392e ec3c c03a 1c3d 4e4a 503d 6cb8 0b3d
000000b0: f25d 8dbc 7b45 183d bc7b 643d e3c2 30bb
000000c0: 0076 9b3d 7883 1c3d ef3f 7b3d 8fb5 30bd
000000d0: 7d84 533d 0ab1 403d c422 333c d0ac 603d
000000e0: 899e 263d 621c 13bb 3644 1c3d 7dce 133d
000000f0: 9eb7 a63c ba3c e839 15b6 873b c83c ab3c
00000100: b62c 8a3d a9ed b03d d0c0 8e3c e71e f0ba
00000110: 9340 293d a10e 323d 4e53 5ebb d5ae 2b3d
00000120: 1c90 8b3d bf93 ba3b b807 24bc 9c31 ba3c
00000130: 0014 433d 843b 043d 02b0 51bc f56a 583b
00000140: 6698 0f3d 9337 a23c 74d4 a73c 3554 aa3d
00000150: 9929 473d dea9 a93d c8ae 733c 2de9 5b3d
00000160: b909 0abc 9452 633d 24e4 213d e3ac 803d
00000170: 8dbc bf3d 3cc1 673c 0c6c e93c 9b88 2d3d
00000180: e1a5 153d 3bcb 0e3d 6ffc 263d 925b 9b3c
0.029051924 0.015174206 0.07310631 0.030757375 0.051019374 0.07205296 0.04955658 0.06214901
0.05380078 0.054396234 0.046601653 0.046726756 0.022325352 0.013351249 0.060786948 0.050666686
-0.012487737 0.041516475 0.049902156 0.026423018 0.02453132 0.040112987 -0.018385822 0.042470217
-0.00029904596 0.014754242 0.039426852 0.07672189 0.0684289 0.029901538 -0.0123775415 0.042384442
0.0006656044 0.028311005 -0.023805598 0.039262585 -0.03800404 0.04981696 0.045884464 0.059677016
0.028830634 0.038141966 0.050852112 0.034111425 -0.01725671 0.037175637 0.055782065 -0.002697163
0.07590866 0.038211316 0.06134027 -0.043141898 0.051640023 0.047043838 0.010933582 0.054852307
0.040678535 -0.0022447337 0.03815099 0.036085594 0.020351227 0.00044295733 0.004141579 0.020903006
0.06746809 0.0863908 0.017425925 -0.0018319756 0.04132135 0.043470982 -0.0033924165 0.04191478
0.06814596 0.0056938822 -0.010011606 0.022728734 0.047626495 0.03228332 -0.012798311 0.0033022736
0.035057448 0.01980189 0.020487048 0.083168425 0.048623655 0.08284353 0.014873214 0.05368917
-0.00842517 0.055498675 0.039524212 0.062829755 0.09362135 0.014145192 0.028493904 0.042366605
0.036535148 0.034861784 0.040768083 0.018964563

bias f4 [100]
00000000: 0533 d2be 9452 c3be b7f5 bfbe 7fbc c43e
00000010: d6c7 c33e 477c c3be 3498 c4be 73d1 c4be
00000020: 388e c3be f4c3 ca3e bb8d c2be 107e c0be
00000030: c9f0 cb3e 48a5 c2be 3dde bebe 4b09 d2be
00000040: fe1e d13e b0c4 c23e e0df c8be 0993 c63e
00000050: aa75 c73e 45c7 ca3e 6d06 c73e 61c3 c8be
00000060: cd7a bebe ccaf bd3e 1c26 db3e 8e1e bfbe
00000070: e397 bf3e c14f c43e 6f2d c23e 4bf1 c5be
00000080: 7bb5 c2be 36d6 c3be 3851 d43e 6dbf bf3e
00000090: e28e d1be 8d37 c13e 02fc c83e cad2 c03e
000000a0: 49f5 c43e a258 c03e e2b9 c83e 91cc c43e
000000b0: fcdc c6be 71d1 bfbe a189 cd3e de3a bf3e
000000c0: c99a cfbe 9ff8 c93e a6ce c7be 8f0d c1be
000000d0: 5b76 ccbe e0a7 c6be 0813 dabe 4f69 da3e
000000e0: 9ce3 c43e 6473 cfbe 8f5a cb3e e16f d43e
000000f0: 24af c2be 73a8 cc3e d932 ca3e 8e61 c7be
00000100: a08a c1be 6281 d3be 02d9 c4be 1980 c9be
00000110: 37cb c1be e628 c03e c870 c13e b246 d2be
00000120: 8852 c0be b541 c93e fc2b c63e c674 c13e
00000130: 2e5c cabe 712b c33e 55db c33e 41e5 cb3e
00000140: edea c43e 3294 c1be d07d c23e 360d d33e
00000150: 3c01 c23e b839 c4be e1a1 c7be 9354 c5be
00000160: f03b c1be d2b7 ce3e 34e6 c13e 72a4 d73e
00000170: da7f dbbe 320f dc3e 622d bdbe 43cf c23e
00000180: 866f c83e f15c c93e b523 cabe 4213 c2be
-0.4105455 -0.3814894 -0.37492153 0.3842506 0.382384 -0.38180754 -0.38397372 -0.38441047
-0.38194442 0.39602625 -0.37998757 -0.37596178 0.39832142 -0.38016725 -0.3727893 -0.41022715
0.40843958 0.38040686 -0.39233303 0.38784054 0.38956958 0.39605156 0.3887209 -0.39211562
-0.37203065 0.37048185 0.42802513 -0.37328 0.37420568 0.38342097 0.37925288 -0.38660654
-0.38029084 -0.38249367 0.41468215 0.37450734 -0.40929323 0.37737694 0.39254767 0.3766082
0.38468388 0.3756762 0.39204317 0.38437322 -0.38840473 -0.3746448 0.40144065 0.373496
-0.4054778 0.39447495 -0.39024848 -0.37705657 -0.39934048 -0.38799953 -0.42592645 0.4265847
0.38454902 -0.40517724 0.39717528 0.41491607 -0.38024247 0.39972267 0.3949192 -0.38941616
-0.37801075 -0.4130965 -0.38446814 -0.39355543 -0.37850353 0.37531203 0.37781358 -0.4106956
-0.37562966 0.39307943 0.38705432 0.37784404 -0.39523453 0.3811908 0.38253275 0.39823344
0.38460484 -0.37808377 0.37986612 0.41221017 0.37891567 -0.38325286 -0.3899069 -0.38541088
-0.3774104 0.4037462 0.37870944 0.4211765 -0.4287098 0.42980343 -0.36948687 0.38048753
0.39147586 0.3932872 -0.39480367 -0.37905318

running_mean f4 [100]
00000000: 3f4a a83d 5062 983d 151f df3c 0e3b 933d
00000010: ae81 d33d a280 193e 19ea ef3d ed27 d03d
00000020: bb1e 3b3d 5bf3 8f3d a3f2 ce3d 0ebe b83d
00000030: 8c7b 913d b7f7 703d 55f8 483e 2e28 0d3e
00000040: f9c7 813d a7db 193e 60ac aabb 1416 6b3d
00000050: bc01 833d 3589 da3d b079 063e 8429 ed3c
00000060: 9955 d73d 29cf ed3d 6705 6c3d 5597 873e
00000070: 8f54 b03d 2bc5 f03d 4a52 343e 8ff3 c3bb
00000080: bd2a 773d d610 cd3d 7d5d 4c3e 5fb1 883b
00000090: 127b ff3d 6417 a73d 367c 463e e168 323e
000000a0: 63a3 043e c203 1f3d c9f1 793d c65c ea3d
000000b0: 9f33 c03d a5d9 153e ac47 c83d add4 a53d
000000c0: 12a2 3a3e aa30 e93d 69b1 3b3e c139 d83d
000000d0: 86ed ee3d 8c66 2fbc 7339 533d 4961 4e3e
000000e0: c285 9f3d 5c6f c53d 91cf 893d 91a5 493e
000000f0: 23c0 b93d bc14 ff3d e9d2 5b3d f60f 3b3e
00000100: 0432 5e3e 8942 343e 1df4 803d 265e c83d
00000110: 0ab2 113e 2237 4e3e 6559 033c 2a5d 943d
00000120: ce22 213e 530a dd3d c48c b63d 9cb1 b33d
00000130: bc8f 053e 2065 043e fcf6 2a3d c000 093d
00000140: bda7 fc3d c691 483d 955c dc3d d4e5 103e
00000150: 87e6 dd3d 950c 9e3d 39b9 0e3d 77d3 fa3d
00000160: 9fe8 c23d cc71 713e 6927 8b3c e06e 013e
00000170: a39e 153e dece cc3c 8ebc 013e 42ec f23d
00000180: b9d4 7b3e 2035 dc3d 4d4c 4abc a861 0e3e
0.08217286 0.074406266 0.0272365 0.07188998 0.10327469 0.14990476 0.117145725 0.10163865
0.045683604 0.07028838 0.10104873 0.09020625 0.07103643 0.05882999 0.19625981 0.13784859
0.0633697 0.15025197 -0.005208537 0.057394102 0.06396815 0.106707014 0.13132358 0.02895046
0.10514373 0.11611778 0.05762234 0.26482645 0.08609878 0.11756357 0.17609516 -0.005979962
0.060343493 0.10012977 0.19957538 0.004171535 0.12474646 0.08158758 0.1938332 0.1742282
0.12952952 0.038821943 0.0610216 0.114434764 0.09384846 0.14633806 0.09779295 0.08097205
0.18225887 0.11386235 0.18329395 0.10557891 0.11666398 -0.010705601 0.05156846 0.20154299
0.07789184 0.09640381 0.06729043 0.19692065 0.0906985 0.12455127 0.053667936 0.18267807
0.21698767 0.17603506 0.06296561 0.097835824 0.14228073 0.20138219 0.008016919 0.07244332
0.15735933 0.10792985 0.08913568 0.08774111 0.13043112 0.12929201 0.04173945 0.03344798
0.12336681 0.048967145 0.10759846 0.14150172 0.10834985 0.077172436 0.03484461 0.12247365
0.09517025 0.23578566 0.016986566 0.12639952 0.14611296 0.025000986 0.12669584 0.11861469
0.24592866 0.1075232 -0.012347293 0.1390444

running_var f4 [100]
00000000: bed7 2a3e b3b2 703e 8121 a43d c88b 393e
00000010: ab28 3e3e c490 223e 88d6 f53d 38c4 823e
00000020: 63aa 5f3e 2d1c 163e 6766 213e 015b d83d
00000030: eb24 0b3e 0388 f73d 0fef ad3e 87f3 543e
00000040: 6908 fc3d da43 b03e a220 f63d 63f4 2b3e
00000050: dfa6 ae3d 940a 0f3e 4607 6f3e 0e0a 753e
00000060: baad 8b3e de6d 8a3e 73c1 943d ffd5 c83e
00000070: 999b 073e e4d8 e53d 51ba 883e b0bf eb3d
00000080: 5411 7e3e 15ba 833e 331e be3e 4561 cc3d
00000090: 1825 bc3d cb21 113e aa72 ab3e 6fbb 523e
000000a0: aa82 ab3e b6f1 4e3e 8f5a df3d 5317 703e
000000b0: 9ed3 9c3e e00e a93e 1389 703e bf2f 053e
000000c0: b75c 8b3e b7c8 253e 8078 a43e db3c af3e
000000d0: fc3a df3d 8d9a 373e 7e37 4e3e 6ab4 143f
000000e0: 14bb 903e 62d1 9f3e f79d 153e 96eb e53e
000000f0: 7d98 853e 5a35 fe3d 6606 343e 8f0e 833e
00000100: 255c 703e d26b 8b3e c101 083e bb0c bc3e
00000110: fe01 9b3e 4958 d03e 003b 803d a27e e13d
00000120: 8243 163e ac73 953e 1813 fd3d 7948 af3e
00000130: 5951 3c3e 9d2b 873e 340c f63d 014d 653e
00000140: f396 b63e 43fe 383e a5d0 a73e 2645 943e
00000150: 0ea9 253e f6dc ac3d 9c56 c83d a5fc 1f3e
00000160: af5c cf3d 4953 b83e 707c cf3d 438f 7e3e
00000170: f756 3e3e 10dc 423e d23f 843e 261d 223e
00000180: 72b2 bc3e 7689 3f3e 95fe e83d c323 1d3e
0.16683862 0.23505668 0.08014203 0.18119729 0.18570201 0.15875536 0.12003809 0.25540328
0.21842341 0.14659186 0.1576172 0.105642326 0.13588302 0.12086489 0.3397145 0.20796023
0.123062916 0.34426767 0.12017943 0.16792445 0.08527922 0.13968879 0.23342618 0.23929617
0.2728098 0.27036947 0.0726346 0.39225766 0.1324295 0.11223009 0.26704648 0.11511171
0.24811298 0.25727907 0.37132415 0.0997949 0.091867626 0.14173047 0.3348592 0.20579313
0.33498126 0.20209393 0.109059446 0.23446397 0.306302 0.3301916 0.2348979 0.13006495
0.27219173 0.16189848 0.32123184 0.34226117 0.10899922 0.1793005 0.20138356 0.5808779
0.2826773 0.31214434 0.1461104 0.449063 0.26092902 0.1241252 0.17580566 0.25597045
0.2347265 0.27230698 0.13281919 0.36728463 0.30274957 0.40692356 0.06261253 0.110104814
0.1467419 0.29189813 0.123571575 0.3423498 0.18390407 0.26400462 0.12014046 0.22392656
0.3566204 0.18065743 0.3277637 0.28959006 0.1617777 0.084405825 0.097821444 0.1562372
0.101251 0.36001042 0.101311564 0.24859338 0.18587862 0.1902926 0.2582994 0.15831432
0.36854893 0.18704781 0.11376683 0.15345673

weight f4 [1, 100]
00000000: 4a7c 66be 17e0 87be 8bf4 76be 2a11 a03e
00000010: cb53 953e 3e77 93be 5f5f 9ebe 28f3 65be
00000020: d749 8cbe 0bb3 803e 2baf 93be e9a1 7bbe
00000030: dd25 8e3e 371c a0be f83c 83be 969a 87be
00000040: 39ba 913e ca66 8c3e 73e3 77be 3145 9f3e
00000050: 1289 983e 2f95 8d3e 75c9 983e c522 6fbe
00000060: 21e9 8ebe 8649 8d3e c3fb 8d3e bcc9 7fbe
00000070: 7ae3 843e 7174 853e 24c3 a03e 3884 74be
00000080: f244 84be a43c 94be 1b00 943e 6aef 943e
00000090: 94a1 92be 61a5 8b3e d35e 9e3e 677a 963e
000000a0: 9f27 963e a0a1 8a3e 9d27 a33e 9cc5 843e
000000b0: 9555 93be 0039 8fbe 4892 7c3e 209d 8b3e
000000c0: 71ba 81be 7753 ac3e 3879 98be 4d3c 92be
000000d0: ef04 95be 7cdc 5bbe c29b 79be fc0d 7c3e
000000e0: 9f0d 7a3e 1fdb 6ebe fe1b 833e 3477 883e
000000f0: 583b 63be 4c39 8d3e cc09 753e a58d 91be
00000100: 17d5 90be 753d 58be 5191 99be 72cf 80be
00000110: 5545 8dbe 713a 8b3e 3774 9a3e 4101 93be
00000120: 579a 94be 4545 943e 34ca a23e 331a 773e
00000130: 5328 80be 4efd 953e 64e8 8b3e b52a 903e
00000140: b68d 953e d1cb 7cbe 670e 933e 867b 893e
00000150: 98a5 963e 5b8a 93be ffd4 4ebe 4caf 93be
00000160: b777 9bbe 1424 893e 582c 8f3e b043 653e
00000170: 32bf 95be 7db3 883e cd3b 8bbe 8f4f 943e
00000180: 4ad1 a03e 41d8 913e 1c20 6dbe 645d 9ebe
-0.2250835 -0.26538154 -0.24116723 0.31263095 0.2916549 -0.28801912 -0.30932137 -0.22456038
-0.27400085 0.251366 -0.2884458 -0.24573483 0.27763262 -0.31271526 -0.25632453 -0.26485127
0.2846239 0.27422172 -0.24207859 0.31107476 0.29792076 0.2765288 0.298412 -0.23353107
-0.27912238 0.27595156 0.2773114 -0.249793 0.259548 0.260654 0.3139888 -0.23878562
-0.2583385 -0.28952515 0.2890633 0.29088908 -0.286389 0.27274612 0.3093172 0.2939026
0.29327103 0.27076435 0.3186616 0.25932014 -0.2877623 -0.27973175 0.24665177 0.27268314
-0.25337556 0.3365743 -0.29779983 -0.2856163 -0.29105327 -0.21470827 -0.24375823 0.2461471
0.24419259 -0.23325776 0.25607294 0.26653445 -0.22190607 0.27582777 0.23929518 -0.2842838
-0.28287575 -0.21117194 -0.2999368 -0.25158268 -0.2759196 0.27193025 0.3016679 -0.28711894
-0.29024002 0.28959098 0.31794894 0.24131088 -0.25030765 0.2929482 0.27325737 0.28157583
0.2920968 -0.24687125 0.28721926 0.26852053 0.29423213 -0.28816494 -0.20198439 -0.28844678
-0.30364773 0.26785338 0.2796352 0.22389102 -0.29247433 0.2669944 -0.27194062 0.28966948
0.31409675 0.284853 -0.2315678 -0.30930626
