mlruns/528961946943719398/models/m-747b1d9d5d304d4f8d60dc74fcf25c62/artifacts/data/model.pth (torch, 89518 bytes, 17 tensors)

weight f4 [124]
0.7114984 0.79140496 0.841406 0.7734648 0.6285201 0.68494356 0.77194995 0.7234225
0.74809384 0.741674 0.77982527 0.66304266 0.6603732 0.74504507 0.7730176 0.72253054
0.68118346 0.7697772 0.78304553 0.7121399 0.6352536 0.64998555 0.6462339 0.726965
0.7523427 0.7634256 0.7567698 0.7933902 0.7020326 0.7018048 0.6949473 0.83650506
0.87607056 0.9171226 0.9141963 0.8233175 0.63872916 0.8318012 0.7000907 0.6465358
0.66088694 0.77011615 0.76240206 0.7641352 0.7638439 0.74554366 0.7263997 0.7224833
0.7150912 0.6627579 0.82079816 0.71912634 0.75990814 0.6555629 0.6419115 0.66017187
0.65497416 0.8159897 0.61694825 0.67606 0.75516176 0.8108378 0.6301443 0.9015924
0.7016151 0.7250981 0.6002404 0.6838532 0.659519 0.66363263 0.5883636 0.7550352
0.70872676 0.67377317 0.6612332 0.69603425 0.8365202 0.73905075 0.79045206 0.81187075
0.7228501 0.7580834 0.7576313 0.73328114 0.5958933 0.6118275 0.6652565 0.6800827
0.8619491 0.6696232 0.63429374 0.596197 0.57431614 0.60090727 0.6560699 0.8174744
0.7263144 0.75129545 0.58236015 0.57244927 0.5949206 0.57208437 0.66272765 0.8235018
0.6185965 0.6592331 0.65686625 0.7949857 0.6338176 0.7339516 0.8170356 0.8567387
0.6448945 0.72300035 0.9293147 0.7140802 0.700035 0.7525909 0.7625688 0.7091088
0.6889125 0.6574512 0.7564909 0.75191784
00000000: c224 363f 8499 4a3f 6266 573f ca01 463f
00000010: b1e6 203f 7658 2f3f 839e 453f 3832 393f
00000020: 1483 3f3f 59de 3d3f a1a2 473f 2abd 293f
00000030: 380e 293f 46bb 3e3f 7be4 453f c3f7 383f
00000040: 0a62 2e3f 1e10 453f ac75 483f cd4e 363f
00000050: fb9f 223f 7465 263f 966f 253f 611a 3a3f
00000060: 8899 403f dc6f 433f aabb 413f 9f1b 4b3f
00000070: 69b8 333f 7ba9 333f 11e8 313f 3225 563f
00000080: 2946 603f 8cc8 6a3f c508 6a3f f0c4 523f
00000090: c183 233f ecf0 543f 2539 333f 5f83 253f
000000a0: e32f 293f 5526 453f c82c 433f 5d9e 433f
000000b0: 468b 433f f3db 3e3f 55f5 393f aaf4 383f
000000c0: 3810 373f 80aa 293f d41f 523f aa18 383f
000000d0: 5789 423f f8d2 273f 5054 243f 0601 293f
000000e0: 63ac 273f b3e4 503f 52f0 1d3f 4512 2d3f
000000f0: 4852 413f 1193 4f3f 2351 213f c2ce 663f
00000100: 0c9d 333f 07a0 393f 5ba9 193f 0111 2f3f
00000110: 3dd6 283f d4e3 293f ff9e 163f fd49 413f
00000120: 1e6f 353f 667c 2c3f 9446 293f 4d2f 323f
00000130: 3026 563f 6e32 3d3f 115b 4a3f c3d6 4f3f
00000140: b40c 393f c111 423f 20f4 413f 50b8 3b3f
00000150: 778c 183f baa0 1c3f 404e 2a3f e619 2e3f
00000160: b2a8 5c3f 6d6c 2b3f 1361 223f 5ea0 183f
00000170: 6206 133f 0fd5 193f 32f4 273f 0146 513f
00000180: beef 393f e654 403f 8e15 153f 098c 123f
00000190: b74c 183f 1f74 123f 85a8 293f 04d1 523f
000001a0: 575c 1e3f 80c3 283f 6328 283f 2f84 4b3f
000001b0: df41 223f 41e4 3b3f 3f29 513f 3a53 5b3f
000001c0: ce17 253f 8d16 393f 91e7 6d3f f6cd 363f
000001d0: 7e35 333f cca9 403f b537 433f 2888 353f
000001e0: 925c 303f b94e 283f 63a9 413f b07d 403f

bias f4 [124]
0.0055449908 -0.01338176 0.015308231 -0.028951358 -0.00242049 0.021942427 0.007524135 0.02643158
0.043212414 -0.04013864 0.028114436 -0.009074318 -0.015208047 0.012974083 -0.02536369 0.026041647
0.029858949 0.025581433 -0.015463952 0.0030726306 0.0050487216 0.02575304 0.028915936 0.027517898
-0.0118739465 0.011398191 -0.01240984 -0.05734775 0.031581808 0.021045279 0.01759356 0.048749935
0.051922224 0.053989403 0.10515177 -0.033617806 -0.019017752 -0.05636362 -0.008233663 0.0039944327
0.01056197 -0.037679918 0.03719108 -0.015990287 -0.07191406 -0.026658181 0.018170672 0.022754807
0.033294685 -0.001352236 -0.007195063 -0.01773086 -0.027550304 -0.01086646 -0.026931986 -0.0058334377
0.02695461 0.023461483 -0.007718407 -0.00860991 -0.06850651 -0.014424913 0.03346016 0.08383212
-0.030997025 -0.027741123 -0.030830728 -0.032154292 0.013440593 0.013750689 0.056044668 -0.024337746
0.036342025 -0.018540695 0.0050990772 0.0072540073 -0.06167654 0.006763589 -0.022546962 -0.011073631
0.004330719 -0.028105302 -0.023906825 -0.0063907737 0.034613006 -0.009475325 -0.012515626 0.026143104
-0.046700165 0.0010561479 0.02780767 0.019117014 -0.0017507256 0.02286059 -0.016288973 -0.004627784
-0.025610838 0.011175964 0.036270667 -0.003152242 -0.005769347 0.03653316 0.014633115 -0.014826664
0.014825123 -0.0038119718 0.0044152928 0.0029864449 0.017535033 -0.025756802 -0.023336673 0.007397433
0.021764403 -0.005928027 -0.058894288 -0.021631664 -0.039227422 -0.054599952 0.02399696 0.03644011
-0.02748284 0.002709798 -0.015993813 -0.014618567
00000000: c1b2 b53b 2b3f 5bbc 60cf 7a3c 662b edbc
00000010: 15a1 1ebb 9bc0 b33c 058d f63b 0a87 d83c
00000020: 80ff 303d 6a68 24bd 3f50 e63c 73ac 14bc
00000030: 2c2b 79bc 4091 543c 83c7 cfbc 4b55 d53c
00000040: c19a f43c 2790 d13c 845c 7dbc 305e 493b
00000050: bf6f a53b 0af8 d23c 1de1 ec3c 376d e13c
00000060: f18a 42bc 7abf 3a3c a452 4bbc 79e5 6abd
00000070: ed5b 013d 2667 ac3c 5f20 903c 03ae 473d
00000080: 66ac 543d fe23 5d3d d059 d73d d3b2 09bd
00000090: 1ecb 9bbc 8add 66bd 7ce6 06bc bbe3 823b
000000a0: 1d0c 2d3c 4256 1abd ad55 183d 10fe 82bc
000000b0: ae47 93bd 4262 dabc a9da 943c 4a68 ba3c
000000c0: 0260 083d 833d b1ba 90c4 ebbb 4f40 91bc
000000d0: 2db1 e1bc 3d09 32bc 78a0 dcbc 6c26 bfbb
000000e0: eacf dc3c 4c32 c03c b1ea fcbb 9410 0dbc
000000f0: 244d 8cbd 7856 6cbc 850d 093d 2db0 ab3d
00000100: 79ed fdbc 5a41 e3bc b990 fcbc 38b4 03bd
00000110: ef35 5c3c 924a 613c 188f 653d f45f c7bc
00000120: 60db 143d a8e2 97bc 2916 a73b 06b3 ed3b
00000130: 8aa0 7cbd 19a1 dd3b 68b4 b8bc 2d6e 35bc
00000140: b4e8 8d3b 173d e6bc 3fd8 c3bc b269 d1bb
00000150: 5ec6 0d3d 653e 1bbc 570e 4dbc 102a d63c
00000160: ac48 3fbd 716e 8a3a e9cc e33c 499b 9c3c
00000170: 9a78 e5ba 2246 bb3c 7470 85bc aaa4 97bb
00000180: d2cd d1bc 641b 373c 8d90 143d d895 4ebb
00000190: ca0c bdbb cba3 153d bcbf 6f3c 89eb 72bc
000001a0: 13e5 723c 46d2 79bb 29ae 903b 3bb8 433b
000001b0: a1a5 8f3c eeff d2bc 8d2c bfbc 2a66 f23b
000001c0: 434b b23c e53f c2bb 233b 71bd e334 b1bc
000001d0: efac 20bd 33a4 5fbd 4695 c43c 3a42 153d
000001e0: b123 e1bc de96 313b 7505 83bc b782 6fbc

running_mean f4 [124]
69.89496 10664.299 6.1140237 5.5833244 102.9031 3.3906634 3.0874686 3.48895
2.942741 1.6075968 446.06766 45.035633 569.8439 4.1191697 0.11321029 1166.2451
356.52103 5.652457 1528.4187 0.4237277 0.06039109 1.5762781 0.37922382 2.8981829
1.0479062 3.5021214 6.5718927 0.1567427 0.61651146 1.8390286 1.7142881 1.777024
475.43118 2.8148825 2.8109033 0.14787564 95.79554 49.143143 22.820509 3.790039
15.655602 3.1477349 0.019549292 48.646713 39.40443 25.294601 31.470884 31.827429
3.0396225 1.2234702 0.08890626 0.41534072 0.15785576 0.6992558 0.19195145 0.074168995
0.037480395 0.057820503 0.033453736 0.019625364 0.09108424 0.021481875 0.11356476 0.9516763
0.2339866 0.0901558 0.09051875 0.03746293 0.36087638 0.14581242 0.15967517 0.16442794
0.10461309 0.038111556 0.032341458 0.034543972 0.017294912 0.025112955 0.017475603 0.017500507
0.78918827 0.14864977 0.037531435 0.01679276 0.10005772 0.03777656 0.0754612 0.05390855
0.023645097 0.00797719 0.033670034 0.15506 0.055796098 0.027921325 0.052019335 0.08086721
0.025757633 0.017653145 0.048750658 0.038723983 0.058617607 0.016979763 0.02400217 0.016245352
0.59706664 0.09049387 0.43280753 0.006814636 0.44171384 0.015829002 0.026234541 0.9256261
0.06298247 0.26629415 0.055181228 0.024021085 0.03845016 0.07980638 0.018857535 0.87086457
0.015176106 0.82865727 0.010596391 0.08056532
00000000: 38ca 8b42 32a1 2646 15a6 c340 98aa b240
00000010: 63ce cd42 a100 5940 1699 4540 f54a 5f40
00000020: de55 3c40 bbc5 cd3f a908 df43 7d24 3442
00000030: 0276 0e44 3dd0 8340 ccda e73d d8c7 9144
00000040: b142 b243 eee0 b440 660d bf44 d6f2 d83e
00000050: a65c 773d 7bc3 c93f a029 c23e d47b 3940
00000060: ca21 863f c222 6040 f24c d240 2981 203e
00000070: b2d3 1d3f 4a65 eb3f cb6d db3f 8675 e33f
00000080: 31b7 ed43 0927 3440 d7e5 3340 b66c 173e
00000090: 5197 bf42 9492 4442 6790 b641 0090 7240
000000a0: 597d 7a41 7d74 4940 d625 a03c 3c96 4242
000000b0: 239e 1d42 585b ca41 5fc4 fb41 939e fe41
000000c0: 2d89 4240 ac9a 9c3f 7c14 b63d 8aa7 d43e
000000d0: f1a4 213e 6e02 333f ec8e 443e eae5 973d
000000e0: 0b85 193d 31d5 6c3d c906 093d 5fc5 a03c
000000f0: 608a ba3d c2fa af3c a494 e83d 0fa1 733f
00000100: 2f9a 6f3e 9ba3 b83d e561 b93d bb72 193d
00000110: cac4 b83e da4f 153e e381 233e cc5f 283e
00000120: 633f d63d dd1a 1c3d 7a78 043d fb7d 0d3d
00000130: 0fae 8d3c afb9 cd3c ff28 8f3c 395d 8f3c
00000140: 3e08 4a3f a537 183e 90ba 193d f890 893c
00000150: 10eb cc3d 98bb 1a3d 678b 9a3d 36cf 5c3d
00000160: 5db3 c13c c3b2 023c 97e9 093d 0cc8 1e3e
00000170: 738a 643d 43bb e43c 3a12 553d b59d a53d
00000180: ac01 d33c 549d 903c c5ae 473d 0a9d 1e3d
00000190: 0419 703d 2519 8b3c 33a0 c43c f914 853c
000001a0: 5cd9 183f da54 b93d f398 dd3e 4f4d df3b
000001b0: 5128 e23e d3ab 813c d2e9 d63c d5f5 6c3f
000001c0: f4fc 803d b557 883e b605 623d dec7 c43c
000001d0: ea7d 1d3d 8771 a33d 1e7b 9a3c fbf0 5e3f
000001e0: 34a5 783c e222 543f 7c9c 2d3c 6eff a43d

running_var f4 [124]
492.43164 1.1027116e+08 1.857014 1.2254748 30481.17 0.327458 0.13024923 0.74469733
0.2848092 1.0853418 207840.3 24578.2 197708.36 0.9386582 0.16011626 145283.7
195099.66 2286.962 277520.88 0.26996958 0.059041455 0.30259827 0.24942474 0.64761597
0.05180142 0.4325899 2.616627 0.42514774 0.41508284 3.288656 0.7965871 0.5541752
44925.46 0.52236736 0.5180288 0.25220904 16702.23 4794.8647 4070.2844 1033.8346
3216.587 1832.3699 0.078181 279877.28 948.4412 431.5678 579.6439 248.38817
2.727436 0.5971391 0.1320011 0.34298164 0.26949674 0.21042328 0.1552353 0.06869038
0.041888926 0.07133881 0.032406375 0.019202584 0.08296415 0.020912133 0.19185211 0.059590504
0.26457226 0.16376035 0.08245559 0.036061402 0.23100965 0.12468944 0.1346019 0.13776748
0.09378333 0.0366823 0.031263284 0.033417307 0.017012091 0.024483543 0.01723073 0.017200435
0.16567512 0.12610343 0.036143664 0.016560664 0.09032649 0.036434 0.069849096 0.05092011
0.02312291 0.007927408 0.032587048 0.1312374 0.052708197 0.02718286 0.049387038 0.07393065
0.025120106 0.017357659 0.046426274 0.03718917 0.055268873 0.016716704 0.023437161 0.016015679
0.24021663 0.082366794 0.24606048 0.006779741 0.2469673 0.015583989 0.02550232 0.06869038
0.059084687 0.19539392 0.052016743 0.023482606 0.037022684 0.07329799 0.018514777 0.11228585
0.014965499 0.14196388 0.010480934 0.07394121
00000000: 4037 f643 5753 d24c a2b2 ed3f 5cdc 9c3f
00000010: 5722 ee46 93a8 a73e 0e60 053e 7ca4 3e3f
00000020: 83d2 913e 7bec 8a3f 13f8 4a48 6604 c046
00000030: 1713 4148 e74b 703f 84f5 233e ede0 0d48
00000040: ea86 3e48 64ef 0e45 1c82 8748 7439 8a3e
00000050: 74d5 713d 29ee 9a3e 3369 7f3e 29ca 253f
00000060: ba2d 543d 6c7c dd3e d176 2740 f7ac d93e
00000070: bd85 d43e 5779 5240 22ed 4b3f 6dde 0d3f
00000080: 767d 2f47 deb9 053f 899d 043f 8b21 813e
00000090: 767c 8246 ebd6 9545 8d64 7e45 b53a 8144
000000a0: 6409 4945 d60b e544 5c1d a03d a9a8 8848
000000b0: 3d1c 6d44 aec8 d743 36e9 1044 5f63 7843
000000c0: 508e 2e40 1cde 183f 4c2b 073e 4a9b af3e
000000d0: 7afb 893e 3379 573e 01f6 1e3e 8bad 8c3d
000000e0: b993 2b3d 151a 923d 8cbc 043d bd4e 9d3c
000000f0: 1ce9 a93d ec4f ab3c e174 443e 2c15 743d
00000100: 0476 873e cbb0 273e 7ade a83d 1fb5 133d
00000110: cb8d 6c3e 2d5d ff3d 15d5 093e eb12 0d3e
00000120: 7911 c03d 2e40 163d ee0d 003d 96e0 083d
00000130: f15c 8b3c b691 c83c 7627 8d3c ede7 8c3c
00000140: bda6 293e 4221 013e 610b 143d 3baa 873c
00000150: 18fd b83d d13b 153d 0b0d 8f3d 9b91 503d
00000160: 426c bd3c f6e1 013c ff79 053d 1963 063e
00000170: 8de4 573d 97ae de3c 104a 4a3d f468 973d
00000180: aec8 cd3c a631 8e3c 7a29 3e3d ac53 183d
00000190: 9d61 623d 78f1 883c 4aff bf3c 5033 833c
000001a0: 59fb 753e ecaf a83d 47f7 7b3e 9728 de3b
000001b0: ffe4 7c3e fd53 7f3c 3eea d03c 8bad 8c3d
000001c0: c902 723d 5815 483e 820f 553d 985e c03c
000001d0: 19a5 173d 421d 963d 4dac 973c 20f6 e53d
000001e0: da31 753c fb5e 113e 39b8 2b3c 7d6e 973d

weight f4 [108, 124]
0.035421945 -0.02693203 -0.06625617 -0.054776907 0.01940855 -0.05096441 0.024944155 -0.009718799
0.026612263 -0.0038269453 -0.05634317 0.008254265 0.010004287 0.07012816 -0.01861441 -0.05038272
-0.045600936 -0.015971107 0.011950076 0.009431155 0.044144843 0.027396755 0.024079682 0.01498155
-0.013969515 0.006808948 -0.09635583 -0.040570952 -0.031782553 -0.044062637 0.05393109 0.010620353
0.0036058163 0.0078230025 0.07342556 0.055950165 -0.013479217 0.032395005 0.002044332 -0.006059473
-0.014534302 -0.023635868 -0.042774443 -0.016893623 -0.06340088 0.038135376 -0.074493535 -0.045903627
0.026475428 -0.060107842 0.061660286 -0.036232453 -0.022014538 0.03374106 -0.034212645 0.015129132
-0.05014592 -0.04597808 0.01091344 -0.04887084 -0.0014377751 -0.030022629 -0.0038931482 -0.0351877
-0.052664474 0.033834968 0.07769766 -0.054293536 0.04476565 0.060578704 -0.016879283 -0.07256854
-0.039099008 -0.092028774 0.024776619 -0.011582727 -0.07535718 0.0945783 0.025128486 0.01051989
0.025553035 -0.022818295 0.057644956 -0.039817102 0.056707527 0.008596603 -0.029930463 0.0031324246
-0.025435964 -0.0027597009 -0.007140609 0.03288866 0.06826278 -0.011597993 0.008310496 -0.057174616
0.030877454 0.055257928 0.023089318 -0.016499642 0.0681844 -0.034001652 -0.01838682 -0.009602773
0.056239292 -0.013249013 -0.07428951 0.0019382677 -0.04036551 -0.06891212 -0.021962784 -0.02178004
-0.046760645 -0.014852842 -0.08064096 -0.08612466 0.077088274 -0.015453486 -0.03834913 0.090848565
0.037782088 0.069942206 -0.057480175 -0.034358807 0.011991836 0.057861682 -0.027973646 0.035781465
-0.029310646 0.008658655 -0.04179698 -0.036050465 -0.010263789 -0.056438446 -0.014043378 -0.0060662776
0.011708231 0.0077044703 -0.058664415 -0.052638147 -0.04588628 0.027293302 -0.02369095 -0.05788949
-0.04755626 -0.017104736 -0.069342986 -0.007549809 -0.054302294 -0.051425647 0.013874196 0.03384879
-0.053227074 -0.07332584 -0.020719692 0.028174369 -0.04408382 -0.050063767 0.020776527 0.07145704
-0.010764892 -0.022117382 0.053572036 -0.055848077 0.025108458 -0.02046467 -0.019351173 -0.0451619
0.06992076 -0.03657588 0.016643252 0.055242844 0.00082401495 -0.056049433 0.097355686 0.0077598193
0.018858843 -0.036548235 -0.0124236075 -0.015677992 -0.012077178 0.05553207 -0.009312787 -0.010864172
0.0156812 0.009990325 -0.0727449 0.03958942 0.067562744 0.06887479 -0.048093524 -0.04749532
0.04117255 -0.02828949 -0.044240333 0.06468051 -0.06900734 -0.0068664737 0.004661143 -0.0729377
0.070609026 -0.072378695 -0.02475208 -0.05634899 -0.12134078 0.10122924 -0.040063582 -0.021007309
-0.030221628 -0.06857531 0.04469259 0.0007114695 0.10177269 -0.021306917 0.031124637 -0.06774339
-0.034687433 0.0033860698 0.0051093297 0.112586305 0.018328113 0.056911103 -0.02849048 0.0025947674
0.00746854 -0.0036685118 0.068648964 0.02351503 0.068028085 -0.030861288 0.015196232 0.05869776
0.016245734 0.04177204 -0.0055539585 -0.03716576 -0.023153817 0.018202739 0.07842303 -0.024625804
0.018952632 0.022397976 0.046603743 0.04371222 0.089291856 -0.02188352 0.034778334 -0.047299866
0.020179776 0.057024788 -0.068440475 0.010925672 -0.049030617 0.038406964 -0.042331014 0.019152805
00000000: 9a16 113d 90a0 dcbc 51b1 87bd c05d 60bd
00000010: aefe 9e3c 0fc0 50bd af57 cc3c 993b 1fbc
00000020: f601 da3c 7dcd 7abb 19c8 66bd e63c 073c
00000030: 05e9 233c 5a9f 8f3d 3f7d 98bc 1c5e 4ebd
00000040: 0cc8 3abd d7d5 82bc 40ca 433c 2285 1a3c
00000050: 39d1 343d 296f e03c c142 c53c 2d75 753c
00000060: 65e0 64bc 981d df3b 3556 c5bd ba2d 26bd
00000070: 6c2e 02bd 067b 34bd d9e6 5c3d fd00 2e3c
00000080: 8f4f 6c3b 0d2c 003c 2460 963d 002c 653d
00000090: efd7 5cbc a0b0 043d 33fa 053b 8b8e c6bb
000000a0: 4821 6ebc 02a0 c1bc 4134 2fbd 7f64 8abc
000000b0: 52d8 81bd d733 1c3d 1190 98bd 7105 3cbd
000000c0: ffe2 d83c a433 76bd 7f8f 7c3d 7b68 14bd
000000d0: d557 b4bc 1134 0a3d 8f22 0cbd 2ee0 773c
000000e0: cf65 4dbd 8353 3cbd 49ce 323c ca2c 48bd
000000f0: ba73 bcba 04f2 f5bc 3024 7fbb fa20 10bd
00000100: b4b6 57bd 8996 0a3d f31f 9f3d e662 5ebd
00000110: 305c 373d 6021 783d 6c46 8abc d19e 94bd
00000120: 4826 20bd 9579 bcbd 56f8 ca3c 7ac5 3dbc
00000130: dd54 9abd 45b2 c13d 41da cd3c 9e5b 2c3c
00000140: 9954 d13c 6fed babc 1e1d 6c3d 4217 23bd
00000150: 2746 683d c4d8 0c3c bb30 f5bc 5d49 4d3b
00000160: 155f d0bc 19dc 34bb c5fb e9bb 42b6 063d
00000170: 5bcd 8b3d 8205 3ebc bf28 083c ee2f 6abd
00000180: b7f2 fc3c 2356 623d cf25 bd3c 422a 87bc
00000190: 43a4 8b3d 5145 0bbd f59f 96bc f354 1dbc
000001a0: 2c5b 663d 6312 59bc 1925 98bd 790d fe3a
000001b0: 4e56 25bd cc21 8dbd 4ceb b3bc 0e6c b2bc
000001c0: 1788 3fbd 5659 73bc 1627 a5bd 2062 b0bd
000001d0: 75e0 9d3d 9e30 7dbc fa13 1dbd d00e ba3d
000001e0: 64c1 1a3d dc3d 8f3d 5570 6bbd d2bb 0cbd
000001f0: 6879 443c 5f00 6d3d fd28 e5bc 968f 123d
00000200: e11c f0bc 08dd 0d3c 4f33 2bbd a7a9 13bd
00000210: 7429 28bc 002c 67bd 3216 66bc a0c7 c6bb
00000220: e1d3 3f3c c875 fc3b 194a 70bd 199b 57bd
00000230: 40f3 3bbd 3496 df3c 8613 c2bc 881d 6dbd
00000240: 5aca 42bd 3b1f 8cbc b203 8ebd 6364 f7bb
00000250: 156c 5ebd b3a3 52bd 9950 633c 07a5 0a3d
00000260: a204 5abd dc2b 96bd 58bc a9bc efcd e63c
00000270: 3c91 34bd aa0f 4dbd 8933 aa3c 1258 923d
00000280: 3b5f 30bc 832f b5bc 5a6e 5b3d f4c0 64bd
00000290: 41b0 cd3c 86a5 a7bc 5a86 9ebc affb 38bd
000002a0: 9e32 8f3d 97d0 15bd 6e57 883c 5246 623d
000002b0: b502 583a 1794 65bd 6b62 c73d 1546 fe3b
000002c0: dc7d 9a3c 9ab3 15bd 638c 4bbc 226f 80bc
000002d0: 5bdf 45bc 9975 633d a994 18bc a4ff 31bc
000002e0: dc75 803c 76ae 233c 47fb 94bd 8428 223d
000002f0: 565e 8a3d 3a0e 8d3d b7fd 44bd 748a 42bd
00000300: 8ca4 283d 5cbf e7bc 5a35 35bd 3777 843d
00000310: b853 8dbd 2800 e1bb 80bc 983b 5c60 95bd
00000320: 779b 903d 483b 94bd e0c4 cabc 33ce 66bd
00000330: 8481 f8bd 4751 cf3d b619 24bd 8517 acbc
00000340: 5993 f7bc 3671 8cbd 940f 373d e981 3a3a
00000350: 336e d03d d88b aebc 18f9 fe3c 0cbd 8abd
00000360: 6914 0ebd d3e8 5d3b 2a6c a73b a693 e63d
00000370: d724 963c 9e1b 693d de64 e9bc f90c 2a3b
00000380: a8ba f43b 6a6b 70bb d497 8c3d 98a2 c03c
00000390: 4f52 8b3d d0d0 fcbc 9ef9 783c 106d 703d
000003a0: c615 853c 2919 2b3d fbfd b5bb 203b 18bd
000003b0: 13ad bdbc e91d 953c 419c a03d 0ebc c9bc
000003c0: 8d42 9b3c f67b b73c 91e3 3e3d 960b 333d
000003d0: a6de b63d 1145 b3bc ba73 0e3d 81bd 41bd
000003e0: 0f50 a53c d392 693d 852a 8cbd 9701 333c
000003f0: 54d4 48bd 9f50 1d3d 4963 2dbd 58e6 9c3c

bias f4 [108]
-0.01572571 -0.013870338 -0.0031336048 -0.09721607 0.039029695 -0.07322438 -0.08440711 0.038408794
-0.009083117 -0.07539214 0.027634399 -0.026609669 -0.06936653 0.054171022 0.0064607305 -0.030175999
-0.053731564 0.038697276 0.0045018536 -0.018408548 -0.0033806348 -0.040438462 -0.008559341 0.026619771
0.020433687 0.024208937 -0.061082415 -0.011838894 -0.04703962 0.0073051597 -0.006690553 -0.05151503
-0.06633069 -0.03126863 0.02970046 -0.05546435 -0.036331233 -0.011645448 0.0545638 0.039476875
-0.03952015 0.03047329 -0.018864749 -0.048718743 0.040824573 -8.732517e-05 -0.044336684 0.017776033
-0.039165992 -0.07409516 0.0021688766 -0.03330185 0.020110745 0.054470595 0.023519322 0.0058945213
-0.069526784 -0.017504595 -0.0015732477 0.033810973 -0.060380507 0.055905286 -0.013034354 0.023359215
0.074928 -0.035001572 -0.0907098 -0.038813483 0.031612385 -0.017783578 0.060310956 -0.04672539
-0.032914426 0.02614684 0.018384691 -0.06541439 -0.057578843 -0.0525847 -0.0047610085 -0.045639478
0.044669736 -0.03048951 0.026153231 0.02053746 -0.04546654 -0.041384537 0.049740087 -0.014611393
0.02309458 -0.053433932 -0.026886614 -0.0400685 -0.07182817 -0.0326124 -0.0419669 0.03356603
-0.050955012 -0.01148073 -0.0025534465 -0.0050421497 0.0135787595 -0.0606269 -0.040479917 -0.016260345
-0.024823468 -0.0015300931 0.06496667 0.037104346
00000000: 34d3 80bc 6a40 63bc 2a5d 4dbb 3819 c7bd
00000010: 9add 1f3d aaf6 95bd a3dd acbd 8a52 1d3d
00000020: 5bd1 14bc 3267 9abd 8961 e23c 85fc d9bc
00000030: 0a10 8ebd 6fe2 5d3d 89b4 d33b a833 f7bc
00000040: a115 5cbd 0981 1e3d 4984 933b 86cd 96bc
00000050: a48d 5dbb cda2 25bd 7a3c 0cbc b511 da3c
00000060: 8c64 a73c d251 c63c 8e31 7abd ecf7 41bc
00000070: 9eac 40bd 1f60 ef3b 6d3c dbbb 6d01 53bd
00000080: 63d8 87bd 8913 00bd 614e f33c 962e 63bd
00000090: 0fd0 14bd 8dcc 3ebc 4b7e 5f3d 81b2 213d
000000a0: e1df 21bd 1fa3 f93c 3f8a 9abc 4e8d 47bd
000000b0: ab37 273d 5822 b7b8 629a 35bd 0b9f 913c
000000c0: 856c 20bd 34bf 97bd b623 0e3b 8567 08bd
000000d0: 4abf a43c 8f1c 5f3d 98ab c03c d426 c13b
000000e0: 0f64 8ebd cc65 8fbc 6f35 ceba 607d 0a3d
000000f0: 8d51 77bd f1fc 643d 0b8e 55bc d35b bf3c
00000100: da73 993d cf5d 0fbd 0fc6 b9bd e3fa 1ebd
00000110: fd7b 013d deae 91bc 9f08 773d 1f63 3fbd
00000120: 47d1 06bd e631 d63c 7e9b 963c fbf7 85bd
00000130: cbd7 6bbd 0e63 57bd 3c02 9cbb 76f0 3abd
00000140: 9df7 363d 23c5 f9bc 4d3f d63c 2d3e a83c
00000150: 1f3b 3abd d582 29bd 43bc 4b3d a064 6fbc
00000160: d830 bd3c 8add 5abd 5141 dcbc de1e 24bd
00000170: a61a 93bd 9494 05bd 7ce5 2bbd 897c 093d
00000180: 34b6 50bd ac19 3cbc b957 27bb 9e38 a5bb
00000190: 7279 5e3c ea53 78bd 45ce 25bd 6a34 85bc
000001a0: 965a cbbc 688d c8ba 3f0d 853d bafa 173d

weight f4 [108]
0.64094716 0.7863047 0.77856666 0.85986793 0.67739564 0.8393867 0.77743316 0.5921348
0.8792233 0.8730825 0.71233904 0.7258325 0.81536096 0.7063337 0.7164776 0.697616
0.73225904 0.6544811 0.65305835 0.7768928 0.6688145 0.7621379 0.75793374 0.65909815
0.66079 0.6752569 0.7925676 0.6281157 0.86788994 0.6756477 0.63361555 0.75430316
0.63134426 0.70772654 0.6084038 0.8337485 0.80844593 0.77907974 0.67794454 0.6609711
0.69176 0.7338207 0.7265146 0.7445974 0.71442103 0.58998954 0.8683015 0.6935468
0.7958197 0.68169725 0.7635714 0.78687435 0.69104594 0.7358504 0.66921055 0.6864434
0.6699063 0.806533 0.77187485 0.74660873 0.84462404 0.6902406 0.73396784 0.6573445
0.65974903 0.8306793 0.80571014 0.8751939 0.7194364 0.7461515 0.6189847 0.80213886
0.717953 0.7508458 0.64043677 0.685423 0.69591105 0.70961416 0.7300346 0.8222474
0.75348157 0.62227046 0.6876816 0.714318 0.769125 0.8068394 0.6682003 0.68755805
0.5992348 0.8044892 0.7231816 0.697086 0.76632994 0.78779393 0.7934942 0.65435827
0.7754582 0.71099496 0.6956735 0.8617922 0.74417686 0.69844025 0.8590293 0.70086133
0.661769 0.6282404 0.65764576 0.71989626
00000000: 1d15 243f 444b 493f 2550 473f 4e20 5c3f
00000010: cd69 2d3f 0ce2 563f dc05 473f 2596 173f
00000020: c714 613f 5682 5f3f da5b 363f 29d0 393f
00000030: 7fbb 503f 49d2 343f 136b 373f f696 323f
00000040: 5475 3b3f 138c 273f d52e 273f 72e2 463f
00000050: 6d37 2b3f 781b 433f f207 423f a8ba 283f
00000060: 8929 293f a3dd 2c3f b6e5 4a3f 31cc 203f
00000070: 092e 5e3f 3ff7 2c3f a134 223f 031a 413f
00000080: c79f 213f 912d 353f 5ac0 1b3f 8b70 553f
00000090: 50f6 4e3f c571 473f c68d 2d3f 6735 293f
000000a0: 2f17 313f acdb 3b3f dcfc 393f ef9d 3e3f
000000b0: 4ce4 363f 8e09 173f 0249 5e3f 488c 313f
000000c0: d7ba 4b3f b683 2e3f 6a79 433f 9970 493f
000000d0: 63e8 303f b160 3c3f 6251 2b3f c1ba 2f3f
000000e0: fb7e 2b3f f278 4e3f 9799 453f c021 3f3f
000000f0: 4839 583f 9cb3 303f 51e5 3b3f bb47 283f
00000100: 50e5 283f 66a7 543f 0543 4e3f b50c 603f
00000110: fc2c 383f c903 3f3f c875 1e3f f958 4d3f
00000120: c5cb 373f 6e37 403f aaf3 233f e277 2f3f
00000130: 3a27 323f 46a9 353f 8ce3 3a3f ce7e 523f
00000140: 2be4 403f 1e4d 1f3f e70b 303f 8bdd 363f
00000150: 60e5 443f 078d 4e3f 2d0f 2b3f ce03 303f
00000160: 7467 193f 01f3 4d3f 6e22 393f 3a74 323f
00000170: 332e 443f ddac 493f 7022 4b3f 0684 273f
00000180: 6e84 463f c403 363f a917 323f 6a9e 5c3f
00000190: 6082 3e3f fbcc 323f 58e9 5b3f a66b 333f
000001a0: b169 293f 5dd4 203f 795b 283f 1f4b 383f

bias f4 [108]
0.04207922 -0.01572352 -0.035405815 -0.07672421 0.021867715 -0.05257519 -0.034394965 0.065522894
-0.08063939 -0.09232834 -0.074383095 -0.061023846 -0.19458494 -0.021576175 0.032757245 -0.078396976
-0.10388062 -0.096321814 -0.019754827 -0.022153031 0.055787597 -0.09741247 -0.061603356 0.0010091915
0.05870203 -0.012660215 -0.057238128 0.01858809 -0.11232979 0.068495646 0.11660912 -0.15419737
-0.0018269023 0.11316106 -0.009099347 -0.062165387 -0.04065111 -0.116533205 0.049870156 0.06895147
0.064844914 0.020854281 0.04209527 0.037129708 0.023079373 0.043811988 -0.08106114 -0.0056758947
0.01309144 -0.024824299 -0.12611201 -0.04374753 0.031229163 -0.033028994 -0.010708185 0.0030660569
-0.043269634 -0.1561796 -0.10363747 -0.08912058 -0.033827815 0.013270812 0.021279292 -0.027592681
0.096818455 -0.10116145 -0.011238185 -0.13032682 0.00658361 -0.0015993108 0.05837813 -0.11684935
0.042337764 0.013161172 0.07779974 -0.11832719 -0.025858944 -0.018426687 -0.06299123 -0.118472144
-0.05279672 0.06347578 0.020748219 -0.11230893 -0.09655479 -0.04736275 0.022306234 -0.081894405
0.13229464 -0.09794398 0.06560529 0.017197778 -0.09019972 -0.04592979 0.08223146 -0.069246575
-0.11285575 0.068382345 -0.0066732424 0.0020999054 0.020776603 -0.12510051 -0.09205893 0.059320666
-0.14718175 0.06186895 0.16038164 -0.023494273
00000000: 435b 2c3d 9dce 80bc b005 11bd 9521 9dbd
00000010: ec23 b33c 1559 57bd bce1 0cbd de30 863d
00000020: 4426 a5bd a416 bdbd 2a56 98bd 24f4 79bd
00000030: 4641 47be 85c0 b0bc 762c 063d 988e a0bd
00000040: 5dbf d4bd 5f44 c5bd e0d4 a1bc 467a b5bc
00000050: 8981 643d 3080 c7bd cd53 7cbd d946 843a
00000060: 8a71 703d ca6c 4fbc 8772 6abd 0d46 983c
00000070: 290d e6bd 7247 8c3d c3d0 ee3d eae5 1dbe
00000080: ab74 efba fcc0 e73d 6d15 15bc 22a1 7ebd
00000090: c781 26bd f6a8 eebd a644 4c3d 6e36 8d3d
000000a0: 69cd 843d 99d6 aa3c 176c 2c3d 5215 183d
000000b0: f410 bd3c 3374 333d 6203 a6bd dbfc b9bb
000000c0: 7b7d 563c 545c cbbc 8223 01be 9c30 33bd
000000d0: 4dd4 ff3c 6949 07bd 6271 2fbc e6ef 483b
000000e0: 803b 31bd 8ced 1fbe e23f d4bd da84 b6bd
000000f0: 098f 0abd d26d 593c e951 ae3c 0c0a e2bc
00000100: c148 c63d bc2d cfbd 5d20 38bc 6574 05be
00000110: 53bb d73b f79f d1ba e81d 6f3d b64e efbd
00000120: 5d6a 2d3d f5a1 573c 7855 9f3d 8755 f2bd
00000130: 23d6 d3bc 90f3 96bc 8c01 81bd 86a1 f2bd
00000140: 6041 58bd 97ff 813d 2bf8 a93c 3902 e6bd
00000150: 85be c5bd 71ff 41bd 90bb b63c 41b8 a7bd
00000160: 3f78 073e da96 c8bd 115c 863d 5be2 8c3c
00000170: a1ba b8bd e020 3cbd f868 a83d 26d1 8dbd
00000180: ea20 e7bd 0b0c 8c3d 37ab dabb 919e 093b
00000190: b233 aa3c 591a 00be 6489 bcbd 3afa 723d
000001a0: d0b6 16be 4c6a 7d3d 163b 243e 1077 c0bc

running_mean f4 [108]
0.06318951 0.11832788 0.08459405 0.08902367 0.115722984 0.03689478 0.055697717 0.0917052
0.07360254 0.09107015 0.09013197 0.091116086 0.04281148 0.12814042 0.08278575 0.11821898
0.06467006 0.07987671 0.1218565 0.12945743 0.07983805 0.044208404 0.06263133 0.15937768
0.13282001 0.0785872 0.06791649 0.049754184 0.16629525 0.07592986 0.10271351 0.12573102
0.061184183 0.055820204 0.10868178 0.042983674 0.058454935 0.0552528 0.14258741 0.093878634
0.06660385 0.12657765 0.065650806 0.081075154 0.08122605 0.08589074 0.11078619 0.13396335
0.03481106 0.06056371 0.07091832 0.06434286 0.090192184 0.15423489 0.10833486 0.07148329
0.042672858 0.05023277 0.084237404 0.10144207 0.07172662 0.101699464 0.11101729 0.08689872
0.13337007 0.05239326 0.032954942 0.06963719 0.15178312 0.08821307 0.13706419 0.06326562
0.032003343 0.124061905 0.09817717 0.025645046 0.057067107 0.05119542 0.110259935 0.13997155
0.16154738 0.123136014 0.11783127 0.14181265 0.08444932 0.06309076 0.08789339 0.144562
0.12693553 0.084101 0.07070757 0.08239431 0.10313389 0.10083963 0.05405006 0.14241965
0.0458239 0.13306834 0.11065806 0.0913417 0.066510394 0.039271116 0.07587171 0.099528775
0.104376376 0.097935066 0.15307052 0.12350335
00000000: 8069 813d e355 f23d a53f ad3d 0b52 b63d
00000010: 2c00 ed3d fb1e 173d 4a23 643d f0cf bb3d
00000020: eebc 963d fd82 ba3d 1c97 b83d 129b ba3d
00000030: 175b 2f3d 3e37 033e 938b a93d cb1c f23d
00000040: bd71 843d 6796 a33d e78f f93d 7d90 043e
00000050: 2282 a33d df13 353d db44 803d e733 233e
00000060: f801 083e 53f2 a03d cd17 8b3d 0bcb 4b3d
00000070: 4d49 2a3e 1d81 9b3d 765b d23d a2bf 003e
00000080: 449c 7a3d baa3 643d 8e94 de3d a60f 303d
00000090: 716e 6f3d c350 623d 6f02 123e 7143 c03d
000000a0: 9967 883d 929d 013e ee73 863d bb0a a63d
000000b0: d859 a63d 7ce7 af3d dfe3 e23d b02d 093e
000000c0: 0b96 0e3d a711 783d a03d 913d 30c6 833d
000000d0: aeb6 b83d c0ef 1d3e abde dd3d d565 923d
000000e0: bcc9 2e3d e1c0 4d3d a984 ac3d dcc0 cf3d
000000f0: 68e5 923d cf47 d03d 085d e33d f5f7 b13d
00000100: 2a92 083e 519a 563d c3fb 063d f19d 8e3d
00000110: 096d 1b3e 0ea9 b43d 8e5a 0c3e 6891 813d
00000120: f015 033d 2b14 fe3d 1d11 c93d 8f15 d23c
00000130: 33bf 693d 4ab2 513d f6cf e13d b454 0f3e
00000140: ad6c 253e bc2e fc3d 8551 f13d 5637 113e
00000150: c4f3 ac3d ba35 813d 7301 b43d 1008 143e
00000160: 63fb 013e 253d ac3d 21cf 903d 59be a83d
00000170: dc37 d33d 0285 ce3d 9963 5d3d 75d6 113e
00000180: d7b1 3b3d 1143 083e b1a0 e23d 5b11 bb3d
00000190: 9a36 883d c0da 203d a162 9b3d bed5 cb3d
000001a0: 48c3 d53d 2e92 c83d 85be 1c3e 53ef fc3d

running_var f4 [108]
0.06638165 0.3809317 0.20252708 0.47372475 0.13000335 0.26567936 0.2695033 0.071870945
0.501074 0.5336764 0.16505408 0.24429968 0.26568034 0.2167999 0.16542183 0.32219663
0.11940188 0.12646551 0.28874984 0.36936986 0.10403471 0.16798384 0.2257371 0.2542851
0.21162157 0.12427302 0.19296108 0.08012002 0.48344883 0.096848644 0.09331782 0.3632353
0.16051818 0.092312045 0.111698605 0.3177443 0.3548225 0.2998085 0.16561832 0.11966844
0.10009931 0.24910013 0.13216907 0.16908641 0.14033085 0.08016121 0.4082258 0.24038208
0.2269747 0.1355505 0.36377618 0.33728877 0.10861126 0.35239455 0.13396557 0.09505336
0.120067686 0.3219571 0.22552337 0.23490252 0.28749862 0.13021179 0.22795922 0.16544361
0.1045653 0.29062945 0.20599344 0.4032929 0.23899145 0.17289527 0.14757924 0.43226832
0.06439695 0.3232641 0.12794995 0.13385303 0.10812986 0.13186663 0.25791383 0.3833803
0.4603098 0.24897833 0.2939736 0.2788971 0.26426136 0.22587904 0.12658773 0.33997
0.16258441 0.47811195 0.113148 0.105926916 0.33325088 0.26601338 0.15309547 0.23193109
0.19917426 0.13673249 0.1986558 0.35465762 0.14313844 0.1140727 0.63483423 0.17413464
0.20635892 0.1678406 0.1729233 0.24222557
00000000: 1af3 873d 7b09 c33e 4263 4f3e 0d8c f23e
00000010: 991f 053e 2007 883e 56fc 893e 1331 933d
00000020: 6346 003f 049f 083f f003 293e b229 7a3e
00000030: 4107 883e cb00 5e3e 5764 293e f5f6 a43e
00000040: f988 f43d 2d80 013e 05d7 933e 0c1e bd3e
00000050: 2610 d53d f503 2c3e a027 673e a831 823e
00000060: 53b3 583e da82 fe3d 9797 453e f715 a43d
00000070: 9b86 f73e 9558 c63d 6a1d bf3d faf9 b93e
00000080: e15e 243e 190e bd3d 3dc2 e43d 62af a23e
00000090: 4bab b53e 8080 993e d997 293e ba14 f53d
000000a0: de00 cd3d 1b14 7f3e 5457 073e fd24 2d3e
000000b0: e4b2 0f3e 8f2b a43d f902 d13e b826 763e
000000c0: 0e6c 683e c0cd 0a3e df40 ba3e 1db1 ac3e
000000d0: 956f de3d 0f6d b43e 452e 093e 56ab c23d
000000e0: 0ce6 f53d 90d7 a43e 99ef 663e 498a 703e
000000f0: 0533 933e 3d56 053e 246e 693e 0d6a 293e
00000100: 5526 d63d 62cd 943e f2ef 523e 687c ce3e
00000110: 2dba 743e 750b 313e 031f 173e 4652 dd3e
00000120: 8ce2 833d df82 a53e 5005 033e c510 093e
00000130: 3073 dd3d 0c08 073e 480d 843e 6c4a c43e
00000140: baad eb3e 2df4 7e3e b583 963e 9acb 8e3e
00000150: 444d 873e d64c 673e 37a0 013e 8c10 ae3e
00000160: 877c 263e 17cb f43e 23ba e73d 36f0 d83d
00000170: dc9f aa3e e832 883e 0fc5 1c3e 587f 6d3e
00000180: 56f4 4b3e 9a03 0c3e 6d6c 4b3e af95 b53e
00000190: e292 123e f39e e93d 7f84 223f 5a50 323e
000001a0: c14f 533e 68de 2b3e ce12 313e fb09 783e

weight f4 [42, 108]
-0.07158651 -0.010942195 0.028709926 0.03811216 0.06371836 -0.023404688 0.040022798 0.05131135
0.012087528 0.067758955 0.084468424 0.03376707 0.03228594 -0.06345934 -0.069315605 -0.016369471
-0.07190798 -0.025860747 0.054689318 0.059721157 0.008673459 0.07375128 0.0946431 -0.04724372
0.022218725 0.046922483 -0.04955617 -0.013013211 -0.011084879 -0.016048724 -0.060404085 -0.052007623
0.052133307 -0.032161977 -0.07385081 -0.011522958 0.02094435 -0.005235598 0.0075666527 0.027130287
-0.060564637 0.064951494 0.0058272756 -0.004960051 -0.06337352 -0.01842847 0.079201795 -0.05747978
0.033131346 -0.048838414 -0.03226598 0.009266454 -0.035729583 -0.055196572 0.06072144 -0.024460953
-0.051730704 -0.018673008 0.028220346 0.0639066 0.07752164 -0.017531728 0.027952325 0.009846114
-0.031189533 0.10502739 -0.038094748 0.054248117 0.008985351 0.006627403 -0.069812424 0.026570046
-0.013689241 0.11213882 -0.02025126 0.022553312 -0.016422551 0.081453264 0.07895718 -0.055242505
0.094227076 -0.02110035 -0.06307266 -0.037673876 0.057124663 0.002737305 0.034746762 -0.018213205
-0.0814357 0.06164762 0.0073593487 -0.021658413 0.071028076 -0.0017836438 -0.0046648565 -0.052125864
0.06573116 -0.017519506 -0.04200065 0.086608775 -0.07322718 -0.058310598 0.10949654 -0.04719597
-0.05159061 -0.02086757 -0.003481217 -0.047138724 0.06856914 0.11253677 -0.061596263 0.052041937
-0.013957873 0.06382488 -0.029592574 -0.04712745 0.03420863 0.077178314 0.03512523 -0.067904584
-0.026451457 -0.052912954 -0.0100200195 -0.028935732 -0.040852513 0.038603 0.01898839 -0.027697258
-0.04342964 -0.0076664663 -0.056243733 0.024514362 -0.04715761 -0.005028928 0.104775466 0.03871072
0.0957568 -0.0685623 0.0041560386 0.02035521 -0.061323665 -0.032325063 0.026401047 0.020900406
0.004643722 0.010794821 -0.07371082 0.02906143 0.021761741 0.028293105 0.0038594569 -0.07240822
0.06645025 -0.07170796 0.11679887 -0.073845156 0.07656227 0.0049360143 0.066021174 0.028403817
-0.07218505 0.03503699 -0.07429719 -0.080803 0.029333405 0.0047831265 0.07310122 -0.024582528
0.1008704 -0.048639912 -0.0548995 0.031491946 0.049743265 0.065590486 0.018754482 -0.024230642
-0.047093958 0.03817788 -0.016439807 0.012953256 0.03580006 0.0842083 -0.028257867 0.05028289
-0.055955105 0.029503418 0.05776328 0.020945642 -0.033887673 -0.042494196 -0.002798136 -0.07364341
0.0788809 0.089018784 0.02772404 0.06262187 -0.00021308112 0.021590324 -0.07107008 -0.049671754
0.043586183 0.0828242 -0.06273095 -0.0069483807 0.12640001 0.029616296 -0.018976465 -0.06886478
0.045726314 0.08075384 -0.04669139 -0.08516152 -0.02467215 0.02859049 -0.012098781 -0.03548105
-0.0474936 0.14530268 0.051119562 -0.052298106 0.056174316 0.028548263 0.1079432 0.019021796
0.029041823 -0.04390716 0.10123343 0.0011380519 0.053309068 -0.0196167 -0.024964362 0.078114815
0.018889777 0.0035332136 -0.04551474 -0.0718693 -0.0022517252 -0.05958621 -0.03752691 -0.01569421
0.03105968 0.05073384 0.10135295 0.035476003 0.11405714 0.061029665 0.08599701 -0.011302714
0.01884099 -0.06735577 -0.010506844 0.050587405 0.090554796 0.05802949 -0.06320657 -0.0137711065
00000000: f39b 92bd e446 33bc 1431 eb3c 7f1b 1c3d
00000010: c67e 823d 30bb bfbc f2ee 233d da2b 523d
00000020: c40a 463c 35c5 8a3d c8fd ac3d 574f 0a3d
00000030: 433e 043d f8f6 81bd 57f5 8dbd 4519 86bc
00000040: 7e44 93bd ebd9 d3bc e801 603d 2c9e 743d
00000050: 201b 0e3c e90a 973d 3ed4 c13d a282 41bd
00000060: 0b04 b63c ca31 403d 69fb 4abd 5d35 55bc
00000070: 5a9d 35bc 9d78 83bc 466a 77bd f205 55bd
00000080: bc89 553d 47bc 03bd 183f 97bd caca 3cbc
00000090: 7c93 ab3c 618f abbb aff1 f73b 5640 de3c
000000a0: a012 78bd 4a05 853d bbf2 be3b ec87 a2bb
000000b0: fac9 81bd 4df7 96bc 8d34 a23d eb6f 6bbd
000000c0: bcb4 073d ca0a 48bd 5529 04bd 53d2 173c
000000d0: 2f59 12bd cd15 62bd 0bb7 783d 5662 c8bc
000000e0: 93e3 53bd 23f8 98bc 5b2e e73c 77e1 823d
000000f0: aac3 9e3d b39e 8fbc 46fc e43c 9851 213c
00000100: 3181 ffbc 9a18 d73d 3d09 1cbd 4633 5e3d
00000110: 4b37 133c b02a d93b d1f9 8ebd 6da9 d93c
00000120: d748 60bc 0aa9 e53d f8e5 a5bc b9c1 b83c
00000130: 9688 86bc f8d0 a63d 4db4 a13d f745 62bd
00000140: 20fa c03d a4da acbc 3d2c 81bd ec4f 1abd
00000150: 8dfb 693d 5b64 333b 9f52 0e3d dc33 95bc
00000160: c3c7 a6bd 3782 7c3d b126 f13b fc6c b1bc
00000170: 2b77 913d 28c9 e9ba a7db 98bb ee81 55bd
00000180: 0f9e 863d 1185 8fbc e008 2cbd f15f b13d
00000190: 22f8 95bd 18d7 6ebd b93f e03d 9050 41bd
000001a0: ad50 53bd 77f2 aabc 2125 64bb 8914 41bd
000001b0: fa6d 8c3d ae79 e63d 5d4c 7cbd ed29 553d
000001c0: 90af 64bc 9eb6 823d 206c f2bc b708 41bd
000001d0: 591e 0c3d aa0f 9e3d 79df 0f3d 8f11 8bbd
000001e0: bab0 d8bc 41bb 58bd 022b 24bc a10a edbc
000001f0: f754 27bd 2e1e 1e3d 8a8d 9b3c 5ce5 e2bc
00000200: 47e3 31bd fb36 fbbb d45f 66bd 58d2 c83c
00000210: 5728 41bd b5c9 a4bb 8594 d63d 228f 1e3d
00000220: 241c c43d 646a 8cbd 612f 883b f8bf a63c
00000230: 862e 7bbd 4967 04bd 0247 d83c 5437 ab3c
00000240: 5d2a 983b c3dc 303c b3f5 96bd 3c12 ee3c
00000250: ae45 b23c f1c6 e73c f1ee 7c3b c34a 94bd
00000260: 1217 883d 9fdb 92bd 3f34 ef3d 213c 97bd
00000270: aecc 9c3d 4abe a13b 1c36 873d 1faf e83c
00000280: c1d5 93bd f282 0f3d 2029 98bd 0b7c a5bd
00000290: 9c4c f03c c6bb 9c3b 18b6 953d 4c61 c9bc
000002a0: 2495 ce3d a53a 47bd 4cde 60bd b3fd 003d
000002b0: 98bf 4b3d 4e54 863d 00a3 993c 577f c6bc
000002c0: 98e5 40bd 6960 1c3d c6ac 86bc e539 543c
000002d0: 15a3 123d 6775 ac3d 0b7d e7bc 6ff5 4d3d
000002e0: 2e31 65bd 27b1 f13c 3099 6c3d 3296 ab3c
000002f0: cdcd 0abd 650e 2ebd ef60 37bb 5bd2 96bd
00000300: 4f8c a13d 7b4f b63d 871d e33c e53f 803d
00000310: 876e 5fb9 31de b03c 318d 91bd 9c74 4bbd
00000320: 6d87 323d bc9f a93d 1679 80bd 3eaf e3bb
00000330: 016f 013e e09d f23c 8874 9bbc fa08 8dbd
00000340: 844b 3b3d 4562 a53d 793f 3fbd 2a69 aebd
00000350: 401d cabc 9a36 ea3c f739 46bc 9454 11bd
00000360: a688 42bd 3aca 143e bf62 513d 8a36 56bd
00000370: 0a17 663d 0cde e93c 5311 dd3d 99d3 9b3c
00000380: 1ee9 ed3c ffd7 33bd 7953 cf3d af2a 953a
00000390: 9c5a 5a3d 34b3 a0bc 1082 ccbc a9fa 9f3d
000003a0: bcbe 9a3c 7d8d 673b aa6d 3abd 3630 93bd
000003b0: ae91 13bb ab10 74bd d1b5 19bd 2591 80bc
000003c0: df70 fe3c 49ce 4f3d 2392 cf3d 494f 113d
000003d0: ca96 e93d 3efa 793d 331f b03d 052f 39bc
000003e0: 6b58 9a3c d2f1 89bd e624 2cbc bd34 4f3d
000003f0: cb74 b93d 55b0 6d3d 7272 81bd 35a0 61bc

bias f4 [42]
-0.014451495 -0.03467515 -0.08720532 0.005124583 0.045386728 -0.116028845 -0.05761204 -0.038776543
-0.010396277 -0.06648701 -0.064884715 -0.03172064 -0.05503977 -0.10514295 -0.09142656 -0.1024771
-0.093073405 -0.040658362 -0.031887617 -0.06162856 0.0043447125 -0.107485175 -0.10116161 0.02338759
-0.06984657 -0.08691179 -0.030955058 -0.026311709 0.0205931 -0.0758889 -0.025671642 -0.09876399
-0.16217157 -0.010413178 0.000197477 -0.03723185 0.0034139673 0.028951705 -0.02402014 -0.0520858
0.012880304 -0.05722474
00000000: f7c5 6cbc 8807 0ebd b498 b2bd 1eec a73b
00000010: 6fe7 393d 88a0 edbd 9afa 6bbd 27d4 1ebd
00000020: 2555 2abc 572a 88bd 47e2 84bd 80ed 01bd
00000030: 6271 61bd 3055 d7bd d93d bbbd 84df d1bd
00000040: 459d bebd 6289 26bd 979c 02bd 3b6e 7cbd
00000050: 175e 8e3b 3021 dcbd d12d cfbd 5597 bf3c
00000060: b80b 8fbd cffe b1bd 7695 fdbc a78b d7bc
00000070: dcb2 a83c a46b 9bbd 564d d2bc c644 cabd
00000080: 4e10 26be 099c 2abc d411 4f39 6d80 18bd
00000090: debc 5f3b 202c ed3c e2c5 c4bc eb57 55bd
000000a0: e907 533c 7d64 6abd

weight f4 [42]
0.2998697 0.31659368 0.36303458 0.29806823 0.21325772 0.24146308 0.39313737 0.14200687
0.30128357 0.36525825 0.3720637 0.18311995 0.360394 0.31026077 0.38231415 0.2654781
0.37969136 0.18583025 0.27192548 0.38376608 0.2497049 0.23708993 0.3591983 0.36594397
0.32906938 0.1945155 0.32994244 0.1922958 0.31912187 0.1739461 0.23540719 0.26483098
0.38228503 0.19506924 0.30576637 0.35987136 0.16467492 0.31288195 0.3266252 0.36539918
0.34279534 0.11812833
00000000: 8588 993e 9118 a23e abdf b93e 669c 983e
00000010: 3b60 5a3e 1942 773e 4d49 c93e 406a 113e
00000020: d741 9a3e 2103 bb3e 227f be3e cc83 3b3e
00000030: 9085 b83e 80da 9e3e aebe c33e bfec 873e
00000040: e866 c23e 494a 3e3e d139 8b3e fd7c c43e
00000050: a4b2 7f3e b4c7 723e d7e8 b73e 025d bb3e
00000060: c87b a83e 122f 473e 37ee a83e 31e9 443e
00000070: f163 a33e ed1e 323e 950e 713e ed97 873e
00000080: ddba c33e 3bc0 473e 698d 9c3e 0f41 b83e
00000090: 8ba0 283e 1032 a03e 6b3b a73e 9a15 bb3e
000000a0: df82 af3e 44ed f13d

bias f4 [42]
-0.4432462 -0.4432851 0.48418668 -0.44044316 -0.47443977 0.4376707 0.42861724 -0.504624
-0.4924468 0.45729253 0.45476452 -0.43451175 0.46867096 0.4956981 0.50144154 0.54571795
0.44872347 -0.4782694 -0.49798208 -0.4510478 -0.50637573 0.44989914 0.4445369 -0.53370553
-0.5064813 -0.48776636 -0.43184602 -0.5445754 -0.4574549 -0.5387643 -0.4390499 0.43227226
0.5428853 -0.5029793 -0.53988916 0.49201885 -0.5387906 -0.4806354 -0.43688893 0.47841057
-0.50443053 -0.5157654
00000000: 2af1 e2be 44f6 e2be 51e7 f73e c481 e1be
00000010: c5e9 f2be 6016 e03e b873 db3e 0a2f 01bf
00000020: fd21 fcbe 3f22 ea3e e5d6 e83e 5378 debe
00000030: a4f5 ef3e 24cc fd3e 795e 003f 2cb4 0b3f
00000040: 15bf e53e badf f4be 82f7 febe bdef e6be
00000050: d7a1 01bf 2e59 e63e 579a e33e eda0 08bf
00000060: c2a8 01bf 83bc f9be ec1a ddbe 4b69 0bbf
00000070: 8737 eabe 75ec 09bf 26cb e0be ca52 dd3e
00000080: 88fa 0a3f 40c3 00bf 2d36 0abf e5e9 fb3e
00000090: 2eee 09bf d815 f6be e8af dfbe 3bf2 f43e
000000a0: 5c22 01bf 3409 04bf

running_mean f4 [42]
0.12585093 0.0675663 0.08155128 0.08124477 0.16798495 0.0670028 0.09250265 0.044807505
0.08003864 0.0999822 0.09238193 0.095276706 0.10575921 0.057771184 0.13736862 0.09607592
0.104552485 0.08184144 0.0956271 0.06532407 0.13807972 0.066412024 0.08532474 0.12748994
0.054295987 0.052004512 0.089658305 0.109192185 0.09000634 0.058104705 0.08325629 0.048576847
0.022322515 0.03908487 0.11027763 0.12874381 0.08714124 0.09995935 0.108278014 0.09210135
0.09194429 0.09177384
00000000: 11df 003e 3360 8a3d 5c04 a73d a863 a63d
00000010: 3f04 2c3e c438 893d 0872 bd3d 1388 373d
00000020: 4ceb a33d 78c3 cc3d bd32 bd3d 6f20 c33d
00000030: 4998 d83d 7aa1 6c3d 5caa 0c3e 74c3 c43d
00000040: 9d1f d63d 7c9c a73d 24d8 c33d a0c8 853d
00000050: c564 0d3e 0703 883d bdbe ae3d b98c 023e
00000060: 7865 5e3d af02 553d c69e b73d 27a0 df3d
00000070: 3e55 b83d 33ff 6d3d 4682 aa3d 84f8 463d
00000080: b5dd b63c 7517 203d 3dd9 e13d 6bd5 033e
00000090: 1b77 b23d 7db7 cc3d ddc0 dd3d a29f bc3d
000000a0: 4a4d bc3d ecf3 bb3d

running_var f4 [42]
0.6689577 0.3736757 0.55176073 0.49926397 0.22667442 0.22598429 0.83469236 0.05940559
0.44758397 0.75503606 0.7578635 0.1220234 0.86692435 0.31027362 0.90768796 0.36426607
0.7300349 0.3581373 0.4398449 0.77838594 0.3103785 0.23592272 0.5503677 0.8986626
0.54713905 0.2048327 0.39990947 0.1435 0.61791295 0.1895631 0.24085821 0.27877173
0.47084895 0.18884265 0.433736 0.6570153 0.2232508 0.65502846 0.5769611 0.59633696
0.60156703 0.064787276
00000000: d040 2b3f 6c52 bf3e 3140 0d3f 879f ff3e
00000010: 571d 683e 6d68 673e 66ae 553f 4753 733d
00000020: ba29 e53e 0b4a 413f 5803 423f 68e7 f93d
00000030: c1ee 5d3f 2fdc 9e3e 3d5e 683f 1581 ba3e
00000040: 91e3 3a3f c65d b73e 5a33 e13e 4d44 473f
00000050: eee9 9e3e ba95 713e e6e4 0c3f c10e 663f
00000060: 4e11 0c3f aabf 513e efc0 cc3e aaf1 123e
00000070: 8b2f 1e3f d41c 423e 89a3 763e 2bbb 8e3e
00000080: 1d13 f13e f85f 413e a512 de3e 2832 283f
00000090: dc9b 643e f2af 273f b9b3 133f 8aa9 183f
000000a0: 4c00 1a3f 31af 843d

weight f4 [1, 42]
-0.5880979 -0.59046394 0.5601451 -0.5916368 -0.5705681 0.60387945 0.60421944 -0.5563766
-0.55619466 0.5735948 0.5756506 -0.61038536 0.5661015 0.55598587 0.5471123 0.5256217
0.58354324 -0.56827956 -0.55167437 -0.579513 -0.54836625 0.5874298 0.5856291 -0.52750975
-0.5457073 -0.56332654 -0.6059113 -0.5258839 -0.57849145 -0.53384596 -0.5997551 0.6102243
0.5164835 -0.5558861 -0.5251289 0.5486949 -0.53505677 -0.56005967 -0.59542924 0.56043625
-0.5479419 -0.55062354
00000000: 958d 16bf a528 17bf ab65 0f3f 8275 17bf
00000010: c010 12bf d897 1a3f 20ae 1a3f b26e 0ebf
00000020: c662 0ebf 1cd7 123f d65d 133f 3742 1cbf
00000030: 07ec 103f 1755 0e3f 8d0f 0c3f 258f 063f
00000040: 1763 153f c57a 11bf 883a 0dbf f75a 14bf
00000050: bb61 0cbf cd61 163f caeb 153f e10a 07bf
00000060: 79b3 0bbf 2b36 10bf 011d 1bbf 54a0 06bf
00000070: 0418 14bf 21aa 08bf 8d89 19bf a937 1c3f
00000080: 4338 043f 8d4e 0ebf d96e 06bf 4577 0c3f
00000090: 7bf9 08bf 1260 0fbf 0d6e 18bf c078 0f3f
000000a0: ec45 0cbf aaf5 0cbf
