mlruns/528961946943719398/models/m-1f29d3ecf6374d24b9d3cc56bc48eb78/artifacts/data/model.pth (torch, 29905 bytes, 11 tensors)

weight f4 [124]
00000000: ad40 803e c2d2 6e3e be2d 9d3e d44a 5c3e
00000010: 944f 473e 020d 1d3e 88fe 3e3e 0740 8c3e
00000020: ab57 813e 2538 253e 0bf5 663e afb1 803e
00000030: 4e53 343e e021 4e3e a74d 863e 672b 813e
00000040: 684d 513e 4ffd 013e 17d8 9d3e af5f 3a3e
00000050: b50c a93d 9b94 663e a165 243e a6c5 4a3e
00000060: be1e 853e b19c 853e ec85 543e b2bc 6d3e
00000070: 5085 1b3e 5b3f 583e fc39 863e 4042 933e
00000080: 9e3c 6a3e fb6b cc3e ba4d c63e a5b9 b43e
00000090: 79bb f03d 0d78 1b3e ea1e 933e b6af c83d
000000a0: a87e f13d 6b9e 003e c8f7 003e 1c5f 213e
000000b0: 0c43 903e 5d4f 4d3e 1489 6e3e 6a81 3d3e
000000c0: ae96 3a3e 54d4 823e bc01 8d3e e3cf 2a3e
000000d0: 1544 9d3e 5eb7 093e 5e93 0d3e 6d03 b23d
000000e0: 9043 ed3d e22f 3e3e c3d1 e53d dd6f d03d
000000f0: 87e6 413e 0038 903e 9131 963d 8a99 e43e
00000100: 3c6e 4b3e 8b3d 2c3e 8430 103e 4b26 393e
00000110: fe28 203e 4b71 333e 82ce ed3d b161 793e
00000120: d50e f93d 13d6 6c3e a595 1a3e 4fdb 363e
00000130: 8d7f 8b3e d173 4f3e 5e7b 043e 7b8c a23e
00000140: bd34 983e befb 863e acf8 413e a1ad bc3d
00000150: a359 9c3d f3ae 4a3e 2d70 703e f9a8 2d3e
00000160: 90bb a23e 2dd9 e83d 231f a03d f6ab 193e
00000170: d5ff 6a3d f13b 293e 3eb2 243e 346e 983e
00000180: 2113 743d a719 583e d4ba 0a3e e12f 0e3e
00000190: bff4 d83d 43b8 dd3d 26a6 5a3d cf82 103e
000001a0: 5bde 053e 7a39 033e e60f 283e 6e3f 023e
000001b0: 2de5 5c3e f2f9 9d3e 39f6 be3e 93cc 8b3e
000001c0: a49f 043e 38e9 903e daee a43e 6b06 0b3e
000001d0: 7579 df3d 76bd 353e c86d 3f3e ddbd 6e3e
000001e0: 575c 243e 7f99 5d3e d81d 703e b886 453e
0.25049344 0.23322585 0.3069896 0.2151292 0.1946395 0.15336993 0.18651783 0.273926
0.25262198 0.16134699 0.22554414 0.25135562 0.17609903 0.2013011 0.2623112 0.25228426
0.20439684 0.12694286 0.30828926 0.18200563 0.08254377 0.22517626 0.16054393 0.1980196
0.26000017 0.2609611 0.20754212 0.23216513 0.15187573 0.21117918 0.26216114 0.28761482
0.22874686 0.39926133 0.38731176 0.35297886 0.117545076 0.15182514 0.28734523 0.09799139
0.11791736 0.12560432 0.12594521 0.15758938 0.28176153 0.20049806 0.23294479 0.18506399
0.18221542 0.25552619 0.27540386 0.16680865 0.30716005 0.13448855 0.13825747 0.0869206
0.11585152 0.18572953 0.112216495 0.10177586 0.18935595 0.28167725 0.07333673 0.4464839
0.1986627 0.16820352 0.14081007 0.18081014 0.15640637 0.17523687 0.11611654 0.24353673
0.12161032 0.23128538 0.15096147 0.17857097 0.2724575 0.20259024 0.12937686 0.31747803
0.29727736 0.2636394 0.18942517 0.092128046 0.07634284 0.197933 0.23480292 0.16958989
0.31783724 0.11369548 0.07818439 0.15007004 0.057372887 0.16526772 0.16083619 0.29771578
0.059588555 0.21103536 0.13547832 0.13885452 0.105935566 0.10826161 0.053381108 0.141124
0.13073103 0.12814894 0.16412315 0.12719509 0.21571799 0.30854756 0.37297228 0.27304515
0.12951523 0.28302932 0.3221348 0.13576667 0.10911838 0.17748055 0.18694222 0.23314615
0.1605085 0.21640585 0.23448884 0.19289672

bias f4 [124]
00000000: a3ba 863b a6fc 8838 6d24 543c 808e ab3a
00000010: ef8f e63b 04c3 33bb 09d9 a5ba d083 b239
00000020: 53ea 1a3c 8a40 d53b 8348 dc3b 9342 20bc
00000030: f12b 8439 dd3f 543c 6c37 d8bb 381f d93b
00000040: 73be 83bb 0db5 5d3b 1464 943b 0291 5339
00000050: 663a 023a 143e a3bb 2093 ac3b f256 fdb7
00000060: 300b d4bb 3ce3 ed38 d972 7e3b 388a 22bc
00000070: 967a e73b a71a f33a e90e 5a3c 8fbc 0e3c
00000080: 5e17 e13b f885 073b b3bc e93b dc95 43bb
00000090: d8ab 013c 3bb7 36bb 6658 80bc b929 47bb
000000a0: aa88 013b a7e7 0f3a b57e 713a ee44 c9bb
000000b0: 4c3e 8abc 7165 d4bb 4c82 87bb 4961 99bb
000000c0: c98c d13b 59e0 0bbc 033f 0ebc c189 03bb
000000d0: 8ccc d2bc 1020 3abc f6cf 76bb 2e51 9e3b
000000e0: 26e7 7d3a a31d 97bb 9824 2fbb 6f8a 853a
000000f0: 576f 35bb ab76 2dbc 3a68 433b 577e 823c
00000100: 4a2f 99ba 77b6 97ba 0639 f338 266d efbb
00000110: 6f84 4c3b be76 1cba a275 163c 76c8 67bb
00000120: fe2f 633b 1474 5bbb 73fc c8ba fb0b f8ba
00000130: cef2 a6ba eb26 92bb a728 66bb f829 2ebc
00000140: 330d 6e3c d601 01bc a990 23bc 3ae7 4e3b
00000150: edb1 3c3b 2c2e 01bc 308f 48bc b9c7 853b
00000160: 3e48 81bb f2d7 91ba e08d aa3b ba63 263c
00000170: 2dde c73b 8cea 6f3b 202c 5ebb 2322 23bc
00000180: f6aa 303b 02e7 45bb 05ce 49bb 5b81 07bc
00000190: 3450 283b 8592 1e3c 98fa 5bba 8698 353b
000001a0: 76ef 36bc c1dc 0a3b e67c ab39 ece7 4cbb
000001b0: b40f 693a 11cc 60bb 41c7 50bc 0af0 b83b
000001c0: b8bc a73a db62 a7bc ae9c 0ebc af7f 04bb
000001d0: e8ee 3c3a 210d 6abb 9452 8bbb a0f9 c3ba
000001e0: f47a 50bc 48b1 0c3b bdd2 afbb 0b29 c1bb
0.0041116043 6.532045e-05 0.012948138 0.0013088733 0.007036201 -0.002742947 -0.0012653182 0.00034049014
0.009455281 0.006507938 0.0067225113 -0.0097814975 0.0002520974 0.012954679 -0.0065984037 0.006626036
-0.004020506 0.0033829839 0.004528532 0.00020176548 0.00049678085 -0.0049817655 0.005266562 -3.0200437e-05
-0.00647106 0.00011343366 0.0038825779 -0.009920649 0.007064174 0.0018547372 0.013309219 0.008711948
0.0068692407 0.0020679217 0.0071330904 -0.0029843962 0.007914506 -0.002788021 -0.015667152 -0.003038986
0.0019765296 0.0005489536 0.0009212301 -0.0061422503 -0.016875409 -0.0064818193 -0.0041354056 -0.0046807867
0.0063949567 -0.008537375 -0.008682015 -0.0020071121 -0.025732301 -0.011360183 -0.0037660575 0.0048314547
0.0009685628 -0.0046116873 -0.0026724692 0.0010188351 -0.0027684772 -0.010587375 0.0029816763 0.015929384
-0.0011687067 -0.0011574765 0.000115977644 -0.0073067127 0.0031206866 -0.00059686217 0.009183319 -0.0035367287
0.0034666057 -0.0033485936 -0.0015334025 -0.0018924469 -0.0012737156 -0.004460206 -0.0035119446 -0.010630123
0.014529514 -0.007873973 -0.00998322 0.0031570927 0.0028792575 -0.007884543 -0.01224117 0.0040826467
-0.0039453795 -0.0011126979 0.005204901 0.010155613 0.0060994835 0.0036608307 -0.0033900812 -0.009956869
0.002695737 -0.0030197506 -0.0030792963 -0.008270587 0.002568257 0.009678488 -0.00083915284 0.002770932
-0.01116549 0.0021188708 0.00032708718 -0.0031266166 0.00088905846 -0.003430132 -0.012742818 0.0056438493
0.0012797331 -0.02043288 -0.008704348 -0.0020217707 0.00072072307 -0.0035713392 -0.0042517874 -0.0014951713
-0.012724627 0.0021467973 -0.005365698 -0.0058947853

running_mean f4 [124]
00000000: 442e 8b42 7a8c 2546 c7ea c240 d035 b440
00000010: 306e d342 2849 5940 64be 4540 4454 5d40
00000020: 5f42 3b40 a155 ca3f 6712 db43 3334 2a42
00000030: b54d 0d44 6df3 8340 8e8b ea3d 5eca 8f44
00000040: a569 b643 999c 9e40 6403 be44 1bdc db3e
00000050: 10bf 553d 32e3 ca3f a3a8 be3e 760f 3a40
00000060: 697f 853f 7608 6040 97cc d240 db8c 233e
00000070: 4657 1c3f 43ff ed3f 67c9 dc3f 6bdc e33f
00000080: 1017 ef43 e585 3440 0b66 3440 6354 223e
00000090: 16f5 bd42 bad6 4942 b684 d041 d3ca 6d40
000000a0: b338 6541 ce3e 0c40 fbed 6b3c 7cf6 5d42
000000b0: aa8e 1f42 9ea8 c641 6b49 f941 56f1 fd41
000000c0: 5e85 4040 7ff2 9a3f 8a9a ce3d 6014 db3e
000000d0: 5a70 303e 3eaa 2c3f b5ec 523e 1718 a53d
000000e0: 4e7b 283d 8aa8 613d ed2b ef3c dab0 a33c
000000f0: a6b3 aa3d db64 c13c 1ddf e73d 8f92 743f
00000100: c3af 723e 91f0 c73d 60b4 bf3d ff9f 263d
00000110: 3654 bf3e 7921 123e fa03 2c3e 355f 203e
00000120: a2c3 bc3d 3753 113d 35ff f53c 555f 303d
00000130: e59b 743c 62ee d13c 1676 693c 9e76 8b3c
00000140: e391 493f 78b3 203e d258 143d e91a 603c
00000150: f1cf d43d 8080 153d 940b a13d af0f 803d
00000160: b1e6 a53c 9f94 103c bdb6 103d 65ce 1f3e
00000170: bc9b 6b3d 3d54 db3c 636b 583d e128 b13d
00000180: df58 cb3c 28f6 7d3c 4264 313d fa04 023d
00000190: 29a6 4e3d 5550 733c aeff e93c 573b 5c3c
000001a0: fbf3 133f 0647 b13d 14c0 e23e da85 423c
000001b0: 1c61 db3e 7fa8 ad3c 7b3f d43c df82 6d3f
000001c0: b180 8e3d bdaf 893e a0b2 553d 9f15 be3c
000001d0: 03c5 483d 2aa5 9a3d 6b39 ba3c 7c1a 5e3f
000001e0: ae42 5e3c f061 553f 4a63 f43b dc61 9c3d
69.59036 10595.119 6.0911593 5.631569 105.71521 3.39509 3.0897455 3.4582682
2.925926 1.5807382 438.14377 42.550976 565.2142 4.123465 0.11452399 1150.324
364.82535 4.956616 1520.106 0.42941365 0.052184165 1.5850585 0.37238035 2.9071937
1.0429507 3.5005164 6.5874743 0.15971701 0.6107067 1.8593525 1.7248963 1.7801641
478.18018 2.8206723 2.8187282 0.15852503 94.97868 50.459694 26.0648 3.7155044
14.326343 2.1913333 0.014400001 55.490707 39.88932 24.832333 31.160849 31.74284
3.00814 1.2105254 0.1008807 0.42788982 0.17230359 0.6744727 0.20598109 0.080612354
0.041133218 0.055092372 0.02919575 0.01998179 0.083350465 0.023607662 0.11321852 0.9553613
0.2369986 0.09762681 0.09360576 0.040679928 0.37368935 0.14270581 0.16798392 0.15661319
0.092170015 0.03547975 0.030028919 0.043059666 0.014929746 0.025626365 0.014249345 0.017024335
0.7873823 0.15693462 0.03621752 0.013678291 0.10391224 0.0364995 0.078635365 0.062529914
0.020251604 0.0088244965 0.035330523 0.15606077 0.057521567 0.026773566 0.052836787 0.08650375
0.02482265 0.015500583 0.043308504 0.031743027 0.05045143 0.014850696 0.0285643 0.013441882
0.5779416 0.08656125 0.4428717 0.011872733 0.42847526 0.02119851 0.025909176 0.9277782
0.0695814 0.2689189 0.052172303 0.02320367 0.04901601 0.07551034 0.022732457 0.8675916
0.013565702 0.83352566 0.0074581252 0.07635853

running_var f4 [124]
00000000: 3c17 f043 21ca d14c 5570 e33f e908 a13f
00000010: 3c6b e046 514b a43e fe24 ff3d 6584 433f
00000020: 3752 a03e 55df 843f 3d77 4348 6d06 b546
00000030: 4dc1 3f48 45f1 6e3f 8788 2b3e dc3a 0748
00000040: ee6b 4648 0496 f844 f97a 8448 6fc1 883e
00000050: 6b9e 4f3d 216a 9c3e cdc4 7c3e 9bd3 1a3f
00000060: 3ab5 393d cdcb d53e 88fb 2440 0054 e03e
00000070: e651 cc3e 7d43 5740 8a4d 4d3f 303c 0e3f
00000080: f762 2a47 4644 ff3e b45f fd3e d9a2 873e
00000090: 6023 7e46 60b7 a645 c7db 9145 8d9f 6a44
000000a0: 68d7 3445 a1de 9d44 bdaa 733d e36b 8648
000000b0: 735e 7744 abd3 cf43 3188 0b44 a6e2 7143
000000c0: 28be 3140 cde4 153f deb1 153e 3b7d ae3e
000000d0: c9d2 983e 10ca 5c3e 5dce 273e 5e07 973d
000000e0: 972b 363d 5b33 8a3d 5858 e73c c87c 9f3c
000000f0: a230 9b3d 77f8 be3c 1122 3f3e 1351 6d3d
00000100: 6a2b 853e c9e7 353e cd7a ac3d 91a6 203d
00000110: 26d2 6d3e 073d fa3d 5f8d 0f3e 484d 073e
00000120: 182b aa3d da32 0b3d d0a4 ed3c 8c13 293d
00000130: 18dd 703c 2d00 cf3c 3264 653c 54d4 893c
00000140: ce11 2d3e afa6 073e 4325 0f3d c1fa 5b3c
00000150: efa7 bf3d fbb0 0f3d 9001 963d 47a8 713d
00000160: 807d a03c 1f5e 0d3c 46e9 0c3d 23ae 073e
00000170: db80 603d 7b11 d63c ef7b 4f3d b1a2 a13d
00000180: c544 c63c 120f 793c 8cd8 283d 7eba fa3c
00000190: ab9e 423d 2fda 6f3c 9fd2 e53c dfaa 583c
000001a0: 3650 773e 2366 a33d d772 7e3e 161b 423c
000001b0: ba8a 7a3e e526 ac3c 8df0 d03c cc86 8a3d
000001c0: 8838 853d 8254 4b3e 4726 4c3d d43e b93c
000001d0: 5775 403d 5392 8e3d 9e0b b73c c529 ee3d
000001e0: 8259 583c 74ee 0c3e 5963 f03b f40b 903d
480.18152 1.0999015e+08 1.7768656 1.2580844 28725.617 0.32088712 0.124582276 0.76373893
0.31312725 1.0380656 200156.95 23171.213 196357.2 0.933369 0.167513 138475.44
203183.72 1988.688 271319.78 0.26710078 0.05068819 0.3054972 0.24684449 0.60479134
0.045338847 0.4175705 2.5778522 0.43814087 0.39906234 3.3634942 0.8019644 0.5556059
43618.965 0.49856776 0.49487078 0.2649143 16264.844 5334.922 4667.472 938.493
2893.463 1262.9572 0.059489 275295.1 989.47577 415.65366 558.128 241.88535
2.7772312 0.5855225 0.14618632 0.34079918 0.29848316 0.21561456 0.16387315 0.07374452
0.044475164 0.067480765 0.028240368 0.01946868 0.07577635 0.023311837 0.18665339 0.057938647
0.26009685 0.177642 0.0842186 0.03922135 0.23224697 0.12218671 0.14018773 0.13213074
0.08309001 0.033984043 0.029009253 0.041278407 0.01470115 0.025268639 0.014000939 0.016824879
0.16901323 0.13247178 0.034947645 0.013426484 0.09358203 0.03508089 0.07324517 0.058998372
0.019591093 0.008628397 0.034402154 0.13250022 0.054810386 0.026131382 0.0506553 0.07892359
0.024202714 0.015201347 0.04122214 0.030606505 0.0475146 0.014639421 0.028054534 0.013224333
0.24151692 0.079784654 0.24848495 0.011847278 0.24466982 0.02101464 0.025505329 0.06763992
0.06504923 0.19856456 0.04984119 0.022612967 0.046986904 0.06961503 0.022344407 0.11629061
0.013204934 0.13762838 0.007336062 0.0703353

weight f4 [34, 124]
00000000: c178 30bd 3a85 7c3d 62cb 133b 3163 ee3c
00000010: 70fc cbbc 908e 4ebc 3dff 5c3c 51d4 df3c
00000020: 01b3 a0bc 15ae 29bd c1f5 d0bc 148c 923c
00000030: 8887 d7bc e21e 24bc abae 783d 9f7e 463c
00000040: 38ff a63b 1641 a73c b70f 16bd cf5f 6c3d
00000050: 9995 033d 32dd 53bd 7cd0 9e3c 63e8 2e3c
00000060: 2835 52bd 40d9 82bd 7702 5fbc 9d90 28bd
00000070: e0f6 bebc 309b d7bc 681d d1bc 94ae b9bd
00000080: a759 79bd e757 d2bd 00de b4bd e957 bc3c
00000090: 7dd8 0ebd d10e d6bb d9e3 5f3d 36c8 35bb
000000a0: 2fed e1bc c10e 233d ea10 f53b 2d2e f63c
000000b0: 9f94 893d b85b b83c 5001 f4bc dc43 14bc
000000c0: 2963 1dbd 3b74 053d c62b f2bc 59c2 4f3d
000000d0: 501d 9e3c f942 a83c f05f 8c3c 77a4 aa3c
000000e0: 222e 313c 613b b13c c642 363d c8b9 78bc
000000f0: 3d9e a3bc 2552 7b3c 73f2 f83b e5c3 12be
00000100: abe4 883c 8023 e83b 3228 93bc f5b0 06bd
00000110: 48af 8a3c c944 393d 726f 363c 3d53 b6bc
00000120: 786c bf3c c65b 0b3d 3f2d 7b3d 8521 4a3c
00000130: 2406 edbc f601 203c 42b7 3b3c 790f 3e3d
00000140: 08e6 51bd df5e c43c 3156 423d 07f2 52bb
00000150: f82e 353d 7bb2 d93c 875d e73c 6b98 a6bc
00000160: c946 73bd 34f2 aabc cf19 193d cea5 503c
00000170: a949 2dbb d219 b73c e51d 883c acbd daba
00000180: 1b68 28bb 9d9b 94bc ba05 10bc cf73 1c3b
00000190: 8ae3 9f3c 1479 783a 6a57 b23c 11d8 043c
000001a0: d005 993a a203 78bc ea6c fd3a 2e90 e03b
000001b0: 85b8 87bb a4b1 a3bc ba2c 0fbc 7c6b 2ebd
000001c0: b85d 043d 42f5 e0bc 8586 c53d a125 e3bb
000001d0: ade2 bbbc 8e3f 083c 51ab 0e3c 8783 5a3c
000001e0: 192a 963c 9551 b6bc 76dd b13d 51cf c83b
000001f0: 4508 263d 5e22 9c3b f65b 7abd d9cd bbbd
00000200: b010 d7bc 1d8b adbd 8482 2dbd ca99 823c
00000210: bc11 cf3c 7b72 6ebb d5d7 08bd 8e78 3bbd
00000220: 7c0a 763b 84ed 2dbd 4b3d 5e3d b073 c83c
00000230: 1143 c33a 686a eabc 05c5 1fbd 16ec 2dbd
00000240: af1c 093d 022a 81bd 452d f0bc 0462 d63c
00000250: 23bb f63c 52b0 29bc ff9b 94bc 31b2 d13c
00000260: 6595 473c b9a3 4d3c b467 2bbd a1c0 1bbc
00000270: f3ce 813d ea3b 283d da23 0ebd 1e18 c13c
00000280: 02ad d0bb ae81 9f3c 5159 4f3c f1a0 a83c
00000290: c11b cdbc 76f7 21bd e1d6 d6ba 0be3 5b3c
000002a0: 6915 45b9 30e3 983d b87e af3d da49 f33c
000002b0: 67e4 07bd ab2e 13bd 1b17 ddbc c943 27bc
000002c0: 5a9e 4e3d 5156 34bd 803e df3c 1051 103d
000002d0: 5e3a 33bc 9313 9d3c 2e31 043b e45a b7bc
000002e0: 49eb 3abd fd09 953c f57c 5abc 6c2f b2bc
000002f0: ba2c 113d dcc1 c93b b257 0bbd 0724 1cbc
00000300: e17a 10bd 042d 30bd e976 a13b 138f 843d
00000310: b621 7d3c efb4 e1bc 1c30 6cbd 1754 c43c
00000320: 540f 2fbc bc11 763d 3ad5 ef3c 95ac 9a3c
00000330: aedb ad3c 78a8 10bd 2a22 8fbc 2ee8 cabc
00000340: 6ac1 713b 0946 463c 384a 143d c321 b9bc
00000350: 2df3 12bc 1127 c73b 412f bc3c 7539 da39
00000360: ce5c c73c 0bd6 33bc 9005 1fbc d151 1a3d
00000370: dcbd c9bb 3f02 9b3c 4fa0 1d3d b572 e43c
00000380: 6b10 4f3b 8303 29bc 7f99 92bc 9c64 493d
00000390: a325 1dbd dab7 09bc 7b5f 7b3d a0c7 263d
000003a0: 8619 4cbd f7dd fe3c 014a 36bd 84f0 6dbd
000003b0: 0981 e6bc f2bf 2ebd f453 e43c 94e6 933d
000003c0: c472 0b3b 935d 3abb 4a12 51bd 85d1 82bc
000003d0: 00ac 723d 9d34 3f3b f03c 07bb 8a96 babc
000003e0: a3d4 1fbc ff4b 8bbc d990 29bd 0937 9dbc
000003f0: 454a e1bc 6723 09bd 846f 103c f8d9 9ebd
-0.04308391 0.061650492 0.0022551646 0.029100033 -0.024900645 -0.012607232 0.013488588 0.02732292
-0.019616606 -0.041425783 -0.02550781 0.01788906 -0.026309744 -0.010017129 0.06071345 0.01211515
0.0050963424 0.020416778 -0.03663608 0.057708558 0.03212509 -0.05172462 0.019386522 0.0106755225
-0.051320225 -0.063890934 -0.0136114275 -0.04115354 -0.023311079 -0.026319116 -0.025526717 -0.09066501
-0.060876515 -0.10270672 -0.08831406 0.022991138 -0.034874428 -0.006532528 0.05466065 -0.0027737743
-0.027578918 0.039808992 0.007478823 0.030051315 0.067178 0.022504672 -0.029785782 -0.009049382
-0.038424645 0.03258155 -0.029561888 0.050722454 0.019301087 0.020539748 0.01713559 0.020830376
0.010814222 0.02163476 0.044497274 -0.015181012 -0.019972915 0.015339409 0.0075972616 -0.1433254
0.0167106 0.00708431 -0.017963503 -0.032883603 0.016929284 0.045231614 0.011134969 -0.022256488
0.023367152 0.03402307 0.061322447 0.012337093 -0.028933592 0.0097660925 0.011457266 0.046401475
-0.051244766 0.02397102 0.04744548 -0.0032187717 0.044234246 0.026574364 0.02824284 -0.02033635
-0.059393678 -0.020867445 0.03737813 0.012734843 -0.002644161 0.02235118 0.016615817 -0.0016688607
-0.0025696817 -0.018140608 -0.008790428 0.0023872738 0.019517679 0.0009478491 0.021770198 0.008108155
0.0011674706 -0.015137585 0.0019334827 0.006853125 -0.0041418695 -0.019982167 -0.008738691 -0.042582974
0.03231594 -0.027460698 0.09644798 -0.006931976 -0.022935236 0.008315934 0.008707837 0.013337023
0.01833062 -0.022255698 0.086848184 0.0061282297 0.04053523 0.004764839 -0.061122857 -0.09170122
-0.026253074 -0.084737994 -0.042360798 0.015942473 0.025277011 -0.0036384154 -0.03340896 -0.045769267
0.003754287 -0.04246284 0.054257672 0.024469227 0.0014897307 -0.028615192 -0.03900625 -0.042461477
0.03347462 -0.063068405 -0.029318461 0.026169784 0.03011853 -0.010356979 -0.018140791 0.025597664
0.0121816145 0.012551242 -0.041846946 -0.0095063755 0.063383006 0.041072764 -0.03470216 0.02357107
-0.0063682804 0.019471016 0.012655572 0.020584555 -0.025037648 -0.039542638 -0.0016390943 0.0134208305
-0.0001879536 0.074652076 0.085690916 0.029698301 -0.033176806 -0.035933178 -0.026988557 -0.010209032
0.050443985 -0.04402763 0.027251482 0.035233557 -0.010939209 0.019174373 0.0020170915 -0.022382207
-0.04563454 0.01819324 -0.013335456 -0.021751128 0.035443045 0.006157143 -0.03401918 -0.009530074
-0.035273436 -0.04301168 0.0049275053 0.06472602 0.015449932 -0.027552096 -0.05766307 0.023965878
-0.010684807 0.060075507 0.029276479 0.018881122 0.021222916 -0.035316914 -0.017472345 -0.024768915
0.0036888965 0.012101659 0.036203593 -0.022599107 -0.00896911 0.006077655 0.022971751 0.0004162301
0.024336245 -0.010976325 -0.009705916 0.037675682 -0.006156666 0.01892197 0.03848296 0.027886728
0.003159548 -0.010315779 -0.017895458 0.049168214 -0.03836597 -0.00840565 0.061370354 0.04071772
-0.04982903 0.0311117 -0.04450417 -0.0580907 -0.0281377 -0.042663522 0.027872063 0.07221714
0.0021278122 -0.0028437122 -0.051042832 -0.015969047 0.059246063 0.0029175647 -0.0020635687 -0.02277686
-0.009755286 -0.017004011 -0.041397903 -0.019191282 -0.027501235 -0.033481028 0.00881565 -0.07756418

bias f4 [34]
00000000: 19bd 3dbd bdfc 08bd 82c2 cabc cd64 88bc
00000010: ed2c 58bd 6e97 bebc fad7 8abc 1373 01bd
00000020: 1127 a3bc 949c 29bd 803a 683b b0b2 18bc
00000030: aef9 50bc 53d9 12bd f8aa 99bc fd86 0fbd
00000040: 8210 debb a33c 71bc 2682 84bd 1311 2ebd
00000050: 575b eabc 6349 9cbc 207c 04bd d2b8 01bd
00000060: 52d0 2abc 75ba d1bc 0e37 57bd 7253 47bd
00000070: d7ca c9bc f7df a1bc b30f 22bd 0fe2 3cbd
00000080: 56f1 2ebc 2aa5 35bc
-0.046322916 -0.033444155 -0.024750952 -0.016649628 -0.05277722 -0.023265567 -0.016948689 -0.031603884
-0.01991609 -0.04140909 0.003543526 -0.009319946 -0.012754841 -0.035851788 -0.018758282 -0.035040844
-0.00677687 -0.01472393 -0.06470136 -0.042496752 -0.028608007 -0.019077962 -0.032344937 -0.0316704
-0.010425644 -0.025601605 -0.05254274 -0.048663564 -0.024632854 -0.019760115 -0.039565753 -0.046114024
-0.010677656 -0.011086741

weight f4 [34]
00000000: 0b34 213e bd29 b93d ce35 3a3e 1759 b43d
00000010: d3f7 123e a938 9f3d 877e ac3d 3a66 903d
00000020: 5d7b 9e3d 9b0a 553d 9d69 cf3d 2722 d93d
00000030: bf1b b43d ce71 aa3d 072d f13d 8288 233e
00000040: 2c19 da3d bf8a 013e a025 383d 7527 283e
00000050: 41b1 d53d 17df 1c3e ed63 a83d 9363 6e3d
00000060: 039a cf3d 4eb4 e33d bd33 193e fa3f 273e
00000070: b7db e93d 45df 043e ca8a 303d 9b71 ba3d
00000080: 1d1c 923d 415b b43d
0.15742509 0.09041164 0.18184587 0.08806055 0.1435235 0.07774479 0.08422571 0.07050748
0.077383734 0.052012067 0.10127566 0.10602217 0.08794355 0.08322488 0.117761664 0.15970042
0.106493324 0.12650584 0.044957757 0.16421302 0.10434199 0.15319477 0.08222184 0.05820043
0.10136797 0.11118375 0.14961143 0.16332999 0.114188604 0.12975796 0.04310111 0.091037
0.071342684 0.08806468

bias f4 [34]
00000000: fa5f fe3e 310f 05bf f24c 043f c25b fb3e
00000010: 7903 0d3f f850 023f 7aa1 fa3e 2a96 15bf
00000020: d70c 0c3f 24da 05bf 932e 09bf a1bb ffbe
00000030: b391 0c3f 11ac fd3e 4d59 f83e 81a8 21bf
00000040: 1c68 0d3f 9024 f9be 014f 09bf 3712 10bf
00000050: 6b95 113f 4884 1dbf 631e 093f 6964 083f
00000060: 8e77 18bf 41d0 09bf c328 01bf a474 02bf
00000070: 7c94 093f 5161 00bf bd43 05bf a3be 1a3f
00000080: 0553 083f 428b fbbe
0.496826 -0.51976305 0.5167991 0.49093443 0.55083424 0.509048 0.48951322 -0.5843226
0.5470709 -0.5228598 -0.5358669 -0.49947837 0.5490982 0.4954534 0.4850563 -0.6314774
0.55236983 -0.48660707 -0.53636175 -0.56277794 0.5686862 -0.6152997 0.5356199 0.53278214
-0.59557426 -0.53833395 -0.5045282 -0.5095923 0.53742194 -0.50148493 -0.52056485 0.6044714
0.5325168 -0.49129683

running_mean f4 [34]
00000000: 7923 f7bb 6e44 39bc b0cf 033c 16a3 0e3a
00000010: df2a 47bc 1377 03bc 1224 1bbb fcec 1cbc
00000020: b7bf 0bbc 741c 7bbc 1937 163c 3add 3abb
00000030: 146a 9dbb e2f8 06bc 0e2f d8ba 1bd9 07bc
00000040: 0763 cf3b 52a7 823a 4ba0 cbbc 3d23 29bc
00000050: 8a36 b1bb dc36 f3ba 7163 bcbb c3d1 32bc
00000060: bca3 e7ba c9c5 1abc 9ac3 31bc 1d28 48bc
00000070: 000b 81ba 42f3 0ebb 3b72 75bc 3826 76bc
00000080: 8dbe 4abb 7963 cfba
-0.0075420705 -0.011307819 0.008045122 0.0005441172 -0.012156217 -0.008023995 -0.0023672623 -0.009577986
-0.008529595 -0.015326608 0.00916841 -0.002851321 -0.0048039053 -0.008238049 -0.0016493516 -0.008291508
0.0063289437 0.0009968078 -0.024856707 -0.010323343 -0.005408113 -0.0018555778 -0.005749159 -0.010914269
-0.0017672698 -0.00944657 -0.010849858 -0.012216595 -0.0009845197 -0.0021812473 -0.014980848 -0.0150237605
-0.003093633 -0.0015822492

running_var f4 [34]
00000000: 5614 053d 4198 a53b 3bed 123d b816 b73b
00000010: 4b90 cc3c 5988 b83b fc46 183c c6c7 6e3b
00000020: 43c0 c53b 55ed 623b e31e 623c c8ff 2a3c
00000030: 51bf e13b 6ed2 9d3b 8f64 6f3c d274 893c
00000040: 618d 653c f1d7 653c d043 6f3b bd9d 873c
00000050: 0fe9 ce3b f9bc 663c a508 b83b a1c3 6b3b
00000060: f648 e73b 9f56 0a3c fa60 953c 4822 913c
00000070: 4311 9f3c 0a33 6b3c 7a88 363b 8427 433c
00000080: 3de5 a03b 4486 ce3b
0.032490097 0.0050535505 0.03587077 0.005587425 0.024971148 0.0056314883 0.009294268 0.0036434992
0.0060348823 0.0034626324 0.013801309 0.01043696 0.006889262 0.004816345 0.014611377 0.016779337
0.014010758 0.014028535 0.0036508925 0.016554708 0.006314404 0.0140831405 0.005616265 0.0035974758
0.007058258 0.008443504 0.018234719 0.017716542 0.01941741 0.01435543 0.0027852342 0.011911277
0.00491014 0.006302627

weight f4 [1, 34]
00000000: 693a 253f c5af 23bf a4d5 1f3f 2a43 2b3f
00000010: 0d8e 1b3f ae2e 243f 07a5 2a3f 4a6b 1bbf
00000020: 4baa 1d3f 9d34 24bf 1d41 20bf e1a7 27bf
00000030: 74a0 1e3f b490 2b3f 7bbc 2b3f d80e 13bf
00000040: c808 1d3f 2a0a 2bbf 3479 21bf d1af 1abf
00000050: 6a3a 1c3f 162a 13bf 5178 223f 8551 223f
00000060: 9527 18bf a942 20bf 4a6e 24bf 3780 23bf
00000070: eb75 1f3f 7316 25bf 87c4 25bf fa5f 163f
00000080: e6c0 213f 961b 2bbf
0.6454225 -0.6394008 0.62435365 0.6689936 0.6076363 0.6413373 0.6665806 -0.60710585
0.6158797 -0.6414278 -0.62599355 -0.6549054 0.6196358 0.67017674 0.67084473 -0.57444525
0.61341524 -0.66812384 -0.63075566 -0.60424525 0.6102663 -0.57486093 0.6346484 0.6340564
-0.594354 -0.62601715 -0.6423079 -0.63867515 0.62289304 -0.6448738 -0.64753 0.587402
0.63184965 -0.6683897
