mlruns/528961946943719398/models/m-4d898d0aff51462284dc86ae3c3da5bd/artifacts/data/model.pth (torch, 53009 bytes, 11 tensors)

weight f4 [124]
0.9555167 0.94119424 0.97134155 0.9384121 0.94512314 1.0034044 0.99047214 0.99933034
0.98553383 1.0098695 0.96933013 0.97295445 0.9920537 0.98235977 0.96370906 0.9792383
0.98692805 0.9618391 1.0048988 0.97627413 0.95094275 0.9794775 0.97031975 0.9790134
1.0054221 0.9851484 1.0157381 0.964894 0.9921866 0.96363586 1.0101174 1.0006119
0.9899337 0.9977949 1.0164851 0.98223656 0.9436111 0.9387839 0.9502801 1.0129791
0.9500939 0.9680709 0.9973974 0.9448663 1.0094228 0.96655923 1.0056152 0.95655096
0.9172422 0.9582043 1.0034156 0.95360047 0.9743523 0.9738827 0.95158297 0.9325415
0.9680311 0.9776231 0.97100943 0.9461175 0.99243456 0.9713548 0.96343493 0.9637758
0.9325808 0.9468209 0.94628805 0.93289596 1.0381378 0.9389271 0.9454309 0.94341165
0.982617 0.9953724 0.9451005 0.94022626 0.9807154 0.988068 0.96051973 0.9827244
0.99295074 0.992049 0.92744267 0.9756403 1.0054271 0.98151475 0.9614476 1.0237203
0.9873193 1.0149859 0.95856416 0.97180265 0.9838565 1.0133977 1.0035901 0.98588616
0.9878744 0.9690594 0.9664568 0.9450789 1.0046474 0.9939074 0.9801856 0.9921952
0.9404074 1.0026814 0.9817986 1.0122235 0.9421487 1.0002193 0.9720668 0.96642303
0.96433645 0.9745816 0.970281 0.93169093 0.99063 1.0120735 0.96950567 0.9705249
0.9652754 0.9648608 0.97777134 0.9852181
00000000: be9c 743f 1bf2 703f d7a9 783f c63b 703f
00000010: 97f3 713f 8e6f 803f 958f 7d3f 1dd4 7f3f
00000020: f24b 7c3f 6743 813f 0526 783f 8b13 793f
00000030: 3bf7 7d3f ee7b 7b3f a3b5 763f 5caf 7a3f
00000040: 51a7 7c3f 163b 763f 86a0 803f 1aed 793f
00000050: fc70 733f 0abf 7a3f e066 783f 9fa0 7a3f
00000060: acb1 803f af32 7c3f b503 823f 4b03 773f
00000070: f1ff 7d3f d7b0 763f 874b 813f 0d14 803f
00000080: 4c6c 7d3f 7d6f 7f3f 2f1c 823f db73 7b3f
00000090: 7f90 713f 2454 703f 8e45 733f 4da9 813f
000000a0: 5b39 733f 7fd3 773f 7055 7f3f c2e2 713f
000000b0: c434 813f 6d70 773f 00b8 803f 86e0 743f
000000c0: 63d0 6a3f e14c 753f ec6f 803f 291f 743f
000000d0: 276f 793f 6050 793f f19a 733f 0abb 6e3f
000000e0: e3d0 773f 8245 7a3f 1394 783f c234 723f
000000f0: 3110 7e3f b5aa 783f aca3 763f 03ba 763f
00000100: 9ebd 6e3f db62 723f ef3f 723f 45d2 6e3f
00000110: b3e1 843f 875d 703f c207 723f 6d83 713f
00000120: ca8c 7b3f bad0 7e3f 1bf2 713f abb2 703f
00000130: 2a10 7b3f 06f2 7c3f 9fe4 753f d493 7b3f
00000140: 0532 7e3f ecf6 7d3f e26c 6d3f 90c3 793f
00000150: d6b1 803f 8d44 7b3f 6e21 763f 4409 833f
00000160: f5c0 7c3f 0feb 813f 7664 753f 0fc8 783f
00000170: 05de 7b3f 04b7 813f a475 803f 0963 7c3f
00000180: 56e5 7c3f 4714 783f b669 773f b1f0 713f
00000190: 4998 803f b770 7e3f 72ed 7a3f 8100 7e3f
000001a0: 8abe 703f dd57 803f 2757 7b3f 8a90 813f
000001b0: a830 713f 3007 803f 5fd9 783f 8067 773f
000001c0: c1de 763f 2e7e 793f 5664 783f 4c83 6e3f
000001d0: ed99 7d3f a08b 813f 8631 783f 5274 783f
000001e0: 4a1c 773f 1e01 773f 394f 7a3f 4137 7c3f

bias f4 [124]
-0.019839516 0.14743859 -0.034210056 0.033612214 -0.04203043 0.0029759903 0.024285391 0.0645482
-0.085995056 0.035102166 -0.07192525 -0.04210146 -0.034467164 -0.04704971 -0.060625352 -0.06564658
-0.06137285 0.02885671 -0.07142202 -0.10509424 -0.005656078 -0.022124104 -0.033067234 0.009860094
0.017453395 -0.04856644 -0.044297233 0.044116575 0.07085499 -0.027777499 0.019021932 0.030146752
-0.07421285 0.025616009 -0.03782907 0.013881841 0.03398989 -0.04653886 0.0038170377 -0.013336139
-0.051409118 -0.02846108 0.04515326 -0.0009440152 0.019933939 0.0025107344 0.071231075 0.080335766
-0.069260396 -0.04525707 0.01373978 -0.07621928 -0.03794455 0.06957791 -0.019337723 0.001704042
-0.02654277 -0.054085996 0.070288174 0.030376056 0.0016734956 0.0350398 0.088156536 0.08690787
0.0065386454 0.02323163 -0.0016414518 0.0143520115 0.13432272 0.10427762 0.05002724 0.12207721
-0.0024125203 0.010950843 0.02031714 0.072020724 0.016640253 -0.05290842 0.030940155 -0.0064542405
0.049714264 -0.018978186 -0.043044962 -0.055151273 -0.0014132423 -0.01302621 -0.04380355 -0.06874172
-0.06779312 -0.056650855 0.04923953 0.09383812 0.0832435 -0.01570117 -0.07960742 0.02043438
-0.021212803 0.08930876 0.0018926292 -0.07577699 0.03127016 0.07977155 0.08928703 -0.047216535
0.117581874 -0.01953239 0.09339787 -0.0677058 -0.016257113 -0.0042514256 0.06238398 -0.00026780803
0.056616038 -0.016569229 -0.012805594 -0.018343585 -0.05570694 -0.089467295 0.087768316 -0.042936534
-0.05603442 0.018075898 -0.005979782 -0.022999147
00000000: 7b86 a2bc 24fa 163e d81f 0cbd f6ac 093d
00000010: 1a28 2cbd d508 433b 28f2 c63c d931 843d
00000020: 2d1e b0bd 4ac7 0f3d 8c4d 93bd 9572 2cbd
00000030: 712d 0dbd 32b7 40bd 4a52 78bd b771 86bd
00000040: 1962 7bbd e864 ec3c b545 92bd a63b d7bd
00000050: 9f56 b9bb 9c3d b5bc 8271 07bd 3b8c 213c
00000060: 6cfa 8e3c 9aed 46bd 0471 35bd 95b3 343d
00000070: 6c1c 913d a38d e3bc e2d3 9b3c 52f6 f63c
00000080: e8fc 97bd aad8 d13c a8f2 1abd a970 633c
00000090: fc38 0b3d 889f 3ebd 4427 7a3b d27f 5abc
000000a0: 5e92 52bd 3627 e9bc a0f2 383d ca77 77ba
000000b0: 804c a33c 228b 243b 99e1 913d 1487 a43d
000000c0: 65d8 8dbd 7a5f 39bd d01c 613c db18 9cbd
000000d0: bf6b 1bbd dd7e 8e3d 256a 9ebc 295a df3a
000000e0: 3970 d9bc 4789 5dbd 3ff3 8f3d 35d7 f83c
000000f0: 3259 db3a e585 0f3d 6a8b b43d c1fc b13d
00000100: 2242 d63b 4250 be3c fc25 d7ba b324 6b3c
00000110: e58b 093e 818f d53d 5de9 4c3d 9e03 fa3d
00000120: 601b 1ebb 2a6b 333c 2170 a63c 9a7f 933d
00000130: 2451 883c 80b6 58bd 3576 fd3c 187e d3bb
00000140: 2fa1 4b3d 2478 9bbc ea4f 30bd 4de6 61bd
00000150: 8b3c b9ba e26b 55bc 5a6b 33bd 75c8 8cbd
00000160: 1fd7 8abd ba0a 68bd 64af 493d 332e c03d
00000170: 917b aa3d bd9f 80bc 3709 a3bd 0066 a73c
00000180: 79c6 adbc 83e7 b63d 1912 f83a f730 9bbd
00000190: 2415 003d 445f a33d 1edc b63d 2066 41bd
000001a0: c4ce f03d 6402 a0bc 6247 bf3d 57a9 8abd
000001b0: a32d 85bc 8b4f 8bbb 5886 7f3d 9668 8cb9
000001c0: 38e6 673d 31bc 87bc 8ece 51bc 4945 96bc
000001d0: f62c 64bd a13a b7bd e0bf b33d 38de 2fbd
000001e0: 5984 65bd e813 943c 0cf2 c3bb b568 bcbc

running_mean f4 [124]
69.69224 10572.931 6.113175 5.583405 102.07217 3.3936837 3.0872946 3.486089
2.9350235 1.6147702 444.84564 45.325367 568.39246 4.1219254 0.111903824 1165.9215
353.72925 5.3469186 1524.9978 0.42738742 0.056081917 1.5788928 0.38164395 2.8885787
1.0485523 3.5021546 6.55258 0.15832828 0.61188656 1.8280221 1.7179519 1.7780113
474.55386 2.817036 2.8154194 0.1478346 96.09095 49.439667 21.797441 3.5898814
15.704934 3.1748915 0.019484494 48.876247 39.142292 25.18692 31.3981 31.866352
3.0349154 1.2234071 0.09016373 0.4158107 0.1633113 0.70230323 0.1917619 0.07057474
0.038476918 0.058109336 0.033789087 0.020466652 0.09174422 0.020024523 0.11075824 0.9516907
0.23403 0.08992853 0.091694236 0.03898803 0.36310768 0.14751473 0.15744877 0.16022225
0.10236402 0.04004593 0.034350775 0.035511076 0.017267114 0.02315984 0.01684225 0.016659169
0.78794163 0.14854626 0.039796095 0.017230464 0.09781666 0.036720622 0.0761604 0.055146854
0.022179805 0.009192977 0.03333925 0.15455061 0.052926615 0.02792574 0.052671038 0.07772364
0.029734602 0.01737858 0.050195295 0.037874088 0.059794106 0.017510505 0.023751035 0.016512819
0.6009329 0.09118054 0.43039545 0.006694331 0.44526228 0.018593883 0.025238922 0.92808014
0.06336424 0.26462185 0.05483842 0.02443523 0.039711162 0.08076961 0.020966504 0.86701316
0.015239992 0.82810324 0.009364126 0.08152989
00000000: 6d62 8b42 b933 2546 219f c340 41ab b240
00000010: f324 cc42 1d32 5940 3c96 4540 151c 5f40
00000020: 6dd7 3b40 cab0 ce3f 3e6c de43 2d4d 3542
00000030: 1e19 0e44 d0e6 8340 d52d e53d 7dbd 9144
00000040: 58dd b043 f519 ab40 ee9f be44 86d2 da3e
00000050: 27b6 653d 2919 ca3f d666 c33e 79de 3840
00000060: f636 863f 4d23 6040 bcae d140 cf20 223e
00000070: 99a4 1c3f a1fc e93f d9e5 db3f e095 e33f
00000080: e546 ed43 514a 3440 d52f 3440 f461 173e
00000090: 912e c042 38c2 4542 2961 ae41 9ec0 6540
000000a0: 6947 7b41 6c31 4b40 f29d 9f3c 4781 4342
000000b0: b591 1c42 d07e c941 4f2f fb41 4aee fe41
000000c0: 0e3c 4240 9b98 9c3f c3a7 b83d 24e5 d43e
000000d0: 143b 273e 25ca 333f 3b5d 443e 7d89 903d
000000e0: f999 1d3d 0e04 6e3d 6d66 0a3d aea9 a73c
000000f0: 65e4 bb3d 780a a43c 37d5 e23d 00a2 733f
00000100: 8fa5 6f3e 732c b83d 30ca bb3d eab1 1f3d
00000110: 40e9 b93e 1a0e 173e 403a 213e 4d11 243e
00000120: 3aa4 d13d 3307 243d 66b3 0c3d 1074 113d
00000130: c373 8d3c b4b9 bd3c c2f8 893c cf78 883c
00000140: 8bb6 493f 831c 183e 3b01 233d e726 8d3c
00000150: 1a54 c83d 5d68 163d fcf9 9b3d abe1 613d
00000160: 6cb2 b53c 249e 163c bd8e 083d 8442 1e3e
00000170: 94c9 583d 86c4 e43c 96bd 573d 922d 9f3d
00000180: fb95 f33c 865d 8e3c 9599 4d3d dc21 1b3d
00000190: aaea 743d 3172 8f3c 8891 c23c e445 873c
000001a0: bdd6 193f ddbc ba3d cb5c dc3e 1e5c db3b
000001b0: 6bf9 e33e 3352 983c dbc1 ce3c a996 6d3f
000001c0: 1cc5 813d 847c 873e 409e 603d 642c c83c
000001d0: 2ca8 223d 8a6a a53d f2c1 ab3c 93f4 5d3f
000001e0: 29b1 793c 93fe 533f fe6b 193c 25f9 a63d

running_var f4 [124]
493.69894 1.0420135e+08 1.8718882 1.2526227 30266.695 0.328297 0.13166583 0.759969
0.30308047 1.1103781 206969.8 25210.588 197731.33 0.94227284 0.1581027 146227.69
192839.62 2129.2366 270217.56 0.27168304 0.054445185 0.2975074 0.24999139 0.6650982
0.05086146 0.43742305 2.619765 0.4323472 0.41058594 3.2771866 0.7983831 0.5433424
43957.55 0.52142596 0.51743174 0.25286976 16861.564 4719.748 3814.4226 930.9172
3168.3716 1927.7145 0.07844435 281838.88 948.5154 431.08252 583.79895 249.23218
2.7544146 0.60498595 0.13292903 0.34091794 0.27579477 0.20939961 0.15540743 0.0655966
0.043330837 0.07017653 0.032668944 0.020069525 0.08336752 0.01964604 0.18682063 0.05905285
0.26640332 0.16330831 0.08340723 0.037512813 0.23103647 0.12573162 0.13247366 0.13461268
0.09204651 0.03852075 0.033238757 0.03426303 0.016955204 0.022636402 0.01658009 0.016394299
0.16699684 0.1263847 0.03824525 0.016935408 0.08826376 0.035351947 0.07044385 0.0521959
0.021658124 0.009122692 0.032225326 0.1309245 0.050024286 0.027112506 0.050015587 0.07178156
0.028813666 0.017092321 0.047668934 0.036563203 0.056351893 0.017212313 0.023213737 0.016259791
0.23981433 0.08282033 0.24539609 0.00666132 0.24715407 0.018177712 0.024544774 0.06686772
0.059448086 0.19505326 0.05184142 0.023868894 0.038242437 0.074281774 0.020560548 0.11542648
0.015016645 0.14252383 0.00929353 0.07491201
00000000: 77d9 f643 91bf c64c 089a ef3f f155 a03f
00000010: 6475 ec46 8b16 a83e 68d3 063e 548d 423f
00000020: 5d2d 9b3e df20 8e3f 731e 4a48 2df5 c446
00000030: d518 4148 cb38 713f ade5 213e eccc 0e48
00000040: e851 3c48 c913 0545 32f1 8348 0a1a 8b3e
00000050: ea01 5f3d e452 983e befd 7f3e e043 2a3f
00000060: 1b54 503d eaf5 df3e 3baa 2740 9d5c dd3e
00000070: 5238 d23e 6dbd 5140 d662 4c3f 7d18 0b3f
00000080: 8db5 2b47 2c7c 053f 6876 043f 2578 813e
00000090: 21bb 8346 fc7d 9345 c366 6e45 b3ba 6844
000000a0: f205 4645 ddf6 f044 6ea7 a03d dc9d 8948
000000b0: fc20 6d44 908a d743 22f3 1144 703b 7943
000000c0: 5448 3040 5ce0 1a3f 8c1e 083e cc8c ae3e
000000d0: f934 8d3e da6c 563e 2023 1f3e 8357 863d
000000e0: ad7b 313d b6b8 8f3d dfcf 053d d868 a43c
000000f0: 97bc aa3d bbf0 a03c e84d 3f3e 67e1 713d
00000100: 0466 883e 4b3a 273e 69d1 aa3d 09a7 193d
00000110: d394 6c3e cabf 003e 2da7 073e e8d7 093e
00000120: e182 bc3d efc7 1d3d 5d25 083d 6457 0c3d
00000130: a4e5 8a3c fa6f b93c f8d2 873c 564d 863c
00000140: 3801 2b3e fe6a 013e 0da7 1c3d 20bc 8a3c
00000150: a1c3 b43d 34cd 103d dd44 903d 5ecb 553d
00000160: 616c b13c 5877 153c b4fe 033d 1211 063e
00000170: 44e6 4c3d 0c1b de3c 25dd 4c3d 3602 933d
00000180: a30a ec3c 3205 8c3c 8040 433d 4cc3 153d
00000190: 3ed1 663d d600 8d3c bc2a be3c 4133 853c
000001a0: e391 753e b59d a93d 1d49 7b3e 3447 da3b
000001b0: f515 7d3e 6de9 943c 1f12 c93c f1f1 883d
000001c0: d67f 733d 0bbc 473e ab57 543d b388 c33c
000001d0: 1aa4 1c3d 0b21 983d 986e a83c b864 ec3d
000001e0: 6008 763c c4f1 113e e443 183c 786b 993d

weight f4 [79, 124]
0.0763636 0.021704745 -0.07010705 0.077176325 -0.033455223 0.08493627 0.08329585 0.047152445
0.060228907 -0.016682563 0.07184474 0.095477305 -0.04622204 0.06813578 0.084209256 0.09324813
0.091516905 -0.025294326 0.02389928 -0.025195954 -0.032974888 0.016224802 0.016610118 0.041145943
0.045394924 -0.033028286 0.006420695 0.08358197 0.092314236 0.047583077 -0.0713625 -0.066393025
0.045248363 0.0384009 0.080291726 0.04776123 0.12137601 -0.06433841 -0.075096205 0.056159098
0.029646287 -0.027694097 0.09672293 0.041975543 0.090106875 0.06052708 0.052530516 -0.022939648
0.04530212 0.059641726 0.04474627 0.006667705 0.07818208 0.07150322 -0.0330371 0.025577368
0.019416505 -0.058354273 0.0015075187 -0.008686925 -0.02636135 0.02243828 0.0510176 0.050091855
0.0042106025 -0.012023605 -0.05693067 -0.027018126 0.0053859353 -0.064537354 -0.003856396 0.028195387
0.04290908 -0.015140162 -0.019057509 0.090955436 0.06072838 -0.04654452 0.0007525583 0.008724126
-0.063080534 -0.069242924 0.07703261 -0.045262232 -0.06799999 -0.0747705 0.03162462 0.07365635
-0.054475203 0.0027543122 -0.024320874 -0.06590175 -0.011381263 0.040490028 0.06862238 8.189786e-05
-0.042350892 -0.0047207163 -0.014236476 -0.09678179 0.019642886 0.041684266 -0.077786036 -0.008345851
-0.024740962 -0.058335662 -0.079714246 -0.049229447 -0.072185665 -0.05273806 -0.06408341 -0.029086236
0.033961162 0.016633386 -0.06565266 0.06321887 0.0071741417 0.07260949 0.08682263 -0.042268902
0.05230438 -0.068036295 -0.03425381 -0.05570948 0.050124835 0.036353834 0.03696818 0.07846339
-0.033245467 0.0286824 0.077086106 -0.021414721 -0.023836052 -0.00854732 -0.06822172 0.024313675
0.02554211 0.010742985 0.04850677 -0.051268384 0.040906157 -0.0072338 0.010573714 0.054781657
0.092743635 0.039774533 0.0423506 0.026578156 -0.03870214 0.02261288 0.09366308 -0.025340779
-0.02866096 0.116970815 0.07982683 0.062334727 0.051284675 -0.0031466947 0.0883366 -0.05730751
0.044756163 0.07474754 0.0652456 -0.04087073 0.08532153 0.042279884 -0.009275011 0.022525182
-0.020696802 -0.02147634 -0.015766125 0.04736286 0.08602537 -0.060198653 0.01849652 0.02560995
0.08488477 -0.02293824 -0.026816672 0.016860832 -0.05384419 -0.063738726 0.014284507 0.057688795
-0.022349402 0.04070357 0.0117358705 0.05175944 0.046468426 -0.010699297 0.077955395 0.01368693
-0.08668823 0.03729481 -0.06497495 0.10776608 -0.08405764 -0.048575528 -0.05720077 0.05083929
0.07122851 -0.011019391 -0.0027087224 0.07493645 0.03130188 0.03017789 0.08099492 -0.061045557
-0.083404526 0.010105888 0.024449185 0.04352252 -0.017020311 0.0023652993 0.005647832 -0.03460697
-0.03732454 -0.0028015545 -0.012718889 -0.0841662 -0.043472253 -0.057788704 -0.10488608 -0.046403814
-0.04168832 -0.021585055 -0.05492886 -0.021982178 0.010795448 0.025342511 -0.078228995 -0.08285429
0.0700479 0.054734044 -0.08388823 0.045797028 0.070975706 0.0695477 -0.013729603 0.013393463
-0.1004346 -0.054262318 0.03964533 0.078127354 0.06316778 0.0058752233 0.075213775 0.027252449
0.023785101 0.0377083 -0.07468837 -0.075300835 0.023198528 -0.012130403 -0.007912843 -0.022022063
00000000: 8564 9c3d 26ce b13c 4994 8fbd 9f0e 9e3d
00000010: 5808 09bd 11f3 ad3d 0497 aa3d ec22 413d
00000020: 96b2 763d dfa9 88bc 5623 933d 9b89 c33d
00000030: 5253 3dbd c68a 8b3d e775 ac3d e0f8 be3d
00000040: 376d bb3d 0c36 cfbc 6cc8 c33c bf67 cebc
00000050: ad10 07bd e0e9 843c f111 883c a688 283d
00000060: 07f0 393d ab48 07bd b264 d23b 062d ab3d
00000070: 3f0f bd3d 79e6 423d 8126 92bd 11f9 87bd
00000080: 5956 393d 434a 1d3d fd6f a43d 48a1 433d
00000090: fc93 f83d dbc3 83bd 0acc 99bd 1507 663d
000000a0: c5dc f23c bbde e2bc ac16 c63d 8cee 2b3d
000000b0: f489 b83d 3eeb 773d 3d2a 573d eeeb bbbc
000000c0: b78e 393d e24a 743d dd47 373d c37c da3b
000000d0: ed1d a03d 4870 923d e951 07bd a187 d13c
000000e0: 5d0f 9f3c e404 6fbd ef97 c53a 9b53 0ebc
000000f0: c2f3 d7bc 7cd0 b73c d5f7 503d 1e2d 4d3d
00000100: 18f9 893b a8fe 44bc 2230 69bd 1e55 ddbc
00000110: 807c b03b 292c 84bd 97bb 7cbb 03fa e63c
00000120: 6ec1 2f3d 710e 78bc 7e1e 9cbc d846 ba3d
00000130: 52be 783d 77a5 3ebd 5547 453a a3ef 0e3c
00000140: 5e30 81bd 3ccf 8dbd 46c3 9d3d e464 39bd
00000150: 9443 8bbd 4721 99bd d188 013d 24d9 963d
00000160: 6421 5fbd b181 343b 923c c7bc 7ff7 86bd
00000170: 7a78 3abc dfd8 253d e489 8c3d 94c0 ab38
00000180: 2178 2dbd 3db0 9abb 1c40 69bc 8835 c6bd
00000190: 1eea a03c 1fbd 2a3d 494e 9fbd 09bd 08bc
000001a0: 8fad cabc 60f1 6ebd 3941 a3bd d1a4 49bd
000001b0: 14d6 93bd dd03 58bd 2a3e 83bd 4246 eebc
000001c0: dc1a 0b3d bd42 883c e774 86bd e578 813d
000001d0: 1015 eb3b 49b4 943d 10d0 b13d 2822 2dbd
000001e0: 1e3d 563d 9d56 8bbd b94d 0cbd a02f 64bd
000001f0: b34f 4d3d c2e7 143d f26b 173d 6ab1 a03d
00000200: 662c 08bd 5af7 ea3c 52df 9d3d ed6d afbc
00000210: d343 c3bc 0f0a 0cbc d4b7 8bbd 792d c73c
00000220: b03d d13c 5803 303c 09af 463d ccfe 51bd
00000230: 378d 273d 8309 edbb 5f3d 2d3c bb62 603d
00000240: 60f0 bd3d 9fea 223d d377 2d3d 6fba d93c
00000250: 2386 1ebd a63e b93c 6ed2 bf3d 7797 cfbc
00000260: 64ca eabc 658e ef3d 407c a33d b352 7f3d
00000270: e10f 523d c738 4ebb d2e9 b43d 48bb 6abd
00000280: 3d52 373d 3d15 993d 7c9f 853d 1168 27bd
00000290: 0ebd ae3d ac2d 2d3d 37f6 17bc bb86 b83c
000002a0: 578c a9bc 26ef afbc f627 81bc 8fff 413d
000002b0: 122e b03d dd92 76bd 0486 973c f5cb d13c
000002c0: 11d8 ad3d fae8 bbbc a3ae dbbc ba1f 8a3c
000002d0: ba8b 5cbd 7389 82bd 9109 6a3c 164b 6c3d
000002e0: 1816 b7bc c9b8 263d cf47 403c b501 543d
000002f0: ad55 3e3d 1b4c 2fbc 14a7 9f3d 253f 603c
00000300: 9989 b1bd 71c2 183d 9611 85bd 76b4 dc3d
00000310: 6926 acbd 22f7 46bd 5b4b 6abd dc3c 503d
00000320: 41e0 913d ad8a 34bc d284 31bb 4878 993d
00000330: 6636 003d 9f37 f73c aae0 a53d e80a 7abd
00000340: fecf aabd 2b93 253c a849 c83c ac44 323d
00000350: 2e6e 8bbc 2303 1b3b 7311 b93b 0ac0 0dbd
00000360: 9ee1 18bd 499a 37bb e362 50bc 545f acbd
00000370: f60f 32bd d9b3 6cbd 83ce d6bd ed11 3ebd
00000380: 5fc1 2abd 24d3 b0bc 16fd 60bd f813 b4bc
00000390: 64df 303c 199b cf3c 8636 a0bd 83af a9bd
000003a0: 4675 8f3d ce30 603d 98cd abbd aa95 3b3d
000003b0: b65b 913d 066f 8e3d 21f2 60bc 4170 5b3c
000003c0: a8b0 cdbd 2a42 5ebd 2463 223d 3c01 a03d
000003d0: 1c5e 813d f284 c03b ae09 9a3d 8740 df3c
000003e0: f9d8 c23c 0574 1a3d 37f6 98bd 5337 9abd
000003f0: d70a be3c 99be 46bc dea4 01bc 9d67 b4bc

bias f4 [79]
0.034106288 -0.09027842 -0.11553331 -0.07465583 0.03392511 -0.05694593 -0.025445683 -0.12082082
-0.07364557 -0.070117265 -0.00092569104 0.011863394 0.00926614 -0.036396705 -0.067229874 -0.014889321
-0.07106899 -0.100417666 -0.08085969 -0.04888426 -0.037353635 0.018138018 -0.09855983 0.0016402062
-0.047690947 -0.06803027 -0.1217031 -0.056560695 0.019552996 -0.14198379 0.0042646597 -0.06158941
-0.00028235826 -0.010568775 -0.013325078 -0.07400753 -0.02861535 -0.023237372 -0.040371284 -0.055850703
-0.0033375921 -0.063032344 -0.0084781535 0.021752408 -0.05542751 -0.07629379 -0.057262424 -0.09092663
-0.080564626 -0.111762956 -0.0049290187 -0.0027314404 -0.030242221 -0.048688903 -0.04471645 -0.023766818
0.005074286 0.0056079077 -0.04264745 -0.122228615 -0.044905685 -0.08221511 -0.0753473 -0.06015528
-0.007540661 -0.0999857 -0.10595491 -0.023227591 -0.03813496 0.029337132 -0.06914529 -0.06640942
-0.07571147 -0.12687181 0.015565808 -0.026533758 0.0047370326 -0.08565451 -0.00058000337
00000000: 09b3 0b3d e4e3 b8bd ba9c ecbd 28e5 98bd
00000010: 0ef5 0a3d 2340 69bd 7773 d0bc e870 f7bd
00000020: 7dd3 96bd a499 8fbd 13aa 72ba ae5e 423c
00000030: 02d1 173c b614 15bd d1af 89bd 57f2 73bc
00000040: 9e8c 91bd c7a7 cdbd c499 a5bd dd3a 48bd
00000050: 2000 19bd 2e96 943c bcd9 c9bd 30fc d63a
00000060: 9557 43bd 7453 8bbd 7a3f f9bd 30ac 67bd
00000070: 9b2d a03c 3364 11be 8fbe 8b3b 2d45 7cbd
00000080: 7c09 94b9 a828 2dbc 6e51 5abc 4391 97bd
00000090: bd6a eabc 4d5c bebc 5c5c 25bd b5c3 64bd
000000a0: 81bb 5abb 1a17 81bd f4e7 0abc 1b32 b23c
000000b0: f507 63bd eb3f 9cbd 018c 6abd be37 babd
000000c0: 11ff a4bd fae3 e4bd 9b83 a1bb f701 33bb
000000d0: 89be f7bc 046e 47bd 9928 37bd a1b2 c2bc
000000e0: 3246 a63b 8ac2 b73b 18af 2ebd ff52 fabd
000000f0: 06ef 37bd 6560 a8bd af4f 9abd 6265 76bd
00000100: a617 f7bb 4dc5 ccbd e3fe d8bd ca47 bebc
00000110: 6733 1cbd 6d54 f03c 0c9c 8dbd a901 88bd
00000120: 9d0e 9bbd afea 01be bb07 7f3c 535d d9bc
00000130: 1c39 9b3b a26b afbd 5e0b 18ba

weight f4 [79]
0.7999327 0.8042662 0.7912422 0.79960364 0.797027 0.79626465 0.74802065 0.80306286
0.7494217 0.7795981 0.7705553 0.7695582 0.77541184 0.7920033 0.8150033 0.7806364
0.8077506 0.79515254 0.7932278 0.8079915 0.79117733 0.79753953 0.7726876 0.83994895
0.79304737 0.8150771 0.7655595 0.7779783 0.74438095 0.7794289 0.78828305 0.8228043
0.7470497 0.7978636 0.7875651 0.82028115 0.8009007 0.7967048 0.7917608 0.7726555
0.7925295 0.785357 0.7687256 0.7921859 0.80889934 0.7615631 0.7868392 0.8249597
0.7956563 0.8116784 0.77482015 0.7998751 0.74885786 0.7735324 0.75423324 0.7881338
0.75578576 0.81344104 0.8028033 0.81397027 0.7850869 0.8071207 0.8327299 0.774885
0.7638039 0.78985065 0.7977447 0.79227114 0.7972493 0.82006484 0.7791622 0.7672235
0.765038 0.83573127 0.79174477 0.8048864 0.74188024 0.79717445 0.75909674
00000000: 64c8 4c3f 64e4 4d3f d98e 4a3f d3b2 4c3f
00000010: f609 4c3f 00d8 4b3f 487e 3f3f 8795 4d3f
00000020: 1ada 3f3f be93 473f 1d43 453f c401 453f
00000030: 6481 463f bac0 4a3f 0ea4 503f cad7 473f
00000040: bec8 4e3f 1e8f 4b3f fa10 4b3f 88d8 4e3f
00000050: 998a 4a3f 8d2b 4c3f dbce 453f e506 573f
00000060: 2705 4b3f e5a8 503f b5fb 433f 9629 473f
00000070: c08f 3e3f a788 473f ebcc 493f 4da3 523f
00000080: a63e 3f3f ca40 4c3f de9d 493f f2fd 513f
00000090: d407 4d3f d9f4 4b3f d6b0 4a3f c0cc 453f
000000a0: 37e3 4a3f 280d 493f 33cb 443f b2cc 4a3f
000000b0: 0714 4f3f cdf5 423f 4b6e 493f 8f30 533f
000000c0: 22b0 4b3f 28ca 4f3f 9d5a 463f 9dc4 4c3f
000000d0: 26b5 3f3f 3806 463f 6e15 413f 23c3 493f
000000e0: 2d7b 413f ac3d 503f 8484 4d3f 5b60 503f
000000f0: 75fb 483f 769f 4e3f c92d 553f dd5e 463f
00000100: a788 433f a733 4a3f ff38 4c3f 48d2 4a3f
00000110: 8818 4c3f c5ef 513f 2d77 473f c268 443f
00000120: 88d9 433f 7cf2 553f c9af 4a3f 090d 4e3f
00000130: ddeb 3d3f a013 4c3f 2a54 423f

bias f4 [79]
-0.34179148 0.37741485 -0.3048435 -0.38261476 0.35302484 0.30378124 0.3519819 -0.32194507
0.3129651 0.31990966 -0.32305813 0.379629 0.32234427 -0.33781973 0.3364121 -0.32182077
0.32202813 -0.3051586 0.3419639 -0.36847666 0.3233204 -0.30873004 0.34022492 -0.30553535
-0.3214515 0.3354542 -0.34380814 0.32180405 0.3149582 -0.3118414 0.3137593 -0.31044412
0.32183084 -0.30722773 0.3318227 -0.3150843 -0.3768798 0.31129515 -0.3651649 0.34785894
0.324267 -0.30604157 0.3404698 0.3280108 -0.35188687 -0.30509752 0.30626246 0.3558169
-0.31904665 -0.3811557 0.31091717 -0.30896372 0.34551403 0.30558565 0.30612567 0.33210418
0.316938 -0.36434194 0.38015416 -0.3157459 0.31944758 -0.3828276 -0.36494064 0.30569565
0.36879244 -0.35343555 -0.33899054 0.32475564 0.33659986 -0.38057038 0.37618646 0.3066884
0.3099667 -0.33605623 0.3750482 -0.31467235 0.319431 -0.35788748 0.31993794
00000000: 4bff aebe 853c c13e 7214 9cbe 15e6 c3be
00000010: acbf b43e 3789 9b3e f936 b43e fcd5 a4be
00000020: f63c a03e 33cb a33e e067 a5be bb5e c23e
00000030: 4f0a a53e b5f6 acbe 353e ac3e b1c5 a4be
00000040: dfe0 a43e bf3d 9cbe e415 af3e f9a8 bcbe
00000050: 408a a53e dd11 9ebe f631 ae3e 216f 9cbe
00000060: 4a95 a4be a7c0 ab3e 9f07 b0be 80c3 a43e
00000070: 3442 a13e ada9 9fbe 0fa5 a03e 88f2 9ebe
00000080: 03c7 a43e f44c 9dbe aae4 a93e bb52 a1be
00000090: 64f6 c0be 1462 9f3e e5f6 babe 911a b23e
000000a0: 5306 a63e 7bb1 9cbe 0f52 ae3e 08f1 a73e
000000b0: 842a b4be be35 9cbe 6fce 9c3e a22d b63e
000000c0: 155a a3be d726 c3be 8930 9f3e 7e30 9ebe
000000d0: 37e7 b03e b975 9c3e 81bc 9c3e 8f09 aa3e
000000e0: b345 a23e 078b babe 91a3 c23e 72a9 a1be
000000f0: a28e a33e fb01 c4be 80d9 babe 2484 9c3e
00000100: 5dd2 bc3e 81f5 b4be 2b90 adbe 5f46 a63e
00000110: d156 ac3e 1fda c2be 839b c03e 4306 9d3e
00000120: f5b3 9e3e 900f acbe 5106 c03e bc1c a1be
00000130: 768c a33e 073d b7be e8ce a33e

running_mean f4 [79]
0.13444859 0.09538547 0.034891095 0.071603395 0.15010746 0.086552195 0.096733294 0.06898046
0.053167105 0.09720861 0.09153166 0.11331792 0.074458495 0.07520093 0.12707311 0.07429262
0.1079971 0.056266084 0.0740792 0.08702634 0.13264818 0.105091445 0.06855031 0.10031615
0.107531674 0.10304494 0.04180692 0.07939519 0.10977159 0.059030727 0.10298157 0.06262681
0.10303264 0.09087445 0.097007714 0.066802636 0.120112225 0.09294579 0.075393274 0.09575915
0.09287036 0.039290782 0.08988069 0.091428585 0.06869132 0.04339474 0.05960383 0.11508719
0.05871296 0.049495492 0.080099225 0.082303375 0.061663534 0.07348651 0.0758226 0.08764494
0.10354853 0.17838989 0.086740606 0.064641446 0.050512534 0.08498039 0.14541107 0.05562702
0.1224666 0.042161673 0.03572562 0.11147006 0.10608601 0.12522127 0.061177105 0.057192
0.0399611 0.11095312 0.09482821 0.12167776 0.12375098 0.081197515 0.11388708
00000000: e4ac 093e 7559 c33d f7e9 0e3d cda4 923d
00000010: c5b5 193e 4742 b13d 1b1c c63d a145 8d3d
00000020: c0c5 593d 4f15 c73d f374 bb3d 3a13 e83d
00000030: b27d 983d f202 9a3d 741f 023e bb26 983d
00000040: 952d dd3d 4477 663d d6b6 973d de3a b23d
00000050: edd4 073e 2f3a d73d 1b64 8c3d 8e72 cd3d
00000060: 9139 dc3d 3a09 d33d bc3d 2b3d f299 a23d
00000070: edcf e03d 34ca 713d 00e8 d23d 7c42 803d
00000080: c702 d33d 621c ba3d fbab c63d d2cf 883d
00000090: 66fd f53d 5d5a be3d ca67 9a3d 601d c43d
000000a0: d132 be3d 5fef 203d 5e13 b83d e93e bb3d
000000b0: 09ae 8c3d afbe 313d 2523 743d d5b2 eb3d
000000c0: 007d 703d c9bb 4a3d 100b a43d ac8e a83d
000000d0: e792 7c3d 1880 963d e148 9b3d 317f b33d
000000e0: 4011 d43d d7ab 363e 0fa5 b13d bc62 843d
000000f0: 3be6 4e3d 330a ae3d a4e6 143e 28d9 633d
00000100: c5cf fa3d b8b1 2c3d 0755 123d 6a4a e43d
00000110: 9f43 d93d 013a 003e d894 7a3d 2942 6a3d
00000120: 40ae 233d 643b e33d 4b35 c23d 3032 f93d
00000130: 2771 fd3d e24a a63d a13d e93d

running_var f4 [79]
0.16396208 0.13629876 0.078106835 0.120555505 0.17937697 0.14109688 0.11121568 0.16877666
0.07877671 0.13914618 0.13346197 0.11215433 0.09586786 0.11391746 0.2525042 0.10811482
0.18947518 0.15270251 0.13264507 0.16389586 0.17307802 0.17161764 0.08559017 0.22234984
0.17884986 0.22459532 0.09757012 0.11364368 0.11737832 0.14410193 0.14135201 0.106560774
0.1279618 0.14676568 0.14145997 0.12492323 0.15404005 0.13174142 0.1091369 0.15097542
0.14691268 0.08381765 0.11561236 0.124137476 0.13062705 0.06060931 0.09210576 0.24670821
0.12796186 0.10861314 0.12795536 0.1546436 0.07763663 0.12023014 0.089616634 0.12497721
0.1348127 0.44976237 0.13495721 0.13096371 0.09030967 0.114995874 0.25367185 0.117437035
0.15876178 0.080639176 0.08530711 0.21511376 0.1609448 0.17992796 0.09161883 0.119029224
0.11682932 0.17981336 0.11414485 0.19739696 0.13110892 0.14659001 0.15135995
00000000: ade5 273e e791 0b3e 7af6 9f3d cee5 f63d
00000010: 99ae 373e b37b 103e 0cc5 e33d cad3 2c3e
00000020: af55 a13d 567c 0e3e 41aa 083e 2bb1 e53d
00000030: 5e56 c43d 8f4d e93d 3b48 813e 4e6b dd3d
00000040: c805 423e 0c5e 1c3e 1cd4 073e 51d4 273e
00000050: 5d3b 313e 89bc 2f3e e649 af3d adaf 633e
00000060: 6b24 373e 51fc 653e d8d2 c73d 05be e83d
00000070: 0b64 f03d 758f 133e 95be 103e 893c da3d
00000080: 6b08 033e be49 163e e2da 103e c0d7 ff3d
00000090: adbc 1d3e 39e7 063e 2b83 df3d 4d99 1a3e
000000a0: 4770 163e 97a8 ab3d 2cc6 ec3d ca3b fe3d
000000b0: 19c3 053e 7841 783d f2a1 bc3d 14a1 7c3e
000000c0: 6f08 033e 9170 de3d bb06 033e e45a 1e3e
000000d0: f4ff 9e3d 383b f63d ed88 b73d 0df4 ff3d
000000e0: 570c 0a3e 4147 e63e 3932 0a3e 5a1b 063e
000000f0: 47f4 b83d f582 eb3d 47e1 813e d482 f03d
00000100: 7392 223e 2726 a53d 7eb5 ae3d c846 5c3e
00000110: b7ce 243e 093f 383e a7a2 bb3d 98c5 f33d
00000120: 3644 ef3d fe20 383e c6c4 e93d 6e22 4a3e
00000130: 6b41 063e b11b 163e 1afe 1a3e

weight f4 [1, 79]
-0.3997111 0.3702802 -0.45541742 -0.36479154 0.3900786 0.4568237 0.392855 -0.42400134
0.4379933 0.42499882 -0.4223114 0.36873224 0.42190483 -0.4030367 0.40177962 -0.42235163
0.42019716 -0.4523609 0.40038604 -0.37717098 0.41753966 -0.4452216 0.40185255 -0.44927475
-0.42464194 0.40592062 -0.40095216 0.42317864 0.43554577 -0.43868265 0.43480352 -0.44105384
0.42438048 -0.44770166 0.41278192 -0.43305856 -0.37035698 0.43609783 -0.37948287 0.39645317
0.42077798 -0.44758308 0.40161443 0.41522476 -0.39193028 -0.45428652 0.45189336 0.38703507
-0.42610976 -0.36758983 0.44010147 -0.44436315 0.39788756 0.44937113 0.4540773 0.41148126
0.43135723 -0.38250673 0.36690116 -0.4313096 0.4263266 -0.3651599 -0.38026574 0.45533684
0.37783012 -0.38793018 -0.40219584 0.42080483 0.40560487 -0.3666408 0.3708948 0.45142236
0.44200307 -0.4037549 0.3720721 -0.43463427 0.4279486 -0.3853488 0.425541
00000000: efa6 ccbe 5e95 bd3e 792c e9be f5c5 babe
00000010: 62b8 c73e cce4 e93e 4a24 c93e b416 d9be
00000020: a840 e03e 7299 d93e 3339 d8be 79ca bc3e
00000030: e903 d83e d45a cebe 0fb6 cd3e 793e d8be
00000040: 1524 d73e d99b e7be 66ff cc3e 8e1c c1be
00000050: c2c7 d53e 16f4 e3be 9ebf cd3e 5707 e6be
00000060: ab6a d9be d4d4 cf3e 9a49 cdbe dfaa d83e
00000070: dbff de3e 039b e0be 919e de3e cfd1 e1be
00000080: 6648 d93e 2739 e5be 2758 d33e dab9 ddbe
00000090: 6e9f bdbe 3748 df3e 944b c2be e9fb ca3e
000000a0: 3670 d73e 9c29 e5be 68a0 cd3e 5798 d43e
000000b0: 16ab c8be 3e98 e8be 915e e73e 7629 c63e
000000c0: 0f2b dabe bc34 bcbe fb54 e13e 9183 e3be
000000d0: ebb7 cb3e f913 e63e d27c e83e acad d23e
000000e0: dbda dc3e ecd7 c3be 78da bb3e 9dd4 dcbe
000000f0: 7b47 da3e 3df6 babe 31b2 c2be e921 e93e
00000100: f372 c13e c99e c6be 9dec cdbe bb73 d73e
00000110: 71ab cf3e 58b8 bbbe ece5 bd3e d520 e73e
00000120: 3a4e e23e f6b8 cebe 3c80 be3e 6288 debe
00000130: 141c db3e 704c c5be 83e0 d93e
