mlruns/528961946943719398/models/m-cc6ae76fe80a4c9db5046c39690bf42c/artifacts/data/model.pth (torch, 103342 bytes, 17 tensors)

weight f4 [124]
000000 29 37 5b 3f 03 63 6c 3f 2d ea 7f 3f 64 cb 63 3f
       0.8563104 0.9233858 0.999667 0.88982224
000010 4e d4 51 3f 52 e6 55 3f 90 2f 53 3f cc 80 4e 3f
       0.81964576 0.83554566 0.8249445 0.8066528
000020 44 a2 4e 3f 77 a4 54 3f 66 7e 6c 3f 43 cd 4d 3f
       0.8071635 0.83063453 0.9238037 0.8039133
000030 16 97 50 3f 7f ec 5d 3f 8a 0e 6b 3f 88 d8 71 3f
       0.8148054 0.8668899 0.9181906 0.94471025
000040 ae d4 60 3f 06 3b 34 3f 31 e0 82 3f db 9e 4f 3f
       0.87824523 0.7040256 1.0224668 0.8110177
000050 7d 1e 57 3f 87 ea 67 3f ec d6 46 3f ee d6 59 3f
       0.84030896 0.90592235 0.77671695 0.8509358
000060 59 d0 54 3f b6 2e 6c 3f ea 44 6c 3f 33 5c 4f 3f
       0.83130413 0.92258775 0.92292655 0.8100006
000070 de b8 68 3f 2f 5e 6a 3f 9a e6 5e 3f 75 2d 63 3f
       0.90907085 0.9154996 0.8707062 0.88741237
000080 56 3b 6a 3f 4e ab 5d 3f ba 22 74 3f a0 bd 58 3f
       0.9149679 0.86589515 0.9536549 0.84664345
000090 04 c7 4d 3f b0 af 5b 3f 5a dc 43 3f 6d e6 34 3f
       0.803818 0.8581495 0.76508105 0.706641
0000a0 17 72 53 3f b6 46 65 3f e2 82 63 3f 2f fd 67 3f
       0.8259596 0.8956102 0.88871586 0.906207
0000b0 51 c5 57 3f 8a 9c 5b 3f 9a 31 4f 3f f7 22 41 3f
       0.84285456 0.85785735 0.8093506 0.7544398
0000c0 78 11 55 3f 5a 11 39 3f 79 5d 4c 3f 5f 21 45 3f
       0.8322978 0.722921 0.7983013 0.77004045
0000d0 56 db 5d 3f 35 a8 4f 3f b4 08 49 3f 8f a9 4f 3f
       0.86662805 0.8111604 0.78528905 0.811181
0000e0 80 c1 36 3f f2 96 57 3f 92 c7 50 3f 13 45 45 3f
       0.7138901 0.842147 0.8155452 0.77058524
0000f0 e1 15 5e 3f 27 40 54 3f ba bb 57 3f 55 7c 5e 3f
       0.86752135 0.8291039 0.84270823 0.86908466
000100 67 fe 59 3f c7 ea 35 3f 55 86 46 3f 09 2a 39 3f
       0.8515381 0.71061367 0.77548724 0.72329766
000110 0b 40 5e 3f 3a a9 4b 3f 3b 46 71 3f 65 bc 48 3f
       0.8681647 0.79555094 0.9424779 0.7841247
000120 f6 26 58 3f fc 33 51 3f 7e 88 48 3f 72 55 53 3f
       0.8443445 0.81719947 0.7833327 0.82552254
000130 9e 44 3e 3f 7b 99 39 3f 3a 2e 45 3f 64 f5 63 3f
       0.7432345 0.7249982 0.7702366 0.8904631
000140 04 5b 55 3f 33 e6 50 3f 5f 34 4c 3f 06 20 3e 3f
       0.83342004 0.81601256 0.7976741 0.74267614
000150 3f 45 4f 3f 70 58 46 3f 7a 1b 53 3f 10 27 45 3f
       0.80965036 0.77478695 0.824638 0.7701273
000160 29 41 4e 3f 70 ae 37 3f 18 e2 63 3f 88 dd 53 3f
       0.80568177 0.71750546 0.89016867 0.82759905
000170 07 ee 54 3f e9 7a 65 3f 3f 77 79 3f 52 e0 3a 3f
       0.831757 0.8964067 0.9744758 0.72998536
000180 b2 6d 37 3f 64 27 5d 3f 89 7a 48 3f 26 3f 34 3f
       0.71651757 0.8638823 0.78311974 0.70408857
000190 bc 11 66 3f ff eb 5e 3f 6d e0 48 3f a9 2e 57 3f
       0.8987081 0.8707885 0.78467447 0.8405557
0001a0 be 4f 48 3f 98 84 55 3f a1 bd 44 3f ec 38 3f 3f
       0.78246677 0.83405447 0.7685185 0.7469623
0001b0 a4 26 5c 3f d8 b9 44 3f 1f 8c 57 3f 60 8b 5c 3f
       0.8599646 0.76846075 0.8419818 0.8615017
0001c0 97 99 7a 3f 94 8b 4e 3f f1 b6 70 3f 7c c5 52 3f
       0.9789061 0.8068173 0.94029146 0.8233259
0001d0 fb e1 4c 3f 70 95 86 3f 6d 64 5c 3f c8 4c 76 3f
       0.8003232 1.0514355 0.8609074 0.9621091
0001e0 59 c9 46 3f 3d 8f 75 3f c4 e1 48 3f 67 41 86 3f
       0.7765098 0.9592169 0.7846949 1.0488709

bias f4 [124]
000000 38 14 23 bd 16 b0 ec bc 95 bf 9c bc af 64 1b 3d
       -0.039814204 -0.028892558 -0.019134322 0.037937816
000010 29 e1 02 bd b9 4c 79 bd d6 70 19 3d 8e 67 99 bd
       -0.03195301 -0.060864184 0.037461124 -0.074904546
000020 83 96 34 3d 64 66 86 3c 89 ab d6 bc 64 1b d9 bd
       0.04408885 0.016406246 -0.026204841 -0.106009275
000030 20 2b c4 ba d5 7f 93 bd 23 c5 ad bc 98 ae 99 bc
       -0.0014966466 -0.072021164 -0.021212166 -0.01876001
000040 8f e8 62 bd 03 a1 a1 3c d4 02 80 bd 8d d6 21 bc
       -0.055397566 0.019730097 -0.062505394 -0.009877813
000050 56 05 74 bd b6 18 5e bd f3 e5 2d 3d 04 ed 44 3c
       -0.0595754 -0.054222785 0.042455625 0.0120194
000060 d3 0e 03 bd 28 bf 62 bd f7 86 ae bd a4 b7 01 bd
       -0.03199656 -0.055358082 -0.08521836 -0.031669274
000070 68 d3 50 3c e0 39 f0 bb 08 d8 b0 bc 64 26 a9 bc
       0.012745716 -0.007331118 -0.021587387 -0.020648189
000080 41 0c 47 3b df 9e ff 3c 3d 58 80 3c d9 27 dd bb
       0.0030372294 0.031203685 0.015667075 -0.006749135
000090 e1 29 f4 3b 15 aa c1 bd f1 91 ea 3c 7c 6e e3 bc
       0.0074512814 -0.09456269 0.028634043 -0.027762644
0000a0 3f 08 b7 bd 49 dd 5c bd ad 58 49 bd 98 9b a1 bd
       -0.0893712 -0.05392197 -0.049156833 -0.07891005
0000b0 5b 56 f8 bc c6 c7 54 3c fa d0 24 3c 18 d6 5e 3d
       -0.030314615 0.012987083 0.0100595895 0.054403394
0000c0 9d b4 3a 3d ba 98 13 3c 6d da 97 bc 12 4a 47 3c
       0.045582402 0.009008581 -0.01853677 0.012163656
0000d0 62 36 c0 3c 93 4f ce bb 9e 22 d6 3c 75 9d 02 bd
       0.023463432 -0.006296107 0.026139554 -0.031888444
0000e0 05 90 f6 3c ed 85 0f bd 10 73 45 bd 96 31 70 bc
       0.03009797 -0.03503983 -0.048205435 -0.01466026
0000f0 1d 7f bc bb 1a 4a 17 bd 96 48 a2 3b 8e 65 ab 3d
       -0.005752458 -0.036935903 0.0049525006 0.083689794
000100 f8 cb 2d bc cd b8 57 bc e9 70 ca 3b ba e3 aa 38
       -0.010607712 -0.0131666185 0.0061780107 8.148649e-05
000110 c5 9c 5b bd fa aa a8 3b 5f 5b 0d 3d b3 9a 93 bc
       -0.053616304 0.005147335 0.034510966 -0.018018102
000120 fb e6 d3 bc 9e 5a 18 3d 9f 27 20 bd 02 1f 1e bd
       -0.025866976 0.037195794 -0.039100286 -0.03860379
000130 33 df 41 3d 33 08 d7 bc 4a a1 8a bd 16 f8 53 bd
       0.047332 -0.026249027 -0.06769045 -0.051750265
000140 62 b1 6f bd 42 86 60 3d 5a ee 6d 3d e9 88 f6 3b
       -0.058518775 0.05481554 0.058088638 0.007523645
000150 7d 54 da 3d e7 9a 00 3b 08 b2 4f 3c 36 f1 0e 3d
       0.10660646 0.001962358 0.012676723 0.034898005
000160 42 d0 45 3c a5 a3 35 3d 0d 84 76 3c be 8b cf bc
       0.012073578 0.044345517 0.015046132 -0.025335189
000170 1a f1 4b 3d 47 31 a3 bd f1 b6 ad bd 42 47 a3 bd
       0.04979048 -0.07968383 -0.08482159 -0.07972576
000180 7b c8 e8 bc db 60 7b bd 04 9b d6 bb c7 33 2d 3d
       -0.028415909 -0.061371665 -0.006549241 0.042285707
000190 77 38 18 be c5 5e e1 bd c8 34 0c bd 45 81 10 3c
       -0.1486529 -0.11004404 -0.034230024 0.008819883
0001a0 e5 8c a8 bc d5 e4 26 bd 77 bf 57 bc a0 52 80 3c
       -0.020574996 -0.040745575 -0.013168207 0.015664399
0001b0 14 c4 e7 bc 0c 7c 94 bd be 37 0e bd f9 b7 03 bd
       -0.02829174 -0.072502226 -0.03472113 -0.032157872
0001c0 b0 e6 89 bd ec b2 0c 3c ee 77 9d bc 02 46 9f 3b
       -0.06733453 0.00858758 -0.019222226 0.0048606405
0001d0 c2 8f 18 3c 92 58 05 be 56 4f 32 bd b9 32 9c 3d
       0.009311618 -0.13022068 -0.043532692 0.07626862
0001e0 32 dd 19 bd 76 db 03 3d 43 fc 4b bd fd 71 de bd
       -0.037564464 0.032191716 -0.049801122 -0.10861585

running_mean f4 [124]
000000 af 18 8a 42 0e c7 22 46 c3 92 c4 40 83 b2 b1 40
       69.04821 10417.764 6.1429152 5.553041
000010 b1 e4 ce 42 ec 33 59 40 02 43 45 40 9e 7b 5f 40
       103.44666 3.393794 3.0822148 3.49192
000020 c5 57 3b 40 ca 3c d1 3f f5 60 dd 43 6c 6a 26 42
       2.927232 1.6346676 442.75748 41.603928
000030 20 fe 0c 44 4b 3b 84 40 27 12 e5 3d 4c d0 90 44
       563.9707 4.132238 0.11185103 1158.5093
000040 9b b3 b6 43 a5 e1 ad 40 14 2b bf 44 71 2e d3 3e
       365.40317 5.4337945 1529.3462 0.4124637
000050 89 d2 4f 3d fc bf c9 3f 68 1c c0 3e c5 f3 37 40
       0.05073789 1.5761714 0.37521672 2.8742535
000060 44 73 85 3f 6e c4 60 40 ca f5 d1 40 37 78 1e 3e
       1.0425801 3.511989 6.5612535 0.15475546
000070 0c 78 1c 3f 09 34 ed 3f cb 13 de 3f 00 27 e4 3f
       0.61120677 1.8531505 1.734979 1.7824402
000080 92 40 ec 43 c2 f9 33 40 db 9d 33 40 55 6c 21 3e
       472.50446 2.812119 2.8065097 0.15763982
000090 dd 0f c3 42 76 c3 43 42 ac fb b7 41 f6 f9 65 40
       97.53098 48.94088 22.997887 3.5933814
0000a0 3d 9c 7e 41 b2 f0 14 40 c0 67 72 3c a8 b2 2c 42
       15.913144 2.3271909 0.014795244 43.17447
0000b0 b4 a6 1c 42 c1 36 c9 41 3c af fa 41 35 6b 00 42
       39.162796 25.151735 31.335564 32.104694
0000c0 dd 05 42 40 7c b6 98 3f 95 09 c4 3d f5 07 d5 3e
       3.0316079 1.193069 0.0957214 0.41607633
0000d0 e9 a7 3a 3e 40 8f 33 3f c0 e0 46 3e 40 91 8a 3d
       0.18228115 0.7014046 0.19421673 0.067659855
0000e0 b2 7e 20 3d d2 bd 86 3d 52 e1 f2 3c a3 ab bb 3c
       0.039183326 0.06579174 0.029648457 0.022908991
0000f0 72 2b b6 3d 99 5d 98 3c d1 1e d2 3d 88 c9 73 3f
       0.08895005 0.018599318 0.10259784 0.9522939
000100 2f af 5c 3e 12 7c c0 3d a2 86 b0 3d 9b 4a 09 3d
       0.21551202 0.093986645 0.08619429 0.033518415
000110 0d 45 c2 3e c1 96 12 3e c9 a6 11 3e 2d a1 2b 3e
       0.37943307 0.1431532 0.1422378 0.16760702
000120 80 64 c0 3d e1 19 1d 3d d7 d3 0a 3d b1 06 42 3d
       0.09394169 0.03835476 0.033893432 0.047369663
000130 5c 7f a5 3c 6f 60 be 3c 28 2e 66 3c 26 d9 5b 3c
       0.020202331 0.023239342 0.01404909 0.013418471
000140 7a 44 47 3f 06 a6 22 3e b9 bb 51 3d a9 41 b4 3c
       0.7783886 0.15883645 0.051204417 0.022003965
000150 46 9c db 3d 94 70 26 3d 49 b6 97 3d 0f 03 56 3d
       0.10723166 0.040634707 0.07407815 0.05224901
000160 0e 87 df 3c bb f0 f0 3b 46 4c 16 3d bd 1a 12 3e
       0.027286079 0.007352916 0.036693834 0.14268012
000170 62 98 50 3d 4f 69 01 3d 71 c8 72 3d 95 f6 9a 3d
       0.050926574 0.03159457 0.059273187 0.07566563
000180 ba 6a b8 3c 2b 9d 6b 3c c7 22 3a 3d 79 7a 03 3d
       0.022511829 0.0143807335 0.045443323 0.03209922
000190 6e a0 7c 3d 2f 37 6d 3c a8 93 a9 3c 7f d5 6a 3c
       0.061676435 0.014478489 0.02070029 0.014333128
0001a0 77 9a 19 3f 17 84 d1 3d 74 b7 cb 3e 2b 57 d8 3b
       0.6000132 0.10230272 0.397884 0.006602188
0001b0 e5 36 f1 3e c4 64 a9 3c f3 a4 dc 3c 31 2f 6a 3f
       0.47112194 0.020677932 0.026934123 0.9147826
0001c0 53 1b 87 3d ff e9 8d 3e 29 18 5b 3d 3b ba dc 3c
       0.065970086 0.27717587 0.053489838 0.02694427
0001d0 63 25 22 3d 0d 3f b2 3d 27 9e 8d 3c c5 5d 5d 3f
       0.039586436 0.08703432 0.017287327 0.86471206
0001e0 a0 dc 59 3c 5e e5 4f 3f 30 69 5c 3c 6f 4e b4 3d
       0.01329723 0.8120936 0.013452813 0.088040225

running_var f4 [124]
000000 65 01 ee 43 5a 1d b8 4c 4e 08 f2 3f 31 17 9b 3f
       476.0109 9.65291e+07 1.8908784 1.2116452
000010 2e 52 ee 46 49 e1 ad 3e 93 cd f7 3d c3 13 47 3f
       30505.09 0.3396094 0.12099757 0.7776453
000020 ea 05 a0 3e 8e 16 8e 3f 15 72 47 48 0f 77 b2 46
       0.31254512 1.1100633 204232.33 22843.53
000030 53 02 43 48 73 83 6e 3f ae b2 22 3e ac f7 13 48
       199689.3 0.93169326 0.15888473 151518.69
000040 22 71 42 48 22 65 fe 44 b8 bb 8e 48 07 1d 87 3e
       199108.53 2035.1604 292317.75 0.26389334
000050 ae f7 48 3d d4 2d 9b 3e ee 69 7c 3e f5 15 2e 3f
       0.04906433 0.30308402 0.24649784 0.68002254
000060 90 8d 38 3d 85 5f e4 3e a1 94 31 40 b4 6d d4 3e
       0.04505688 0.44604126 2.7746966 0.41489947
000070 f7 bc d2 3e 55 06 58 40 c3 66 4d 3f 2d 1e 0c 3f
       0.41159794 3.3753865 0.80234927 0.54733545
000080 97 ed 27 47 a0 0a 03 3f 8d 6a 02 3f 88 0e 8c 3e
       42989.59 0.5118809 0.50943834 0.27354836
000090 cc 60 7d 46 bf 8f 94 45 09 c4 6f 45 bc 6c 70 44
       16216.199 4753.9683 3836.2522 961.699
0000a0 fc d4 44 45 36 31 a9 44 87 cf 77 3d 62 95 62 48
       3149.3115 1353.5378 0.060500648 232021.53
0000b0 3d 85 79 44 c9 8f e2 43 f0 29 1d 44 34 3e 74 43
       998.08185 453.12332 628.6553 244.24298
0000c0 65 31 31 40 1a 1d 09 3f 4f 89 12 3e 48 e9 a9 3e
       2.7686398 0.5356003 0.14310192 0.33185792
0000d0 59 88 9f 3e 79 6f 59 3e cc f5 21 3e cf 0f 82 3d
       0.31158713 0.2123393 0.1581642 0.063506715
0000e0 fd 4c 2c 3d 44 87 97 3d e6 1b ec 3c 78 1e b9 3c
       0.04206561 0.07398847 0.028821897 0.022597536
0000f0 af 66 a7 3d 37 08 95 3c 19 0c 31 3e 5d 25 6b 3d
       0.08173882 0.018192394 0.17289771 0.05740868
000100 94 fe 77 3e c2 50 30 3e 43 f8 9e 3d cc 67 04 3d
       0.24218208 0.17218307 0.07762196 0.03232555
000110 7d ba 6f 3e 0d 93 fd 3d 98 a4 f4 3d aa 39 10 3e
       0.23410983 0.12381563 0.11945456 0.14084497
000120 71 76 ad 3d 21 b9 16 3d 4a 01 07 3d 90 4c 39 3d
       0.084698565 0.036797646 0.032960214 0.04523903
000130 ab f9 a3 3c f3 4a ba 3c f8 da 62 3c 7b b0 58 3c
       0.020016512 0.022740817 0.0138461515 0.01322567
000140 9b f7 30 3e 67 77 09 3e 14 13 46 3d a6 f0 b2 3c
       0.17281954 0.13424455 0.048358038 0.021843266
000150 d4 bc c4 3d 62 e4 21 3d 4a 0c 8e 3d bd e0 49 3d
       0.096063286 0.039524443 0.06935938 0.049286593
000160 cc 72 dc 3c 1a e5 ee 3b 3f 36 12 3d c1 3c f9 3d
       0.026910208 0.0072904946 0.035696264 0.12169791
000170 53 f0 45 3d a5 c9 fc 3c d6 75 66 3d 35 37 90 3d
       0.048324894 0.03085787 0.05626472 0.0704178
000180 c4 fa b3 3c f8 a4 67 3c 45 16 32 3d 69 93 fd 3c
       0.02197016 0.014138453 0.04347827 0.03095408
000190 b9 94 6f 3d 50 b6 69 3c 93 b5 a5 3c 30 a9 67 3c
       0.058491442 0.014264658 0.020228183 0.014139459
0001a0 a5 ed 76 3e 5e da bc 3d d7 d8 6d 3e 58 40 d7 3b
       0.24114092 0.09221338 0.23227249 0.0065689497
0001b0 a8 93 7c 3e 8e d1 a7 3c b2 07 d9 3c 1c c4 9b 3d
       0.24665701 0.020485666 0.026492927 0.07605764
0001c0 4a 21 7f 3d 26 23 4e 3e 1c 0f 51 3d c7 44 d9 3c
       0.062287606 0.20130596 0.0510398 0.026522053
0001d0 86 28 1d 3d 29 bd a2 3d 4e da 8a 3c d4 03 f1 3d
       0.038368724 0.07946236 0.016949799 0.11768308
0001e0 05 3b 57 3c bb 7e 1c 3e cd 9e 5b 3c 61 6a a4 3d
       0.01313663 0.15282719 0.01340456 0.08028103

weight f4 [126, 124]
000000 6b da 61 3c 19 8b 00 be 71 c5 dd bc 5d 7c e9 bb
       0.013784985 -0.12553062 -0.027071686 -0.007125421
000010 72 56 bc bd 44 38 ab 3c 89 d0 9c 3d 10 6d c5 bc
       -0.09196176 0.020900853 0.076569624 -0.024099857
000020 0c c3 bd bc f3 87 f8 3c 23 2f a3 bd d0 85 50 bd
       -0.023164295 0.030338263 -0.07967975 -0.050908864
000030 91 be 87 3d ee 18 16 bd 43 c9 7b 3d 0a 81 01 be
       0.066281445 -0.03664487 0.061471235 -0.12646881
000040 3c 02 a5 3d 2f 91 eb 3c d0 8f 1c 3c 77 99 c4 bc
       0.08057067 0.028755752 0.009555772 -0.023998959
000050 3d e9 e2 3d c8 42 93 bd 5d fc 13 3d 4e 77 f6 bb
       0.11079643 -0.07190472 0.036129344 -0.0075215464
000060 ee 75 d1 ba 0f 41 9a bd 75 ac 30 bd a6 4b b8 3d
       -0.001598058 -0.0753194 -0.043133218 0.08998804
000070 b6 b4 5d 3d 78 45 30 3d f4 f6 fc 3d ad 87 21 bc
       0.054127418 0.043035 0.1235179 -0.009859008
000080 51 e8 93 bd ca 80 49 3d 1d da b7 bc e7 0b 74 3d
       -0.07222045 0.04919509 -0.022442872 0.059581663
000090 c9 82 be bb a8 68 e3 bc d4 31 f1 3c d7 fa 3d 3d
       -0.0058139306 -0.027759865 0.029442705 0.046381798
0000a0 92 b9 8c bd a2 8e 01 bd c0 a4 8c 3b d7 de 5b 3c
       -0.06871332 -0.031630166 0.0042921007 0.013419828
0000b0 33 ce aa bd d9 3a df bc 21 57 b5 3d 58 de 09 3d
       -0.08340111 -0.02724974 0.08854509 0.03365931
0000c0 e7 a4 a9 bd b0 5d 60 bd 5e fe c9 3d 59 67 bf 3d
       -0.08283406 -0.054776847 0.0986297 0.09345884
0000d0 05 ef 09 bd 16 b1 02 39 1f 6a 5c 3d 02 6f e1 bc
       -0.033675212 0.00012463736 0.053812142 -0.027518753
0000e0 f2 e0 ff 3c 0a 23 20 3d 64 2b c2 3c 07 be a0 3d
       0.031235192 0.039095916 0.02370233 0.07848745
0000f0 da db 8e 3c e8 cc 38 3d 55 04 85 bb 8b 95 e4 3d
       0.017438818 0.04511729 -0.0040593543 0.111613356
000100 49 89 cf bc 97 f1 d9 bd 1f 98 0d bd 02 4e e4 bc
       -0.025334017 -0.10641783 -0.034568902 -0.027869228
000110 56 ca 30 bb 68 be a6 3a ea 5b 86 3c 77 53 e5 3c
       -0.002697607 0.001272154 0.01640125 0.0279939
000120 b1 20 79 bd ab cc bb 3d af a8 b8 bc 73 d6 31 3a
       -0.060822193 0.09169897 -0.022541372 0.00067839696
000130 35 8f b6 bd d6 40 2c bc f3 17 5c bd 44 77 10 3d
       -0.08914033 -0.010513505 -0.053733777 0.03526999
000140 b5 a4 92 3c c9 37 cb ba 13 2c 9a 3d d3 a6 9f bd
       0.017900804 -0.0015504296 0.07527938 -0.07795491
000150 6d d4 8e bc a1 e6 2e bd f6 5b 16 bd 3d 44 ce 3d
       -0.017435277 -0.042700414 -0.036708795 0.10071609
000160 0d 74 ac 3d f8 a4 66 3d 7d 25 8c 3d 62 27 6e bd
       0.084205724 0.05630967 0.06843088 -0.058143027
000170 b7 b4 42 3d 00 f2 8b 3a 6f 13 6e bd 38 8a b9 bc
       0.047535624 0.001067698 -0.058124002 -0.022648916
000180 f6 cd 9d bd c6 0a 76 bd fb 81 48 bd 7b c3 da 3c
       -0.077052996 -0.060068868 -0.048952084 0.02670454
000190 ae a4 9f bd 69 28 07 bd 1a f8 7b bd 56 48 39 3c
       -0.07795082 -0.032997523 -0.061515905 0.01130875
0001a0 b7 b3 c4 bc 14 72 d2 3d b5 db c6 bc b0 c3 a9 bd
       -0.024011476 0.10275665 -0.024274686 -0.082892776
0001b0 bb 5b c6 bc 0c 71 66 3d 77 4e de bb 10 8a 03 3d
       -0.024213662 0.056260154 -0.006784256 0.03211409
0001c0 b7 c3 f7 3c 81 d0 1b bb 57 1b d6 bb ec 75 3f 3d
       0.030244691 -0.00237754 -0.006534021 0.04674332
0001d0 ec 7a a9 3d c9 40 56 bc 5e d0 8a bd c9 a7 db 3c
       0.082753986 -0.013076969 -0.06778024 0.026813405
0001e0 ab b6 fd bc c5 c9 83 3d 47 ae 57 bd 7a 16 9c bd
       -0.030970892 0.06434969 -0.05265644 -0.076214746
0001f0 c8 79 c5 3d 7d 51 d0 3d 0e 2d 09 3d ac 40 ef bc
       0.096423686 0.10171793 0.033490233 -0.029205643
000200 06 ba 8a 3d c2 fe 20 3d 2f b3 ce bc f2 43 c6 3d
       0.067737624 0.039305456 -0.025231926 0.09680928
000210 4f c8 83 3c 9e e3 dd 3d 82 11 66 bc a4 ce 27 3d
       0.016086726 0.1083443 -0.01404226 0.040968552
000220 ee 81 3e 3d 6b f4 d6 3d 1f 1b 47 3d ac 5f b5 3d
       0.04651063 0.10495838 0.04860985 0.088561386
000230 3e 89 39 3c 76 d9 9c bc 8d c4 d0 3d 67 0e 42 3d
       0.011324225 -0.019146662 0.10193739 0.047377016
000240 d0 df 9f 3b bb 86 99 3d 04 ee 32 3d 4a 03 c3 3d
       0.0048789755 0.07496401 0.04368402 0.09522112
000250 cc 8a 88 bd 9a b5 c9 3d 82 7e 17 3d 3a 20 5f bd
       -0.066670984 0.09849091 0.03698588 -0.054474093
000260 cc 70 93 3b 04 7a 72 bc db cc c0 bc db 99 81 3d
       0.0044995304 -0.014799599 -0.023535183 0.06328174
000270 a9 7d 9e 3d 88 32 c8 3b 61 6c 9f 38 be 2d 9a bd
       0.077388115 0.0061095394 7.601898e-05 -0.07528256
000280 23 a7 81 3d 30 95 08 3c 51 22 e6 bc 86 4d 26 3d
       0.06330707 0.00833635 -0.028092535 0.040601276
000290 16 f7 21 bb 94 c8 bc 3d 4c 6e 6b 3b 8c 80 69 ba
       -0.0024713925 0.09217945 0.0035923896 -0.00089073996
0002a0 36 d0 e1 bc db 60 01 3d 29 85 25 bd f6 84 f4 bb
       -0.027565103 0.03158651 -0.040410195 -0.0074621392
0002b0 92 16 43 3d 78 05 8e bd d4 c6 f6 bc 8d f4 45 3d
       0.047628947 -0.06934637 -0.030124106 0.048328925
0002c0 6c 03 c3 3d 23 e9 01 bd 7f be a8 ba ea 52 40 3d
       0.09522137 -0.031716477 -0.0012874155 0.046954073
0002d0 f4 08 c3 bb 20 68 25 3d c9 74 8c bd a9 c0 0a 3d
       -0.005951995 0.040382504 -0.068582125 0.03387514
0002e0 9f b1 85 bc 88 d5 1f bd cc 87 2b bd 7e 24 53 bd
       -0.016320048 -0.039022 -0.041877553 -0.051548474
0002f0 87 1c 0f bc ff 91 c2 bb 50 99 bc 3c 49 b7 18 3d
       -0.008734829 -0.0059378142 0.023022324 0.03728417
000300 14 63 9d 3d cb cc fa 3c 77 76 09 ba 15 75 67 bd
       0.07684913 0.030615231 -0.0005243788 -0.056508143
000310 ac d1 6a bc 1e 33 f5 3b 05 e3 b6 bd 05 c5 a7 bd
       -0.014332216 0.0074829003 -0.08930019 -0.08191875
000320 da 97 54 bd b8 28 8a 3c ec 9a 6f bd 59 cd 3d bd
       -0.05190263 0.01686512 -0.058497354 -0.046338413
000330 c6 98 3a bc 48 05 97 3d 1e 42 2e ba 82 d7 ae 3c
       -0.011388963 0.07374054 -0.00066474255 0.021342997
000340 b0 5f bc bc c6 24 28 3d 1c 27 a4 3c 55 33 d2 bc
       -0.022994846 0.041050695 0.02003818 -0.025659243
000350 73 e1 8a 3d b0 76 9a bc af a7 cb bb f1 71 56 bd
       0.06781282 -0.018855423 -0.006215058 -0.052354757
000360 fe 26 8d bd 04 b6 7f bc 62 9c a7 3d 97 ee 06 3d
       -0.06892203 -0.015607361 0.081841245 0.03294238
000370 4f 20 ba 3c 0f 43 b0 3a 9b ae de bc 2b 58 22 3d
       0.022720484 0.0013447719 -0.027182868 0.039634865
000380 5f 00 57 3d d3 42 9a bb 05 c2 54 3d 5c 42 83 3d
       0.05249059 -0.004707673 0.051942844 0.064091414
000390 74 de 2b 3c 8e 39 e2 3d b7 a9 7b bd 78 89 4b bd
       0.010490049 0.11046134 -0.06144115 -0.049691647
0003a0 47 fd 2f 3d 67 3e 71 bb 37 07 f8 bc c9 2f 63 3d
       0.042966153 -0.0036810876 -0.030276878 0.055465493
0003b0 86 5f 03 bd d7 ec 91 3c 5d fe 1f bd d7 4f 4b bd
       -0.03207352 0.01781313 -0.03906094 -0.049636688
0003c0 61 2a 8a bc c0 71 70 3c ef a1 43 3d 86 70 89 bd
       -0.016865911 0.014675558 0.047761854 -0.06710915
0003d0 f5 61 6e bd b7 66 9e bd 0f 36 d6 3c af 48 04 3d
       -0.058198888 -0.07734435 0.026148824 0.03229588
0003e0 ca da 49 3d 2a 6b bf bd 5b 21 e5 bd e3 59 7d bd
       0.04928092 -0.09346612 -0.11188003 -0.0618533
0003f0 b1 29 8d bd de 1a c9 bd 78 d0 fd bc fa b1 33 3b
       -0.06892718 -0.09819578 -0.030983195 0.0027419315

bias f4 [126]
000000 35 7a a0 bb 41 29 36 3b 0e cc 21 3b df 38 28 3c
       -0.0048973807 0.0027795585 0.0024688276 0.010267465
000010 78 55 ac 3b 9f d9 09 3d 62 fe 72 bc ec e7 90 bd
       0.005259212 0.033654805 -0.014831157 -0.070754856
000020 2f 88 47 3d 11 a0 bb bd be ac 56 3d 11 2a e3 bc
       0.04871386 -0.091613896 0.052410834 -0.02773002
000030 03 10 58 3c cb b5 83 bd 00 d8 8f bd 94 eb 6e 3d
       0.013187411 -0.06431159 -0.070236206 0.058330134
000040 71 2e e9 bc 23 b8 d8 3d 97 18 bb 3c 80 15 80 bd
       -0.028464528 0.10581996 0.022838874 -0.06254101
000050 bd 59 23 bc 16 e2 55 bd 3b a9 fd 3b 24 d4 98 bc
       -0.009970126 -0.052217565 0.007741121 -0.018655844
000060 f6 5a 36 3c cf 3f be 3c 9d 13 41 bc fc bd 70 3d
       0.011130085 0.023223786 -0.011784461 0.058774933
000070 5f 06 d2 3d d9 0d 5b bd a1 3f 04 3d 6c 3f b0 3d
       0.102551214 -0.053480003 0.032287244 0.08605847
000080 e1 ac 8c bd b5 da 44 bd ac 4f 58 3d c2 14 1e 3d
       -0.068689115 -0.048060138 0.052810356 0.038594015
000090 a9 9f e4 bc a8 f7 d9 bc 5f 43 bc bd 8c 83 d1 bd
       -0.027908163 -0.02660735 -0.091925375 -0.10230169
0000a0 e0 f2 41 bd 43 d0 4e 3d 52 40 9d bd d0 cd f2 bb
       -0.047350764 0.050491583 -0.07678284 -0.0074097887
0000b0 ce d2 69 3d c9 b2 3c b9 07 da 72 3c aa dd de 3d
       0.057085805 -0.0001799568 0.01482249 0.10882123
0000c0 76 fc cb 3b 6b 85 1c bd a6 5e 0a 3d 63 4c 43 3d
       0.006225164 -0.038213175 0.03378167 0.04768027
0000d0 67 83 f6 bb f5 05 27 3d 80 e9 07 be 14 fd 5b bd
       -0.0075229886 0.040777165 -0.13272667 -0.05370815
0000e0 f2 a4 35 bc b1 85 88 bd 98 20 87 bb 5d 84 79 3d
       -0.011086689 -0.066661246 -0.0041237585 0.060917247
0000f0 78 dd 15 3d 88 08 fe 37 83 53 43 bd 08 41 87 bc
       0.036588162 3.0283132e-05 -0.047687065 -0.016510502
000100 47 63 2f bc f5 0c 93 3c e3 a7 4c 3d e1 ab 70 3d
       -0.010704822 0.017950514 0.049964797 0.058757666
000110 84 04 e3 3c 5c 74 89 bd 7a ab bb bd 43 f9 49 3d
       0.027712114 -0.06711647 -0.09163566 0.04930998
000120 54 ee 75 bb e6 8a 0b 3d 82 bd 02 bd db 14 e5 bc
       -0.0037526088 0.03406801 -0.03191901 -0.027964046
000130 59 46 77 bd 6c d1 1b 3c b7 fc d1 bd c4 26 f7 3a
       -0.060369823 0.009510379 -0.1025328 0.0018856158
000140 85 89 01 be 16 6f a3 bd d8 9a a9 bd 7c 9a 51 3b
       -0.12650116 -0.07980172 -0.08281487 0.003198295
000150 d9 43 99 bd 68 53 c6 bc 99 21 e6 bc 8e 04 b0 bd
       -0.07483644 -0.024209693 -0.028092192 -0.08594619
000160 96 f8 ad 3c 87 86 78 3d 72 ab 53 bd 29 6f fd 3c
       0.0212367 0.06067517 -0.051677175 0.030936794
000170 ea 96 d3 bc 77 77 e0 3b 92 b9 2a 3a 22 d2 eb 3c
       -0.025828797 0.006850179 0.00065126375 0.028786723
000180 97 8d 81 3d 30 a0 ab 3c 31 85 dc bd 42 b1 ac 3d
       0.06325834 0.020950407 -0.10767592 0.08432247
000190 2b 59 4f bd 8c 6a 05 3d 12 b4 d4 bd 54 97 a8 bc
       -0.050622147 0.032572314 -0.10385908 -0.020579971
0001a0 16 cd 8e bc b4 b4 bd bb 9d 37 9f 3d 78 fd 9a 3c
       -0.017431777 -0.0057893638 0.07774279 0.018919691
0001b0 07 56 30 3c f6 ce e5 bd ac ec 58 3d 1b a6 bd bd
       0.010762698 -0.11221115 0.052960083 -0.09260198
0001c0 0e 51 f4 bc b1 d9 68 bd 39 0e b5 bd 00 72 70 bd
       -0.029823806 -0.05684823 -0.088406034 -0.05870247
0001d0 c4 da 95 bd b9 8c 89 bd e3 8b 87 bd 3d 2e 56 3d
       -0.07317117 -0.06716294 -0.06618478 0.05229019
0001e0 3a 9b 70 3d 08 4a 1c bd 70 5e 59 bb 28 17 f1 bc
       0.058741786 -0.03815654 -0.0033167861 -0.029429987
0001f0 5f 26 e3 bd d7 31 cb 3d
       -0.11091303 0.099216156

weight f4 [126]
000000 53 9e 3f 3f 5e 52 56 3f 34 6b 52 3f db 12 61 3f
       0.7485096 0.8371943 0.8219483 0.87919396
000010 36 bc 53 3f a5 6d 49 3f de b3 4f 3f ef 60 5e 3f
       0.8270906 0.7868293 0.8113383 0.8686666
000020 55 af 38 3f cb 7a 58 3f 58 f7 63 3f c3 35 5b 3f
       0.72142535 0.8456237 0.8904929 0.8562891
000030 15 42 5c 3f e5 10 74 3f aa e3 6c 3f 98 9e 69 3f
       0.86038333 0.9533828 0.9253489 0.9125762
000040 5b 75 5a 3f 62 c7 34 3f f1 cd 56 3f da f5 41 3f
       0.8533532 0.70616734 0.8390799 0.75765765
000050 87 a7 53 3f b3 95 4d 3f 48 33 4b 3f ff c6 60 3f
       0.826775 0.8030655 0.79375124 0.87803644
000060 6f 1c 42 3f eb 53 43 3f 3f d5 56 3f a6 15 67 3f
       0.75824636 0.76299924 0.8391914 0.9026741
000070 26 85 3f 3f 60 ef 36 3f b5 44 48 3f eb 92 4e 3f
       0.74812543 0.7145901 0.7822984 0.8069293
000080 cf 3a 3d 3f 16 ce 62 3f e1 3e 38 3f 97 fa 59 3f
       0.7391786 0.8859571 0.71970946 0.85147995
000090 90 ca 3b 3f c8 54 5f 3f 6e 41 5d 3f 67 aa 45 3f
       0.7335596 0.8723874 0.8642796 0.7721314
0000a0 83 40 44 3f 60 ec 5d 3f ee b9 48 3f 9b 66 6c 3f
       0.7666094 0.86688805 0.78408706 0.92344064
0000b0 77 ea 46 3f 82 ce 53 3f 54 bc 5f 3f b6 bb 52 3f
       0.77701515 0.8273698 0.8739674 0.82317674
0000c0 b8 b2 66 3f 5b ce 6a 3f 81 1e 3e 3f a2 78 29 3f
       0.90116453 0.91721123 0.74265295 0.66199696
0000d0 44 5c 71 3f 3a 79 56 3f 63 d5 3d 3f d3 52 3d 3f
       0.9428141 0.8377873 0.7415373 0.73954505
0000e0 76 4d 52 3f f8 a4 3e 3f 45 7b 44 3f e2 19 43 3f
       0.82149446 0.7447047 0.76750594 0.7621137
0000f0 f1 fd 52 3f 6c 07 50 3f fe e9 62 3f 79 d3 46 3f
       0.82418734 0.81261325 0.88638294 0.7766643
000100 ca c4 58 3f 3b e1 45 3f 09 d8 4a 3f 5e a9 49 3f
       0.84675276 0.772968 0.79235893 0.7877406
000110 ba e6 48 3f 50 9c 34 3f 2b 8d 41 3f 7e 38 56 3f
       0.7847706 0.70551014 0.7560603 0.8367995
000120 84 91 3f 3f 4d 27 45 3f 61 ba 81 3f c2 ff 62 3f
       0.74831414 0.77013093 1.0135003 0.88671505
000130 b0 07 4a 3f 6c 3b 57 3f a8 94 5c 3f 08 04 5c 3f
       0.7891798 0.84075046 0.8616433 0.8594365
000140 89 7e 6b 3f fb a4 5a 3f c2 27 45 3f a1 15 53 3f
       0.9198995 0.8540799 0.7701379 0.8245488
000150 fa 09 40 3f 3e 1b 47 3f 1e db 47 3f a7 f9 4e 3f
       0.75015223 0.77775943 0.7806872 0.8084969
000160 08 4e 4e 3f 98 23 5b 3f 0b c5 4a 3f 09 6e 62 3f
       0.80587816 0.85601187 0.79206914 0.8844915
000170 bc 0f 71 3f 53 8e 1b 3f e9 0d 38 3f af 84 55 3f
       0.94164634 0.60764045 0.71896225 0.83405584
000180 f3 a5 59 3f 98 95 4d 3f 0a 8f 4a 3f 87 81 3e 3f
       0.85018843 0.80306387 0.7912451 0.74416393
000190 42 3b 42 3f e7 ce 49 3f 76 e5 41 3f f4 90 51 3f
       0.7587167 0.7883133 0.75740755 0.81861806
0001a0 b5 63 41 3f 50 93 54 3f e2 1f 55 3f ef 93 63 3f
       0.75542766 0.8303728 0.83251774 0.88897604
0001b0 b2 a3 36 3f 66 ec 64 3f b8 7d 57 3f 64 40 50 3f
       0.7134353 0.89423215 0.84176207 0.8134825
0001c0 4b fb 56 3f fc ea 42 3f 85 9d 2c 3f 57 45 64 3f
       0.8397719 0.7613981 0.67427856 0.89168304
0001d0 b2 98 3d 3f 63 0d 47 3f 6a 99 60 3f e3 d9 58 3f
       0.7406112 0.777548 0.8773409 0.8470747
0001e0 dc 36 3c 3f 77 b2 3a 3f ac 82 58 3f d6 16 4a 3f
       0.7352121 0.72928566 0.8457439 0.78941095
0001f0 69 42 57 3f c1 d4 4b 3f
       0.8408571 0.7962151

bias f4 [126]
000000 1e 08 24 3c 33 e5 69 bd 87 42 71 bd c9 63 84 bc
       0.010011701 -0.057103347 -0.058901336 -0.016160863
000010 e4 4c a5 bd f5 88 2f bc c3 c6 e1 bd 8c ea c5 bc
       -0.08071306 -0.010713805 -0.11024239 -0.024159692
000020 e7 e0 a1 3d c9 c9 81 bd fe 43 3a bd 61 19 0e be
       0.07904225 -0.063373156 -0.045475 -0.13876869
000030 99 94 8d bd 0a 36 87 bd 81 31 aa bc 02 03 fb 3a
       -0.069131084 -0.06602104 -0.020775558 0.0019150677
000040 8e 26 89 bd 35 5b 65 38 2e 63 50 bd cb 80 0e 3d
       -0.06696807 5.4682798e-05 -0.050875835 0.034790795
000050 5a 3f cd bc e3 51 08 be 3e fc 5b bd 0c ee 36 bc
       -0.025054622 -0.13312487 -0.053707354 -0.011165153
000060 27 2a 9b bd 2d c8 af bc 04 cc e2 bd 50 51 b1 bd
       -0.07576399 -0.021457756 -0.11074069 -0.08658087
000070 3f 63 3b bc b4 b2 14 3b 9b 3f c5 3c 17 74 16 3c
       -0.011437236 0.0022689523 0.024078181 0.009182951
000080 62 39 f5 bb 0a 2a e8 bb c3 21 40 bd e7 91 5b 3c
       -0.007483647 -0.0070850896 -0.046907198 0.013401485
000090 5f 98 88 bd f6 03 cd bc cc fa be 3c fa 86 a2 bd
       -0.066696875 -0.025026303 0.023312949 -0.07935901
0000a0 77 d7 1c bd 2c a9 4f bd 92 50 02 bd ca 7b bb bc
       -0.03829142 -0.050698444 -0.03181512 -0.022886176
0000b0 56 1e e7 3c fc f3 12 3d 74 a3 9b bd 89 97 98 bd
       0.028212707 0.035877213 -0.075995356 -0.07450778
0000c0 de 74 62 3c 72 1d 06 be 9e 29 b1 bc 6e 03 65 bc
       0.013821809 -0.1309717 -0.02162629 -0.0139778685
0000d0 80 ee 0f bd 2b 32 6c bc a8 5d 0d bb 40 2c 05 bd
       -0.03513956 -0.014416258 -0.0021570716 -0.032512903
0000e0 00 b4 c6 bd eb a2 e4 bb eb 9b 15 bd 44 c6 45 bd
       -0.09702301 -0.006977429 -0.036525648 -0.048284784
0000f0 01 e9 5f bd 27 d1 2e 3c e4 67 c1 bd e0 d8 96 bc
       -0.05466557 0.010669983 -0.09443644 -0.018413961
000100 97 ac 86 3c 75 0c e4 ba 8e 6c 61 bd ff 56 f2 bd
       0.01643972 -0.0017398732 -0.055035166 -0.118329994
000110 ab f2 ea bc f6 ea b3 bc 73 c9 01 be 46 4e 36 bc
       -0.028680166 -0.021962624 -0.12674503 -0.01112706
000120 22 1f 4d bd fc 21 73 3c a4 5d c0 bd fe c7 dd bd
       -0.05007852 0.0148396455 -0.093928605 -0.10829161
000130 86 27 d3 bb f7 d5 c5 bc 5a c9 13 bc 57 b8 22 bd
       -0.0064439205 -0.024149878 -0.009020174 -0.03972658
000140 1c bc 78 bb 0c 00 f2 bc 47 3b eb bd e4 65 8d bd
       -0.0037953919 -0.029541038 -0.11485916 -0.069042
000150 ba ff 8a 3c 03 8f 62 bd 16 d0 88 bd ca ed 32 bd
       0.016967643 -0.055312168 -0.06680314 -0.043683805
000160 0e b7 81 bd 49 dc 1a 3d 0d 40 b8 bd 2d 4a 68 bd
       -0.06333743 0.037807737 -0.08996592 -0.056711365
000170 b0 24 ff bd b1 95 83 3d 84 8b 90 bd 0e d4 46 bd
       -0.124581695 0.06425036 -0.070578605 -0.048542075
000180 60 83 45 3d 78 67 d2 bd 94 b0 9a 3c 41 9b a0 bc
       0.048220992 -0.10273641 0.018883027 -0.01960528
000190 e0 1c cb 3b 2d 5d a3 bb 22 c6 61 3d a7 b5 83 bb
       0.0061985105 -0.0049854727 0.055120595 -0.0040194574
0001a0 ce 24 63 bd 90 4f d5 bd 3a 83 0f bc fb 88 c6 bd
       -0.05545502 -0.10415566 -0.008759314 -0.09694096
0001b0 d1 7f 96 3b ab 3c ad bc 5e 8e da bd 3a 90 25 bd
       0.0045928736 -0.021147093 -0.10671686 -0.04042075
0001c0 e2 24 ae bd 86 03 78 bd c5 ab 95 bd 40 09 db bd
       -0.085031286 -0.060550235 -0.07308153 -0.10695124
0001d0 74 ef 95 3d 54 ea 30 bd 2a 40 af bc fa 3b 13 3d
       0.07321063 -0.043192223 -0.0213929 0.03594587
0001e0 bc 5e a6 3c ad b9 25 bd 2c 96 8f 3c 7e ca b7 3c
       0.020308845 -0.040460277 0.017527662 0.022435423
0001f0 74 8b b5 bc 9a c9 2c 3d
       -0.022161223 0.04218445

running_mean f4 [126]
000000 b8 c3 20 3e fe e6 8a 3e 8d dc 92 3e 5e 0f 11 3e
       0.15699661 0.27129358 0.28683892 0.14166018
000010 1c a9 95 3d 7d c9 81 3e cf c2 2c 3e e5 38 3d 3e
       0.07307646 0.25349036 0.16871189 0.18478735
000020 44 a9 35 3e d3 7a 15 3e 92 c2 6d 3e 04 92 4f 3e
       0.17740351 0.14597635 0.23218754 0.20270544
000030 eb 0d 47 3e 6d 04 b6 3d 8b dc 06 3e 73 d2 52 3e
       0.19438903 0.08887563 0.13170068 0.20588093
000040 e3 52 41 3e be 5d 29 3e e0 74 53 3e 25 14 04 3e
       0.18879275 0.16539666 0.20650053 0.1289831
000050 28 d9 53 3e 1e bc fc 3d 88 e0 16 3e f8 0e 50 3e
       0.20688307 0.12340568 0.1473409 0.2031821
000060 69 65 3b 3e ba b8 2d 3e 50 04 61 3e 27 ee 65 3e
       0.18300404 0.16964999 0.21974301 0.22454129
000070 0e af fd 3d c8 95 be 3d 24 07 ec 3d 5f 5e 3e 3e
       0.12386905 0.09305912 0.115247995 0.18590687
000080 aa 91 91 3d 69 88 64 3e af b4 3a 3e e2 d3 96 3e
       0.07107861 0.22317661 0.18232988 0.2945853
000090 f4 ea be 3d 6c 87 2d 3e 6c 46 2c 3e 38 ca fb 3d
       0.093221575 0.1694619 0.16823739 0.122944295
0000a0 94 59 0d 3e 7f 69 8d 3e 8f e9 89 3e 9b 0e 08 3e
       0.13803703 0.2761955 0.26936004 0.13286822
0000b0 e7 68 6b 3e 8f de 09 3e 98 24 13 3e 85 9d 6b 3e
       0.22989236 0.13463806 0.14369428 0.23009308
0000c0 0b fa a4 3e cc ed 1d 3e e1 9c 62 3e e7 d3 07 3e
       0.32222018 0.15422744 0.22130157 0.13264428
0000d0 41 3f 3d 3e d2 cb d6 3d 74 37 3f 3d 7c 1a 99 3d
       0.1848116 0.104880944 0.046683744 0.074757546
0000e0 26 2f 56 3e ad 5a 3d 3e 54 be 1c 3e 66 2a 82 3e
       0.20916423 0.18491621 0.1530698 0.25422972
0000f0 e1 f3 44 3e 5a 85 21 3e 95 87 3e 3e 90 14 dc 3d
       0.19233657 0.15773526 0.18606408 0.107461095
000100 48 61 17 3e 70 ca 23 3e 10 d0 47 3e 96 1d 20 3e
       0.14783204 0.15995193 0.19512963 0.15636286
000110 d4 fc 21 3e b9 5e 5e 3d a9 20 07 3e db 3f cb 3e
       0.15819103 0.054289553 0.13196053 0.39697155
000120 f5 0f 52 3e e3 57 53 3e 15 ca 72 3e f9 9e 6c 3e
       0.205139 0.20638995 0.237099 0.23107518
000130 56 45 0e 3e 97 41 33 3e 8c 90 26 3e dc cd 5e 3e
       0.13893637 0.1750549 0.16266078 0.21758217
000140 22 75 95 3d 0f 97 0e 3e 8d 1e 16 3e 68 fb 92 3e
       0.07297732 0.13924812 0.14660092 0.28707433
000150 c8 ea 0f 3e 6d d8 48 3e c1 8b ce 3d 27 f2 f3 3d
       0.14054406 0.1961381 0.1008525 0.11911421
000160 64 7f 96 3e 6e 85 88 3e a4 7a 31 3e 7c ff 03 3e
       0.29394066 0.266643 0.1733194 0.12890428
000170 ba ab 29 3e bd c1 c9 3d bf 6d 50 3e 02 f4 77 3e
       0.16569415 0.09851406 0.20354365 0.24214175
000180 5b c4 60 3e 0b e1 23 3e 0d c5 05 3e 00 c9 23 3e
       0.21949904 0.16003816 0.1306345 0.15994644
000190 8b 0a 0b 3e 4c 86 71 3e 4e 9a 2e 3e c2 e9 24 3e
       0.1357824 0.23586386 0.1705105 0.16104797
0001a0 3b 0d c9 3d 7e 65 5c 3e 4b 05 20 3e 9c e8 55 3e
       0.09816977 0.21523091 0.15627019 0.20889515
0001b0 0b ab 5f 3e 53 9d 2d 3e c1 59 1d 3e 30 b8 44 3d
       0.21842591 0.16954546 0.1536627 0.048027217
0001c0 75 c4 40 3e be f0 89 3d a4 57 71 3e f8 69 06 3e
       0.18824942 0.06735371 0.23568588 0.13126361
0001d0 b9 0d d3 3d 9b 96 30 3e 5e f8 1d 3e 80 df 68 3e
       0.10305352 0.17244951 0.15426776 0.22741508
0001e0 3d 18 fd 3d 3b ec 1b 3e 78 7f 2d 3e f3 24 cf 3d
       0.12358139 0.15226834 0.16943157 0.101144694
0001f0 c5 41 52 3d 76 1c 3b 3e
       0.051332254 0.18272576

running_var f4 [126]
000000 97 bb 4e 3e 01 9b 3b 3f 70 09 59 3f 73 aa 02 3f
       0.20188747 0.7328339 0.84780025 0.51041335
000010 36 34 28 3e 14 4c b5 3e 3f 96 02 3f 26 e5 27 3f
       0.16426167 0.35409606 0.5101051 0.6558403
000020 4e c7 64 3e 49 15 d6 3e af 2d 3a 3f 74 7a 3b 3f
       0.22341654 0.41813114 0.7272596 0.73233724
000030 e3 07 33 3f 71 21 93 3e eb 3d f1 3e e5 ef 0f 3f
       0.6993391 0.2873645 0.47117552 0.56225425
000040 f1 32 08 3f df cf b2 3e f7 1a de 3e 8b f4 43 3e
       0.5320273 0.34924218 0.43379948 0.19136254
000050 eb 0d a5 3e 22 f3 e1 3e a1 00 9b 3e e5 72 30 3f
       0.3223718 0.44130808 0.30273917 0.68925315
000060 c1 ae 06 3f cf 27 86 3e 0b 13 1b 3f 0c af 0f 3f
       0.52610403 0.26202247 0.6057593 0.56126475
000070 bc cc 53 3e 27 3c 26 3e 44 f4 76 3e cf 81 8d 3e
       0.20683569 0.16233884 0.24116617 0.276381
000080 a3 99 23 3e b4 92 1b 3f ef ae 75 3e 76 1b 34 3f
       0.15976577 0.60770726 0.23992513 0.703544
000090 2c ee 93 3e fd 52 02 3f e5 72 eb 3e 4a b5 59 3e
       0.28892648 0.5090788 0.45986095 0.21260563
0000a0 09 d3 b2 3e d0 df 43 3f 57 f0 3a 3f dc e6 dc 3e
       0.34926632 0.76513386 0.7302298 0.43144882
0000b0 b9 7b b2 3e 4a b3 92 3e 37 fb f0 3e 2f ab a9 3e
       0.34860018 0.28652412 0.47066662 0.33138415
0000c0 d1 24 79 3f 36 0e 0d 3f 71 e5 98 3e 4c e7 36 3e
       0.973218 0.5509981 0.2986255 0.1786167
0000d0 52 36 27 3f 1d dc 9b 3e 20 68 cd 3d db 1b 1b 3e
       0.6531726 0.3044137 0.10029626 0.15147345
0000e0 f1 97 0b 3f 31 5e a7 3e 60 23 8d 3e e5 79 04 3f
       0.5452872 0.3268905 0.2756605 0.51748496
0000f0 6e 5b b6 3e ac ec b5 3e a0 e1 fc 3e 86 cc 7e 3e
       0.3561663 0.3553213 0.49390888 0.24882707
000100 d9 11 8f 3e 47 fd a5 3e 22 9d cb 3e b6 a2 82 3e
       0.27943304 0.32419798 0.3976832 0.25514764
000110 34 d6 35 3e 8b a5 e2 3d 7d fa b0 3e 8e 51 79 3f
       0.17757493 0.11066731 0.34566107 0.9739007
000120 10 77 a7 3e a4 22 b3 3e 02 03 71 3f 0d 74 b3 3e
       0.32708025 0.34987366 0.94145215 0.35049477
000130 16 b3 a1 3e c7 25 e6 3e bc 88 00 3f 3d f8 bc 3e
       0.31581944 0.44950697 0.5020864 0.3690814
000140 bf 91 cb 3e ff 6b c0 3e a1 06 9c 3e fe cd 2f 3f
       0.39759633 0.37582394 0.30473807 0.68673694
000150 85 cb b6 3e fc 53 c5 3e 06 63 74 3e ed 0f d0 3e
       0.35702148 0.38540637 0.238659 0.4063715
000160 cb 7f 1a 3f 18 69 05 3f 57 27 d3 3e 35 58 86 3e
       0.60351247 0.52113485 0.4124095 0.26239172
000170 34 ec f7 3e 98 8f fc 3d 80 12 ce 3e 46 f3 3b 3f
       0.48422396 0.12332076 0.4024849 0.7341808
000180 d2 d0 00 3f 44 aa fc 3e f3 14 84 3e 65 eb 83 3e
       0.50318635 0.49348652 0.25797233 0.2576553
000190 8e bb b4 3e 9b cd da 3e e2 58 03 3f 28 bb f6 3e
       0.35299343 0.4273499 0.513075 0.48189664
0001a0 a2 0c 40 3e d4 dc f1 3e 37 95 8f 3e c3 10 1d 3f
       0.18754819 0.4723879 0.2804353 0.613537
0001b0 30 6c a7 3e cf 0a fc 3e 07 4e b3 3e 1c 1b 44 3e
       0.32699728 0.49226996 0.35020468 0.19150966
0001c0 66 07 01 3f bf cf 31 3e 7f 73 c4 3e 76 af 11 3f
       0.50401914 0.17364405 0.38369367 0.5690836
0001d0 5f da 11 3e 17 53 b9 3e 7c a7 01 3f 3d 26 ae 3e
       0.14243458 0.36196205 0.50646186 0.34013548
0001e0 fb ff 39 3e 19 6d da 3e 38 6a d1 3e c3 5b 36 3e
       0.18164055 0.4266136 0.4090135 0.17808442
0001f0 19 f4 5a 3e b9 11 5a 3e
       0.21382178 0.21295823

weight f4 [45, 126]
000000 76 3e f8 bc c2 d6 b2 3d 37 14 30 bd ae 0a c6 3d
       -0.030303221 0.08732368 -0.04298803 0.09670006
000010 38 54 0f bd 08 c3 21 bd ed cd f8 3c 9f ab 9b 3d
       -0.034992427 -0.039492637 0.03037163 0.076010935
000020 c4 6f 1e bd 86 8c 8b 3d a3 48 be bc 6f a3 a6 bb
       -0.038680807 0.06813912 -0.023227995 -0.005085401
000030 de 72 a9 3c 4c 5e 97 3b 80 93 72 3d e2 c8 f7 3d
       0.020684656 0.0046193954 0.0592227 0.12098862
000040 88 87 10 bd 5f 40 53 3d 72 2c d8 3c 16 c0 93 3c
       -0.035285503 0.05157506 0.02638838 0.01803593
000050 a4 26 f2 3c 1a 56 c5 3d 44 65 56 bd 9d 84 d4 bc
       0.02955944 0.09635563 -0.05234267 -0.025942141
000060 86 a8 44 3d 6f 06 6f bd 97 e0 53 bc 32 55 81 3d
       0.04801228 -0.058355745 -0.012931964 0.06315078
000070 18 e6 b9 3d cb 13 4f bc 16 31 b6 3d 45 e5 23 bd
       0.0907709 -0.012638996 0.08896081 -0.04001357
000080 94 3c b0 3b 12 04 99 bd 36 a6 06 3d 43 89 3d bd
       0.005378315 -0.074714795 0.032873355 -0.04627348
000090 fd e7 aa 3b 53 2b 57 3d 5f 5e eb bc 22 c7 00 3d
       0.0052156434 0.05253155 -0.028731523 0.031439908
0000a0 3a 86 96 3c 48 36 0e 3c 29 b4 e0 bc d8 52 31 3d
       0.018374551 0.008679934 -0.027429657 0.043291897
0000b0 43 6d 0c 3c dc 1a 4c 3d 24 60 d0 3c 83 54 01 3d
       0.008570972 0.049830303 0.025436468 0.031574737
0000c0 e6 6b 5a bd 81 5a f3 3c 5c 97 a1 bd e7 9a a0 3c
       -0.053325556 0.029706242 -0.07890198 0.019605113
0000d0 e6 ad e4 3d cf cc ac 3d 85 26 02 bd 78 58 6b bd
       0.11165981 0.08437502 -0.031775016 -0.057457417
0000e0 15 3b 03 3d 18 b6 0d bd 6c 0e e9 3c 8f eb e5 bc
       0.032038767 -0.034597486 0.02844926 -0.028066425
0000f0 9f 11 89 bb 5d cb fa 3d 64 2f 81 bd 6a 65 7b bd
       -0.004183009 0.1224582 -0.06307867 -0.061376013
000100 c5 c8 0f be 6c 43 5c bd 3f 88 c5 bc 96 7f 05 bc
       -0.14041431 -0.053775236 -0.024112819 -0.008148095
000110 6a b6 4f 3c 84 57 94 3c fc cf a7 3c ed 9c ea bc
       0.012677768 0.018108137 0.020484917 -0.028639281
000120 34 f5 5e 3d bc ea 8d bd a7 53 61 bc b3 c7 66 bc
       0.054433063 -0.06929538 -0.013752854 -0.014085698
000130 0a cd 45 3d 08 9f 7b 3a c1 8d be 3d d0 51 86 bd
       0.048291244 0.00095985876 0.09304381 -0.06558573
000140 54 e8 12 3e c3 2e cf 3b d2 c9 bf bb 57 98 63 bd
       0.14346439 0.006322713 -0.0058529163 -0.055565204
000150 e6 11 b5 bb d9 2e 37 3d 9c a0 8a 3d f2 1d 68 bd
       -0.0055258153 0.04472241 0.06768915 -0.056669183
000160 f7 05 93 3c 75 ab 5f ba ec 6e 21 bd c5 ba f5 3c
       0.01794718 -0.0008532324 -0.039412424 0.029996285
000170 5d ca 82 3d 52 e1 4e 3a a2 8e de 3c 4c a6 90 3d
       0.06386254 0.0007891852 0.027167622 0.070629686
000180 67 e6 a6 3c 68 f4 af 3d 1c b4 70 3d 1e bb 61 3d
       0.020373536 0.08591539 0.058765516 0.05511009
000190 ae d1 4a 3c fe bb 94 3d 3b bb f6 3a 92 9c 0d 3d
       0.012379093 0.07262419 0.001882411 0.034573145
0001a0 95 9a 1c 3d 86 02 ce 3d 1c f2 8c bd 63 1b 24 3c
       0.03823336 0.10059075 -0.06882116 0.010016295
0001b0 67 1c 36 3d 12 b3 ac bd ed 02 e3 bc 26 6b d8 bc
       0.04446068 -0.084325925 -0.027711356 -0.02641828
0001c0 4d 30 27 3d 56 ed 03 bd bb bf 2f 3d 50 6c dc 3b
       0.040817548 -0.032208763 0.042907458 0.006726779
0001d0 82 24 f9 bd 1c 46 60 bd 52 13 91 bd 55 19 a9 3c
       -0.121651664 -0.05475436 -0.07083763 0.020641962
0001e0 5d 9a 04 bd 50 dc 21 3d 20 24 e4 3a 00 64 c7 3d
       -0.032373775 0.039516747 0.0017405786 0.0973587
0001f0 7a 4d 98 3c 52 63 dc 3c dc 03 89 bd 6c 70 7a 3d
       0.018591631 0.026902828 -0.06690189 0.06114237
000200 fa 5f 9a bc 82 c7 c8 bb f3 bf e2 3d 05 fc 65 3c
       -0.018844593 -0.006127299 0.11071768 0.014037137
000210 c5 46 13 bd 30 07 04 bd 65 92 64 3d d2 6c f1 bb
       -0.035956163 -0.032233417 0.055803675 -0.0073677087
000220 79 b6 4c 3d d3 90 76 3d 5f 65 50 ba e1 cf f4 3d
       0.049978707 0.06019671 -0.0007949676 0.11953712
000230 e6 28 e7 3d 92 8d ad 3d 5e fd 89 3d fd 61 75 bc
       0.11287098 0.08474268 0.06737779 -0.0149769755
000240 34 ad b9 3d 5d fe cf 3c 2f 0f 56 bd 3d 9f 05 bd
       0.09066239 0.025389845 -0.052260574 -0.032622565
000250 bb 4e ee bc 24 88 09 3e b4 06 52 3d 24 a0 50 3c
       -0.029090276 0.1343084 0.051275924 0.012733493
000260 48 aa d1 bd fb 1c 4f 3c f4 1c c9 bc 96 23 92 3d
       -0.10237557 0.012641187 -0.024549939 0.07135694
000270 f1 48 59 bd f8 3c d5 bd 7c 66 be bd 0e 3a 6e bd
       -0.053048078 -0.104120195 -0.09296891 -0.058160834
000280 6c 7a 41 bd 1d 23 8f bd 6e 1d 08 3d 1f e7 e2 3d
       -0.04723589 -0.06989119 0.03323119 0.11079239
000290 1f 07 91 3d a3 5e 2c 3d 81 02 7e 3d 0a bc 92 bd
       0.07081436 0.04208244 0.062014107 -0.07164772
0002a0 f2 cb 6b bd b9 e4 29 bd 8e 77 c3 3c 7a 10 2b bd
       -0.057567544 -0.041477893 0.023860719 -0.04176376
0002b0 a5 70 2c bc 71 32 9b bd 87 b9 72 bd d0 b7 0b 3d
       -0.010524903 -0.0757798 -0.059258964 0.034110844
0002c0 d5 0a 0e 3d dc 38 90 bd cf 0b c4 3d 54 d2 8c 3d
       0.0346783 -0.07042095 0.09572565 0.068760544
0002d0 60 dd 0b bd 3f fc 0f 3c 40 3a 06 3d eb e6 f9 ba
       -0.034146667 0.0087881675 0.032770395 -0.0019066011
0002e0 88 76 81 bd 1e a5 24 bc e0 f6 aa bb d7 a9 18 3d
       -0.06321436 -0.010049133 -0.005217418 0.037271347
0002f0 90 3e a9 3d 5f 24 1c 3e 15 c1 ec 3b bd 20 67 bd
       0.08263886 0.1524825 0.0072251656 -0.056427706
000300 28 c9 83 3d bf 94 22 3c be 57 a9 bb fc 8e 7b 3d
       0.06434852 0.009923159 -0.0051679304 0.061415657
000310 4d e8 d1 bb 1a df 82 bd 99 01 a3 bd 76 ee 5b bd
       -0.0064058662 -0.063902095 -0.07959289 -0.05369421
000320 f6 2d 01 3e ac 10 1d bd f4 50 77 bc 51 02 f5 3d
       0.12615189 -0.038345978 -0.015094984 0.119633324
000330 dc 8f da bc d2 d6 97 bc b3 e2 01 3e d1 67 14 bd
       -0.026679926 -0.018535051 0.12684135 -0.03623182
000340 b6 11 b5 3b 83 2f 17 3a 5d 51 b2 3d 26 be 03 3d
       0.005525793 0.00057672727 0.08706925 0.03216376
000350 0f 1f 8d bd 3f 24 12 3d b8 ed 0d bd 13 be 3d 3d
       -0.068906896 0.0356791 -0.034650534 0.046323847
000360 41 32 bf bc 53 5a 28 3d d3 8d 39 be cc ca de ba
       -0.023339393 0.041101765 -0.18120508 -0.0016997694
000370 d1 72 28 3d ba be 03 bb dc 45 52 bd d9 7f 7c bd
       0.041125122 -0.0020102696 -0.051336154 -0.061645363
000380 bf ba b1 3b 3e 96 78 bb cc fe 04 bd f3 35 c5 3c
       0.005423873 -0.0037931348 -0.032469556 0.024073577
000390 99 52 32 3b 98 3a d6 3c 3c 36 ca bc 51 cf 0c 3c
       0.0027209877 0.026150987 -0.024684064 0.00859435
0003a0 1b 06 9c bd 3d 65 03 3d da 8d c6 bd b2 70 b3 bc
       -0.07618352 0.03207897 -0.09695025 -0.021904323
0003b0 04 8c 82 3d 3b 70 f1 bc 26 a9 cc bc e8 08 06 bd
       0.06374362 -0.029472461 -0.024983 -0.032723337
0003c0 b6 e6 82 bc 8a 78 c3 3d fb 98 67 bd 13 b5 ca bc
       -0.015979152 0.095444754 -0.056542378 -0.024744546
0003d0 5f a5 20 3d 65 bf 8d bc 00 50 0f bb 05 9e 5c bd
       0.03922021 -0.017303178 -0.0021867752 -0.053861637
0003e0 a2 d6 a0 3d 87 cd a6 3b b3 7d 9e 3d df f5 10 be
       0.07853438 0.0050904187 0.07738819 -0.14156292
0003f0 9d e7 cb bd 0f 8e 1b bd fb 76 f5 bc ab 6a ea 3d
       -0.09956286 -0.037977275 -0.02996396 0.114461266

bias f4 [45]
000000 00 ef 50 bd d6 ce 6e bd 33 0e 93 3b b7 13 fc bc
       -0.05100918 -0.058302723 0.0044877767 -0.03077112
000010 91 27 f1 bd 81 a7 30 bc d4 2a 9b bc 57 db 2c bd
       -0.11775125 -0.010782124 -0.01894132 -0.042201366
000020 e2 de e5 3d ea 28 f8 3c 35 ae 1e 3d e7 58 4d bd
       0.11224152 0.030292947 0.038740356 -0.050133612
000030 9a 42 da 3c b3 54 51 ba 14 dc f3 bd be b5 c6 3c
       0.026643086 -0.00079853385 -0.11907211 0.024256583
000040 86 92 63 bd b1 7f 97 3d f7 a2 a0 bd df b2 91 bd
       -0.055559658 0.07397402 -0.07843583 -0.07114195
000050 c8 70 3b 3d 5f e0 f8 bc 71 c7 65 3d 49 73 9f 3c
       0.045761853 -0.030380426 0.056098405 0.019464152
000060 46 ab 29 3d 15 c5 9e bd 49 cb ec 3d b2 7b ac 3d
       0.041423105 -0.07752434 0.11562211 0.084220305
000070 a7 bf c7 3d a2 47 f0 3c f8 1f dd bd c3 9c c0 bb
       0.09753352 0.029331032 -0.10797113 -0.0058780625
000080 87 2d 61 bc 9f 63 c1 bd 42 2f df 3c 69 eb 9f bd
       -0.013743765 -0.09442829 0.027244214 -0.07808573
000090 d3 f6 d5 bd 55 10 48 bc ea 93 75 3d 2f 8b 3b bc
       -0.104474686 -0.012210925 0.059955515 -0.011446758
0000a0 a3 a9 b8 bd 05 e4 85 bd d2 4c c2 3b 41 20 5b 3d
       -0.09016731 -0.06537632 0.005929568 0.053497557
0000b0 f6 58 f9 bc
       -0.030437928

weight f4 [45]
000000 a9 26 03 3e 5f 08 20 3e 06 4b 12 3e 1a 48 a7 3d
       0.12807716 0.15628193 0.14286432 0.08168049
000010 22 22 b5 3d 70 c5 9d 3d ec 94 b3 3d ed 83 15 3e
       0.08844401 0.07703674 0.08768639 0.14601107
000020 b5 b7 93 3d fc bc 8e 3d 65 35 75 3d 5f 4f d8 3d
       0.07212774 0.0696964 0.059865374 0.10562014
000030 59 ba 80 3d 5f 49 04 3e a2 7c b8 3d 53 2d db 3d
       0.06285543 0.12918614 0.09008147 0.10702004
000040 fc 1d 28 3e e6 76 a9 3d 77 63 d3 3d d4 ca 96 3d
       0.16417688 0.08274631 0.10321706 0.07362905
000050 02 66 16 3d 14 02 92 3d 16 d9 bc 3d b7 10 c4 3d
       0.036718376 0.071293026 0.09221093 0.095735006
000060 67 be d9 3d df 5f d0 3d cf 44 bf 3d 7c 3e f8 3d
       0.106320195 0.10174536 0.09339296 0.12121293
000070 28 f2 d3 3d c3 bd 8e 3d a8 8c 27 3e 2d e0 b8 3d
       0.10348922 0.06969788 0.1636225 0.09027133
000080 f4 ca ad 3d 51 08 12 3d b2 b2 9c 3d 5a d8 cb 3d
       0.08485976 0.035652462 0.07651271 0.09953375
000090 2c 39 0d 3e bf 21 0a 3e 94 90 7b 3d 7c 40 f7 3d
       0.1379134 0.13489436 0.061417177 0.12072846
0000a0 5d 13 9d 3d 40 2d 25 3e f5 3d 13 3e 4a fa fc 3d
       0.07669709 0.16130543 0.14379103 0.12352426
0000b0 ee 33 13 3e
       0.14375278

bias f4 [45]
000000 87 b3 f1 be 69 28 09 3f 8c f6 fb 3e 68 d4 03 bf
       -0.4720728 0.53577286 0.49211538 -0.5149598
000010 d7 36 04 3f 99 a1 f9 be 07 9d 02 bf 5b 28 ec 3e
       0.5164618 -0.48756102 -0.51020855 0.4612454
000020 20 7e 02 bf 4c 60 03 bf 52 34 f5 be df 61 ea be
       -0.509737 -0.5131881 -0.4789148 -0.45777795
000030 fd 39 f0 be e4 a6 f0 3e de 84 ef 3e 7e 74 00 3f
       -0.46919242 0.47002327 0.46781057 0.5017775
000040 40 3a ec 3e 47 50 02 bf cc 4f 0e bf c7 22 00 bf
       0.4613819 -0.50903744 -0.5559051 -0.50053066
000050 56 42 01 bf 02 75 ea 3e 11 02 f5 be ba cb f1 be
       -0.50491846 0.45792395 -0.4785314 -0.47225744
000060 85 20 ed be 35 de f5 be 45 f0 0b bf 5f 74 ec be
       -0.46313873 -0.48021093 -0.546635 -0.46182534
000070 4f c9 08 bf 46 99 06 bf a1 a1 fe 3e ce d1 ed be
       -0.5343217 -0.52577627 0.49732688 -0.4644913
000080 5d 21 f4 3e 71 c7 f2 3e 35 0c ec be 43 5b ef 3e
       0.47681704 0.47417787 -0.46103063 0.46749315
000090 ea f3 eb 3e 00 ae f8 3e 2f c9 ea be 30 18 f4 be
       0.4608453 0.4857025 -0.45856616 -0.47674704
0000a0 83 e5 ec 3e 3a ff f4 be e8 a2 ef 3e 57 41 02 bf
       0.46268854 -0.47850972 0.46803975 -0.5088095
0000b0 10 85 04 3f
       0.5176554

running_mean f4 [45]
000000 d9 c7 37 3e d3 02 bc 3e 37 3a ae 3e 00 dc 7e 3e
       0.1794733 0.36720905 0.3402879 0.24888611
000010 6c 81 64 3e 1b f5 76 3e 4f ce 5d 3e 87 d2 af 3e
       0.22314996 0.24116938 0.21660732 0.34340307
000020 30 51 a5 3e 01 19 c5 3e 84 0e ad 3e 66 78 58 3e
       0.32288504 0.3849564 0.33800137 0.21139678
000030 46 00 92 3e 2f d6 bd 3e 2c 9f 2a 3e 4e d0 9e 3e
       0.28515834 0.37077472 0.16662282 0.310183
000040 ee d4 be 3e fc db 9c 3e 09 92 85 3e 03 1b 82 3e
       0.37271827 0.30636585 0.26087978 0.25411233
000050 eb b9 a8 3e c8 7b 69 3e e8 e7 9b 3e e7 65 ce 3e
       0.32954344 0.22801125 0.30450368 0.4031212
000060 4a 22 a0 3e 50 bd 86 3e 50 7c 9f 3e f4 fb 92 3e
       0.3127616 0.2631631 0.3114953 0.2870785
000070 bf fb e0 3e 07 0c 65 3e 05 c5 c7 3e 68 b9 6c 3e
       0.43942067 0.2236787 0.390175 0.23117602
000080 79 9a 9d 3e c5 7e 9e 3d c7 e6 58 3e ac 40 7d 3e
       0.30781916 0.07739023 0.21181785 0.24731702
000090 67 52 87 3e 3c 9a b5 3e ac d7 97 3e fe 61 85 3e
       0.26430055 0.35469234 0.29656732 0.26051325
0000a0 e2 ac 3f 3e 7c cb 92 3e 4f b9 7c 3e 05 e4 9a 3e
       0.18718293 0.2867087 0.24680065 0.3025209
0000b0 56 96 fa 3e
       0.48942822
