mlruns/528961946943719398/models/m-e59d9344e5404973806a9fc11911e55c/artifacts/data/model.pth (torch, 67665 bytes, 11 tensors)

weight f4 [124]
00000000: 1d6e 763f 1cb1 793f 0662 7f3f 83e7 7d3f
00000010: 7aa5 773f 08a1 7a3f 753b 793f 706e 7b3f
00000020: a5dd 7b3f aa12 803f 5044 7b3f abaa 7a3f
00000030: 9b36 793f ed71 783f 6b6a 7c3f a818 7f3f
00000040: e540 7d3f da92 783f 137a 7d3f 324d 723f
00000050: 1423 733f 60ff 793f 9e20 7f3f 42fb 773f
00000060: 2f22 773f 075c 7b3f da2f 7a3f 9b2d 783f
00000070: aa61 7c3f 9849 7f3f 77a6 773f 0e96 7a3f
00000080: dc40 7a3f 6acc 793f e604 7b3f 9a76 7b3f
00000090: f62e 743f 9772 793f d202 773f 0540 793f
000000a0: 8145 7a3f cc28 7d3f 6f5b 7f3f 9fc3 773f
000000b0: 02d5 7d3f 40d2 7a3f abf2 7e3f 7a3a 7a3f
000000c0: 81e6 723f 23dd 7c3f 8f25 7d3f 866a 753f
000000d0: d4cf 7d3f 988e 7d3f 1eb4 7e3f e31a 7b3f
000000e0: 489b 773f 28da 783f e372 763f 555e 7f3f
000000f0: 4719 7c3f c6e5 7b3f 7081 753f bf4d 7d3f
00000100: 59f6 763f a555 753f 24d7 753f 065e 803f
00000110: 8384 783f 6de3 753f 65ab 793f 1264 7a3f
00000120: e172 793f e016 7b3f c4df 7c3f b048 783f
00000130: 9ffc 7a3f e33b 783f 7256 7e3f 5368 783f
00000140: 075e 7e3f 89e3 7d3f 0687 763f 46d5 7c3f
00000150: 68fb 7b3f 5b3d 803f 2427 793f d6cf 793f
00000160: 357d 7d3f 3b1c 7e3f 55e5 7d3f 917b 773f
00000170: e990 7c3f d79a 7b3f 5459 7e3f 3237 7c3f
00000180: 4139 7c3f 9a53 7c3f 573c 7a3f e210 783f
00000190: 3341 7b3f 222b 7a3f 082f 7f3f 1bda 763f
000001a0: 26fa 7a3f aac3 753f 286d 7a3f 3ba5 7b3f
000001b0: abe3 7d3f 55a9 7e3f 9fc6 7a3f 8b55 7b3f
000001c0: 50e5 783f d1cf 7d3f ef67 7b3f 3619 793f
000001d0: f456 7b3f d8c5 7d3f cba2 753f 9250 7b3f
000001e0: ab97 7b3f b399 7b3f faec 7a3f 06dc 7e3f
0.9626177 0.9753587 0.99758947 0.99181384 0.9673687 0.97901964 0.9735635 0.9821539
0.9838508 1.0005696 0.9815111 0.9791667 0.97348946 0.97048837 0.9859988 0.99647
0.98927146 0.9709908 0.99014395 0.9464904 0.949754 0.97655296 0.99659145 0.96867764
0.96536535 0.981873 0.97729266 0.9694459 0.98586524 0.9972167 0.9673838 0.97885215
0.9775522 0.97577536 0.9805435 0.98227847 0.95384157 0.97440475 0.9648868 0.9736331
0.97762305 0.98890376 0.9974889 0.9678287 0.9915315 0.97977066 0.9958903 0.9774548
0.9488297 0.9877493 0.98885435 0.95865667 0.99145246 0.99045706 0.99493587 0.980879
0.96721315 0.9720788 0.96269053 0.99753314 0.9847607 0.9839748 0.9590063 0.98946756
0.96469647 0.9583381 0.96031404 1.0028694 0.97077197 0.9605015 0.9752715 0.97808945
0.97440916 0.9808178 0.9877894 0.9698591 0.9804172 0.9696638 0.99350655 0.97034186
0.99362224 0.99175316 0.9629978 0.9876293 0.9843049 1.0018724 0.9732535 0.9758276
0.99019176 0.99261826 0.9917806 0.9667292 0.98658615 0.9828314 0.99355054 0.9852172
0.9852486 0.98565066 0.9774832 0.9690076 0.9814636 0.97722065 0.9968114 0.9642655
0.98037946 0.96001685 0.9782281 0.98298997 0.9917552 0.9947713 0.9795932 0.98177403
0.97224903 0.9914523 0.98205465 0.97304094 0.98179555 0.9913001 0.9595153 0.98169816
0.982783 0.982814 0.9801785 0.9955448

bias f4 [124]
00000000: 2b14 b1bb 553b 813b 4b5b ce3b 157b ca3c
00000010: cc48 66bd 5ec8 893c a32c 0d3d 9d01 bdbc
00000020: ff55 7bbd 3fd8 5abd abb6 193c 9cfe e8ba
00000030: c249 4c3b f424 833c 263f fdbc 6ed5 753c
00000040: 5a1b 233d 5848 28bc ba8c 14bc e986 0bbd
00000050: 0725 d9bc a806 a2bc 48b8 0aba 08b6 833a
00000060: ed38 52bc 2450 003b b9bd 83bc d057 24bd
00000070: d470 32bc 354c 183d 95bb d2ba 8f95 43bd
00000080: 778a 0c3c 5430 bfbc f203 f9bb 1c84 0139
00000090: aeb6 573c d5af 4c3c f85f f5bc cb4a 3e3d
000000a0: de05 f8bb 4e59 c2bc 737c 01bd 9359 c0ba
000000b0: c1c4 ef3c 909b 073c f822 80bb b5a9 0dbd
000000c0: 8afe ba3c 4e21 17bd af62 77bd 783b bfbc
000000d0: ed34 ba3c ad31 333c f210 013d 723d 893c
000000e0: 0bad bd3c f663 debb 16ae 9bbc d986 bd3b
000000f0: e803 e5bc e066 02bc cd5e b23c df21 c4bd
00000100: 2a69 20bb b5e3 95bc cbbe bb3c 1ef3 1abd
00000110: c139 97bc 068e e93b 68aa 323d 9553 343d
00000120: 558a d63c ea4f aabc ed91 52bc f04c 1bbc
00000130: c740 c13c de16 d23c b8b4 043c 07ca acbc
00000140: c94b 253d 42b6 073c 7765 3f3c c314 c0bc
00000150: 92c7 e13c 1599 e53c 161a 80bc 7f2d a23d
00000160: 4501 55bd a882 32bd 2788 6fbd 7035 563d
00000170: c367 2a3d 45fe 28bd cb46 bf3c 90c5 03bc
00000180: 745d 043c c845 2f3d 4348 debc 6eb9 543d
00000190: d2ea a2bb 7596 ab3c 07bf 1f3d 0d80 b2bc
000001a0: ffc7 49bc 91e1 493c 623e 513c 6706 85bc
000001b0: 5901 c9bc 64e1 e2bc b354 da3c d850 cabb
000001c0: 1234 aa3c bb70 ef3c a10a 89bb 67c6 9ebc
000001d0: e784 d8bb e607 06bd e8a4 b3bc 7926 bdbc
000001e0: d5c9 cebc 7f93 a93c 038f fa3c f183 693c
-0.0054040155 0.0039438405 0.006297504 0.024716893 -0.05622177 0.016819175 0.034466397 -0.023072058
-0.06136131 -0.053428885 0.00938193 -0.0017776075 0.0031171893 0.016008832 -0.0309139 0.015004499
0.039821006 -0.010271154 -0.009066755 -0.034064207 -0.026506914 -0.019778565 -0.0005291742 0.0010048756
-0.012830955 0.0019579018 -0.016081678 -0.040122807 -0.010891158 0.03718205 -0.0016077632 -0.047750052
0.0085779345 -0.023338474 -0.0075993473 0.00012351613 0.013166113 0.0124930935 -0.029952988 0.046458047
-0.007569059 -0.023724224 -0.031612825 -0.0014675133 0.029268624 0.008276835 -0.0039104186 -0.034585673
0.022826452 -0.036896996 -0.060396846 -0.023343787 0.022730315 0.010937137 0.0315103 0.016752932
0.023153802 -0.0067868186 -0.01900391 0.0057838974 -0.027955964 -0.007959098 0.02177372 -0.09576773
-0.0024476745 -0.018297056 0.022918126 -0.03782951 -0.018460156 0.007127526 0.043619543 0.044025023
0.026189009 -0.02079006 -0.012852174 -0.009478793 0.023590459 0.02564567 0.008099727 -0.021092428
0.040355477 0.0082832 0.011681906 -0.0234474 0.027560983 0.028027097 -0.015637439 0.07918834
-0.052003164 -0.043581635 -0.058479454 0.052297056 0.04160286 -0.041258115 0.023349186 -0.008042708
0.008078922 0.042791158 -0.027134066 0.051934652 -0.0049718404 0.020945767 0.039000537 -0.021789575
-0.012315749 0.012321846 0.012771221 -0.016238404 -0.024536775 -0.027695365 0.026651716 -0.006174188
0.020776782 0.029228559 -0.0041821753 -0.019381715 -0.00660764 -0.032722376 -0.02192922 -0.023089634
-0.025242725 0.020700214 0.030585771 0.014252649

running_mean f4 [124]
00000000: df26 8b42 2d4e 2246 9b74 c240 3d74 b340
00000010: 6df7 c842 1f27 5940 bab6 4540 5829 6140
00000020: 09ba 3c40 244c d13f 6843 e143 1e35 3342
00000030: ae58 0e44 ef6f 8440 c059 e13d c3b3 9144
00000040: 8ddd a143 ec37 a040 5dcb ba44 376c e33e
00000050: d192 5d3d 8bf3 c63f ee1a b33e 5303 3740
00000060: 3fd3 853f b901 6040 64e5 cf40 94c4 3a3e
00000070: 404e 1a3f 8002 e63f 2139 d73f 2d85 e03f
00000080: 1276 e943 06d0 3040 f12a 3140 f295 2e3e
00000090: 6f39 b842 e67d 4242 bed9 a441 5013 4440
000000a0: 3acb 7b41 80a4 1c40 775f 793c b971 2042
000000b0: 1d2d 1d42 cf1d c641 3fc7 fb41 f722 f941
000000c0: 1172 4340 d426 9d3f 8ec6 a73d a1bb ce3e
000000d0: 537f 2b3e aab9 373f a510 3f3e 277f 7d3d
000000e0: fb9d 1b3d 4d1b 5a3d 3903 e73c 6217 953c
000000f0: 48ff b63d 6692 993c 3fe3 d33d befb 6e3f
00000100: fe7a 753e 9546 ab3d d6ff be3d a0f6 0f3d
00000110: 25fa bf3e cadd 173e 5ee4 193e 77f6 273e
00000120: 6be4 c73d ce5c 093d 403d f63c 122c 133d
00000130: 4b90 653c cd4b a43c a213 863c f307 843c
00000140: 7103 473f f998 2a3e f12a 3c3d e45b 6d3c
00000150: 45e7 d23d 1dec 003d 3b82 8a3d 8ee5 553d
00000160: 4544 d43c dded f23b c97c 143d 9491 1f3e
00000170: 6834 693d ea3b d93c 4b1c 603d ba7f ad3d
00000180: 8713 093d c570 8d3c 5d13 463d 0a8e 103d
00000190: a520 553d e84d 6e3c 3ded c63c ed47 623c
000001a0: 320d 173f ae81 c13d 4d98 d83e b2a8 cb3b
000001b0: 6515 e33e ff91 5e3c 3cb5 b43c 0382 6f3f
000001c0: 501a 813d 31db 853e 2cfc 923d 0db2 a83c
000001d0: 3cbb 093d ad9a af3d 82a1 ed3c dda9 5b3f
000001e0: 8a59 9d3c 02d0 4f3f b215 0e3c c7cd b13d
69.57592 10387.544 6.076734 5.6079392 100.48325 3.3930128 3.0892777 3.5181484
2.9488547 1.6351361 450.5266 44.801872 569.3856 4.138664 0.110034466 1165.6176
323.73087 5.0068264 1494.3551 0.444185 0.054095093 1.5543073 0.34981483 2.859578
1.0455092 3.5001051 6.496752 0.18239051 0.6027565 1.7969513 1.6814309 1.7540642
466.92242 2.7626967 2.768246 0.17049387 92.112175 48.622948 20.60632 3.0636787
15.737116 2.4475403 0.0152205145 40.111057 39.294056 24.764555 31.472288 31.142073
3.053837 1.2277474 0.08192168 0.40377524 0.16747789 0.71767676 0.18658693 0.06188884
0.03799246 0.053248692 0.028199779 0.018199626 0.0893541 0.018746566 0.10346078 0.9335288
0.23972699 0.08363072 0.093261406 0.03514731 0.37495533 0.148307 0.15028521 0.16402613
0.09760364 0.03353577 0.030058503 0.0359307 0.014011453 0.020055676 0.016366784 0.016117072
0.77739626 0.16659917 0.04593939 0.01448724 0.102980174 0.031475175 0.06763121 0.052220874
0.02591146 0.0074136094 0.036251817 0.15582877 0.056934744 0.026517827 0.054714482 0.084716275
0.03346589 0.017265687 0.04835831 0.03529171 0.052033085 0.0145449415 0.024283046 0.013811094
0.5900451 0.094485626 0.42303696 0.0062151784 0.4435226 0.013584613 0.022059076 0.9355776
0.06303847 0.26143792 0.07177004 0.020592714 0.033625826 0.08574424 0.029007677 0.85806066
0.019207735 0.8117677 0.008672165 0.08681827

running_var f4 [124]
00000000: fc3c ed43 a8b8 b94c 3412 eb3f aa40 a33f
00000010: ac87 d646 379e b03e 4232 043e 643e 2f3f
00000020: d8d5 803e 45b7 923f ad54 4b48 e916 be46
00000030: 6161 4348 b0ac 6a3f 37cb 1c3e de63 0948
00000040: 9c8d 2b48 62a8 fc44 27bf 6d48 8ebe 8a3e
00000050: d2ce 563d 36f2 963e 35b8 6b3e cffb 213f
00000060: 0b2f 463d cd8f e13e c69f 1940 3526 f83e
00000070: dda7 d33e a0a5 5040 16ec 503f 7222 1a3f
00000080: 4964 3847 af7d 1f3f d698 233f 1d4c 933e
00000090: d01a 7046 ce23 8b45 c176 6545 297b 4244
000000a0: 583e 4245 fc3c b344 2cb9 793d c281 4848
000000b0: 6294 7044 61a9 d743 eb08 1244 34f3 7143
000000c0: c28f 3040 472d 133f 277e f33d 3bee ab3e
000000d0: 0be5 933e 8dce 4e3e e14a 1c3e 9a4f 6c3d
000000e0: 9ea7 383d 02e7 853d 25bc df3c 80c4 913c
000000f0: 428b a63d 4c39 973c 61df 2d3e cdd0 8e3d
00000100: 26a9 863e 46f2 1c3e f097 ae3d 1663 0a3d
00000110: 8345 723e 148e 023e d8b1 023e 7e84 0d3e
00000120: 1ee3 b43d 4bc4 033d 19c6 ed3c 3b94 0f3d
00000130: 362b 623c 5470 a03c 8595 843c 8782 823c
00000140: bd9b 323e f1ed 0d3e 4aae 333d 0742 693c
00000150: a692 bd3d b3f3 f83c b1c5 803d 98fe 493d
00000160: fa0b d13c c5af f13b 813c 103d 80e8 073e
00000170: 0b47 5d3d ae73 d33c 5cd5 563d 8933 9e3d
00000180: 4772 053d 3989 8b3c e855 3e3d 7c95 0b3d
00000190: d1f4 473d 239f 6a3c d919 c23c 7217 5f3c
000001a0: af03 793e 6c4b b03d cf32 7b3e f5e0 c93b
000001b0: ce86 7e3e 8e8c 5b3c c4ce b03c 93fe 753d
000001c0: 6a82 743d 6ef4 443e e0f4 823d c8c7 a43c
000001d0: 4f90 043d 2068 a13d 4619 e43c d2d0 f83d
000001e0: eec7 9b3c bf0c 1d3e 3c9c 0c3c 1833 a33d
474.47644 9.737146e+07 1.836493 1.2754109 27459.836 0.34495708 0.12909797 0.68454576
0.2516315 1.146218 208210.7 24331.455 200069.52 0.9166975 0.15311895 140687.47
175670.44 2021.262 243452.61 0.27098507 0.052443333 0.29481667 0.23019488 0.63274854
0.048384707 0.44055024 2.4003768 0.4846665 0.41339007 3.260109 0.8161024 0.6020881
47204.285 0.6230115 0.63905084 0.28769007 15366.703 4452.4756 3671.422 777.9244
3107.8965 1433.9058 0.06096761 205319.03 962.3185 431.32327 584.13934 241.95001
2.7587743 0.5749096 0.11889296 0.33580193 0.28885683 0.2019598 0.15262939 0.0576931
0.045081727 0.06538202 0.027311394 0.017793894 0.0813203 0.018459938 0.16979744 0.06973419
0.26300925 0.15326795 0.085250735 0.033785902 0.23659329 0.12749511 0.12763155 0.13820073
0.08832382 0.03216962 0.029025124 0.035053473 0.013804248 0.019584812 0.016184578 0.01593138
0.17442222 0.13860299 0.043867387 0.014236934 0.092564866 0.030389642 0.06287707 0.049315065
0.025518406 0.0073756897 0.03521395 0.13272285 0.05402283 0.025811996 0.05244957 0.07724673
0.032579686 0.017033206 0.046468645 0.034078106 0.04881746 0.014320168 0.023693966 0.01361643
0.24317811 0.086081356 0.245311 0.00616085 0.24856111 0.01340021 0.021582969 0.060057234
0.059694685 0.19233868 0.063943624 0.020114794 0.032364186 0.078811884 0.027844083 0.12149204
0.019016232 0.15336893 0.008582171 0.0796873

weight f4 [107, 124]
00000000: 1d46 1f3d e93d 92bb de04 fd3b 5b56 80bc
00000010: 83db b7bd 7032 acbc a506 213d f3dd 07bd
00000020: dc30 023d a52f 7fbc 515e 75bd 326f eabb
00000030: 2af9 1abd 10bc 623d 0c9b 613d 3b37 473d
00000040: 4ac3 9abd 7596 623b 60ab 52bd 87e4 023d
00000050: ce2d 60bd c01f 81bd 3905 55bd ac9c 72bd
00000060: c159 8a3d b8b6 7dbd 276f 8c3d cd1e 9f3d
00000070: 2b38 60bd 70c4 0abd 4d3c 64bc bfed 24bd
00000080: 166b 84bd ae33 53bd 5887 61bd e250 ba3c
00000090: 48cb f23c c4f4 e13c 3e4d 9cbc fa19 b3bc
000000a0: 890f 013d 0892 863c 81e3 373d 3e2b b53d
000000b0: d722 ca3b 0921 8ebc d3cd 3b3c b05b 7e3d
000000c0: e393 8fbc 9298 083c 6efe 593d 4d7b 01bd
000000d0: 888c 9abd c89b a33d cf6e 503d ea34 a8bc
000000e0: e07c 62bd e69a 7a3d 4c32 09bd 2a9b aabd
000000f0: d0ac 993d 5a17 8a3d 181a ee3b 650e 33bd
00000100: c232 e0bc 054d 2cbd 76c3 54bd 3319 50bd
00000110: 551c 633d 2390 a0bd dbcf 843c 6939 09bd
00000120: 4334 93bd dce8 ab3c adc7 6f3d 77d0 013c
00000130: 6ae4 c3bc 40e8 453c 8729 36bd ed35 b4bb
00000140: f954 af3d 6069 35bd 37db 0f3d f18b 20bd
00000150: 06fa 77bd 2d83 0e3d 1045 9a3d 435d 9c3d
00000160: 3525 05bc a46e 733d 0709 a5bc 0c52 753d
00000170: c9b9 00bd 5cf9 033d c7fc b6bd 2bbf acbd
00000180: 458a 87bd 91fb 8ebd 122b a73d 3274 53bd
00000190: 611e 8cbc 354e 04bd 355c bf3d 6c63 c6bc
000001a0: f3fd 103d 4878 90bd 2c73 97bd 95e6 47bd
000001b0: de67 333d 386a 813d 985d e5bc 33af 96bd
000001c0: 7649 713a dadc 7b3d 9961 b7bc c389 60bc
000001d0: 4470 78bd 23df cf3c 8cd9 683a 5109 47bd
000001e0: 17ff bfbc e9a0 ad3d 3b1e e6bd 7c38 68bc
000001f0: dfbc 8f3c 6115 993d e6f2 ad3b af45 bf3b
00000200: 4a16 8ebd a8da 6f3d c5ea b9bd 690a 3bbc
00000210: 4fbe 7abd faa9 cf3c 016e cb3c fd97 883d
00000220: f317 413d 621e b53b 3e90 823d b779 e7bc
00000230: be58 1cbd 895a e1bc eeb9 37bb 7606 873d
00000240: 695c 933d 740b c03c 3fc5 b13c 8a55 a43c
00000250: 31e0 5c3c a78c 21bc fb6c 283d 5368 b63d
00000260: 37bd 97bc 921e 97bc ce65 743d 91d2 efbb
00000270: 4ec8 b1bd efe6 2bbd b8b9 383d 60d4 21bb
00000280: 791b 9a3d 3ebc db3c 32b3 de3c c23c 37bd
00000290: e004 d1bc 4848 45bd f81f 46bc f893 423d
000002a0: f6df 9f3d 75de 9e3d fbbe 75bc e447 bebc
000002b0: 3739 23bd 0cce de3c e8ff 8fbb c385 a1bd
000002c0: 043c d4bc d517 9f3d 77d6 32bc d138 2fbd
000002d0: e1f9 953d 24cb fb3c 93af 4abc 330c 023d
000002e0: c1e2 aebd a092 c83d b285 6f3d b50b 17bd
000002f0: 9606 83bd 4e89 5e3b 9800 c23d 6add da3c
00000300: 1aed 8cbd f5da 943d 65d9 7fbd 8ead 893c
00000310: 6eb1 013d 69c7 93bd 334b 763d deb0 943d
00000320: 1af3 d6bc abc6 90bd 3cb5 85bd db61 5abd
00000330: 2f2f c83c f160 9b3d 3b81 e43b ca6d 3bbd
00000340: f14d 35bd ccaa 503d 8dd5 813d 850d 41bd
00000350: 2d66 90bd bf12 2fbd 03e6 7c3d 0815 efbc
00000360: bf52 8b3d dd8c 8e3b ce25 9b3d 272b ecbb
00000370: 637e 82bd b3bc 4bbd 0f57 a33d 0c45 c0bd
00000380: 5ff5 cf3c 16e7 51bd c493 32bd 31e1 77bc
00000390: 792f a5bd 9f8a 89bb af9c 9ebd 6376 b73d
000003a0: 7389 9e3d 0e4f a03d c8b3 63bd 7596 35bd
000003b0: 6a7a 17bd 2c76 143c 36f5 63bc 387f 10bd
000003c0: 8409 433d debb 81bd b2e1 0abc 8bdd b43d
000003d0: 60e0 73bd bcc6 a13d 9146 3d3d dcb0 9d3d
000003e0: 51df 08bd 36d9 10bd 3544 923d efb3 5a3d
000003f0: f972 0b3c f28f 91bd 58b1 57bd 3d63 c1bc
0.038885225 -0.0044629467 0.0077215275 -0.015666177 -0.089774154 -0.021020144 0.039312977 -0.03317065
0.031784877 -0.015575324 -0.0599044 -0.007154369 -0.037835278 0.05535513 0.055079505 0.048636656
-0.0755678 0.0034574543 -0.051432967 0.031956222 -0.054731183 -0.06304884 -0.052006934 -0.059231445
0.067554004 -0.061941832 0.06857138 0.07769547 -0.054741066 -0.033878744 -0.013930392 -0.040265795
-0.064657375 -0.051562957 -0.055060714 0.022743646 0.029637948 0.027582534 -0.0190798 -0.021862973
0.031508956 0.016427055 0.0448947 0.088461384 0.006168704 -0.017349737 0.011462647 0.06209916
-0.017526573 0.008337157 0.05322116 -0.03161173 -0.075463355 0.07988697 0.050886925 -0.020533044
-0.05529487 0.06118288 -0.033495232 -0.083303764 0.075036645 0.06742735 0.007266294 -0.0437149
-0.027367953 -0.04206564 -0.05194422 -0.05080528 0.05544694 -0.07839992 0.016212394 -0.033502016
-0.071877025 0.02098506 0.058540035 0.007923237 -0.023912627 0.0120792985 -0.044473197 -0.0054995925
0.08561129 -0.044289947 0.03512117 -0.03919596 -0.060541175 0.034793068 0.07532704 0.07634976
-0.008126547 0.059431687 -0.020145906 0.0598927 -0.03142718 0.03222023 -0.08934932 -0.084349
-0.0661817 -0.06981576 0.08162512 -0.051624484 -0.01710433 -0.032301147 0.09343759 -0.02421733
0.035398435 -0.07054192 -0.07395014 -0.048803885 0.043800227 0.06319088 -0.02799873 -0.07357635
0.0009204367 0.061489917 -0.022385405 -0.01370472 -0.06065394 0.025374955 0.00088825147 -0.04859287
-0.023437066 0.08477957 -0.11236235 -0.014173623 0.017546115 0.07474781 0.0053084968 0.0058371644
-0.06937845 0.058558136 -0.09077982 -0.011416056 -0.06121665 0.025349606 0.024832727 0.066696145
0.04714198 0.0055273036 0.06375168 -0.02825628 -0.03817057 -0.02750899 -0.0028034407 0.06593029
0.0719536 0.023442961 0.0217005 0.02006032 0.013481186 -0.009860194 0.041119557 0.08906617
-0.018522842 -0.018447194 0.0596674 -0.0073188026 -0.08680783 -0.041968282 0.04509899 -0.0024693236
0.07524771 0.02682316 0.027185056 -0.044735678 -0.02551502 -0.048164636 -0.012092583 0.047504395
0.07806389 0.07757274 -0.014999147 -0.02322764 -0.039849486 0.02719786 -0.00439452 -0.07886841
-0.025907524 0.077682175 -0.01091539 -0.042778794 0.07323051 0.030736513 -0.012370962 0.031749915
-0.085393436 0.097935915 0.05847711 -0.0368764 -0.063977405 0.0033956352 0.094727695 0.026716907
-0.06881161 0.07268325 -0.062463183 0.01680639 0.03166335 -0.07215769 0.06013031 0.07260297
-0.026238967 -0.07069143 -0.06528708 -0.05331598 0.024436561 0.075868495 0.0069734133 -0.045759
-0.044263784 0.050944135 0.0633956 -0.047132034 -0.070507385 -0.042742487 0.061742794 -0.029184833
0.06802892 0.0043502883 0.0757557 -0.0072072926 -0.063717626 -0.049740504 0.079755895 -0.0938817
0.025385557 -0.05124577 -0.04359795 -0.015129373 -0.08065695 -0.004197433 -0.07744729 0.08958127
0.0774106 0.078275785 -0.055591375 -0.04433294 -0.036981978 0.0090613775 -0.013913443 -0.035277575
0.047616497 -0.06334661 -0.0084766615 0.088313185 -0.059540153 0.07899234 0.046209875 0.07699749
-0.033416096 -0.0353634 0.07141916 0.053394254 0.008511298 -0.071075335 -0.052659363 -0.02360689

bias f4 [107]
00000000: 091f 18bd adff df3c b106 63bd 5d24 4f3d
00000010: 64fc 55bb d1ed 28bd c131 23bd 516c 4d3c
00000020: dddb 5fbd ef12 72bc 307c 57bb 44eb a6bd
00000030: 66a3 23bd 22ec 2f3d ddea 92bd 8ebc a9bd
00000040: bc7e 43bd 8acf e1bd e04d 1bbd 386e 043d
00000050: 5c3b 3dbd cd6f c63c 6dd5 bc3b 6913 df3c
00000060: 640d 503d 0f7c 7cbd fae7 a0bd e137 9ebd
00000070: 4982 8b3c 6940 39bd 541c c23b 8e01 243c
00000080: 7bca 32bd 9662 cbbd 0219 89bc 5638 7dbd
00000090: 80fe 6bbd b2f6 7dbd 9d36 893b 1cf5 4e3d
000000a0: 00eb dbbc 6482 7dbd d837 fb38 ff02 44bd
000000b0: a1cf 59bd 9fd5 bc3b 386a 46bd 21d6 d6bd
000000c0: b88d 84bc 6240 95bd 211b 39bd 0156 d6bc
000000d0: 1e13 6fbb 1bb5 233c 6356 aabd a95f 11bd
000000e0: 8a32 6bbb 3145 08bc 9c71 52bd 8538 1d3d
000000f0: 0ef0 d2bc 36ce 4dbd 1e4b a9bd 9d74 acbb
00000100: 8d4d 61bc 46b1 c8bc 682a b1bd 66f3 b4bb
00000110: 92b1 293c d3e4 98bd 35e5 b3bd 5093 65bd
00000120: 1b1a 78bd c713 c5bd 7f24 6cbd 4a7e 8dbc
00000130: 202b 38bc 478d 64bd 7112 9d3c 3b7b a1bd
00000140: f83f 193d cefd 29bb 3b49 4abd df32 46bc
00000150: 13f3 3abd 6211 b0bd 6b13 e93c 55ea 3cbd
00000160: 8072 113d 3c14 d73c 59c6 7fbd 28c3 d2bb
00000170: 7083 403d 100b ffbc 0506 eabc e512 c5bc
00000180: e64c 573c fe19 413d b7f5 bebd 052b afbc
00000190: b9ed 05bd 381b 30bd 8d19 a9bd c831 92bd
000001a0: a317 88bd 4139 9abd d04c e13c
-0.037138972 0.027343595 -0.055426303 0.050571788 -0.0032651657 -0.041242424 -0.03984237 0.012538032
-0.054653037 -0.014775022 -0.0032880418 -0.08150342 -0.03995075 0.042949803 -0.07173703 -0.08287917
-0.047728285 -0.11025913 -0.037916064 0.032331675 -0.046199188 0.024223233 0.005762747 0.027230935
0.05079402 -0.06164175 -0.07856746 -0.07725502 0.017029898 -0.045227442 0.005923787 0.010010136
-0.04365013 -0.09930913 -0.016735557 -0.061821304 -0.057615757 -0.062002845 0.0041874186 0.050526723
-0.026845455 -0.06189193 0.000119790144 -0.04785442 -0.053176526 0.0057627703 -0.04844114 -0.104900606
-0.016180858 -0.07287671 -0.045191888 -0.026164057 -0.00364799 0.009991909 -0.08317258 -0.03549162
-0.0035888278 -0.008317278 -0.051377878 0.03838398 -0.025749233 -0.050245486 -0.082662806 -0.005262925
-0.0137514 -0.024498593 -0.086506665 -0.0055221794 0.0103572775 -0.0746552 -0.08783952 -0.05604869
-0.06057177 -0.09622913 -0.057651993 -0.017272133 -0.011240751 -0.055798795 0.019173833 -0.078848325
0.03741452 -0.0025938633 -0.049386244 -0.01209709 -0.04564197 -0.085970655 0.028451642 -0.046121914
0.035509586 0.026254766 -0.06244502 -0.006431956 0.04700035 -0.031133205 -0.028567323 -0.024056861
0.013140893 0.04714393 -0.0932421 -0.021382818 -0.032697413 -0.042994708 -0.082568265 -0.07138401
-0.06645133 -0.075304516 0.027502447

weight f4 [107]
00000000: 9789 5f3f 061d 603f 57ee 543f 77bc 553f
00000010: 5082 583f 63b4 573f 15da 5e3f 5f8c 5e3f
00000020: 03f5 553f 8468 593f 56b1 5a3f 50d4 583f
00000030: d241 5c3f 9651 593f 2ac5 5e3f 89c4 5a3f
00000040: dfe4 613f 1bc1 5e3f 89ef 5b3f eba3 5a3f
00000050: e27f 5a3f 6a22 583f 3946 553f a7da 5e3f
00000060: 889e 583f 5777 583f 8aee 5d3f 6d1a 5a3f
00000070: 1e6c 5d3f 485b 5c3f 332d 553f c8a3 623f
00000080: 4cb7 563f a1f7 5b3f 4a9a 563f 8f8d 603f
00000090: d14e 603f a00e 5d3f 8aa6 5a3f d758 5e3f
000000a0: 3256 5d3f 16d3 593f 5832 563f 4474 573f
000000b0: 264a 5d3f 6ab3 5d3f 916b 5e3f 20f7 5a3f
000000c0: 691e 583f 4659 5e3f a392 563f 3ab6 573f
000000d0: 6ac3 543f bd1b 5a3f 1c35 5c3f fd0c 5b3f
000000e0: 92f6 553f 30c0 5b3f c8fc 5a3f 60ef 543f
000000f0: 45e9 593f 3a9c 653f fb73 563f cdcb 5d3f
00000100: 89a0 5b3f 28b2 5e3f 60b0 5d3f 84bc 5d3f
00000110: b8db 593f 287e 5d3f b8c8 5a3f eede 563f
00000120: 4d06 5d3f 0d62 5b3f 0458 5f3f 357b 583f
00000130: 7659 563f c6a5 533f 80a3 543f 42df 593f
00000140: be77 553f eb2d 5e3f d6b3 5a3f 60a9 5b3f
00000150: 4039 5c3f 704a 5b3f ba69 583f 8fd4 5d3f
00000160: 8945 523f 1593 5c3f 22d6 573f 7a33 5d3f
00000170: 68dc 583f 5858 583f 7aa6 5c3f 1247 553f
00000180: 83a9 5c3f 06b2 5a3f f86b 593f e4c7 573f
00000190: 6124 5a3f 7963 603f b86d 5a3f 1050 583f
000001a0: e069 5a3f ffc2 5e3f 0ed9 553f
0.8731932 0.87544286 0.8317618 0.834907 0.8457384 0.84259623 0.87051517 0.8693294
0.83576983 0.84925103 0.85426843 0.84698963 0.86037934 0.84890115 0.870196 0.8545614
0.88239855 0.87013406 0.85912377 0.8540637 0.85351384 0.8442751 0.83310276 0.87052387
0.846169 0.845571 0.86692107 0.8519657 0.864931 0.86076784 0.83272094 0.8853116
0.8387344 0.85924727 0.83829176 0.87716 0.87620264 0.8635044 0.8541037 0.8685431
0.8645965 0.85087717 0.8367057 0.8416178 0.86441267 0.8660189 0.86882883 0.8553333
0.844214 0.8685497 0.838175 0.8426243 0.8311068 0.85198575 0.8601854 0.85566694
0.8357936 0.8584013 0.85541964 0.8317776 0.85121566 0.8969151 0.8377072 0.866391
0.8579183 0.86990595 0.8659725 0.86615777 0.8510089 0.86520624 0.8546252 0.83933914
0.8633774 0.8569649 0.87243676 0.84563 0.83730257 0.82674825 0.8306198 0.8510629
0.8338584 0.86788815 0.8543066 0.8580532 0.86024857 0.8566046 0.84536326 0.86652464
0.8213735 0.8616193 0.84311116 0.8640667 0.84711313 0.845098 0.86191523 0.8331157
0.86196154 0.8542789 0.8493037 0.84289384 0.8521176 0.87651783 0.8532367 0.84497166
0.853178 0.8701629 0.83534324

bias f4 [107]
00000000: 060a 99be dbe7 8cbe 662c 843e 19d4 8c3e
00000010: 2376 853e 7ad6 90be fb7e 93be 893e 9bbe
00000020: d43b 853e da04 883e 33e3 87be e9f5 8abe
00000030: 71e3 8e3e 1678 83be d542 92be ed1c 8a3e
00000040: 8271 a6be 6fa7 a53e a694 8a3e 79b9 87be
00000050: 53d1 843e 95ee 8a3e 8494 8e3e 08bb 91be
00000060: b607 8f3e 5a6c 953e 675c 983e 95c0 8dbe
00000070: 6bc9 83be a338 8c3e d952 83be b4ba 9bbe
00000080: 9fc8 a53e 1baf 89be cf17 8b3e d24b a03e
00000090: acf5 9bbe 1c0d 90be 88be 893e 2617 8cbe
000000a0: a383 973e 69bc 88be f137 883e 36ce 843e
000000b0: c296 903e 5925 8abe 83e9 8a3e 1beb 8e3e
000000c0: df46 853e 7575 90be fa6d 85be 3102 893e
000000d0: 16d6 823e 3bdb 89be 3671 89be 5979 8f3e
000000e0: 3b88 893e 4736 8abe ee7c 8dbe 1a52 873e
000000f0: 1a68 86be 90c5 9bbe 890b 913e 9095 8f3e
00000100: fd74 8f3e b706 913e c564 91be 78e5 9abe
00000110: 20f6 883e ea7f 9a3e 0b3d 853e 6c7a 8d3e
00000120: 2f10 96be a27a 8dbe 5680 94be 3ef7 85be
00000130: d54b 8b3e c85d 963e ce4e 8a3e 000b 83be
00000140: 8e98 87be 6284 993e df88 933e 3ae5 84be
00000150: f349 9b3e 68e9 8b3e 49a1 853e 2df5 85be
00000160: 1341 843e c447 a0be b03e a13e 1904 893e
00000170: 7c74 923e 959e 853e 4b40 85be 986e 853e
00000180: f85f 993e 6140 983e 278e 87be f250 8d3e
00000190: b9ca 873e 015f 8ebe e20b 84be 9368 8bbe
000001a0: 42c4 843e f450 88be cb59 84be
-0.2989046 -0.27520642 0.25815123 0.27505568 0.26066694 -0.28288633 -0.28807816 -0.30321148
0.26022208 0.265662 -0.26540527 -0.2714074 0.279079 -0.25677556 -0.28566614 0.26975194
-0.32508475 0.32354304 0.27066535 -0.26508692 0.25940952 0.2713515 0.27847683 -0.28463006
0.2793557 0.29184228 0.29757997 -0.2768599 -0.25739607 0.2738696 -0.25649145 -0.3041588
0.32379624 -0.26891407 0.27166602 0.31307846 -0.3046087 -0.28135002 0.26903176 -0.2736141
0.29592618 -0.26706246 0.2660518 0.25938576 0.2824002 -0.2698162 0.2713128 0.27913746
0.26030633 -0.28214613 -0.26060468 0.26759484 0.2555396 -0.26925072 -0.26844186 0.28022268
0.26861748 -0.26994535 -0.27634376 0.26429826 -0.26251298 -0.30424166 0.28329113 0.28043795
0.28018942 0.28325436 -0.28397194 -0.30253196 0.26750278 0.30175716 0.26023135 0.27632463
-0.29309222 -0.27632624 -0.29004163 -0.26165193 0.27206293 0.29368424 0.27013248 -0.2559433
-0.26483577 0.29983813 0.28815362 -0.25956136 0.30329856 0.27326512 0.26099613 -0.26163617
0.25830898 -0.31304753 0.3149314 0.2676094 0.28604496 0.2609755 -0.26025614 0.2606094
0.2995603 0.29736617 -0.2647564 0.2760082 0.26521853 -0.27806857 -0.25790316 -0.2722822
0.25930983 -0.26624262 -0.25849757

running_mean f4 [107]
00000000: 0c09 c43d 1c7f ee3d ebdc 893d a9ef fd3d
00000010: e28e 023e 9205 523d b0d5 ab3d 0441 c13d
00000020: 2a2c 313d c017 e13d 8764 b33d df6c 2c3d
00000030: c4ef 283d 73fa b73d 479f 353d d232 a63d
00000040: 5240 043e a21c 953d 6e41 b53d 482f dd3d
00000050: 665e 7d3d 6470 cd3d 66f1 be3d 9b8e 173e
00000060: 8236 c93d b263 7f3d 6dc4 703d aa4a 633d
00000070: 559f c33d ea58 a63d 55bf c43d 28a8 de3d
00000080: e8a8 b93d 69d4 8a3d 7f2c d63d e2a7 873d
00000090: ab90 b13d 0968 763d c890 c33d 8626 f53d
000000a0: 1887 a93d d8e6 493d a9b3 943d a07a 2e3d
000000b0: 9b1b 8d3d d043 c43d ab08 463d ce09 c13d
000000c0: d944 8c3d c0a4 7a3d 6dc2 c33d d97f da3d
000000d0: 02bb 993d f35a 913d 32e4 013e b30d 993d
000000e0: 748f a53d 8ba0 b03d 47a9 db3c 47fc c63d
000000f0: 059e 543d b886 9a3d 00d0 a03d bbaf f03d
00000100: 106b a23d 4496 dd3d 906c ae3d bdfc c33d
00000110: eae6 033e f1b0 623d 9cef 783d f73a df3d
00000120: 197c 8c3d edfa 203d b513 863d 67c7 893d
00000130: ce86 c83d 7f61 743d 84cb 923d 30dd 9a3d
00000140: c102 f13d c19c 2c3e 5a19 ea3d 7eff 823d
00000150: 09fc 643d f00c 933d 0d77 bd3d db7f ff3d
00000160: 048f 003e 8f2c df3d cc95 8d3d d679 163e
00000170: df48 113e 39d4 9d3d 3fc2 c23d 09b4 783d
00000180: 66a8 ef3d 22a2 e93d e583 703d 5fb8 9d3d
00000190: 6afd 023e d5bd 993d 696b cf3d 4894 ac3d
000001a0: 3a54 a63d 4a62 433d 8020 ab3d
0.09572038 0.11645338 0.0673159 0.12399227 0.12749818 0.051274844 0.08390367 0.09436229
0.04325501 0.10990858 0.087594084 0.042096015 0.041244283 0.08983316 0.04434135 0.08115162
0.12915161 0.07280852 0.0885037 0.10800034 0.061857603 0.100312024 0.09323387 0.14800493
0.0982485 0.062350936 0.058781076 0.055491127 0.095518745 0.08122428 0.09606806 0.10871917
0.090654194 0.06778795 0.10457706 0.06623818 0.08670171 0.06015781 0.09549099 0.119702384
0.0827772 0.049292415 0.0726083 0.042597413 0.06890031 0.09583247 0.04834811 0.09425698
0.06849069 0.061192274 0.09558568 0.10668916 0.07506372 0.07097425 0.12684706 0.07473316
0.08084002 0.08624371 0.026814116 0.09716087 0.05190851 0.07545227 0.07852173 0.11752268
0.07930577 0.108196765 0.085168004 0.095696904 0.12881055 0.055344526 0.060775384 0.108999185
0.06859607 0.0393018 0.065467276 0.06727486 0.09791337 0.059663292 0.07167724 0.075617194
0.117681034 0.16856672 0.11430617 0.063963875 0.055904422 0.07180202 0.09251223 0.12475558
0.12554556 0.10897171 0.06913337 0.14694914 0.14187954 0.07706494 0.09509706 0.06071857
0.11702041 0.114078775 0.058719534 0.077011816 0.12791982 0.07506911 0.10127909 0.0842672
0.08121534 0.047701158 0.08355808

running_var f4 [107]
00000000: 70af 233e 1721 193e 2282 be3d 0ac5 103e
00000010: 4d55 3f3e f8c8 913d 3114 113e ee6a ea3d
00000020: a793 8c3d d7eb 233e 3d9a 033e f301 8a3d
00000030: 2304 9c3d e065 f83d b7ac a83d d222 183e
00000040: 94e3 723e ada5 fc3d 2435 1d3e 1226 183e
00000050: 4943 003e 40fb ed3d 74ea 033e 4e54 6b3e
00000060: 836b e03d 8ff8 b33d 4d52 d53d fe76 be3d
00000070: 5a9a 013e 08d1 fe3d 2c72 fd3d 082d 373e
00000080: 2b9b fb3d e007 fb3d 13e9 ef3d 0f2a dd3d
00000090: 9d34 073e 1463 033e e266 333e 6205 3d3e
000000a0: 7c21 ec3d 1b43 b63d 23df c13d 9ecb bc3d
000000b0: bf88 123e 8aa9 1b3e ea40 973d 7013 1f3e
000000c0: f598 043e 0a6a d43d 6b78 1b3e c4ed 173e
000000d0: f2ba b73d fd2b d43d 54e5 643e 9ef3 ec3d
000000e0: 60ea c43d c36b e73d 993b 703d 3754 143e
000000f0: 6d9d 973d 69ce fc3d 76ed e63d 25a5 313e
00000100: 6de6 d83d 630d 393e 0a7e 013e 8baa 173e
00000110: 4d5f 4e3e deb7 ed3d 545f e73d f3d2 1e3e
00000120: 0a53 fd3d c003 963d 7012 033e 7fb9 a53d
00000130: 1bde 113e 90f6 993d 5a8a a63d 1a9f 053e
00000140: 4f26 1f3e 6958 7b3e 42b6 3e3e 28d1 a63d
00000150: 1e18 c63d cbe4 003e 0caf e93d 31fb 353e
00000160: 91de 083e 960c 183e 5836 f03d 6f39 8d3e
00000170: 381c 373e 0770 d93d 3796 153e 797b 973d
00000180: 3f60 243e eb76 083e fbff fa3d eb73 b53d
00000190: 80f9 243e 6cbc 0f3e 18a0 163e ba71 dc3d
000001a0: 7017 253e 4b7e d63d f15d ed3d
0.15984893 0.14954029 0.093021646 0.14137664 0.18684883 0.0711841 0.14167859 0.114461765
0.068641 0.16007935 0.12851806 0.06738653 0.076179765 0.12128806 0.08236068 0.14857033
0.23719627 0.12336288 0.15352303 0.14858273 0.12525667 0.11620188 0.12882406 0.22981378
0.10958006 0.08787643 0.10416088 0.0930004 0.12656537 0.12442213 0.12375292 0.17888272
0.12285455 0.122573614 0.11714377 0.10799038 0.13203664 0.12830764 0.17519715 0.18459085
0.11529824 0.08899518 0.09466388 0.092185244 0.14309977 0.15201393 0.07385428 0.15534759
0.12948973 0.10371788 0.15182655 0.14836794 0.08971204 0.103599526 0.22353107 0.11569904
0.09615016 0.11299851 0.058650587 0.1448525 0.074030735 0.12344057 0.11275761 0.17348154
0.10590825 0.18071513 0.12645736 0.1481115 0.20153542 0.116073355 0.11297479 0.15510158
0.12369354 0.07324934 0.12800002 0.08092021 0.14244883 0.07517731 0.08131857 0.13048974
0.15541957 0.24545445 0.18624213 0.08145362 0.09672569 0.12587278 0.11410341 0.17771603
0.13366152 0.14848551 0.11729115 0.2758288 0.17881858 0.10617071 0.14608084 0.073965974
0.1605234 0.13326614 0.12255856 0.0886 0.16110802 0.14036721 0.14709508 0.10763879
0.16122222 0.10473307 0.115901835

weight f4 [1, 107]
00000000: d8fe a4be 9f07 b4be 217c c63e ed0f b63e
00000010: 0f3a c33e b5a5 afbe aad5 abbe 1506 a4be
00000020: f116 c53e 460e be3e 61d7 bcbe 77a6 b8be
00000030: ea6a b23e b05d c8be d8ae adbe 03af ba3e
00000040: cc1f 9abe 76bf 9b3e 1bd1 b83e 31b8 bebe
00000050: 227d c43e b6bd b83e 42e1 b23e 2602 adbe
00000060: 51dc b13e 82a4 aa3e b4fe a73e 6ed8 b3be
00000070: 21c3 c5be eff1 b63e 57ea c9be 4777 a2be
00000080: a58e 9a3e 7ca8 babe fe78 b83e 3e72 9f3e
00000090: 9d05 a3be c26f b0be 3b3a ba3e a647 b5be
000000a0: 382d a83e c4db bdbe 6652 bd3e 84e4 c33e
000000b0: cc0b b03e 4893 b8be c169 b73e 187c b13e
000000c0: e3c2 c43e f6f7 afbe a016 c4be 4949 bc3e
000000d0: 8263 cb3e 003f bbbe 0f6d babe e36c b23e
000000e0: 4b25 bc3e 82e9 b8be d05d b4be f6b4 bf3e
000000f0: 17b5 c2be b088 a2be a5cd af3e fd3f af3e
00000100: 2e12 b13e 963b ad3e f169 aebe 4568 a4be
00000110: cd26 bc3e 536d a43e 57f3 c23e 79bf b33e
00000120: 8b46 a9be 3a15 b5be aff5 a9be 6c19 c3be
00000130: 3b14 b83e 3bfb a93e 4702 ba3e 059c c9be
00000140: cbeb bfbe 97b2 a53e b311 ac3e ad59 c2be
00000150: fcb1 a43e c5a7 b63e 8bf0 c13e 9c23 c0be
00000160: b92a c73e 2971 9fbe 8880 9f3e cb6c b93e
00000170: c328 ad3e e66a c23e e5f3 c1be db4a c43e
00000180: 87c4 a63e 12ff a63e 3e40 bfbe 06e8 b53e
00000190: 0e3d bf3e 4581 b0be 06f7 c4be 1ef8 b7be
000001a0: 82c4 c33e 7b55 bbbe c172 c8be
-0.3222568 -0.35162064 0.38766578 0.35559025 0.38130233 -0.34306112 -0.3356145 -0.3203589
0.38494065 0.37120265 -0.3688307 -0.36064503 0.34847194 -0.39133978 -0.33922458 0.36461648
-0.30102384 0.3041951 0.36097035 -0.37249902 0.3837672 0.36082238 0.34937483 -0.33790702
0.347384 0.33328635 0.3281151 -0.3512606 -0.38625434 0.35731456 -0.394366 -0.31731626
0.30186954 -0.36456668 0.3602981 0.31141847 -0.3184022 -0.34460264 0.3637255 -0.35406226
0.32847 -0.3708173 0.36976928 0.3826028 0.34384 -0.36049867 0.3582287 0.3466499
0.38429937 -0.34368867 -0.38298512 0.36774662 0.39724356 -0.36571503 -0.3641133 0.348487
0.36747202 -0.36115652 -0.35227823 0.3744275 -0.38028786 -0.3174491 0.34336582 0.34228507
0.34584183 0.33834523 -0.34065202 -0.321108 0.36748353 0.32114658 0.3807628 0.3510702
-0.33061633 -0.35367757 -0.33195254 -0.38105333 0.35952935 0.33199486 0.36329862 -0.39376846
-0.37484583 0.32362816 0.33607253 -0.37959042 0.3216704 0.35674873 0.37878832 -0.37527168
0.38899782 -0.31141022 0.3115275 0.36215815 0.3382016 0.37972182 -0.3788139 0.3833836
0.32571813 0.32616478 -0.373537 0.35528582 0.3735127 -0.34473625 -0.38469714 -0.35931486
0.3823586 -0.36588654 -0.3915005
