mlruns/528961946943719398/models/m-93a18c50008644e0a708696374f4eab4/artifacts/data/model.pth (torch, 94638 bytes, 17 tensors)

weight f4 [124]
000000 86 21 7e 3f 42 75 7d 3f 0a 22 82 3f 5b ae 81 3f
       0.992699 0.99007046 1.0166638 1.0131334
000010 1e 97 7e 3f 1d 5a 7f 3f 4d 15 7b 3f 2a 2b 81 3f
       0.99449337 0.99746877 0.9807938 1.0091298
000020 ba fb 80 3f c0 d6 7d 3f e8 dc 7a 3f 55 80 81 3f
       1.0076821 0.9915581 0.97993326 1.0117289
000030 17 4b 81 3f 2e d8 75 3f 4c 52 80 3f 2e 66 7b 3f
       1.0101041 0.9603299 1.0025115 0.9820279
000040 ee 42 7b 3f 0f a6 7e 3f 8c 3a 81 3f 6d 87 82 3f
       0.98149 0.99472135 1.0095992 1.0197579
000050 79 8b 78 3f 47 5e 82 3f e1 b0 7c 3f 76 28 81 3f
       0.9708782 1.0185021 0.98707396 1.0090473
000060 ee a7 7f 3f 5a 2b 83 3f 58 58 84 3f 5b bf 7d 3f
       0.99865615 1.0247605 1.033946 0.9912011
000070 36 d1 79 3f 49 65 7e 3f c1 33 80 3f 3c 03 7d 3f
       0.97584856 0.993733 1.0015794 0.9883306
000080 fa c7 7d 3f 2f 1b 83 3f 76 29 83 3f 0b 21 7e 3f
       0.99133265 1.0242671 1.0247028 0.9926917
000090 16 bb 7e 3f 19 19 7e 3f 09 89 7b 3f 90 5c 78 3f
       0.9950422 0.99257046 0.98255974 0.9701624
0000a0 25 21 7b 3f 6c 30 80 3f d5 17 80 3f ad 0d 77 3f
       0.9809745 1.0014777 1.0007273 0.9650524
0000b0 df 2f 82 3f 64 14 82 3f db 01 7e 3f 68 b5 7e 3f
       1.0170859 1.0162473 0.9922158 0.99495554
0000c0 30 00 7d 3f 80 cf 79 3f f1 44 7c 3f 19 28 82 3f
       0.9882841 0.97582245 0.98542696 1.0168487
0000d0 de 97 7b 3f 38 d7 79 3f 64 09 81 3f 91 cc 79 3f
       0.98278606 0.9759402 1.0080991 0.9757777
0000e0 08 01 82 3f 65 9d 7c 3f e8 43 7b 3f 0e 46 81 3f
       1.0156565 0.98677665 0.9815049 1.0099504
0000f0 fa 0e 78 3f 2c 8d 80 3f 4a 1b 82 3f d8 86 83 3f
       0.9689785 1.0043082 1.0164578 1.0275526
000100 ed 2f 73 3f e3 75 80 3f 81 69 7e 3f 69 17 82 3f
       0.94995004 1.0035976 0.99379736 1.0163394
000110 a6 c5 80 3f 40 c5 74 3f ad ba 80 3f 84 f1 82 3f
       1.0060318 0.9561348 1.0056969 1.0229955
000120 14 83 83 3f a4 11 7d 3f f0 4e 82 3f f8 93 7e 3f
       1.0274377 0.9885504 1.018034 0.9944453
000130 18 08 7f 3f a1 45 81 3f ae 9f 7d 3f 9f ad 7b 3f
       0.99621725 1.0099374 0.99071777 0.983118
000140 53 9e 82 3f 17 26 7f 3f 1a 8f 79 3f c0 22 82 3f
       1.0204567 0.99667495 0.9748398 1.0166855
000150 69 37 7c 3f 04 73 82 3f c6 77 7b 3f e6 68 78 3f
       0.9852205 1.019135 0.98229635 0.9703506
000160 9f c4 82 3f a0 51 7b 3f 57 4e 80 3f bd e9 7d 3f
       1.0216254 0.98171425 1.0023907 0.9918478
000170 66 17 80 3f 3c 16 7a 3f 4f ee 7d 3f 34 35 7c 3f
       1.0007141 0.97690177 0.99191755 0.9851868
000180 4a 21 81 3f 4e 7f 83 3f 7e a2 7a 3f f1 21 7b 3f
       1.0088284 1.0273225 0.97904193 0.98098665
000190 c7 c4 86 3f 1a 48 7c 3f 49 c7 7d 3f 3b e0 82 3f
       1.0528802 0.9854752 0.9913221 1.022468
0001a0 85 7a 7c 3f 66 b1 77 3f 8f 1f 82 3f d6 9f 7c 3f
       0.9862445 0.96755064 1.0165881 0.9868139
0001b0 7a 08 82 3f 06 30 7a 3f 22 2a 7b 3f b1 7b 80 3f
       1.0158837 0.9772953 0.98111165 1.0037748
0001c0 9e bd 7f 3f dc 7c 82 3f ee 76 82 3f b4 1a 80 3f
       0.9989871 1.0194354 1.0192544 1.0008149
0001d0 ac 86 7f 3f bb db 83 3f be f1 7d 3f 25 cb 80 3f
       0.9981487 1.0301431 0.99196994 1.0061995
0001e0 c9 98 7d 3f 08 da 82 3f c9 a3 7a 3f 79 22 8c 3f
       0.99061257 1.0222788 0.97906166 1.094802

bias f4 [124]
000000 c5 65 d3 bc 44 e4 1c bb ae 57 45 bb 4a d6 ea 3b
       -0.025805363 -0.0023939768 -0.0030112076 0.0071666585
000010 4d fd c8 bc bd 00 b5 3b b5 05 af 3c 14 9b 76 3c
       -0.024534846 0.0055237697 0.021365026 0.015051622
000020 ad 06 b0 3c 1b 2c db 3c ff 9e b0 3c 38 65 32 bc
       0.021487558 0.02675443 0.02156019 -0.01088839
000030 f9 92 01 3d 09 cf 9f 3c 84 c2 a0 bb 3f 35 6e bc
       0.031634305 0.019507902 -0.0049060006 -0.014539062
000040 ac 86 24 3c 07 54 2d 3b 14 9d cf bc c5 57 60 bc
       0.010041874 0.002644779 -0.025343455 -0.013692801
000050 88 00 61 bc 92 3b 5c bc bf 32 7e bb 20 5d 14 3c
       -0.013733037 -0.013441937 -0.0038787571 0.009055406
000060 92 b0 ca ba 23 49 88 bc ff 33 12 3c 85 0a 5c bc
       -0.0015463999 -0.016636437 0.00892353 -0.013430242
000070 61 de 4f 3c 81 39 cb 3c 8e 89 8c 3c e0 76 3d 3c
       0.012687297 0.024807693 0.017155435 0.011563987
000080 5e b6 12 3c 7f a0 0b bc 5f 0a 38 3d 50 44 30 bd
       0.008954613 -0.008522152 0.044931766 -0.043033898
000090 b8 9f dd bb 79 14 02 3c 58 5c 66 3b d5 85 f6 bb
       -0.0067634247 0.007939451 0.0035150256 -0.0075232782
0000a0 8e dc 00 ba 3f 8e 8a bc 64 32 af 3a 0a 28 c9 3c
       -0.0004915678 -0.016913531 0.0013366458 0.024555225
0000b0 11 d9 2b bc 84 9d c2 bc c8 e7 2b 3c 89 6b 28 ba
       -0.010488764 -0.02375675 0.010492273 -0.00064247154
0000c0 a6 b2 29 3c d4 02 56 3c 0a 81 d6 bc b8 68 ae 3c
       0.0103575345 0.013062198 -0.026184577 0.021290168
0000d0 23 73 25 3d ca 70 77 bb c3 74 1e bd 16 ea 11 3c
       0.040393006 -0.0037756437 -0.03868557 0.008905908
0000e0 ef 1d a3 bb 72 31 a5 bb c8 51 5e bd bb 8b bf 3b
       -0.0049779336 -0.0050412947 -0.05427721 0.0058455146
0000f0 ef 37 46 3c 16 ca 26 3c a6 59 ee 3c 2c 53 7e 3b
       0.012098297 0.010180017 0.029095482 0.0038806899
000100 4b ea 96 bb 4b 11 94 bc a9 c1 dc ba ac 6d b7 3c
       -0.0046055666 -0.018074652 -0.0016842383 0.022391163
000110 12 ce 3d bc 89 9f 88 bb 4d b3 ac 3c 17 fa ac bc
       -0.0115847755 -0.0041694087 0.021081591 -0.021115346
000120 61 99 14 bc 40 98 b6 3a 57 e9 35 3d 9a 80 30 3c
       -0.0090697715 0.0013930872 0.044411983 0.0107728485
000130 11 a3 54 bb 56 ff 03 bc 19 5f f8 3c f0 9a e7 3c
       -0.0032445828 -0.008056482 0.030318784 0.028272122
000140 71 bd 43 3a 90 e5 e7 bb 88 37 a7 bb 2f 37 64 3c
       0.00074668886 -0.0070769265 -0.0051030554 0.013929172
000150 2c b9 28 3d a7 2c 27 3b e6 5f 29 3a c5 68 d1 3c
       0.04119222 0.0025508793 0.00064611284 0.025562653
000160 89 89 af 3b 23 6b d7 3c a9 d6 0d bd ae fc 6e bc
       0.0053569716 0.026296204 -0.034628544 -0.014586611
000170 72 17 be bc b9 cd b6 bb 16 a8 0e bd 2e 2e 2f bd
       -0.023204539 -0.0055787233 -0.034828268 -0.04276865
000180 33 d3 e1 bc 0f 16 69 3c e3 8f 74 bc 78 5d c9 bb
       -0.027566528 0.014226451 -0.014926883 -0.0061451755
000190 40 25 e8 bb 18 44 39 3c f2 9f a6 bb 4a d1 cd bc
       -0.0070845187 0.011307739 -0.005084985 -0.02512421
0001a0 7a 97 33 3c 60 ba 05 3d 57 20 33 3a 26 f1 5d 3c
       0.010961408 0.032648444 0.0006833127 0.013546264
0001b0 ec bd ad bc b8 dd 03 bd 72 e0 26 bd 8c 58 36 3b
       -0.021208726 -0.03219387 -0.04074139 0.0027823774
0001c0 fa 85 d8 bb c6 2e 0f 3d 75 1f dd bc 31 e8 39 bc
       -0.006607768 0.034956716 -0.026992539 -0.011346863
0001d0 fb 1f 6a bb 5c 71 2d bc eb d1 cf 3b 9e 91 eb 3c
       -0.0035724628 -0.010586109 0.006342163 0.02875596
0001e0 a8 29 04 3c 2f 99 d6 3a ce bc cb bb e2 27 95 3c
       0.008066572 0.0016372557 -0.0062175756 0.018207494

running_mean f4 [124]
000000 1a 13 8a 42 05 33 26 46 ce 9e c3 40 97 4d b2 40
       69.03731 10636.755 6.1131353 5.5719714
000010 bd f4 ca 42 fa 4f 59 40 13 5e 45 40 d0 a0 5f 40
       101.478004 3.3955064 3.0838668 3.4941902
000020 fd 15 3d 40 66 a8 d0 3f de 6e e2 43 19 7f 5c 42
       2.954467 1.6301391 452.86615 55.12412
000030 b6 7b 0b 44 aa 64 84 40 13 48 ea 3d cf 8a 92 44
       557.933 4.137288 0.11439528 1172.3378
000040 f5 39 ac 43 c5 16 e5 40 63 7e be 44 ed a9 e4 3e
       344.4528 7.1590295 1523.9496 0.44660893
000050 6f 52 5e 3d a3 ad ca 3f 24 d6 b8 3e 81 67 38 40
       0.054277834 1.583424 0.36100876 2.8813174
000060 da 34 85 3f cb 92 60 40 d3 08 d1 40 39 b9 23 3e
       1.0406754 3.5089595 6.532327 0.15988626
000070 23 b3 23 3f f3 4b e9 3f ed dd dc 3f b1 d5 e3 3f
       0.63945216 1.8226303 1.7255226 1.7799588
000080 e1 f5 ec 43 91 e1 34 40 2a 1c 35 40 d6 7b ff 3d
       473.92093 2.8262675 2.829844 0.12474792
000090 3b 06 c4 42 74 8d 3d 42 d1 db c0 41 2c c5 35 40
       98.01217 47.388138 24.107332 2.8401594
0000a0 d5 07 90 41 71 17 24 40 07 1e 88 3c 2c ea 57 42
       18.003824 2.5639307 0.01661588 53.978683
0000b0 8d 15 1e 42 a1 04 ca 41 35 68 fe 41 e5 8a ff 41
       39.521046 25.25226 31.800882 31.94282
0000c0 e4 3f 44 40 3c 92 a2 3f 1d f4 bc 3d 1e 7d d6 3e
       3.0663996 1.2700877 0.092262484 0.41892332
0000d0 5b ac 29 3e e6 9d 30 3f 3b cc 46 3e fa 27 9f 3d
       0.16569655 0.68990934 0.19413845 0.07771297
0000e0 8d 9f 25 3d 27 0a 53 3d 66 f4 12 3d b9 9d c0 3c
       0.040435363 0.051523354 0.035877608 0.023512708
0000f0 90 ba ac 3d cb 5d e7 3c 28 a1 e4 3d ec a6 74 3f
       0.084340215 0.028242966 0.111635506 0.955672
000100 d7 9a 5d 3e ed 3f a4 3d 65 42 ab 3d 87 f7 59 3d
       0.21641098 0.080200054 0.08362273 0.053214576
000110 83 20 b8 3e ec 51 23 3e 5f ce 1f 3e f2 01 1e 3e
       0.35962304 0.1594922 0.15606068 0.1543043
000120 27 89 ef 3d 36 08 0d 3d b2 97 00 3d 09 dd 08 3d
       0.116960816 0.03443166 0.031394668 0.03341392
000130 a9 9c 73 3c 4d d3 ae 3c f7 1a ae 3c 9d 44 70 3c
       0.014868894 0.02134099 0.021253092 0.014664796
000140 af ac 4a 3f 64 6e 1d 3e 0e 7d 29 3d f5 bd 75 3c
       0.79169744 0.15374142 0.041379027 0.014998903
000150 3d 3d c3 3d da 4c 09 3d 9d 17 88 3d 91 b7 62 3d
       0.09533165 0.033520557 0.06645129 0.055350844
000160 d1 bc da 3c e7 51 ff 3b c8 bc fd 3c 05 26 25 3e
       0.026701363 0.007791746 0.030973807 0.16127785
000170 43 95 56 3d f3 b1 e8 3c 59 0a 71 3d 8e 65 9c 3d
       0.05238844 0.028405165 0.05884776 0.076365575
000180 58 bf 17 3d b8 b9 82 3c e1 06 6f 3d 8f f1 21 3d
       0.037047714 0.015957698 0.05835617 0.03953701
000190 2a 70 55 3d 4d 3e 7a 3c 92 ce b5 3c 0e b6 70 3c
       0.05210892 0.015273643 0.022193227 0.014691843
0001a0 a3 ca 19 3f 03 e8 cd 3d 89 1f e3 3e f7 1c ca 3b
       0.60074824 0.10054018 0.44359997 0.0061680037
0001b0 d7 99 db 3e 0a 12 6a 3c a5 09 a5 3c f0 10 6e 3f
       0.42890808 0.014286527 0.0201462 0.92994595
0001c0 95 5b 75 3d c9 3e 80 3e f4 11 4f 3d 7b 7b 0c 3d
       0.059901793 0.250479 0.05055423 0.034297448
0001d0 b0 9f 20 3d ec b7 aa 3d 98 24 9a 3c 55 b9 5e 3f
       0.03921479 0.083358616 0.018816277 0.87001544
0001e0 0f 33 51 3c 4c 7c 54 3f c8 27 fb 3b f7 48 ac 3d
       0.012768521 0.8300216 0.0076646544 0.084123544

running_var f4 [124]
000000 31 9f fe 43 48 95 d4 4c 7a 0a ec 3f 36 03 9e 3f
       509.24368 1.1145478e+08 1.8440697 1.234473
000010 56 7b e0 46 80 a9 a8 3e 9f 1d 00 3e aa 77 34 3f
       28733.668 0.32941818 0.125113 0.7049509
000020 40 3a 87 3e 0e 5b 90 3f d5 05 4e 48 e8 6c f3 46
       0.2641163 1.1277788 210967.33 31158.453
000030 9a 0b 39 48 da 37 6b 3f fc d0 22 3e 0d 2d 0e 48
       189486.4 0.918821 0.15900034 145588.2
000040 8c a6 3a 48 43 33 2a 45 53 eb 84 48 7e 49 87 3e
       191130.19 2723.2039 272218.6 0.26423258
000050 c3 c1 58 3d b9 d0 9e 3e 32 bd 75 3e 79 4f 22 3f
       0.05291916 0.31018618 0.23997954 0.63402516
000060 05 e7 2e 3d a3 a1 dd 3e 4b 0b 1f 40 11 89 d7 3e
       0.042700786 0.43287382 2.4850643 0.4209676
000070 e4 d0 eb 3e 95 f4 4c 40 18 83 47 3f e8 74 07 3f
       0.46057808 3.202428 0.7793441 0.5291276
000080 33 74 24 47 e9 dc f6 3e 6e b0 f4 3e e9 9c 5a 3e
       42100.2 0.48215416 0.47790855 0.21348919
000090 aa 85 84 46 e5 5f 89 45 27 77 7c 45 76 10 36 44
       16962.832 4395.987 4039.447 728.2572
0000a0 b4 5d 52 45 f9 4e bc 44 fa 7f 8b 3d db 62 80 48
       3365.8564 1506.4679 0.06811519 262934.84
0000b0 06 c1 6f 44 f8 6e d9 43 d4 a4 0e 44 74 cf 76 43
       959.016 434.86694 570.57544 246.81036
0000c0 97 e9 29 40 6e 78 35 3f 28 b7 08 3e a3 3a af 3e
       2.6548822 0.70886886 0.13351119 0.34224424
0000d0 73 1a 93 3e 02 12 5b 3e 8c 74 21 3e eb 23 93 3d
       0.28731117 0.21393588 0.15767115 0.07184585
0000e0 01 e4 32 3d 6f e2 80 3d 65 78 0f 3d 40 d8 b6 3c
       0.043674473 0.06293189 0.035026927 0.022319913
0000f0 16 c3 9e 3d a9 12 de 3c 54 39 3a 3e 67 ff 60 3d
       0.077520534 0.027108507 0.18185931 0.05493107
000100 2a 35 78 3e 5a 65 15 3e d1 91 9b 3d 04 ea 49 3d
       0.2423903 0.14589444 0.07596172 0.04929544
000110 52 5a 6e 3e fa 68 09 3e fe 0e 08 3e 7e 24 06 3e
       0.23276642 0.13418952 0.13286969 0.13099858
000120 c8 a0 d2 3d 7b f9 06 3d 04 0b f9 3c 04 40 04 3d
       0.10284573 0.032952767 0.03040076 0.032287613
000130 cf 0f 70 3c c5 d0 ab 3c 76 30 ac 3c af 74 6c 3c
       0.014652207 0.020973573 0.021019202 0.014432116
000140 89 7b 29 3e 89 01 06 3e c6 d5 23 3d ab 96 71 3c
       0.16551031 0.13086523 0.039998792 0.014745395
000150 91 e6 b1 3d fb 0b 05 3d c4 d0 7d 3d c6 8a 58 3d
       0.08686555 0.03248213 0.061966673 0.05286672
000160 56 40 d7 3c 9e 31 fd 3b 2b 3c f5 3c e2 31 0b 3e
       0.026275795 0.007726862 0.029935917 0.13593248
000170 bb e6 4a 3d 39 a7 e2 3c ee 43 64 3d 64 ec 91 3d
       0.049536448 0.027667629 0.055728845 0.07125166
000180 a1 a6 11 3d 99 ab 80 3c 6f 4a 62 3d cb 16 1d 3d
       0.0355593 0.015706824 0.055246767 0.038351815
000190 a5 4f 48 3d 3d 24 76 3c 12 cc b1 3c f0 e0 6c 3c
       0.04890408 0.015023288 0.021703754 0.014457926
0001a0 11 25 78 3e 8a c1 ba 3d 4b 1a 7d 3e c8 e0 c8 3b
       0.2423289 0.09118946 0.24717061 0.0061303116
0001b0 2b 6e 7a 3e 23 1a 66 3c f4 b2 a1 3c 2d c6 86 3d
       0.24456088 0.014044317 0.019738652 0.06580768
0001c0 ab 8d 65 3d 7d 02 3c 3e 38 1a 45 3d b2 33 07 3d
       0.05604331 0.18360324 0.048120707 0.033008285
0001d0 fa 73 1b 3d 1e 3f 9d 3d 25 7b 97 3c 2b a6 e9 3d
       0.0379524 0.07678054 0.018491337 0.11408647
0001e0 15 c0 4d 3c a0 76 10 3e 6e 44 f9 3b 63 8a 9e 3d
       0.012558003 0.14107752 0.0076070344 0.07741239

weight f4 [98, 124]
000000 86 ab 10 3c 1c 19 a4 3d 89 f4 3d 3d f9 41 c4 3a
       0.008829957 0.08012602 0.046375785 0.0014973275
000010 7b 3b 38 3d 26 d1 8d bd ad aa 5c 3d 72 07 8e 3d
       0.0449786 -0.069246575 0.053873707 0.06935014
000020 36 63 5c bd c2 36 a1 3d b4 ad 72 3c 14 77 45 3d
       -0.053805552 0.07871772 0.014811922 0.048209265
000030 72 bc ba 3d 89 e4 c1 3c 6a 38 46 bd 48 e1 56 bd
       0.09117974 0.023668544 -0.048393644 -0.05246094
000040 a9 78 82 bd 80 43 2c 3c 69 a9 8c 3c bc 5d 6c 3d
       -0.0637067 0.01051414 0.017170625 0.05770658
000050 04 00 dc bc 62 5f 98 3d f7 8d e2 3c f8 b4 3b bd
       -0.026855476 0.07440068 0.027655585 -0.045826882
000060 8a 0e 5a 3d 7c f8 f3 3b 8d 90 96 3d 56 fc db 3d
       0.05323652 0.007445393 0.073517896 0.10741489
000070 0d 66 68 bd ce ef 53 bc 84 6f 77 bd 5b 97 c2 3d
       -0.05673795 -0.012935592 -0.060409084 0.09501525
000080 c4 5f 91 3d be 44 39 bb 18 13 b1 3d 92 1d ad bd
       0.07098344 -0.0028269733 0.0864622 -0.08452906
000090 d4 ff 45 bc 37 a4 3e bc 73 63 57 3d d0 ec 14 bd
       -0.01208492 -0.011635832 0.052585077 -0.036358654
0000a0 a7 f3 d8 bc c8 bf 14 bd 15 89 0c 3d 8e 9b 22 bd
       -0.02648337 -0.03631571 0.03431042 -0.03969913
0000b0 ad 3d 8c bd b0 6b 9c bd e9 88 a2 3c 13 c3 0b 3d
       -0.06847701 -0.07637727 0.019840674 0.034121584
0000c0 9c 57 63 3d 49 c9 86 bd c7 b4 83 bd b0 92 ff bc
       0.055503473 -0.06581361 -0.06430965 -0.031197876
0000d0 94 d2 b9 bc aa 5f bd 3d c5 66 92 3d 48 6a 59 3c
       -0.02268342 0.09246762 0.07148508 0.013269968
0000e0 33 eb b0 bc c0 6b b4 3c 56 48 67 3d 17 75 b8 bd
       -0.021596527 0.022024035 0.05646547 -0.09006708
0000f0 92 d3 68 bc 55 48 0c 3d 28 8f b0 3c c5 d3 0f 3d
       -0.014210599 0.03424867 0.021552637 0.03511407
000100 97 49 21 3d 44 85 a3 3c a0 70 40 bd 40 57 61 bc
       0.03937682 0.019961007 -0.046982408 -0.013753712
000110 36 33 1a 3d d9 ee 76 bc b4 38 2b 3d 9f 6e 09 3c
       0.037646495 -0.015071594 0.041802123 0.0083881905
000120 e7 66 66 3c f8 ac 21 bd 79 24 bd 3d c2 70 10 3d
       0.01406262 -0.039471596 0.09235472 0.035263784
000130 70 05 0c 3d db 3f 39 3c f9 f6 c6 bd 99 93 86 bd
       0.034184873 0.011306728 -0.09715075 -0.06571121
000140 4a cc 48 bc 16 a0 62 3b 4a d9 98 3b 59 78 41 bd
       -0.012255738 0.0034580282 0.0046645747 -0.047233913
000150 1a b7 8b bd 54 4a b4 bd 98 58 ba bd 7a f3 7b 3b
       -0.06822033 -0.088032395 -0.09098929 0.0038444684
000160 e6 0b 5b bc dc 4f 92 bd 3f 2a b5 bd 55 e4 2b bd
       -0.013369536 -0.07144138 -0.088459484 -0.0419658
000170 63 88 46 3d b8 5a a2 3c 53 64 8a bd ab e4 34 3c
       0.048469912 0.019818649 -0.067574166 0.011040847
000180 32 e8 b2 bd a6 27 6d bd 05 11 b7 3c 91 9f 14 3d
       -0.08735694 -0.05789914 0.022346983 0.036284987
000190 e2 69 cd 3d da a5 75 bc 96 ad ac bd 77 64 41 3d
       0.10029961 -0.014993155 -0.084315464 0.04721495
0001a0 51 b7 6d 3d 0b a7 ac 3d bb 1e 92 3d 5f e6 10 3d
       0.058036152 0.084302984 0.071347676 0.03537595
0001b0 37 37 90 bd 84 cc ba bc 9d 5d ac bd 37 6b 38 3d
       -0.070417814 -0.022802599 -0.08416293 0.045024123
0001c0 7e 53 0d 3d 14 35 cc bd f0 96 83 bd 5d f4 bd 3c
       0.034503452 -0.09971061 -0.064252734 0.02318781
0001d0 cf 4c 9e ba b6 95 cf 3d 3d e3 8e bc 02 f0 eb bc
       -0.0012077334 0.10135977 -0.01744234 -0.028800968
0001e0 08 36 62 3d 9f 80 e2 bd 54 cd 67 3c e5 b3 50 3d
       0.05522731 -0.11059689 0.014148075 0.05095281
0001f0 02 2b 83 bd 8f 51 b4 3d d3 23 bd 3c 47 07 9c 3c
       -0.064046875 0.088046186 0.023088371 0.019046439
000200 99 dd 3f bc 9d 04 89 3d 10 c1 6d 3d 35 b9 8b 3c
       -0.011710548 0.06690333 0.058045447 0.017056087
000210 d2 37 22 3d cb a0 0a 3d 5d 3d 98 bd 83 d1 9c bc
       0.039604016 0.03384475 -0.07433579 -0.019142872
000220 fc 45 93 bd 66 e9 7f bd 11 2d fa bc 90 d9 e0 3d
       -0.07191083 -0.062478445 -0.030539067 0.10978997
000230 f9 e1 f3 bd 13 44 95 3d 2b af a1 3d 8a 6e 22 bd
       -0.11908335 0.07288375 0.07894739 -0.0396562
000240 80 c1 a4 bd 4f c6 48 3d 03 dd 27 3d 97 7a a6 bb
       -0.0804472 0.049017247 0.040982258 -0.005080532
000250 74 5a c3 bc 05 11 21 bd b3 4c ad bd cd bf 56 bd
       -0.023846842 -0.03932287 -0.08461895 -0.05242901
000260 50 27 21 3c 20 62 54 3d fa 0a a9 ba a6 69 80 bd
       0.009836033 0.05185139 -0.0012896948 -0.06270151
000270 d0 68 30 3b 3d f1 d9 ba 1a e7 3d bd c7 ed 9f 3d
       0.0026917942 -0.0016627681 -0.046362974 0.07809024
000280 a5 62 aa 3d d8 03 ab 3d 9c f5 76 bb 71 d5 4e 3c
       0.08319596 0.083503425 -0.0037683016 0.012624131
000290 45 56 a2 3b 3e e9 6f 3d 04 1a 4f bc 31 8f 6a 3d
       0.004954132 0.058572046 -0.01264048 0.057265464
0002a0 07 80 92 bd 12 c4 93 3c a3 5c 73 bb c8 b7 90 bd
       -0.071533255 0.01803783 -0.0037134073 -0.070663035
0002b0 23 ea 99 3a 84 e0 ee 3d 9c fa 77 3a f6 3c 74 bd
       0.0011742752 0.11663917 0.0009459646 -0.05962845
0002c0 3f ce b7 bd 4d a8 96 bb 37 35 98 bd b7 4a 8c 3d
       -0.08974885 -0.0045976997 -0.07432025 0.06850188
0002d0 92 e7 39 bd 94 7c 86 bd 10 cf 4d 3d 8e 0f 04 3d
       -0.04538686 -0.0656673 0.0502463 0.032241397
0002e0 31 08 23 3d 08 46 17 bd f2 70 66 bb d6 93 8a 3d
       0.039802734 -0.03693202 -0.0035162535 0.06766479
0002f0 30 0d 80 bd 96 f8 a0 3d eb 5f 83 3d 29 c6 8d bd
       -0.06252515 0.07859914 0.06414779 -0.06922562
000300 87 0f 58 3d 4f ac 81 bd fc d8 88 3d db cc 92 bd
       0.052749183 -0.063316934 0.066820115 -0.07167979
000310 79 d6 86 3d 64 f7 eb 3d 91 a7 81 3c 02 4d 81 3d
       0.06583876 0.115217954 0.015826972 0.06313516
000320 dc 70 67 bc f9 1c 67 3c 48 72 82 bd ee 2d bc bd
       -0.014126029 0.014106029 -0.06369454 -0.09188448
000330 08 3d dd bc 77 39 24 3d 0e f2 08 bd ce f7 a2 3b
       -0.027006641 0.040093865 -0.033433966 0.0049733883
000340 fc 90 17 3c e3 99 58 bd f2 65 13 bd e1 eb cc 3c
       0.009250876 -0.052881133 -0.035985895 0.02501482
000350 7e 13 79 3d e7 c9 b6 bd 9a ad 97 3d 5e d6 30 3c
       0.060809605 -0.089252286 0.07406159 0.010793297
000360 72 d3 30 bc 89 ed 56 bd 68 25 8f 3d b4 26 1d 3d
       -0.0107926 -0.052472625 0.069895566 0.03836699
000370 f8 cf 42 3d aa 84 02 bd f3 1b fe 3c 3a 2e 58 3d
       0.047561616 -0.0318648 0.031019187 0.05277846
000380 4a 41 08 3e 5a 83 c8 38 08 e7 81 3d 69 ff 9c 3d
       0.13306156 9.561209e-05 0.06342894 0.07665903
000390 02 ba c6 bc 8a 4c 82 bc b2 94 f5 3c 3e 7c bb bd
       -0.024258617 -0.015905637 0.02997813 -0.09154557
0003a0 34 db 62 3d 8a 0a 96 3d 3d fd 2e 3d e8 8e 36 bd
       0.05538483 0.07326229 0.042721976 -0.04456988
0003b0 ae 18 d1 bd 69 f2 93 bd 4a 5a 9d bc 74 99 17 3c
       -0.102097854 -0.072239704 -0.019208092 0.009252895
0003c0 ca 51 75 3d ce 66 60 3d 02 d1 1c bd 1b 3f 3b bd
       0.059892453 0.054785542 -0.038285263 -0.04571448
0003d0 3f 17 3f bd 16 71 a6 bd b8 11 c1 3c ed 8d 89 39
       -0.04665303 -0.08127038 0.02356802 0.0002623642
0003e0 e1 7b ae bd 84 aa a1 bc 1f 1d b3 bd 95 a7 b6 bc
       -0.08519722 -0.019734628 -0.08745789 -0.022296706
0003f0 12 1d 55 3d f7 56 42 bb 73 4d 89 bd 13 5b 24 3d
       0.052029677 -0.0029653886 -0.067042254 0.040125918

bias f4 [98]
000000 5f 15 5c 3d c8 f8 14 3d b1 f1 66 3d bc 06 92 bc
       0.05373132 0.03637007 0.05638284 -0.017825477
000010 54 e1 3f 3c 56 a1 71 bd 31 d9 c0 bc 94 91 a4 bd
       0.011711437 -0.058991753 -0.023541065 -0.08035579
000020 32 80 b1 bd dc e0 60 bc 48 91 5c bd 28 7a 09 bc
       -0.086670294 -0.013725486 -0.05384949 -0.008390941
000030 23 f7 04 3d c4 20 51 3d ad a0 b5 3d cc 9e a5 3d
       0.03246225 0.05105664 0.08868537 0.08086929
000040 c1 d6 1a bd 1e b1 aa bd ef 30 7e 3d 3a c6 fb bc
       -0.03780246 -0.08334564 0.062058385 -0.03073417
000050 c5 63 80 bd d7 39 9e bb 85 27 e0 3c bf 11 b6 3d
       -0.062690295 -0.0048286724 0.027362594 0.088901035
000060 c7 a6 41 3d b3 bd d0 bc 5a 4a e7 3c 63 e5 e1 bc
       0.047278192 -0.02548108 0.028233696 -0.0275752
000070 2e 56 d6 3a 1b 35 a0 3c 9e fb 40 bd bf 9a 9f 3d
       0.0016352588 0.019556573 -0.04711496 0.07793187
000080 9a e1 47 bd 5d 7f b5 3c 36 70 13 bd e0 05 03 3d
       -0.048799135 0.022155458 -0.035995685 0.031988025
000090 72 93 c2 bd 27 94 60 3d e2 7d 95 3d a8 f3 ed bc
       -0.09500779 0.05482879 0.07299401 -0.029046848
0000a0 07 2d 46 bd b7 8c 8b bd 18 cf 82 bd b4 af 24 bb
       -0.048382785 -0.068139486 -0.06387156 -0.0025129141
0000b0 be a5 9b 3d d0 75 e8 bb 87 a6 27 bd 78 0f e1 3c
       0.07599972 -0.0070941225 -0.040930297 0.027473196
0000c0 2f 41 65 bd d9 47 d9 bc 34 61 82 bd b9 be 0e 3c
       -0.055970367 -0.026523517 -0.06366196 0.008712464
0000d0 46 bf d8 bc 45 74 00 3d 7a 3f d5 bd e9 d7 7c 3c
       -0.026458394 0.031360883 -0.10412498 0.015432336
0000e0 ec c5 9f bd a4 51 24 3d f5 32 a7 bd c2 de ae bc
       -0.078014225 0.04011692 -0.08164016 -0.021346454
0000f0 2f 36 9c bb 19 c0 9c bd 83 0c ca bc aa 4b b2 bd
       -0.0047672014 -0.07653827 -0.02466417 -0.08705838
000100 0f 9c 03 3d 74 7a 97 3d f5 18 cb 3c 00 4f 49 3d
       0.03213125 0.07396403 0.024792174 0.049147606
000110 85 da e1 3c 36 e1 2a bd 08 9e 92 3b 8d 79 51 bd
       0.027570019 -0.041718684 0.004474405 -0.05114131
000120 d9 cd ac bc e4 75 9d bd d6 ac 8f 3d 5c d5 80 bc
       -0.02109425 -0.076885015 0.07015388 -0.015726738
000130 a3 a8 22 bd b8 55 cd bc 6c 5d 37 3d 5b aa 83 bd
       -0.039711606 -0.025065288 0.04476683 -0.06428977
000140 b4 e1 09 be e9 a6 61 3d c8 36 36 3d f2 6d 9c bd
       -0.13465005 0.05509082 0.044485837 -0.07638158
000150 4f fb c0 bd fe 4e 75 bc cf 26 2e bd 98 b2 08 bb
       -0.09422933 -0.0149724465 -0.04251748 -0.0020858403
000160 2f 2f 0a 3c 13 36 4b bc 5a 2d 2c bd 21 23 46 bc
       0.008434101 -0.012403029 -0.042035438 -0.012093336
000170 26 69 92 bd 21 35 a2 3c 37 0b a5 3b 6b 4a 8b 3d
       -0.07148962 0.019800724 0.0050367373 0.068013035
000180 ae 05 88 3b 1b 26 65 bd
       0.0041510677 -0.055944543

weight f4 [98]
000000 0a 38 7f 3f b4 64 77 3f 7a 4a 7f 3f ad e5 81 3f
       0.99694884 0.96638036 0.9972302 1.0148216
000010 51 b2 6c 3f f5 cf 72 3f 8d bc 7c 3f 43 e0 7a 3f
       0.9245959 0.9484857 0.98725206 0.97998446
000020 89 ce 76 3f 27 fa 7b 3f ba 23 7d 3f 03 76 7f 3f
       0.964089 0.9842858 0.9888264 0.99789447
000030 2d 4f 6f 3f 19 15 7e 3f 95 4f 77 3f 52 3b 7a 3f
       0.9348019 0.9925094 0.9660581 0.97746766
000040 da e9 7e 3f ca f7 77 3f c6 9a 86 3f c1 b8 75 3f
       0.9957558 0.9686247 1.0515983 0.9598504
000050 78 4c 71 3f 2b b2 74 3f 5d 74 7c 3f 5f 95 73 3f
       0.9425731 0.9558436 0.98615056 0.951498
000060 e8 7a 7e 3f 7d c6 82 3f c3 bb 70 3f f9 4c 6c 3f
       0.9940629 1.0216824 0.940365 0.9230495
000070 eb de 7b 3f a4 f2 76 3f e4 08 7c 3f 68 a2 73 3f
       0.9838702 0.9646399 0.98451066 0.9516969
000080 3f 44 79 3f 14 3a 75 3f 4e b9 7b 3f 2c 74 7a 3f
       0.9736976 0.95791745 0.9832963 0.97833514
000090 6a 06 7b 3f 42 ae 78 3f 28 9d 79 3f d4 e0 7a 3f
       0.9805666 0.97140896 0.97505426 0.9799931
0000a0 f6 a0 7a 3f 87 bd 82 3f 4e f5 74 3f e9 a1 77 3f
       0.97901857 1.0214089 0.95686805 0.9673143
0000b0 5b f3 78 3f e8 81 75 3f a2 f5 76 3f 46 95 7e 3f
       0.9724633 0.95901346 0.96468556 0.99446523
0000c0 7a ac 7a 3f 56 b9 7f 3f 79 4d 7a 3f 6e eb 79 3f
       0.9791943 0.99892175 0.97774464 0.9762486
0000d0 bb 9e 76 3f 7b 9a 74 3f 5e 5d 77 3f cf fe 67 3f
       0.96335953 0.9554822 0.9662684 0.9062318
0000e0 f2 14 7c 3f 02 f6 76 3f 62 bd 7e 3f 17 6f 76 3f
       0.9846946 0.9646913 0.99507725 0.9626326
0000f0 22 f9 7f 3f 9f 6f 79 3f 69 25 79 3f 57 8e 7f 3f
       0.9998952 0.97435945 0.9732271 0.9982657
000100 37 ba 6f 3f ca 8d 7e 3f 67 47 7a 3f ef d6 73 3f
       0.93643516 0.994351 0.977652 0.9524984
000110 34 b7 7a 3f 28 57 78 3f 7c fc 74 3f 4c fd 74 3f
       0.97935796 0.9700799 0.9569776 0.95699
000120 31 7a 79 3f fe 19 80 3f 12 ef 7c 3f d7 6a 76 3f
       0.97452074 1.0007932 0.9880229 0.96256775
000130 11 54 75 3f 7a 27 73 3f 50 d4 6f 3f c0 99 75 3f
       0.958314 0.9498211 0.9368334 0.9593773
000140 d1 ca 74 3f c6 ee 79 3f af 61 7c 3f b9 04 7d 3f
       0.95621973 0.97629964 0.98586553 0.9883533
000150 90 0d 7a 3f 1b 3c 7e 3f 05 b8 77 3f 4e 6d 7b 3f
       0.97676945 0.99310464 0.96765167 0.9821366
000160 0f 87 6f 3f 29 ef 73 3f 5d 9b 73 3f ae ec 74 3f
       0.9356546 0.95286804 0.9515894 0.95673645
000170 cd 55 7d 3f 51 7e 79 3f 5e 4b 6e 3f 3a 77 75 3f
       0.98959047 0.9745837 0.9308375 0.9588505
000180 30 e4 6f 3f d7 e4 73 3f
       0.9370756 0.95271057

bias f4 [98]
000000 2c c4 33 bd 22 db 70 bd b8 27 20 bd 94 18 7a bd
       -0.043888256 -0.05880273 -0.03910038 -0.061058596
000010 19 17 ce 3c 03 33 65 bd 35 3a c9 3d 2a f1 2d bd
       0.025157498 -0.05595685 0.09825555 -0.04246632
000020 fd ab 51 bd f8 cd 81 bd 97 66 c2 bd 2a 8c 0b bb
       -0.05118941 -0.063381135 -0.09492224 -0.002129326
000030 96 31 21 3b 31 4c 8f 3c c2 1d 05 3d 41 ef 6c 3d
       0.0024596206 0.017492386 0.032499082 0.057845358
000040 ad bd 5d 3c 3a 79 e8 bc bb 8a a4 bd 31 90 18 bd
       0.013533992 -0.028378118 -0.08034273 -0.037246887
000050 d3 49 a6 3d 94 33 0b bc 44 70 66 3d de dc e3 3b
       0.081195496 -0.008496184 0.05625941 0.0069538197
000060 fe e9 bd bd cf 12 57 bd 2c 06 57 bc 4b 58 a4 3b
       -0.09273146 -0.05250817 -0.01312403 0.005015408
000070 3a 57 8b 3d 79 c1 29 bd 6c ac 28 3d 89 30 3e 3d
       0.068037465 -0.041444276 0.04118006 0.046433005
000080 f4 a9 70 bb 94 54 81 bd a6 59 e1 bd 0b 32 f5 3c
       -0.0036722394 -0.0631496 -0.11003427 0.029931089
000090 1a a0 2b 3d 37 c2 d7 3b 90 62 26 bd b6 37 c2 bc
       0.04190073 0.0065844315 -0.04062134 -0.023708206
0000a0 37 bd 2d 3c 07 64 74 bd 1c ee 92 3d e6 f5 a7 3c
       0.010604194 -0.059665706 0.07174322 0.020502996
0000b0 d3 c3 2b 3d e1 12 2f bd 0b ac 03 3b 2f e5 6f bd
       0.0419348 -0.042742614 0.002009156 -0.058568176
0000c0 3f e7 18 bd 30 d0 d2 bc b9 12 89 bc e6 a1 37 3d
       -0.03732991 -0.025734037 -0.01673256 0.044832133
0000d0 9d 10 64 bd c3 cf 26 3c 5b c8 ee 3c bf 41 a9 3b
       -0.055679906 0.01018137 0.029148271 0.0051653082
0000e0 02 d8 d7 3b c7 15 4d bd 4b f4 03 bc 9a bc ff 39
       0.0065870294 -0.050069597 -0.008053849 0.0004877791
0000f0 4c 1f 13 bc d6 61 89 bc 9a d5 c9 bb 09 a7 96 3c
       -0.00897963 -0.016770285 -0.0061594965 0.018390195
000100 fd d2 40 3d 25 62 02 3c 72 c3 0f be a4 bc 07 3d
       0.047076214 0.00795797 -0.140394 0.033138886
000110 67 77 26 bc 09 8d 36 bc 08 fa e2 3c 2c ed 10 bc
       -0.010160304 -0.011142024 0.027707115 -0.008845609
000120 3f db 87 bd 80 8d d2 3b e0 b1 02 bc 8c e6 d7 bc
       -0.06633615 0.0064255595 -0.007976979 -0.02635505
000130 c9 c1 34 bd 69 78 75 3c 54 2d 2a bc f3 a8 15 3d
       -0.04413012 0.014982321 -0.010386784 0.036538076
000140 02 44 62 3d 26 08 ed bc 79 99 92 bd 62 69 e7 bc
       0.05524064 -0.02893455 -0.07158179 -0.028248493
000150 27 8a 2f bd 7e ae 9e bd 2c 65 d7 bc 6c f7 65 bd
       -0.04285636 -0.077481255 -0.02629336 -0.056144163
000160 e6 ac 87 3d ce 27 50 bb db 88 ad bd 55 f4 47 3b
       0.06624775 -0.0031762007 -0.08473369 0.0030510623
000170 4b 38 a1 bc 06 17 79 bd 19 79 f5 3c d0 e4 b8 3d
       -0.019680163 -0.060812972 0.02996497 0.090280175
000180 12 92 7c 3b 1b 64 98 bc
       0.0038539213 -0.018602422

running_mean f4 [98]
000000 21 f1 5e 3e 51 a3 0a 3e e1 28 0a 3e 5b 5a 26 3e
       0.21771671 0.13538863 0.13492157 0.16245405
000010 18 d6 f0 3d e2 96 ab 3d f4 e4 2e 3e 59 85 a6 3d
       0.11759585 0.08378388 0.17079526 0.08130903
000020 bb 81 f6 3d 9f 7b 18 3e b4 fd 11 3e 9a 38 ae 3d
       0.12036463 0.14890908 0.14256936 0.0850689
000030 b8 56 f2 3d 1f 43 34 3e 01 88 8e 3e 31 9e 6f 3e
       0.118329465 0.1760373 0.27838138 0.23400189
000040 de eb 25 3e 9c e5 81 3d f3 ce 42 3e c4 dd 5d 3e
       0.16203257 0.06342623 0.19024257 0.21666628
000050 2f 33 e6 3d 2d 59 17 3e d5 10 cb 3d 5a 68 17 3e
       0.11240231 0.14780112 0.0991532 0.147859
000060 31 96 79 3e 49 61 f1 3d 1b f2 0b 3e 97 55 dd 3d
       0.243737 0.11786134 0.13666575 0.108073406
000070 47 5f 18 3e b8 ca 3d 3e 3f 95 c5 3d 2c a8 06 3e
       0.14880095 0.18534362 0.09647607 0.1315009
000080 10 1e 2f 3e 46 0c 49 3e 11 34 f7 3d 7d f4 59 3e
       0.17101312 0.19633588 0.12070478 0.21284671
000090 8f f3 a9 3d e4 c0 5a 3e 30 20 53 3e f7 8c ec 3d
       0.08298408 0.21362644 0.20617747 0.115503244
0000a0 ee 34 5a 3e 14 e4 04 3e 59 eb b7 3d d1 fa 86 3e
       0.21309254 0.1297763 0.08980436 0.26363233
0000b0 54 f3 19 3e 1c af 0a 3e 57 46 41 3e 01 e9 77 3e
       0.15034229 0.13543361 0.18874489 0.24209978
0000c0 06 97 e7 3d 84 9d f2 3d 32 f3 29 3e f6 09 16 3e
       0.11308102 0.1184645 0.16596678 0.14652237
0000d0 46 75 fa 3d 83 31 37 3e fc 1f 0f 3d 4c 0c 07 3e
       0.122293994 0.17889981 0.034942612 0.13188285
0000e0 22 a2 fe 3d c5 d1 3c 3e 2e 48 22 3e 3a 55 0e 3e
       0.12433268 0.18439396 0.15847847 0.13899699
0000f0 e6 8b e8 3d 7c eb e6 3d a2 0b 1a 3e 9b 1f 19 3e
       0.113548085 0.11275384 0.150435 0.14953463
000100 e3 9f 0b 3e da bf 2d 3e 28 df 45 3e 6c 60 09 3e
       0.1363521 0.16967717 0.19323409 0.13415688
000110 93 39 06 3e 5e 13 3d 3e 84 13 f7 3d 01 3c ea 3d
       0.131079 0.18464419 0.12064269 0.11437226
000120 c7 56 2d 3e 80 92 07 3e 1f 5e 23 3e 6b 54 04 3e
       0.16927634 0.13239479 0.15953873 0.12922828
000130 36 df 04 3e c5 3d fe 3d a0 48 0d 3e 6a e5 b2 3d
       0.12975773 0.12414125 0.13797235 0.087351635
000140 cb d4 fa 3c c7 be 06 3e c8 06 a9 3e 2d 78 dc 3d
       0.030619046 0.13158713 0.33012986 0.10765109
000150 01 27 8b 3d f7 12 0b 3e f4 b1 7d 3d 23 e5 42 3e
       0.06794549 0.13581453 0.061937287 0.19032721
000160 a7 87 e5 3d 5c d3 16 3e 83 ee 27 3e c5 e0 0d 3e
       0.11207514 0.14729065 0.16399579 0.13855274
000170 2a 98 b1 3d 62 d1 07 3e b4 9a 06 3e b1 7e 24 3e
       0.08671601 0.13263467 0.13144952 0.16063954
000180 71 10 37 3e b7 e5 d4 3d
       0.17877366 0.10395377

running_var f4 [98]
000000 26 ba 9d 3e 34 43 32 3e 1d 43 50 3e dd a2 91 3e
       0.30806082 0.17408448 0.20338102 0.28444567
000010 16 2a 27 3e 33 5b e9 3d ff 65 83 3e ad 46 14 3e
       0.16324648 0.11394348 0.25663754 0.14480086
000020 0c 0e 66 3e b3 7c 94 3e 9e 55 85 3e af b5 cd 3d
       0.22466296 0.29001388 0.26041883 0.10044419
000030 1e 64 32 3e 99 07 71 3e 96 88 ef 3e 5d 35 84 3e
       0.17421004 0.23538055 0.46783894 0.25821963
000040 1b ab b1 3e 67 9a 15 3e f9 ca 87 3e 79 75 c1 3e
       0.34700856 0.14609681 0.26522043 0.37784937
000050 15 db 0f 3e 43 14 55 3e 79 3f ef 3d 57 64 0a 3e
       0.14048417 0.2080851 0.11682028 0.13514839
000060 7f 5b cb 3e f8 a6 3e 3e 40 5c 1c 3e ef e7 28 3e
       0.39718243 0.18618381 0.15269566 0.16494726
000070 06 37 3c 3e 0b b3 8a 3e d3 82 17 3e 1f 6d 17 3e
       0.18380365 0.27089724 0.14795999 0.1478772
000080 e6 b7 ba 3e 44 e4 ac 3e 09 32 64 3e 2a 92 ab 3e
       0.36468428 0.33767903 0.22284712 0.33509952
000090 f2 72 32 3e 57 f4 a2 3e 6e b1 9d 3e 26 62 37 3e
       0.1742666 0.31827042 0.3079943 0.17908534
0000a0 09 7e be 3e 44 14 96 3e fb 4f 14 3e 24 9c d6 3e
       0.37205532 0.29312336 0.14483635 0.41916
0000b0 37 2f 59 3e cf 34 35 3e 86 be b2 3e 08 f6 01 3f
       0.21209417 0.17695926 0.34910983 0.5076604
0000c0 13 d3 3c 3e eb 8e 37 3e c3 38 94 3e e4 33 42 3e
       0.18439893 0.17925613 0.28949556 0.18965107
0000d0 10 af 5d 3e f1 6c 42 3e ef 1c bb 3d ea 30 2c 3e
       0.21648812 0.1898687 0.09136378 0.16815534
0000e0 a1 c4 47 3e 31 47 82 3e f6 28 80 3e af 24 58 3e
       0.19508602 0.2544494 0.2503125 0.21107744
0000f0 3d 5f 1e 3e 8f 76 9b 3e c5 fc 93 3e 1c da 4d 3e
       0.15466018 0.3036389 0.28903785 0.20102733
000100 85 9f 10 3e fd 5d b1 3e be 9e 8f 3e 20 9b 11 3e
       0.14123352 0.3464202 0.28050798 0.14219332
000110 f4 44 32 3e 3a d4 67 3e 95 c6 51 3e 62 bc 61 3e
       0.17409116 0.22639552 0.2048591 0.22044519
000120 97 ef c1 3e e2 89 76 3e 6a ce 4c 3e 5a bb 81 3e
       0.37878105 0.24076036 0.20000616 0.2533825
000130 54 df 5b 3e c1 bb 6e 3e f5 42 1f 3e 01 87 01 3e
       0.21471912 0.2331381 0.15552886 0.12649156
000140 f1 98 8f 3d 3e 7f 0d 3e 99 af 25 3f 52 a7 9d 3e
       0.07011593 0.1381807 0.64721066 0.30791718
000150 32 5f f1 3d 10 7c 5a 3e d2 b7 36 3e 52 3d bf 3e
       0.11785735 0.21336389 0.1784356 0.3735147
000160 62 6d 28 3e 33 0b 2e 3e f6 c7 82 3e 80 db 11 3e
       0.16447976 0.1699646 0.25543183 0.14243889
000170 ce 18 2c 3e fe f7 66 3e 68 ba 1d 3e 6b 9e 28 3e
       0.16806337 0.22555539 0.1540314 0.16466682
000180 5f f9 70 3e 79 5c 62 3e
       0.23532628 0.22105588

weight f4 [70, 98]
000000 80 e6 f5 3c 6a 98 a3 bb 6f d5 92 bd 9a 0a 1e 3d
       0.030017138 -0.0049925344 -0.071696155 0.03858433
000010 95 eb 65 3d d6 fa 25 3d 71 b4 36 bd 63 b8 4a 3b
       0.05613287 0.04052242 -0.044605676 0.0030932657
000020 ab d8 8f 3d 09 10 56 3d 60 49 2c bc 30 fb 01 3e
       0.07023748 0.052261386 -0.010515541 0.12693477
000030 a4 e6 9d bd 41 90 b0 3c 55 d3 b4 bc f1 aa 2a bd
       -0.07710007 0.02155316 -0.022073427 -0.04166693
000040 ef f5 43 bc c9 4b 85 bd ef 45 de bc 9b cb 87 bd
       -0.011960491 -0.065085955 -0.027132956 -0.066306315
000050 c5 8f 50 3d 71 47 ca 3c cf 6f 02 3c 2e d2 a9 bd
       0.05091836 0.024692269 0.007961228 -0.08292042
000060 58 d8 09 3d b2 e6 8a 3d 14 02 0f 3d 0b b0 c7 3c
       0.033653587 0.06782283 0.03491409 0.024375936
000070 52 ca 90 bd 64 d1 0a bc d3 76 78 3c ac 4c 83 3c
       -0.070698395 -0.008472774 0.015165049 0.016027771
000080 30 21 a0 bc 35 ed 68 bd 77 e3 7f bd cd cc 04 bd
       -0.019547075 -0.056866843 -0.062472787 -0.032421876
000090 13 cf e8 bc e2 a4 55 bd da 2b 0e bd 5f 69 85 3d
       -0.028419053 -0.052159198 -0.03470979 0.065142386
0000a0 11 f3 63 bd 27 88 8f 3d fe 07 cc bc b3 29 49 bd
       -0.055651728 0.07008391 -0.024906155 -0.049112033
0000b0 5d 1b 08 3d d9 e7 d9 3d f9 2b c7 bd 2f 6e 17 bd
       0.03322922 0.106399246 -0.09725184 -0.036970314
0000c0 3e 4f 31 bc 66 da 9e bc 53 3d 58 3d aa 2a f2 3c
       -0.0108221155 -0.01939125 0.05279286 0.02956136
0000d0 a3 76 a6 bd 55 cc a0 3d c4 22 45 bd 3a b7 55 3c
       -0.08128097 0.07851473 -0.04812886 0.013044173
0000e0 58 06 8a bd c6 07 d3 3d d5 8b 6a bd c9 df 49 3c
       -0.06739491 0.10304217 -0.05726226 0.012321421
0000f0 08 65 0f bd 14 3d f1 3b ed 24 ae bc ea 32 98 bb
       -0.03500846 0.0073620174 -0.021257842 -0.0046447413
000100 74 d7 d4 bc dc 07 e5 3b 5b cd a0 3c 97 e9 87 bd
       -0.025981642 0.0069894623 0.019629171 -0.066363506
000110 b7 2a 1d 3d dd 23 43 3d 06 13 54 3d f3 6b 4a 3c
       0.038370814 0.047641624 0.051775955 0.012354839
000120 01 5b 31 bd fa d2 45 bd eb a1 d2 bd 69 a6 1e 3c
       -0.04329968 -0.048296906 -0.1028479 0.00968323
000130 b6 84 0a bd 7f e6 94 3d 3c 41 a4 3d bd 73 84 bd
       -0.03381797 0.07270526 0.08020255 -0.06467388
000140 52 c1 85 bd 9e 34 c2 3c a8 74 bc bd 5d a2 2b bd
       -0.065310135 0.02370673 -0.09201938 -0.04190289
000150 3d e4 31 bd 48 d2 e1 bc 4e fe 72 bd 88 be 47 bd
       -0.043430556 -0.02756609 -0.059324555 -0.04876569
000160 77 56 9a 3d 87 de aa bc 91 4b 91 3c c9 96 cf bc
       0.07536023 -0.020858062 0.017736228 -0.025340455
000170 86 7c d7 3c 71 62 75 bc 98 a2 80 bd 27 60 c5 bd
       0.026304495 -0.014977084 -0.06281012 -0.0963748
000180 c5 d4 c6 3c 56 4f 38 3d 47 6a 3d 3c b7 7f ae bd
       0.024271378 0.044997536 0.011560983 -0.085204534
000190 ff 1b 34 3c 62 0e 7a bd 05 e7 8e 3d 00 3c 65 3d
       0.010993003 -0.061048873 0.06977657 0.055965424
0001a0 96 48 b3 bc 3a 22 c8 3c e2 0b ac 3c 38 9f 7c bd
       -0.021885198 0.024430383 0.02100176 -0.06167528
0001b0 2d 2e 80 3d d9 78 e0 bd 44 54 c7 3d 32 23 7e 3d
       0.06258807 -0.1096055 0.09732869 0.062045284
0001c0 05 b2 4d 3d 34 b8 49 bd 77 14 0d bb dd b7 d0 3d
       0.0502186 -0.049247935 -0.002152709 0.10191319
0001d0 fd e0 d8 3c 39 7b ac 3c d0 3b 37 bd fa e2 00 3c
       0.02647447 0.02105485 -0.044734776 0.007866615
0001e0 d4 a2 2c 3d 5d 1d b1 3d f9 f5 18 3c c4 25 f0 3c
       0.042147473 0.08648179 0.009335988 0.029314883
0001f0 ff 1f ae bc 45 fc 55 bd cd 1f 6d 3d 40 71 45 3c
       -0.021255491 -0.052242536 0.057891656 0.012050927
000200 2c 07 34 3c 10 9c b5 3c f0 c0 cb 3c 61 76 9c bb
       0.010988038 0.022169143 0.024872273 -0.004774854
000210 4c f3 80 3c 0d df 51 3d 21 26 38 bd 91 ff 16 3d
       0.015741013 0.05123811 -0.044958238 0.03686482
000220 11 ae bb 3d ef ba a2 bd f0 ce d8 bd 81 2e 75 3d
       0.0916406 -0.07945811 -0.10586345 0.059858803
000230 28 31 16 bd c8 0f 8f bd 9c c2 4a 3d be e6 8f bd
       -0.036667973 -0.06985432 0.049502 -0.070264325
000240 5c dc 73 bd 9e a2 f8 bc 92 66 b8 bc 6e 51 57 3c
       -0.059536323 -0.03035098 -0.022509847 0.013141973
000250 58 0e 5f bd d9 8c 2d 3c 07 d2 43 3d 7c 59 e6 3c
       -0.05445704 0.010592663 0.04780772 0.028118841
000260 57 41 bf 3d b6 7e c8 bb 99 1e 2f bd 16 43 b0 bd
       0.093386345 -0.0061186207 -0.04275379 -0.086065456
000270 ef af 00 bd 50 11 92 bd 31 9f e5 3c 97 93 ca 3d
       -0.031417783 -0.07132208 0.02803001 0.09891432
000280 5d 9f 8a 3d 53 f2 89 bc b7 32 57 3d c5 64 01 3d
       0.067686774 -0.016839182 0.0525386 0.031590242
000290 31 1a 39 bd 3f 36 e7 bc 25 cc 86 bd 7f 56 5d bd
       -0.045190994 -0.028224109 -0.06581906 -0.054037567
0002a0 e0 2b bf bd 93 e6 1c bd c6 73 81 3d 0f 13 2f bc
       -0.0933454 -0.03830583 0.0632091 -0.010685696
0002b0 86 5a 95 3d 21 4c 9c bc 0f 16 1c 3d 04 16 a2 3d
       0.072926566 -0.01907927 0.038106974 0.079143554
0002c0 52 e5 ed 3c 47 f1 4d 3d 06 df 90 bd 3f ca 23 3d
       0.029040013 0.050278928 -0.07073788 0.0399878
0002d0 56 98 05 3d 29 47 de 3c 64 3a e1 bb fb 3c 7a 3d
       0.032615982 0.027133541 -0.006873416 0.06109331
0002e0 2f 3f 92 bd 18 1d fb 3c c7 97 de 3d 1c 81 5e bd
       -0.071409576 0.030653521 0.10868793 -0.054322347
0002f0 4d 77 79 3d fb f8 8a bd d1 b7 30 bc 9e 35 ca bc
       0.06090479 -0.067857705 -0.010786013 -0.02468377
000300 e4 67 6d bc 95 5b c1 bd cb bd 08 bc 9c 06 05 3d
       -0.0144901015 -0.09441296 -0.008346031 0.032477006
000310 74 2f bf 3d f5 dd 55 3d 05 5d 76 bd 4f 5c 86 bd
       0.09335223 0.052213628 -0.060147304 -0.06560575
000320 a9 8f 87 bd 76 5f 13 3d 88 bb 83 3d 89 66 c3 3d
       -0.06619198 0.03597971 0.06432253 0.095410414
000330 3a d1 8e 3d eb 57 f1 3b b0 8b 9b bc 1b 83 48 3c
       0.069735005 0.007365217 -0.018987507 0.012238289
000340 b4 0c ba 3d b1 7d b3 3d d7 33 74 bd 8c 3b d2 3c
       0.09084454 0.08764208 -0.05961975 0.02566316
000350 66 8d e5 bd e0 0c 65 3d b6 af af 3d 71 93 de bc
       -0.1120861 0.05592048 0.08578436 -0.027169915
000360 01 93 8d bc 7d 84 6b 3c 4e a7 c6 3d bc 91 b3 3b
       -0.017282011 0.014374849 0.096998796 0.0054800194
000370 5a ca 70 3d 0f 0a 59 3c 91 bb e9 3c e8 f5 b6 bd
       0.058786727 0.013247027 0.028531821 -0.08933622
000380 c2 a8 34 bd 75 a0 bc bd c9 f1 52 bd c2 d6 4e 3d
       -0.044106252 -0.09210292 -0.051500116 0.050497778
000390 73 dd 85 bd ba ae 17 3d ee ac 30 3d 11 94 b0 3d
       -0.06536379 0.037031867 0.04313367 0.086219914
0003a0 32 9e 0f 3d f6 b0 c1 3d db 50 2d 3d 89 33 4d 3b
       0.035062976 0.09457581 0.042313438 0.0031311235
0003b0 bb 49 df 3d c8 23 53 bc 76 e0 01 bc 69 03 37 bd
       0.10902735 -0.012886949 -0.007927051 -0.044680987
0003c0 ff 97 89 bc 92 d6 61 3d e3 78 ec bc fe cd b2 3d
       -0.01679611 0.05513627 -0.028866237 0.08730696
0003d0 54 9c 37 3d 60 b6 e3 bc 49 52 ae 3c e6 9c dd 3c
       0.04482682 -0.027796924 0.021279471 0.027052354
0003e0 1c db ad bc 3a 11 00 3d af 81 77 bd eb 6e 03 3d
       -0.021222644 0.03126643 -0.06042641 0.0320882
0003f0 75 51 93 bd ae 96 4f 3c 46 09 c6 3d a0 b9 89 bd
       -0.07193271 0.012670202 0.096697375 -0.06724858

bias f4 [70]
000000 8a 94 91 bd fa 00 1a bd 90 c2 ec 3b 75 41 f3 bc
       -0.0710841 -0.037598588 0.007225342 -0.029694298
000010 69 c8 1a 3c 7c c4 98 bd 89 d6 8d bd 2a 2d ef 3c
       0.009447196 -0.074593514 -0.06925685 0.02919634
000020 57 3b 19 3d 83 9f 72 bd 41 b9 12 bd 7f 49 25 bd
       0.037410107 -0.059234153 -0.035821203 -0.040353294
000030 6c ad 2a ba 67 8b e3 bd e2 d7 6e bd ce a1 21 3d
       -0.0006510827 -0.11110573 -0.05831135 0.03946095
000040 39 9d ea bd f8 c7 66 bc 79 3f 44 3d 46 70 20 bd
       -0.11455769 -0.014085762 0.047912095 -0.039169572
000050 b5 3e 76 bd cc e3 85 bc 1f 5e 84 bd fe 97 64 3b
       -0.060118396 -0.016343974 -0.06463265 0.0034880633
000060 3f 45 31 bd 8c a4 fa 3c 25 9a 6b bd b7 73 08 3d
       -0.04327893 0.03059604 -0.05752005 0.03331348
000070 0b 9b 55 bd f1 db 32 bc ad 2f 36 bd ad 2d a6 3d
       -0.052149814 -0.010916696 -0.04447906 0.08114181
000080 f5 d9 df bc f7 a1 1f 3d a4 b4 ed bc 09 ae 0c bd
       -0.02732561 0.03897282 -0.0290168 -0.03434566
000090 74 7d a5 bd f2 c7 28 3c d8 b9 5f bb c7 cb 2c bc
       -0.08080569 0.010301577 -0.003413787 -0.010546631
0000a0 59 79 50 bc 15 32 21 3c 95 56 b1 bd f7 21 9a bd
       -0.012724244 0.009838601 -0.08659092 -0.075260095
0000b0 c7 5a 69 bc c9 9c 35 3d 79 7d 92 bd 8b e1 c8 bd
       -0.014242834 0.044338975 -0.07152838 -0.09808644
0000c0 85 b1 d2 bd 81 14 03 be 6e 8f f2 3c 94 0c b4 bd
       -0.102877654 -0.1280079 0.029609408 -0.087914616
0000d0 75 28 75 bd 15 9e a3 3b b8 a5 98 3b ec 05 d1 bb
       -0.059853036 0.00499321 0.004658427 -0.00637888
0000e0 cb bb 2f bb 6d fb 95 bc 1a 24 4a 3d 8e ba 6c 3c
       -0.0026814814 -0.018308366 0.049350835 0.014448775
0000f0 cc 7b 49 bd e6 08 d3 bd 9d 2e 32 bd 1d 8d ff bc
       -0.049190328 -0.103044316 -0.043501485 -0.031195218
000100 d0 ae 8b bc 24 bd bc bd 0d 85 cd bc 64 97 e5 bc
       -0.01705113 -0.09215763 -0.025087858 -0.02802629
000110 ce 26 63 b6 00 81 2d bd
       -3.3848223e-06 -0.042359352

weight f4 [70]
000000 50 51 27 3f 6f 1c 32 3f a2 61 2e 3f 63 fd 38 3f
       0.6535845 0.69574636 0.68117726 0.7226164
000010 90 fa 30 3f 9e c1 23 3f 6e d7 30 3f 19 31 2e 3f
       0.6913233 0.6396731 0.6907872 0.6804367
000020 81 18 33 3f d3 ea 34 3f 7e 0e 31 3f d2 0f 3d 3f
       0.69959265 0.70670813 0.6916274 0.73852265
000030 df 54 20 3f 90 bf 31 3f ad a4 1d 3f cc d1 22 3f
       0.62629503 0.69432926 0.615794 0.63601375
000040 26 de 28 3f 23 25 2c 3f 6b 0f 2d 3f 74 10 21 3f
       0.6596397 0.67244166 0.6760165 0.6291573
000050 fa 8a 26 3f 06 8c 22 3f c1 52 24 3f 14 8e 2e 3f
       0.6505581 0.6349491 0.6418877 0.68185544
000060 1b 53 1f 3f c9 bc 2f 3f 43 64 2e 3f 16 91 2f 3f
       0.62236184 0.6864744 0.6812174 0.6858076
000070 cb 35 1b 3f 47 45 22 3f 93 d9 34 3f 1b 4f 34 3f
       0.60628957 0.6338696 0.7064449 0.70433205
000080 76 4c 33 3f e7 e8 2f 3f f7 37 2f 3f e0 31 31 3f
       0.70038545 0.68714756 0.6844477 0.6921673
000090 b9 de 30 3f 7c 99 2f 3f ae 55 2c 3f 10 93 2d 3f
       0.6908985 0.68593574 0.67318237 0.67802525
0000a0 bf cd 2b 3f 6d 8b 23 3f 67 48 37 3f 1e 38 1f 3f
       0.6711082 0.6388462 0.7159485 0.62195003
0000b0 6d fe 36 3f fe 37 32 3f 03 48 33 3f ab d5 2a 3f
       0.7148197 0.6961669 0.70031756 0.6673228
0000c0 52 cf 11 3f 19 27 36 3f 95 db 27 3f 7d b9 2d 3f
       0.5695697 0.7115341 0.6556943 0.6786116
0000d0 26 16 2f 3f 60 3f 28 3f 04 92 29 3f d8 53 2d 3f
       0.6839317 0.657217 0.6623843 0.6770606
0000e0 31 ce 2f 3f 6a 2a 37 3f 9c 66 31 3f da 45 29 3f
       0.68674 0.71549094 0.69297194 0.6612221
0000f0 7e 28 2e 3f 4a 85 31 3f 1a f7 22 3f 6a 9a 32 3f
       0.68030536 0.6934401 0.636583 0.6976687
000100 ca 08 1a 3f 0a 61 30 3f f4 0d 2e 3f e4 47 24 3f
       0.6016966 0.6889807 0.6799004 0.64172196
000110 d9 2f 2d 3f 53 c6 2d 3f
       0.67651135 0.67880744

bias f4 [70]
000000 2b 33 c9 3e 25 17 c7 be 3f fa af 3e 80 1a c7 be
       0.3929685 -0.38884845 0.3437061 -0.38887405
000010 07 f1 b4 be f9 af c4 3e 54 67 bf be e3 f3 cc be
       -0.3534014 0.38415506 -0.3738352 -0.4002982
000020 c7 1a dc be 42 85 c7 be f3 53 b9 be 1a df c5 3e
       -0.4298918 -0.38968855 -0.3619686 0.38646775
000030 7e 1f cd 3e 4f 41 aa 3e 6a 59 a9 3e 3a d8 cb be
       0.4006309 0.33252952 0.3307603 -0.39813405
000040 09 bb c1 3e b6 37 b2 3e 28 37 b0 3e b5 27 b3 be
       0.3783801 0.3480813 0.3441708 -0.34991232
000050 a8 75 b8 3e 0d e6 ba be b4 5d d7 3e e4 c7 b7 3e
       0.36027265 -0.3650364 0.42063677 0.35894692
000060 5a 25 c1 be 16 c8 c0 be a3 ba cb be 2b 4f c4 be
       -0.3772381 -0.37652653 -0.3979083 -0.3834165
000070 ff 04 aa be 33 70 ab 3e 7e e0 ba 3e f0 7c db be
       -0.33206937 0.3348404 0.364994 -0.42868757
000080 46 8f ac 3e d5 e1 d3 3e a3 29 c9 3e 90 00 b8 be
       0.3370306 0.41383234 0.3928958 -0.3593793
000090 fd ac b8 be 7a 15 ca be 15 0b e0 be 23 b2 ca 3e
       -0.3606948 -0.3946951 -0.43758455 0.39589033
0000a0 01 23 c0 3e 46 fd d7 be 43 71 cf 3e 15 4e b6 be
       0.37526706 -0.4218542 0.405161 -0.35606447
0000b0 28 5a cf 3e 67 64 c1 be 65 6d b7 be 1f dd b3 be
       0.4049847 -0.37771913 -0.3582565 -0.3512964
0000c0 5f 71 ac be ef 25 df be be da b4 be 6c 4a b8 be
       -0.33680245 -0.4358363 -0.35323137 -0.3599428
0000d0 83 1d b7 3e 6f f3 b0 3e 0c 95 b0 3e 34 e1 ac be
       0.35764703 0.34560725 0.34488714 -0.33765566
0000e0 d3 f9 b7 be 6c e1 e0 3e 8d c2 bc 3e 72 a6 ab 3e
       -0.35932788 0.43921983 0.3686718 0.33525425
0000f0 fa e2 c6 3e fe 2a ae 3e e9 38 b3 3e f8 e6 b3 3e
       0.38845044 0.34017175 0.35004357 0.35137153
000100 c9 70 b8 3e e0 29 b0 be e9 77 b2 3e 85 ee d7 be
       0.36023548 -0.34406948 0.3485711 -0.42174163
000110 03 55 b2 be 31 f1 ad be
       -0.34830484 -0.33973077

running_mean f4 [70]
000000 21 5c f3 3d f5 8e 55 3e fa c1 3b 3e 86 99 3e 3e
       0.118828066 0.20855315 0.18335715 0.18613252
000010 a5 32 05 3e 92 2e 85 3d 7f 74 be 3d e9 17 01 3e
       0.130076 0.06503023 0.092995636 0.12606777
000020 56 22 5a 3e 72 a9 7e 3e e7 34 0c 3e 33 57 09 3e
       0.2130216 0.24869326 0.13692056 0.1341217
000030 a7 e2 36 3e d0 d1 1e 3e d5 a3 e6 3d c5 82 ec 3d
       0.17859899 0.15509725 0.11261717 0.1154838
000040 60 80 e6 3d ae c5 c7 3d a5 9f 37 3e b6 ed 25 3e
       0.11254954 0.09754501 0.17931993 0.16203961
000050 90 06 ae 3d 73 c4 d9 3d 7a c7 5e 3e d0 92 a6 3d
       0.084973454 0.10633173 0.21755782 0.08133471
000060 27 6f 13 3e 07 38 1b 3e 54 61 e0 3d 3d 63 1c 3e
       0.1439787 0.15158091 0.10956064 0.15272231
000070 d1 a0 ed 3d 48 a8 0c 3e 3a fe 06 3e ad 47 28 3e
       0.11602939 0.13736069 0.13182917 0.16433592
000080 89 2d 06 3e 5e 3d 07 3e 6a d5 33 3e 28 21 fb 3d
       0.13103308 0.13207003 0.1756188 0.122621834
000090 9d b0 da 3d fe 54 ee 3d ec 1b 0e 3e 2e 20 15 3e
       0.106782176 0.11637305 0.13877839 0.14563057
0000a0 9f 7f 0e 3e b2 e7 cb 3d 1e 8c f4 3d 1f e0 ef 3d
       0.13915871 0.09956302 0.11940788 0.117126696
0000b0 2d 3c 2d 3e 9e 82 15 3e a8 82 10 3e 22 cd b6 3d
       0.16917486 0.14600608 0.14112341 0.08925845
0000c0 18 84 09 3e e5 09 03 3e 12 8b 09 3e 0d 17 75 3d
       0.13429296 0.12796743 0.13431957 0.059836436
0000d0 7a fe 19 3e 87 56 3e 3e 0b 8a ef 3d 11 40 15 3e
       0.15038481 0.18587695 0.116962515 0.1457522
0000e0 7b 94 03 3e 83 3f d9 3d a7 6a 28 3e 94 ed 37 3e
       0.1284961 0.10607817 0.16446935 0.17961723
0000f0 b2 95 d3 3d 57 f0 08 3e 36 ce ba 3d f1 34 e4 3d
       0.103312865 0.13372932 0.09121363 0.1114291
000100 d1 2c 53 3e 79 2e f9 3d 44 05 09 3e ee 66 05 3e
       0.20622565 0.12167067 0.13380915 0.13027546
000110 dc fe 52 3e ac b6 17 3e
       0.20605034 0.14815778

running_var f4 [70]
000000 a0 6b 36 3e 81 0a 15 3f e2 68 f4 3e f3 2c 1e 3f
       0.17814493 0.5821915 0.4773627 0.6178734
000010 83 52 ac 3e 8c fd ed 3d c0 1b 86 3e f5 28 95 3e
       0.336567 0.11620626 0.26193047 0.2913281
000020 68 dc 22 3f cc 55 2e 3f 03 9b ff 3e a7 f7 bb 3e
       0.63617563 0.68099666 0.49922952 0.3671238
000030 11 0f 75 3e 99 9a 26 3f 34 69 42 3e 4b 54 3d 3e
       0.23931529 0.6507965 0.18985444 0.18489186
000040 46 c2 8c 3e f2 90 82 3e 71 e3 10 3f 4b dc 7e 3e
       0.2749197 0.2550121 0.5659705 0.24888723
000050 79 62 1c 3e b8 03 4c 3e c0 90 9c 3e 5a b9 66 3e
       0.1527194 0.19923294 0.30579185 0.22531644
000060 f4 f9 40 3e d9 e1 d1 3e 30 1c 95 3e 96 ac df 3e
       0.1884535 0.4099262 0.29123068 0.4368636
000070 8d e6 56 3e 62 32 7f 3e 9e 50 b6 3e 0f 20 a7 3e
       0.20986386 0.24921563 0.3560838 0.32641646
000080 12 7f d3 3e 2a a8 88 3e 5d be f3 3e f5 d1 f2 3e
       0.41307884 0.266908 0.47606173 0.4742581
000090 cc c1 c5 3e d9 d7 81 3e 41 94 69 3e 3c eb a2 3e
       0.38624418 0.2535999 0.2281046 0.31820095
0000a0 b3 f6 bf 3e 5f 4f 0c 3e dc 6c cb 3e 68 ae 2c 3e
       0.37492904 0.13702153 0.3973149 0.16863406
0000b0 7b 4e c4 3e 4a 40 9f 3e c1 88 d8 3e 96 6a 85 3e
       0.38341126 0.31103736 0.42291835 0.2605788
0000c0 de 46 53 3e e2 8f c2 3e 75 32 91 3e 4e 2d 86 3e
       0.20632502 0.380004 0.28358808 0.2620644
0000d0 e6 53 02 3f 50 80 0d 3f e6 f5 5c 3e fd f5 b9 3e
       0.5090927 0.55273914 0.21578178 0.36320487
0000e0 b6 bd ed 3e fe f1 83 3e 16 25 ee 3e 02 62 11 3f
       0.464338 0.25770563 0.4651267 0.56790173
0000f0 3a ea 6b 3e e2 7b d8 3e e6 36 2b 3e 67 01 9f 3e
       0.23038569 0.42282015 0.16720161 0.31055757
000100 8f 25 aa 3e ee 9e cf 3e b1 d3 b6 3e 32 46 24 3e
       0.3323178 0.4055094 0.35708383 0.16042402
000110 4a c0 02 3f 54 77 d3 3e
       0.5107466 0.41301978
