mlruns/528961946943719398/models/m-19bba13922c240eeb80de3c3a3ddea08/artifacts/data/model.pth (torch, 170414 bytes, 17 tensors)

weight f4 [124]
0	0x3eadc3a4	0.33938324
1	0x3ef60d09	0.4805682
2	0x3f0b4275	0.5439828
3	0x3f0d8c07	0.5529179
4	0x3ec94a15	0.39314333
5	0x3ec0cf91	0.3765836
6	0x3f06d39c	0.5266664
7	0x3ef275dc	0.47355545
8	0x3f0b1a0c	0.5433662
9	0x3ecb72c0	0.39735985
10	0x3ec799ad	0.38984433
11	0x3e9bb5d4	0.3041216
12	0x3ec70b95	0.38876024
13	0x3ebf0c3d	0.37314025
14	0x3f1955f2	0.5989677
15	0x3ef9ffef	0.48828074
16	0x3e98f7b9	0.29876497
17	0x3ebb85e6	0.36625594
18	0x3f0414f9	0.515945
19	0x3ee3b53f	0.44474217
20	0x3e534308	0.20631039
21	0x3ed6482c	0.41851938
22	0x3eb6a6b5	0.35674062
23	0x3f0549a2	0.5206548
24	0x3f08ba7a	0.5340954
25	0x3eb96a54	0.36213934
26	0x3ee00ec5	0.43761268
27	0x3f05fd95	0.5234006
28	0x3ec7dce9	0.3903573
29	0x3ea53e36	0.32274026
30	0x3ee07b2a	0.43843967
31	0x3f006b9f	0.50164217
32	0x3f067c8a	0.5253378
33	0x3f41403b	0.7548863
34	0x3f3c082f	0.7344999
35	0x3f285831	0.6575957
36	0x3e987c2f	0.29782245
37	0x3ee35022	0.44397074
38	0x3f010431	0.5039702
39	0x3e508592	0.20363453
40	0x3ec975e3	0.39347753
41	0x3eb170f6	0.34656495
42	0x3ec01172	0.3751331
43	0x3eeadd62	0.45872027
44	0x3ee98621	0.45610145
45	0x3eebad72	0.46030766
46	0x3f08d614	0.5345166
47	0x3ea21ca0	0.31662464
48	0x3ec254db	0.37955365
49	0x3eb02153	0.34400424
50	0x3efdded4	0.49584067
51	0x3ec8a081	0.39184955
52	0x3ebda0be	0.370367
53	0x3ecbd7c1	0.39813045
54	0x3eab92a3	0.33510312
55	0x3e94481a	0.2896126
56	0x3e82a6be	0.2551784
57	0x3f02576c	0.50914645
58	0x3eb1cb90	0.34725618
59	0x3e8b0663	0.2715331
60	0x3ecc0c0d	0.39852944
61	0x3f081908	0.53163195
62	0x3e5a90e2	0.21344331
63	0x3f2797ad	0.65465814
64	0x3ec99f62	0.39379412
65	0x3ec800f0	0.39063215
66	0x3ea98c20	0.3311472
67	0x3e5fd80c	0.21859759
68	0x3eb82938	0.35968947
69	0x3ed350b7	0.41272518
70	0x3ec0b86e	0.3764071
71	0x3ed80cbc	0.42197216
72	0x3ea49782	0.3214684
73	0x3e89d3d7	0.26919433
74	0x3ee37b3d	0.4442996
75	0x3edcd2ef	0.4312968
76	0x3eeb2ebe	0.459341
77	0x3ec3da9e	0.3825273
78	0x3e98bd4a	0.29831916
79	0x3f0ba088	0.54541826
80	0x3ef6a0cc	0.48169553
81	0x3efb43b4	0.4907509
82	0x3ecdd116	0.40198582
83	0x3ea765fb	0.32694992
84	0x3e377d4b	0.17918889
85	0x3eac0249	0.33595493
86	0x3ed97f7d	0.42480078
87	0x3e3ec51d	0.1862988
88	0x3f0a480a	0.5401617
89	0x3e49514e	0.19659922
90	0x3e6b5159	0.2298025
91	0x3f0a8779	0.54112965
92	0x3e4a4496	0.19752726
93	0x3e710c1f	0.2353978
94	0x3ec0d412	0.37661797
95	0x3f06e1b1	0.5268813
96	0x3e034a5c	0.12821335
97	0x3ea8efb6	0.32995385
98	0x3eba1b5f	0.36349007
99	0x3ea1df2d	0.31615582
100	0x3eb7743d	0.3583087
101	0x3e706bc1	0.23478605
102	0x3e2e1a1a	0.17002144
103	0x3ea95af5	0.33077207
104	0x3e9938c7	0.2992613
105	0x3ea0e04e	0.3142113
106	0x3ef7b5f8	0.4838102
107	0x3eb6c724	0.35698807
108	0x3ea7d0c2	0.32776457
109	0x3f1069ed	0.5641163
110	0x3f201adc	0.62540984
111	0x3f39cb1c	0.72575545
112	0x3e7ae2d2	0.24500588
113	0x3ee7a25c	0.45241058
114	0x3f15d48e	0.5852746
115	0x3ec4377c	0.3832358
116	0x3eb953d1	0.3619676
117	0x3ed6fd18	0.4198997
118	0x3f12fe87	0.5741963
119	0x3eefd321	0.46840766
120	0x3ea99ba8	0.3312657
121	0x3ed688db	0.41901287
122	0x3f046102	0.5171052
123	0x3eeb37ee	0.45941108

bias f4 [124]
0	0x3b3b82be	0.0028611864
1	0x3a7b92d2	0.0009596768
2	0x3d0ab0cf	0.033860024
3	0x3c77aee4	0.015117381
4	0xb94d4756	-0.00019576898
5	0xbafac55b	-0.0019132303
6	0x3d0f530f	0.03499132
7	0x3cdadfa6	0.026717972
8	0x3cf207f5	0.02954481
9	0x3ccb211f	0.024796067
10	0x3c6d4709	0.014482268
11	0x3c405a0c	0.011740219
12	0x3c021c8b	0.0079413755
13	0x3cb197d6	0.021678846
14	0xbd34d9b6	-0.044152938
15	0x3c8eba98	0.01742296
16	0xbbe97f6d	-0.007125786
17	0xbba7c49c	-0.005119873
18	0x3a82fbfb	0.0009993309
19	0x3c90137e	0.01758742
20	0xb91b5978	-0.00014815282
21	0x3cc48ad5	0.023991982
22	0x3c8aeef6	0.016959649
23	0x3bba6afc	0.005689023
24	0xbcacfc9c	-0.021116547
25	0x3b6c41e3	0.0036050014
26	0x3a6ba33e	0.00089888636
27	0xbce16b93	-0.027517116
28	0x3d08777e	0.03331708
29	0x3cc5517c	0.024086706
30	0x3d23e153	0.040009808
31	0x3d3bff54	0.045897797
32	0x3d31a1fa	0.043367364
33	0x3d83f505	0.06443218
34	0x3d808319	0.06275005
35	0xbd367359	-0.044543598
36	0x3cb0d62f	0.021586506
37	0x3bc2fcb6	0.0059505356
38	0xbd4af3db	-0.049548965
39	0x3bb43ed1	0.0055006524
40	0x3c97a47b	0.018511048
41	0xbc12171b	-0.008916642
42	0x3abe0bc4	0.0014499356
43	0xbcbe759f	-0.023249445
44	0xbd2786b6	-0.040899955
45	0xbd562986	-0.052285694
46	0xbbca9d4f	-0.0061833034
47	0x3ab51d50	0.001381794
48	0x3cefa0bc	0.029251449
49	0x3cc369d5	0.023854176
50	0xbccabc42	-0.024747971
51	0x3bfc1d90	0.007693954
52	0xbba0ad62	-0.0049034813
53	0xbb30ab02	-0.0026957397
54	0xbc4cef18	-0.012508176
55	0x3bbc6578	0.0057494007
56	0x3c88666f	0.016650407
57	0xbc91ec81	-0.01781297
58	0x3c6596ed	0.014013034
59	0xbc6ab852	-0.014326172
60	0xbb96694f	-0.0045901905
61	0xbccd6989	-0.025074737
62	0x3c973afd	0.018460745
63	0x3d635375	0.055499513
64	0xbb466a20	-0.0030275658
65	0xbc2e4331	-0.010636137
66	0x3cfc14f5	0.030771712
67	0x3c0782f9	0.008270972
68	0xbb3121fc	-0.0027028313
69	0xbc720514	-0.0147717185
70	0x3ce01fa5	0.02735884
71	0xbbdb2518	-0.0066877715
72	0x3c773165	0.01508746
73	0x3bca77d3	0.006178835
74	0x3c9dea27	0.019276692
75	0xbbcd798c	-0.006270593
76	0xbbe68a15	-0.0070355036
77	0xbb5dc7b0	-0.0033840947
78	0xbc9be6f8	-0.019031033
79	0xbca9de4d	-0.020735884
80	0x3d680ef1	0.056654874
81	0x3b225d99	0.0024775027
82	0xbbb0ed71	-0.005399399
83	0xbc05073a	-0.008119399
84	0x3b914b27	0.0044340077
85	0xbaa2dd14	-0.0012425506
86	0xbc9862a5	-0.018601725
87	0x3b8578f3	0.004073256
88	0xbcf3e67c	-0.02977299
89	0x3c2f005b	0.010681237
90	0xbb68422e	-0.0035439837
91	0x3c43b690	0.011945382
92	0x3c7caa53	0.015421468
93	0x3a8d43c1	0.0010777639
94	0xbc50524a	-0.012714932
95	0xbc37b8a7	-0.011213458
96	0x3b00e7a3	0.0019669316
97	0xbc3eb4f9	-0.011639827
98	0x3cf4232c	0.029801928
99	0xbc154e0b	-0.009112845
100	0xb9a9ba1c	-0.00032372854
101	0xbc23c14a	-0.009994814
102	0x3c76294d	0.015024495
103	0xbc28121a	-0.010258222
104	0xbd020156	-0.031739555
105	0x39f0b301	0.00045909735
106	0x3ccb5361	0.024820032
107	0xbbe21f5b	-0.0069007105
108	0x3b32b811	0.0027270357
109	0xbd2e9dfb	-0.04263113
110	0xbd3b5ebe	-0.04574465
111	0x3daa0e31	0.08303488
112	0x3c3cd58d	0.011525524
113	0xbcbb4c4e	-0.022863533
114	0xbd26c236	-0.040712558
115	0xbc0d5862	-0.008627029
116	0xbcbd9687	-0.023143066
117	0xbb8d6893	-0.0043154447
118	0xbd08103a	-0.0332186
119	0x3cea89d5	0.028630177
120	0x3c81f40f	0.015863447
121	0x3ca6e885	0.020374546
122	0xbcee374d	-0.029079104
123	0xbca4dc9b	-0.020124724

running_mean f4 [124]
0	0x428c7f53	70.24868
1	0x46313cd0	11343.203
2	0x40c2acd1	6.0835958
3	0x40b465bb	5.6374183
4	0x42cf3cf0	103.61902
5	0x4058f8ce	3.3901858
6	0x4045f0fc	3.0928335
7	0x405bfd4f	3.4373357
8	0x403b2e19	2.9246886
9	0x3fd29bf3	1.6453842
10	0x43d9476f	434.55807
11	0x422f26f2	43.788033
12	0x440fec44	575.69165
13	0x40856930	4.1690903
14	0x3dcff6bc	0.10154483
15	0x44917e99	1163.9562
16	0x43ad8e80	347.11328
17	0x40c1d5b6	6.0573378
18	0x44bda411	1517.1271
19	0x3ed5bd96	0.41746205
20	0x3d53e4f0	0.051732004
21	0x3fc76150	1.5576572
22	0x3ecb99af	0.3976569
23	0x40395d05	2.8963025
24	0x3f858c19	1.043338
25	0x406088ac	3.5083418
26	0x40d11128	6.5333443
27	0x3e3399ea	0.17539182
28	0x3f1f92d9	0.62333447
29	0x3feecb1e	1.8655736
30	0x3fd905d0	1.6954899
31	0x3fe256da	1.7682755
32	0x43eb756c	470.91736
33	0x40330a56	2.7975059
34	0x40328af5	2.7897313
35	0x3e18d29c	0.14924091
36	0x42c8d66f	100.418816
37	0x424487cc	49.132614
38	0x41bbc2c8	23.470108
39	0x4079d89a	3.9038453
40	0x4173fe27	15.249549
41	0x40183481	2.3782046
42	0x3c74543a	0.014912659
43	0x4249c3eb	50.441326
44	0x422032b9	40.049534
45	0x41cbebb8	25.490097
46	0x42019e8d	32.404835
47	0x41fc2f9b	31.523245
48	0x404039fc	3.003539
49	0x3f9bc744	1.2170186
50	0x3dab6e39	0.08370633
51	0x3ed03893	0.40668163
52	0x3e1c7349	0.15278353
53	0x3f33cb9f	0.70232576
54	0x3e4fc1e6	0.2028881
55	0x3d81b0d4	0.063325554
56	0x3d0a70f7	0.033799138
57	0x3d7c0fe1	0.06153858
58	0x3ce824c9	0.028337853
59	0x3cba62d8	0.02275221
60	0x3dd2123a	0.10257383
61	0x3cce9f59	0.025222467
62	0x3de42852	0.11140503
63	0x3f7190a6	0.9436134
64	0x3e8453f3	0.25845298
65	0x3dc18e9c	0.09451029
66	0x3daef364	0.08542517
67	0x3d1b3f8c	0.0379024
68	0x3eb35232	0.35023648
69	0x3e1b9e47	0.15197097
70	0x3e198297	0.14991222
71	0x3e31b9ff	0.17356108
72	0x3dd1322c	0.10214648
73	0x3d1aaaaa	0.037760414
74	0x3cfe1d0a	0.031019706
75	0x3d0a7e23	0.0338117
76	0x3ca3bea7	0.019988371
77	0x3ca0e91a	0.019642401
78	0x3c6d3d88	0.014480002
79	0x3c61ece3	0.013789388
80	0x3f4ac2bc	0.7920339
81	0x3e17b624	0.14815575
82	0x3d49888c	0.049202487
83	0x3c640588	0.013917334
84	0x3dcc4fae	0.09976135
85	0x3d1e68fb	0.038674336
86	0x3d9482ad	0.07251487
87	0x3d3e6d8b	0.046491187
88	0x3ca0edf9	0.019644724
89	0x3c223ff5	0.009902944
90	0x3cf97fd7	0.030456467
91	0x3e27dc80	0.16392708
92	0x3d4d48cb	0.05011825
93	0x3cdfe76a	0.027332027
94	0x3d5a375b	0.053275447
95	0x3da11194	0.07864681
96	0x3cc9ab34	0.024617769
97	0x3c896674	0.016772486
98	0x3d57bc68	0.052669913
99	0x3d0a2e1a	0.033735372
100	0x3d6ccf70	0.057815015
101	0x3c7ba953	0.015360194
102	0x3d1366ab	0.035986584
103	0x3c5b95d4	0.013402421
104	0x3f19500d	0.5988777
105	0x3dbec7b5	0.09315435
106	0x3ee0356d	0.4379076
107	0x3bf576c4	0.0074909646
108	0x3edd621c	0.43238914
109	0x3caa766b	0.02080842
110	0x3ca6d9cc	0.020367526
111	0x3f6dae97	0.9284453
112	0x3d838d02	0.064233795
113	0x3e890904	0.2676469
114	0x3d7f67ab	0.062354725
115	0x3cc039ca	0.023465056
116	0x3d27265f	0.040808078
117	0x3da9e52e	0.08295666
118	0x3cc57e31	0.024108024
119	0x3f5d335c	0.86406493
120	0x3c520b25	0.01282004
121	0x3f53728a	0.8259665
122	0x3c0bd589	0.0085347975
123	0x3dab5212	0.08365263

running_var f4 [124]
0	0x43ee9108	477.13306
1	0x4d5c1237	2.3076133e+08
2	0x3fec242f	1.8448542
3	0x3fa9290b	1.321565
4	0x46f1c39f	30945.81
5	0x3ea424dd	0.32059374
6	0x3e05c873	0.13064747
7	0x3f44bf9f	0.7685489
8	0x3ea1b317	0.31581947
9	0x3f922daf	1.1420192
10	0x48430606	199704.1
11	0x46b98987	23748.764
12	0x483b8d04	192052.06
13	0x3f648933	0.8927185
14	0x3e1026ba	0.14077273
15	0x480d53cc	144719.19
16	0x483759af	187750.73
17	0x4506f359	2159.2092
18	0x487f831c	261644.44
19	0x3e8e9549	0.2784827
20	0x3d4d20c2	0.05008007
21	0x3e971cdc	0.29514205
22	0x3e86410b	0.262215
23	0x3f24ba0e	0.64346397
24	0x3d39f8c0	0.045403242
25	0x3edb9ec3	0.42894563
26	0x4029b2c6	2.6515365
27	0x3eec8eed	0.46202794
28	0x3ed6448a	0.41849166
29	0x40562d0d	3.3464997
30	0x3f4f81f4	0.8105767
31	0x3f1417c7	0.5784878
32	0x4734f0ac	46320.67
33	0x3f1798db	0.59217614
34	0x3f1334a1	0.5750218
35	0x3e84464f	0.2583489
36	0x46984011	19488.033
37	0x4590fe31	4639.774
38	0x4581f84a	4159.036
39	0x446553a4	917.3069
40	0x4545efff	3166.9998
41	0x44aebcdc	1397.9019
42	0x3d7840fc	0.06060885
43	0x4895a57a	306475.8
44	0x446a497e	937.1483
45	0x43dad40f	437.6567
46	0x4415e688	599.60205
47	0x437a93ec	250.57782
48	0x402ea14d	2.728595
49	0x3f162ded	0.5866383
50	0x3dfa61e6	0.12225704
51	0x3ea7d7d7	0.3278186
52	0x3e872343	0.2639409
53	0x3e571aab	0.21006267
54	0x3e256bf3	0.1615446
55	0x3d722756	0.059119545
56	0x3d17b61f	0.03703892
57	0x3da8cd5f	0.082422964
58	0x3ce0ceb8	0.027442321
59	0x3cb7b4cf	0.022425083
60	0x3dbd2693	0.09235873
61	0x3ccc3f4f	0.024932532
62	0x3e405782	0.18783382
63	0x3d86649b	0.06562158
64	0x3e963707	0.29338858
65	0x3e340723	0.17580847
66	0x3da13990	0.07872307
67	0x3d1594b0	0.036518753
68	0x3e68e71d	0.22744413
69	0x3e04c9d7	0.12967621
70	0x3e02b590	0.12764573
71	0x3e129582	0.14314845
72	0x3dbe05ca	0.09278448
73	0x3d14cf71	0.036330644
74	0x3cf6dbc5	0.030134091
75	0x3d05705c	0.032577857
76	0x3ca2041f	0.019777356
77	0x3c9d53f0	0.019205064
78	0x3c6996e0	0.014257163
79	0x3c5df0a9	0.013546147
80	0x3e293d8b	0.16527383
81	0x3e0233e6	0.1271511
82	0x3d3fc8ca	0.046822347
83	0x3c607169	0.013698914
84	0x3db8fe55	0.09032885
85	0x3d192719	0.037390802
86	0x3d8abd6e	0.06774412
87	0x3d33bd03	0.043881427
88	0x3c9ddd3e	0.019270536
89	0x3c214c8a	0.0098449085
90	0x3cf00222	0.029297892
91	0x3e0c393a	0.13693705
92	0x3d419a0b	0.047266047
93	0x3cd98631	0.026553245
94	0x3d4fbb7a	0.0507159
95	0x3d952b38	0.07283634
96	0x3cc47f21	0.023986401
97	0x3c871663	0.016490167
98	0x3d4ea5ac	0.050450966
99	0x3d04bc67	0.032406237
100	0x3d611e0d	0.0549603
101	0x3c777253	0.015102941
102	0x3d0d0100	0.03442478
103	0x3c583179	0.013195389
104	0x3e76feb1	0.24120595
105	0x3dad9af1	0.08476818
106	0x3e7df5c5	0.24800785
107	0x3bf4af16	0.007467161
108	0x3e7bb5cb	0.24581067
109	0x3ca8b2e6	0.020593118
110	0x3ca33acc	0.019925497
111	0x3d88439d	0.06653521
112	0x3d788fa7	0.060683873
113	0x3e49c4e6	0.19704017
114	0x3d71a043	0.058990728
115	0x3cbb0267	0.022828294
116	0x3d21a13f	0.039460417
117	0x3d9cb76c	0.076521724
118	0x3cc353da	0.023843694
119	0x3df2752c	0.11838755
120	0x3c4e8dd7	0.012607059
121	0x3e148433	0.14503555
122	0x3c09a101	0.008400203
123	0x3d9df496	0.07712667

weight f4 [159, 124]
0	0x3a9a214f	0.0011759194
1	0x3d8caab2	0.06868495
2	0xbd16b7e4	-0.036796466
3	0x3cf73578	0.030176863
4	0x3d5182ce	0.051150136
5	0xbc858b1b	-0.016301682
6	0xbd009c49	-0.031399045
7	0xbb5cc3b9	-0.0033685996
8	0x3d17dbdd	0.037074912
9	0x3d8d705a	0.06906195
10	0x3cbdf900	0.023190022
11	0x3d6acf01	0.05732632
12	0xbc88bc87	-0.01669146
13	0xba524733	-0.0008021474
14	0xbd440142	-0.047852762
15	0x3cabc34c	0.020967148
16	0x3d0960c3	0.033539545
17	0xbcef8cb3	-0.029241895
18	0x3d1c5c1e	0.038173787
19	0x3d12f851	0.035881344
20	0x3b3d0946	0.0028844639
21	0xbca42a3e	-0.020039674
22	0x3adc869a	0.0016824782
23	0xbcc8850b	-0.024477502
24	0xbcbffebf	-0.023436902
25	0xbd0f03cb	-0.034915727
26	0xbc769a5a	-0.015051449
27	0x3d88a604	0.0667229
28	0xbd336f78	-0.043807477
29	0x3c8255d6	0.01591007
30	0x3d10fc0b	0.035396617
31	0x3ce3de2f	0.027815906
32	0x3ca4cc7a	0.020117033
33	0x3d6643c5	0.056216974
34	0x3c464a5b	0.012102689
35	0xbd20c4f6	-0.039250337
36	0x3ccccdd9	0.0250005
37	0xbb6d80cc	-0.00362401
38	0xbd4f68cc	-0.05063705
39	0x3cdd45af	0.027010767
40	0x3d21883b	0.03943656
41	0x3d24373a	0.04009173
42	0xbc8d52cc	-0.017251395
43	0x3d7122d9	0.058871124
44	0x3ca8bdcc	0.020598315
45	0x3d87dd73	0.06634035
46	0xbd5dcd61	-0.054150943
47	0x3cc066d4	0.023486532
48	0xbcf87bf7	-0.030332549
49	0xbc1aa363	-0.0094383685
50	0xbc9b2b5a	-0.01894157
51	0x3c7c353f	0.015393554
52	0x3d2656de	0.040610187
53	0xbd36cbc2	-0.044627912
54	0xbd296a1e	-0.041360967
55	0x3d3b094d	0.045663167
56	0xbcf37df0	-0.029723138
57	0x3d9fa246	0.07794623
58	0x3c2e1841	0.0106259
59	0xbc8fb2b6	-0.01754127
60	0xbcc70f70	-0.024299353
61	0xbc32cb80	-0.010912776
62	0x3c9c3b8e	0.019071367
63	0x3d14ff89	0.03637651
64	0x3cec48f2	0.028843377
65	0x3d297a4f	0.04137641
66	0x3ae5805e	0.001750957
67	0xbc493143	-0.012279811
68	0x3bee9bf4	0.0072817747
69	0xbba866fa	-0.005139229
70	0xbd11c257	-0.035585728
71	0x3d9393bc	0.072059125
72	0x3d7b6453	0.061374974
73	0x3c8d63ec	0.01725956
74	0x3d286a81	0.041117195
75	0xbcfc7d11	-0.030821355
76	0xbcba6d79	-0.022757279
77	0xbcc23b98	-0.023710057
78	0x3cb86870	0.022510737
79	0x3cdf5582	0.027262453
80	0x3c0c1bcd	0.00855155
81	0xbba0dbd3	-0.0049090176
82	0x3d09759a	0.03355942
83	0x3d3441ab	0.04400794
84	0xbbd2a987	-0.0064289006
85	0xbd1ab4cd	-0.03777008
86	0xbccd73a8	-0.025079563
87	0x3d215318	0.039385885
88	0x3c5ce43d	0.013482151
89	0xbbfc9698	-0.007708382
90	0x3cd0f8e2	0.025509302
91	0x3d1c52bf	0.03816485
92	0x3c47755f	0.01217398
93	0xbb9d5518	-0.0048014037
94	0xbc67c8cd	-0.014146996
95	0x3c993e88	0.018706575
96	0xbaea6588	-0.0017883042
97	0xbd0f98b4	-0.03505774
98	0x3d1d7392	0.038440295
99	0x3c5fe191	0.013664619
100	0xbc4b9876	-0.012426486
101	0xbb52640b	-0.0032103087
102	0xbadbf044	-0.0016779979
103	0x3c80bfbe	0.01571643
104	0x3c77f81f	0.01513484
105	0xbc8ad62d	-0.01694783
106	0x3c0a8c2f	0.008456274
107	0x3bcd9f6f	0.0062751095
108	0x3d15f2a0	0.03660834
109	0x3d16e167	0.036836054
110	0x3c94f372	0.01818249
111	0xbc51a3da	-0.012795413
112	0xbc1d9f50	-0.009620503
113	0xbd68c7f5	-0.05683132
114	0x3cb307b7	0.021854265
115	0x3d14b330	0.0363037
116	0x3d779164	0.06044139
117	0xbc9db7cc	-0.01925268
118	0xbc009511	-0.00784804
119	0xbca823c3	-0.020524865
120	0xbca35b58	-0.019941017
121	0xbc7623d4	-0.0150231905
122	0x3a777c8b	0.00094408606
123	0x3cfd1746	0.030894887
124	0x3d3a6c41	0.045513395
125	0x3cfe3051	0.031028898
126	0x3ceb62d4	0.028733648
127	0xbd34d23b	-0.044145804
128	0xbc1b5e56	-0.009482941
129	0x3d50a85b	0.050941806
130	0xb81a6cbc	-3.6817728e-05
131	0x3cc14890	0.02359417
132	0x3bd4d3ac	0.00649496
133	0x3d09e564	0.03366603
134	0xbd095831	-0.03353137
135	0xbc0c232f	-0.00855331
136	0xbb1d57c8	-0.002400862
137	0xbd012b2f	-0.031535324
138	0x3bbb757c	0.0057207923
139	0x3d1e5fb3	0.038665485
140	0xbc0784a2	-0.008271368
141	0xba038086	-0.0005016405
142	0xbd50e20e	-0.050996833
143	0xbcd5dc4f	-0.026106028
144	0x3c383586	0.01124323
145	0xbd157273	-0.0364861
146	0x3c14a37a	0.009072179
147	0x3aca5cc7	0.0015439027
148	0xbd164e61	-0.03669584
149	0xbce334fb	-0.027735224
150	0xbd88832f	-0.06665646
151	0x3befd4e7	0.007319081
152	0xbc896694	-0.016772546
153	0x3d1f7033	0.03892536
154	0x3cc04ca4	0.023474045
155	0x3d67b727	0.056571152
156	0xbcaca0e4	-0.021072812
157	0xbce57b34	-0.02801285
158	0xbcad2f03	-0.021140581
159	0xbd6b3f65	-0.057433505
160	0x3c8e2dd0	0.01735583
161	0x3d2a0f17	0.041518297
162	0xbc8a9561	-0.016916933
163	0x3a9a5afb	0.0011776382
164	0x3b7213db	0.0036938104
165	0xbb8e1db3	-0.0043370365
166	0xbc37c176	-0.011215558
167	0xbcb1f667	-0.02172394
168	0x3c4f636c	0.012657981
169	0x3bae19cb	0.0053131334
170	0xbd01f1f4	-0.031724885
171	0x3ba5193a	0.0050384076
172	0x3d6d1063	0.057876956
173	0xbb809d3a	-0.003924993
174	0x3d51a5d8	0.05118355
175	0xbc0b7e80	-0.008514047
176	0xbccf765b	-0.025324991
177	0x3c4dfe9a	0.012572909
178	0x3bfce36e	0.0077175414
179	0x3c172cb7	0.009226969
180	0x3d04af70	0.032393873
181	0x3d21bf54	0.039489105
182	0xbcde1a96	-0.027112287
183	0xbd17fa19	-0.037103746
184	0xbaeb0949	-0.0017931844
185	0x3ae66771	0.0017578435
186	0x3b233544	0.0024903575
187	0xbc898941	-0.01678908
188	0xbc20ae31	-0.0098071555
189	0xbc902c8c	-0.017599367
190	0xbcbecdab	-0.02329143
191	0xbc9e05b4	-0.019289829
192	0x3d640d23	0.05567659
193	0xbc51ab5c	-0.012797203
194	0x3cc5926c	0.024117671
195	0xbb5a7461	-0.0033333527
196	0x3c363efa	0.011123413
197	0xbc492444	-0.012276713
198	0x3cfb0a7f	0.030644653
199	0x3b70b946	0.0036731525
200	0x3d573132	0.05253715
201	0x3d0652f9	0.032793973
202	0xbb9637c4	-0.0045842845
203	0xbc6c211d	-0.014412192
204	0x3d17ca0f	0.037057932
205	0x3b89a60a	0.0042007016
206	0x3b4d6a2a	0.0031343796
207	0xbc98b870	-0.018642634
208	0x3cb6966f	0.02228853
209	0xbc938790	-0.018008977
210	0xbce62459	-0.028093504
211	0xbac06e93	-0.0014681391
212	0xbc5ed17d	-0.013599751
213	0x3a003ecb	0.00048921694
214	0x3d39ff5d	0.04540955
215	0x3d22ed70	0.03977722
216	0xbc031295	-0.008000036
217	0xbbd7b387	-0.0065826806
218	0x3c636de5	0.013881181
219	0xbca7b2e4	-0.020471044
220	0x3c850708	0.016238704
221	0xbc1f5c67	-0.00972662
222	0xbb49429a	-0.0030709864
223	0x3cecb80a	0.02889635
224	0xbc943a99	-0.018094348
225	0x3ca6f1b6	0.020378929
226	0xbcb81f84	-0.022475965
227	0xbc1a6bdd	-0.009425131
228	0xbc1762cd	-0.009239865
229	0x3d54f272	0.051989026
230	0x3ce78482	0.028261427
231	0xbc495054	-0.012287218
232	0xbcba5a39	-0.0227481
233	0xbc98c0bc	-0.01864659
234	0x3ce85032	0.028358553
235	0x3ccd98da	0.0250973
236	0xbc72900a	-0.014804849
237	0xba3cb5fe	-0.000719875
238	0xbd6126a9	-0.05496851
239	0x3baa2cb9	0.0051933196
240	0x3c9356e8	0.017985776
241	0x3d9d8080	0.07690525
242	0x3d0bb157	0.03410467
243	0xbd90791b	-0.07054349
244	0x3c2d8c2a	0.0105925
245	0xbd3f597b	-0.046716195
246	0x3b9f7e46	0.004867348
247	0x3d8f6033	0.070007704
248	0x3ce6eae9	0.028188186
249	0x3d1639a8	0.03667608
250	0x3c810c9e	0.015753087
251	0x3c889b75	0.01667569
252	0x3d7bcb91	0.061473433
253	0xbc72b712	-0.014814155
254	0xbcf03271	-0.029320927
255	0xbce09917	-0.027416749

bias f4 [159]
0	0xbbc29a97	-0.0059388387
1	0x3bb771d3	0.0055982857
2	0x3d35b7c5	0.04436471
3	0xbcafa64f	-0.021441607
4	0xbca486f4	-0.020083882
5	0xbcb3dbe6	-0.021955442
6	0xbcc7f3cf	-0.02440825
7	0xbd1430ec	-0.036179468
8	0xbd17ca39	-0.03705809
9	0x3b8a6723	0.0042237206
10	0xbd04ea97	-0.032450285
11	0xbd635a78	-0.0555062
12	0x3a97617e	0.0011549441
13	0xbcfb82a1	-0.030701937
14	0xbcf94b99	-0.030431556
15	0xbb79faaa	-0.0038143792
16	0x3ca2ab9c	0.01985722
17	0x3ba48611	0.005020865
18	0xbd5e3ca7	-0.05425706
19	0xbd2d157d	-0.04225682
20	0xbc2a6b79	-0.0104016
21	0x3d43eaa0	0.047831178
22	0xbb9a1ee2	-0.0047033885
23	0x3ca07a27	0.019589497
24	0xbc3d7972	-0.011564599
25	0xbd3d1dca	-0.046170987
26	0xbc81ca04	-0.015843399
27	0x3bdf5bc5	0.0068163597
28	0x3c1b7789	0.009488949
29	0x3ce7b440	0.028284192
30	0x3c353e8e	0.0110622775
31	0xbb2537e9	-0.0025210327
32	0xbb93623d	-0.004497795
33	0xbc1c83b2	-0.009552883
34	0xb9f398de	-0.00046462467
35	0x3c570120	0.013122827
36	0x3a909730	0.0011031386
37	0x3c29f409	0.010373124
38	0xbbcc963f	-0.0062434967
39	0xba583406	-0.0008247498
40	0xbc6f5a26	-0.014608895
41	0xbc04ab85	-0.008097534
42	0xbb04a621	-0.0020240622
43	0x3bd9ef38	0.0066508316
44	0x3d10b463	0.03532828
45	0xbb2e51f9	-0.0026599152
46	0x3bc6fd60	0.006072685
47	0x3b2d8d54	0.0026481943
48	0xbc3074b5	-0.010770013
49	0x3cff5001	0.031166079
50	0x3c440f76	0.011966577
51	0xbc450272	-0.012024509
52	0x3c8727c4	0.016498454
53	0xbc039acf	-0.008032515
54	0xbce6fb61	-0.028196039
55	0xbb73adea	-0.0037182518
56	0xbd06b2b8	-0.032885283
57	0x3a0ceaa9	0.0005375543
58	0xbc9a9df8	-0.018874153
59	0xbd4f38a9	-0.050591145
60	0xbca1d8b4	-0.019756652
61	0xbd5de4b0	-0.05417317
62	0xbd07397f	-0.033013817
63	0xbc049409	-0.008091935
64	0xb99c6196	-0.00029827346
65	0x3c6ced19	0.014460825
66	0xbcf89430	-0.030344099
67	0xba631d68	-0.00086637447
68	0xbbfd0010	-0.0077209547
69	0xbc98642d	-0.018602455
70	0xbd0c687b	-0.034279328
71	0xbc060b89	-0.008181461
72	0x3a510919	0.0007974073
73	0xbbc9eca8	-0.006162245
74	0x3c019f43	0.007911506
75	0xbc84d89b	-0.016216567
76	0xbcd241a1	-0.02566606
77	0x3cddbe02	0.027068142
78	0xbcca4162	-0.02468938
79	0xbca92d8f	-0.020651607
80	0xbceb7311	-0.028741391
81	0xbd07ea15	-0.033182222
82	0xbcbf583b	-0.023357501
83	0xbd5349c7	-0.05158403
84	0x385b5671	5.2294174e-05
85	0xbc753c95	-0.014968057
86	0xbca60319	-0.020265149
87	0xbc540dd8	-0.012942754
88	0x3b7da5ab	0.0038703482
89	0xbd663cbe	-0.056210272
90	0xbcdbc905	-0.026829252
91	0xbbd86f68	-0.0066050775
92	0xbcb70736	-0.022342306
93	0xbc8ec5a9	-0.017428236
94	0x3c30d8bb	0.01079386
95	0x3c84ebe5	0.016225765
96	0x3c48326c	0.012219053
97	0xbc3183e7	-0.010834671
98	0xbd254b01	-0.040354732
99	0xbc5ef68e	-0.013608588
100	0xbc93f375	-0.018060425
101	0xbc4aefe5	-0.012386297
102	0x3c2be51e	0.0104916375
103	0x3915ddcc	0.00014292373
104	0xbcbe3a7e	-0.02322125
105	0xbcf4948e	-0.029855993
106	0xbd06ef23	-0.032942902
107	0xbc40ab8a	-0.011759648
108	0xbc53af16	-0.012920162
109	0xbd38d215	-0.045122225
110	0xbbaed8a8	-0.005335886
111	0xbb0ac6c9	-0.0021175614
112	0xbc331d67	-0.010932303
113	0xbcbf2886	-0.023334753
114	0xbc0ccc24	-0.008593593
115	0x3ca8cdc4	0.02060593
116	0xba3f1ec8	-0.00072906585
117	0xbd08514c	-0.033280656
118	0x3ceb0b0a	0.028691787
119	0xbc7c5f26	-0.0154035445
120	0xbc92f7ff	-0.01794052
121	0x3c8b61cd	0.017014408
122	0xba940a9a	-0.0011294663
123	0xbc8240de	-0.015900072
124	0x3c2a7086	0.010402804
125	0x3c8847b9	0.016635763
126	0xbc9b634f	-0.018968252
127	0xbb09e79a	-0.0021042586
128	0xbcd36614	-0.02580551
129	0xbbd97ea8	-0.006637413
130	0xbca4bf59	-0.020110773
131	0xbcd111c3	-0.025521165
132	0xbb2e989d	-0.0026641258
133	0x3d04199e	0.032250993
134	0xbd24d146	-0.04023864
135	0x3be04900	0.00684464
136	0xbd22ce26	-0.03974738
137	0x3ca7aba2	0.020467583
138	0x3d072225	0.032991547
139	0xbd2d1628	-0.042257458
140	0xbd5e318d	-0.054246474
141	0xbd8cbbef	-0.06871783
142	0x3bfb26f1	0.0076645543
143	0x3ac09120	0.0014691688
144	0x3c90d79c	0.017680936
145	0x3aa92abc	0.0012906413
146	0x3c2bf1fe	0.010494707
147	0xbc8af0f8	-0.016960606
148	0xbc95ac03	-0.018270498
149	0x3c999541	0.018747928
150	0x3c70ae20	0.014689952
151	0x3ae8734f	0.001773456
152	0xbbe673e3	-0.0070328577
153	0xbd17146f	-0.03688472
154	0xbbb8a892	-0.0056353295
155	0xbcba0b8f	-0.02271059
156	0xbb6b70b0	-0.0035925321
157	0x3c7d32cc	0.015454005
158	0x3bd7c663	0.006584929

weight f4 [159]
0	0x3eda7655	0.42668405
1	0x3eb7f7ed	0.3593134
2	0x3e90c4fa	0.2827528
3	0x3ef2c23b	0.4741381
4	0x3eec7882	0.4618569
5	0x3e84ecab	0.25961813
6	0x3e9e6c9d	0.3094224
7	0x3ea70874	0.32623637
8	0x3edf6c67	0.43637392
9	0x3eb2afae	0.34899658
10	0x3ee32115	0.44361177
11	0x3f0a5fde	0.5405253
12	0x3ea3185b	0.3185452
13	0x3e9f4dc1	0.3111401
14	0x3efea38c	0.4973415
15	0x3eab19fa	0.33418256
16	0x3ee4d84e	0.44696277
17	0x3f0ea57f	0.55721277
18	0x3f14dfd9	0.58154064
19	0x3eef4ba3	0.46737394
20	0x3e836ffc	0.25671375
21	0x3ed43224	0.41444504
22	0x3eff6cb0	0.4988761
23	0x3ed5a2be	0.41725725
24	0x3eee8abe	0.46590227
25	0x3eef3869	0.46722725
26	0x3ea8bc52	0.32956177
27	0x3ea73a48	0.32661653
28	0x3ed7ded5	0.42162195
29	0x3ea69618	0.32536387
30	0x3e815766	0.25261992
31	0x3ec73bd3	0.3891283
32	0x3ed42769	0.41436318
33	0x3ea68086	0.3251993
34	0x3ea81481	0.32828143
35	0x3f0e9e22	0.5571004
36	0x3e98d5f0	0.2985072
37	0x3f26450a	0.64949095
38	0x3e9bb3b3	0.30410537
39	0x3f06c728	0.5264764
40	0x3eb79d80	0.3586235
41	0x3ef01432	0.46890408
42	0x3e91037c	0.2832297
43	0x3ecd5e4a	0.40111
44	0x3ea55e80	0.3229866
45	0x3e7ace3c	0.24492735
46	0x3eb82698	0.35966945
47	0x3eb71d9e	0.35764784
48	0x3ec1a62a	0.37822086
49	0x3ef99fbb	0.48754677
50	0x3ec7327a	0.38905698
51	0x3f031d25	0.51216346
52	0x3ecf3ced	0.4047617
53	0x3ec1155e	0.37711614
54	0x3e91f8be	0.28510088
55	0x3ee7b875	0.45257917
56	0x3edff18f	0.43738982
57	0x3ea7f93a	0.32807332
58	0x3ebee057	0.37280533
59	0x3f031192	0.51198685
60	0x3f293938	0.66102934
61	0x3f098b9a	0.5372864
62	0x3f0b900d	0.5451668
63	0x3efab482	0.48965842
64	0x3eb2d31b	0.34926686
65	0x3ec2c7bb	0.38043007
66	0x3ed912ae	0.42397064
67	0x3eb6a66f	0.35673854
68	0x3f0251f4	0.509063
69	0x3eee13b1	0.46499398
70	0x3f0e02e0	0.55473137
71	0x3e78e68a	0.24306694
72	0x3e8d67f9	0.27618387
73	0x3e9c1cc8	0.30490708
74	0x3ed5b959	0.41742972
75	0x3eb7f39c	0.35928047
76	0x3f0cbf34	0.5497925
77	0x3e96a282	0.2942086
78	0x3ea44054	0.32080328
79	0x3efba471	0.49148896
80	0x3f07e025	0.5307639
81	0x3ea71418	0.32632518
82	0x3ef7804f	0.4834008
83	0x3eb1b8c4	0.34711277
84	0x3ea30f08	0.31847405
85	0x3f0f49e6	0.55972135
86	0x3e92a567	0.28641817
87	0x3ed50db9	0.41612032
88	0x3e9f8572	0.31156498
89	0x3f11e543	0.5699045
90	0x3e8531f2	0.26014668
91	0x3ed7f97f	0.42182538
92	0x3ea71c55	0.32638803
93	0x3eb435e8	0.35197377
94	0x3e7aa046	0.24475202
95	0x3e902da2	0.28159815
96	0x3ed587a5	0.4170505
97	0x3e9e0023	0.3085948
98	0x3eee8231	0.46583703
99	0x3f057903	0.52137774
100	0x3ea5e5ae	0.32401794
101	0x3e92f7a6	0.28704566
102	0x3ea45531	0.32096246
103	0x3e91c8c3	0.28473482
104	0x3edabe98	0.42723536
105	0x3eedd295	0.46449724
106	0x3ecbdd5e	0.39817327
107	0x3eaed2d2	0.34145218
108	0x3ea3f398	0.32021785
109	0x3e9a25a6	0.30106848
110	0x3ea52719	0.32256392
111	0x3e7073f6	0.23481736
112	0x3ed64da0	0.41856098
113	0x3f0cd5ef	0.55013937
114	0x3edb2135	0.42798772
115	0x3ee3c0d5	0.44483057
116	0x3e5ff832	0.21872023
117	0x3f1b918f	0.6076898
118	0x3eaf7ba0	0.34274006
119	0x3eb51fce	0.35375828
120	0x3ecd8380	0.4013939
121	0x3ee0ef58	0.43932605
122	0x3ea080c5	0.31348243
123	0x3ea581f9	0.32325724
124	0x3f0d1bc9	0.5512052
125	0x3e8ff466	0.2811615
126	0x3e6bcd7c	0.23027605
127	0x3ed3104b	0.41223368
128	0x3f02074f	0.507924
129	0x3e76a63a	0.24086848
130	0x3ec2609a	0.37964326
131	0x3ee8bb44	0.45455372
132	0x3eb143b8	0.34621978
133	0x3ed7d6a8	0.42155957
134	0x3ed5cf58	0.41759753
135	0x3eaf6e04	0.34263623
136	0x3ef163b0	0.47146368
137	0x3e89012d	0.2675871
138	0x3ecb8970	0.39753294
139	0x3ea4ae2c	0.32164133
140	0x3f13570a	0.57554686
141	0x3f19488c	0.5987632
142	0x3ef2eed4	0.47447836
143	0x3e92ffd7	0.28710815
144	0x3f11119c	0.56667495
145	0x3eea1239	0.45717028
146	0x3eabd2ce	0.3355927
147	0x3eac8617	0.33696052
148	0x3ef6adec	0.48179567
149	0x3ed5fb36	0.4179322
150	0x3f027ee6	0.5097488
151	0x3ead6317	0.33864662
152	0x3e9a77bb	0.30169472
153	0x3efafd4a	0.4902137
154	0x3f025e8f	0.50925535
155	0x3f043a12	0.5165111
156	0x3eb03c63	0.3442107
157	0x3ea99c8c	0.33127248
158	0x3eeae5a4	0.45878327

bias f4 [159]
0	0xbd050acd	-0.032481004
1	0xbd1f4141	-0.03888059
2	0xbd05344c	-0.032520577
3	0xbd65ea45	-0.05613162
4	0xbd2d5554	-0.042317703
5	0xba7f17a6	-0.0009731002
6	0xbccc7045	-0.024955878
7	0x3b72010d	0.0036926896
8	0xbd0067e8	-0.031349093
9	0xbc997af6	-0.01873539
10	0xbd34552b	-0.044026535
11	0xbc4c1b5c	-0.012457695
12	0xbccfcb43	-0.025365477
13	0xbd14ad02	-0.036297806
14	0xbc53af80	-0.01292026
15	0xbcf8334b	-0.030297896
16	0xbd5c4358	-0.05377516
17	0xbd160061	-0.036621455
18	0xbd8209fc	-0.063495606
19	0xba2d3b3a	-0.0006608252
20	0x3c50e621	0.0127501795
21	0x3cb455a8	0.0220135
22	0xbce03cea	-0.027372796
23	0x3ca374c1	0.019953134
24	0xbd52e8c7	-0.051491525
25	0xbd0b1df0	-0.033964097
26	0xbce34aff	-0.027745722
27	0xb814a351	-3.543805e-05
28	0xbcfeec77	-0.031118615
29	0x3bbd3b70	0.005774908
30	0xbc84c59e	-0.016207512
31	0x3c3bd9da	0.011465514
32	0xbd86bed7	-0.065793686
33	0x3c16e91d	0.009210852
34	0x3d08734c	0.03331308
35	0xbd6c85b3	-0.057744693
36	0xbcc7bcab	-0.024381956
37	0xbd3b425f	-0.045717593
38	0xbb613d84	-0.0034368942
39	0xbcfa2589	-0.030535476
40	0xbcd386b6	-0.025821071
41	0xbd3adaff	-0.045619007
42	0x3afe1197	0.0019383904
43	0x3c2a4259	0.010391795
44	0x3c3d836c	0.011566978
45	0xbc2944d6	-0.010331353
46	0x3c19233c	0.009346779
47	0xbcb58ef1	-0.022162886
48	0x3ca225db	0.019793442
49	0xbd0fc183	-0.035096657
50	0x3ca86a6c	0.020558558
51	0xbcd51971	-0.026013108
52	0x3b5bfed9	0.003356865
53	0x3c7269bb	0.014795716
54	0x3d93bd0a	0.07213791
55	0xbca82c4d	-0.020528937
56	0xbc3e51a9	-0.011616149
57	0xbd061c8d	-0.032742072
58	0xbcc95d06	-0.02458049
59	0xbd1ab5c1	-0.03777099
60	0xbd8346b6	-0.064099714
61	0xbcbc5c6f	-0.022993295
62	0xbcfd67bd	-0.030933255
63	0xbd0c99d2	-0.034326382
64	0xbabb5dc2	-0.001429491
65	0x3bc378aa	0.005965312
66	0xbcfef6c1	-0.03112352
67	0xbc70f636	-0.014707139
68	0xbc8912ac	-0.016732536
69	0xbb85c9a7	-0.0040828767
70	0xbd8327eb	-0.06404098
71	0x3bf05100	0.0073338747
72	0x3aa4d36d	0.0012575217
73	0xbc9a3864	-0.018825717
74	0xbce87553	-0.028376257
75	0x3cbfaedc	0.02339881
76	0xbd2de2e5	-0.04245271
77	0x3cef5f95	0.029220382
78	0x3b918537	0.0044409293
79	0xbbd61f98	-0.006534528
80	0xbcb5a1a8	-0.02217181
81	0x3cdd5546	0.0270182
82	0xbcf88446	-0.03033651
83	0x3c1af103	0.009456876
84	0xbcdd3879	-0.027004467
85	0xbd7869a9	-0.06064764
86	0xba0b9162	-0.0005324093
87	0xbd119c1d	-0.03554927
88	0x3abd60c7	0.0014448398
89	0xbcc0f741	-0.0235554
90	0xbbfa4e91	-0.0076387604
91	0xbd110cee	-0.03541272
92	0xbd0d33c4	-0.034473196
93	0xbcac0643	-0.02099908
94	0x3bca5fe5	0.0061759823
95	0x3cf23313	0.02956537
96	0x3b0028f9	0.0019555672
97	0xbca8ab35	-0.02058945
98	0xbcd71e81	-0.026259663
99	0xbd10485e	-0.035225265
100	0x3cb6c1fe	0.0223093
101	0xbd251ed3	-0.0403126
102	0x3c37a89c	0.011209633
103	0xbcbd71f3	-0.023125624
104	0xbc6388c4	-0.013887588
105	0xbd43d8d5	-0.04781421
106	0xbd1bbcde	-0.038021915
107	0xbc344d52	-0.011004763
108	0xbc463ea5	-0.012099897
109	0x3c4514a9	0.012028852
110	0xbc67a759	-0.01413902
111	0x3c1c82fd	0.009552714
112	0xbc130e74	-0.008975614
113	0xbccb65d7	-0.024828834
114	0xbd3cada2	-0.046064027
115	0xbcf0844a	-0.029359955
116	0xbba23f85	-0.00495142
117	0xbd85dc05	-0.06536106
118	0xbc586cc1	-0.013209523
119	0xbc5ece55	-0.013598998
120	0xbd3b07e0	-0.045661807
121	0x3b3d9cf3	0.002893266
122	0x3c59e739	0.013299757
123	0xbc6f4cfe	-0.014605759
124	0xbd3d8afe	-0.04627513
125	0x3b3d117a	0.0028849528
126	0x3cef6c4e	0.029226448
127	0xbd04d62d	-0.032430816
128	0xbce720d7	-0.028213901
129	0x3c09c274	0.008408178
130	0xbcd68867	-0.026188089
131	0xbd3be7e5	-0.04587545
132	0x3ceb6e02	0.02873898
133	0xbcea3bf6	-0.028593045
134	0x3a8c0121	0.0010681489
135	0xbc91e5f9	-0.017809855
136	0xbcb9fd61	-0.022703828
137	0xb940de63	-0.00018393392
138	0xbc999e78	-0.018752322
139	0xbcd06790	-0.025440007
140	0xbd19e1f0	-0.037568986
141	0xbced2745	-0.02894939
142	0xbd1eeee5	-0.038802046
143	0xbcd0726b	-0.025445184
144	0xbd6e7eb9	-0.05822632
145	0xbd54532c	-0.05183713
146	0xbc092106	-0.00836969
147	0xbcf86855	-0.030323187
148	0xbd087303	-0.03331281
149	0xbd032991	-0.032022063
150	0xbd18849f	-0.037235852
151	0xbced8937	-0.028996093
152	0xbca6e99a	-0.020375062
153	0xbd5cfa0f	-0.053949412
154	0xbd38e9e6	-0.045144938
155	0xbc88ae42	-0.016684655
156	0x3bd5b6b2	0.006522023
157	0xbafdee7a	-0.001937344
158	0xbc810a68	-0.015752032

running_mean f4 [159]
0	0x3ca263c5	0.019822964
1	0x3ca84a73	0.020543313
2	0x3d123dcd	0.03570347
3	0x3aadd119	0.0013261168
4	0xbbe662d3	-0.0070308237
5	0xbb8ce843	-0.0043001487
6	0x3b37cd44	0.0028045932
7	0xbaace87c	-0.0013191844
8	0x3b93bfe2	0.004508958
9	0x3c95eb31	0.018300625
10	0x3c4e9c12	0.012610452
11	0xbc5bfcd1	-0.013426975
12	0x3cfdbdbf	0.030974267
13	0x3c247a60	0.010038942
14	0xbbce4678	-0.0062950216
15	0x3c7f2d68	0.015574791
16	0x3cb4e04f	0.022079615
17	0x3cb156fa	0.021647919
18	0xbab0aba4	-0.0013478887
19	0xbbf06a46	-0.0073368875
20	0x3c2f1dbe	0.010688243
21	0x3d208bd7	0.03919586
22	0x3c80d819	0.015728043
23	0x3d01ac18	0.031658262
24	0x3c2f6f3f	0.0107076755
25	0x3c089aa2	0.008337649
26	0x3c174a45	0.009234016
27	0x3cbf75c4	0.023371585
28	0x3c807367	0.015680028
29	0x3d056d3b	0.032574873
30	0x3cf0dfd3	0.029403603
31	0x3c87a300	0.016557217
32	0x3cf07aa7	0.02935536
33	0x3c35f635	0.011106064
34	0x3d03c241	0.032167677
35	0x3c935e27	0.017989231
36	0x3cea463f	0.02859795
37	0x3ca90de1	0.0206365
38	0x3ca024f8	0.019548878
39	0x3c02f3a6	0.007992661
40	0x3cdcd439	0.026956664
41	0x3c3f629d	0.011681226
42	0x3cbd31c1	0.023095014
43	0x3c52b0e3	0.012859556
44	0x3ced8a2d	0.028996551
45	0x3cd05237	0.025429828
46	0x3cbd296b	0.023091039
47	0x3cf66986	0.030079614
48	0x3c273bea	0.010207156
49	0x3d085c32	0.03329105
50	0x3cf7acb4	0.030233718
51	0xb9476e67	-0.00019019247
52	0x3d026091	0.031830374
53	0x3b8dbb4d	0.0043253065
54	0x3c362943	0.011118236
55	0x3bb59e0a	0.0055425214
56	0xbb90808f	-0.0044098566
57	0x3c7bca42	0.015368046
58	0xbba4e8ff	-0.005032658
59	0xbb2e1214	-0.0026561068
60	0x3ca33c4f	0.019926218
61	0x3bba6942	0.0056888172
62	0x3b456bac	0.0030123992
63	0x3cdc75eb	0.026911696
64	0x3ce805f9	0.02832316
65	0x3d139351	0.036029164
66	0x3badbc6d	0.005302003
67	0x3cc5a27e	0.024125334
68	0x3c6a2363	0.014290663
69	0x3b01e097	0.0019817704
70	0xbc8dd1d9	-0.017311977
71	0x3c63a795	0.013894935
72	0x3c578e1d	0.013156441
73	0x3be0df82	0.0068625817
74	0x3ca396ca	0.019969363
75	0x3b1e10a5	0.0024118808
76	0x3c0cd874	0.008596528
77	0x3d46b7da	0.04851518
78	0x3c15afac	0.009136122
79	0x3ca2b088	0.019859567
80	0x3b7dcdcd	0.0038727403
81	0xbc17145a	-0.009221161
82	0xbb070b48	-0.002060609
83	0xbc8612ae	-0.016366329
84	0x3d007ef0	0.031371057
85	0xb97de053	-0.00024211527
86	0x3a913fa2	0.0011081586
87	0xba93556c	-0.0011240668
88	0x3cd044d5	0.025423447
89	0xbc59673a	-0.01326924
90	0x3bcd70aa	0.006269534
91	0x3acdef66	0.0015711605
92	0x3c92c60a	0.017916698
93	0x3cb565f5	0.022143343
94	0x3cd7f34f	0.026361136
95	0x3cfd1e1b	0.030898144
96	0x3c98fb62	0.018674556
97	0x3c6f6b49	0.014612981
98	0xbb4a8806	-0.003090383
99	0x3c645fea	0.013938883
100	0x3c3a59cb	0.011373947
101	0x3be3b561	0.0069491123
102	0x3d006028	0.0313417
103	0x3bef36f0	0.00730025
104	0x3b24c051	0.0025139044
105	0x37ffc0d9	3.048817e-05
106	0xbad87886	-0.0016515411
107	0x3b0c955f	0.0021451337
108	0x3c1fe69e	0.009759573
109	0xbc49bca7	-0.012313045
110	0x3c10b93b	0.008833225
111	0x3cb5f6b6	0.022212368
112	0x3c48f2bb	0.012264903
113	0xb9d031f4	-0.0003971007
114	0x3c9bdb51	0.019025477
115	0x3ce09744	0.02741588
116	0x3c122903	0.008920911
117	0xbbfdd5cf	-0.0077464352
118	0x3d1c157b	0.038106423
119	0x3c968eb5	0.018378595
120	0x3c0c026e	0.008545501
121	0x3d0dc2b0	0.034609497
122	0x3c7c65a3	0.015405091
123	0x3b751364	0.003739559
124	0x3c9d4be9	0.019201236
125	0x3d1d4a49	0.038400922
126	0x3c0898f7	0.008337251
127	0x3c93c334	0.018037416
128	0x3c876649	0.016528266
129	0x3c9e6a4a	0.019337792
130	0x3be50c0f	0.006989963
131	0x3ab01e94	0.0013436847
132	0x3c8a9819	0.016918229
133	0x3ce83e26	0.028349947
134	0xbbe0e35b	-0.0068630404
135	0x3d04df84	0.032439724
136	0xbbb5ec57	-0.0055518555
137	0x3d20ed02	0.03928853
138	0x3cb78d2c	0.022406183
139	0x3c07ed63	0.0082963435
140	0xbc3a8e48	-0.011386462
141	0x3afe59f6	0.0019405473
142	0x3cdeeca3	0.027212447
143	0x3c80799c	0.015682988
144	0x3cdcdb22	0.02695996
145	0x3caf5c04	0.021406181
146	0x3d01b2cd	0.03166466
147	0x3cc2ea6f	0.023793427
148	0x3c7f5d32	0.015586184
149	0x3ca08bef	0.019597976
150	0x3cf99b29	0.030469494
151	0x3c2a1919	0.01038196
152	0x3c9f8368	0.01947184
153	0xbb70c5fb	-0.00367391
154	0x3c850150	0.016235977
155	0x3ad12cb2	0.0015958755
156	0x3c1755f6	0.009236803
157	0x3d04b152	0.03239567
158	0x3ca700f8	0.020386204

running_var f4 [159]
0	0x3ce56982	0.028004412
1	0x3c9d86f2	0.019229386
2	0x3cb3c935	0.021946529
3	0x3d9cf2c5	0.07663492
4	0x3d6361bc	0.05551313
5	0x3c278d4d	0.01022656
6	0x3c6f239b	0.014595891
7	0x3c6c07d3	0.014406162
8	0x3d857237	0.065159254
9	0x3cd6cb97	0.026220126
10	0x3dae64eb	0.08515342
11	0x3d84341c	0.064552516
12	0x3cc7637d	0.024339432
13	0x3c9a3b69	0.018827157
14	0x3d50b7a2	0.050956376
15	0x3c99e067	0.018783761
16	0x3d279fe4	0.040923968
17	0x3dca2071	0.09869469
18	0x3dfa9140	0.122347355
19	0x3d785df7	0.060636487
20	0x3c03ff20	0.008056432
21	0x3c890f19	0.016730832
22	0x3d9685cf	0.07349741
23	0x3c62ed43	0.013850513
24	0x3dd0a974	0.101885706
25	0x3de5f798	0.112288654
26	0x3c8128d0	0.015766531
27	0x3c693d9d	0.014235881
28	0x3ce4d0f3	0.027931666
29	0x3c4ef665	0.012631987
30	0x3c83d015	0.016090432
31	0x3c7e49db	0.015520538
32	0x3d3a37c1	0.045463327
33	0x3c781e5f	0.01514396
34	0x3cbb4a10	0.022862464
35	0x3dbd4c30	0.09243047
36	0x3cd90d47	0.026495589
37	0x3e271291	0.16315676
38	0x3cb3e944	0.021961816
39	0x3d607ad4	0.054804638
40	0x3cdee434	0.027208425
41	0x3d9b703f	0.075897686
42	0x3cd35613	0.02579788
43	0x3d1c3a94	0.038141802
44	0x3c7287f4	0.014802922
45	0x3ca39371	0.019967766
46	0x3bf4fa92	0.0074761594
47	0x3cfa6912	0.03056768
48	0x3c836edb	0.016044071
49	0x3d98b761	0.07456852
50	0x3c77eb73	0.015131819
51	0x3d8449a1	0.06459356
52	0x3c6f8753	0.014619666
53	0x3d1a2aca	0.037638463
54	0x3c1d8be6	0.009615874
55	0x3d63317f	0.055467125
56	0x3d6ebbcb	0.058284562
57	0x3c94083a	0.018070329
58	0x3d0ef488	0.034901172
59	0x3dac7741	0.084211834
60	0x3e17ab4d	0.1481144
61	0x3df9a629	0.12189896
62	0x3db4dc8f	0.08831131
63	0x3de712bb	0.112828694
64	0x3c79d44f	0.015248372
65	0x3ca36f39	0.019950496
66	0x3d538b08	0.051646262
67	0x3ca4ac5b	0.020101717
68	0x3d9f3dd6	0.07775466
69	0x3d0155e3	0.03157605
70	0x3d511673	0.0510468
71	0x3c36941d	0.011143711
72	0x3c3c9f04	0.011512522
73	0x3c5b2d36	0.013377478
74	0x3cb3fdc9	0.0219716
75	0x3c5a885b	0.013338174
76	0x3dc29141	0.09500361
77	0x3c81acf0	0.015829533
78	0x3c824fd0	0.015907198
79	0x3d8d6ee7	0.069059186
80	0x3de8767b	0.11350723
81	0x3c93a722	0.018024031
82	0x3d7078be	0.0587089
83	0x3c7a76fd	0.015287158
84	0x3d118d7d	0.035535324
85	0x3dc82d41	0.097742565
86	0x3c1decd2	0.009638982
87	0x3d0849e1	0.03327358
88	0x3cb3ee03	0.021964079
89	0x3db660c1	0.08905173
90	0x3c90ffd8	0.01770012
91	0x3d09bfdd	0.03363024
92	0x3d0c8479	0.034306023
93	0x3d00fbef	0.031490263
94	0x3c9623df	0.018327652
95	0x3c54f6bc	0.012998279
96	0x3d1fdcf1	0.039029066
97	0x3c9caf55	0.019126574
98	0x3d9b8a7c	0.07594773
99	0x3dc5f079	0.09665007
100	0x3c324f12	0.01088311
101	0x3caf9d8f	0.021437434
102	0x3c8dc014	0.017303504
103	0x3bd4562a	0.006479998
104	0x3d46cc2c	0.048534557
105	0x3d9c8833	0.076431654
106	0x3c9cb805	0.019130716
107	0x3c90ded5	0.01768438
108	0x3c487080	0.012233853
109	0x3c4365f4	0.011926163
110	0x3c7adb8c	0.015311133
111	0x3c5cab7c	0.013468619
112	0x3d25046c	0.04028742
113	0x3dcbfe42	0.09960605
114	0x3cd6901c	0.026191764
115	0x3d359c5a	0.04433856
116	0x3be8e9b5	0.007107938
117	0x3db137d8	0.086532295
118	0x3ce5cd9f	0.02805215
119	0x3c9e5644	0.019328244
120	0x3c826258	0.015916035
121	0x3ca56129	0.020187931
122	0x3c131949	0.008978196
123	0x3bdd6097	0.006755899
124	0x3d68032e	0.056643657
125	0x3c9cbfc0	0.019134402
126	0x3c2b1dac	0.010444086
127	0x3d35ab4c	0.044352815
128	0x3dd606dc	0.10450527
129	0x3c42daa0	0.011892945
130	0x3c90bc37	0.017667873
131	0x3d97524a	0.07388742
132	0x3c571dce	0.013129665
133	0x3cc47e81	0.023986103
134	0x3ca9c514	0.020723857
135	0x3cd1364c	0.025538586
136	0x3d69f718	0.057120413
137	0x3c8863e5	0.016649196
138	0x3d89d38d	0.06729803
139	0x3cf4a2e9	0.029862838
140	0x3e03be71	0.12865616
141	0x3de95bb2	0.113944426
142	0x3dbc8fd8	0.092071235
143	0x3c2be0b2	0.010490583
144	0x3e042d1c	0.12907833
145	0x3dd86580	0.105662346
146	0x3cd5b269	0.02608605
147	0x3cb545f4	0.022128083
148	0x3d8e0333	0.06934204
149	0x3d0531b0	0.03251809
150	0x3debab5e	0.11507295
151	0x3c81a3c1	0.015825154
152	0x3ca8e150	0.02061525
153	0x3db3990c	0.08769426
154	0x3da2a7b9	0.07942147
155	0x3d868f80	0.06570339
156	0x3c7c6f58	0.015407406
157	0x3c80e590	0.015734464
158	0x3d9e972c	0.077436775

weight f4 [112, 159]
0	0x3d044761	0.032294635
1	0xbc4bcbde	-0.012438742
2	0x3c9ace84	0.018897302
3	0x3d55f172	0.052232213
4	0xbb99786c	-0.004683545
5	0x3d06f223	0.032945763
6	0xbd5a79e2	-0.053338893
7	0x3d2dede4	0.0424632
8	0x3d380865	0.04492988
9	0xbd10c6e5	-0.03534593
10	0x3d6c681d	0.057716478
11	0xbc4a5353	-0.012348968
12	0xbba4a330	-0.0050243363
13	0x3c89cff6	0.016822796
14	0xbbfb0c0c	-0.007661348
15	0x3c03848c	0.008027207
16	0x3d47393b	0.048638564
17	0x3da16b8f	0.07881843
18	0x3de47582	0.11155225
19	0x3c5a9ac8	0.013342567
20	0xbceb6d4b	-0.028738638
21	0xbc74ea33	-0.014948416
22	0x3d9b6add	0.07588742
23	0xbd0e7b78	-0.034785718
24	0x3d4cf924	0.050042287
25	0x3c9616f0	0.018321484
26	0xbbaf78f2	-0.005354994
27	0x3c6f2cc1	0.0145980725
28	0xbd392bfe	-0.04520797
29	0xbc101a4d	-0.008795333
30	0xbcb55817	-0.022136731
31	0x3d40abe3	0.047038924
32	0x3af540ef	0.0018711368
33	0xbcf2bbc6	-0.029630553
34	0xbcf6df82	-0.030135874
35	0x3be14391	0.0068745096
36	0xbd14498e	-0.03620296
37	0xbc39e2ef	-0.011345609
38	0xbd801a3c	-0.06255004
39	0x3d40af9a	0.047042467
40	0x3d8ea769	0.06965525
41	0x3c9e066f	0.019290177
42	0x3caf5fb0	0.021407932
43	0x3c6872e5	0.014187549
44	0x3c216ed6	0.0098530855
45	0x3c3c7873	0.011503327
46	0xbd6bd291	-0.05757386
47	0xbd3078fe	-0.043084137
48	0xbd23ae44	-0.039961115
49	0x3d3edac3	0.046595346
50	0x39f5d4ad	0.00046888497
51	0x3d9c920c	0.07645044
52	0xbd2478aa	-0.040154137
53	0x3d78ebfe	0.060771935
54	0xbd252f0a	-0.040328063
55	0x3c74a418	0.014931701
56	0x3d2abf9d	0.041686643
57	0x3c37b77a	0.011213178
58	0x3cab4db2	0.020911071
59	0xbd17bed8	-0.037047237
60	0x3d96ec04	0.07369235
61	0xbd0c1e09	-0.03420833
62	0x3d308855	0.043098766
63	0x3d40a2de	0.047030322
64	0xbd6a8b4d	-0.057261754
65	0xbd2f3d05	-0.042782802
66	0xbd22374c	-0.039603516
67	0xbc8ca163	-0.017166799
68	0xbc86231a	-0.01637416
69	0x3d4eb111	0.050461832
70	0xbab84442	-0.0014058428
71	0x3cf091af	0.029366342
72	0x3ce44f24	0.027869768
73	0x3cdf9dba	0.02729689
74	0x3c930f26	0.01795156
75	0xbb96eaab	-0.0046056113
76	0x3d07f98e	0.03319698
77	0xbd503302	-0.050829895
78	0x3cfe6cb4	0.031057693
79	0x3d295a01	0.0413456
80	0x3d78e3ad	0.060764004
81	0x3c706a92	0.014673846
82	0x3b69e680	0.0035690367
83	0xbb85dcc8	-0.004085157
84	0xbd1a481e	-0.037666433
85	0xbc4ffb73	-0.0126942275
86	0xba60fefa	-0.00085829163
87	0xbd7cd4b6	-0.061726294
88	0xbc36f5ce	-0.011167003
89	0x3d25b698	0.040457338
90	0xbd133695	-0.035940725
91	0x3d892586	0.0669661
92	0x3cc112c4	0.023568518
93	0xbcaae182	-0.020859484
94	0xbd3e0533	-0.046391677
95	0x3bc26c47	0.005933318
96	0x3c04fa10	0.00811626
97	0x3c8313ce	0.016000655
98	0x3d2678e5	0.040642638
99	0xbb009246	-0.0019618436
100	0x3afb2d86	0.0019163347
101	0xbc9be110	-0.019028217
102	0x3d5600e8	0.052246958
103	0xbd1aedda	-0.03782449
104	0xbc700132	-0.0146487225
105	0xbcae08dd	-0.02124446
106	0x3a9422ed	0.0011301913
107	0x3d4b0174	0.049561933
108	0x3cec611d	0.028854901
109	0x3d4edc94	0.05050333
110	0xbd194ec6	-0.03742864
111	0x3d3b413c	0.04571651
112	0x3d11f995	0.03563841
113	0x3cb5d12e	0.022194471
114	0xbcd7b4f0	-0.026331395
115	0x3d826502	0.06366922
116	0x3b2d8dcf	0.002648223
117	0xbc8161f1	-0.015793772
118	0x3d727022	0.05918897
119	0x3d229bbf	0.039699312
120	0xbcad8934	-0.021183588
121	0xbc63662e	-0.013879342
122	0xbc5b75a5	-0.013394748
123	0x3cb4c0ad	0.022064531
124	0xbb9b11e1	-0.004732356
125	0xbcd37afc	-0.02581548
126	0xbd1088b5	-0.035286624
127	0xbca51b7f	-0.020154713
128	0x3cc6af74	0.024253584
129	0xbcf40f86	-0.029792558
130	0x3c856e66	0.016287994
131	0x3d603ba5	0.05474438
132	0x3cc3b0af	0.02388796
133	0x3c9613da	0.018320013
134	0xbc76c296	-0.015061041
135	0xbc43e4f8	-0.011956446
136	0xbd0edab3	-0.034876537
137	0x3ca62604	0.0202818
138	0x3d6b1cf8	0.057400674
139	0xbc1cda28	-0.009573497
140	0x3d66586c	0.05623667
141	0x3db7d531	0.0897621
142	0x3d341e69	0.043974314
143	0xbbb44c2a	-0.0055022435
144	0x3d03168c	0.032003924
145	0x3bb06341	0.0053829257
146	0x3da66427	0.08124571
147	0x3c570595	0.013123889
148	0x3d67036a	0.05639974
149	0x3c3d9fee	0.011573775
150	0x3d8b7e2b	0.06811174
151	0x3ba08aca	0.0048993574
152	0x3c61e53a	0.013787562
153	0x3d3f498d	0.046701003
154	0x3d6a0d15	0.057141382
155	0x3d56abfe	0.05241012
156	0x3d07c175	0.03314348
157	0x3cea0942	0.028568868
158	0xbbb447a2	-0.0055017034
159	0x3cb66079	0.022262799
160	0x3dbac967	0.09120446
161	0x3d3b07b9	0.04566166
162	0x3d16a096	0.03677424
163	0xbc0b9732	-0.0085199345
164	0x3c6481c4	0.013946954
165	0x3d444a66	0.047922514
166	0x3c4457ae	0.011983795
167	0xbb8cb26a	-0.0042937296
168	0x3d2921bd	0.04129194
169	0x3b5c8ef3	0.003365454
170	0xbc0d9db4	-0.008643556
171	0x3cd6dd56	0.026228588
172	0x3d4a34f5	0.04936691
173	0xba832580	-0.0010005683
174	0xbcfa9247	-0.030587329
175	0xbcb6b3c8	-0.022302523
176	0xbd352bca	-0.044231214
177	0x3cb6a3db	0.02229493
178	0xb8fb5f3c	-0.000119863515
179	0x3cb75798	0.022380635
180	0x3c1d6da0	0.009608656
181	0xbd223aec	-0.039606974
182	0xbc8f8cd4	-0.017523207
183	0x3ce60160	0.028076828
184	0x3c483e5f	0.012221902
185	0x3c8821e5	0.016617725
186	0x3b5c8220	0.0033646896
187	0x3d816b87	0.06319337
188	0xbbddc106	-0.006767395
189	0xbd0fc22d	-0.03509729
190	0xbd119380	-0.035541058
191	0x3d5dd8c5	0.054161806
192	0xbcfe4cad	-0.031042421
193	0x3c58ba78	0.013228051
194	0x3cafcb56	0.021459263
195	0x3cf61ed3	0.030043995
196	0xbccf21e0	-0.025284708
197	0x3c8a8328	0.016908243
198	0xbd2de150	-0.042451203
199	0xbc821b51	-0.015882166
200	0xbce3ca8e	-0.027806547
201	0xbbac98b4	-0.005267227
202	0xbd1c52b5	-0.038164813
203	0xbc95fa0b	-0.018307706
204	0xbb5d59ee	-0.0033775526
205	0x3c974158	0.018463776
206	0x3c8a236c	0.016862594
207	0x3b9b2f3e	0.0047358563
208	0xbd221f19	-0.03958044
209	0x3d0ca6c6	0.034338735
210	0x3c8f0acf	0.017461209
211	0x3c868d84	0.016424902
212	0x3c566336	0.013085177
213	0x3b85b492	0.0040803635
214	0x3c118674	0.008882154
215	0xbd038bb9	-0.03211567
216	0x3cabc4a0	0.020967782
217	0x3c85afc6	0.016319167
218	0xbc593e35	-0.01325946
219	0xbc9cdfca	-0.01914968
220	0xbcf31238	-0.029671773
221	0x3bb992f8	0.005663272
222	0x3a677ee5	0.00088308594
223	0x3c1684f5	0.009186973
224	0xbc9430be	-0.018089648
225	0x3cee72ae	0.029107418
226	0x3d72c92b	0.05927388
227	0xbd150725	-0.036383767
228	0xb9001151	-0.00012213482
229	0xbc933b97	-0.01797275
230	0xba83f3f1	-0.0010067207
231	0x3ba78589	0.005112354
232	0x3d0f6e6f	0.035017427
233	0xbc80cc69	-0.01572247
234	0xbbb45734	-0.0055035595
235	0x3ca40bcd	0.020025158
236	0xbd0db78e	-0.03459888
237	0xbbf66520	-0.0075193793
238	0x3b98f862	0.0046682814
239	0xbcf76ee2	-0.03020424
240	0x3c065c2c	0.008200686
241	0xbd5dbbdc	-0.054134235
242	0xbcd11b4e	-0.025525715
243	0x3d9e4363	0.07727697
244	0x3a87c259	0.0010357603
245	0xbc27ff94	-0.010253806
246	0xbc90bb93	-0.017667567
247	0x3d4166c7	0.047217157
248	0x3c1fede7	0.00976131
249	0x3cf8e356	0.03038184
250	0xbd20627c	-0.039156422
251	0x3d3a8f64	0.045546904
252	0x3c905c3a	0.017622102
253	0x3bb8299f	0.005620196
254	0xbd0f8ee6	-0.035048388
255	0xbd5da130	-0.0541088
