mlruns/528961946943719398/models/m-e699a55eccfc42c98dcdff2ace1fc829/artifacts/data/model.pth (torch, 79883 bytes, 23 tensors)

weight f4 [124]
000000 dc 75 35 3e c1 3b 66 3e bd 07 93 3e ce 9d 4a 3e
       0.17720741 0.22483732 0.2871684 0.1978676
000010 0f 94 5e 3e d8 16 37 3e fd eb fe 3d b9 f9 39 3e
       0.21736167 0.17879808 0.12447355 0.18161668
000020 cc 8e 19 3e 77 73 4a 3e 09 d9 87 3e 6d d3 dc 3d
       0.14995879 0.19770609 0.26532772 0.10782514
000030 a9 70 46 3e 5e 4f 29 3e ff 83 71 3e 78 f7 8a 3e
       0.19378914 0.16534182 0.23585509 0.2714193
000040 ae 53 47 3e 1c 47 ab 3e ed ef 6f 3e 43 fb 24 3e
       0.19465515 0.3345269 0.23431368 0.16111474
000050 92 dd 27 3e 00 ca 31 3e 54 13 16 3e 4b f7 2a 3e
       0.16393116 0.17362213 0.1465581 0.16695897
000060 ee bb 84 3e d6 50 53 3e bc 51 75 3e 92 7d 01 3e
       0.2592463 0.20636305 0.2395696 0.12645558
000070 4a 76 27 3e 67 b7 25 3e b2 4f 0a 3e 3c 9b 47 3e
       0.16353717 0.16183244 0.13506964 0.19492811
000080 22 5a 44 3e d7 0f 8a 3e bf f3 46 3e 34 35 56 3e
       0.19175008 0.2696521 0.1942892 0.20918733
000090 ce 92 34 3e ee d7 31 3e 56 39 86 3e 7f f3 04 3e
       0.17634127 0.17367527 0.2621562 0.12983511
0000a0 63 f6 5a 3e 47 02 1b 3e 44 7c ee 3d d4 c4 4e 3e
       0.21383052 0.15137587 0.116447955 0.20192271
0000b0 44 99 17 3e e7 c9 1c 3e c8 4c 13 3e 66 f5 13 3e
       0.1480456 0.15311395 0.14384758 0.14449081
0000c0 03 53 20 3e f3 3d e2 3d 3d b1 fe 3d 18 f5 27 3e
       0.15656666 0.11046972 0.12436149 0.1640209
0000d0 14 99 42 3e 23 3d 11 3e ce c8 28 3e af c3 01 3e
       0.19003707 0.14183478 0.16482851 0.12672304
0000e0 b3 f6 f4 3d ef 35 05 3e 10 3c 25 3e 63 c6 f1 3d
       0.11961117 0.13008855 0.16136193 0.118054174
0000f0 2a bc 0c 3e 2e 72 5b 3e 02 8d bf 3d b5 f8 82 3e
       0.13743654 0.21430275 0.09353067 0.25580373
000100 6b e6 0b 3e d4 46 42 3e 2e ca 6e 3e 13 a4 f4 3d
       0.13662116 0.18972331 0.23319313 0.11945357
000110 f9 7b e6 3d 35 5c 1a 3e fb ea 16 3e 89 63 f8 3d
       0.11254115 0.15074237 0.14738075 0.1212836
000120 a8 00 10 3e 39 ca 4c 3e f0 3d 1c 3e e3 af 1a 3e
       0.1406275 0.19999017 0.15258002 0.15106158
000130 5c 46 c8 3e 39 29 3c 3e c9 65 16 3e 4f 31 8b 3e
       0.3911618 0.183751 0.14687265 0.27186057
000140 ab 7b 19 3e 10 b0 29 3e 91 6b 01 3e 1b d2 04 3e
       0.14988582 0.16571069 0.1263869 0.12970774
000150 de 29 d6 3d 7d e7 14 3e e2 86 4e 3e 8d 36 a3 3d
       0.10457204 0.14541431 0.20168641 0.07969389
000160 cc 04 88 3e dc 14 11 3e 0b d8 99 3d fa 56 ef 3d
       0.2656616 0.14168113 0.0751191 0.11686511
000170 a5 3e bf 3d 7a 4f b0 3e d2 ef dc 3e 10 4d 66 3e
       0.0933812 0.34435636 0.43151718 0.22490335
000180 eb 1f b4 3d 2f 34 48 3e ac 17 02 3e 15 e3 91 3d
       0.0879515 0.19551156 0.12704343 0.071233906
000190 d7 b9 e0 3d 51 39 4f 3e 1c 58 4c 3e de de 15 3e
       0.10972946 0.20236708 0.19955486 0.14635798
0001a0 67 36 f1 3d 21 7c 5e 3e 54 8e 03 3e 97 8e 27 3e
       0.117779545 0.21727039 0.12847263 0.16362987
0001b0 bf 91 03 3e c8 9f 04 3e 83 b4 38 3e 53 1a 6f 3e
       0.12848566 0.12951577 0.1803761 0.23349886
0001c0 c3 d1 fd 3d ae b4 19 3e 82 a7 87 3e 49 0a 1a 3e
       0.123935245 0.1501033 0.26494986 0.15042986
0001d0 02 d2 32 3e de 94 30 3e 5f c8 e8 3d 35 93 35 3e
       0.17462924 0.17244288 0.11366343 0.17731936
0001e0 75 1e c1 3d f8 d8 2a 3e ee 70 cd 3d 4b 5d 1e 3e
       0.09429637 0.1668433 0.10031305 0.15465276

bias f4 [124]
000000 d6 b1 c5 ba 2a 60 2f 3b 77 d9 c5 3b 12 1d 75 3b
       -0.0015082906 0.00267602 0.0060378867 0.003740136
000010 f6 cb ba 3a da 92 01 bb 59 5f b3 ba 9f 1a 07 bb
       0.0014251459 -0.0019771368 -0.0013685032 -0.0020615233
000020 aa db 81 3a 52 77 da ba 26 d4 c2 3b c1 d4 7c bb
       0.0009907384 -0.001666764 0.0059457 -0.003857896
000030 6c ff 93 39 60 2f 01 3b 38 d8 13 bb 54 81 37 3b
       0.0002822833 0.0019712076 -0.0022559296 0.002800067
000040 bf ff 94 3b 60 f7 32 3b bc cd c7 3b 5c 42 82 3b
       0.004547089 0.0027308092 0.0060975235 0.003975196
000050 35 2f cd b9 70 d4 c0 ba b6 85 1d bb a3 bd 94 ba
       -0.0003913582 -0.0014711749 -0.0024035997 -0.001134802
000060 dc d7 88 bb ae df ab 3a ac 12 62 3b 7c d5 73 ba
       -0.004176123 0.0013112926 0.0034495993 -0.0009301526
000070 fb 84 6a 3b c7 da 7b 3b a5 a2 33 ba 36 37 47 3a
       0.003578483 0.0038429962 -0.0006852544 0.00075994746
000080 9c 64 89 3b 7c 64 fb 39 0d 0e 3c bb 2e aa ab 3b
       0.004192902 0.00047949317 -0.0028694898 0.005238793
000090 69 98 eb ba 5a 6f c2 ba 89 db 05 3b 0e 56 8d bb
       -0.0017974499 -0.0014834211 0.0020425043 -0.004313237
0000a0 87 6f eb b9 8f 6a 16 bb 7c 4c 41 ba e0 b7 d2 3a
       -0.00044905787 -0.0022951697 -0.0007373763 0.0016076528
0000b0 55 63 f0 39 d8 c5 24 bb bd a2 32 bb 23 cd 08 3b
       0.00045850375 -0.0025142338 -0.0027257644 0.0020874224
0000c0 a1 de ae 3b b1 98 86 ba 6f 2c 79 bb 56 7e 8d 39
       0.005336598 -0.0010268894 -0.003802087 0.00026987743
0000d0 89 49 3e 3b 78 6d 88 3b 5b 0c 16 3b 45 d6 b7 ba
       0.002903553 0.0041634403 0.0022895548 -0.0014025649
0000e0 71 18 2c bb 4d ec 0a bb 0a ba 50 3b f4 67 ac 3a
       -0.0026259685 -0.0021197975 0.003184917 0.0013153539
0000f0 1f b2 e1 bb e0 6d df 3a 78 e1 28 bb 80 dc 1d 3b
       -0.0068876888 0.0017046295 -0.0025769155 0.0024087727
000100 ca d0 4f bb 42 44 b0 3a 25 fd 00 3c 97 57 61 3b
       -0.0031710141 0.0013448077 0.007872854 0.0034384483
000110 c2 56 07 ba 94 13 1f 3b aa 34 b9 3a 76 73 38 bb
       -0.0005162769 0.0024273144 0.0014130075 -0.0028144992
000120 c6 e2 b4 b9 e2 38 0a bb aa ac c7 39 08 4e 83 b8
       -0.00034501235 -0.0021091034 0.00038084883 -6.261101e-05
000130 54 33 bf 3b 96 01 45 3b 4d 21 94 3a d0 42 fc 39
       0.005834976 0.003006076 0.0011301428 0.00048114965
000140 29 67 11 bb 94 5c 47 bb bf f7 96 3b e9 59 17 3b
       -0.0022186732 -0.003042017 0.0046071704 0.0023094362
000150 b6 1f 86 bb 9a 82 ad 3a 7d c6 ad 3a e1 78 a2 b9
       -0.0040931357 0.0013237775 0.0013258007 -0.0003098911
000160 84 b6 c0 ba b4 f9 3c 3b f0 74 17 3b cd af f3 3a
       -0.0014702831 0.0028835358 0.0023110472 0.0018591821
000170 02 e9 e2 3a 7d 72 e9 b9 f5 68 09 3b 47 25 d2 3b
       0.0017311873 -0.00044526524 0.00209671 0.006413135
000180 5b 1f 36 bb 11 6b b9 ba 0a b0 19 3b 3f b7 f5 3a
       -0.0027789685 -0.0014146288 0.0023450875 0.0018746628
000190 80 26 c7 bb 52 82 2d 3c 05 72 5e 3b 6d 49 94 ba
       -0.0060775876 0.010590153 0.0033942473 -0.0011313386
0001a0 7c 7b f4 ba cc 2d ac 3b d7 bd 63 bb 92 5e cf 39
       -0.0018652524 0.005254483 -0.0034750605 0.00039552577
0001b0 a9 72 56 ba 3c f6 91 3b 09 c3 8d bb 80 f9 97 bb
       -0.0008180538 0.0044544023 -0.0043262285 -0.004637897
0001c0 4f fd 56 bb b7 12 57 bb 12 50 8b bb 46 7a 54 bb
       -0.0032804792 -0.0032817551 -0.0042514885 -0.0032421513
0001d0 50 a1 2e bb cf 4a dd 3b 34 57 eb 39 5d 69 74 ba
       -0.0026646443 0.0067533026 0.00044887664 -0.00093235617
0001e0 04 52 66 b8 f0 54 40 39 3b 7b 2a ba 90 f9 59 ba
       -5.4912656e-05 0.00018342189 -0.0006503348 -0.0008315081

running_mean f4 [124]
000000 ff 57 8a 42 b4 27 2f 46 b5 c0 c2 40 9a b2 b2 40
       69.17187 11209.926 6.086024 5.584302
000010 de a1 c8 42 8a 51 59 40 dc 47 45 40 b0 5e 60 40
       100.31615 3.3956017 3.082511 3.5057793
000020 ac 1c 3d 40 c2 99 ce 3f 45 74 d7 43 69 60 28 42
       2.954875 1.6140673 430.90836 42.09415
000030 f6 3b 0d 44 4e b4 83 40 cd 0d ce 3d e8 b5 8e 44
       564.9369 4.11576 0.10061226 1141.6846
000040 c8 ea b2 43 d1 d3 97 40 6e 08 bc 44 98 4d cf 3e
       357.83423 4.7446065 1504.2634 0.40488887
000050 d0 ed 69 3d b8 eb c8 3f de 5e c6 3e 96 98 37 40
       0.05711156 1.5696936 0.38744253 2.868688
000060 d3 4a 85 3f 31 5b 5f 40 fa 01 d0 40 cf 30 31 3e
       1.041346 3.489941 6.5002413 0.17303775
000070 ed 30 1f 3f 61 ee ea 3f 50 b4 da 3f 8e db e0 3f
       0.6218403 1.8353997 1.7086277 1.7567003
000080 d4 85 e9 43 30 75 31 40 ab 42 31 40 33 1d 1e 3e
       467.04553 2.7727776 2.769694 0.15440826
000090 27 8e bb 42 92 0f 3f 42 26 e1 a6 41 b1 5e 53 40
       93.77764 47.765205 20.859936 3.3026545
0000a0 96 5c 7f 41 d2 41 6e 40 34 bf 94 3c 91 93 5d 42
       15.960104 3.7227674 0.018157579 55.394108
0000b0 69 d2 1a 42 67 ed c4 41 87 7a f6 41 6e 78 00 42
       38.70548 24.61592 30.809828 32.117607
0000c0 41 43 3f 40 db 4e 9a 3f 72 34 af 3d c3 d5 d1 3e
       2.9884799 1.2055315 0.08554925 0.409834
0000d0 13 cc 26 3e 24 e9 30 3f 29 1a 4d 3e 57 23 92 3d
       0.16288786 0.69105744 0.2002951 0.07135647
0000e0 fd 1d 21 3d 4a 77 82 3d 2c 08 0d 3d 67 ce c5 3c
       0.03933524 0.06370409 0.03443162 0.024146272
0000f0 62 97 d0 3d 85 d5 8f 3c b4 73 da 3d 87 57 6f 3f
       0.10185124 0.017557869 0.106666 0.9349293
000100 af 81 82 3e a2 dc ac 3d 0d 87 b6 3d 77 0d 06 3d
       0.25489566 0.0844052 0.08912478 0.032727685
000110 dd 45 b6 3e 49 80 16 3e 57 f1 30 3e 50 96 27 3e
       0.35600176 0.14697374 0.17279564 0.16365933
000120 60 4f e7 3d 1c 5d 1f 3d f1 47 fd 3c 09 3b 14 3d
       0.112944365 0.038907155 0.030918093 0.036189113
000130 2f 22 73 3c 10 f9 9d 3c b2 61 a9 3c 04 97 7a 3c
       0.014839693 0.019283801 0.020676468 0.015294794
000140 65 f1 4c 3f b7 ac 0c 3e 22 e4 26 3d f0 8c 9e 3c
       0.8005584 0.1373776 0.04074491 0.019354314
000150 2b 7e ca 3d b3 bc 02 3d 6a 79 84 3d 50 1c 6b 3d
       0.09887346 0.03191824 0.064684704 0.057400048
000160 48 5a 9d 3c 28 fc ef 3b c1 72 26 3d 7b f2 1c 3e
       0.019208089 0.0073237605 0.04063678 0.15326874
000170 1e 53 79 3d 2f b7 e2 3c 67 91 48 3d a5 68 99 3d
       0.060870282 0.02767524 0.04896679 0.074906625
000180 b3 73 15 3d 91 4f 9f 3c 79 a3 58 3d 3f 53 0c 3d
       0.036487292 0.01944712 0.052890275 0.034259077
000190 78 01 6d 3d a6 84 6f 3c 00 b6 bd 3c 53 b6 a2 3c
       0.05786273 0.014619028 0.023158073 0.01986233
0001a0 d4 d0 1d 3f 1c 4c a9 3d ab e8 e1 3e bf 41 b3 3b
       0.6164677 0.0826647 0.44122824 0.005470484
0001b0 3e f1 e5 3e c4 5a 76 3c 4b 13 bb 3c 68 c1 6e 3f
       0.44910616 0.015036289 0.022836348 0.93263865
0001c0 b4 97 5e 3d 38 61 83 3e da e2 8f 3d 0a 9b aa 3c
       0.054343894 0.2566011 0.070256904 0.020825882
0001d0 37 89 37 3d a4 43 c8 3d 6a 37 ac 3c 48 3d 59 3f
       0.044808593 0.097785264 0.021022517 0.8485913
0001e0 83 13 ad 3c 14 9d 4c 3f 17 0e 23 3c bc 48 c9 3d
       0.021127468 0.7992718 0.00995209 0.09828326

running_var f4 [124]
000000 74 51 f6 43 f8 2e 5c 4d c7 66 ed 3f 83 7e 9a 3f
       492.63635 2.308791e+08 1.854699 1.2069858
000010 cd 14 db 46 a1 89 a5 3e 58 75 fd 3d 07 eb 32 3f
       28042.4 0.32331565 0.12375897 0.69889873
000020 f1 d7 88 3e b2 a1 8a 3f a0 2c 3e 48 0b 05 b2 46
       0.2672725 1.0830595 194738.5 22786.521
000030 8f b4 32 48 4e 0a 71 3f 0c 5e 10 3e 3d d2 05 48
       182994.23 0.9415635 0.14098376 137032.95
000040 7b 49 38 48 b6 13 f1 44 1f df 80 48 43 97 84 3e
       188709.92 1928.616 263928.97 0.25896654
000050 fb 62 64 3d 13 31 9c 3e a0 80 81 3e 73 d6 20 3f
       0.055758458 0.3050619 0.25293446 0.62827224
000060 c2 f7 32 3d 46 bd db 3e 45 92 23 40 28 bd 08 3f
       0.04369331 0.42917842 2.5558026 0.5341363
000070 fa 9c d1 3e 29 96 4f 40 af a0 5a 3f 2d 22 16 3f
       0.40940076 3.24354 0.85401434 0.586459
000080 8b 35 37 47 17 46 22 3f 4a 92 20 3f 4c af 88 3e
       46901.543 0.633882 0.6272322 0.2669624
000090 68 24 7b 46 9f d9 8f 45 f0 10 5e 45 68 98 54 44
       16073.102 4603.2026 3553.0586 850.38135
0000a0 0b 97 54 45 1e 6b 0e 45 1d 1a 80 3d e9 98 83 48
       3401.4402 2278.6948 0.06254981 269511.28
0000b0 55 83 68 44 c8 79 d2 43 dc 27 0a 44 c1 89 6c 43
       930.05206 420.95142 552.6228 236.5381
0000c0 2d c0 2c 40 df 4b 0b 3f 79 ff fd 3d c9 cc b2 3e
       2.6992295 0.54412645 0.12402243 0.34921864
0000d0 ae 18 8c 3e 29 7e 59 3e 2f c4 23 3e e9 ef 88 3d
       0.2736258 0.21239533 0.15992807 0.06686384
0000e0 83 12 2d 3d 44 48 ae 3d a7 bd 09 3d 64 5c c3 3c
       0.042253982 0.08509877 0.033628132 0.023847766
0000f0 d1 2a bb 3d 3f 82 8c 3c b5 24 38 3e aa 85 90 3d
       0.09139026 0.01715195 0.17982753 0.070567444
000100 ad 68 94 3e c0 62 20 3e a1 f4 a6 3d 65 b5 00 3d
       0.2898611 0.1566267 0.08152128 0.03142299
000110 b3 64 6c 3e 97 81 01 3e 9c ac 13 3e 20 71 0d 3e
       0.23085289 0.12647091 0.14421314 0.13812685
000120 32 0d cf 3d 1d 4a 1a 3d 91 f1 f4 3c 2c 2a 10 3d
       0.10109939 0.037668336 0.029900344 0.03519647
000130 db 53 6f 3c c3 73 9a 3c 8b b2 a7 3c 10 ca 75 3c
       0.014607395 0.018854028 0.020470878 0.015001789
000140 20 89 23 3e 8c de f1 3d 28 12 22 3d 09 95 9c 3c
       0.15970278 0.118100256 0.039568096 0.019114034
000150 a1 a1 b7 3d c5 a3 fc 3c a7 bd 75 3d b1 64 5d 3d
       0.08966375 0.03083981 0.05999532 0.054051105
000160 32 81 9a 3c db 54 ee 3b 83 2d 1f 3d 3d ea 04 3e
       0.018860433 0.007273299 0.038861763 0.1297998
000170 a7 86 6c 3d 4d 15 dd 3c dd fd 3d 3d 57 5d 8e 3d
       0.057745602 0.026987696 0.04638468 0.06951397
000180 57 a6 0f 3d c6 0c 9b 3c fd 34 4f 3d eb a3 06 3d
       0.035070743 0.01892699 0.050587643 0.032871168
000190 5e 86 60 3d 2b d9 6b 3c 69 16 ba 3c 8a 0f a1 3c
       0.054815643 0.014395039 0.022715764 0.01966073
0001a0 49 85 6b 3e 20 57 9a 3d 0b 8b 7e 3e f0 fa b1 3b
       0.23000063 0.07536149 0.24857728 0.0054315254
0001b0 9c 84 7f 3e 75 10 73 3c cf 63 b6 3c ef a9 80 3d
       0.2495293 0.014835467 0.02226439 0.06282412
0001c0 d3 4f 50 3d a6 80 43 3e aa e0 84 3d 1f ec a6 3c
       0.050857376 0.19092044 0.06488164 0.020376263
0001d0 af 92 2f 3d 4d 2a b2 3d 54 a0 a7 3c c5 f6 01 3e
       0.042864498 0.086994745 0.020462193 0.12691791
0001e0 a8 e4 ab 3c 47 8d 21 3e 5e 4c 21 3c 8d 0b b3 3d
       0.020983055 0.1577655 0.0098448675 0.087424375

weight f4 [60, 124]
000000 40 55 12 3d a3 28 a7 3c 3c 82 4d 3d 35 58 84 3b
       0.035725832 0.02040512 0.05017303 0.0040388354
000010 8f b3 21 bc 6a ed 8b 3c 18 6b 39 3c fa 6c e9 3c
       -0.00986947 0.017080981 0.011317037 0.028494347
000020 6c 6c 0b 3c 44 59 13 bc 28 92 fd 3c ab 16 81 3c
       0.0085097365 -0.008993451 0.030953482 0.01575788
000030 0a 4d 31 3d 84 01 80 bc f1 78 d4 bb 22 84 62 3b
       0.04328636 -0.015625723 -0.006484144 0.003456362
000040 9d cb 9b bc 03 8b 27 bc 6b 94 23 3c 78 fc 35 3c
       -0.019017989 -0.010226014 0.009984116 0.0111075565
000050 38 36 ed 38 62 29 c6 bb a1 09 5c bc 1d 2c 23 bc
       0.0001131114 -0.0060474137 -0.01343003 -0.009959248
000060 79 c8 9d bc 95 00 0e ba d1 ca 90 3c df 2b f2 3b
       -0.019260632 -0.0005416957 0.017674835 0.0073904837
000070 e6 3b b3 3c 0f a6 4d 3c 9c c1 7b 3c 30 94 b6 3c
       0.021879148 0.0125517985 0.015365984 0.022287458
000080 d3 68 fe 3c 7c 80 90 3c 37 ef be 3b 52 9c bc 3a
       0.031055843 0.017639391 0.0058268565 0.0014389849
000090 1c 30 08 3d af 0e 34 3d 6d 3e 19 bc 6e 94 9e bc
       0.033249006 0.043959316 -0.009353262 -0.019357886
0000a0 5b 84 97 3c 02 1d 0b bc 86 d2 9a 3c 30 6b 2a bc
       0.01849573 -0.008490803 0.018899214 -0.010401532
0000b0 98 17 91 bb e3 d1 c4 bc 31 13 a6 bc 21 aa 97 3c
       -0.0044278614 -0.024025863 -0.020272823 0.018513741
0000c0 a0 b4 4b 3c ff 01 84 3b 61 76 9b 3b de ed 02 3b
       0.012433201 0.0040285583 0.0047443365 0.0019978206
0000d0 41 1a a9 3c 97 7b 66 3b 00 8b c1 3c 23 43 c8 bc
       0.020642402 0.003516888 0.02362585 -0.024446076
0000e0 ca 95 e9 bb 05 f3 3b bc 7e 4d 96 3a 1e 88 25 bb
       -0.007128452 -0.011471515 0.0011467186 -0.0025258134
0000f0 75 40 c1 3b 62 bb 82 bc d1 42 58 bb 03 f7 7f 3b
       0.0058975765 -0.015958492 -0.003299881 0.0039057143
000100 d1 a2 8d bc 2e 00 0d bb 60 73 c2 bb f9 8d 7b bb
       -0.017289551 -0.0021515 -0.005934164 -0.0038384183
000110 1b f6 51 bc 58 a4 8e 3a 8d 00 58 bc 69 85 dc bb
       -0.012815024 0.0010882718 -0.013183725 -0.006729771
000120 11 23 ba 39 0b a1 27 3d 53 32 63 3c 01 16 a9 bc
       0.0003550281 0.040925067 0.013866979 -0.020640375
000130 b6 79 7f 39 36 40 1d 3c a7 80 14 b9 f4 c3 20 bc
       0.00024364036 0.009597829 -0.00014162307 -0.009812344
000140 1f bb 21 3b e2 20 91 bb d9 52 a0 3a 5e 73 79 39
       0.0024678183 -0.0044289688 0.0012231722 0.00023789468
000150 7b 03 92 3c 0e 6a 6d bb 39 01 7d bc ab d3 ca bb
       0.017823925 -0.0036226544 -0.015442186 -0.0061897836
000160 1d 1a ba bb 96 43 c1 3b e2 60 c2 bb 2c f6 db bb
       -0.0056793825 0.0058979494 -0.0059319595 -0.0067126956
000170 bc 8e 18 3c 6b 65 cd bb 0e 1f 09 3d b8 9e c7 3c
       0.009311374 -0.0062681935 0.03347688 0.024367675
000180 ff ae f4 bb 9d 68 aa bb d3 30 8c bb bc 9b 45 3c
       -0.00746715 -0.005200459 -0.0042782812 0.012061056
000190 07 77 c7 bc 1f 6a cf 3b 28 16 35 bc 28 8f 86 3c
       -0.024348749 0.0063297893 -0.011052646 0.016425684
0001a0 02 33 73 3b bc 11 ca bb 56 97 3f bc a9 8d cb 3a
       0.003710926 -0.006166665 -0.011693796 0.0015529889
0001b0 aa 50 a3 3c ca 96 24 3b c4 88 18 3c 94 14 73 3c
       0.019935925 0.0025114291 0.009309951 0.014836449
0001c0 18 e4 f8 3b 95 ba 7c 3c ae c6 f6 bb 02 4a da bb
       0.0075955503 0.015425344 -0.0075310087 -0.0066616544
0001d0 98 35 59 3c 07 27 4f bc a0 60 72 bb 90 de c9 3c
       0.013257407 -0.012643582 -0.0036983863 0.024642259
0001e0 3f c2 0b bc df c9 ac 3c 67 02 76 3c 74 56 68 bd
       -0.008530199 0.021092353 0.015015221 -0.056723073
0001f0 1e 6a 73 bc cf cf 69 3c 63 c1 f3 3a 11 a7 82 3d
       -0.014856843 0.014270737 0.0018597062 0.06379522
000200 c4 da 1d 3c 59 35 87 bc 0e 81 a8 bc 26 0f 69 bc
       0.009634677 -0.01650493 -0.02056935 -0.014224803
000210 09 7a 07 3c 47 11 f4 3c 16 27 83 3c 19 1d c9 bb
       0.008268842 0.029793395 0.016009849 -0.006137502
000220 bd 46 f1 3c 1b 54 9d 3b b9 5d e1 3c cd 3e 8c 3b
       0.029452676 0.004801286 0.02751051 0.0042799474
000230 0a 45 a3 3c 32 65 c7 3c 20 db 97 bc 85 4d e8 bb
       0.019930381 0.024340246 -0.018537104 -0.007089319
000240 42 77 1c 3d f4 35 4c bc 42 c9 17 bd 95 5f 8c bc
       0.03819967 -0.012464035 -0.03705717 -0.01713542
000250 32 1e 5e 3d bd 87 55 bd bc 63 0f 3d d2 37 39 bb
       0.054228015 -0.052131403 0.035007223 -0.0028262031
000260 04 f3 86 bc a0 76 e2 3b 11 c9 7a 3c 79 41 81 3c
       -0.0164733 0.006911114 0.015306727 0.01577829
000270 82 6e 41 bd 99 9d f5 3b ff 79 51 3d 29 7b f8 3c
       -0.04722453 0.0074955937 0.051141735 0.030332165
000280 13 cf 47 3c fd 61 e7 bc 61 11 99 ba de 5d 8e 3c
       0.012195366 -0.028244967 -0.0011678153 0.017378744
000290 ef 46 07 3c f4 0f f7 ba 6a 38 49 bb f4 58 19 3c
       0.008256658 -0.0018849359 -0.0030703791 0.009359587
0002a0 2e 33 21 3d a2 57 48 3c 49 a7 23 3d 67 ab 6d 3c
       0.03935545 0.012227925 0.039954457 0.014506198
0002b0 d3 f7 af bb 80 67 02 3d ba c5 f7 3c 84 89 7c bc
       -0.005370119 0.031836987 0.03024565 -0.015413646
0002c0 3f e1 21 3d 88 b4 4c 3d e1 24 18 bb a0 8f 38 3d
       0.039521452 0.049976856 -0.002321534 0.045058846
0002d0 d7 0d 17 bc 42 84 b9 bc 36 aa 87 3c 54 d9 8c bc
       -0.009219608 -0.022646073 0.016560655 -0.017193474
0002e0 13 90 60 3c e0 28 67 bd 84 b6 41 bc 41 b9 4b bd
       0.013706225 -0.056435466 -0.0118233 -0.04973722
0002f0 95 33 36 bd 13 b0 16 bd 36 54 31 3d 72 17 84 bc
       -0.044482786 -0.03678901 0.0432932 -0.01612446
000300 ae 94 96 3c 82 bd 2f bb 00 9e b2 3b 48 92 28 bc
       0.018381443 -0.0026815836 0.005450964 -0.010288782
000310 bc 1b cd bc 87 85 8e bc df 7f 7e bc 14 97 25 3a
       -0.025037639 -0.017397655 -0.0155334165 0.0006316763
000320 d2 ad 20 3d 7f fd b5 bc 2f 72 cb ba 59 5b 71 3d
       0.039228268 -0.022215603 -0.00155217 0.058925007
000330 a7 b7 dc 3c d8 5f 17 3d 95 46 04 bd f1 4d 56 3c
       0.026943041 0.036956638 -0.032293875 0.013080106
000340 32 4f ba 3c f3 f2 bf 3b 55 3c 30 3c 50 a6 9c bb
       0.022742841 0.005857819 0.010756572 -0.004780568
000350 d8 5c 6d bc 98 67 7b bb 60 1c 93 bc a2 a5 42 bc
       -0.014487468 -0.0038361307 -0.017957866 -0.01188031
000360 1c 0d 20 ba e2 48 f9 3c a5 cd 4d 3c 49 5a 96 3c
       -0.0006105469 0.030430261 0.0125612365 0.018353598
000370 15 bd 48 3c 5e 5e 5d 3c 08 33 c1 3b 85 83 11 3b
       0.012252112 0.013511268 0.005895976 0.0022203636
000380 9c 95 95 bb a9 cf 7a bc 86 6c 1a bc 3e a1 66 bc
       -0.004564954 -0.015308299 -0.009425288 -0.014076529
000390 95 c9 73 3c 21 cf 41 bc 79 92 44 3d 79 17 51 3c
       0.014879604 -0.011829169 0.04799125 0.012761944
0003a0 f2 12 20 3c c8 11 e5 bc 14 e2 dd 3c b0 56 71 3c
       0.009770142 -0.02796258 0.027085342 0.014730141
0003b0 2a ec ea 3b 46 72 62 bc ba af 4d 3d 36 78 e7 3c
       0.007169266 -0.01382119 0.050216414 0.028255563
0003c0 fe 0c 0b 3d 21 5b 94 3a 4a 04 2d 3c c9 bb e2 3c
       0.033947937 0.0011318662 0.010560105 0.027677434
0003d0 06 a6 07 bc f9 e5 84 3c 30 00 2e bd 64 c5 89 bc
       -0.008279329 0.01622294 -0.042480648 -0.016817756
0003e0 42 a7 ae 3b e5 f9 99 3b ae ac f3 bb b4 65 c9 bc
       0.0053299973 0.004698979 -0.0074363565 -0.024584629
0003f0 4c cc 1f bc 14 1b d5 bb b9 51 09 3b b3 7d 57 bc
       -0.009753298 -0.006503472 0.0020953252 -0.013152528

bias f4 [60]
000000 b1 6b 2c 3c fe 30 ef 3b 07 08 4d 3b ab cc 4c bc
       0.0105237225 0.0072995415 0.0031285302 -0.0124999685
000010 e6 41 a3 b9 a1 ca dd 3b bd b7 5d 3c 04 16 93 3c
       -0.0003113888 0.00676854 0.013532576 0.017954834
000020 ff fb 01 3c 0a d0 47 3c a4 83 26 bc fa 23 6f 3c
       0.007933616 0.0121955965 -0.0101632215 0.01459598
000030 8e 86 8d 3a e8 80 be ba b8 f5 38 bc f1 69 4f 3c
       0.0010797547 -0.0014534267 -0.011289053 0.012659536
000040 13 c2 d1 bb 08 91 24 bc 61 bf c3 bb ad 61 f4 ba
       -0.0064013093 -0.010044344 -0.005973742 -0.0018644832
000050 31 5d 86 bc da a0 b7 bb 0e e4 75 3c 9b 7e 13 bc
       -0.016401859 -0.005603892 0.015007986 -0.009002353
000060 4e 01 15 bc c6 54 ad 3b f9 24 ec 3b 11 67 e2 bb
       -0.009094549 0.005289647 0.007206556 -0.006909259
000070 96 91 a2 3c 05 e2 e8 bb 86 36 f8 3b 2c 70 0e bd
       0.019844811 -0.0071070218 0.007574859 -0.034774944
000080 44 c7 7c 3c 17 00 b5 bc a6 d3 9b bb c8 91 80 bc
       0.015428368 -0.02209477 -0.004755455 -0.015694514
000090 15 2a 3f 3c 68 1b 71 bc ae 5c ee bc f8 30 3a bc
       0.011667748 -0.014716007 -0.029096927 -0.011364214
0000a0 38 12 b3 bc 29 f1 e2 bb 93 62 0f 3c 11 e1 c8 ba
       -0.021859273 -0.006925721 0.008751529 -0.0015325864
0000b0 09 7d 8c 3b 75 ac 5d 3c d0 1a 64 bc 01 ef cb bc
       0.0042873663 0.0135298865 -0.013922408 -0.02489424
0000c0 3e 20 03 3d 8b a4 d2 3b 31 2d e8 bb 79 3f 50 bc
       0.03201317 0.0064283065 -0.0070854654 -0.012710446
0000d0 b6 7b 1a bc 34 77 71 3c 5a b2 82 bb b5 e7 59 bc
       -0.009428909 0.014737893 -0.0039885463 -0.013299872
0000e0 71 30 96 bb 6c 47 cb bb c6 dc b2 bc d8 ca 0d 3b
       -0.0045834114 -0.0062035825 -0.021833789 0.0021635797

weight f4 [60]
000000 51 20 92 3e f5 c2 a6 3e da 0f 51 3e b6 7b 30 3e
       0.2854028 0.32570615 0.20416203 0.17234692
000010 e2 e0 68 3e 16 6d 59 3e f7 02 59 3e ee 12 b0 3e
       0.22742036 0.21233019 0.21192537 0.34389442
000020 04 9e 5a 3e 62 7c 7b 3e 07 19 8f 3e 10 8c a3 3e
       0.2134934 0.24559167 0.27948782 0.31942797
000030 49 8f 9c 3e ef 9b 90 3e 9b d8 4d 3e 3d 25 80 3e
       0.30578068 0.28243968 0.2010216 0.2502841
000040 11 b3 5b 3e b8 bb b2 3e 7e 44 3d 3e 17 d3 7d 3e
       0.21455027 0.34908843 0.18483159 0.24787556
000050 9f e6 60 3e 83 f1 92 3e 93 51 b7 3e 74 89 38 3e
       0.21962975 0.28699884 0.35804424 0.18021184
000060 56 22 7c 3e 7b 82 af 3e 28 7c 65 3e 73 3d 56 3e
       0.24622473 0.34279236 0.22410643 0.20921879
000070 c3 7e a0 3e bd 7b 3b 3e 38 8f 7f 3e 8c f2 b1 3e
       0.31346712 0.18308921 0.24956977 0.3475536
000080 75 aa 94 3e b0 63 54 3e 4f c3 2d 3e 68 9e f4 3e
       0.29036298 0.20741153 0.16969036 0.47777104
000090 0f 92 50 3e 88 06 89 3e d2 b6 90 3e cb b2 6f 3e
       0.20368217 0.26762795 0.2826448 0.23408048
0000a0 d9 98 b2 3e 16 e7 90 3e 5a 1b 95 3e 1f 8f 48 3e
       0.34882239 0.28301305 0.2912243 0.19585846
0000b0 5f 74 a3 3e b5 a7 ba 3e 06 02 8a 3e ed 5a 95 3e
       0.31924722 0.36456075 0.2695467 0.29170933
0000c0 08 a2 c6 3e 5b c3 84 3e 0e f2 41 3e 90 8f 6c 3e
       0.38795495 0.25930294 0.18939993 0.2310164
0000d0 9d 00 61 3e ad 4d 3f 3e 95 ac b7 3e 8d 51 64 3e
       0.2197289 0.18681975 0.35873857 0.22296734
0000e0 e3 e9 8c 3e b2 65 9e 3e 87 a8 a4 3e 6b 29 89 3e
       0.2752219 0.30936962 0.32159826 0.26789412

bias f4 [60]
000000 8f 2d b8 3a 2e dd ac bb 81 ce e4 ba 3b 44 85 39
       0.0014051663 -0.00527539 -0.0017456562 0.00025418572
000010 46 db 0d bb 23 f1 1c ba f4 fc 8c 3b 5d da 39 3b
       -0.002164559 -0.000598686 0.0043026153 0.0028358914
000020 34 db 9e 3b 88 c2 f7 b9 91 4b ad bb 70 a8 24 bb
       0.0048479084 -0.00047256448 -0.0052885492 -0.002512481
000030 6c 7c a4 b9 96 2c 8c 3b af 93 41 ba e0 c0 49 3a
       -0.0003137322 0.004277776 -0.00073843723 0.0007696282
000040 0d 90 03 3b 67 82 be ba f5 0e 02 ba 62 54 8e bb
       0.0020074875 -0.0014534713 -0.0004961335 -0.0043435553
000050 99 e1 18 3b ad 51 85 ba 21 97 77 bb df 3c ee b9
       0.0023327826 -0.0010171436 -0.0037779289 -0.0004544025
000060 e6 74 1b bb ef fc a5 ba ba c0 8c 3b d8 59 27 bb
       -0.00237208 -0.0012663881 0.0042954357 -0.0025535729
000070 c8 58 c3 bb 51 01 33 bb 03 34 0e bb 5a 32 c2 ba
       -0.0059615113 -0.0027314017 -0.0021698482 -0.0014816031
000080 dd aa 8e 3a ac 5a 5f ba 33 c0 b4 39 88 45 7e ba
       0.0010884661 -0.0008520286 0.00034475475 -0.0009699692
000090 75 10 39 3b 8a 7d ad bb 3f 93 2b 3b 7a 9a a4 3b
       0.002823857 -0.0052945064 0.0026180295 0.005023298
0000a0 06 7f b9 3a 89 8e 8c bb 1b 3f dc 39 b4 f1 8f bb
       0.0014152236 -0.0042894525 0.00042008687 -0.004392827
0000b0 6a 43 6c bb 83 5b 47 bb dc e7 14 3b f7 75 67 39
       -0.0036050924 -0.0030419535 0.0022721207 0.00022073822
0000c0 76 67 f0 3a 16 39 3b ba 0e d6 4e 3b fd 63 67 ba
       0.0018341381 -0.00071419904 0.0031560692 -0.000882685
0000d0 0a 0d 0b 3c 3b 06 7e ba e3 53 70 bb 37 76 3c 3b
       0.0084869955 -0.00096902595 -0.0036671094 0.0028756985
0000e0 1a 91 9b 3b d0 5e 78 b8 3a 0c ca 3a c3 1b c8 bb
       0.004747522 -5.921611e-05 0.0015415021 -0.006106825

running_mean f4 [60]
000000 17 2b c0 3b 7f 37 8a 3b 39 fc 22 3b 5f a2 c5 bb
       0.0058645117 0.0042180414 0.0024869575 -0.006031319
000010 88 ad d7 b8 73 e8 87 3b 24 ce 07 3c 94 53 4e 3c
       -0.000102843216 0.004147583 0.008288894 0.012593169
000020 d4 d4 db 3b 40 ea e3 3b 7a b7 c7 ba 22 55 26 3c
       0.0067087207 0.006955415 -0.0015237175 0.010152133
000030 b0 a3 db 3a 68 60 28 3a 15 97 b7 bb 4c 05 03 3c
       0.0016757157 0.0006423057 -0.005602727 0.007996868
000040 6b 4a 43 bb 19 98 1a bb 32 25 18 bb b5 45 c6 3a
       -0.0029798995 -0.0023589192 -0.002321553 0.0015126975
000050 e1 4d d4 bb 10 55 bd ba 62 05 3b 3c b2 42 b1 bb
       -0.0064790105 -0.0014444906 0.011414858 -0.005409562
000060 f0 78 7c bb 09 95 f7 3b bf 5c f0 3a de fa 80 bb
       -0.0038524233 0.007555608 0.0018338187 -0.0039361557
000070 0f a4 5b 3c 3c 1f 84 ba 39 21 a6 3b 8d 53 4b bc
       0.013405814 -0.0010080109 0.0050698784 -0.012410057
000080 2a 97 06 3c b2 35 20 bc 2d f6 44 bb df 70 b7 b9
       0.008214751 -0.009778427 -0.0030053959 -0.00034988575
000090 f7 9d cb 3b 3e 73 91 bb 06 41 47 bc c2 90 98 bb
       0.0062138992 -0.004438787 -0.012161499 -0.0046559284
0000a0 e0 b8 16 bc 20 fe 38 bb 39 ca f6 3b ea a0 1d 3a
       -0.009199351 -0.0028227642 0.007531431 0.0006013053
0000b0 e2 ff 26 3b 6e 70 13 3c d7 60 26 bb 7b 5f 2b bc
       0.0025482108 0.008998973 -0.002538731 -0.010459776
0000c0 eb 8b b5 3c de 2d 62 3b ef f6 48 bb df 6a da bb
       0.022161445 0.0034512202 -0.0030664762 -0.006665572
0000d0 cc 9d b0 bb 0c fd 0b 3c 3e 76 6d b9 cd f8 ce bb
       -0.0053899046 0.008544218 -0.0002264613 -0.0063162805
0000e0 99 08 27 3b df a5 eb b9 90 4a 03 bc 00 ce a9 3a
       0.0025487302 -0.00044946276 -0.008013383 0.001295507

running_var f4 [60]
000000 46 c7 0d 3b 76 34 19 3b 76 bb f2 3a c6 ef 54 3a
       0.0021633669 0.0023377216 0.0018519002 0.0008122887
000010 d0 41 c5 3a 93 69 77 3a 69 cd a7 3a f1 ee 8b 3b
       0.0015049521 0.0009438034 0.0012802306 0.0042704274
000020 90 8a 01 3b 3e 0a f6 3a da 3d 1b 3b 8c ed 98 3b
       0.0019766428 0.0018771363 0.002368799 0.0046669897
000030 48 f9 73 3b 54 b7 a3 3a ac 35 6e 3a 99 23 a0 3a
       0.003722744 0.0012490549 0.0009086977 0.001221764
000040 4b 3d 6d 3a dd fd 51 3b 04 1c 82 3a 7e d8 98 3a
       0.0009049966 0.0032042183 0.0009926562 0.0011661199
000050 80 ab c2 3a 7d da f9 3a de f6 ab 3b b4 eb 31 3a
       0.0014852136 0.0019062307 0.0052479347 0.00067871367
000060 e4 fd af 3a 29 8b 67 3b 57 50 9d 3a 94 57 ac 3a
       0.0013427106 0.0035330749 0.0012002093 0.0013148659
000070 fb 15 81 3b 29 fc 5f 3a 50 22 c6 3a 83 7c 67 3b
       0.003939388 0.00085443497 0.0015116427 0.0035322018
000080 76 e0 4e 3b 1b dc 58 3a 85 e5 7b 3a bd b1 f3 3b
       0.0031566895 0.00082725444 0.0009609091 0.0074369595
000090 f0 0a 9a 3a a0 8a 13 3b f5 0a 17 3b 73 1b a5 3a
       0.0011752527 0.0022513047 0.0023047302 0.0012596681
0000a0 a2 4f 16 3b 31 f7 ac 3a f8 ff 4b 3b ee 1f 74 3a
       0.0022935648 0.0013196227 0.003112791 0.0009312619
0000b0 25 f7 0b 3b 3e 0e a1 3b af 43 30 3a 80 89 3c 3b
       0.0021357026 0.004915028 0.0006723953 0.002876848
0000c0 cb 39 bb 3b 36 11 d1 3a 09 da 16 3a 80 65 68 3a
       0.0057136766 0.0015950564 0.00057545357 0.00088652223
0000d0 a7 ad 92 3a 86 aa 04 3a 64 b9 a2 3b 3a 32 84 3a
       0.0011190668 0.00050608104 0.004965948 0.001008577
0000e0 f1 58 5b 3b c3 3e 37 3b 22 37 05 3b ba e9 f2 3a
       0.0033469761 0.0027960993 0.0020327051 0.0018532791

weight f4 [75, 60]
000000 ca cf 9e bc 10 75 e9 bb 1b c3 29 3d 18 ea 77 3c
       -0.01938619 -0.0071245506 0.041445833 0.015131496
000010 b9 a3 25 bc 77 de e4 bc db 7a 11 bc 1d 9c 80 bb
       -0.010109835 -0.02793811 -0.008879389 -0.00392486
000020 31 36 9f 3c e5 26 65 bb 8a 86 9a 3c 1f f7 4e bc
       0.01943502 -0.003496581 0.018862981 -0.01263216
000030 3c f8 75 3d 38 f2 53 bc 3f 37 ac bc b7 be df 3c
       0.060051188 -0.012936167 -0.021022437 0.02731262
000040 c1 12 7b 3c 42 c1 08 bb e8 64 22 bc 1b d8 75 3c
       0.0153242955 -0.0020867144 -0.009911753 0.015005137
000050 30 fc 08 bb a1 56 77 bc 74 17 8e 3d 57 d8 a9 bc
       -0.0020902269 -0.015096338 0.06938067 -0.020733042
000060 d1 2b d1 3c 60 63 3b bb 15 92 c1 3c 5e 08 24 3d
       0.025533589 -0.0028593168 0.023629228 0.040047042
000070 e0 b8 9a 3c dd 24 ed 3a 4e 09 04 ba af 90 86 bc
       0.018886983 0.0018092651 -0.0005036787 -0.016426412
000080 d2 db 2c 3d ab 97 61 3c 74 1a 3f 3c 36 40 57 3d
       0.042201824 0.013769071 0.011664022 0.05255147
000090 68 a1 67 bc 3d d8 81 bb a1 11 dd bc cc b4 b7 bc
       -0.014137603 -0.003962545 -0.026985945 -0.022425078
0000a0 95 bc c1 bc c2 a7 46 3c b0 8f 67 bc d3 6b cd 3c
       -0.023649493 0.0121249575 -0.014133379 0.025075829
0000b0 76 22 97 bc c7 ce 27 bc 3d 70 e4 bc 25 c6 1c bc
       -0.01844905 -0.010242171 -0.02788555 -0.009568726
0000c0 25 be 88 bc 22 93 96 bc 04 0d 8b bc a5 d5 17 bd
       -0.01669223 -0.018380705 -0.01697398 -0.03706898
0000d0 29 a1 fd bb 4c 66 e4 39 f4 a7 bc 3c 91 d6 80 3a
       -0.007740159 0.00043563766 0.023029305 0.0009829571
0000e0 7f a4 0c 3c 78 45 3e 3d d8 81 bf bb 0a 04 86 bb
       0.008584141 0.04645297 -0.005844336 -0.004089837
0000f0 47 62 39 3d 47 d1 21 3d 47 4b c6 bc d7 6f b3 3c
       0.04525974 0.039506223 -0.024205817 0.021903915
000100 19 32 a9 3b 25 c2 83 bc a9 11 52 3c 16 7b 1d 3d
       0.005163443 -0.016083786 0.012821593 0.038447462
000110 f7 ac 68 3c 84 02 e4 bc 69 1c d8 3c e7 d6 0d bc
       0.014201394 -0.02783323 0.026380735 -0.008657194
000120 45 58 40 bc 52 8e 9b 3b 03 16 63 3c f3 94 9e bc
       -0.011739795 0.0047471905 0.0138602285 -0.019358134
000130 aa e1 38 bc 99 d7 53 bc db 0a dd 3b 0d 7c e8 3a
       -0.011284271 -0.01292982 0.006745679 0.0017737165
000140 7d 92 41 bd 79 88 e2 3c 06 78 5b bc 22 05 00 3d
       -0.047258843 0.027652966 -0.013395315 0.031254895
000150 7e 0d b5 bb 43 e0 02 bd 55 43 d3 bc ed 11 a7 bc
       -0.00552529 -0.031952154 -0.025788942 -0.02039429
000160 59 a5 a6 3b a8 0c 96 bc 14 28 a3 3c 37 28 2e 3b
       0.005085629 -0.018316582 0.019916572 0.0026574263
000170 61 58 27 bc 8f fa be 3c ce 35 87 bc 3e 9b 27 bb
       -0.010213942 0.023312835 -0.016505148 -0.002557471
000180 32 8b 11 bc 41 d6 f7 3c cc ec de bb df 39 23 3d
       -0.008883284 0.030253531 -0.0068031307 0.039850112
000190 9d 75 2c bc 78 c0 1a bc a2 46 7c 3d ed 6f e0 bc
       -0.010526088 -0.009445302 0.0615908 -0.02739712
0001a0 24 05 18 3d 80 95 43 3d 92 a8 37 3c 72 80 65 3b
       0.037114277 0.047749996 0.011209624 0.0035019186
0001b0 a6 9e 95 3d 8e c6 b9 bc fc 4b 07 bc 97 e3 1c bd
       0.073056504 -0.022677686 -0.008257862 -0.038302984
0001c0 65 01 c2 bb 3d 25 db 3b f1 f9 cf bc 1e 9f 07 3d
       -0.0059205764 0.0066877888 -0.025387736 0.03311073
0001d0 24 73 e0 ba 3d 74 27 bd 8e 85 00 3c 40 38 05 bc
       -0.0017124158 -0.040882338 0.007844342 -0.008131087
0001e0 e5 a1 1c bc 80 aa 3b bc 87 d5 c5 3c fb 54 a1 3b
       -0.009560083 -0.011454225 0.02414967 0.0049234605
0001f0 87 6c fa 3c 0d 4c 17 bc f6 93 5f 3c 50 14 e5 3b
       0.030569328 -0.0092344405 0.0136461165 0.006990947
000200 f2 97 04 bc e6 43 f3 bb fc 9f e1 bc 58 4c 46 bb
       -0.008092867 -0.0074238656 -0.027542107 -0.0030257907
000210 5b 20 ce bb 1e 3f 88 3c 51 0a 49 3b 68 9b 1e 3d
       -0.006290478 0.01663166 0.0030676315 0.038722426
000220 fd 68 98 3b fd 2a ea bc b0 fd 49 bc dd 9b 02 bc
       0.0046511875 -0.028584952 -0.01232855 -0.007971731
000230 64 26 60 3c 92 cf 92 3c a8 2d 19 3c eb bd e4 bc
       0.013681028 0.017921243 0.009349264 -0.027922591
000240 94 09 0d 3b df 48 03 3c 9c b8 ed 3c a4 c5 95 bc
       0.0021520602 0.008012979 0.029018693 -0.018282719
000250 34 25 a0 bc 64 bf 0c 3d 9b 89 04 bd b7 c8 ef 39
       -0.01954899 0.03436221 -0.032357793 0.00045735177
000260 18 af ad bc 61 9a ad 3c 86 7c 1f 3c d0 37 81 bd
       -0.021201655 0.021191778 0.009734279 -0.063094735
000270 52 c6 be bc 2d be 93 3c 67 5c be ba 73 2a 2d 3c
       -0.023287926 0.018035019 -0.0014523388 0.010569203
000280 2c 78 b9 3c ca 49 4e 3d 35 54 8b bc 85 34 46 3c
       0.02264031 0.05036334 -0.017007926 0.012097483
000290 9e cd 43 3d 1a ab 29 3c a4 51 83 3d 0c 67 62 bc
       0.047803514 0.010355735 0.06412056 -0.013818514
0002a0 f4 96 04 bd 9b b2 79 bc 1a a3 05 bc a1 56 d1 3c
       -0.032370523 -0.015240337 -0.008156562 0.025554003
0002b0 48 54 cb 3c 8f 7b e8 bb 7d 65 22 bd f1 7b 82 bc
       0.024820462 -0.0070948075 -0.039647568 -0.01592824
0002c0 71 71 cf bc b3 3a 14 bc d7 59 94 bb 50 51 d4 3c
       -0.025322648 -0.009047198 -0.0045273113 0.02591768
0002d0 c3 fa d6 3c 7e 7b 83 bb 56 a4 55 bb a5 74 04 3c
       0.02624262 -0.004012524 -0.0032599173 0.008084451
0002e0 45 b0 ab 3c 6d ef 69 bb c4 fe b9 bb 53 ac 42 3d
       0.020958075 -0.0035695687 -0.0056761224 0.047527622
0002f0 d3 47 05 3c 7c 74 6e bc dc be e3 3c f7 af a5 3a
       0.0081348 -0.014554139 0.02780097 0.0012640943
000300 35 61 c5 bb 69 27 d7 3b b8 08 c1 bc 4c 2b 82 bc
       -0.006023551 0.0065659774 -0.023563728 -0.015889786
000310 b4 39 c8 bb ce f0 1f 3b 97 c2 cb 3a 4f 26 91 3c
       -0.0061103944 0.0024405005 0.0015545663 0.017718462
000320 e6 65 07 3c e2 2a ee 3b 79 9f d2 bb a2 98 8c 3c
       0.008264041 0.0072682956 -0.006427702 0.017162625
000330 88 06 9d 3b ec 7c e0 3c 2a e0 fd 3a 0d 97 e1 bb
       0.0047920384 0.027403317 0.0019369174 -0.0068844617
000340 57 2e 0b bc 3d e5 10 bc 32 b5 15 3d b1 98 7a 3c
       -0.008494935 -0.008843717 0.036549754 0.0152951935
000350 d0 4b 0a 3b 28 07 ab 3b 19 d9 05 3b c1 06 e9 ba
       0.0021102317 0.005219359 0.002042359 -0.0017778502
000360 ae d3 ab ba dd 6d 5b bb 80 9b 2c 3c f1 28 61 3c
       -0.001310935 -0.0033482232 0.010535121 0.013742671
000370 f4 fc d3 b9 a9 12 91 bc 7d ad 0b 3d 26 85 34 bc
       -0.0004043352 -0.017709093 0.034101 -0.011018073
000380 ae 7c 05 bc 8b 3e 69 3c 47 6d 63 bc 8b f0 ae bb
       -0.008147402 0.014236103 -0.013881034 -0.0053387336
000390 95 45 84 bc 17 63 0f bc ea d5 5c bc d7 71 92 b9
       -0.01614646 -0.008751652 -0.013478735 -0.00027932107
0003a0 fc 63 d7 3c 74 86 01 bc 47 90 8c ba 0a f8 35 3c
       0.026292793 -0.007905591 -0.001072415 0.0111065
0003b0 9c 79 8e 39 ac 7e 56 bc 02 d5 0e bd 60 39 5c 3c
       0.00027174957 -0.013091724 -0.03487111 0.013441414
0003c0 8b 9b 3b 3b 16 12 7c bb 7d 32 9e bb be 51 87 3a
       0.0028626646 -0.0038462928 -0.004827796 0.0010324044
0003d0 19 d5 c7 bc da 7a 83 bc 93 0b 3b 3c a5 7a ff bc
       -0.024393605 -0.016049791 0.011416334 -0.031186411
0003e0 02 93 df 3c 85 7b 3a 3c e9 10 2d bd 7f 37 74 3b
       0.027291778 0.011381988 -0.042252455 0.0037264524
0003f0 5a 53 aa bb f8 e9 d3 3b 1c 48 a9 bc 4e 69 a2 3a
       -0.0051979246 0.0064671002 -0.020664267 0.0012391002

bias f4 [75]
000000 46 0f 61 bb 83 27 79 bc 46 87 e3 3b c7 68 f8 3b
       -0.003434138 -0.015207174 0.006943616 0.00758085
000010 42 d8 39 3c 24 3f 0c bd a6 7b b7 3c 7e b9 d3 3b
       0.011343064 -0.034239903 0.022397827 0.0064613214
000020 2f b8 88 3c eb 7c 5c 3b 69 60 6e 3c ef a8 a0 3b
       0.016689388 0.0033643793 0.014549353 0.004902951
000030 f8 e3 fb 3b 63 b2 79 3c 2c 3f 95 3a 5a d7 18 3c
       0.007687088 0.015240285 0.0011386625 0.009328688
000040 ba 1d 7a 3c 41 10 3b bb 7b 25 62 3c 17 58 b0 ba
       0.015265876 -0.0028543624 0.013802881 -0.0013453987
000050 e8 fd 47 3c f6 3c 22 3b ce 3a a9 bc 6a 7c 8a bc
       0.012206532 0.0024755574 -0.020657923 -0.016905028
000060 5f 5c f4 bc 81 55 61 3c d0 e2 2a bc df 82 65 bb
       -0.029829202 0.013753296 -0.010430053 -0.0035020632
000070 13 10 23 3a e0 15 3c bc a8 23 70 3b 6c 7a 08 3c
       0.0006220352 -0.011479825 0.0036642347 0.008329969
000080 da 32 bb bb f2 74 6d ba 6e ed ce 3b 29 f6 14 bb
       -0.005712849 -0.0009058259 0.006314925 -0.002272973
000090 f4 9e 34 ba eb c9 14 bb 11 e3 9d bb 0e 2c ce 3c
       -0.0006890141 -0.002270336 -0.004818328 0.025167491
0000a0 8f a2 3f bc 01 f7 b3 3b 29 ec 22 3c 3d 18 95 bb
       -0.011696472 0.0054920916 0.009944 -0.0045500086
0000b0 a1 0d 8d 3b f1 42 e2 b8 d1 bd 84 bc 24 2e a4 39
       0.004304603 -0.000107889886 -0.016203793 0.00031314895
0000c0 9d bb 50 bc 45 73 4c 3c af ea 6e bc e2 5e 2b 3b
       -0.012740043 0.012478654 -0.01458232 0.0026149084
0000d0 5e 41 ba 3b cc f6 9e bc a8 fa 79 3c b6 51 92 3a
       0.005684062 -0.019404791 0.015257515 0.0011163268
0000e0 f8 b0 c5 bb b4 4a bb ba d4 f0 60 bc 9b bf c5 bb
       -0.006033059 -0.0014289231 -0.013729293 -0.006034804
0000f0 58 44 3c bc a4 51 8c 3a 21 3c ae bb bb e6 15 bc
       -0.011490904 0.0010705483 -0.0053172265 -0.009149249
000100 43 8c ac bc 9c 1b b2 bb e0 d2 0a 3b 92 ee d3 bb
       -0.021062976 -0.00543542 0.002118282 -0.006467649
000110 f8 e8 4f 3c a6 90 88 3b 42 d6 e4 b9 64 16 82 3c
       0.012689821 0.004167634 -0.00043647183 0.015879817
000120 6c ef e7 bb 18 7b 13 bb 65 72 5f bc
       -0.007078102 -0.002250379 -0.013638114

weight f4 [75]
000000 bc 87 9a 3e f7 54 88 3e 57 20 2d 3e 84 4f 7a 3e
       0.30181682 0.26627323 0.16906868 0.24444395
000010 07 e4 28 3e 06 f2 a5 3e 9c 96 8e 3e 0f 56 7f 3e
       0.16493236 0.32411212 0.2784928 0.24935172
000020 23 04 27 3e 90 d8 82 3e ef 41 87 3e 7f b8 7d 3e
       0.16310172 0.2555585 0.2641749 0.24777411
000030 c4 bd 7e 3e 10 3c 3a 3e 97 25 46 3e 1f 3f 68 3e
       0.24877077 0.18186975 0.19350277 0.22680329
000040 32 57 8a 3e c0 52 79 3e 3c b1 8d 3e 45 4b 77 3e
       0.2701965 0.24347973 0.27674282 0.24149807
000050 43 54 90 3e a9 63 73 3e 4c a9 8f 3e 34 32 5b 3e
       0.28189287 0.23768486 0.2805885 0.2140587
000060 11 1b 87 3e 2d 9c 12 3e 3b 46 a1 3e 7c d2 66 3e
       0.26387838 0.14317389 0.31498894 0.22541231
000070 e4 fa 99 3e a1 79 53 3e e2 85 25 3e 7f 01 8e 3e
       0.30074227 0.20651866 0.16164353 0.27735516
000080 15 dd 8c 3e 3d 63 78 3e ed 78 71 3e e3 1d 9a 3e
       0.27512422 0.24256606 0.23581286 0.30100927
000090 c0 95 91 3e db 81 68 3e 28 3e a0 3e f3 77 6b 3e
       0.28434563 0.22705786 0.3129742 0.22994976
0000a0 23 69 9d 3e 97 7d 86 3e 45 42 80 3e 21 46 52 3e
       0.30744275 0.26267692 0.2505056 0.20534565
0000b0 0f 3e 5d 3e 1c d7 85 3e ea 41 9b 3e 28 65 5a 3e
       0.21605705 0.26140678 0.30323726 0.2132765
0000c0 b3 5a 80 3e bc ef 73 3e c0 f7 80 3e e5 83 51 3e
       0.25069198 0.2382192 0.25189018 0.2046047
0000d0 f4 84 4c 3e dc a5 7c 3e d9 b8 99 3e 3f 17 ac 3e
       0.19972593 0.24672645 0.3002384 0.33611485
0000e0 f6 fb 77 3e 97 91 24 3e c9 76 c2 3e f7 af 89 3e
       0.24217209 0.16071163 0.3798125 0.26892063
0000f0 00 88 80 3e 4b a5 87 3e 8c 6b 8b 3e 94 21 8a 3e
       0.2510376 0.26493296 0.2723049 0.26978743
000100 2d f8 80 3e ed 62 7f 3e 3b ed 63 3e 01 a6 55 3e
       0.25189343 0.24940081 0.22258465 0.20864107
000110 12 fe 79 3e bf 26 7a 3e 4d 95 71 3e d8 6c 6e 3e
       0.24413326 0.24428843 0.2359211 0.23283708
000120 db 4e 7e 3e cb ca 81 3e 42 46 af 3e
       0.24834768 0.2535003 0.3423329

bias f4 [75]
000000 b3 13 82 bc 1a 8a 8e bc b0 2e 0b 3c 18 c6 ac ba
       -0.015878534 -0.017399836 0.008495018 -0.0013181595
000010 d7 77 87 3c a6 38 e6 bb 42 94 bb bc 2a 9b 82 bc
       0.016536636 -0.007025796 -0.022897843 -0.015943129
000020 2c 2b d4 ba 4b f3 c6 bb 48 fa 63 ba 71 3e 2b bc
       -0.0016187183 -0.0060714833 -0.00086966576 -0.010451899
000030 d1 0c c8 bb 6f 59 13 3a 40 a1 a6 3b 73 d6 b5 3b
       -0.0061050435 0.00056209316 0.0050851405 0.005549246
000040 0f 66 87 bc 75 48 eb ba 67 19 f2 3a 6b 58 86 bb
       -0.016528158 -0.0017950671 0.0018470705 -0.0040998957
000050 34 db 94 bb 9a dd 64 3b 53 ff 8e bc 25 2b 5e bb
       -0.0045427326 0.0034922124 -0.017455732 -0.0033900228
000060 8f 85 20 bc 5c b6 00 3c 5a 13 6a bc 0a be 43 bb
       -0.009797468 0.007855978 -0.01428684 -0.002986791
000070 b3 6c 89 bc f6 3e da bb bb 31 69 3c 31 1e 9b bb
       -0.016775465 -0.0066603376 0.014233048 -0.0047338237
000080 d9 77 94 bc fb c7 94 3b da 47 29 bc 5c 40 81 bb
       -0.018123554 0.004540441 -0.010332072 -0.00394444
000090 3e 46 6b bc 09 e1 95 bb da 69 8e bc c9 86 1b 3b
       -0.014360009 -0.0045739454 -0.017384458 0.0023731461
0000a0 0f b0 c2 bc ed 9c 0c 3b 86 12 65 bc 00 bc 0a 3c
       -0.023765592 0.002145584 -0.013981467 0.008467674
0000b0 d7 04 98 bc dd 3f 06 bc 62 05 39 bc 37 a6 0d bc
       -0.018556995 -0.008193937 -0.011292787 -0.008645586
0000c0 ca d0 21 bc 20 e5 b6 ba e3 fb 86 bc 6a 3f a5 3b
       -0.009876439 -0.0013953783 -0.01647753 0.00504296
0000d0 03 3e 2c 3c 79 f6 35 bc d9 06 42 bc df 33 aa bc
       0.010512832 -0.011106127 -0.011842453 -0.020776687
0000e0 b6 30 0c bc 23 5e 5d 3c d6 1d 9c bc 60 8f 6c bc
       -0.0085565355 0.0135112135 -0.019057196 -0.01443848
0000f0 56 1e 69 bc f7 a0 e6 bb 4d 62 22 bc 62 d4 9a bc
       -0.014228424 -0.0070382315 -0.009911132 -0.0189001
000100 a8 82 82 ba f2 4b 93 bc 51 f2 aa bb 75 36 4c bc
       -0.0009957151 -0.01798055 -0.0052168746 -0.012464155
000110 bf f2 1d 3b e4 52 27 3b cb 56 16 bb 88 d6 8c 3b
       0.0024100987 0.0025531584 -0.0022939916 0.004298035
000120 2a b8 01 bc 6f b4 1e bc a4 c6 01 bd
       -0.007917443 -0.009686573 -0.03168358

running_mean f4 [75]
000000 1c f6 88 b9 88 6f 42 bb a5 24 ab 3b e6 fb b4 3b
       -0.00026123307 -0.0029668529 0.005222874 0.0055231927
000010 17 43 07 3c c9 28 78 bc cb 4a 86 3c 83 7c d7 3b
       0.008255742 -0.015146443 0.016393086 0.0065761223
000020 27 02 2b 3c c6 ef 06 3c e6 7c 3a 3c 35 d5 52 3b
       0.010437525 0.008235877 0.011382317 0.0032170538
000030 0c 08 19 3c 1e 6f 23 3c 34 e1 36 3b 41 ac 0a 3c
       0.009340297 0.009975223 0.0027905228 0.00846392
000040 15 b6 36 3c 3f 2b a2 3a 52 30 22 3c c4 2e 84 3a
       0.01115181 0.0012372507 0.009899216 0.0010084738
000050 4e f5 23 3c d4 a4 e3 3a 4e a9 d7 bb f1 76 02 bc
       0.010007216 0.0017367848 -0.006581462 -0.007962928
000060 a1 17 25 bc a7 92 06 3c 4c d5 dc 3a 8b a8 12 39
       -0.010076434 0.008213676 0.0016848235 0.00013986432
000070 45 39 90 3b e4 e8 2b bb 7e 6c 28 3b 89 d5 0a 3c
       0.0044013583 -0.0026231343 0.0025699432 0.008473762
000080 26 79 32 3b 77 09 68 3b 40 9b aa 3b f6 64 a1 3b
       0.0027232855 0.0035406032 0.0052064955 0.0049253656
000090 24 83 e9 3a d0 6f 69 3b 3d c0 eb 3a c3 9a 86 3c
       0.0017815572 0.0035619624 0.0017986369 0.016431218
0000a0 5e f8 cd ba 31 66 e3 3b 09 6a 1d 3c f1 45 67 b9
       -0.0015714278 0.0069396724 0.0096078 -0.00022055932
0000b0 f3 28 da 3b 8c d8 c4 3b dd 61 52 bb 6e 5c a8 3a
       0.0066577136 0.0060072597 -0.0032101788 0.0012844929
0000c0 60 ab 91 bb 6d a1 0a 3c c2 a9 be bb d6 07 60 3b
       -0.0044454783 0.0084613385 -0.0058185766 0.0034184358
0000d0 c2 ee e8 3b a6 aa e6 bb a8 96 2f 3c 62 48 14 3c
       0.0071085403 -0.007039386 0.010717072 0.0090504605
0000e0 ad b7 31 ba da 15 84 3a 4d 74 01 3b 19 15 02 ba
       -0.0006779384 0.0010077313 0.0019753159 -0.000496225
0000f0 a1 00 b7 bb a5 3c e0 3a 6c 8a 67 39 02 32 b5 b8
       -0.005584792 0.0017107917 0.00022081443 -8.640067e-05
000100 6d ad 12 bc da da e8 3a 97 6f 8d 3b 78 78 1e bb
       -0.008952481 0.0017765418 0.004316281 -0.0024180692
000110 80 3c 18 3c 63 5b 54 3b be dc 7e 3b ca f1 1f 3c
       0.009291768 0.0032403104 0.0038888897 0.009762237
000120 21 ff 1f bb b1 bc ac 3a 5b 3c 84 ba
       -0.0024413543 0.0013178793 -0.0010088788

running_var f4 [75]
000000 91 f6 ac 3b 12 c3 a8 3b 64 7c cd 3a 87 63 20 3b
       0.0052784164 0.0051502073 0.001567733 0.0024473385
000010 f5 4e 09 3b d8 9e ea 3b ef c0 a5 3b 4a ab 78 3b
       0.0020951603 0.007160049 0.0050584 0.0037943893
000020 4b 49 53 3a 03 fa 86 3b 96 65 68 3b 03 87 e8 3a
       0.0008059933 0.004119159 0.003546094 0.0017740432
000030 59 16 8d 3b 85 9e c6 3a 5f 4b 81 3a 34 96 2d 3b
       0.0043056426 0.0015153444 0.0009864381 0.0026487233
000040 61 40 92 3b bd 7f 54 3b a2 9d 2f 3b 27 2c 0d 3b
       0.004463241 0.003242477 0.0026796837 0.002154121
000050 4c cb 7a 3b 94 da 18 3b c6 13 a8 3b 83 af 34 3b
       0.0038268147 0.0023323642 0.0051293103 0.0027570433
000060 95 15 be 3b 0f 2b 35 3a ef 63 e3 3b b2 42 13 3b
       0.0058009126 0.0006911018 0.0069394032 0.0022470173
000070 bc 6e f7 3b 66 fd 2e 3b c7 c6 af 3a ba 88 9c 3b
       0.0075510424 0.002670133 0.0013410681 0.0047770413
000080 7a 0c f6 3b e3 c8 35 3b ef 59 66 3b e9 f4 bb 3b
       0.0075088115 0.0027738146 0.003514882 0.0057359827
000090 e0 a2 5d 3b 7e f1 72 3b 5f 37 77 3b 89 64 d2 3a
       0.0033819005 0.003707021 0.0037722213 0.001605169
0000a0 be 87 88 3b 0e 94 18 3b 12 14 9f 3b 05 fb ef 3a
       0.0041665724 0.0023281607 0.0048546875 0.0018309063
0000b0 28 3c 93 3b d0 9d bc 3b 75 aa d5 3b dd 2c ec 3a
       0.004493255 0.0057561174 0.006520564 0.0018018741
0000c0 22 a8 86 3b 73 e1 4d 3b 1c 74 bc 3a cd c2 1a 3b
       0.0041093985 0.0031414896 0.0014377865 0.0023614645
0000d0 09 a4 4b 3b c8 70 08 3b b8 26 4b 3b 47 e5 e2 3b
       0.0031073114 0.0020819176 0.003099842 0.0069243046
0000e0 d0 d8 2e 3b fa 06 3f 3b 34 51 2e 3c b2 65 36 3b
       0.0026679523 0.0029148445 0.0106394775 0.0027831611
0000f0 42 76 f4 3a c9 bc 27 3b 56 a0 51 3b ee 70 ba 3b
       0.0018650966 0.0025594702 0.0031986437 0.005689732
000100 3e 3f 03 3b 09 3c a1 3b de 33 5e 3b ba 1b 97 3a
       0.002002671 0.004920487 0.0033905427 0.0011528649
000110 74 ae 17 3b 39 7c ca 3a a6 39 5b 3b b1 e7 a8 3a
       0.0023144754 0.0015448398 0.003345111 0.0012886432
000120 13 b7 32 3b 21 df df 3a bd 4a b2 3b
       0.0027269765 0.0017080047 0.0054410384
