mlruns/528961946943719398/models/m-8db9358059dc4d4d8cccec909dc4e499/artifacts/data/model.pth (torch, 70126 bytes, 17 tensors)

weight f4 [124]
000000 0f 37 89 3e 95 c8 01 3f d2 99 cd 3e 87 5b b6 3e
       0.2679982 0.5069669 0.40156418 0.35616705
000010 a4 9c 5d 3e c6 f6 34 3e 5d 52 7b 3e 16 c5 77 3e
       0.21641785 0.17672262 0.24543138 0.24196276
000020 ce be 84 3e 26 3e 5a 3e 77 42 a0 3e 64 5f 8a 3e
       0.25926822 0.2131277 0.3130071 0.27025902
000030 39 c4 6b 3e 1d 68 93 3e a1 10 01 3f 8d b7 b2 3e
       0.23024072 0.2879037 0.50416 0.34905663
000040 5c 3b 9d 3e 71 12 a5 3e 61 54 e0 3e e9 bb 97 3e
       0.3070935 0.32240632 0.43814376 0.29635552
000050 ae 1e 57 3e 12 00 79 3e 90 e8 49 3e b9 bf 8e 3e
       0.21007797 0.24316433 0.19717622 0.27880648
000060 a7 0f be 3e 56 61 88 3e eb 0e 9f 3e e3 04 9a 3e
       0.37121317 0.2663676 0.3106607 0.30081853
000070 79 2e 75 3e 8f b7 72 3e 02 90 84 3e 76 d1 cb 3e
       0.23943509 0.23702835 0.2589112 0.39808244
000080 be 06 d9 3e fa 0d 05 3f 49 d2 e7 3e 75 ce bc 3e
       0.42387956 0.5197445 0.45277622 0.36876264
000090 39 9e 7d 3e ae 53 9f 3e cb c1 86 3e c9 98 ab 3e
       0.24767388 0.3111853 0.26319727 0.33515003
0000a0 27 7b 50 3e bd ba c1 3e 6f b7 cb 3e 40 9e 33 3e
       0.20359479 0.37837783 0.39788386 0.17540836
0000b0 21 39 b1 3e b6 81 85 3e 28 ca 9e 3e 92 85 3c 3e
       0.34613898 0.26075524 0.31013608 0.18410328
0000c0 da de 83 3e b4 56 46 3e bf 51 69 3e 51 86 90 3e
       0.2575596 0.19369012 0.2278509 0.28227475
0000d0 7d 84 82 3e b4 4c d1 3e 94 ec 18 3e 64 da b1 3e
       0.25491706 0.40878832 0.14933997 0.3473693
0000e0 41 0f 2c 3e 49 2b d2 3e 71 f0 c7 3d da 02 46 3e
       0.16802694 0.4104865 0.097626574 0.19337025
0000f0 2f c9 91 3e fc 7d 04 3f 17 d3 03 3e d0 4c e9 3e
       0.28473803 0.51754737 0.12873493 0.45566416
000100 21 83 6e 3e e4 c0 3b 3e 30 e7 57 3e 5e ad 1a 3e
       0.23292209 0.183353 0.21084285 0.15105197
000110 c0 12 84 3e 60 ef 43 3e 2e 01 9f 3e 18 db 5e 3e
       0.25795555 0.19134283 0.31055588 0.21763265
000120 f8 06 16 3e c4 7d 83 3e db cf 5a 3e 78 35 cc 3e
       0.14651096 0.2568189 0.21368353 0.39884543
000130 ca 1e bc 3e bc 7c c4 3e b0 3c 3c 3e 2a 7e a8 3e
       0.3674224 0.38376415 0.18382525 0.32908756
000140 5d 64 d7 3e d9 6f d5 3e 15 0d 86 3e 77 57 82 3e
       0.4206876 0.41686895 0.26181856 0.25457355
000150 0e 0f 8a 3d 2c 7d 87 3e c3 bc 9a 3e d9 74 44 3e
       0.06741153 0.26462686 0.3022214 0.19185199
000160 79 38 c4 3e c7 8e b8 3e 5c 56 28 3e 58 01 63 3e
       0.38324335 0.3604643 0.16439193 0.22168481
000170 17 53 3f 3e e3 56 71 3e 69 e0 80 3e 97 59 c6 3e
       0.1868404 0.23568301 0.2517121 0.38740227
000180 9e 77 22 3d eb 65 66 3e fb 39 1c 3e 0a 2d fe 3d
       0.039664857 0.22499816 0.15256493 0.12410934
000190 5f 79 37 3e 5b 5c 44 3e 7a f6 1b 3e bc d1 42 3e
       0.17917393 0.19175856 0.15230742 0.1902532
0001a0 ac aa be 3d 10 86 e7 3d 99 97 46 3e 4e 7a 75 3e
       0.09309897 0.11304867 0.19393767 0.23972437
0001b0 7b 4b 59 3e f4 92 35 3e 95 a4 07 3f e4 e7 f2 3e
       0.212202 0.1773184 0.5298551 0.47442544
0001c0 93 3e 18 3e a4 91 83 3e 8a 74 01 3f 41 72 62 3e
       0.1486762 0.25697052 0.5056845 0.22113897
0001d0 e4 98 a2 3e 95 d2 2b 3e 91 51 84 3e b1 89 d3 3d
       0.3175727 0.1677955 0.2584348 0.10328997
0001e0 03 f9 a9 3e a0 d5 59 3e 74 09 4a 3e 55 e9 27 3e
       0.33197793 0.21272898 0.19730169 0.16397603

bias f4 [124]
000000 04 fa f6 3b 87 ed 3a 3c 4a fc 90 b9 44 fc 67 b9
       0.0075371284 0.01140917 -0.0002765379 -0.00022123853
000010 d6 cb 06 bc df 06 d3 bb 12 e5 a7 3b 48 6c 21 bc
       -0.008227309 -0.006440028 0.005123743 -0.009852476
000020 19 63 09 bb 4e d8 c5 3a bf 79 ff 3a a7 b1 05 bb
       -0.0020963608 0.0015094371 0.0019491239 -0.0020400079
000030 7b f0 36 bb c6 41 fa 3b dd 88 96 3a 32 ad af 3b
       -0.0027914334 0.0076372353 0.001148488 0.0053612227
000040 c3 11 54 3c 10 ad d8 bb 3d 7b 30 3c 10 be 37 bc
       0.012943688 -0.0066124275 0.01077157 -0.011214748
000050 de e2 ab 39 dd 9b 06 3c 01 b6 a5 3a 2f 55 64 3c
       0.0003278469 0.008215872 0.0012642742 0.013936325
000060 b2 64 01 3b b5 f5 4e bc a6 ec 2c 3b a2 c5 42 3b
       0.0019743857 -0.012631823 0.002638617 0.002971985
000070 3c 31 77 3b c1 44 84 3b 66 7b fa 3b 83 c2 25 3b
       0.0037718555 0.0040365164 0.007644105 0.002529294
000080 68 6c 10 3c f7 fb 69 3c 73 8e 22 3c e8 51 83 3b
       0.008814909 0.0142812645 0.009921658 0.0040075667
000090 57 ee bf bb 94 31 c6 3b d5 7f 77 bb ff 14 7e bb
       -0.0058572697 0.0060483906 -0.0037765403 -0.003876984
0000a0 fd 1f 6b bb 1f d4 72 bb 45 ea ec bb 4b 3c 8a 3b
       -0.003587722 -0.0037052704 -0.0072300755 0.0042186133
0000b0 26 b7 ac ba 30 51 92 bb a6 0a cf ba e7 0f e4 bb
       -0.0013177141 -0.0044652447 -0.001579602 -0.0069599035
0000c0 51 e7 76 3b 7e 94 74 bb 03 4b 09 bb 3a 07 b3 3b
       0.0037674496 -0.0037319954 -0.0020949251 0.005463508
0000d0 18 87 07 3b 2d a0 ec bb 2d ed 2c 3c 74 23 59 bc
       0.0020679887 -0.007221243 0.010554594 -0.013253082
0000e0 9f 97 c6 b9 2e 06 90 bb db 37 ce 3a 50 a5 8a 3c
       -0.0003787847 -0.004395268 0.0015733199 0.01692453
0000f0 6c dc 93 3a 34 6d 22 bb 18 7f 73 3b 20 a2 a4 ba
       0.0011280901 -0.0024784328 0.0037154611 -0.0012560524
000100 37 3f 78 bb 2e 21 bc ba a3 f1 be bb 06 0f 93 bb
       -0.0037879476 -0.001435315 -0.005827145 -0.004487875
000110 c0 18 42 3b e2 cb d2 ba 0d b2 bd b6 16 f4 62 bb
       0.0029616803 -0.001608249 -5.6533668e-06 -0.003463035
000120 58 c6 4f 3b a9 c8 a1 3a 08 db c1 ba a2 75 a3 b8
       0.0031703915 0.0012343127 -0.0014790008 -7.7943565e-05
000130 36 19 e1 3b 55 a0 03 bc 7f cb fe bb b3 a6 d5 b8
       0.0068694605 -0.008033832 -0.0077757235 -0.000101876816
000140 89 9e 7c 38 76 37 2d 3b ad 63 34 3b 70 4d 4e bb
       6.022913e-05 0.0026430762 0.0027525232 -0.0031479262
000150 a7 73 9d b9 06 e0 9f bb 7e 19 08 3c 57 c8 01 3a
       -0.0003003154 -0.0048790006 0.008306859 0.00049508124
000160 6d 37 df b9 08 64 72 bb 8a f1 9f 3b cd bf 53 3c
       -0.0004257517 -0.0036985893 0.0048810886 0.012924147
000170 41 60 14 bc 60 ee 04 bc 60 1b 15 bc 21 ce e5 3b
       -0.009056152 -0.008113474 -0.009100765 0.007013098
000180 58 1f 8f ba 65 c4 6b bb f9 84 94 3b 42 04 03 bb
       -0.0010919375 -0.0035975215 0.004532453 -0.0019991552
000190 a7 ba bb 3a be 88 1a bc 85 9d b9 bb 5a a4 eb 3b
       0.0014322595 -0.009432016 -0.0056645297 0.007191223
0001a0 aa 43 7f bb c0 24 b9 3b 56 c2 03 bb 84 75 08 b9
       -0.0038950243 0.005650133 -0.0020104847 -0.00013013749
0001b0 70 c4 90 bb 7d dc 0a 3a 02 80 2f bc fd 5c 2a 3b
       -0.0044179484 0.00052971375 -0.010711672 0.0025995367
0001c0 b0 8f 6a ba 34 b9 ee bb 08 be ef bb b4 23 e2 3b
       -0.00089478027 -0.0072852615 -0.0073163547 0.006901229
0001d0 47 b7 37 3b 1c f3 49 3b f6 53 1a ba d1 0d 7e bb
       0.0028032826 0.003081507 -0.0005887145 -0.003876556
0001e0 64 cb bf ba ac e0 8a bb c6 47 19 bb ae 4a 24 3b
       -0.0014632759 -0.0042382088 -0.0023388728 0.0025068927

running_mean f4 [124]
000000 67 89 8d 42 f1 a8 25 46 b9 07 c2 40 6b 92 b3 40
       70.768364 10602.235 6.0634427 5.6116233
000010 a8 5c bb 42 8d 9f 58 40 76 2b 46 40 7b 86 5d 40
       93.68097 3.3847382 3.0964026 3.461333
000020 5e d3 3a 40 82 dc ce 3f e9 f1 e3 43 10 82 33 42
       2.9191508 1.6161044 455.88992 44.877014
000030 b9 cb 0a 44 ed 93 83 40 61 2a 00 3e 45 39 92 44
       555.18317 4.1118073 0.12516166 1169.7897
000040 fa 5f aa 43 ad f8 a6 40 3d 78 bd 44 1f ff e2 3e
       340.74982 5.217856 1515.7574 0.44335267
000050 4e 43 83 3d f1 80 c9 3f a0 60 c1 3e 8a f4 38 40
       0.06409322 1.5742475 0.37769032 2.8899255
000060 85 fb 87 3f b0 c6 5e 40 ad d4 d0 40 84 c2 1d 3e
       1.0623633 3.480877 6.5259614 0.15406233
000070 84 a3 1b 3f 1e 48 e6 3f d5 9e d9 3f fc cf e1 3f
       0.6079638 1.7990758 1.7001597 1.7641597
000080 17 1a ea 43 1e 08 33 40 34 dc 32 40 bd 0c 13 3e
       468.20383 2.7973704 2.7946901 0.14360328
000090 8d 9f ab 42 3d 63 41 42 47 09 95 41 4f ef 75 40
       85.81162 48.346912 18.62953 3.8427312
0000a0 79 96 7f 41 a1 4f 40 40 4a ab 9f 3c 40 80 47 42
       15.9742365 3.0048602 0.019490857 49.875244
0000b0 0d ed 1c 42 63 72 c8 41 87 b3 00 42 50 66 fb 41
       39.231495 25.055853 32.17532 31.424957
0000c0 e0 89 43 40 e8 99 99 3f be 5b a3 3d 5e 74 d9 3e
       3.0552902 1.2000093 0.07976483 0.42471594
0000d0 4b 22 2e 3e 87 6d 30 3f af 1b 54 3e a1 8a 97 3d
       0.17005269 0.68917125 0.20713685 0.07399488
0000e0 a8 34 03 3d 67 ae 68 3d 87 1a 00 3d 5d 95 a0 3c
       0.03203264 0.056806948 0.0312753 0.019602472
0000f0 da f2 c8 3d bb 16 b0 3c f8 f2 e2 3d e0 0b 72 3f
       0.09811945 0.021495214 0.11081499 0.9454937
000100 ff 64 5a 3e 78 19 9d 3d ae 49 d6 3d ad e8 13 3d
       0.2132759 0.076708734 0.10463272 0.03611057
000110 cf 10 ba 3e 8d 91 18 3e 17 d9 25 3e ae 08 18 3e
       0.3634095 0.14899273 0.16196094 0.14847061
000120 ca 0b f6 3d f8 30 13 3d a8 5f 0a 3d ca 06 f0 3c
       0.12013967 0.035935372 0.03378263 0.029300112
000130 95 5f a1 3c f7 a0 b2 3c 50 40 7b 3c 94 06 a7 3c
       0.019698897 0.02180527 0.0153351575 0.020388879
000140 0a 11 4e 3f 49 23 06 3e 14 3e 0b 3d 4d 3a 5f 3c
       0.8049475 0.13099398 0.03399475 0.01362474
000150 8f 5c d4 3d b4 ba 2b 3d 28 e7 9e 3d 05 8b 49 3d
       0.10369217 0.0419261 0.07758933 0.049204845
000160 61 08 9e 3c ad 02 0b 3c 70 98 0b 3d c6 b4 19 3e
       0.019291105 0.008484525 0.034080923 0.15010366
000170 09 92 76 3d 8f 69 c8 3c 10 2b 43 3d 08 c9 a2 3d
       0.060197864 0.024464397 0.04764849 0.079485
000180 a3 db 19 3d 17 44 83 3c 29 c7 67 3d 7d ec 22 3d
       0.037562978 0.016023679 0.05658642 0.039776314
000190 91 c5 5f 3d 94 c0 83 3c e3 6c da 3c ae 89 5b 3c
       0.054631773 0.01608304 0.02666325 0.013399525
0001a0 b5 0d 1f 3f ac 34 a4 3d cc 94 ea 3e f4 4e c0 3b
       0.6213029 0.08017859 0.45816648 0.005868787
0001b0 c1 83 db 3e d6 c4 81 3c 29 cc d9 3c 2a f0 6c 3f
       0.42873958 0.015840929 0.026586609 0.9255396
0001c0 ff 26 6b 3d 89 51 83 3e 55 9b 78 3d 76 01 de 3c
       0.057410236 0.25648144 0.06069501 0.027100306
0001d0 fc e5 2a 3d 2c 57 a0 3d 38 ad 8c 3c 00 91 5f 3f
       0.041723236 0.07829127 0.01717244 0.8733063
0001e0 08 f8 54 3c 2f ee 51 3f 22 ed 87 3c e2 85 a1 3d
       0.012998588 0.82004064 0.016592566 0.07886864

running_var f4 [124]
000000 09 06 fc 43 2e 3b cb 4c 9d be eb 3f 47 62 a8 3f
       504.04715 1.0655166e+08 1.8417546 1.3154992
000010 d2 df d0 46 0b 25 a1 3e 88 bd 09 3e 9e 5b 4d 3f
       26735.91 0.31473574 0.13451207 0.8021792
000020 7e 41 ab 3e 97 50 8e 3f 6a 40 4b 48 62 52 d4 46
       0.33448404 1.1118344 208129.66 27177.191
000030 fa 42 3e 48 4e 0d 76 3f b1 54 48 3e a9 2e 0d 48
       194827.9 0.9611405 0.19563557 144570.64
000040 76 c4 38 48 be d6 01 45 b8 f0 81 48 2f 5f 8c 3e
       189201.84 2077.4214 266117.75 0.2741637
000050 a1 41 7b 3d 6b 1a 9c 3e ba 05 80 3e a8 f4 26 3f
       0.061341885 0.30488905 0.2500437 0.65217066
000060 1f 66 7b 3d ac 4a dc 3e 4a 28 25 40 b1 55 dc 3e
       0.061376687 0.4302572 2.580584 0.43034127
000070 44 a8 d3 3e ef 53 51 40 49 b6 42 3f a8 f7 0d 3f
       0.41339314 3.270748 0.76059395 0.5545602
000080 35 7e 2a 47 2c 2d 10 3f bc ed 0e 3f 24 4e 7a 3e
       43646.207 0.56318927 0.55831504 0.24443871
000090 72 89 6b 46 d4 0d 8e 45 18 2b 4f 45 3e 3b 7b 44
       15074.361 4545.7285 3314.6934 1004.92566
0000a0 43 a3 42 45 82 14 db 44 be ab a4 3d 55 1e 93 48
       3114.2039 1752.6409 0.0804057 301298.66
0000b0 73 0f 64 44 39 89 d2 43 38 7a 12 44 3c a7 74 43
       912.2414 421.07205 585.90967 244.65326
0000c0 e3 7d 2e 40 b7 c5 12 3f eb f5 f5 3d a6 e1 ab 3e
       2.7264335 0.5733294 0.12009796 0.33570594
0000d0 f5 89 95 3e 17 84 5a 3e 90 98 25 3e c3 78 8d 3d
       0.29206815 0.21339451 0.16171479 0.06907799
0000e0 72 0f 12 3d 3e 2e 88 3d 42 27 f7 3c bb 78 9d 3c
       0.03565926 0.06649445 0.030170087 0.019222608
0000f0 fe 38 b5 3d 6f be ad 3c 66 93 3b 3e 86 5f 83 3d
       0.08848761 0.02120897 0.18317947 0.06414704
000100 f2 4f 75 3e 06 d2 0f 3e bd 14 be 3d 3d 75 0e 3d
       0.23956278 0.14044961 0.09281299 0.034779776
000110 63 c3 6e 3e 83 bc 02 3e c8 2f 0c 3e a9 1f 01 3e
       0.23316722 0.12767224 0.13690102 0.12609734
000120 e6 27 d6 3d 04 87 0d 3d 02 1d 06 3d ff fb e7 3c
       0.10456829 0.03455259 0.032742508 0.028318403
000130 ef c6 9f 3c d7 1b ae 3c 22 6e 77 3c 68 34 a5 3c
       0.019504039 0.02125351 0.015101941 0.02016659
000140 ac db 1f 3e 6c 22 e6 3d c6 16 06 3d 8b 18 5c 3c
       0.15611142 0.11237034 0.032736562 0.013433586
000150 ae 3f be 3d 53 c0 26 3d e0 79 93 3d d3 91 3e 3d
       0.0928949 0.04071076 0.0720098 0.046525788
000160 e4 97 9a 3c 7a fd 09 3c 2f 5e 06 3d e0 e5 03 3e
       0.018871255 0.00842225 0.032804664 0.12880659
000170 05 c2 6a 3d a0 62 c3 3c 18 e4 39 3d be cf 96 3d
       0.057313938 0.023850739 0.045383543 0.073638424
000180 43 07 14 3d 8a 90 80 3c 9e b9 5c 3d 62 d5 1d 3d
       0.036139738 0.015693922 0.053887956 0.038533576
000190 67 c1 52 3d 40 3c 82 3c 64 4e d0 3c aa 72 58 3c
       0.051453974 0.01589787 0.025428005 0.013210932
0001a0 51 52 6a 3e fa 19 96 3d ec ab 7a 3e 41 e5 bf 3b
       0.22882964 0.073291734 0.24479645 0.0058561866
0001b0 87 9b 79 3e f4 33 7e 3c 18 2f d6 3c c4 15 8e 3d
       0.24375735 0.015515316 0.026145503 0.06937745
0001c0 16 0e 5c 3d 0e 40 43 3e b7 da 6a 3d 6b b9 d9 3c
       0.05372437 0.19067404 0.05733749 0.026577672
0001d0 45 97 25 3d aa f9 91 3d 71 fa 89 3c cd 82 dd 3d
       0.040427465 0.07127698 0.016843053 0.10815964
0001e0 1f 27 52 3c 2a 1a 17 3e 66 69 87 3c ac e2 92 3d
       0.01282671 0.14756075 0.01652975 0.071721405

weight f4 [85, 124]
000000 62 55 cd bb a9 59 c0 3b f1 30 b5 3c af 6f 1c 3c
       -0.006266282 0.0058700633 0.022118064 0.009548112
000010 e6 86 02 bd 85 c7 8e bb 0e b9 47 3c c8 49 3d bc
       -0.03186693 -0.0043572807 0.012190117 -0.011553235
000020 8a 87 a3 3b d3 f9 d6 3c ef da d1 3c 1b 2c a2 bc
       0.0049905227 0.026242172 0.025617091 -0.019796422
000030 05 ad fc 3c 93 c6 57 b9 95 81 f2 3c 9d ad 98 3c
       0.03084422 -0.00020577972 0.029602805 0.018637473
000040 b7 79 f6 3c f4 10 2f 3c 1f 92 21 3d b6 19 45 3d
       0.030087335 0.010685194 0.039445993 0.048120223
000050 10 59 25 bc 45 a6 f8 3c e6 a0 30 3c f6 2b e8 3c
       -0.010092035 0.030352721 0.010780549 0.028341275
000060 ca 1a 13 3c bf de ee 3c a3 41 cc 3c 6c e9 e0 bc
       0.008978555 0.029158948 0.024933642 -0.027455054
000070 24 b9 9b bb ac c0 14 3d 00 a2 7c 3c a4 49 8e bc
       -0.004752295 0.03631656 0.015419483 -0.017369099
000080 bd ae 89 bc 7a 81 32 3d 22 11 1f bd b2 68 57 bc
       -0.016806955 0.04358051 -0.0388347 -0.01314752
000090 13 6f 87 bc ff 3e a9 3c 17 2a f9 3c 80 82 87 bb
       -0.016532457 0.020659922 0.030415578 -0.00413543
0000a0 e4 fa be 3b 82 a0 1c bd a6 a7 3d bd 62 77 dc b9
       0.0058282483 -0.03823901 -0.04630246 -0.00042050617
0000b0 56 c5 4f bd a9 9c 20 bd 21 91 24 3d 08 6e 6a 3b
       -0.050725304 -0.039211903 0.04017747 0.003577115
0000c0 13 08 9d bc 12 91 98 bc d5 a9 ea bc 82 34 3f bd
       -0.01916889 -0.018623862 -0.028645435 -0.046680935
0000d0 1a 96 31 bc 61 c3 f6 3c 66 87 09 bb fc 9d e5 3c
       -0.01083901 0.03012246 -0.0020985245 0.028029434
0000e0 94 af 1f 3b 28 45 77 3c de aa 1e bc 96 52 17 bd
       0.0024366127 0.015092172 -0.009684293 -0.036943994
0000f0 9e 9a 11 bd e1 70 50 ba 24 7c 8e 3b 37 c4 f8 bc
       -0.035547845 -0.00079513906 0.004348295 -0.030367
000100 03 b6 a6 3c f9 43 55 bc f0 57 4a 3a 1b 24 b4 3c
       0.020350462 -0.013016694 0.0007718792 0.021989873
000110 3e 05 0b bd 23 de 16 39 fc 9e c4 bb 7a 1b 38 3c
       -0.033940546 0.00014387867 -0.0060003977 0.01123702
000120 1b 8b 5d bc ba 53 66 bc 1a b2 c7 3c 64 0c 8a 3c
       -0.013521935 -0.014058048 0.024376918 0.016851611
000130 e2 43 f1 bc 50 7f 5f bb c0 2f 79 3c 0b c5 db bc
       -0.029451314 -0.0034102984 0.015209138 -0.026827356
000140 a0 e2 bf bc d6 4e 85 3c 63 7a 12 3c 07 df f9 bb
       -0.023423493 0.016272943 0.008940312 -0.007625464
000150 59 ee 48 3b 0a cf ee 3b fb 55 28 bd 75 24 a7 bc
       0.0030659644 0.0072878646 -0.041097622 -0.020403126
000160 2e cb c1 39 7f a2 9a bc e7 85 5c bc e7 ab 37 3a
       0.0003696321 -0.018876312 -0.013459659 0.00070065114
000170 0e 2a 05 3b 4a 48 29 3c 0b 32 bd 3c f7 28 8f bc
       0.0020319256 0.010332176 0.023095151 -0.017475588
000180 7d b7 41 3c c7 89 ca 3b d1 3e 98 3c 18 c4 df ba
       0.011823532 0.006180975 0.01858464 -0.001707199
000190 b8 c5 2f 3d 28 e3 3c 3d 19 ae 7e bc 0a c4 db bc
       0.04291317 0.04611507 -0.015544438 -0.026826877
0001a0 43 c8 af bb 33 83 b0 3c c1 b0 af b9 f2 21 3c 3c
       -0.005364449 0.021546936 -0.00033510293 0.011482703
0001b0 ae 64 a3 3b 0f f4 93 3b dc c9 27 bb a0 bb 97 3c
       0.004986367 0.004515178 -0.0025602495 0.018522084
0001c0 79 e5 da bb 7f ce 01 bd 49 43 35 3d b4 43 a0 bc
       -0.0066801873 -0.03169107 0.04425362 -0.019563533
0001d0 84 2c 74 3c 77 48 c3 3c ef 9d f3 3c fb 2e cf 3c
       0.0149031915 0.023838265 0.029738395 0.025290957
0001e0 3b 3a 10 bc 57 1c c3 3c 78 fd 98 3c 7a d1 16 3d
       -0.008802946 0.023817224 0.01867555 0.036820866
0001f0 02 41 bc bc 9b 0e ae ba da a0 f2 bc 64 17 fa 3b
       -0.022980217 -0.0013279499 -0.029617716 0.007632183
000200 b5 59 6a 3c 32 79 e7 bc 4a a6 47 bc 23 ef 26 3d
       0.014303614 -0.028256033 -0.0121856425 0.040755402
000210 62 9d 40 3d 8c 9b ff 35 fe 45 b2 3c a4 f7 02 bd
       0.047025092 1.9044251e-06 0.02176189 -0.03197445
000220 1f dd 75 3d f1 ac 35 bc 53 18 3b bc 2c 49 8c bc
       0.06002533 -0.011088596 -0.011419374 -0.017124735
000230 a8 01 33 3c 02 92 50 bc da ea d9 bb 11 7a 1a bd
       0.010925688 -0.0127301235 -0.006650311 -0.037714068
000240 6a 63 d7 3c 36 e6 b9 3c 52 ac 14 bd db aa d5 bb
       0.026292522 0.022692781 -0.03629715 -0.0065206117
000250 6e 62 11 3d 06 e7 fe bc 9f 3d f1 bc ac 1a 15 3d
       0.03549426 -0.03111602 -0.029448329 0.03640239
000260 39 84 36 ba 78 69 d0 bc bf cf 25 bd 10 2f 6a bd
       -0.0006962452 -0.025440916 -0.040481325 -0.05717379
000270 ad fb 44 bd ae ae e8 bd 74 ad 7a bd db 08 23 3d
       -0.04809158 -0.113614425 -0.061200574 0.039803367
000280 ec 3c 10 3b 47 42 c1 3c 93 9a cc 3c 35 0e 8c bb
       0.0022008969 0.023591174 0.02497605 -0.0042741545
000290 29 b4 40 bc 0f 4c 20 bd 3e e8 14 3d 9d 2e 65 3b
       -0.0117617035 -0.039135035 0.036354296 0.003497041
0002a0 84 95 38 3d 1f f6 a4 bc e7 0e 5d 3d d4 96 c2 3c
       0.045064464 -0.020136891 0.05396929 0.023753561
0002b0 91 a6 fe bc 9c 67 be 3c 99 0e 8f 3c c0 6b 96 3c
       -0.031085284 0.023242764 0.017463015 0.018361926
0002c0 eb 83 8b 3b 20 0f a3 bc 8b b3 d4 3c 28 71 e8 bb
       0.004257669 -0.019904673 0.025964519 -0.0070935674
0002d0 6c 33 7a 3c 38 12 78 3c e8 a3 51 3c b8 09 4c bc
       0.015271049 0.015141062 0.012795426 -0.012453489
0002e0 ef de 77 3c 68 49 53 3c f6 64 1e 3b 5d 0d 7a bd
       0.015128835 0.012895919 0.0024169064 -0.0610479
0002f0 87 f1 26 3c 47 04 35 3c c6 eb c0 3b c1 eb cf bc
       0.010189421 0.011048383 0.0058874814 -0.02538097
000300 e4 da 59 3c 6c f1 8c 3c d3 00 40 bb 54 ab 26 bd
       0.0132968165 0.017204963 -0.0029297366 -0.040690735
000310 8d 2a 8f bc 0f 4a be bc 93 e5 0a 3c 80 61 58 bb
       -0.017476344 -0.023228673 0.008477586 -0.00330171
000320 13 8b 2d bb e0 25 e6 bc ba 59 9d bb 3d d9 00 bc
       -0.00264806 -0.028094232 -0.004801956 -0.007864294
000330 b0 dd 26 bd b3 f6 a2 3c dd be 05 bd ab 18 80 bc
       -0.04073876 0.019893026 -0.032652725 -0.015636763
000340 36 1a db ba d6 03 91 bc 38 77 bd bc 0f fa cd bb
       -0.0016716185 -0.017702024 -0.023128137 -0.006285913
000350 a6 c6 86 3c 4a 13 9a 3c 08 bf 48 bb 46 79 15 3b
       0.016452145 0.018808026 -0.0030631442 0.002280788
000360 18 1b 81 3c 0f af 0e 3d 7f 12 de ba 95 26 b2 3c
       0.01575999 0.034834918 -0.0016942768 0.021746913
000370 3d 7e 19 bc 7f 70 cb bc 51 e1 c7 bc 0b b7 6e ba
       -0.009368476 -0.024833916 -0.024399431 -0.0009106255
000380 7b 0b 76 bb a3 c2 27 3b 6d fa 0f bc 93 be 66 3c
       -0.0037543464 0.002559819 -0.0087877335 0.014083522
000390 3e 6a f8 bc 61 ab 6f 3b 15 dc 95 bc d0 59 9c 3b
       -0.030324098 0.0036570656 -0.01829342 0.0047714487
0003a0 4d d8 24 bc b1 cf 0c bd d7 43 4c 3d d6 44 5b 3b
       -0.010061336 -0.034377757 0.049869385 0.0033457777
0003b0 bf 75 25 bb 16 48 40 3c 1e 20 a8 3d 39 b9 8a ba
       -0.0025247184 0.011735937 0.08209251 -0.0010583765
0003c0 95 1c cb 3b c9 4f cd bb 7f c4 0b bd 7f f7 cd 3b
       0.0061984756 -0.0062656146 -0.03412294 0.0062856073
0003d0 5b ba 35 3c 1b 0f c3 bc db 0d 5e 3d 5b 9f 8e 3a
       0.011091794 -0.023810914 0.054212432 0.0010881232
0003e0 60 0b 50 3c ef d7 2d bd 74 71 dd bc 33 05 08 3c
       0.0126980245 -0.04244226 -0.027031638 0.008302021
0003f0 aa fc 8a bc 64 b8 06 3c 1d f1 6d 3b 51 79 37 bd
       -0.016966183 0.008222673 0.0036307045 -0.04479343

bias f4 [85]
000000 43 73 99 bc d0 10 8f 3b b2 ba 9a 3a 13 9e 53 bc
       -0.018731719 0.004366018 0.0011804907 -0.012916106
000010 e7 9e 99 bc 70 3e 4d bc 3b 42 b6 bb ab 0c 01 bd
       -0.018752528 -0.012527093 -0.0055620945 -0.03150622
000020 56 43 e3 3a 0e 64 8e bb 04 16 39 bd a9 ad 2e 3c
       0.0017338793 -0.0043454235 -0.04518701 0.010661521
000030 b1 91 04 3c be 46 1a 3c c8 8d fb bc bf c2 c7 bc
       0.008091376 0.00941628 -0.030707255 -0.024384854
000040 c9 7b 25 bd 52 76 24 bc d1 71 01 bc 02 a7 ac bc
       -0.040401254 -0.010037975 -0.007900671 -0.02107573
000050 c7 da ba bc 78 8d 77 3c fb ee b3 bc 73 77 a2 bc
       -0.0228094 0.015109412 -0.02196454 -0.019832348
000060 3d d6 74 bb a0 19 24 bd d0 76 57 bc d7 b7 35 bd
       -0.0037359141 -0.0400635 -0.013150886 -0.044364776
000070 ab ab cb ba b9 78 6b bb c0 7c c8 bc ce d9 0d bc
       -0.0015538832 -0.003593011 -0.024473548 -0.008657886
000080 fa 4f 98 3c 2e 8d 48 3b 27 5a 8d 3c 84 c3 ef bc
       0.018592823 0.0030601728 0.017254902 -0.029268034
000090 f8 de 9f bc 57 5f 4d b9 39 17 44 3b 0c b0 06 3c
       -0.0195155 -0.0001958584 0.0029921068 0.008220684
0000a0 bc f3 ee bc db 1b 67 bc 62 9f 0a 3b be d2 0e 3c
       -0.029168956 -0.014105762 0.0021152128 0.008717237
0000b0 c9 3f a4 bb 3e 42 85 3c e4 9e 3d bc 7a a4 dd bb
       -0.0050124866 0.016266938 -0.011573527 -0.006763992
0000c0 1d 45 5a bc f9 61 b5 bb e0 64 ac 3a 74 45 e1 bb
       -0.013322142 -0.005535361 0.0013152622 -0.0068747345
0000d0 bd 50 14 bc 86 6d e5 ba f8 ad 6d bb af 1d 27 bc
       -0.009052453 -0.0017503954 -0.0036267024 -0.010199948
0000e0 5a ca bb bc 49 f6 5b bc 73 a7 2a ba 48 1a bb bb
       -0.022923637 -0.013425418 -0.0006509937 -0.00570992
0000f0 ee 97 9c ba 3f fa c7 3b 25 fd db bc 08 fc c3 3b
       -0.0011947134 0.0061028297 -0.026854107 0.005980972
000100 18 36 e9 3b 4d 6b e0 3c 0d 4a 03 bc 45 ba d0 bc
       0.007117044 0.027394915 -0.008013261 -0.025479445
000110 e1 f5 8c 3c bf c9 f2 38 8d a3 86 bb 6d 18 61 bd
       0.017207088 0.000115770374 -0.0041088522 -0.054954935
000120 20 a8 87 bc ed 9f 80 bc 29 8c a2 bc 99 3c b0 bb
       -0.01655966 -0.015701259 -0.019842224 -0.0053783176
000130 57 73 e9 3a cf a2 4d bc 01 29 30 3c a5 7d 25 3c
       0.0017810863 -0.012551024 0.010751964 0.010100757
000140 94 03 03 bd 32 b5 a2 bb 7d c6 c2 3c 68 3f b8 bc
       -0.031985834 -0.004965448 0.023776287 -0.022491172
000150 e2 a1 90 bb
       -0.004413829

weight f4 [85]
000000 52 8b 99 3e 78 a1 c1 3e 9a 3e aa 3e 13 4d 04 3f
       0.29989105 0.37818503 0.33250886 0.51680106
000010 4a a0 8d 3e e4 63 a6 3e 7a ed de 3e 95 fc c8 3e
       0.27661353 0.32498085 0.43540555 0.39255205
000020 fb 71 c9 3e d3 5d 90 3e be 3e 0b 3f ad fc b9 3e
       0.39344773 0.28196582 0.5439261 0.3632559
000030 be b7 c3 3e c6 46 90 3e 5a dc b3 3e 4d d2 be 3e
       0.38226122 0.28178996 0.35129052 0.37269822
000040 c1 1b c7 3e a7 1c 8f 3e cf 70 a4 3e 69 eb 64 3e
       0.38888362 0.27951548 0.32117316 0.22355427
000050 60 13 8f 3e 53 47 d6 3e 55 3b b0 3e 26 5b 9b 3e
       0.2794447 0.4185129 0.34420267 0.30342978
000060 20 c4 b8 3e e3 da f9 3e f8 11 89 3e d4 ff e9 3e
       0.36087132 0.4879981 0.26771522 0.45702994
000070 19 6f cf 3e 22 79 dd 3e 32 35 09 3f e7 a6 dc 3e
       0.40514448 0.4325648 0.53596795 0.43096086
000080 ff 90 a9 3e bf a0 ca 3e b5 1d ea 3e 79 88 a1 3e
       0.33118436 0.39575765 0.4572579 0.31549433
000090 db 65 94 3e b7 f2 83 3e 40 4b 9b 3e 07 23 8c 3e
       0.2898396 0.25771114 0.3033085 0.27370474
0000a0 55 6a b6 3e 9b 3a fe 3e b3 14 a9 3e 30 0b 8b 3e
       0.35628 0.49654087 0.33023605 0.27156973
0000b0 f0 6c a9 3e 37 e1 d6 3e f6 88 06 3f 94 e3 85 3e
       0.33090925 0.419687 0.52552736 0.2615019
0000c0 f4 7f 07 3f 92 61 ac 3e 3c eb a5 3e 88 c2 72 3e
       0.52929616 0.3366819 0.32406032 0.2370702
0000d0 6e 87 b6 3e 14 2e b1 3e 9f 96 9a 3e 71 35 b9 3e
       0.356502 0.34605467 0.3019304 0.36173585
0000e0 49 da 05 3f 59 e9 5b 3e 29 7d a6 3e 18 33 81 3e
       0.522862 0.21475734 0.32517365 0.25234294
0000f0 72 09 86 3e 99 63 93 3e b4 ea c3 3e f8 01 7b 3e
       0.2617908 0.28786924 0.38265002 0.2451247
000100 ad 98 b7 3e 89 da df 3e c9 2b 71 3e 72 ed a9 3e
       0.3585867 0.43721417 0.23551859 0.3318897
000110 ee 13 b8 3e cf 28 e6 3e 61 29 b7 3e 6e fe 8f 3e
       0.35952705 0.4495301 0.35773757 0.28123802
000120 64 18 ee 3e 70 c4 af 3e 35 23 c7 3e 51 de a1 3e
       0.46502984 0.34329557 0.38894048 0.31614926
000130 12 1a db 3e 40 40 c7 3e 02 13 cd 3e 1c 1d a0 3e
       0.42793328 0.38916206 0.40053564 0.3127221
000140 47 68 ab 3e 8b 07 b1 3e 73 a7 9b 3e ab 8a a6 3e
       0.33477995 0.34576067 0.3040119 0.3252767
000150 8d 36 a7 3e
       0.32658806

bias f4 [85]
000000 be f1 85 bc 01 0a 3b bc 10 40 4f 3c a4 bd b5 39
       -0.016350623 -0.011415959 0.012649551 0.00034664304
000010 5f d5 9e 3c 02 86 6e bc c6 4b 2f 3b 31 a1 8e bb
       0.019388853 -0.014558317 0.0026748045 -0.0043527116
000020 32 1b 08 3c 7a c6 73 bc ab 66 64 bc ae d6 05 3c
       0.008307265 -0.0148788635 -0.013940494 0.008168859
000030 e3 1a 3a bb 90 28 82 3c f2 d9 97 bc 8f b3 07 bc
       -0.0028397373 0.015888482 -0.018536542 -0.008282556
000040 76 b7 8f bb 9a 87 31 3c 74 b5 b3 3b 68 c7 71 3b
       -0.004385884 0.010835553 0.0054842774 0.0036892537
000050 54 74 39 bb 7f 33 e0 3b cd a9 18 3d 1d d7 43 3b
       -0.0028298097 0.0068420763 0.03727131 0.0029882856
000060 3d 5e 0e 3c ed a3 a6 bc 0e 88 8d bc c6 8d 84 bc
       0.00868946 -0.020341838 -0.01727679 -0.016180884
000070 a0 ad 7e 3c a4 c9 a5 3c c5 c9 21 bb ac aa c9 b9
       0.015544325 0.020237751 -0.0024686914 -0.00038464868
000080 6c 4d 93 3c 95 3e a1 bc 0e 24 58 3c 2a eb cc bc
       0.017981254 -0.019683162 0.01319219 -0.025014479
000090 1e 08 cf bb 2f b8 b1 3c 9d c2 fe 3b bd be 5e bc
       -0.0063181063 0.02169427 0.0077746646 -0.01359528
0000a0 18 89 9a bc f1 a8 b7 bc 2d c8 2a 38 33 5c 47 bc
       -0.0188642 -0.022419425 4.0717587e-05 -0.012167978
0000b0 41 8b 87 bc 90 7c 16 bc 06 ad 8d bb 1c c0 3e bc
       -0.016545894 -0.009184971 -0.0043236045 -0.011642482
0000c0 a3 cb 37 3c b4 29 00 3c c2 3f dc bb 41 90 42 bc
       0.011217984 0.007822443 -0.0067214677 -0.011875213
0000d0 7b 36 00 bc c1 cd 43 3c 95 2a 9f 3b 69 01 40 bc
       -0.007825489 0.011950911 0.004857371 -0.011719086
0000e0 0a ad 3a bc 99 b8 d3 3c 98 db b7 bc 5e 96 e0 3b
       -0.011393795 0.025844859 -0.022443578 0.0068538627
0000f0 89 14 57 3c b7 b8 b6 3b 57 f2 8d b9 31 07 30 3c
       0.013127455 0.005576219 -0.00027074173 0.010743902
000100 7b 48 3f 3c df 05 1b 3b 45 20 c2 3c 9a 33 1e bb
       0.0116749955 0.0023654622 0.023697028 -0.0024139644
000110 a1 a3 60 bc f8 82 ae 3a e4 04 4b bc 1c bb c8 3b
       -0.013710887 0.0013314178 -0.012391303 0.006125821
000120 a8 f1 32 3b 81 1c 20 bc 27 d5 9a 3c 43 2e a2 3c
       0.0027304683 -0.009772421 0.018900467 0.01979745
000130 90 72 d9 ba 0f 2a 1f bc 59 b3 4f 3c 79 05 f5 ba
       -0.0016589928 -0.009714617 0.012677037 -0.0018693648
000140 06 64 2a bc 45 61 8c 3b 91 cc 8e bb 9f 37 a9 bc
       -0.010399824 0.0042840564 -0.0043578823 -0.020656405
000150 c1 0a 2e bc
       -0.010622681

running_mean f4 [85]
000000 2a d9 05 bc 93 27 4d 3c cd fe 0e 3c 50 4e 66 3c
       -0.008169452 0.012521642 0.008727741 0.014056757
000010 af f0 d7 bb 71 02 69 b9 f8 9f bb 3b c8 a2 34 bc
       -0.006589971 -0.00022221521 0.005725857 -0.011025138
000020 68 48 c8 3b b4 42 68 3b a6 32 15 bc 2c b8 2f 3c
       0.006112147 0.0035440149 -0.009106314 0.010725062
000030 d1 14 af 3c e1 c9 03 3c bc 72 52 bc b6 eb 11 3c
       0.02137223 0.008043737 -0.012844738 0.0089062955
000040 4a f9 83 bc 79 bc bb 3a 4e 3c 7c 3a d5 b7 c2 bb
       -0.016110081 0.0014323137 0.0009622023 -0.0059423246
000050 43 f6 87 bb 46 c4 81 3c cf cc 95 bb d0 ad fd ba
       -0.0041492297 0.01584066 -0.004571534 -0.0019354168
000060 db 25 31 3c 5a 54 6b bc 52 89 ce bb bc 9a b2 bb
       0.010812248 -0.014363373 -0.006302991 -0.0054505747
000070 35 63 37 3c 7e ab 05 3c e5 1e b6 3b 88 0c 83 3c
       0.011193086 0.008158563 0.005557882 0.015997186
000080 9d 2b 87 3c 6a c4 6d 3c 28 30 df 3c 42 0b 5b bc
       0.016500289 0.014512161 0.027244642 -0.013369383
000090 ba b0 dd bb 9e d6 a2 3b 4a 87 2a 3c 31 c4 9c 3b
       -0.006765452 0.004969432 0.010408232 0.00478413
0000a0 fb b0 1f bc db 3e 0a 3c da b7 55 3c 69 ae 3d 3c
       -0.009746785 0.0084378375 0.013044322 0.011577227
0000b0 4f 64 ad 3a 2d ca 77 3c a0 04 35 3c d1 76 66 39
       0.0013228747 0.015123886 0.011048466 0.00021978772
0000c0 2d ca f7 3b 7e 67 0b 3a 5e 8b 96 3b 15 31 b5 3a
       0.007561943 0.0005317851 0.0045942506 0.0013823832
0000d0 30 3a 79 3b ab d9 34 3c 98 14 9c 3b 08 c2 48 ba
       0.0038029067 0.011038224 0.004763197 -0.00076583074
0000e0 e1 f0 25 3c b2 6e ea ba ec 6a ab 3b ef be 71 3a
       0.010128231 -0.0017885773 0.005231252 0.0009221872
0000f0 29 89 43 3b 2a 6e b8 3b 6f 11 5a bb 84 32 77 3b
       0.0029836392 0.005628367 -0.0033274551 0.0037719319
000100 25 21 a8 3c ab 79 dc 3c be d9 0f 3b a4 e3 1c bc
       0.020523617 0.026913485 0.0021949853 -0.009575758
000110 fe 13 40 3c ca 68 7b 3c 1e 46 4b 3b 09 15 ae bc
       0.0117235165 0.015344808 0.0031017135 -0.021250265
000120 83 32 d5 3b 3b 01 9c ba 81 cf d8 bb cc 7f da 3b
       0.0065062656 -0.0011902222 -0.0066165333 0.0066680666
000130 45 c4 2c 3c e2 4b e0 b8 d2 b7 92 3c d4 9f 4c 3c
       0.010544841 -0.000106952866 0.017909918 0.012489278
000140 b0 fc 03 bc a8 e5 59 3b 3b 4f 8b 3c 07 68 42 bc
       -0.008055851 0.0033248458 0.017005553 -0.011865622
000150 ea 52 9c 3b
       0.0047706263

running_var f4 [85]
000000 71 96 0a 3b a1 a9 05 3d 8d f6 45 3c 0e fb 0b 3d
       0.00211468 0.032632474 0.012082708 0.03417497
000010 46 13 9e 3b a3 42 e3 3b 97 2c 53 3c b2 a5 68 3b
       0.004824075 0.006935434 0.012889049 0.0035499153
000020 ff 39 f5 3b 3a 34 0a 3c 76 52 a5 3c e8 d3 c1 3b
       0.0074837203 0.008435303 0.020180922 0.005915154
000030 1d 2b d0 3c a1 83 6d 3b a9 9f 8d 3b d0 1d 21 3d
       0.025411183 0.0036241787 0.0043220115 0.039335072
000040 1c cf a4 3b 7d 74 78 3b 01 e6 05 3c ab da 8a 3b
       0.005029572 0.003791123 0.008172513 0.004237493
000050 f2 47 5a 3b 6e 5b c4 3b 24 13 b5 3b 52 bc 16 3c
       0.0033307043 0.0059923446 0.0055259634 0.0092001725
000060 ac 19 51 3c e9 7e 8d 3b d8 49 b0 3a d7 a1 ed 3c
       0.012762468 0.0043181074 0.0013449742 0.029007835
000070 b9 65 5a 3c b8 f2 85 3c c2 c3 da 3c 66 08 a8 3c
       0.013329917 0.016351089 0.026704673 0.020511817
000080 a6 58 14 3c 28 f9 9a 3c a7 5a ed 3c c1 63 53 3b
       0.009054339 0.018917635 0.02897389 0.0032255503
000090 bb 6a e8 3b 75 f3 69 3b bd 68 c3 3b 77 ab cb 3a
       0.0070928014 0.003569809 0.0059634135 0.0015538771
0000a0 c7 32 8f 3b c7 bb 1b 3d 15 35 57 3c ac ef 0e 3c
       0.004370067 0.038020875 0.013135214 0.008724134
0000b0 89 93 3a 3b f0 ff c5 3b 94 4e ee 3c bb cc c1 3b
       0.0028469285 0.006042473 0.029090203 0.0059142984
0000c0 b6 ad 9a 3c ed 5b 41 3b bf b1 d7 3b dd bf 64 3b
       0.01888166 0.0029504255 0.0065824683 0.0034904398
0000d0 8e 84 d0 3b 9b 25 41 3c 78 a2 a6 3b dc 96 bc 3b
       0.006363458 0.011788751 0.0050852858 0.0057552885
0000e0 0f aa 3d 3d 34 59 98 3b eb cb d2 3b 70 42 91 3b
       0.04630476 0.0046493057 0.0064330003 0.004432969
0000f0 9c bb 97 3b 75 fd 82 3b 66 20 42 3c 9f d7 34 3a
       0.004630519 0.0039974996 0.011848545 0.0006898585
000100 62 1b b4 3c fc b4 ae 3c 0d 65 99 3b 01 00 42 3b
       0.021985713 0.021326534 0.0046812356 0.0029602053
000110 4f d9 85 3b 16 b9 b8 3c e0 e9 0a 3c 88 4d b9 3b
       0.004084743 0.022549193 0.008478612 0.0056549944
000120 46 f3 9c 3c c9 00 fa 3b e7 f7 6e 3b 07 4f 10 3c
       0.01915897 0.007629488 0.003646368 0.008807904
000130 e3 7b 76 3c a5 34 fd 3b 04 bc db 3c 69 64 44 3c
       0.015044185 0.007727223 0.026823051 0.01198683
000140 99 c3 07 3c ed c4 7c 3b 71 ad a0 3b 08 f9 e3 3a
       0.00828638 0.0038569525 0.0049034883 0.0017392943
000150 0c 6a 4f 3c
       0.012659561

weight f4 [32, 85]
000000 2a a7 4d bd 88 61 7e 3b 32 e0 a1 bc dd e1 1c bd
       -0.05020825 0.0038815457 -0.019760225 -0.038301338
000010 ad 7e 35 3d 9a 15 a3 bc 7b d4 29 3d 77 e6 ff ba
       0.04431026 -0.019907761 0.041462403 -0.001952364
000020 e2 5e 3b 3d f6 f3 23 bc 21 7c 26 3d c5 0e a1 3c
       0.045744784 -0.010006895 0.040645722 0.019660363
000030 ac e4 6e 3c bc ba 26 3d f4 58 57 3d c8 fe d8 bc
       0.014580887 0.040705428 0.052575067 -0.026488677
000040 ab 38 19 bd 44 59 83 3d 42 06 10 3d df 7a c7 bc
       -0.03740756 0.064135104 0.035162218 -0.024350582
000050 b7 a7 c8 bc 06 7a a0 bc c6 35 b4 bb 57 21 0e 3e
       -0.024494035 -0.019589435 -0.0054995744 0.13879906
000060 da 7c a9 bd 1d 07 8e bd a2 7b 27 bd 07 2c c7 bc
       -0.08275767 -0.069349505 -0.04088939 -0.024312986
000070 a1 c4 bb bc f6 85 2d 3d 8d 71 5f bd e5 5e 93 3d
       -0.022920908 0.042364083 -0.05455165 0.07195834
000080 67 4c 32 3d 7f 15 10 bd d9 7e 80 bd 29 b4 09 3e
       0.043529894 -0.03517675 -0.06274194 0.13447632
000090 c3 3e 44 3d 45 8c 02 3d 88 81 91 bd f5 87 79 bc
       0.047911417 0.031872053 -0.07104784 -0.015230169
0000a0 0f 8d 84 3d 57 60 11 bd 80 07 e0 bc 86 b0 1f 3c
       0.06472217 -0.035492267 -0.027347326 0.009746676
0000b0 93 55 8e 3d f3 ea 88 bc 85 3f d7 3c f0 c6 61 bd
       0.06949916 -0.016713595 0.026275406 -0.055121362
0000c0 b8 5d b0 3c 2b 19 88 3d 95 e0 8a 3d b8 1f 00 bd
       0.021529064 0.066454254 0.06781117 -0.03128025
0000d0 ff cf 93 bd 9a 4b 3b bc a8 fc 0c bc d6 00 97 3d
       -0.072174065 -0.011431599 -0.00860516 0.07373206
0000e0 6c 00 41 3b 2b f1 03 bd a2 ce 3e bd ab 02 8b bc
       0.0029449714 -0.032212418 -0.04658378 -0.016969046
0000f0 76 01 c4 3b 5b ee ce bc 11 61 da 3d 47 63 94 3d
       0.0059816195 -0.025260141 0.10663045 0.07245498
000100 dc 4b 3c 3d d6 f1 ac bc 6f 55 9e bd b9 8c 25 3e
       0.045970783 -0.02111141 -0.07731139 0.16166963
000110 f8 6b 90 bc e1 0d 70 3c 8f 27 0a 3d 81 31 99 3c
       -0.017629609 0.0146517465 0.033729132 0.018700363
000120 41 44 87 bc cb dd 37 bd 8a fc 33 3c 64 8b 30 3d
       -0.016512038 -0.044889253 0.010985503 0.043101683
000130 8d 55 54 bd 05 e1 3e 3d 9f 20 c6 bc 86 8a 89 bd
       -0.0518394 0.046601314 -0.024185477 -0.067158744
000140 a2 58 e8 3d e8 4d ae bc e4 0a 53 bc 62 9c de 3d
       0.1134503 -0.021277383 -0.0128810145 0.108696714
000150 2a 7e 85 bb 97 fa c6 bc 30 d6 bb 3d 55 09 eb bc
       -0.004073878 -0.024289412 0.091717124 -0.028690973
000160 08 19 4e bd bc 47 5b bc 7f 7f 99 3d 2c c4 85 3d
       -0.05031684 -0.013383802 0.07495021 0.065315574
000170 eb 44 bb 3d 84 d2 68 3d 16 66 6f bb e2 63 57 bd
       0.091440044 0.05684139 -0.0036529354 -0.05258549
000180 25 de 9b bc d4 e2 a1 3c 01 11 e1 3c 4a d9 a3 bc
       -0.019026825 0.01976148 0.027473928 -0.020001072
000190 6c cc 9c 3d cb 4c be 3d 6c ae 52 bd 7a 33 94 3c
       0.07656178 0.09291991 -0.051435873 0.018090952
0001a0 b6 63 38 bd 3c da 12 bd db ff cd bd b2 5d af 3d
       -0.045016967 -0.035852656 -0.10058566 0.08562793
0001b0 4c a7 7d 3d 47 69 2a bd 61 4c a6 3d 00 20 51 bd
       0.061927125 -0.041604307 0.08120037 -0.05105591
0001c0 64 65 34 3d a6 32 ba bd fb 1b 88 3d 62 0a 96 3d
       0.044042006 -0.09091692 0.06645962 0.07326199
0001d0 9c 7f d7 3d a6 b0 4c 3d df 71 fa 3c 3f 7d f4 3c
       0.105223864 0.049973153 0.030571876 0.029844878
0001e0 f7 50 3b bd 5f 07 57 3d 15 83 25 bd e2 4d 8b bd
       -0.04573151 0.052497264 -0.040408213 -0.06801964
0001f0 19 35 22 3c 4c cf 93 3c cc 5f ce 3d 22 c9 a0 3d
       0.009900355 0.018043183 0.100768656 0.07850863
000200 0c 5c 86 3d fd 4d 2f bd 1b fb 8f 3c 6d 5d 93 3d
       0.06560525 -0.042798985 0.017575791 0.07195554
000210 b9 a5 ba 3c 40 8c 7b 3c 1b 81 3d bd be 54 c9 bc
       0.0227841 0.015353262 -0.046265703 -0.024576541
000220 9e 13 fe bc fe 40 65 bd f1 b4 30 3c d6 34 3f bd
       -0.031015214 -0.055970185 0.010785327 -0.046681248
000230 06 52 4c 3c 89 28 f8 3d d1 29 34 bc 61 b8 d6 bc
       0.012470728 0.121171065 -0.010996298 -0.026210966
000240 ae 0c 9f bc 60 7b d1 bc f5 f6 47 3c 69 af 78 3d
       -0.019415226 -0.025571525 0.012204875 0.06071416
000250 f1 03 11 3c 2a 8b f6 bc 75 a2 54 bd 38 9b 0a 3d
       0.008851037 -0.030095655 -0.051912744 0.033839434
000260 de 6d 84 bd 74 98 6d 3d de d3 0f 3e bd aa b7 bc
       -0.06466268 0.05800672 0.14045665 -0.022420282
000270 bc 58 12 3d 71 73 a8 3d 63 85 f5 3c 08 9d aa 3d
       0.035729155 0.08225144 0.02997083 0.083307326
000280 83 b3 53 3d 87 b2 96 3d 75 d5 39 3d af e0 df bb
       0.051684868 0.0735827 0.045369584 -0.0068322043
000290 24 ae 73 3d 2f 67 a9 3c bf cf 7f 3d 73 04 1e bd
       0.059492245 0.020679085 0.06245398 -0.03857846
0002a0 62 07 36 bd be 3d 87 3d 96 44 dc 3d fc d8 fd bc
       -0.044440635 0.06603573 0.10755269 -0.030987255
0002b0 8f 35 6f bd de 4a 11 3d 7d a5 de 3c 16 6c 52 3d
       -0.058400687 0.03547179 0.02717852 0.05137261
0002c0 fb 84 3d bb 26 87 d3 3c 79 b6 c1 3d 7f 5d 3a bd
       -0.0028918374 0.02582128 0.09458632 -0.04549932
0002d0 62 57 7d bc 2b 12 25 3d 9e 33 01 bd 4a d8 bf 3c
       -0.015462728 0.04030053 -0.031543367 0.023418564
0002e0 5b 7e e8 3d 72 76 93 3d 91 ab 69 bc 75 59 42 3d
       0.113522254 0.07200326 -0.014262096 0.047448594
0002f0 d5 d5 82 3d 62 da 1b 3d 44 e8 21 bd e4 65 1a bd
       0.063884415 0.038050063 -0.039528146 -0.037694827
000300 e2 89 3a 3d 5e bc c9 3d 3f d9 e6 3c 0d b1 b9 bd
       0.04554165 0.09850381 0.028179763 -0.09066973
000310 15 c8 56 3d 21 25 b0 3d 9b 9b 1b 3d e6 5d 04 3d
       0.052436907 0.08600832 0.037990194 0.03231611
000320 e0 f8 21 bd b5 ef c0 3d f1 69 72 3d bf a2 ad 3d
       -0.039543986 0.094207205 0.059183065 0.08478307
000330 6c a4 54 bd fb 0a 28 3d cb a1 ed 3b ac 8c 1e 3b
       -0.051914617 0.041026097 0.0072519532 0.0024192734
000340 b7 92 d1 3c 5e 50 9c 3d cd cf d0 3d 30 46 11 3c
       0.025582654 0.07632516 0.10195885 0.008866832
000350 3c d7 95 3c a8 fc a0 bc 47 66 91 bb 17 e6 82 3d
       0.018291108 -0.019651726 -0.0044372412 0.063915424
000360 0f 32 38 bd c1 12 0d bc f2 2e ad bc e3 e5 94 3d
       -0.044969615 -0.008610428 -0.02114055 0.0727041
000370 67 b6 0a 3c 01 a1 50 3d f3 28 33 bd 09 0f 53 bd
       0.00846634 0.050934795 -0.043740224 -0.05152801
000380 2c 18 a0 bd 2a 9c 80 3d 10 17 d8 3d e3 07 e6 bc
       -0.078171104 0.06279786 0.10551274 -0.028079933
000390 ce ab e8 3c f8 b7 45 bd 6f 4b 26 3c e2 1a 3f bd
       0.028402235 -0.04827115 0.010149821 -0.046656497
0003a0 04 91 2b 3d 0f 8e e7 3b d0 8f 8d 3b 29 d9 c0 bd
       0.041886345 0.0070664953 0.0043201223 -0.0941642
0003b0 77 dd 09 3c 99 ba 29 3d 2d ae 9b 3c 1f f7 e9 bb
       0.008414618 0.04143772 0.019003952 -0.007140055
0003c0 09 23 a1 3c cc fe 2c 3d fa f7 95 bb 77 f2 21 3d
       0.019670026 0.04223518 -0.0045766803 0.039537873
0003d0 3a c0 b5 ba 01 2b ee bb 8f aa 16 3c 9f d1 be bc
       -0.0013866492 -0.00726831 0.009195938 -0.023293315
0003e0 15 14 54 bd 8f f9 2a ba 78 cb 02 bd 47 9c c2 bc
       -0.051776964 -0.00065221725 -0.031932324 -0.02375616
0003f0 36 67 c4 3c f2 4e 87 3d d2 db cb bc a3 a0 ec bc
       0.023974996 0.066068545 -0.024885092 -0.028885191

bias f4 [32]
000000 51 af 6c bc 92 2a 46 3d f5 63 95 bc 27 25 ac bd
       -0.014446096 0.048380442 -0.01823614 -0.08405524
000010 6c 3c 78 bd fd 84 39 3a 26 4d 6f 3d f0 d9 0e 3d
       -0.060604498 0.0007077007 0.058423184 0.03487581
000020 0e d6 bc bb af e6 e2 3c 37 20 59 bd 8d ae af bc
       -0.005762822 0.02769789 -0.053009238 -0.021445537
000030 70 ef 80 bd b6 6a 01 bc e4 cb 28 bd 78 f6 a1 ba
       -0.06295669 -0.007898977 -0.04121007 -0.0012356779
000040 bf 69 a6 bc 85 71 5c bd 42 61 62 bd 29 cc d3 bd
       -0.020314096 -0.0538192 -0.055268534 -0.10341675
000050 6d 61 c1 bd 8f b4 02 bd fe e6 64 3d 91 18 da bd
       -0.094424106 -0.031910475 0.055884354 -0.10649217
000060 03 49 0e 3c 5a 65 28 bd 70 4d bb 3c 2a ac 2d bd
       0.0086844 -0.04111228 0.022864074 -0.042400517
000070 eb 63 75 3d fd b9 22 bd 40 b0 e9 3b 06 a4 c3 bc
       0.059909742 -0.039728153 0.0071316063 -0.023881923

weight f4 [32]
000000 c1 1e ff bc c5 5e f0 3c ae b6 1d 3d 29 43 99 3d
       -0.031142594 0.029342065 0.038504295 0.07483513
000010 9e 74 93 3d d4 d9 57 3d b0 2a fe 3c f1 47 3e 3d
       0.07199977 0.05269797 0.031026214 0.046455327
000020 36 69 4f 3c c7 c0 e9 3c 61 8a 96 bc f6 0d 0e 3d
       0.012659362 0.028534306 -0.018376531 0.034681283
000030 7f 91 19 3c d5 30 a7 3c f8 38 a4 bb 7c c3 2a 3d
       0.009373068 0.020409027 -0.005011674 0.041690335
000040 be 3a 10 3d ec 6a 97 3b d3 bf ea bc 8a d2 8d bb
       0.03521227 0.0046209004 -0.028655922 -0.0043280767
000050 9f b3 92 3b 8b 56 12 bb 57 59 bb 3c 77 ac dd 3b
       0.004476979 -0.0022329416 0.022869749 0.006764944
000060 91 d0 a5 3c 53 a5 b3 bb 6b 4d eb 3c 27 17 62 3d
       0.020241054 -0.0054823547 0.02872344 0.05519786
000070 ab cf 1a 3d a6 73 73 3d ad ce 0d 3d cb e3 06 3c
       0.037795704 0.059436463 0.03462093 0.008233021

bias f4 [32]
000000 60 a4 10 bf 57 7e 13 bf b9 a7 10 3f fe b0 0f 3f
       -0.56500816 -0.57614654 0.56505924 0.56129444
000010 86 1e 11 3f 77 08 11 bf a2 95 18 bf c0 2e 15 bf
       0.566872 -0.5665354 -0.5960332 -0.5827446
000020 30 01 11 bf d7 03 10 bf fd 39 14 bf f0 e1 0e bf
       -0.56642437 -0.5625586 -0.57900983 -0.55813503
000030 73 72 1a 3f 2f 7b 0f 3f 67 a7 15 bf 46 5c 0f 3f
       0.60330886 0.5604734 -0.5845856 0.56000173
000040 5d f7 1c 3f 62 d1 1c bf 8f 78 10 bf 9c ee 14 3f
       0.61314946 -0.6125699 -0.5643396 0.5817659
000050 7d 8c 0f 3f a7 85 1f 3f 4d b0 1a bf 8d 0e 1b 3f
       0.56073743 0.6231331 -0.60425264 0.6056908
000060 fb 8f 0e bf 7d 7f 0e 3f 3e d7 10 bf 29 c5 10 bf
       -0.55688447 0.5566328 -0.56578434 -0.5655084
000070 8e ec 16 bf 85 2f 1d bf 69 4c 16 bf 01 84 0f 3f
       -0.58954704 -0.61400634 -0.5871034 0.56060797

running_mean f4 [32]
000000 d5 60 0b 3d e6 34 92 3d 6e c9 2a 3d d5 b4 d6 3b
       0.034027893 0.07138996 0.041696005 0.0065523186
000010 5b 9f 2d 3c 97 75 05 3d d8 29 c3 3d e8 7c 82 3d
       0.010597075 0.032582846 0.095294654 0.0637148
000020 98 bb 84 3d 66 34 f5 3d c8 01 27 bc 8f 85 26 3d
       0.06481093 0.11972885 -0.010193296 0.040654715
000030 f5 f3 8a 3d ab 78 2a 3d a9 0e 7b 3c c6 db 8f 3d
       0.06784812 0.041618984 0.0153233195 0.0702434
000040 48 5d f6 3c 45 58 2b bc c1 ca 9e 3b 5c 2e f3 3c
       0.030073777 -0.010458057 0.0048459475 0.029685192
000050 99 70 1b 3b fc 8f 16 3d aa c1 e4 3d 14 31 38 3c
       0.0023718236 0.036758408 0.11169751 0.01124217
000060 b2 73 a6 3d 7a 7e 57 3d c0 0d b0 3d 5e 08 07 bb
       0.08127536 0.05261085 0.085963726 -0.0020604352
000070 ad 20 8b 3d 90 e5 2d 3c 2d bd 96 3d f8 d1 47 3d
       0.06793342 0.010613814 0.07360301 0.048784226

running_var f4 [32]
000000 7b 0e 41 3d 44 a2 06 3e ac 9a 9b 3d 14 58 07 3d
       0.04713295 0.13147837 0.07597861 0.033042982
000010 c0 1b ee 3c af 96 f5 3c bb f1 e5 3d fa 78 30 3d
       0.029065967 0.029979078 0.11227747 0.043084122
000020 65 59 48 3e 5e 09 3d 3e 4f 89 af 3c db 0e 8b 3d
       0.19565351 0.18460605 0.021427779 0.06789943
000030 20 4b 93 3e fb 51 de 3d de d7 aa 3d 8a 17 c5 3d
       0.28768253 0.1085548 0.08341955 0.0962363
000040 fe 88 26 3d 87 50 d3 3c 08 ad 19 3d 51 10 22 3e
       0.04065799 0.025795234 0.03751853 0.15826537
000050 ba 91 ed 3d 5d 8b 06 3e 41 4a 1e 3e 7b d6 35 3e
       0.11600061 0.131391 0.15458013 0.17757599
000060 05 f6 22 3e 7e f4 26 3e fb 27 05 3e 67 3a 24 3c
       0.15914162 0.16304204 0.13003533 0.01002369
000070 0b 63 18 3d 1a a9 76 3c 47 ad d7 3d 8a e1 33 3e
       0.03720383 0.015054965 0.10531097 0.17566505

weight f4 [1, 32]
000000 de 81 1c bf 38 21 18 bf fd 11 1a 3f 5a e4 1f 3f
       -0.6113566 -0.5942569 0.601837 0.6245781
000010 96 a0 1b 3f 9f af 1b bf 4d e6 19 bf fe 86 19 bf
       0.6079191 -0.6081485 -0.60117036 -0.59971607
000020 55 46 18 bf 60 a1 19 bf 7d 13 1a bf 3d f6 1a bf
       -0.5948232 -0.60011864 -0.60185987 -0.6053198
000030 e3 85 16 3f b0 60 19 3f e6 fb 19 bf 68 21 19 3f
       0.58798045 0.5991316 -0.6014999 0.598166
000040 01 a5 1c 3f 9d f5 1a bf df 10 1d bf bc 8b 15 3f
       0.61189276 -0.60531026 -0.6135387 0.5841634
000050 c4 ef 1c 3f 49 ca 17 3f 92 fc 19 bf 63 ee 17 3f
       0.61303353 0.5929304 -0.60151017 0.59348124
000060 75 fc 1e bf 77 85 1a 3f e2 28 18 bf d5 bf 1d bf
       -0.6210397 0.603599 -0.5943738 -0.6162084
000070 68 19 1a bf d6 f9 1e bf 32 28 19 bf fb 17 19 3f
       -0.60195017 -0.6209997 -0.5982696 0.59802216
